saved_agents/dm_hopper_a_v2.pth (torch, 158593 bytes, 12 tensors)

actor_logstd f4 [1, 4]
0	0xbf64457e	-0.89168537
1	0xbf4a1985	-0.7894519
2	0xbf4177c9	-0.755734
3	0xbf371247	-0.71512264

critic.0.weight f4 [128, 17]
0	0x3d4b7a9d	0.04967748
1	0x3e551633	0.2080925
2	0xbee9e377	-0.45681354
3	0x3d3aecb3	0.04563589
4	0x3d6f8b8f	0.058482703
5	0xbe0b350b	-0.13594453
6	0x3c416b53	0.011805373
7	0xbbde0bb2	-0.0067762965
8	0xbe5ecb38	-0.2175721
9	0xbd9bcae8	-0.07607061
10	0x3e030a22	0.12796834
11	0x3d997b7e	0.074942574
12	0x3d08a614	0.03336151
13	0x3cb0d679	0.021586644
14	0x3b9dfd0c	0.0048214253
15	0x3ea4a131	0.3215423
16	0xbf1d42f4	-0.6143029
17	0xbe4c56be	-0.19954965
18	0x3d014ac6	0.03156545
19	0x3ea4e760	0.32207775
20	0x3de2e800	0.11079407
21	0x3b254010	0.0025215186
22	0xbf0a61f8	-0.5405574
23	0xbc83784a	-0.01604857
24	0x3d3ee4b4	0.046604827
25	0x3e0dfb41	0.13865377
26	0x3d80da7a	0.06291671
27	0x3d88102c	0.066437095
28	0x3c673188	0.01411093
29	0xbbba5d64	-0.0056874026
30	0x3cb8862f	0.022524921
31	0x3c833c83	0.016020065
32	0xbd8eec3e	-0.06978653
33	0x3ebc2bf3	0.3675228
34	0xbe2f53af	-0.17121767
35	0x3dad4b59	0.08461637
36	0x3d3dcbb3	0.04633684
37	0x3e243eca	0.16039577
38	0x3c4cde80	0.01250422
39	0x3dfc8af6	0.12331192
40	0xbca67d0d	-0.0203233
41	0x3d4217f2	0.047386117
42	0xbdaa27a9	-0.08308346
43	0xbe499c65	-0.19688566
44	0xbcda8d92	-0.026678834
45	0xbd6d0529	-0.05786625
46	0xbc93e1ff	-0.0180521
47	0x3d012630	0.03153056
48	0x3d5850d5	0.052811462
49	0xbf164516	-0.58699167
50	0x3ef1102a	0.47082645
51	0xbd92e0cb	-0.07171782
52	0x3dd0c917	0.10194605
53	0xbde56a86	-0.11201958
54	0x3e96b3d2	0.29434067
55	0x3e857e1d	0.2607278
56	0x3dbcef31	0.0922531
57	0xbdd73b04	-0.10509303
58	0x3dafffd0	0.08593714
59	0xbd95cc9e	-0.07314418
60	0xbed3f2b5	-0.41396108
61	0xbe1876cd	-0.14889069
62	0xbded335c	-0.11582062
63	0x3d4f84b2	0.050663657
64	0x3dd2cc5a	0.10292883
65	0xbe8ade0f	-0.27122542
66	0x3f06233b	0.5239751
67	0xbe45010a	-0.19238678
68	0x3d9faaeb	0.07796272
69	0xbe81ff6d	-0.25390187
70	0x3ee63524	0.44962418
71	0x3d7289f7	0.059213605
72	0x3db8ecb5	0.09029523
73	0x3cbe3cf6	0.023222428
74	0xbe03ece7	-0.1288334
75	0xbdbcab99	-0.09212417
76	0xbea6e6f0	-0.32598066
77	0xbe77bb4e	-0.24192545
78	0xbdc978b0	-0.098374724
79	0x3de8ab82	0.113608375
80	0x3e83c793	0.257382
81	0xbc84cf5b	-0.016212156
82	0xbe9eadad	-0.3099188
83	0xbe9071ce	-0.28211826
84	0x3e8ccafc	0.27498615
85	0x3d8908c1	0.06691123
86	0xbd3ab56c	-0.045583174
87	0xbe33da58	-0.1756376
88	0xbcd5885c	-0.026065998
89	0x3c3c4738	0.011491589
90	0xbed8c1c8	-0.42335343
91	0xbdc24187	-0.094851546
92	0xbd0be33b	-0.03415225
93	0xbc73ba7f	-0.014876007
94	0x3e007c9b	0.12547533
95	0x3d8cf1dd	0.06882069
96	0x3d908457	0.07056492
97	0x3db4225c	0.08795616
98	0x3da9da9f	0.08293652
99	0x3e35be3e	0.17748353
100	0xbf0ac167	-0.5420136
101	0x3eb3317a	0.34998685
102	0x3ce1e61f	0.02757555
103	0x3db99d0d	0.09063158
104	0xbd3aae5e	-0.045576446
105	0xbd95bd41	-0.07311488
106	0x3e7dc155	0.24780782
107	0x3dbe9ffa	0.09307857
108	0xbe5f2aeb	-0.21793716
109	0x3d882064	0.06646803
110	0x3e9959b3	0.29951248
111	0xbdccecb1	-0.10006083
112	0xbd1ded18	-0.03855619
113	0xbdd22d8f	-0.10262596
114	0xbd332a5d	-0.043741573
115	0xbcc56ccb	-0.024099728
116	0xbbe5756d	-0.0070025236
117	0x3d2e06da	0.042487003
118	0x3f01f1a5	0.50759345
119	0x3daa0c9f	0.083031885
120	0x3df54b4f	0.119772546
121	0xbf065351	-0.5247088
122	0xbc844e4d	-0.016150618
123	0x3e8d2c26	0.27572745
124	0x3dd4862b	0.10377153
125	0xbe1b35a3	-0.1515718
126	0xbd02cd57	-0.03193411
127	0xbd8f5000	-0.06997681
128	0x3cbb3ba6	0.022855591
129	0xbe98d1ac	-0.29847467
130	0x3e03a982	0.12857631
131	0xbd75928d	-0.059954215
132	0x3c4027d7	0.011728249
133	0x3dcd62f4	0.100286394
134	0xbed2acb1	-0.41147378
135	0xbe8b0286	-0.27150363
136	0xbe9563f8	-0.29177833
137	0x3e19d45f	0.1502242
138	0xbc468829	-0.012117424
139	0x3dcb7cc3	0.09935906
140	0xbe3a1c13	-0.18174772
141	0x3b37c54a	0.0028041177
142	0x3cdaf77b	0.026729336
143	0x3debcf7c	0.11514184
144	0xbd534500	-0.051579475
145	0xbea1656b	-0.31522688
146	0xbd9d2fb1	-0.07675112
147	0x3db7e077	0.0897836
148	0x3e3c6213	0.18396787
149	0xbd8e9abe	-0.069631085
150	0xbb0da8ca	-0.0021615499
151	0x3f1e3621	0.61801344
152	0xbe62e5ed	-0.22158022
153	0xbe35199d	-0.17685552
154	0x3de90f0c	0.11379823
155	0x3d86c285	0.065800704
156	0x3e569bbd	0.20957847
157	0xbd413768	-0.04717198
158	0xbe5ee8e8	-0.21768534
159	0x3d836ab5	0.06416837
160	0x3c258240	0.010101855
161	0xbdc49081	-0.095978744
162	0xbd74f197	-0.05980071
163	0xbd49a95b	-0.049233776
164	0x3d8c53b4	0.068519026
165	0x3deae8b3	0.11470165
166	0xbc00be31	-0.007857845
167	0x3c753d07	0.014968163
168	0x3ea29abd	0.3175868
169	0xbecf66e2	-0.4050818
170	0x3d4a70ec	0.049424097
171	0x3c46bd53	0.012130099
172	0xbea62fd7	-0.32458374
173	0xbcf9e6ae	-0.030505504
174	0x3d6d7723	0.057974946
175	0xbeb19321	-0.34682563
176	0xbc9a0def	-0.018805472
177	0xbdf5cc58	-0.12001866
178	0x3dc01a7e	0.09380053
179	0x3d7ea045	0.062164564
180	0x3d95a32b	0.073065124
181	0xbb86ba02	-0.0041115293
182	0x3d4ba243	0.04971529
183	0xbe10176a	-0.14071432
184	0xbcb010e1	-0.021492423
185	0xbe148075	-0.14502127
186	0x3ec7568e	0.38933223
187	0xbe6fdab7	-0.23423277
188	0xbdafbc18	-0.08580798
189	0xbe23b49e	-0.15986869
190	0xbddbdf76	-0.10735981
191	0xbdd7bd41	-0.10534144
192	0xbd1b77ba	-0.037955977
193	0xbda31fd1	-0.07965053
194	0xbe0fed5b	-0.14055388
195	0xbdc0c5d9	-0.094127364
196	0x3e528acc	0.2056076
197	0xbdfc0ba3	-0.12306907
198	0xbcaedecb	-0.02134647
199	0x3a284979	0.00064196397
200	0xbca833c3	-0.020532494
201	0xbb5cc46e	-0.0033686417
202	0x3ece3532	0.4027496
203	0xbec48f51	-0.38390592
204	0x3e1cb319	0.15302695
205	0x3d132c91	0.035931174
206	0xbe118fdc	-0.14215034
207	0x3d12da69	0.035852823
208	0x3d465384	0.04841949
209	0x3db797a4	0.0896447
210	0xbe4a5b6b	-0.19761436
211	0xbd73f750	-0.059562027
212	0x3c885233	0.016640758
213	0xbddc21c1	-0.107486255
214	0xbd228cca	-0.03968505
215	0xbd04cf4e	-0.032424264
216	0xbd23182f	-0.039817985
217	0xbca1d302	-0.019753937
218	0xbe50d3fa	-0.20393363
219	0xbebd2acc	-0.36946714
220	0x3edda2cc	0.43288267
221	0x3b68f001	0.0035543444
222	0xbe045ec9	-0.12926783
223	0xbe1c6770	-0.15273833
224	0xbdd7174c	-0.105024904
225	0xbe4ac8de	-0.19803187
226	0xbeb9f19b	-0.36317143
227	0x3dbd1d8c	0.09234151
228	0xbd7f4772	-0.062323995
229	0x3d983e91	0.074338086
230	0xbd1ef991	-0.038812224
231	0x3da84882	0.08216955
232	0x3c8a025e	0.016846832
233	0xbc29bd72	-0.010360109
234	0x3c51961f	0.012792139
235	0xbe5a8f34	-0.2134369
236	0xbf109f58	-0.5649314
237	0x3e711953	0.23544817
238	0x3b07ffdf	0.0020751876
239	0xbe34d9ae	-0.17661163
240	0xbe54b5ef	-0.20772527
241	0x3de744d3	0.11292424
242	0xbead533e	-0.3385257
243	0x3e7c674c	0.2464878
244	0xbd7d519f	-0.061845418
245	0xbd11bc9f	-0.035580274
246	0x3da5c43a	0.08094068
247	0xbd1796e6	-0.037009142
248	0xbca30368	-0.019899085
249	0xbd27eacc	-0.040995404
250	0xbd969abf	-0.07353734
251	0xbd338041	-0.043823484
252	0xbd7ffe3d	-0.06249832
253	0x3f40ef29	0.7536493
254	0xbe836a1b	-0.2566689
255	0x3e3bf3d0	0.18354726

critic.0.bias f4 [128]
0	0xbdc759bb	-0.097339116
1	0x3e388dd6	0.18022856
2	0x3d1e45c8	0.038640767
3	0x3cf4fb10	0.029904872
4	0xbda309a3	-0.079608224
5	0xbab01dca	-0.0013436612
6	0x3e61f185	0.22064789
7	0xbe92b55a	-0.28653985
8	0x3e0cc2c3	0.1374617
9	0x3c59d47d	0.01329529
10	0x3d8f2f12	0.069914
11	0xbd8b9153	-0.06814828
12	0xbae2f07c	-0.0017314102
13	0xbde506be	-0.111829266
14	0xbcff86c5	-0.031192193
15	0x3d78508f	0.0606237
16	0xbe197ae0	-0.1498828
17	0xbe62a317	-0.22132526
18	0x3d71ca95	0.059031088
19	0xbe215c7f	-0.1575794
20	0x3e19665d	0.14980455
21	0x3e6376fe	0.2221336
22	0x3eb19e2f	0.34690997
23	0x3d411c85	0.04714634
24	0xbdfd3642	-0.123638645
25	0x3e101afe	0.14072797
26	0x3d56294d	0.05228548
27	0x3dc2f8a4	0.09520081
28	0xbec65e06	-0.3874361
29	0x3c691a34	0.014227439
30	0xbde9b87c	-0.11412141
31	0xbaf8d058	-0.001898299
32	0x3e1f7d40	0.15575123
33	0xbdebf7d7	-0.11521881
34	0x3de7befd	0.11315725
35	0xbce6e9f4	-0.02818773
36	0x3ecb13bc	0.39663494
37	0xbd86bc2c	-0.0657886
38	0xbe5962dd	-0.2122912
39	0x3e9e6b45	0.30941215
40	0x3e2cbce6	0.16868934
41	0x3e49f2a9	0.19721474
42	0xbcc87d1c	-0.02447372
43	0x3e2164d0	0.15761113
44	0x3c41baf0	0.0118243545
45	0x3e3aa2dc	0.18226188
46	0xbc1c6828	-0.009546317
47	0x3e518f2a	0.20464769
48	0x3e143f97	0.14477383
49	0x3dcf1caf	0.10112893
50	0x3e7e2b28	0.2482115
51	0x3e8b0243	0.27150163
52	0x3ec838fc	0.39105976
53	0xbd808428	-0.06275207
54	0xbe5f01ac	-0.21777982
55	0x3e89596a	0.2682603
56	0x3e31ce3e	0.17363831
57	0x3eaab6af	0.33342502
58	0x3e67f640	0.2265253
59	0xbee5d3a7	-0.4488804
60	0x3da6f759	0.081526466
61	0x3cb6adb7	0.02229963
62	0xbddd68d3	-0.10811009
63	0xbe3e7443	-0.18599038
64	0x3dbb5d25	0.09148625
65	0x3e13f77e	0.1444988
66	0xbe1e9167	-0.15485154
67	0xbe129687	-0.14315234
68	0x3dab5dbc	0.08367488
69	0xbddaa2dc	-0.10675594
70	0xbd88a564	-0.06672171
71	0xbde07909	-0.109605856
72	0x3da44a81	0.08022023
73	0x3d8e3c8e	0.06945144
74	0xbe3cbd48	-0.1843158
75	0xbe383836	-0.17990193
76	0x3ddf8c5e	0.10915445
77	0x3d6dad6d	0.05802672
78	0x3d927d3e	0.07152794
79	0xbdcdddba	-0.100520566
80	0x3e21f7d7	0.158172
81	0xbcb6ccca	-0.022314448
82	0xbd7a8bb7	-0.0611684
83	0xbe4b5b88	-0.19859135
84	0xbd6f70a8	-0.058457047
85	0xbe42919a	-0.19000855
86	0xbdbdb46c	-0.09262928
87	0xbebec218	-0.37257457
88	0xbdae9296	-0.08524053
89	0xbe9b157b	-0.30289826
90	0xbe10e27a	-0.14148894
91	0xbd741624	-0.059591427
92	0xbe899582	-0.26871878
93	0xbd450b53	-0.048106503
94	0xbd874660	-0.0660522
95	0x3eb3c43f	0.3511066
96	0x3d26d032	0.040725894
97	0xbe9ac47c	-0.3022803
98	0xbe0c0bd2	-0.13676384
99	0x3dad10fc	0.08450505
100	0x3e101318	0.14069784
101	0xbcf81d8b	-0.030287525
102	0xbe95c288	-0.29249978
103	0x3e0a3885	0.13498123
104	0xbe297529	-0.165486
105	0xbd6b3aea	-0.05742923
106	0x3ed5aa38	0.4173143
107	0xbd6592f8	-0.056048363
108	0xbd4bbaa9	-0.04973856
109	0x3e1a8b62	0.15092233
110	0xbe5b4af9	-0.21415319
111	0xbdd7d6f0	-0.10539043
112	0x3d0d557f	0.034505364
113	0x3d5d4666	0.054022215
114	0xbc9f3634	-0.019435026
115	0xbcb9562d	-0.0226241
116	0x3e660174	0.22461492
117	0x3ed3b78a	0.41350967
118	0xbe5818e2	-0.21103242
119	0x3d8ce6a7	0.06879931
120	0xbdb4484e	-0.088028535
121	0xbe5edf04	-0.21764761
122	0xbc969665	-0.01838226
123	0x3cafc878	0.021457896
124	0xbe16247e	-0.14662358
125	0x3e1d4728	0.15359175
126	0x3e64b5d7	0.22334991
127	0xbcb9d100	-0.022682667

critic.2.weight f4 [128, 128]
0	0x3e9b1e42	0.30296522
1	0xbe7558e0	-0.23959684
2	0x3e602f46	0.21893033
3	0xbdd67dbb	-0.104732
4	0xbe3553e7	-0.17707787
5	0x3e4d1949	0.20029177
6	0x3bc84d56	0.006112735
7	0x3e689551	0.2271321
8	0x3b76838a	0.0037615024
9	0x3dc22520	0.09479737
10	0xbd8cfe38	-0.06884426
11	0xbd52fe94	-0.051512316
12	0xbdffd570	-0.12491882
13	0x3d5a9898	0.05336818
14	0x3cd5bb29	0.026090221
15	0xbeb80b6b	-0.3594621
16	0x3e7fe1fa	0.24988547
17	0x3eaced1d	0.33774653
18	0xbdfa922c	-0.12234911
19	0x3d382d46	0.04496505
20	0xbcf8e229	-0.030381279
21	0xbc80f145	-0.015740046
22	0xbdcf57c7	-0.10124164
23	0x3c7de8c6	0.015497392
24	0x3e7bb1eb	0.24579589
25	0x3dee23de	0.11627935
26	0xbe0d19e9	-0.13779415
27	0x3e0992a6	0.13434848
28	0x3ea90d7d	0.33018103
29	0xbdb44cbe	-0.088037
30	0x3ea02471	0.31277803
31	0x3dfe8c44	0.12429097
32	0xbe1e188c	-0.15439051
33	0x3de6ea03	0.11275103
34	0xbe851c9b	-0.25998387
35	0x3d85108c	0.06497297
36	0xbdcec290	-0.100957036
37	0x3d824225	0.06360272
38	0x3e1b1233	0.15143661
39	0xbf01628b	-0.5054099
40	0x3d689a23	0.05678762
41	0x3d32be7d	0.043638695
42	0xbe579639	-0.21053399
43	0xbe364ae5	-0.17802007
44	0x3dcc3fc4	0.099731
45	0xbe155478	-0.14583004
46	0x3e873abc	0.26411998
47	0xbdbbe2d6	-0.09174125
48	0xbe145e6c	-0.14489144
49	0x3d4c0421	0.049808625
50	0xbe81e24f	-0.25367972
51	0xbb184fc2	-0.0023240899
52	0xbde15e89	-0.11004359
53	0xbe5684af	-0.20949052
54	0xbe0cddda	-0.13756505
55	0xbe0da906	-0.13834009
56	0x3c52e516	0.012872001
57	0xbeec9b7f	-0.46212384
58	0xbe17b42a	-0.14814821
59	0x3f1208f4	0.5704491
60	0xbe701610	-0.23445916
61	0xbc985587	-0.01859547
62	0xbddc99ee	-0.10771547
63	0xbdfb4bfd	-0.12270353
64	0x3cbc27e5	0.022968242
65	0xbe2dd58a	-0.1697599
66	0x3da52807	0.08064275
67	0x3ec0dd5d	0.37668887
68	0xbe01ea83	-0.12687115
69	0xbc35adab	-0.011088769
70	0x3d9fcfaa	0.07803281
71	0xbc4422d9	-0.011971199
72	0x3e27cea0	0.16387415
73	0xbe837431	-0.25674585
74	0x3d6b5b78	0.05746028
75	0x3e258825	0.16165216
76	0x3c39e13e	0.011345206
77	0xbcc0c37d	-0.023530716
78	0x3e4b19b2	0.1983402
79	0x3e7b5257	0.24543129
80	0xbea8feba	-0.3300684
81	0x3d930b12	0.07179846
82	0xbe341b60	-0.17588568
83	0x3e8c4e85	0.27403656
84	0x3dd1e986	0.10249619
85	0x3d13bf89	0.036071334
86	0x3dc273cb	0.09494742
87	0x3eac3751	0.33635953
88	0xbd6a0c97	-0.057140913
89	0x3cee6772	0.029102061
90	0xbe93549f	-0.28775498
91	0x3d1afa9c	0.037836656
92	0x3da20ee9	0.07913
93	0x3cbfd262	0.023415748
94	0x3ead63d8	0.33865237
95	0xbee148a5	-0.44000736
96	0xbe5e4254	-0.2170499
97	0x3d88cff4	0.06680289
98	0x3e07fc83	0.1327992
99	0xbbc84dcd	-0.00611279
100	0x3da66186	0.0812407
101	0x3e3833b2	0.1798847
102	0x3eb23168	0.3480332
103	0xbdc88e28	-0.09792739
104	0xbd332e09	-0.043745074
105	0x3e1efe76	0.15526757
106	0xbe0ab23b	-0.13544552
107	0x3b971915	0.0046111443
108	0x3df35df7	0.11883157
109	0xbdb9ad08	-0.09066206
110	0x3d71e990	0.059060633
111	0x3d0cf75d	0.03441559
112	0xbe91507c	-0.28381717
113	0x3cfed17d	0.031105751
114	0x3c4c6fd0	0.01247783
115	0xbe39f444	-0.18159586
116	0xbed1417e	-0.4087028
117	0x3e31cc06	0.17362985
118	0x3dff9d65	0.124811925
119	0xbe56f8e1	-0.20993377
120	0xbd464fa9	-0.048415814
121	0x3d6cb994	0.05779417
122	0x3dcc3307	0.0997067
123	0x3e51acbb	0.20476048
124	0x3d88eb5d	0.06685517
125	0xbe91ca73	-0.2847477
126	0xbcdd51be	-0.027016517
127	0x3d47739e	0.048694246
128	0x3e565074	0.20929128
129	0xbe23bfee	-0.15991184
130	0x3d783d8d	0.060605574
131	0xbe966285	-0.2937204
132	0xbe1423ff	-0.14466856
133	0x3e3fc78c	0.18728465
134	0xbe744233	-0.23853378
135	0x3d566f47	0.052352216
136	0x3d380f62	0.044936545
137	0xbe97620f	-0.29567
138	0xbe952872	-0.2913242
139	0x3d68bc6c	0.056820318
140	0xbd990ba4	-0.074729234
141	0x3e687d4b	0.22704045
142	0x3e0dcd55	0.13847859
143	0xbd46db05	-0.048548717
144	0x3d8b075f	0.06788515
145	0x3e33b440	0.17549229
146	0xbe4d2dcc	-0.20037001
147	0x3e68e643	0.22744088
148	0xbc65fe05	-0.014037614
149	0xbc459338	-0.0120590255
150	0xbdfc719f	-0.12326359
151	0x3c9d0b4a	0.019170422
152	0x3db9e7f9	0.090774484
153	0xbe173c87	-0.14769183
154	0x3dfb0889	0.12257487
155	0xbd955a4d	-0.07292614
156	0x3e717b31	0.2358215
157	0x3dd351c2	0.103183284
158	0x3daacdb5	0.08340017
159	0xbbdba47d	-0.006702958
160	0xbcd1b9aa	-0.025601227
161	0x3e8d851c	0.27640617
162	0xbe8bf84b	-0.2733787
163	0x3d87b75e	0.066267714
164	0xbeea94b4	-0.45816576
165	0xbc85b482	-0.016321424
166	0x3e8383d5	0.25686517
167	0xbe8b455d	-0.27201357
168	0xbd870f29	-0.065946884
169	0x3c95eb97	0.018300815
170	0xbda579c3	-0.08079865
171	0xbe57a6d5	-0.21059735
172	0xbd323128	-0.04350391
173	0xbe185361	-0.14875557
174	0x3e94f0f7	0.29090092
175	0xbea84a2b	-0.32869086
176	0xbe0252a9	-0.12726845
177	0xbd72e1a9	-0.059297238
178	0xbead4475	-0.3384129
179	0xbdc5ae25	-0.09652356
180	0xbe0daf69	-0.13836445
181	0xbe00c5b5	-0.12575419
182	0x3dc4d063	0.09610059
183	0xbd319699	-0.04335651
184	0x3e0bbc03	0.1364594
185	0xbdf18f00	-0.11794853
186	0xbe41c468	-0.1892258
187	0x3d2ab6d1	0.041678254
188	0xbdc7d291	-0.09756959
189	0x3c761c5e	0.015021412
190	0x3d804645	0.06263403
191	0xbc75f869	-0.015012839
192	0xbd9f5f19	-0.0778181
193	0xbe83d0b0	-0.25745153
194	0xbdd31c48	-0.103081286
195	0x3e9f2945	0.31086174
196	0x3db5f320	0.08884263
197	0xbd774a68	-0.060373694
198	0x3ccc81ca	0.024964232
199	0x3e440b43	0.19144921
200	0xbdc23369	-0.09482462
201	0xbe5f10cb	-0.2178375
202	0xbe1434fa	-0.14473334
203	0x3eb2fe8a	0.34959823
204	0x3dd74f93	0.105132245
205	0x3dc76e75	0.09737865
206	0xbe19beff	-0.15014265
207	0x3ee8b66f	0.45451686
208	0xbe852287	-0.26002905
209	0xbe18ad5a	-0.14909878
210	0xbd68605a	-0.056732513
211	0x3d077145	0.033067007
212	0x3d826996	0.06367795
213	0xbe11f309	-0.14252867
214	0x3ed635bd	0.41837874
215	0x3e364d6d	0.17802973
216	0xbd1535aa	-0.03642813
217	0x3eb29bd1	0.34884503
218	0x3d916877	0.07100003
219	0xbdd090a2	-0.101838365
220	0x3bff72d2	0.00779567
221	0x3e086378	0.13319194
222	0x3db0e505	0.08637432
223	0xbdd344f2	-0.10315885
224	0x3e77cfc1	0.24200346
225	0x3e82e8be	0.25568193
226	0x3e3f11ac	0.18659085
227	0xbe31c115	-0.17358811
228	0xbd83a1a7	-0.06427317
229	0x3e9aad79	0.30210474
230	0x3e982ca0	0.29721546
231	0x3d5f153a	0.054463603
232	0x3f09e9c5	0.5387233
233	0xbab12d35	-0.0013517501
234	0xbe4d9fa1	-0.20080425
235	0x3e6b9716	0.23006853
236	0x3e19a04d	0.15002556
237	0xbe87e005	-0.265381
238	0xbe80e8fd	-0.25177756
239	0x3d18a4e9	0.037266646
240	0xbe3c07df	-0.18362378
241	0xbea61808	-0.3244021
242	0xbe40de6d	-0.18834849
243	0x3c60096f	0.013674124
244	0xbeb45e2e	-0.35228103
245	0xbed76bd2	-0.42074448
246	0x3e85087f	0.25983045
247	0xbdc4827b	-0.095952
248	0x3dafa254	0.085758835
249	0x3eb9261c	0.36161888
250	0xbe5ceeaf	-0.21575426
251	0x3e63c0c4	0.22241503
252	0x3e9cb81d	0.30609217
253	0xbe2fd279	-0.17170133
254	0x3ca64873	0.020298218
255	0x3e2bba0b	0.16770189

critic.2.bias f4 [128]
0	0xbe785c7b	-0.24254028
1	0xbe7b7246	-0.2455531
2	0x3d671cf9	0.056424115
3	0x3e0ac39d	0.13551183
4	0xbe840fbf	-0.25793263
5	0xbda1f343	-0.079077266
6	0x3e7614aa	0.2403132
7	0x3e69558e	0.22786543
8	0xbdaca7e6	-0.084304616
9	0xbe8a5ff5	-0.27026334
10	0x3bf0d379	0.0073494283
11	0x3ce31e10	0.027724296
12	0x3e8b8c26	0.27255362
13	0x3e9f2889	0.31085613
14	0xbe08867d	-0.13332553
15	0x3dac0697	0.083996944
16	0x3e1da85f	0.1539626
17	0xbe9b1a5c	-0.30293548
18	0x3dcb672c	0.09931788
19	0xbd2106ca	-0.039313115
20	0x3e833b3f	0.2563114
21	0x3cc97850	0.024593502
22	0xbe4e5c96	-0.20152506
23	0xbe673575	-0.22578986
24	0xbe283d66	-0.16429672
25	0x3e7b6bb6	0.24552807
26	0x3e305132	0.17218474
27	0x3e682e11	0.22673823
28	0x3e6ac939	0.22928323
29	0xbe17cc1a	-0.14823952
30	0x3e4be4fa	0.19911566
31	0xbe8cfc38	-0.27536178
32	0xbe601ca9	-0.21885933
33	0xbd49aa3b	-0.04923461
34	0x3e53d791	0.20687701
35	0xbe77fc36	-0.24217305
36	0x3e77d9b3	0.2420414
37	0xbe1f453a	-0.15553752
38	0xbe820104	-0.253914
39	0xbe9b945a	-0.3038662
40	0xbe854f0e	-0.26036876
41	0xbe74196c	-0.23837823
42	0x3b15f155	0.002287944
43	0x3e75e429	0.24012817
44	0xbe540d44	-0.20708185
45	0x3e3eebb8	0.18644607
46	0xbe8c2953	-0.27375278
47	0xbe8811eb	-0.2657617
48	0x3e6541d9	0.223884
49	0xbe6d8e77	-0.23198877
50	0xbdd39e18	-0.10332888
51	0x3e8618ba	0.2619074
52	0x3cb6360d	0.02224257
53	0x3e84a360	0.25905895
54	0xbd9ab2a9	-0.07553608
55	0xbccd25af	-0.025042383
56	0x3d5c6eaa	0.053816475
57	0xbd88200b	-0.06646737
58	0xbe38a2bb	-0.18030827
59	0x3e220b1e	0.15824553
60	0x3dab9e8b	0.08379849
61	0xbe2319a6	-0.15927753
62	0xbe62f738	-0.22164619
63	0x3d104eb1	0.035231296
64	0x3dea79c9	0.1144901
65	0xbd16b90a	-0.03679756
66	0x3e41b8ae	0.18918106
67	0x3df637d4	0.12022367
68	0x3e793bf4	0.24339277
69	0x3e8bcee7	0.2730629
70	0xbe938b94	-0.28817427
71	0xbe4bc575	-0.19899543
72	0x3e428a53	0.18998079
73	0x3d436e21	0.04771245
74	0x3e00716d	0.12543269
75	0x3e85355d	0.26017275
76	0x3e4073fb	0.18794243
77	0x3e4d8117	0.20068775
78	0xbe390a49	-0.1807033
79	0x3d5dca84	0.054148212
80	0x3e5b41a8	0.21411765
81	0xbd509ceb	-0.0509309
82	0x3e75f339	0.24018563
83	0xbbfeb2d6	-0.0077727837
84	0x3de00a4b	0.10939463
85	0xbe665932	-0.22494963
86	0xbdc1f5a2	-0.09470679
87	0x3e674011	0.22583033
88	0xbe4e8688	-0.20168507
89	0x3e2a0182	0.16602138
90	0x3e8e4cd9	0.27793005
91	0x3dbc71a6	0.09201364
92	0x3e47c5c1	0.19509031
93	0xbe95b8b1	-0.2924247
94	0x3e6560e1	0.22400238
95	0x3e47b499	0.19502486
96	0x3c23a647	0.009988374
97	0xbe8602cc	-0.2617401
98	0xbe416b3b	-0.18888561
99	0x3e2e4971	0.17020203
100	0x3e287af1	0.16453148
101	0x3e848598	0.25883174
102	0x3e33f987	0.17575656
103	0x3e13b653	0.1442502
104	0xbda2fd3e	-0.07958458
105	0x3e8467a9	0.25860336
106	0xbde72c15	-0.11287705
107	0xbe59ed71	-0.21281983
108	0xbe6279ac	-0.22116727
109	0x3e7abd68	0.24486315
110	0xbe581d84	-0.2110501
111	0xbe85ee3e	-0.26158327
112	0xbe4ef340	-0.2020998
113	0x3dbcd81f	0.09220909
114	0xbe9417d1	-0.2892442
115	0x3e8f296c	0.2796129
116	0xbe79fa26	-0.2441183
117	0xbe649960	-0.22324133
118	0x3d344a40	0.044016123
119	0x3e584859	0.21121348
120	0x3e1cd9a6	0.15317401
121	0xbcc4ab67	-0.024007512
122	0x3e6e19dd	0.23252054
123	0x3e0591ca	0.13043895
124	0x3e2ce470	0.16884017
125	0xbe918e8d	-0.2842907
126	0x3e95c082	0.29248434
127	0x3e15dabb	0.1463422

critic.4.weight f4 [1, 128]
0	0xbf00ac19	-0.502626
1	0xbebb6c91	-0.36606267
2	0x3efe93e9	0.49722221
3	0x3ed37ad2	0.41304642
4	0xbee6a6f6	-0.45049256
5	0xbe617b2b	-0.22019641
6	0x3f0133ae	0.5046948
7	0x3ed3806e	0.41308922
8	0xbf1ba5ce	-0.6079987
9	0xbef3e537	-0.47635815
10	0xbf35d456	-0.71027124
11	0x3f1139ff	0.5672912
12	0x3ed290b9	0.4112604
13	0x3e974a6b	0.29548964
14	0xbeaf285d	-0.34210482
15	0x3eef695f	0.4676008
16	0x3ecec68a	0.40385848
17	0xbeaffec1	-0.3437405
18	0x3f00fe62	0.5038816
19	0xbf16a569	-0.58846146
20	0x3ecff38c	0.406155
21	0x3f24901e	0.64282405
22	0xbeb07a1b	-0.3446816
23	0xbef359c9	-0.47529438
24	0xbebea471	-0.37234834
25	0x3eaa957e	0.33317178
26	0x3ea60285	0.32423797
27	0x3edb4a5c	0.4283017
28	0x3ee1c0ed	0.44092503
29	0xbea08378	-0.31350303
30	0x3ed296a5	0.41130558
31	0xbee18036	-0.4404313
32	0xbec207f1	-0.37896684
33	0x3f7784cb	0.96687
34	0x3ebc5cfe	0.36789697
35	0xbeb73a2d	-0.35786572
36	0x3eb8dd5c	0.36106384
37	0xbebbac29	-0.36654785
38	0xbf020fc2	-0.50805295
39	0xbef066b6	-0.46953362
40	0xbea2b6e0	-0.31780148
41	0xbecf15c5	-0.40446296
42	0x3f681ee4	0.90672135
43	0x3eed11d9	0.4630268
44	0xbec57536	-0.38565987
45	0x3f00cf80	0.5031662
46	0xbead690d	-0.3386921
47	0xbecf63af	-0.4050574
48	0x3ed74a22	0.42048746
49	0xbf1afd46	-0.60542715
50	0xbed1fd1b	-0.41013417
51	0x3ecc9e5a	0.39964563
52	0x3f150888	0.5821614
53	0x3ea4aafa	0.32161695
54	0xbee7a38f	-0.45241973
55	0x3f0b6ddf	0.54464525
56	0x3f236b1f	0.6383533
57	0xbf0a91e7	-0.5412888
58	0xbef1b5ea	-0.47209102
59	0x3e9c665a	0.30546838
60	0x3f0ca6d9	0.5494209
61	0xbec3b8d1	-0.3822694
62	0xbe86d741	-0.263361
63	0x3f4f0d29	0.80879456
64	0x3e9ea6d3	0.30986652
65	0x3f14139f	0.5784244
66	0x3efd5c53	0.494845
67	0x3ef27d3f	0.4736118
68	0x3eedc717	0.46440956
69	0x3ea8ce0a	0.32969695
70	0xbecb2209	-0.39674404
71	0xbf039832	-0.51404107
72	0x3ea33634	0.3187729
73	0x3f1d008f	0.6132898
74	0x3eebb45e	0.46036047
75	0x3ed0b408	0.40762353
76	0x3f035e20	0.513155
77	0x3eea02ef	0.45705363
78	0xbea4ff00	-0.322258
79	0x3f1c104c	0.6096237
80	0x3eca079b	0.39458928
81	0xbee9ad49	-0.4564002
82	0x3efa1598	0.488446
83	0x3f23b503	0.63948077
84	0x3f063376	0.52422273
85	0xbedb17d5	-0.4279162
86	0xbeb36cf5	-0.35044065
87	0x3eba57f7	0.36395237
88	0xbf05afa4	-0.5222113
89	0x3eabf805	0.3358766
90	0x3ebe42c8	0.37160325
91	0x3ee03d42	0.43796736
92	0x3ee71143	0.45130357
93	0xbeacba35	-0.33735815
94	0x3e87daaa	0.26534015
95	0x3eb9b0f9	0.36267832
96	0xbf123636	-0.5711397
97	0xbeb2004f	-0.3476586
98	0xbe7317fd	-0.2373962
99	0x3ef4147c	0.47671878
100	0x3e9c4ea7	0.30528757
101	0x3eaba848	0.33526826
102	0x3e8bfb10	0.27339983
103	0x3f358e9c	0.7092073
104	0xbf175731	-0.5911742
105	0x3edc7bfc	0.43063343
106	0xbe92a4e0	-0.28641415
107	0xbebbbadb	-0.36665997
108	0xbeae3d24	-0.34031022
109	0x3ebd6c9c	0.36996925
110	0xbed4347f	-0.414463
111	0xbead7b8a	-0.33883315
112	0xbebcb923	-0.36859998
113	0x3f029814	0.510133
114	0xbe9478da	-0.28998452
115	0x3ea0c3d7	0.31399414
116	0xbf041dac	-0.51607776
117	0xbed673b1	-0.4188514
118	0x3ed5ff3b	0.41796288
119	0x3f00259d	0.50057393
120	0x3f0c7d0d	0.5487831
121	0xbf0ff36a	-0.56230795
122	0x3eb25959	0.34833792
123	0x3f1eee8a	0.6208273
124	0x3ec3293b	0.38117394
125	0xbec5b6e0	-0.38616085
126	0x3edf4fad	0.43615475
127	0x3ed08bdf	0.40731713

actor_mean.0.weight f4 [128, 17]
0	0xbca4372a	-0.020045836
1	0x3de1c642	0.11024143
2	0xbe244d83	-0.16045193
3	0x3e567507	0.2094308
4	0xbeb405a6	-0.3516056
5	0xbe186e2b	-0.14885776
6	0xbe23c485	-0.15992935
7	0x3d900ad8	0.07033318
8	0x3e770145	0.24121578
9	0x3e20badf	0.15696286
10	0x3e0f763d	0.14009948
11	0x3d8600db	0.06543132
12	0x3e72e280	0.23719215
13	0x3cabf802	0.020992283
14	0xbe415004	-0.1887818
15	0xbe9d603d	-0.30737486
16	0x3d1c96e9	0.038229857
17	0x3e0bb418	0.13642919
18	0x3cc09987	0.023510708
19	0xbcc46de6	-0.023978185
20	0x3bf4c247	0.0074694487
21	0x3ee3d6e1	0.44499877
22	0x3e4c21ff	0.19934843
23	0xbd3f4d0e	-0.046704344
24	0x3d94a377	0.07257741
25	0xbde81178	-0.11331457
26	0xbe242c4c	-0.16032523
27	0xbe1c9f5f	-0.1529517
28	0xbd394d72	-0.045239873
29	0xbdf03ba6	-0.11730127
30	0xbc5fb89d	-0.013654855
31	0x3e65730f	0.22407173
32	0xbe760e28	-0.24028838
33	0x3e00e73b	0.12588207
34	0xbd519b50	-0.05117351
35	0x3bacc995	0.005273054
36	0xbe600a64	-0.21878964
37	0xbe245e9f	-0.1605172
38	0x3e2cde80	0.16881752
39	0xbc646887	-0.013940937
40	0xbe8e9c90	-0.27853823
41	0x3bf0468a	0.0073326277
42	0x3ebc4a16	0.36775273
43	0xbda28d9e	-0.079371676
44	0xbe87b99c	-0.26508796
45	0x3d10d410	0.03535849
46	0x3ca493f2	0.020090077
47	0x3d7bb2c9	0.0614498
48	0x3e24df95	0.16100915
49	0x3dbcf2b4	0.092259794
50	0xbd79aff8	-0.060958833
51	0x3e44c29d	0.19214864
52	0xbe6d2725	-0.23159464
53	0xbd5538eb	-0.052056234
54	0x3e68b3a5	0.22724779
55	0xbe703449	-0.23457445
56	0x3d78ad93	0.06071241
57	0xbd48a799	-0.04898796
58	0xbc36c050	-0.011154249
59	0xbd971b4b	-0.073782526
60	0x3e18cbac	0.14921445
61	0xbc7bb7da	-0.015363658
62	0xbdf213dc	-0.11820194
63	0xbd8a339a	-0.067481235
64	0xbe1c9247	-0.15290175
65	0x3e8000ba	0.25000554
66	0x3dcf3c65	0.10118941
67	0xbdda67c2	-0.106643215
68	0x3e3c80bb	0.18408482
69	0xbd11438b	-0.035464805
70	0x3e19d922	0.15024236
71	0xbdd86e13	-0.1056787
72	0xbd1619bc	-0.036645636
73	0x3d88d834	0.066818625
74	0xbe8c5d7b	-0.2741507
75	0x3b54db10	0.0032479204
76	0x3e1b2cfc	0.15153879
77	0x3e1857e4	0.14877278
78	0xbd036d35	-0.03208657
79	0xbd82de8b	-0.06390103
80	0xbd3eb7fe	-0.046562187
81	0xbeee76b3	-0.46574935
82	0x3e36eed7	0.17864548
83	0x3dda2e2c	0.10653338
84	0xbd8da8aa	-0.06916936
85	0xbdf96ba6	-0.121787354
86	0xbdcf88a0	-0.10133481
87	0xbe493ef6	-0.19652924
88	0xbdc8c733	-0.09803619
89	0xbe2a7c96	-0.16649088
90	0x3b0f89d4	0.002190222
91	0x3d850903	0.064958595
92	0xbe23c990	-0.15994859
93	0x3e0b4a6b	0.13602607
94	0x3eaa8ddb	0.33311352
95	0x3e17f908	0.14841092
96	0xbc1d8ca1	-0.009616048
97	0xbec88fa0	-0.39172077
98	0x3c0c1cca	0.008551786
99	0x3e47e2d8	0.19520128
100	0xbdc68331	-0.096929915
101	0x3e7d596b	0.24741141
102	0xbc686f8c	-0.014186751
103	0xbdffb2db	-0.12485286
104	0xbd37357a	-0.044728734
105	0x3e3dccf7	0.18535219
106	0x3d45d0b5	0.04829474
107	0x3e59d847	0.2127391
108	0x3d111817	0.035423364
109	0xbe0a0ca3	-0.13481383
110	0xbe21d757	-0.15804802
111	0x3ddc257e	0.107493386
112	0x3e8597ea	0.26092464
113	0xbd8a0c3b	-0.06740614
114	0x3e5820e7	0.21106301
115	0xbe23b920	-0.15988588
116	0x3ea89fee	0.32934517
117	0x3d16b268	0.036791235
118	0x3dc4a74b	0.09602221
119	0x3cf88a8f	0.030339507
120	0x3d98d9b5	0.07463399
121	0x3e393ba2	0.18089154
122	0xbe51b2a6	-0.20478305
123	0x3df034f5	0.11728851
124	0x3d9038cf	0.070420854
125	0xbe19bbc4	-0.15013033
126	0x3e1def38	0.15423286
127	0xbe942fb1	-0.28942636
128	0xbe3183a9	-0.1733538
129	0xbe4d6c36	-0.2006081
130	0xbd80304e	-0.062592134
131	0xbe886ffb	-0.26647934
132	0xbdbfb526	-0.09360723
133	0x3df6a625	0.12043408
134	0xbe447527	-0.19185315
135	0x3bb60135	0.005554343
136	0xbdb9f3a3	-0.09079673
137	0xbe01df51	-0.12682845
138	0xbdd14fa0	-0.102202654
139	0x3d9b24d2	0.07575382
140	0x3e6612ad	0.22468062
141	0x3e703f15	0.23461564
142	0x3dc8cb8a	0.09804447
143	0xbda56651	-0.08076156
144	0xbed70f9a	-0.4200409
145	0xbe96d37d	-0.29458228
146	0xbe2ebd35	-0.17064364
147	0xbd18c7c6	-0.037299894
148	0x3de52cad	0.11190162
149	0x3cb1d6fd	0.02170896
150	0x3e563dc2	0.20921996
151	0xbb73af24	-0.003718325
152	0x3da55d6d	0.0807446
153	0x3d159379	0.036517594
154	0xbde736fe	-0.11289786
155	0xbdf2de0a	-0.11858757
156	0xbe51b342	-0.20478538
157	0x3da8f74c	0.08250293
158	0xbe2aaa99	-0.1666664
159	0xbcd17f40	-0.025573373
160	0xbd468d35	-0.04847451
161	0xbcd7764a	-0.026301522
162	0xbc9e7f38	-0.019347772
163	0xbd9713fe	-0.0737686
164	0x3c5db68f	0.013532295
165	0xbe2f1b5b	-0.17100279
166	0x3e043806	0.12911996
167	0xbe86ab57	-0.26302597
168	0x3e5fd7a2	0.21859601
169	0xbd79db70	-0.061000288
170	0xbb5525f1	-0.0032523836
171	0x3e23b932	0.15988615
172	0xbe5ce289	-0.21570791
173	0x3d6a9b07	0.05727675
174	0xbd97893a	-0.07399221
175	0xbd8fb07b	-0.07016083
176	0xbd822c26	-0.06356077
177	0xbbd79d3c	-0.006580023
178	0xbc71eb54	-0.014765579
179	0x3dc24308	0.094854414
180	0xbeab1719	-0.3341606
181	0x3e3cc7fb	0.18435661
182	0x3e16f958	0.14743555
183	0xbdc53186	-0.096285865
184	0x3e56dc93	0.2098258
185	0xbd057a4f	-0.032587346
186	0xbe5594f1	-0.20857598
187	0xbcde7911	-0.027157338
188	0xbd82003a	-0.063476995
189	0x3de4a348	0.11163956
190	0x3e0fe620	0.1405263
191	0x3d8564d2	0.065133706
192	0x3d8ac3ab	0.06775602
193	0xbe60b80c	-0.21945208
194	0xbd841a31	-0.06450308
195	0xbbec9f8b	-0.0072211674
196	0x3dd3f7f6	0.10350029
197	0xbdea9cdc	-0.114557
198	0xbe27d0d9	-0.16388263
199	0xbcab5342	-0.020913724
200	0x3c19f2c8	0.0093962625
201	0x3e4711bc	0.19440359
202	0x3eb17986	0.34663028
203	0xbd749662	-0.05971373
204	0xbdab44d8	-0.0836274
205	0xbe94d0bf	-0.2906551
206	0xbe2ec609	-0.17067732
207	0xbba01927	-0.004885811
208	0xbbf59729	-0.0074948263
209	0xbdef4072	-0.11682214
210	0x3e51ae0f	0.20476554
211	0x3e65fae6	0.22458991
212	0xbe860a52	-0.2617975
213	0x3e34d2d4	0.1765855
214	0xbe02f4ad	-0.12788649
215	0xbe2bfd16	-0.16795763
216	0xbe0a4729	-0.13503708
217	0xbdc3fe49	-0.095699854
218	0x3e7a2191	0.24426867
219	0x3d65d465	0.05611076
220	0xbde886cf	-0.11353838
221	0xbdcb4d2e	-0.0992683
222	0x3e10daab	0.14145915
223	0x3dd8e4dd	0.10590527
224	0xbab339ad	-0.0013673805
225	0x3a94b43b	0.0011345217
226	0xbeb5417d	-0.35401526
227	0xbe0a57b5	-0.1351002
228	0xbde7e9a6	-0.11323862
229	0x3d5aabb0	0.05338639
230	0x3dd7aa56	0.10530536
231	0x3e3da677	0.18520533
232	0xbcd2bfdf	-0.025726257
233	0xbd7a3eeb	-0.06109516
234	0xbda847dd	-0.08216832
235	0xbdd3a541	-0.10334254
236	0x3e78fb33	0.24314575
237	0xbeb3132b	-0.34975561
238	0xbe425f65	-0.18981703
239	0xbb9bdca2	-0.004756526
240	0xbd388def	-0.045057233
241	0x3d4c0c19	0.049816225
242	0x3e044fe3	0.129211
243	0xbe56af82	-0.20965388
244	0xbdf52bf8	-0.11971277
245	0x3d0566ce	0.032568745
246	0x3d597184	0.053086773
247	0xbdaa8ee9	-0.08328039
248	0xbe7f9333	-0.24958496
249	0xbbcc9440	-0.0062432587
250	0x3c40637f	0.011742472
251	0xbc35cd5c	-0.011096325
252	0x3e300b5d	0.17191835
253	0x3e5f8de0	0.21831465
254	0x3d06a106	0.032868408
255	0xbe0be1a8	-0.136603

actor_mean.0.bias f4 [128]
0	0xbd77fafe	-0.0605421
1	0xbcdc5893	-0.026897704
2	0x3d5bf5b1	0.053701106
3	0xbc55488d	-0.013017786
4	0x3ca51575	0.020151833
5	0x3dd8983b	0.10575911
6	0x3ce8c2e8	0.028413251
7	0xbc0c1aef	-0.008551343
8	0x3d51ecb6	0.051251136
9	0xbd0451cc	-0.03230457
10	0xbdcbc62a	-0.09949906
11	0x3d2b8e35	0.041883666
12	0x3bf95e8f	0.007610149
13	0xba2a4f7f	-0.0006496831
14	0x3d2fd575	0.042928178
15	0xbdee153b	-0.11625143
16	0x3ce134c6	0.027490985
17	0x3c58ff53	0.013244468
18	0x3de3fa93	0.111317776
19	0xbd25e45c	-0.040500984
20	0xbd1bc400	-0.038028717
21	0xbd85dc6c	-0.06536183
22	0x3c570fb1	0.0131263
23	0xbd964135	-0.07336656
24	0x3db5e262	0.0888107
25	0x3d66f710	0.05638796
26	0x3c273887	0.010206348
27	0xbaa728c3	-0.0012753237
28	0x3dc93c5f	0.09825968
29	0xbdaf6315	-0.0856382
30	0x3e0716a5	0.13192232
31	0x3d7362ad	0.059420276
32	0x3db61f84	0.0889273
33	0xbd4383e9	-0.04773322
34	0xbcfffe9a	-0.031249333
35	0xbc3ee906	-0.011652237
36	0xbdabce74	-0.08388987
37	0xbe00cd66	-0.12578353
38	0x3d6a36b5	0.05718108
39	0xbdae9b47	-0.085257106
40	0x3dd0b2f5	0.10190383
41	0xbd181685	-0.03713085
42	0xbd0b2c65	-0.033977885
43	0xbd742414	-0.05960472
44	0xbe18f02b	-0.14935367
45	0x3d22112e	0.039567165
46	0xbd3d26ac	-0.04617946
47	0x3e1757c1	0.14779569
48	0xbcd81306	-0.026376259
49	0x3d316fad	0.043319393
50	0x3dc4018d	0.09570608
51	0x3d53faa5	0.051752705
52	0x3d7e87cd	0.06214123
53	0x3d740132	0.059571452
54	0xbd99b00a	-0.0750428
55	0xbca77348	-0.020440713
56	0xbd299337	-0.04140016
57	0x3d11547c	0.03548096
58	0xbd3a1e75	-0.045439202
59	0x3d3f6c70	0.046734273
60	0x3c94989c	0.018139176
61	0xbdc5f623	-0.096660875
62	0xbd6e0d19	-0.05811796
63	0xbc96603b	-0.018356433
64	0xbd5be42e	-0.053684406
65	0x3d8de094	0.069276005
66	0xbd5f55f5	-0.054525334
67	0x3dbd1fe5	0.09234599
68	0x3db93691	0.09043611
69	0xbc97606c	-0.018478595
70	0xbc28b443	-0.010296884
71	0xbd6e4d54	-0.058179215
72	0xbd4eefaa	-0.05052153
73	0x3de1e288	0.110295355
74	0x3d302465	0.04300346
75	0x3c8b6d3d	0.017019862
76	0xbc9f9903	-0.019482141
77	0xbd027b58	-0.03185591
78	0x3d96cad8	0.07362908
79	0xbdede74a	-0.116163805
80	0xbdf7a9d1	-0.12092937
81	0x3cbc54ac	0.022989593
82	0x3d4891a7	0.04896703
83	0x3d82fcf9	0.06395907
84	0x3c85b617	0.016322179
85	0xbce13e4b	-0.027495524
86	0x3d1e85ce	0.038701825
87	0xbcfa0163	-0.03051824
88	0x3d54013c	0.05175899
89	0x3d332b48	0.043742448
90	0xbd58f5ff	-0.052968975
91	0xbd2c424c	-0.042055413
92	0xbd8ebf4d	-0.069700815
93	0xbc5c915f	-0.013462394
94	0x3d0cc5c2	0.034368284
95	0xba3075d6	-0.0006731426
96	0xbce98117	-0.028503938
97	0xbd8f753b	-0.07004782
98	0x3d8a2b95	0.06746594
99	0x3da6a8d8	0.08137673
100	0xbdbe25e2	-0.09284569
101	0x3ca1d414	0.019754447
102	0x3d97bec3	0.07409432
103	0xbd9e3937	-0.077257566
104	0xbd1952ca	-0.03743247
105	0xbdf8568f	-0.12125885
106	0xbc899379	-0.016793953
107	0xbd6d99e0	-0.058008075
108	0x3c1f9c17	0.009741805
109	0xbd642a49	-0.05570439
110	0x3cb7dfc1	0.022445561
111	0xbdcb0b65	-0.09914283
112	0xbcf33fd8	-0.029693529
113	0x3cc277f9	0.023738848
114	0xbd7fbd18	-0.062436193
115	0x3d41e0a5	0.04733338
116	0xbd485aae	-0.048914604
117	0x3d8f3b15	0.06993691
118	0x3d143ea0	0.036192536
119	0x3df7c1d7	0.12097519
120	0x3c1e5a43	0.009665075
121	0x3cad892f	0.021183578
122	0xbdb0cdc2	-0.08632995
123	0xbb5a6620	-0.0033325031
124	0x3d159218	0.03651628
125	0xbd514454	-0.051090553
126	0x3dce2f5b	0.10067626
127	0xbcb7bf17	-0.022429986

actor_mean.2.weight f4 [128, 128]
0	0xbe066175	-0.13123114
1	0x3e44f68b	0.19234674
2	0x3e4bfb00	0.19919968
3	0xbd634553	-0.055486035
4	0x3cb472a2	0.022027317
5	0xbd0819ab	-0.033227604
6	0xbe21b087	-0.15789996
7	0x3e838b15	0.2569205
8	0x3e0c650e	0.13710424
9	0x3e025f9c	0.12731785
10	0x3d1366c5	0.03598668
11	0xbcbc2cba	-0.022970546
12	0x3e6c389f	0.23068474
13	0xbdf235d7	-0.118266754
14	0x3d90b6b9	0.070661016
15	0xbd4d5108	-0.050126106
16	0xbe0ac68e	-0.13552305
17	0x3e8bf6c9	0.2733672
18	0x3dafe81f	0.085891955
19	0xbddabb97	-0.10680311
20	0x3e3da99f	0.18521737
21	0x3e2ffabe	0.17185494
22	0x3d7a53fb	0.061115246
23	0xbe87f1b2	-0.26551586
24	0xbe958d60	-0.29209423
25	0x3e01714e	0.12640879
26	0x3d30b25b	0.043138843
27	0x3d754f34	0.059889987
28	0x3ba7d5a8	0.0051219054
29	0x3ce2ac49	0.027670043
30	0x3d222108	0.039582282
31	0x3cf5919f	0.029976664
32	0xbd91eed4	-0.07125631
33	0xbebd3b86	-0.36959475
34	0x3e36b3cb	0.17842023
35	0x3befb99f	0.007315829
36	0xbe2b60b2	-0.16736105
37	0xbbbc9d6e	-0.005756072
38	0x3d7c79ac	0.061639473
39	0xbd3461fd	-0.04403876
40	0xbdf564a7	-0.119820885
41	0xbddaa996	-0.10676877
42	0xbd64948f	-0.05580574
43	0xbe426017	-0.18981968
44	0x3d9d4d34	0.07680741
45	0xbe608952	-0.21927384
46	0xbc6618ac	-0.014043968
47	0xbdacbed6	-0.084348366
48	0x3df2bd2a	0.118524864
49	0xbe2c7f81	-0.16845514
50	0x3e1402de	0.14454219
51	0x3b7b5409	0.003834965
52	0xbe764bdb	-0.24052374
53	0xbd648001	-0.055786137
54	0xbe1d7f4c	-0.15380591
55	0xbd84ae9f	-0.06478619
56	0x3e506233	0.2034996
57	0xbe726628	-0.23671782
58	0x3c8160ce	0.01579323
59	0x3e2d42e3	0.16920047
60	0x3db7249a	0.08942528
61	0x3e7331a5	0.23749407
62	0x3e3cefac	0.18450803
63	0xbdc15dd7	-0.09441727
64	0xbd2638fc	-0.04058169
65	0x3d3e0460	0.04639089
66	0xbeaeccf4	-0.34140742
67	0xbe596b02	-0.21232226
68	0xbe15d454	-0.14631778
69	0xbec50ee3	-0.3848792
70	0xbd3c6548	-0.045995027
71	0xbdc51245	-0.09622625
72	0xbdab3221	-0.08359171
73	0xbe07c35d	-0.13258119
74	0xbdbd9308	-0.092565596
75	0x3da5b017	0.08090227
76	0xbd57ad12	-0.052655287
77	0x3dc7959c	0.097453326
78	0xbe58be85	-0.21166427
79	0xbd443cd0	-0.047909558
80	0xbd32e84e	-0.043678574
81	0x3e6c1662	0.23055413
82	0x3a7e1618	0.0009692623
83	0x3e9104fb	0.28324112
84	0xbdaca05c	-0.084290236
85	0x3e13c2be	0.14429757
86	0xbe02c2ef	-0.12769674
87	0xbe064e3e	-0.13115785
88	0x3e1db2ad	0.1540019
89	0xbddc659e	-0.107615694
90	0x3d9439c9	0.07237584
91	0xbdcda734	-0.10041657
92	0xbeb12686	-0.34599704
93	0xbdd40e07	-0.10354238
94	0x3d535fe4	0.05160512
95	0x3e77a74d	0.24184914
96	0x3ea9f6e5	0.33196178
97	0xbdeebc17	-0.11656969
98	0xbe2cd69f	-0.16878746
99	0x3c20d5cf	0.009816601
100	0x3e2e5ec8	0.17028344
101	0x3e31354a	0.17305484
102	0x3c8fdf59	0.017562555
103	0x3dd58190	0.10425103
104	0xbde4315a	-0.111422256
105	0xbd4df269	-0.05028001
106	0x3c8abeee	0.016936745
107	0x3e62a13c	0.22131819
108	0xbe7db219	-0.2477497
109	0xbdfe11f8	-0.12405771
110	0xbe16a0f1	-0.14709832
111	0xbc838959	-0.016056703
112	0x3c231f42	0.009956183
113	0xbe24987b	-0.16073792
114	0xbea22d4c	-0.31675184
115	0xbe030665	-0.12795408
116	0x3e2047d1	0.15652396
117	0x3e08f199	0.13373412
118	0xbdd54f92	-0.104155675
119	0x3e783c4a	0.24241748
120	0x3bd9fa3d	0.006652145
121	0xbe56dbcc	-0.20982283
122	0xbd232bc6	-0.039836667
123	0x3e17c297	0.14820324
124	0x3d322815	0.043495256
125	0xbe1fa551	-0.15590407
126	0xbe2c914f	-0.16852306
127	0xbe456427	-0.19276486
128	0x3d490812	0.049079962
129	0xbcffaed3	-0.031211292
130	0xbd0b47c8	-0.034004003
131	0xbd99d0be	-0.075105175
132	0x3e2b2753	0.1671422
133	0xbdea49a7	-0.11439829
134	0x3d5ba0bb	0.05362008
135	0x3da3915e	0.07986711
136	0xbd6d0df7	-0.057874646
137	0xbce520f8	-0.027969822
138	0x3df10da4	0.1177018
139	0x3cf4b272	0.029870246
140	0xbd856483	-0.06513312
141	0xbd8dd195	-0.0692474
142	0xbe9ac9e0	-0.30232143
143	0x3e2e9492	0.17048863
144	0x3e74e03b	0.23913662
145	0x3db3bb29	0.08775932
146	0xbdbb62ce	-0.09149705
147	0xbcae9b1e	-0.0213142
148	0xbd162efb	-0.036665898
149	0xbd21954e	-0.03944903
150	0xbd2ad28a	-0.041704692
151	0x3e6a10fb	0.2285804
152	0x3d162197	0.036653128
153	0x3e2655f3	0.16243725
154	0xbc797697	-0.015226028
155	0x3e0a9f9d	0.1353745
156	0xbe698fae	-0.22808716
157	0xbe06e898	-0.13174665
158	0xbe6677d5	-0.2250665
159	0xbed48807	-0.4151003
160	0xbd8a1141	-0.06741572
161	0x3ec211ce	0.3790421
162	0xbe0e7812	-0.1391299
163	0x3cb5a93b	0.022175422
164	0x3ea38a82	0.3194161
165	0x3da409ad	0.08009658
166	0xbd25dcc3	-0.040493738
167	0xbdcd026b	-0.10010227
168	0xbe101dc2	-0.14073852
169	0xbdf6f2a7	-0.12058001
170	0xbe00146e	-0.12507793
171	0x3ca9504c	0.020668171
172	0xbb91e7d1	-0.0044526835
173	0xbdf4210d	-0.119203664
174	0xbd716d51	-0.058942143
175	0xbd38cd0c	-0.045117423
176	0x3e116f3a	0.14202586
177	0xbdf500bc	-0.11963031
178	0x3e26e14b	0.1629688
179	0xbcefb651	-0.02926174
180	0xbc1bc123	-0.009506497
181	0x3d83906c	0.06424031
182	0xbcf552bc	-0.029946677
183	0x3e04351d	0.12910886
184	0x3b7fbba8	0.0039021764
185	0xbdee0b12	-0.11623205
186	0xbc1a595d	-0.00942072
187	0x3e3005b0	0.1718967
188	0x3e5116b6	0.2041882
189	0x3dabc9fe	0.08388136
190	0xbdfbf214	-0.12302032
191	0xbdcc2077	-0.0996713
192	0xbe0f17b3	-0.13973884
193	0xbe314b5e	-0.17313907
194	0xbe215baf	-0.15757631
195	0x3e3c558c	0.18392009
196	0xbe9ac5d7	-0.30229065
197	0xbd7924c2	-0.06082607
198	0x3c8579ec	0.016293488
199	0xbd59c089	-0.05316213
200	0x3e195979	0.14975537
201	0xbe8b7fb0	-0.27245855
202	0x3da4f2c4	0.08054116
203	0xbdcea4a7	-0.10089999
204	0x3e614f4e	0.22002909
205	0x3dd039c3	0.10167267
206	0xba9d0d75	-0.001198216
207	0x3dfb2274	0.12262431
208	0x3ebf347d	0.37344733
209	0x3ecc0805	0.39849868
210	0xbd10d6e0	-0.03536117
211	0xbc8867b4	-0.016651012
212	0x3de7192f	0.112841
213	0xbe0f4afd	-0.1399345
214	0x3d86c127	0.0657981
215	0x3e029009	0.12750258
216	0x3d7fe2d8	0.062472194
217	0x3dda04b4	0.10645428
218	0x3e0e1cdb	0.13878195
219	0xbd38e28c	-0.045137927
220	0xbe59e74f	-0.21279643
221	0x3e81f1fc	0.25379932
222	0xbd3246e2	-0.04352463
223	0xbce563e5	-0.028001735
224	0x3d99e042	0.07513477
225	0x3da176cf	0.07883989
226	0x3d32fddc	0.04369913
227	0x3e9ea8db	0.30988201
228	0xbd868702	-0.065687194
229	0xbe0a7670	-0.13521743
230	0xbc5ee22c	-0.013603728
231	0xbcfce58d	-0.030871177
232	0x3deefbef	0.11669146
233	0x3c2950d2	0.0103342105
234	0x3c2088ab	0.009798209
235	0xbdcb5ce9	-0.099298306
236	0xbe05e22a	-0.13074556
237	0xbd72cf9b	-0.05928002
238	0x3d4d6735	0.050147254
239	0x3d415514	0.047200277
240	0xbc51bcf2	-0.012801396
241	0x3dd7ece2	0.10543229
242	0xbdf50970	-0.11964691
243	0x3e2362be	0.15955636
244	0x3dc0772f	0.093977325
245	0x3e1aa31e	0.15101287
246	0xbd1c7680	-0.038198948
247	0xbdbfeb5b	-0.09371062
248	0x3dffee73	0.124966525
249	0x3e11e181	0.14246179
250	0x3e1831d7	0.14862762
251	0x3db4cd8b	0.08828267
252	0xbe6307d8	-0.22170961
253	0x3d1655ff	0.036703106
254	0x3d56c55f	0.05243432
255	0x3e20e1ae	0.1571109

actor_mean.2.bias f4 [128]
0	0x3d7e1a39	0.062036727
1	0xbd086744	-0.033301607
2	0xbbc882be	-0.0061191013
3	0x3d73405b	0.059387546
4	0x3cfd41e6	0.030915212
5	0x3dcb0185	0.09912399
6	0xbacf036b	-0.0015793865
7	0x3d425740	0.04744649
8	0xbe022ddb	-0.12712805
9	0x3d1854fe	0.03719043
10	0x3d04910d	0.032364894
11	0xbe22ccf6	-0.15898499
12	0xbd517459	-0.05113635
13	0xbc6fbbe6	-0.014632201
14	0x3d0ff525	0.035145897
15	0xbc6d606a	-0.014488319
16	0xbc97ca40	-0.018529058
17	0xbcf01f67	-0.029311849
18	0xbd810b01	-0.06300927
19	0xbcac8984	-0.021061666
20	0xbc7ebca8	-0.015547909
21	0x3d9271e6	0.07150631
22	0x3ca2bd18	0.019865558
23	0x3c43c390	0.011948481
24	0xbd458abf	-0.04822802
25	0x3c02edcf	0.007991268
26	0xbb8bdb91	-0.0042681177
27	0x3ca77db6	0.020445686
28	0xbd31ef2a	-0.043440975
29	0x3d784fff	0.060623165
30	0xbd3de6c8	-0.04636267
31	0xbd2c6799	-0.042090986
32	0x3c1d02ee	0.009583218
33	0x3c2a6cc9	0.010401913
34	0x3ddbb6fa	0.107282594
35	0x3c2f3e8c	0.010696065
36	0x3cb9e9c5	0.022694478
37	0xbdd877a0	-0.10569692
38	0xba11af66	-0.00055574474
39	0xbd1694e0	-0.036763072
40	0xbc93eb85	-0.01805664
41	0xbd0b073b	-0.033942442
42	0x3b85a6dd	0.0040787295
43	0xbc51785e	-0.012785045
44	0x3d05cb68	0.032664686
45	0xbd448ee9	-0.047987852
46	0x3d8052c2	0.06265785
47	0x3d5bded4	0.053679302
48	0xbd1f0c35	-0.03883
49	0x3b718769	0.0036854392
50	0xbd0be51e	-0.03415405
51	0xbd365e35	-0.044523437
52	0x3da4360c	0.08018121
53	0x3c571a27	0.013128794
54	0xbd004b19	-0.03132162
55	0x3c80d928	0.015728548
56	0xbd773af1	-0.060358945
57	0xbc9e5a18	-0.01933007
58	0x3cb4207c	0.021988146
59	0x3d6a5d59	0.05721793
60	0xbd56dac6	-0.052454732
61	0x3c42a729	0.011880674
62	0x3c938fff	0.018012999
63	0xbd52da44	-0.051477686
64	0x3d2d5d7e	0.04232549
65	0x3cfdecb3	0.030996656
66	0xbc57e495	-0.013177057
67	0x3cee440a	0.029085178
68	0x3d02d01e	0.031936757
69	0x3c1d38cd	0.009596062
70	0xbd1b1261	-0.037859324
71	0xbd17e5e4	-0.037084475
72	0x3d466efe	0.048445694
73	0x3c83a7e7	0.016071273
74	0x3d2d0b1d	0.042246927
75	0xba884b5a	-0.0010398433
76	0xbd1bd47b	-0.038044434
77	0x3cc171d3	0.023613846
78	0x3a967de2	0.0011481608
79	0xbd8e9e51	-0.0696379
80	0x3c56d6a8	0.0131127015
81	0x3cc5da68	0.024151996
82	0x3dd523d7	0.104072265
83	0x3d013c85	0.031551857
84	0x3d4f3ad1	0.0505932
85	0x3cf00929	0.029301243
86	0x3a0142bc	0.00049309037
87	0x3d517fd8	0.051147312
88	0x3c884519	0.01663451
89	0x3d5d0782	0.053962238
90	0x3cf5ace2	0.029989664
91	0x3da18d33	0.0788826
92	0xbd86e308	-0.065862715
93	0x3dd93a5e	0.10606836
94	0x3bb102f2	0.0054019624
95	0xbc00aa8f	-0.007853164
96	0x3c4de333	0.012566376
97	0x3d8f7b48	0.07005936
98	0xbd8607b9	-0.06544442
99	0xbc7197ae	-0.014745636
100	0xbe0b585c	-0.13607925
101	0xbc5c2160	-0.013435692
102	0xbdded132	-0.108797446
103	0xbca32b56	-0.019918125
104	0x3c0b0feb	0.008487682
105	0xbd9e260a	-0.07722099
106	0xbc00fc3d	-0.007872638
107	0xbc977efe	-0.018493172
108	0x3d68521b	0.056718927
109	0x3e07eeba	0.1327466
110	0xbd57daa1	-0.052698735
111	0x3dafc0f8	0.08581728
112	0x3d63dad3	0.05562861
113	0x3ced82df	0.028993068
114	0xbc6783bf	-0.014130532
115	0x3cfa5c1c	0.0305615
116	0x3d87b4df	0.06626295
117	0x3e0057fc	0.12533563
118	0xbd3983a0	-0.045291543
119	0x3d4ca0e9	0.049958143
120	0x3d32aa5e	0.043619506
121	0xbd6986f5	-0.05701347
122	0x3cf49824	0.029857703
123	0xbd28d3e3	-0.041217696
124	0x3d5fb05c	0.05461155
125	0x3c18a4a2	0.009316595
126	0x3ca192d8	0.01972334
127	0x3bd3c2ab	0.006462415
