saved_agents/dm_hopper_d_v2.pth (torch, 222005 bytes, 26 tensors)

actor_logstd f4 [1, 4]
000000 0a 0a 94 bf ff 69 90 bf d7 43 92 bf 61 d3 93 bf
       -1.1565564 -1.1282347 -1.1426953 -1.1548883

critic.0.weight f4 [128, 17]
000000 b1 65 98 bc b2 70 c9 3e 78 86 9a be 7f 82 ee 3d
       -0.018603178 0.39343792 -0.30180717 0.11645984
000010 05 90 47 be 03 02 99 bd 9f a3 ac 3c bd 0a 26 3d
       -0.19488533 -0.07471087 0.021074114 0.040537585
000020 92 94 be be d9 94 e4 bc d5 7c 89 be 6e 59 16 be
       -0.37222725 -0.027903007 -0.26853052 -0.14682552
000030 8d 22 1b be 7e 12 21 3e 48 89 67 be 75 29 0e be
       -0.15149899 0.1572971 -0.22610962 -0.13883002
000040 57 3a e2 3d 6f a3 4e 3e 09 e1 1d 3e 0e 18 a0 3e
       0.11046284 0.20179532 0.15417875 0.31268352
000050 b5 4d 28 3e 76 4e 40 bd a7 be ac be 93 6a 3c 3e
       0.16435893 -0.046949826 -0.33739206 0.1840003
000060 ad 85 98 be 49 35 eb bc da 40 f1 bc b4 cb 45 bd
       -0.29789487 -0.028711932 -0.029449869 -0.04828997
000070 77 a2 a9 bc 8a d1 2f bd e2 8d 6f bc 50 b0 a0 be
       -0.020707352 -0.04292444 -0.01462123 -0.31384516
000080 43 2c ba bc 3c 2c a2 be ad b8 df bd a7 15 92 3d
       -0.022726184 -0.31674373 -0.10923896 0.07133036
000090 07 14 8c be 23 62 2a 3e 56 23 6f bd de f7 00 bd
       -0.2735903 0.16638999 -0.05838331 -0.031486385
0000a0 3a 4e 0b bd 64 6a 7d bb ea 55 f3 be 61 d7 c0 be
       -0.03401015 -0.003866815 -0.47526485 -0.3766432
0000b0 01 e9 d5 bc 35 b2 e4 bd 1f a2 5c 3e df 27 f0 bd
       -0.026112081 -0.11166803 0.2154622 -0.11726355
0000c0 ae 96 26 bd 1f 1c c5 3d f4 d5 65 3e 24 7b a4 3e
       -0.040671043 0.09624504 0.22444898 0.321252
0000d0 4c aa 8e bd ae c5 97 bb 1d 99 d1 3e 6e d1 5e be
       -0.06966075 -0.0046317196 0.4093713 -0.21759579
0000e0 0e ab 0b 3e 01 86 f1 3c 4a 3c 8d 3d 7a 53 5a bc
       0.13639471 0.029482843 0.06896265 -0.013325566
0000f0 b1 43 6c 3d ab 43 88 3d 35 07 90 3d ff ae fa 3c
       0.057681743 0.06653532 0.07032625 0.030601023
000100 db 3f a1 bd 01 7e d5 bd 89 86 22 bf 25 81 d9 be
       -0.078735076 -0.10424424 -0.63486534 -0.42481342
000110 0a ab b9 3e 7f 25 de 3e 37 d1 e8 be b6 4c 29 3e
       0.36263305 0.43387982 -0.45472118 0.16533169
000120 0e bb 26 bf 02 1d b1 3d 2f 6e 05 3a 6b b7 11 be
       -0.6512917 0.08648111 0.0005089966 -0.14230125
000130 29 cc bd 3e 56 d3 8d bc 29 b9 e7 bc b7 7b 8a bb
       0.37069824 -0.017312687 -0.028286533 -0.0042261737
000140 88 87 a3 bc 4d 2e d6 3d 15 c1 b8 3c 99 5a b9 bd
       -0.019962087 0.1045805 0.022553006 -0.09050483
000150 d0 3d 91 be e2 23 a8 3d 25 b6 1d be aa 5d 97 be
       -0.28367472 0.08209969 -0.15401514 -0.29563648
000160 15 81 6b be b2 29 56 3c 4a d0 f5 3d ee 30 a0 3c
       -0.2299846 0.013071464 0.120026186 0.019554581
000170 1c 83 50 3e 84 6e 32 3e 64 f4 06 be 83 63 b5 bd
       0.20362514 0.17424971 -0.13179165 -0.08856871
000180 db 46 1e bd 18 16 c5 bd 60 7c fd bd 4f ab 74 3d
       -0.03864179 -0.09623355 -0.12377238 0.059733685
000190 d2 99 de 3d 80 f6 8e 3e 5b 22 51 be 84 3b 65 be
       0.10869183 0.2792244 -0.20423262 -0.22385985
0001a0 ef bb 5b be 82 ac bf be 5f 14 38 be 65 98 62 3e
       -0.2145841 -0.374363 -0.17976521 0.22128446
0001b0 2b 53 86 3c 65 64 64 bb 91 b5 8d bd 88 9c ba bd
       0.01639708 -0.003484988 -0.06919397 -0.09111887
0001c0 43 49 cb 3d 2e 65 ba 3c 0e c3 dd 3d 82 c3 7d bb
       0.09926083 0.022753324 0.10828219 -0.0038721268
0001d0 9e 26 64 bc 7f 5e 82 3e df ea 96 3e 15 d1 ce bd
       -0.013925223 0.2546272 0.29476067 -0.10098473
0001e0 17 ce 87 3e 43 d4 9c 3e 08 5a d2 3e 9f 7f 97 3d
       0.26524422 0.30630693 0.41084313 0.07397389
0001f0 6a fc 50 be e9 cd 11 bd f6 d2 86 bd 4b 9f da 3c
       -0.20408788 -0.03559676 -0.06583206 0.026687285
000200 b9 f4 e0 3c 6e 8b d4 bc ca ee 99 bd b3 7d 8a bd
       0.027460443 -0.025945392 -0.075162485 -0.067622565
000210 c6 6c 8e 3d 5c d4 3d bd dd c1 de be 63 9c ab be
       0.06954341 -0.0463451 -0.4350728 -0.3351775
000220 e7 86 97 3e dc 6d 5d 3c 8c 9f c3 bd e8 05 f3 3d
       0.2959511 0.013514962 -0.095519155 0.11866361
000230 71 dc f6 be c7 09 dd bd 07 8f eb bd c3 8a 5c be
       -0.48215058 -0.107928805 -0.1150189 -0.21537308
000240 37 c0 95 be d5 75 25 bc 52 70 9e bc 47 90 6a 3d
       -0.2924821 -0.010098894 -0.019340668 0.0572665
000250 00 86 75 bc 08 31 b1 bd 68 c8 0a 3e 9f 5c a1 be
       -0.014985561 -0.0865193 0.13553011 -0.31515977
000260 f3 91 e8 be 88 d3 0d 3e 22 46 eb bd 6a 79 b2 3d
       -0.4542385 0.13850224 -0.11487986 0.08714564
000270 fa 17 39 3d f3 23 9c 3e 5b 9c a5 bd 12 a2 0f 3d
       0.04518888 0.30496177 -0.08086463 0.03506667
000280 6a c9 36 3e 71 e9 28 bf c4 28 3a 3e cb 2a 21 be
       0.17850271 -0.65981203 0.18179613 -0.1573898
000290 3f 4e 13 be 61 fc a3 3c 0f a5 19 bd 0e 06 3e 3e
       -0.14385317 0.020017805 -0.037510928 0.18556997
0002a0 12 b6 ba be 9f 97 91 be 68 4c 19 3d 4e 09 8f be
       -0.36467034 -0.2843599 0.037426382 -0.27936786
0002b0 88 9c c0 3d 31 6e 62 bd c8 44 91 be 56 42 13 bb
       0.09404856 -0.055280868 -0.28372788 -0.002246996
0002c0 22 5c 98 bd 9c 6c f5 3c 0d 25 b8 bd 24 e9 32 3e
       -0.07439448 0.029959016 -0.08991442 0.17471749
0002d0 b7 69 5c 3d 77 c6 88 3d 9f 3d 6c 3c e5 f9 9a 3c
       0.053811755 0.06678479 0.0144189885 0.018917987
0002e0 42 de 8d 3c d2 08 9f bc 97 6a ab 3d 8e 36 d7 bd
       0.017317895 -0.019413386 0.0836994 -0.10508452
0002f0 07 35 a4 3e a9 d3 29 bd 70 34 1a 3e 8d 8f 50 3e
       0.32071707 -0.04146162 0.15059066 0.2036726
000300 cc 8b a9 be cc 5e 5a bc fa a1 82 bd 52 5f c7 bb
       -0.3311447 -0.013328265 -0.06378551 -0.006084361
000310 3c 31 0b be ca ea 35 3d 23 bf e9 3d ab 12 2a 3e
       -0.13593 0.044413365 0.114134096 0.16608684
000320 28 82 8c 39 35 95 6e bd 2a 1b 8d bd 30 76 77 3e
       0.00026799855 -0.058247764 -0.06889947 0.24166179
000330 35 40 c1 bc 2c 3f 82 be 8e 9b 2c be 8b b2 0c bb
       -0.023590187 -0.2543882 -0.16856214 -0.0021468725
000340 d4 93 e7 3d ac 06 88 3d 98 69 ae 3d 87 10 c0 3d
       0.11307493 0.066418976 0.08516234 0.09378152
000350 74 34 62 3e c8 c5 fa bc 15 77 bf bd f5 e7 aa 3d
       0.22090322 -0.030611888 -0.09348885 0.083450235
000360 33 15 c3 bd 09 68 64 bd 2f 2f 96 3e 46 7b 0c 3e
       -0.09525528 -0.05576328 0.29332873 0.137189
000370 5f 13 24 be a7 d5 aa 3e 36 a4 84 be be ae 58 3e
       -0.16023014 0.3336613 -0.25906533 0.21160409
000380 3f 28 60 be b2 47 c3 be 54 bc ef 3e 04 7b 36 3d
       -0.21890353 -0.38140637 0.4682337 0.04455091
000390 c3 96 94 3c 7e 9f 2e bd a6 34 8c 3e 8e 61 a6 bd
       0.018138295 -0.042632572 0.27383918 -0.08124076
0003a0 60 8e 02 3c 50 aa dc 3b c8 b1 57 3d 08 7a 38 3e
       0.007968515 0.00673417 0.05265978 0.18015301
0003b0 07 cd 4c bc b2 4d 0c be 39 68 4d 3e 35 5e af bd
       -0.012500054 -0.13701513 0.20059289 -0.085628904
0003c0 f0 78 a0 bd 5a ab 8c 3e 47 a5 8e be 17 b4 52 be
       -0.07835567 0.2747448 -0.27860472 -0.20576511
0003d0 40 80 fa bb d2 1e f9 3d 0d de de 3e 9a 9b a9 bd
       -0.007644683 0.12164082 0.43528786 -0.08281632
0003e0 ec 3f d1 3d 4e 26 a7 bc 14 86 2f 3c b6 00 a2 bb
       0.1021727 -0.020404007 0.010713119 -0.0049439324
0003f0 ad ea a8 3e 8b 87 8c bd 32 37 2b 3e c2 1b af be
       0.32991543 -0.0686179 0.16720274 -0.34200865

critic.0.bias f4 [128]
000000 1a af 34 3d 63 63 84 be 40 73 fd 3d 15 02 c7 be
       0.044112302 -0.25857076 0.12375498 -0.38868776
000010 84 d8 22 be da 79 24 3e 1e 34 8d 3e d6 72 89 be
       -0.15902907 0.16062108 0.27578825 -0.26845425
000020 37 0d ae be 35 38 6a be 63 2b 78 bd f8 fb 98 3d
       -0.33994457 -0.22873004 -0.06058825 0.07469934
000030 b6 b4 60 3d 78 be b8 bd 46 39 a5 3d 20 51 34 3e
       0.05485984 -0.09020704 0.08067565 0.17609072
000040 57 91 3d bd 01 d8 10 be 06 66 5b 3e 86 62 86 be
       -0.046281185 -0.14144899 0.21425638 -0.26247042
000050 69 0b 64 be ef 4e d5 3d ff 3c 4a 3e 9c 2e e6 bd
       -0.22269978 0.10415446 0.1974983 -0.11239359
000060 fd 73 b5 bc e6 d7 85 3e c9 3b 3c 3e 65 0d 24 3e
       -0.022150034 0.2614128 0.18382181 0.16020735
000070 ee 3a 5e be 05 72 55 3e fe bc 6f bd 8a ba 84 bb
       -0.21702167 0.20844276 -0.058529846 -0.0040505575
000080 9f 62 3d be 55 ad 4d be cc 0a 31 be 90 a3 82 3e
       -0.18494652 -0.20085652 -0.17289275 0.25515413
000090 ae ca f1 3d 5d 56 0b be df e6 67 bd 48 47 be 3d
       0.11806236 -0.13607164 -0.05661666 0.092909396
0000a0 aa e0 2a be de 97 d2 3d 44 2d 07 3e ad 15 8f be
       -0.16687265 0.102828726 0.13200861 -0.27946225
0000b0 1f 66 ae bd 04 3c 4e 3e 71 3b ef bd 1c 18 2b be
       -0.08515572 0.20140082 -0.116812594 -0.16708416
0000c0 ba 27 8b 3e 5d d4 81 be 32 23 00 3e e1 ff 16 3e
       0.27178746 -0.25357333 0.12513426 0.14746048
0000d0 97 ff 7e 3e b1 46 31 3d 03 91 3c 3e 2c 1b f5 3d
       0.24902187 0.043280307 0.18414693 0.11968073
0000e0 1e ca d0 3d 28 b6 2f be 91 ac 94 ba b1 26 4f 3e
       0.10194801 -0.17159331 -0.0011342933 0.20229603
0000f0 dd 0c 17 3d f7 a2 d5 3d d0 7c d4 bd 05 86 3a bd
       0.0368775 0.10431474 -0.103753686 -0.045537967
000100 ba 46 9a bd ec 77 6e 3c 71 f9 58 be 8c 81 6a 3e
       -0.07533021 0.014554959 -0.21188904 0.2290098
000110 91 65 33 3d 85 15 bf 3e 07 bc 24 be f9 28 0a be
       0.043798033 0.37321106 -0.16087352 -0.13492192
000120 b5 ee 69 be 70 85 24 be 5f 41 41 be 7a 3b 29 be
       -0.22844966 -0.16066527 -0.18872593 -0.16526595
000130 25 89 08 3e da ff 40 be 1e b6 62 be 35 ba 27 be
       0.13333566 -0.188476 -0.22139785 -0.16379626
000140 d3 75 82 be 49 fa be bd 92 c4 92 3d e4 30 06 be
       -0.25480518 -0.09325082 0.07166399 -0.13104588
000150 f6 a6 83 bc ae 40 91 be d5 ee 31 bd c1 bc 9c be
       -0.016070824 -0.2836966 -0.04344066 -0.30612758
000160 c4 26 1b bd 40 8c 98 be 60 59 95 3e 10 53 52 3e
       -0.037878767 -0.29794502 0.2916975 0.20539498
000170 9c cd 84 be 91 97 84 3e 82 7d 4d 3c 2e ad ae 3e
       -0.25938118 0.25896886 0.01254213 0.341165
000180 62 28 ec 3d 60 44 8b 3e a9 30 fc 3d eb c5 65 3e
       0.1153114 0.27200603 0.12313969 0.22438781
000190 46 6b 3d 3d b0 d1 8a 3d cb dc 7b be 74 d8 8a 3e
       0.046244882 0.06778276 -0.24595945 0.27118266
0001a0 72 26 2f 3e e2 a8 8d be 8f e5 57 3d 15 f8 c2 3c
       0.1710451 -0.2766791 0.05270916 0.023799935
0001b0 0f 2f 96 3d 8a c5 52 be 68 c3 0c be 7e d4 5e bb
       0.073331945 -0.20583168 -0.13746417 -0.0034001167
0001c0 ff df 2f be c0 09 21 3e c2 62 5e 3e 9b f4 e0 3d
       -0.17175291 0.15726376 0.2171736 0.10984155
0001d0 8f 15 39 3e d8 a6 43 3e 9e d0 39 be 98 6b 77 be
       0.1807463 0.19106615 -0.18145987 -0.24162138
0001e0 37 da 8e be 8f 42 90 3d 27 e1 81 3e ce 3f 3f be
       -0.2790086 0.07043945 0.2536709 -0.18676683
0001f0 54 7a 9f 3e 65 f9 96 3e 19 c1 8d 3e ed 0e 00 3e
       0.31148016 0.29487148 0.27686384 0.12505694

critic.2.weight f4 [128, 128]
000000 7a 93 bc 3d f8 98 e5 bd 00 7e 6a 3e 64 0a 45 be
       0.092078164 -0.11210817 0.22899628 -0.19242245
000010 28 83 80 be e9 43 95 3e 13 c7 20 3e b5 0a 7b be
       -0.25100064 0.29153374 0.15700941 -0.24515803
000020 e3 8c ce bd d5 6f 03 3d e1 e9 52 be 4f 99 fd 3c
       -0.10085466 0.032089073 -0.2059703 0.030956892
000030 ab 8a 1c bd 39 8d ed bd 9f 99 36 be b8 62 ce 3d
       -0.03821818 -0.11599202 -0.1783204 0.10077423
000040 3f 71 ff 3d 57 66 87 be 40 96 34 3e e3 2a 90 3c
       0.12472772 -0.26445267 0.17635441 0.017598575
000050 80 82 57 be 26 67 45 3c 7a 02 3e 3d 25 bd 6c bc
       -0.21045876 0.012048518 0.04638908 -0.014449392
000060 c6 01 ae bd 4b 9e 77 3e 37 28 82 3e 9c f1 b5 3e
       -0.08496432 0.24181478 0.25421306 0.35535896
000070 55 b5 bc bd e4 0e b1 3e 22 78 2d bd 6a 93 c3 bc
       -0.09214274 0.34581673 -0.042350896 -0.023874003
000080 0b fe 44 3d 5e 93 83 3d 87 88 a3 bd 38 7c be bc
       0.048093837 0.064245924 -0.07985025 -0.023252591
000090 2b 26 12 3e 1b 3d 5c be 04 b1 02 be 16 30 9a 3d
       0.14272372 -0.21507685 -0.12762839 0.07528703
0000a0 72 94 fd bd b1 4b 5e 3e 9b aa d2 bd c8 d7 2b bd
       -0.12381829 0.21708561 -0.10286447 -0.041953832
0000b0 aa b3 8b be c8 5e 81 3d df e4 c4 3b 3f c4 ed 3d
       -0.2728551 0.06316906 0.006008729 0.116096966
0000c0 c4 4b 42 3c 66 83 cd bd e8 e4 5f 3e 66 df 9e 3e
       0.011858884 -0.10034828 0.21864665 0.31029814
0000d0 3c c6 2d 3d f0 5a 36 3e e5 89 95 3e 9e 2b b5 3e
       0.04242538 0.17808127 0.29206768 0.3538484
0000e0 ed 71 92 bd 72 fe 47 be 0e 11 ba bd 37 54 fc 3d
       -0.07150636 -0.19530657 -0.09085284 0.1232075
0000f0 cd c6 43 3d b2 dd a6 3d b8 ff 15 be 93 90 d5 3d
       0.047797013 0.08147754 -0.1464833 0.10427966
000100 e6 76 51 be e9 33 1f be ef 12 3d bd aa a7 26 3e
       -0.20455512 -0.15547146 -0.046160635 0.16274896
000110 0e c0 49 3e 08 4f 69 3e 5a 48 fc 3c a9 7d 91 be
       0.1970217 0.22784054 0.030796219 -0.28416184
000120 4a 3f c4 3d c3 f8 ad be 33 d9 fa bc 7f 33 3f be
       0.09582384 -0.33978853 -0.030621147 -0.18671988
000130 99 87 75 3e b6 60 8c be af f8 92 bd 4a 88 c2 bd
       0.23977508 -0.27417535 -0.07176339 -0.09498651
000140 6f ed 36 be 51 ff a6 be a7 5e 7f 3e 50 1c e5 bd
       -0.17864011 -0.32616666 0.24938451 -0.11187041
000150 fd 2f dd 3c 06 0c d2 bd fd 87 67 bd c6 2b 75 be
       0.027000422 -0.102561995 -0.056526173 -0.2394248
000160 e0 20 96 bc 54 8a 44 be 45 08 d4 3d 3d 76 c0 3e
       -0.018326223 -0.19193393 0.1035314 0.3759021
000170 9f e2 c9 bd 68 63 a8 3e 77 77 e5 ba ee 12 22 3f
       -0.09857678 0.3288834 -0.0017506917 0.63310134
000180 f9 56 6e 3e 13 43 37 bd c2 72 66 3e 56 11 e1 bd
       0.23275365 -0.0447417 0.22504714 -0.10989635
000190 1a b8 0a be f9 84 00 3d 6a 05 73 be 52 f3 80 3e
       -0.13546792 0.031376813 -0.23732534 0.2518564
0001a0 ce 40 a4 3e 5b 40 f2 bd 99 e5 3a 3e 5a 32 78 3d
       0.32080692 -0.11828681 0.18251647 0.060594894
0001b0 0b 45 38 bd 2f a2 92 be 22 8a 83 3a d6 3d fd bd
       -0.04498772 -0.2863936 0.0010035674 -0.1236531
0001c0 cf 22 9e be f9 7a a7 3e 69 8d 8e 3e d6 83 c2 3d
       -0.30885932 0.32711008 0.27842262 0.09497802
0001d0 a5 27 1d 3e 5f c1 b1 3e 88 3b 22 bd 56 ed 27 be
       0.15347154 0.34717843 -0.039607555 -0.1639913
0001e0 76 30 18 be 79 c9 05 3c c4 ac df 3e 03 9b 01 be
       -0.14862236 0.008165711 0.43686497 -0.12656789
0001f0 e3 05 9b 3d 22 80 bf 3e 07 9b 1d bd a2 d0 a8 3d
       0.07569482 0.37402445 -0.038477924 0.082429186
000200 0b b9 37 3c c3 1f 6b bd e8 1a 49 be 9f 63 48 3e
       0.011213551 -0.057403337 -0.1963917 0.19569252
000210 aa e0 70 3e fe 0a 3f bd 12 12 9e be 23 dd ed 3d
       0.23523203 -0.046641342 -0.30873162 0.11614444
000220 f5 89 45 3e cd 49 37 bd 42 36 0c bd 42 93 af bd
       0.19290908 -0.044748116 -0.03423143 -0.08573009
000230 be 3f 59 3e 56 bc 2f 3e 68 72 50 3e c7 66 f6 bb
       0.21215722 0.17161688 0.20356143 -0.0075195762
000240 b7 75 8c 3d 19 5b cf 3c be b5 ff bd 51 3d 91 3e
       0.0685839 0.025311993 -0.124858364 0.28367093
000250 31 ea 65 3e 2e 56 98 bd 7b c0 be bd 53 b5 98 3d
       0.22452618 -0.074383125 -0.093140565 0.0745646
000260 8a 86 21 3e e6 e2 18 be 5a 42 3b be df c5 bc bd
       0.15773979 -0.14930305 -0.1828703 -0.092174284
000270 9d 3e 6d 3e f2 9d 75 be 84 34 42 3e 50 8a 3e bd
       0.23168416 -0.23986033 0.18965346 -0.046518624
000280 d3 39 b0 3e be b5 37 3b e0 ef 02 3d f2 22 5e be
       0.34419116 0.002803191 0.031967044 -0.21693018
000290 10 62 5f be b3 79 75 3e 84 8b d2 3e 82 d7 7a be
       -0.21814752 0.23972206 0.41122067 -0.24496272
0002a0 2c df 9b bd 3a 64 d7 bd a7 5f b8 b9 c7 01 b9 3d
       -0.07610926 -0.105171636 -0.0003516648 0.09033542
0002b0 d4 01 25 3e 97 18 e9 bd e7 ac 5f bd 37 09 17 3e
       0.16113979 -0.11381643 -0.054608252 0.14749609
0002c0 c9 9d 47 bd 24 dd c8 3e 98 27 57 be 7c 24 fd bd
       -0.04873446 0.39231217 -0.21011198 -0.123604745
0002d0 be 16 ad 3d 0b 6d 33 3e 0b 73 14 be 1c bc a2 bd
       0.08451603 0.17522065 -0.1449701 -0.07946035
0002e0 ad eb 5d be a6 81 c8 3d 75 a8 90 be 9e 5e c0 3d
       -0.21671934 0.097903535 -0.28253523 0.09393047
0002f0 01 87 3a 3e 72 cf 06 3e 2c a0 e6 3c ab da 32 3e
       0.18215562 0.13165072 0.028152548 0.17466228
000300 ca 25 c5 3e 67 ad 2f 3e 62 32 9e 3c 2e 54 38 be
       0.38505393 0.17155991 0.019311134 -0.18000862
000310 19 de dc bd 4e 86 3e bd 06 f8 16 3e 98 c2 8d 3e
       -0.10784549 -0.0465148 0.14743051 0.27687526
000320 0d bc 2e 3e da 1d 88 3e 45 c0 a6 bd 92 5c 8c 3e
       0.17063923 0.26585275 -0.08142141 0.27414376
000330 e1 ac a5 be db b0 f2 3c 02 c0 9c 3e 8e cc 5c bc
       -0.3235846 0.029625347 0.3061524 -0.013476504
000340 e7 1c 65 3e cc 58 9f 3e 62 9a aa be d2 82 18 3e
       0.22374307 0.31122434 -0.3332091 0.14893654
000350 34 36 aa bd f6 cf 00 3f cf a8 8a 3d 34 aa b0 3e
       -0.0831112 0.50317323 0.06770479 0.34504855
000360 c1 1d 37 3e 7c 7c 9c bc 92 77 d2 be de 50 09 be
       0.17882444 -0.019102328 -0.4110685 -0.13409755
000370 7d fa ba 3d b9 45 a2 bd cc 34 9b 3d b3 ed 58 be
       0.09129808 -0.07923455 0.075784296 -0.21184425
000380 5a 18 71 be 20 37 ce bc 3b 13 09 3e 44 1c 75 be
       -0.23544446 -0.02517277 0.13386242 -0.23936564
000390 a7 4a 3b 3e ad 4a fc 3c 23 7a 9c 3e bd 18 84 be
       0.18290196 0.030797327 0.30561933 -0.25800124
0003a0 1f db 42 be 2d 33 a7 3e 56 35 32 be 69 36 29 3e
       -0.190289 0.32656232 -0.17403159 0.16524662
0003b0 79 7e 2f bc 21 14 86 3e d2 a7 aa 3d 70 98 f9 3d
       -0.010711306 0.26187232 0.083327904 0.12187278
0003c0 81 3a 92 3e 0b 17 08 be df 19 58 be 60 5c 2f bd
       0.2856026 -0.1329004 -0.21103619 -0.042812705
0003d0 cc 52 5e be fa 75 89 be 17 1b 14 bd 95 b4 59 3e
       -0.21711272 -0.2684782 -0.036158647 0.21260293
0003e0 92 1d 3a 3e 4d e4 59 bd f8 3f 92 be 55 de 52 3e
       0.18175343 -0.05319624 -0.2856443 0.20592625
0003f0 59 60 62 be 00 88 11 be cc 5b 9c 3c c8 cb a9 3c
       -0.22107066 -0.14212036 0.01908674 0.020727053

critic.2.bias f4 [128]
000000 29 81 54 3e 6d 1f 5c be 93 85 5e be a8 55 81 be
       0.20752396 -0.21496363 -0.21730642 -0.25260663
000010 6b 96 89 be 79 09 61 3e 38 3c 88 be 3e 8a 81 3e
       -0.26872572 0.2197627 -0.26608443 0.25300783
000020 f9 df 5f be a5 cc 60 be 76 89 68 be b7 50 81 be
       -0.21862783 -0.21953066 -0.22708687 -0.25256893
000030 2a da 35 be 1f ed 82 3e 91 aa 5f 3d 7d 55 51 be
       -0.17759004 0.25571534 0.054606024 -0.20442767
000040 f0 87 1a be ef c8 3a be bb 68 61 3e e7 85 51 3e
       -0.15090919 -0.18240713 0.22012608 0.20461236
000050 22 dc 66 3e 09 88 4b 3e f3 31 6d 3c 7f 08 70 be
       0.22544912 0.19876112 0.014477241 -0.23440741
000060 a0 02 81 3e d2 d3 92 be a7 12 8c 3e 29 b4 21 3e
       0.25197315 -0.2867723 0.2735798 0.15791382
000070 1e 0a 88 be a5 19 6e be 31 1e 71 be a5 f7 80 be
       -0.2657022 -0.2325197 -0.23546673 -0.25188938
000080 6d c5 81 3e 5d 27 85 3e a4 33 13 3e a8 40 7b be
       0.25345936 0.26006594 0.14375168 -0.24536383
000090 db b4 23 be 3b 0b 3c be 33 59 50 3e ee 91 4a be
       -0.1598696 -0.18363659 0.20346527 -0.1978223
0000a0 dc f9 88 3e d4 d1 70 be 24 53 2d be df 18 83 be
       0.26753128 -0.23517543 -0.16926247 -0.25604913
0000b0 46 31 93 3e 86 af 26 3e e0 bd 4a 3e 14 6f 8b be
       0.2874853 0.16277894 0.19798994 -0.27233183
0000c0 17 39 0c 3e fc 74 5c be 92 d4 82 3e eb 69 4f 3e
       0.13693653 -0.21529001 0.25552803 0.20255248
0000d0 e3 80 93 be 81 a6 42 be 1b ad 22 3e c6 a7 45 be
       -0.2880927 -0.19008829 0.15886347 -0.19302282
0000e0 bc e9 34 be ea 5e 69 3e 7a 02 80 3e 62 df 3f 3e
       -0.17667288 0.22790113 0.2500189 0.18737558
0000f0 ee 47 18 be 01 b3 61 3e ec 35 89 be 40 1f 60 be
       -0.14871189 0.22040941 -0.26798952 -0.21886921
000100 76 ea 71 3e c2 4b 48 be 5a b3 65 be 49 d1 67 3e
       0.23624596 -0.1956015 -0.22431698 0.2263843
000110 73 2b 6b 3e a4 01 2c be c7 b9 53 be fa d8 56 be
       0.22965793 -0.16797501 -0.20676337 -0.20981207
000120 0a 3d 5b 3e 06 a8 25 be 45 41 8f 3e 06 4d 82 3e
       0.21410003 -0.16177377 0.27979484 0.2544939
000130 29 94 3c 3e 1b 7d 4c be c0 92 6a 3e f2 8b 1b be
       0.18415894 -0.19969599 0.22907543 -0.15190104
000140 5e 9d 60 be 75 cf 41 3e 24 cc 79 3e a3 30 67 3e
       -0.21935031 0.18926795 0.2439428 0.22577147
000150 b9 02 1b be 70 81 4b be c7 09 d7 bd b6 8e 7f 3e
       -0.15137757 -0.19873595 -0.10499912 0.24956784
000160 76 1e 38 be 23 29 5c 3e 21 67 54 be 40 67 7b be
       -0.1798037 0.21500067 -0.20742466 -0.24551105
000170 ab b2 3a 3e db 22 6c 3e 7e 0d 8d 3e 54 c3 71 3e
       0.18232219 0.23060171 0.27549356 0.23609668
000180 bd 1b 61 be c6 6c 6f 3e 9a 8a 5d 3e 7d 2b 90 3e
       -0.21983238 0.23381338 0.21634904 0.2815818
000190 22 04 5f be 8f 3b 82 be 00 f0 2a 3e 9f 8e 48 3e
       -0.2177892 -0.25436065 0.16693115 0.19585656
0001a0 08 b9 52 3e 25 b0 82 3e 96 14 4e 3e 5c a4 70 be
       0.20578396 0.25525013 0.2012504 -0.23500198
0001b0 74 f4 85 3e ee be 8f 3e fe 9b 50 3e 9e db 6e 3e
       0.26163065 0.28075355 0.20372006 0.23325965
0001c0 c4 00 61 be cb 74 73 be 5c dc 6c be 55 41 81 be
       -0.21972948 -0.23775022 -0.23130935 -0.25245157
0001d0 0c 6e 5b 3e 17 32 7a 3e 4a 87 44 be f9 3b 43 3e
       0.21428698 0.2443317 -0.19192234 0.19065847
0001e0 f0 4b 1d be 31 70 82 be c7 73 45 3e c7 2e 59 3e
       -0.15360999 -0.2547622 0.19282447 0.2120925
0001f0 de 49 25 3e a6 ec 0e 3d bf 9f 6c 3e 45 37 9d 3e
       0.1614146 0.034893654 0.23107813 0.3070623

critic.4.weight f4 [2, 128]
000000 b3 53 21 3d f0 8c 34 bd 14 3c b1 3c 0b 2e 04 3e
       0.039386462 -0.04407972 0.021635093 0.12908189
000010 8e 70 c9 3d 49 57 8f 3e 33 2d 84 3d 32 8d 38 bd
       0.09835921 0.2799628 0.064539336 -0.04505653
000020 4a 9c 72 3d cb c0 f1 bc 04 e2 56 bd 7d c9 4c bd
       0.05923108 -0.029510876 -0.05246164 -0.04999684
000030 c2 b0 e5 bd 29 88 c1 bd 63 3a 55 bf 19 da 11 be
       -0.112153545 -0.094497986 -0.83292216 -0.14243354
000040 31 bf df bd 43 4b eb bd 8c 99 06 3e 09 3d d9 bd
       -0.10925139 -0.114889644 0.13144511 -0.10607345
000050 65 36 83 3e d2 88 8d be 10 38 45 3f 0f ef fa 3d
       0.25627437 -0.27643448 0.7703867 0.12252628
000060 be dc 8e bd fd 84 ae bc 02 7c d5 3c 9b 42 9d be
       -0.06975697 -0.021303648 0.026060108 -0.30714878
000070 6c 54 6e bd 40 7b 32 3e 4f 54 c8 bd 33 36 4b bd
       -0.05818598 0.17429829 -0.097817056 -0.049612235
000080 18 01 79 3d bc 89 02 3e 39 92 07 3e f1 df 01 bd
       0.06079206 0.12747854 0.13239373 -0.031707708
000090 c0 39 79 bc 75 fd 1b be 7f 86 11 bc a9 59 56 be
       -0.015211523 -0.15233405 -0.008882164 -0.2093264
0000a0 16 fc a4 3d 44 45 13 3d 2f 0e 46 be 0c 8b 62 bd
       0.08055894 0.03595473 -0.19341348 -0.055308387
0000b0 18 18 03 3e 81 14 d8 3d 94 13 9b 3c 0a c1 2a bd
       0.1280216 0.10550786 0.018930234 -0.041688003
0000c0 52 0b 58 3d 1c 71 af 3d c5 c3 d5 bd 5a bf 7e bd
       0.05274517 0.08566496 -0.10437731 -0.062194206
0000d0 79 45 1a be 69 b5 ff bd db 02 4f 3d 91 4c 5f be
       -0.15065564 -0.12485773 0.050539833 -0.21806552
0000e0 d0 ef 36 bc d8 df 91 bd c7 7d a3 3d 44 08 aa 3d
       -0.011165574 -0.07122773 0.079829745 0.08302358
0000f0 9c 0c 80 be a4 95 1f 3e 3b 53 ac bd b5 df 24 be
       -0.2500962 0.15584427 -0.084143125 -0.16100962
000100 b2 be 3b 3e f0 fd 4c be 12 45 d9 bd 8c 64 c7 3a
       0.18334463 -0.20018744 -0.10608877 0.001521246
000110 4b 7d 55 bc 8f a0 dd bd e4 e7 8d bd 28 e2 3c bd
       -0.01303036 -0.1082164 -0.06928995 -0.046114117
000120 96 a9 96 3d 98 ad 65 3d bc bb e1 3d a3 8c ba 3d
       0.07356565 0.056073755 0.110221356 0.091088556
000130 43 28 8f 3d 9d be 86 bd 49 00 41 3e 6e a2 bf bc
       0.06990101 -0.06579325 0.18847765 -0.023392882
000140 3c 17 4c bd 38 cb 1e 3e ec 9f 46 bd d3 03 0b 3d
       -0.049826846 0.1550721 -0.048492357 0.033939194
000150 70 c7 d3 be 7f e5 01 be 5d de bd 3f 50 8b bc 3d
       -0.41363096 -0.12685202 1.4833485 0.09206259
000160 96 65 f5 3e 6a 8e 22 3e d0 03 d9 bd 25 a9 17 be
       0.47929066 0.15874639 -0.1059643 -0.14810617
000170 f0 44 39 3e 9d 4a a2 bd d5 eb 3e 3d bc 61 2a 3d
       0.18092704 -0.079243876 0.046611626 0.041597113
000180 14 1b e5 bd 69 1c a4 bd b8 1b f3 bd 9b 1d 22 be
       -0.11186805 -0.08013231 -0.11870521 -0.15831606
000190 1e 1c 30 bd 8f a2 2d be 91 6d 1d 3e 6d 79 25 3d
       -0.042995565 -0.16956542 0.15373828 0.040399004
0001a0 a3 09 5f 3e 8e 7c 66 bc 7d a2 52 3c d3 02 ee bd
       0.2178102 -0.014067782 0.012856123 -0.116216324
0001b0 1e 26 47 3c 5c f6 41 3e 68 78 78 3d 80 01 13 3c
       0.012155084 0.18941635 0.060661703 0.008972526
0001c0 c2 db 50 bd 04 1d 5d bd aa 7e 76 3d 21 1b c5 3d
       -0.050990827 -0.05398275 0.06017939 0.09624315
0001d0 86 0d 3f 3d ff e3 44 3d dc 5f 97 be 0f 0f a7 3d
       0.046643756 0.048068997 -0.29565322 0.08157169
0001e0 1a e5 10 3e f7 e3 2d 3d 2f ee ff 3b 36 ba 33 3d
       0.14149895 0.042453732 0.007810376 0.043878756
0001f0 8d d9 09 3e 98 e3 9b 3f ee 70 00 3c 4b da 18 3e
       0.13461895 1.2178831 0.007839425 0.14927022
000200 d5 bf 51 3f 7b 5b 36 bf 0b cc 3c bf 85 c9 1b bf
       0.8193334 -0.7123334 -0.73748845 -0.6085437
000210 fb c5 1c bf 5e 67 3a 3f 48 86 39 bf 03 13 2e 3f
       -0.61239594 0.72813976 -0.7247052 0.6799776
000220 5a 16 4e bf 88 28 36 bf e5 91 2e bf b8 ff 31 bf
       -0.80502856 -0.71155596 -0.6819137 -0.6953082
000230 a6 53 35 bf 76 7c 5b 3f 1b de 7e 3e 6c e5 46 bf
       -0.7083076 0.8573679 0.24889414 -0.7769382
000240 1f 95 22 bf 79 4e 6a bf bf f0 52 3f ea b3 38 3f
       -0.6350879 -0.9152599 0.823986 0.7214953
000250 97 96 2c 3f 5b d5 33 3f 9e 54 a7 be be ab 40 bf
       0.6741728 0.7024743 -0.32681745 -0.7526206
000260 bd 16 55 3f 54 16 35 bf 20 fb 25 3f 26 b9 20 3f
       0.8323782 -0.70737195 0.6483631 0.62782514
000270 fc 22 2d bf db 3b 54 bf 1d cb 2e bf b3 56 3c bf
       -0.67631507 -0.8290383 -0.68278676 -0.7356979
000280 78 14 2b 3f 10 db 39 3f 5d 7e 27 3f f0 20 25 bf
       0.6682811 0.7259989 0.6542719 -0.64503384
000290 91 47 37 bf 44 c8 31 bf ba 15 30 3f ff e9 31 bf
       -0.71593577 -0.69446206 0.6878315 -0.69497675
0002a0 08 bf 24 3f 7a 5f 1f bf b8 38 16 bf 81 81 58 bf
       0.6435399 -0.6225506 -0.58680296 -0.8457261
0002b0 a6 47 34 3f 29 c9 49 3f 03 0e 2e 3f 5f e6 3c bf
       0.70421827 0.7882257 0.6799013 -0.7378902
0002c0 65 ed 34 3f 1a 5a 28 bf 38 34 5e 3f 9a 8e 34 3f
       0.70674735 -0.65762484 0.8679843 0.7053009
0002d0 5c 53 25 bf d9 3f 33 bf db 14 4d 3f 53 d6 49 bf
       -0.6458032 -0.700193 0.8010995 -0.7884266
0002e0 6c c0 47 bf 35 3f 36 3f bd aa 28 3f c7 e7 3a 3f
       -0.7802799 0.71190196 0.65885526 0.73009914
0002f0 b7 9d 10 bf b5 17 37 3f f6 03 42 bf f0 4e 2e bf
       -0.56490654 0.7152055 -0.75787294 -0.680892
000300 26 0e 34 3f 91 7a 2e bf 23 71 2e bf 45 75 38 3f
       0.7033409 -0.6815577 -0.6814138 0.7205394
000310 5a e9 33 3f 78 ba 1b bf 4e 8e 30 bf 7c 25 4d bf
       0.7027794 -0.60831404 -0.6896714 -0.8013532
000320 30 7c 2e 3f 71 04 c8 be c2 e1 28 3f fa bf 30 3f
       0.68158245 -0.3906589 0.6596948 0.69042933
000330 d2 1d 32 3f c4 8f 30 bf ea 71 29 3f 2e ff 2e bf
       0.6957675 -0.6896937 0.66189444 -0.68358123
000340 a0 53 45 bf 74 31 44 3f 5e 03 2d 3f 2a db 23 3f
       -0.77080727 0.7663796 0.6758326 0.6400629
000350 6c 2d 18 bf 41 cd 36 bf 67 c0 44 bc 79 8e 2e 3f
       -0.5944431 -0.7140694 -0.012008763 0.68186146
000360 c5 af 25 bf fc 4d 3f 3f d3 ca 40 bf c3 d0 2c bf
       -0.6472133 0.7472837 -0.75309485 -0.67506045
000370 cf ba 35 3f a0 ee 30 3f 28 b0 25 3f 56 0e 3f 3f
       0.7098817 0.6911411 0.6472192 0.7463125
000380 8c cd 4f bf 98 8c 22 3f 43 b7 40 3f 93 51 33 3f
       -0.81173015 0.6349578 0.75279635 0.7004635
000390 27 27 17 bf 0e 37 27 bf f6 61 3e 3f 9a 32 31 3f
       -0.59044117 -0.6531838 0.74368227 0.69217837
0003a0 35 83 5b 3f 91 84 29 3f 7a 14 3b 3f a6 0f 4f bf
       0.8574708 0.66217905 0.7307812 -0.8088325
0003b0 a5 4b 2b 3f c7 1a 2d 3f 28 2d 27 3f 77 b0 31 3f
       0.669123 0.67618984 0.6530328 0.6940989
0003c0 da 4e 57 bf 23 9a 2d bf aa 9c 2f bf d1 a7 16 bf
       -0.8410469 -0.6781332 -0.68598425 -0.5884982
0003d0 a5 eb 17 3f ba 3c 36 3f 50 d7 0c bf 22 c6 45 3f
       0.5934394 0.7118641 -0.5501604 0.7725545
0003e0 a1 f6 3c bf 2b 5e 24 bf 34 28 47 3f d9 64 40 3f
       -0.73813826 -0.6420619 0.7779572 0.7515388
0003f0 05 5a 2d 3f d9 9d 86 bd 34 66 2d 3f fb 06 22 3f
       0.67715484 -0.06573076 0.67734075 0.632919

critic.4.bias f4 [2]
000000 37 37 8c 3d ce f9 1c 3f
       0.06846469 0.6131867

actor_mean.0.weight f4 [128, 17]
000000 0f 92 8b 3d fb c2 ac bd 83 4c 40 be 03 20 96 3e
       0.06814968 -0.08435627 -0.18779187 0.29321298
000010 55 36 ab bd e6 37 8b be e3 ee 0c 3e 6e 82 4e 3e
       -0.083599724 -0.27191085 0.13763003 0.20166942
000020 5d 59 2a 3e 2d 54 3b 3d 89 14 97 3d 88 0e 62 bd
       0.16635652 0.045734573 0.07376964 -0.05518964
000030 e8 db 65 3d 1b cb 22 be e6 63 5b 3e b9 34 49 3e
       0.056117922 -0.15897791 0.21424827 0.19649018
000040 dc d8 5f 3e 17 70 fa bd fc 55 14 3d 98 64 7d be
       0.21860069 -0.12228411 0.036214814 -0.24745405
000050 1f 6c 8c bd 0c 23 99 3c f0 18 ae 3d 07 6f 3f bd
       -0.0685656 0.01869347 0.0850085 -0.046736743
000060 c3 ce a8 3d 72 a1 bc 3e d2 d9 3e 3e 85 e6 96 3e
       0.08242562 0.36841923 0.1863778 0.29472747
000070 3f 14 75 3c 27 ec 81 be 37 b4 7d 3d 47 24 0b 3e
       0.01495844 -0.25375482 0.061939444 0.13588057
000080 76 41 3d 3d fe a6 b9 3c e8 e1 7c 3e ce d5 88 3e
       0.046205007 0.022662636 0.24695551 0.2672562
000090 af bd 4c 3d 0c 54 1f bc 95 e0 9d bd 37 ca 8a be
       0.049985584 -0.009724628 -0.07708851 -0.27107403
0000a0 e5 55 4e be d5 5a 40 bc 7c f3 7d bd e4 89 ac be
       -0.20149954 -0.011740406 -0.061999783 -0.33698952
0000b0 b6 75 34 3d e6 28 c9 3d d6 d7 60 bc 21 e4 4d 3d
       0.04405757 0.09822254 -0.013723334 0.05026639
0000c0 53 9d f9 bd e9 21 2f 3e 77 54 b2 bc 4b 8b 43 be
       -0.1218821 0.1710278 -0.021768792 -0.19096105
0000d0 2e 9d 37 bd 8a 62 5b bd 22 c9 b5 3d df de 7f bd
       -0.044827633 -0.05356077 0.08876254 -0.062468406
0000e0 af d5 5f bd 8e cf 0c 3e b1 bb 17 3e 7a f2 f5 3b
       -0.054647144 0.13751051 0.14817692 0.007505712
0000f0 ce cb 3b 3e 60 ec 91 3e 10 d8 bc 3d ec e6 32 be
       0.18339464 0.28500652 0.09220898 -0.17470902
000100 94 96 53 3e ea 06 9f 3e 05 d8 27 3e 0c 11 48 bc
       0.2066291 0.31059963 0.16390999 -0.012211096
000110 23 1a 85 3d fa c1 db 3b 58 a1 07 3e f5 8b 10 3d
       0.06499126 0.0067064734 0.13245142 0.035289723
000120 84 ee 6a 3e f7 89 4d be 08 e8 33 3d ab a6 10 be
       0.22942549 -0.2007216 0.043922454 -0.14126079
000130 81 31 30 3e 80 e2 31 bd d6 26 63 3e 6e 5f aa 3e
       0.17206384 -0.043428898 0.22182783 0.33275932
000140 d4 4a 96 be 18 4f 04 bd 53 28 42 3d 63 77 4b 3e
       -0.29353964 -0.032301992 0.047401737 0.19869761
000150 ed c8 d7 bd 92 dc 95 3e 52 c1 5c 3d a7 3f be bd
       -0.105363704 0.29269844 0.053895302 -0.092894845
000160 19 bf 4b bd e3 42 8f 3d 8c 6e 6b 3d fe 1a a3 3c
       -0.04974279 0.069951795 0.057478473 0.019910332
000170 97 85 cd 3c f5 99 63 3b 34 55 f3 bc a4 6a 9b 3d
       0.025088115 0.0034729217 -0.029703714 0.075886995
000180 1b 9b 34 3e a9 86 65 3e 2a 3d 18 3e e3 04 93 be
       0.17637293 0.2241465 0.14867082 -0.28714666
000190 a8 72 36 be a1 a9 62 bc c5 87 26 3c ba ef 63 3c
       -0.17817175 -0.013834388 0.010164206 0.013912136
0001a0 e0 03 1b be ee 6d c3 bd 4d c8 89 3d 1f 29 5c 3e
       -0.15138197 -0.09542452 0.067276575 0.21500061
0001b0 09 d9 ef bd 87 07 0b 3d 97 d9 56 3e 2e 21 c4 bd
       -0.11711318 0.033942726 0.20981441 -0.09576641
0001c0 60 30 2a 3e 35 bf 9e 3e 27 91 6a 3e 09 61 72 bd
       0.16620016 0.31005254 0.22906934 -0.05917457
0001d0 1b 96 1e 3e 1d d1 b6 bd 1d 8e 09 be 59 69 9c 3d
       0.15486948 -0.08926604 -0.13433118 0.07637281
0001e0 ad 16 49 bd ed 92 d9 bb 2e ac 2a be 81 f0 0c 3e
       -0.04909389 -0.0066398294 -0.16667244 0.1376362
0001f0 79 46 4a 3d 7c 34 1a be ec 7b 0f be dc ea ca 3d
       0.049383614 -0.15059084 -0.14012116 0.09908077
000200 6c 4b 17 3e a2 f3 66 3e b2 0f 78 3e b9 27 2f 3e
       0.14774865 0.22553876 0.24224737 0.17104997
000210 81 df fc bd fb 1d e5 bd a0 db 76 3e 8e d4 3b bd
       -0.123473175 -0.11187359 0.24107218 -0.045857005
000220 bc a2 75 bd 70 65 c3 3d 6c 65 4e 3e d0 5d 15 3e
       -0.05996965 0.09540832 0.20155877 0.14586568
000230 d3 64 e7 3d 1d 33 f8 3c 76 ea 7f bd c2 33 9a 3d
       0.112985276 0.03029781 -0.06247946 0.07529403
000240 7b 64 35 3d 71 6b 4b be ac aa 15 3e 99 a6 6a bd
       0.04428528 -0.19865204 0.14615887 -0.057287786
000250 32 96 7e be ff db e8 3e 37 91 7c 3c 33 60 59 3e
       -0.24861982 0.45480344 0.015415481 0.21228103
000260 fb 5d 40 bc 4c f3 2b be b8 48 aa bd d8 90 8f bc
       -0.011741157 -0.16792029 -0.08314651 -0.017525122
000270 17 0e bc bc 3b 8e 02 3e 93 cf a1 bd a6 d2 a0 be
       -0.022955937 0.12749569 -0.0790092 -0.31410712
000280 14 d9 94 3d 2a 5a 59 3b eb ad 64 be fd e5 01 be
       0.07267967 0.0033165314 -0.2233197 -0.1268539
000290 00 e3 8e bd 1a dc a8 3b 26 23 13 be b0 53 52 3e
       -0.069768906 0.0051531913 -0.14368877 0.20539737
0002a0 e8 f5 0b 3e af e0 9c bc 51 59 bb bc 3f 75 34 bd
       0.13668025 -0.019150106 -0.022869738 -0.044057127
0002b0 e7 ac f8 b9 88 c7 68 be d8 05 90 be 21 ea 9f bd
       -0.00047431068 -0.22732365 -0.28129458 -0.078083284
0002c0 0c 8d 88 3d 7c 40 61 3d 34 b7 4a 3a b8 50 de bb
       0.066675276 0.054993138 0.0007732988 -0.006784525
0002d0 d3 d0 48 3e 7e ca 8e be 1d 3d e0 bd 95 13 b1 3d
       0.1961091 -0.27888864 -0.109491564 0.08646313
0002e0 6d b1 06 be 34 6b 5a 3e f2 88 5a 3d 1d f3 c4 3b
       -0.1315362 0.21329957 0.053353257 0.0060104267
0002f0 8f ab c1 3d 83 3b dd bd 36 bb 29 be 96 cf 28 be
       0.0945655 -0.108023666 -0.16575322 -0.16485438
000300 26 e0 5e be 10 c4 be bd 19 85 d0 bd 5a 59 8c bd
       -0.21765193 -0.0931474 -0.10181636 -0.0685298
000310 bd 4d 0e be 8c 76 31 bc 76 84 22 3e 2b d4 e5 bb
       -0.13896842 -0.010831486 0.15870842 -0.007013818
000320 e1 79 21 3e 9a e4 77 be 35 3b 50 be 80 b6 13 be
       0.1576915 -0.24208298 -0.20335086 -0.14425087
000330 49 ad f0 bc e8 8a 83 bc 5e 25 62 be f3 71 fc ba
       -0.029379504 -0.016057447 -0.22084567 -0.0019260034
000340 35 ea b0 3d 45 6e 1d be 11 27 03 3c cb b0 db 3e
       0.086384214 -0.15374096 0.00800492 0.4290832
000350 b4 1b 5e 3c fb e8 92 3e 0e f0 a1 bd a1 44 86 3d
       0.01355641 0.28693375 -0.07907115 0.06556059
000360 8a ad d0 bd 70 32 12 bd 58 5a 28 3e 89 5a 35 3d
       -0.1018935 -0.035692632 0.16440713 0.044275794
000370 9e 9f 3c be 34 d9 48 bd 35 a1 95 bd 2e 50 cf 3d
       -0.18420264 -0.049035266 -0.073061384 0.10122715
000380 36 21 1f 3e 05 9a 9e 3e 1a 81 97 3e 5a ee 83 bc
       0.15540013 0.30976883 0.29590684 -0.016104866
000390 c9 91 09 be d3 03 60 3c c0 72 a3 bd 0a 44 a6 3d
       -0.13434519 0.013672787 -0.07980871 0.08118446
0003a0 11 8f 5c bc dc 71 79 3d 36 8a 01 3e 08 7d 1f be
       -0.013461844 0.0608996 0.1265038 -0.1557504
0003b0 d1 38 78 3d 95 cc 1c be 69 c8 1f be eb 5f c8 bc
       0.06060106 -0.15312417 -0.15603794 -0.0244598
0003c0 d4 5b 81 3e 73 3f df 3d d5 ae 22 bd 83 9b 4f 3b
       0.25265372 0.10900774 -0.039717514 0.0031678386
0003d0 62 8e ea 3c 76 fd 8b 3d 46 c9 82 bd 4f 09 91 3e
       0.028632347 0.06835453 -0.06386046 0.28327414
0003e0 ba e1 84 3d 73 7d 8f 3d 4c 33 f7 bd b1 91 95 be
       0.064883664 0.070063494 -0.12070331 -0.29212716
0003f0 74 98 b2 3d e3 f4 dd 3c 74 ba 47 bd e0 aa bb bd
       0.087204844 0.02709431 -0.0487618 -0.09163451

actor_mean.0.bias f4 [128]
000000 15 71 3a 3d 7c fa 97 3a 5b 70 01 bd 5f 03 15 3d
       0.045518 0.0011595036 -0.03160129 0.036380168
000010 61 91 a5 3c f7 2a a6 bd c3 83 ae 3c 16 bb 32 3d
       0.020210924 -0.08113664 0.021303063 0.04363545
000020 ca 80 49 3d 58 53 06 3d 04 07 9a bc 94 b5 d3 bd
       0.04919509 0.032794327 -0.018802173 -0.10337368
000030 3e 93 5f bb a7 21 73 bd 51 b7 d3 bc 51 6b 02 3c
       -0.0034114863 -0.059358265 -0.025844248 0.007960157
000040 5c e5 c5 bd a1 41 9c 3c f2 50 12 bd de 51 57 bc
       -0.096628875 0.019074263 -0.035721727 -0.013142077
000050 cf b5 5d 3d da 83 16 bc 8d 5f bb 3c 75 fe 18 bd
       0.054128464 -0.009186709 0.02287271 -0.037352044
000060 49 07 a1 bd c2 36 2d 3c fc fa 18 bc 23 81 52 3d
       -0.07862718 0.010572137 -0.009337183 0.051392686
000070 e6 6d d4 bc f2 8b 10 bd 4a d3 b1 bc a4 97 df 3d
       -0.02593131 -0.035289712 -0.021707196 0.10917595
000080 d6 f5 8e bd fb d2 7f 3d 4b b1 15 3b df c2 5b bc
       -0.06980483 0.062457066 0.002284127 -0.01341316
000090 45 c7 0e 3c 5a 7a 13 bd 3c 8e 04 bc b1 45 21 3c
       0.008714502 -0.036005355 -0.008090552 0.009843276
0000a0 da ab ac 3b c4 ba 43 bd 81 7e 37 bc 1d dc 07 3c
       0.0052695097 -0.047785535 -0.0111995945 0.008292225
0000b0 52 49 0b 3d 68 85 8d 3d 8c 65 10 bd 4c d5 0f bc
       0.03400547 0.06910211 -0.035253093 -0.008778881
0000c0 b8 c8 b6 bd f6 f1 10 bd d5 78 80 bd 62 75 8e 3c
       -0.08925003 -0.035387002 -0.06273047 0.017389957
0000d0 ad 07 03 3d a7 31 1d 3d fa 1d 78 3d f7 0d 25 bd
       0.031989742 0.03837743 0.060575463 -0.04029652
0000e0 ae d3 38 bc cf 6f 67 3c 42 b5 94 bc ea e4 ae bd
       -0.011280937 0.014125778 -0.018152837 -0.08539756
0000f0 72 99 63 3c b2 cc 8e bc 17 10 34 bd f2 7d 96 3c
       0.013891565 -0.01743159 -0.043960657 0.018370602
000100 e4 ae 5e 38 72 ef 50 bd 83 17 9d 3c 16 c7 04 3d
       5.3091804e-05 -0.051009603 0.01917625 0.032416426
000110 ae 6b 8e bd dd 84 d6 bd 03 2f e2 39 17 ae 7e 3c
       -0.06954132 -0.104745604 0.00043141106 0.015544436
000120 41 7c 8a bc f4 ea 64 3d 84 dd 21 3c 67 1c 1d bd
       -0.016904952 0.05588813 0.009879474 -0.038357165
000130 e2 60 35 3a 63 d8 65 3d a2 6c 08 3d d6 5b 98 3c
       0.0006919039 0.056114566 0.033306725 0.018598478
000140 4b ee fd 3b 4a 3f 26 3c 37 ef 1d bd 9c c6 a6 bd
       0.007749354 0.010146925 -0.03855821 -0.081433505
000150 66 bd 0c bd 4d 69 e6 bc 67 72 b0 bc 68 e1 16 bd
       -0.034360312 -0.028126383 -0.021538926 -0.036836058
000160 19 65 8c 3d 56 89 87 3d 73 c2 b6 bd 72 84 01 bc
       0.0685522 0.066179916 -0.08923807 -0.007905113
000170 c7 30 2c bd 33 89 3b 3c 0a ce d2 3a 9d 0c f9 bb
       -0.042038705 0.011446285 0.0016083133 -0.0076003806
000180 7f 19 4a bd b6 fc 4a bc 02 37 dd bb cc bb 9a bd
       -0.04934072 -0.012389353 -0.006750942 -0.07555351
000190 fa 8d d4 3a 0a c2 53 bd c1 21 a8 3c 0c a7 ca bc
       0.0016216629 -0.051698722 0.020523908 -0.024737857
0001a0 95 34 6f 3d e8 7c b2 ba 68 b7 12 bd a8 b8 03 3d
       0.058399756 -0.0013617547 -0.03581944 0.032158524
0001b0 36 6c 8d 3c 8d 48 c3 3c a6 20 2c bd 8b 4e c4 3c
       0.017263513 0.023838306 -0.042023323 0.023963233
0001c0 a0 da 1e 3c d3 01 02 3d 47 50 af 3c 2d 6b af 3c
       0.009695679 0.03174002 0.021400584 0.02141341
0001d0 09 b0 1d ba 05 b0 96 bb 03 ff 3d bd 5b a2 6b bd
       -0.0006015306 -0.00459862 -0.046385776 -0.05752788
0001e0 ee c2 e6 3c d1 9e 25 3d ad 01 9a bc 4e a4 20 3c
       0.028169122 0.040434662 -0.018799627 0.009804798
0001f0 40 00 2b bd bb d1 06 3d 37 44 64 3d 04 9e 9c 3d
       -0.041748285 0.03291486 0.055729117 0.076473266

actor_mean.2.weight f4 [128, 128]
000000 ea 55 57 be b4 af 89 bd 09 00 89 3d dc 0b fc bd
       -0.21028867 -0.06722966 0.0668946 -0.123069495
000010 ef 5e 85 bd a3 06 a3 3d 0c 4d 6e 3e 0f 2c e8 bc
       -0.06512248 0.0796025 0.23271579 -0.028341321
000020 1f 2c 39 be 98 d6 30 be 99 59 2d 3e cc 4c 5b 3d
       -0.18083237 -0.17269361 0.1692871 0.053540036
000030 45 3b a4 3d 96 2b 66 bb 3a ac 19 be 4f e4 a2 bc
       0.08019117 -0.0035121194 -0.15007105 -0.019884257
000040 08 38 29 be 8a 56 b2 bd ed 44 92 bd 62 ff e8 3d
       -0.1652528 -0.08707912 -0.07142053 0.113768354
000050 dd ed f7 3c 9a 1e e8 bd f5 29 a7 3d 65 eb 59 bd
       0.03026479 -0.11333962 0.081622995 -0.053203005
000060 77 ba 9a bd d1 45 c4 3c b0 2b 55 bd b3 36 40 be
       -0.075550966 0.023959072 -0.052043617 -0.18770866
000070 38 8b a4 3d d1 19 6d 3e c0 56 40 bd a1 73 3d bb
       0.08034366 0.2315438 -0.04695773 -0.0028908032
000080 bf 19 2a bd 56 45 51 be 5d cb ea bd 04 1a 07 be
       -0.04152846 -0.20436606 -0.1146457 -0.13193518
000090 28 b4 c5 bd 6f a6 51 3c 6c cf 0e bc a3 82 61 bd
       -0.09653503 0.0127960285 -0.008716445 -0.055056226
0000a0 48 35 d5 bc 58 b0 72 bc 3e ff b3 3e 8c bc 41 bd
       -0.026026383 -0.014812551 0.35155672 -0.047298953
0000b0 65 54 23 bc c4 61 6d 3e fb e3 3f bd a0 77 15 bc
       -0.009968852 0.23181826 -0.04684828 -0.009122759
0000c0 a4 d6 d3 bc 56 ab 32 3c aa 23 cb bd e2 8a 7b bd
       -0.025859185 0.0109051075 -0.09918912 -0.061411746
0000d0 ae 68 b2 3d 51 e5 2b be f1 a8 71 be e6 a9 9e 3e
       0.08711372 -0.16786696 -0.23599602 0.30988997
0000e0 48 33 d5 bd e4 53 18 3d fa 08 a0 3e c1 a3 c5 bd
       -0.10410172 0.03718938 0.3125685 -0.09650374
0000f0 8f db 64 bd eb 58 99 bc b4 ba 49 3c e4 13 ad bd
       -0.05587345 -0.018719157 0.01231258 -0.084510595
000100 63 e3 35 3e 11 c9 c5 3c 4d bb 28 be 26 64 97 be
       0.17762522 0.024143727 -0.164777 -0.29568595
000110 11 ed 80 3d 5b a2 0c 3e cf 5d 54 be d1 45 64 be
       0.06295217 0.13733809 -0.2073891 -0.22292258
000120 6b 5f 1a 3e 35 ee b6 3d 1d 7c bf 3c 6d fd 8a bd
       0.15075462 0.08932153 0.023374612 -0.067866184
000130 4d d9 9e 3d 0b 53 b5 bd 4b 3f 48 3e 28 2d 49 be
       0.077562906 -0.0885373 0.19555394 -0.19646132
000140 2b 92 37 3e 8d 96 4d 3e e8 93 83 3d b4 dc 1b 3e
       0.17926852 0.20076962 0.06424695 0.1522091
000150 6f 3f da 3d 19 76 60 3e e9 45 01 bd 1e 25 a8 bd
       0.1065663 0.2192005 -0.031560812 -0.082102045
000160 c9 1c 20 3c 48 47 29 3e e8 10 52 3e a7 8e 58 3e
       0.009772488 0.16531098 0.20514262 0.21148168
000170 83 06 a2 3d 03 57 80 bd e5 db c2 3c 17 7e 27 be
       0.07911398 -0.06266596 0.023786495 -0.16356693
000180 f9 fa 31 be b9 6c 7b 3c 98 63 10 be cc 83 09 3e
       -0.17380895 0.015345746 -0.14100492 0.13429183
000190 de 70 45 3e 71 30 8f 3d cf f7 41 bd 10 83 0b be
       0.19281337 0.06991661 -0.04735547 -0.13624215
0001a0 94 51 73 3e 35 25 bb bd 6d c3 d4 3d 28 4f 1a be
       0.23761588 -0.09137956 0.10388837 -0.15069258
0001b0 dc ad 43 be 3b 48 39 bd d7 09 5e 3e 8e bc 82 b9
       -0.19109291 -0.0452349 0.21683441 -0.00024936016
0001c0 36 23 08 bd 41 41 4f 3e d5 53 c1 bd b1 e2 2f 3e
       -0.033236705 0.20239736 -0.09439818 0.1717632
0001d0 f7 82 69 be b7 ea 09 3e ed 97 d0 bd 89 22 78 3d
       -0.22803865 0.13468443 -0.101852275 0.06057981
0001e0 f0 b7 bf 3c 6b 73 d9 bd f0 bb f8 bd c9 f1 33 be
       0.023403138 -0.10617717 -0.12145221 -0.17572702
0001f0 61 b6 ba bb ea 7d 0c be 68 bd da bd d5 5d 84 3c
       -0.005698011 -0.13719907 -0.106806576 0.016158024
000200 13 b0 b6 3e 41 68 09 be 31 05 29 be 06 d1 f2 3d
       0.3568121 -0.13418676 -0.16505887 0.11856274
000210 2b 93 68 bd e1 25 83 bd 69 c0 a6 bc 50 1e 12 3d
       -0.056780975 -0.06403709 -0.02035542 0.03567344
000220 e1 13 cb 3d 6e 40 5a 3d 64 1d 9a 3c 61 6c 88 be
       0.09915901 0.0532841 0.018812843 -0.26645187
000230 7b 30 5e 3e 8e e6 d4 bc 2b e6 d1 bd 61 dc 97 be
       0.21698181 -0.025988843 -0.10248979 -0.29660323
000240 5b 50 29 3e dc 35 df 3d 22 58 ed 3d 30 4b 42 3e
       0.1653456 0.10898945 0.115890756 0.18973994
000250 4e a2 8d bd 5b e6 98 bd b6 09 8a 3c 97 bc f1 3d
       -0.06915723 -0.07465812 0.016850334 0.11803549
000260 dd 04 81 be 98 16 da 3a 34 58 31 3d e2 fe 6f be
       -0.25199023 0.0016638814 0.043297008 -0.23437074
000270 bb ae 66 3e 6f 8e 07 3e 9b ab da bd 2e a9 8e be
       0.22527592 0.13237928 -0.106772624 -0.2786345
000280 23 d6 1e 3d e4 7d 9c 3d 16 28 4d 3e 5e d8 41 3e
       0.038778435 0.07641199 0.20034823 0.18930194
000290 40 07 59 3d bf 3d 32 be a9 e8 b0 bd 36 ff a4 3c
       0.05298543 -0.17406367 -0.086381264 0.020141225
0002a0 b2 cf 4a bc 6e 22 14 3e 16 b9 8c 3d 6b 43 c0 3d
       -0.01237862 0.14466259 0.0687124 0.09387859
0002b0 d1 b0 f3 bd 08 7c d9 3d d0 9d 2e 3d 49 7f 6d 3e
       -0.118989594 0.1061936 0.04263097 0.23193087
0002c0 3f 1f 92 bc a8 0d 54 3d 2b 31 04 be 1d 6d 29 3e
       -0.017837165 0.051770836 -0.12909381 0.1654553
0002d0 98 5e 5e 3e f7 43 28 3e 05 8b e7 3c 6d ad 5f 3d
       0.21715772 0.16432177 0.028264532 0.05460875
0002e0 55 1d 61 bd 66 f4 7d 3e f2 88 c9 3b 7f a5 9c 3d
       -0.054959614 0.24800262 0.0061503584 0.076487534
0002f0 90 71 4f 3d 4a 2d 40 be 54 1c 27 be 14 8c e9 3d
       0.05064541 -0.18767276 -0.163194 0.11403671
000300 9e b5 6e bd 86 f8 71 be aa c8 80 bd dd 6d eb 3c
       -0.058278672 -0.2362996 -0.06288274 0.02873891
000310 00 51 5c be 63 38 df 3d 05 19 04 3d 23 ba de bd
       -0.21515274 0.10899427 0.032250423 -0.108753465
000320 3d af ec 3a 37 2d 8f bc eb 11 86 bd 8d 52 2a be
       0.0018057596 -0.017477615 -0.06546386 -0.16633053
000330 69 33 b1 bd fb 23 88 bd 5c a9 ae 3d f3 7c 3d 3d
       -0.08652384 -0.06647488 0.085283965 0.04626174
000340 74 47 7d be 36 f4 f6 3d 34 b3 25 bd 49 fa 0e be
       -0.24734288 0.12058298 -0.040454105 -0.13962664
000350 26 48 1f be 83 a2 d3 3c d1 78 64 bc a5 0e bb 3c
       -0.15554866 0.025834328 -0.0139448205 0.022834131
000360 bd 27 6c 3d 30 fd 92 3d be 32 4c 3d 55 af 41 3e
       0.057655085 0.07177198 0.04985308 0.1891454
000370 b4 72 12 3e 0a 08 17 be ca fc 99 bd 12 20 b7 3d
       0.14301568 -0.1474916 -0.07518919 0.08941664
000380 a7 69 8b 3e f8 92 a3 3d 58 0a 74 3e ea 3c 08 3e
       0.27229044 0.079870164 0.23832071 0.13304487
000390 df cd 85 be 16 fa 0e be ea 6b 1a be 42 c4 b9 3b
       -0.2613363 -0.13962588 -0.15080228 0.0056691477
0003a0 d9 72 06 3d 5a 7f fb 3b 7c 72 94 3d 26 d0 11 bd
       0.03282437 0.0076750936 0.07248399 -0.035598896
0003b0 ed df 27 3e 42 a6 5d bd 4d 0a e2 3c ac 04 f4 bc
       0.16394015 -0.054113634 0.027592802 -0.029787384
0003c0 61 d2 13 be 9e 7a 69 be 32 40 ac bd 86 55 05 3d
       -0.14435722 -0.22800681 -0.08410682 0.032552265
0003d0 a4 9a 36 be 2f 91 04 be 2e 2f 9f bd cb e0 19 3e
       -0.17832428 -0.12946008 -0.07772671 0.15027158
0003e0 fe 53 85 bd c5 19 af bd 2e 54 3c bb 6d 46 e3 bc
       -0.06510161 -0.08549837 -0.0028736698 -0.027743543
0003f0 1c cc e1 3d 46 b1 ce bb d5 2d 02 be 79 19 5e bd
       0.11025259 -0.0063077537 -0.12712796 -0.05422351

actor_mean.2.bias f4 [128]
000000 0b b7 8e bb cd b8 00 bd ec 9c 22 bc 8b 61 09 3d
       -0.0043553165 -0.03142624 -0.009925108 0.03354029
000010 03 5d be 3d 6b ba 1a 3d 49 fe de bc 3c 11 df 3b
       0.09295084 0.03777544 -0.027220862 0.0068074744
000020 e4 bc fe bc 9a ff bd 3c 6e 56 bf bb da 18 4a bd
       -0.03109593 0.02319317 -0.0058391606 -0.049340107
000030 b0 fb 85 bd 1d d6 72 3d ae 4d c8 bc 21 e7 49 bc
       -0.06542146 0.059286226 -0.024451103 -0.012323172
000040 36 d6 6b 3b 43 fa fb bb 04 14 4f 3d 55 45 bd b9
       0.0035985834 -0.0076897456 0.050556198 -0.00036100546
000050 16 e8 0f bd d5 34 92 3c c1 a0 6f bc b5 25 af 3c
       -0.035133444 0.017847458 -0.014625729 0.021380285
000060 13 d7 09 bc 3b ad 02 bd cf 69 da bb c5 a7 6c 3d
       -0.008413094 -0.031903487 -0.0066654454 0.057777185
000070 ef a5 28 3d f4 3e 8a bd 02 f5 d6 bd 54 f0 82 b9
       0.04117387 -0.067502886 -0.1049595 -0.0002497459
000080 24 17 19 3d ee 37 88 bc 74 80 28 3d 77 a2 02 bd
       0.037375584 -0.016628232 0.041138127 -0.03189322
000090 3c 0f 45 bd 79 00 2c bd 37 cc ee 3c 19 ec 58 3c
       -0.04811023 -0.04199264 0.029150112 0.013239884
0000a0 4c 25 fb bd 60 33 ec 38 d2 17 9c 3d 34 df e3 bc
       -0.12262973 0.00011262926 0.07621731 -0.027816392
0000b0 ff c3 06 3d d9 fe a9 3b 97 4d 3e 3d 76 eb e8 3b
       0.03290176 0.005187851 0.046460714 0.0071081473
0000c0 0f a6 2c bb aa 5e 9e 3c 8a 87 18 3d 20 3d 76 bd
       -0.0026344096 0.019332249 0.037238635 -0.060116887
0000d0 50 54 ad 3c a4 38 ce 3c 6c 15 8c bc bc 01 1c 3d
       0.021158367 0.025173493 -0.017100058 0.03808759
0000e0 a1 92 30 3d d4 fa af bc 9d 81 78 bb a4 81 6b 3d
       0.043108586 -0.021481909 -0.0037919052 0.05749668
0000f0 5e 9c 91 bb 58 0e b8 3a d7 64 05 bd e2 a3 48 bd
       -0.0044436892 0.0014042361 -0.03256687 -0.048984416
000100 c7 15 3f 3d 64 6e 6b 3c 26 65 de bc e5 4b 94 bc
       0.046651628 0.014369581 -0.02714784 -0.018102596
000110 6f 19 5a bc 0e 71 93 3c 96 f4 1d bc a8 11 6d bc
       -0.013311728 0.017998245 -0.009640833 -0.014469542
000120 22 28 01 bc 4a e9 ab 3c 19 aa 49 3d ce b7 f3 bc
       -0.007883104 0.020985264 0.049234483 -0.02975073
000130 dc 22 21 3d 67 ed 0b bd e8 a7 6e 3c 9f 38 2c bd
       0.039339885 -0.03416195 0.014566399 -0.042046186
000140 9a 8f 0d 3d c5 9c 25 3c 2e 49 55 3d b6 65 21 bd
       0.034560777 0.010108178 0.052071743 -0.03940364
000150 f7 cf ce 3b f6 7d a7 bc c8 84 13 bd 87 95 4c bd
       0.0063114124 -0.020445805 -0.036015302 -0.049947288
000160 83 80 e0 3c 62 d7 80 bc 5c 6e 18 3d 38 83 20 3c
       0.02740503 -0.015727703 0.037214622 0.00979691
000170 57 4e 0f 3d 0f 37 10 3d 4d e2 9b 3c 28 eb 94 bc
       0.03498682 0.035208758 0.019028807 -0.018178537
000180 b7 b9 99 3c 5f a1 2d bb d1 54 c8 3c 13 d6 fa 3c
       0.018765314 -0.002649389 0.024454506 0.030619657
000190 52 03 fd bc 3c 4f 30 ba 02 a2 19 3d 92 04 30 3c
       -0.030885372 -0.0006725674 0.03750802 0.010743277
0001a0 81 db 3f bd e6 12 ac 3c 36 30 aa bc f1 2f ad 3c
       -0.046840195 0.021005105 -0.020774942 0.021141024
0001b0 18 c6 44 3b dc c0 30 bc cb 7c 63 bc c7 a4 94 bb
       0.00300253 -0.010788169 -0.013884733 -0.0045362446
0001c0 29 6d d4 bb bd f6 76 3b 04 a7 44 bc 64 f2 92 3c
       -0.0064827395 0.0037683689 -0.01200271 0.017937846
0001d0 cb e4 bd 3c f4 8f ec bc bd 6e a3 bd b7 e8 8d 3c
       0.023180386 -0.028877236 -0.07980106 0.017322881
0001e0 a6 91 91 3d b3 68 41 bd e0 79 84 3d 16 02 8a bd
       0.07107858 -0.04721899 0.06468558 -0.06738679
0001f0 e1 c0 4e bd eb 3a 5c bd 20 5a 6a bd d2 06 cd 3c
       -0.050476912 -0.053767126 -0.057214856 0.025027666
