saved_agents/dm_hopper_c_v2.pth (torch, 222069 bytes, 26 tensors)

actor_logstd f4 [1, 4]
00000000: d08b 9cbe d78d 9ebe 3389 8ebe 0639 77be
-0.30575418 -0.3096759 -0.2783905 -0.24142846

critic.0.weight f4 [128, 17]
00000000: 08c9 d6bd 2691 51bc 5870 953e c7ae 823e
00000010: 9a73 4a3e 29cb 19bd 06a0 87bc 6455 b23d
00000020: 0e3d b73e ba0c 043f 9d3f c2bc cea6 b73d
00000030: f207 473e b584 6e3e ac55 073e a87f c53e
00000040: 0de7 003f fe01 3abe 53a4 88bd 8aca f3be
00000050: d59e f93c 7daf 1fbf 6308 8dbe 1227 d9bd
00000060: d4e6 013e f203 77be 75b5 fc3b 846d 92bd
00000070: 5ac3 9cbc c6de bc3b fde5 b33c 6290 0f3d
00000080: e512 ed3e 49fe 01bf f5ab 99be bedb ed3d
00000090: 6fcd 8ebe 326c 353c a0a1 873d b326 afbd
000000a0: 4f9f 16bd 942e f4bd 793f d83d 3130 73be
000000b0: 1d2d 19be 4673 fc3c e41a 3d3d 6cbb 643e
000000c0: 87b0 b83d ba53 633e 00d9 1a3e 8b65 8bbe
000000d0: 1625 e0bd 14aa 1dbf c653 24be da8e 553c
000000e0: edab ff3c 43ab c0bd 69ca 5d3d f6b9 8f3d
000000f0: 9952 00be 3194 81bd bfd2 4cbc 2ba0 96bd
00000100: 7273 143d 91b1 883e d591 d73d c163 863e
00000110: a8a9 5bbe ab67 7bbd 0d93 eebe 3b1d 01bf
00000120: b26f 2abd 6d1b 29bd c95c c53e 274a 13be
00000130: 6aee 75be 639f 31bd 214d fabd f94b 45be
00000140: edd9 22bc 3043 09be f4a0 2dbd 0fbe 0c3f
00000150: 9f06 643d bdc5 1fbf 774d 903c 8ada 243c
00000160: d873 b2be 1a6b 1c3f 97cb 213e 1c60 ac3e
00000170: 8ccf bd3e 3a5e 1f3e 1322 91be b25c 393d
00000180: 3139 3bbd b97a 4c3d 5658 85bc 09d6 f2bd
00000190: a2b3 ff3e 132f c63e 6815 313d 2d9f e2bd
000001a0: be09 f83e ecf8 bdbd 4fdd 1cbe d0a5 febd
000001b0: ce5e 49bd 1fb3 943c 310b 58be f414 ccbd
000001c0: 7bf6 3abd f4f2 203e cca5 31be 1063 6d3d
000001d0: 89fb 0dbe 1a64 083f 2d2e 0e3c deaf 07be
000001e0: 9717 5f3d 640d 933e c50d d6be f813 023f
000001f0: 85a1 363e be46 48be 5177 07bd 2f55 1f3e
00000200: 7dba 853e 1cff 13be 66a5 28bc 009a c03b
00000210: f4d1 64bd 4a8b ddbd 626e 273e dce0 463e
00000220: e882 59be b752 283e 1788 26bf 4447 96be
00000230: 8218 ec3d 0cc8 54bd 400a a4bd 0e73 e23e
00000240: d242 873e 0473 04bf 2e33 9ebd 38c7 36bd
00000250: e95f 043d 220b e4bc 36bd f03d 0cb6 c73e
00000260: 4a56 f13e 1e38 6fbd 69f7 ed3d 2be1 fe3e
00000270: 5521 33be 4ee2 833b e68e 2f3e ae9a d13c
00000280: 51f9 503e ecdd ad3e 5116 09bd 3d2f a73e
00000290: b8a6 ab3d 956c e7bc 5fbf 4dbd 5522 203e
000002a0: 9b6e 243d 3f22 28bc 07b6 65be 379e 99bc
000002b0: 90c4 483d 74f5 523d da3f 9c3d b0ad 1a3e
000002c0: 70af a8bd fd39 a0bd 9f66 0fbe 751a 033e
000002d0: b727 94be 698d 8d3e 1d9a 58bd d214 14bd
000002e0: 177f 95be 99ff 143e 8a52 1f3f b2e0 8ebe
000002f0: 52c2 48bd fc7e 1cbd c5bd 2f3d ecbe dc3e
00000300: 6d59 4e3e abfd c53d 492c 5ebd f03c 19be
00000310: ee66 973e bf02 f63d 1198 2ebe 3674 6bbe
00000320: 89d6 f0bd cb24 083e e866 11bd df3b d83e
00000330: 67b0 493d ad91 39be c091 063e fe47 49bd
00000340: a442 a8be c917 583e 7b15 743e a3e9 5d3e
00000350: e7a9 a3be 3d3f 0c3e 2a80 75bd 62a3 a33c
00000360: 2574 57bd 283d ce3c 2387 a4bd 2d73 3fbe
00000370: 61b5 89be ec24 033f 3cf6 2dbd c780 253e
00000380: cc8a 193f c7d3 74bf a8d4 0d3e 8ec8 c1be
00000390: 25ce 91be 0354 9cbe 8ca0 043e 7559 5abb
000003a0: 872b c7bc 1337 04bc e20d 223c df3f 723d
000003b0: 50ae 41bf 00cb 0dbe 1894 253d 98e4 f33d
000003c0: 461b 16bd 2ba2 13be e236 1c3e a7d0 ea3e
000003d0: 7e73 373e ab0c 3f3d e10f 15bc b191 feba
000003e0: 9f0d b13c 807a cfbd 100c 4a3e f56a e23d
000003f0: 6ea0 69be f03f b2be 8a13 8b3d 679d c93e
-0.104875624 -0.012790954 0.29187274 0.2552397 0.19770661 -0.037547264 -0.016555797 0.08707693
0.3578877 0.5158192 -0.023711974 0.08967362 0.19436625 0.23292811 0.13216275 0.38573956
0.50352556 -0.18164822 -0.06671967 -0.47615463 0.030471245 -0.6237715 -0.2754546 -0.10603155
0.1268571 -0.24122599 0.007712061 -0.07149795 -0.01913612 0.0057638614 0.021960253 0.035049804
0.46303478 -0.50778633 -0.30014005 0.11614178 -0.27891108 0.011073159 0.066226244 -0.08552303
-0.036773022 -0.119229466 0.105589814 -0.23748852 -0.14958616 0.030816685 0.046168223 0.22337121
0.09018045 0.22199908 0.15121841 -0.2722591 -0.109445736 -0.61587644 -0.16047582 0.013034547
0.03120991 -0.094076656 0.05414811 0.07017891 -0.12531509 -0.063270934 -0.012501418 -0.07354768
0.03624291 0.26697972 0.10525862 0.2624798 -0.21451437 -0.061378162 -0.46596566 -0.5043523
-0.041610427 -0.04128592 0.38547352 -0.14383756 -0.24016729 -0.043364894 -0.122217424 -0.19267263
-0.009939653 -0.13404536 -0.042389825 0.54977506 0.055670377 -0.624111 0.017615063 0.010061869
-0.34854007 0.61100924 0.1580032 0.33667076 0.37072408 0.15563288 -0.2834631 0.045254417
-0.04570884 0.049921725 -0.016277473 -0.1185723 0.49941736 0.3870779 0.043233305 -0.110655166
0.48444933 -0.09275994 -0.15318798 -0.1243397 -0.04916268 0.018151818 -0.21098019 -0.09964934
-0.04564522 0.1571768 -0.17348403 0.0579558 -0.13865484 0.5327774 0.008678001 -0.13250682
0.054465856 0.28721154 -0.4180738 0.5081172 0.17835052 -0.19558236 -0.033072773 0.15559839
0.26118842 -0.14452785 -0.01029334 0.005877733 -0.05586429 -0.10817583 0.16350701 0.19421715
-0.21241343 0.16437803 -0.65051407 -0.29351246 0.11528112 -0.051948592 -0.080097675 0.44228405
0.26418167 -0.51738 -0.077246055 -0.044623584 0.03231803 -0.02783734 0.11754839 0.39006078
0.47136146 -0.058403127 0.11619455 0.49781165 -0.17493184 0.0040247804 0.17144355 0.025586452
0.20407607 0.33958375 -0.03346855 0.32653227 0.083814085 -0.028250018 -0.050231334 0.15638097
0.040144544 -0.010262071 -0.22432719 -0.0187522 0.04901558 0.051503614 0.07629366 0.15105319
-0.08236587 -0.078235604 -0.1400399 0.12803061 -0.2893655 0.2764695 -0.05288135 -0.03615267
-0.29198524 0.14550628 0.6223532 -0.27905804 -0.049013443 -0.03820704 0.042905588 0.43114412
0.201513 0.09667524 -0.054241452 -0.14964652 0.29570717 0.120122425 -0.17050196 -0.2299355
-0.11759669 0.13295285 -0.03549853 0.42233178 0.049240496 -0.18121977 0.13141537 -0.049140923
-0.32863343 0.21102823 0.23836319 0.21671157 -0.31965563 0.13695998 -0.05993668 0.019975368
-0.052601 0.025175646 -0.08033588 -0.1869628 -0.26896194 0.51228213 -0.042471156 0.16162406
0.5997741 -0.95635647 0.13850653 -0.37848324 -0.28477588 -0.30532846 0.12951869 -0.003331748
-0.024312748 -0.008069771 0.009891005 0.059142943 -0.75656605 -0.1384697 0.040424436 0.11908835
-0.036647104 -0.14417331 0.15255311 0.45862314 0.1791515 0.04664294 -0.009098024 -0.0019422082
0.02161294 -0.10130787 0.19731164 0.11055557 -0.22815105 -0.34814405 0.06790836 0.393779

critic.0.bias f4 [128]
00000000: 45b7 683e e6f8 39bd 5a72 f53d 2ef1 8c3e
00000010: c961 ab3e 633f 133f 6aae 773d 2aaf 3b3e
00000020: 5208 b23e 36ff e0bc 163a fe3d 4345 5f3e
00000030: 398c 00be f826 0abf abbc 2fbe f402 debe
00000040: 0e98 cb3e 63bb 05bf 6562 0ebe 732f 3d3e
00000050: 33fb 7d3e 4f41 dabd e985 e9b9 38b2 8c3e
00000060: 9b63 053e 1077 10be c2b6 efbe 425a d3be
00000070: ba9c 0dbe fd78 27be 30c5 6e3c cfb7 0abf
00000080: c5a6 393e 57a7 d33d eb0b d23d eac9 e93e
00000090: 1c80 c3be 169b aabc 08e0 393d 82fb 29be
000000a0: 0234 b4bd d825 643b b488 a93d 981e 9bbe
000000b0: 57db 07bd 0ec7 ff3e cb2d 4abe 639b 83be
000000c0: 5cbd 3e3d 4bd0 bebe fc8c 08be e1e3 913c
000000d0: 4153 d7be f61c b63e d916 f5be db09 813e
000000e0: 1fb6 023d 845a ec3d 39f6 503e 90dc e7be
000000f0: 78b0 f9bd aaf9 f73e ee45 ba3e 0407 023e
00000100: c2db c8bd 7b39 293e d749 95bc 6ea6 a1be
00000110: 95e9 8e3e c257 d1be 1909 bdbe ff0c 223e
00000120: 6f3f 5ebe 427e 573e 7145 363e e2c7 98bd
00000130: e241 a2be cc4f e63e 361e c53e 174f 9abe
00000140: 8828 63be 6f33 8b3e 7714 94bc 28dc c03e
00000150: ce5f a1be 3e92 97be bdd0 25be f646 55be
00000160: cd15 43bc 203c 39be 2fd3 ad3e 622c 053e
00000170: a500 69be 1dfe b0be c8bd 62be 4860 253d
00000180: 83c6 413e e9b2 453d 87d5 803d 243f a4bd
00000190: f891 e03d 502a b53e 908b 7e3e 3862 ddbd
000001a0: dba3 803d e243 54be 96a8 dc3c 8010 a23e
000001b0: 4145 6bbd 284b 9abe 2445 70bd 45ee e6bb
000001c0: b93b 37be f9aa f9bd da90 bb3e 75b0 083d
000001d0: 638f 893e 4779 9cbe 167e dd3e 4be5 e43e
000001e0: 2a61 903c 9912 263c 0468 65bc 6a86 b53e
000001f0: 3724 823e 32c4 e63c 8e9c 75be af60 f63d
0.22726162 -0.045403384 0.119847015 0.27527755 0.33473042 0.57518595 0.06046907 0.18328539
0.34771973 -0.027465444 0.12413423 0.21803765 -0.1255349 -0.5396571 -0.17161815 -0.43361628
0.39764446 -0.52239054 -0.13904722 0.18475132 0.24802856 -0.10656988 -0.00044540994 0.2747972
0.13026278 -0.14107919 -0.4681912 -0.412798 -0.13829318 -0.16354747 0.01457338 -0.5418672
0.18130024 0.10334652 0.102561794 0.4566186 -0.38183677 -0.020825904 0.04537967 -0.16599849
-0.08798982 0.0034812596 0.08278027 -0.3029678 -0.033168163 0.49956554 -0.19744031 -0.25704488
0.046567306 -0.3726829 -0.13335031 0.017808856 -0.42055705 0.3556897 -0.47868994 0.25202832
0.031911965 0.11540702 0.20406426 -0.45285463 -0.12191862 0.48432666 0.36381477 0.12697989
-0.098075405 0.16525833 -0.018223686 -0.31572288 0.27912584 -0.40887266 -0.36921003 0.1582527
-0.21703885 0.21044257 0.17799927 -0.074599996 -0.3169089 0.44982755 0.38499612 -0.30138466
-0.2218343 0.27187678 -0.018076165 0.37667966 -0.31518406 -0.2960376 -0.16192909 -0.2082785
-0.011907053 -0.18089342 0.33950183 0.13005212 -0.22754152 -0.34568873 -0.22142708 0.040375024
0.18923382 0.048266325 0.06290727 -0.080198556 0.10965341 0.35383844 0.24857926 -0.10809749
0.06281253 -0.2072902 0.026935857 0.31653214 -0.057439093 -0.30135465 -0.058659688 -0.007047447
-0.17893876 -0.121908136 0.3663395 0.033371408 0.26867208 -0.30561277 0.43260258 0.44706187
0.017624456 0.01013627 -0.01400185 0.35454112 0.25418255 0.028169725 -0.23985502 0.1203016

critic.2.weight f4 [128, 128]
00000000: 3d6a 233e 231d afbd 44ff 98bd 65d7 b13b
00000010: a4c6 8dbe 36ed 66be 2c2a 50be 9659 d1bd
00000020: 0717 58be 5e29 efbd e4bc 4c3d fbf1 3ebc
00000030: f5dc a73d 8046 563e 320f 96bd 6971 193e
00000040: ced1 b6be 94c4 213e eb2e 28be 8549 c5bd
00000050: 356b 14be ddde 0a3e 1dbf a63c 1847 94be
00000060: 87b6 47bd 25d1 793e ef75 533e adc0 c03e
00000070: 8a66 7a3d 8614 973e ea5d 013e d8fb ab3d
00000080: e577 c4be 2434 02be d538 19bc 42b7 29be
00000090: 92d6 0c3d a304 08bd 8bf4 39be 96e7 043e
000000a0: ee4f 89bd 1790 52bd 9de5 313e 4f30 1a3e
000000b0: 932b 953e 570b 8cbe d0bc e73d b849 dd3c
000000c0: 4583 423e a2cb 2e3e 8e7d f3bd bfc4 acbd
000000d0: ac6b 9e3d 58b7 e0bd dab0 fa3d 35d7 66be
000000e0: 365f 76be 0d87 7cbd 6641 c4be f8cb 873e
000000f0: 81e8 9e3c c094 373d 30bb 63bd 5ca0 c33c
00000100: 9704 763e 6139 ab3d 471b d7bc 3406 21bd
00000110: ed01 4ebe 49a9 cd3d d343 6f3e 6968 4bbc
00000120: 1666 4f3d 3683 82bd 4d2f 88be 3218 793e
00000130: 4910 a83e 509e 4dbd 4b5d 0abe 4716 173e
00000140: 0b2d acbd db1a 0b3e b8f3 24be 4ce2 f5bd
00000150: c8d2 7e3e 0e06 303e c741 90bd d18a 12bd
00000160: dd46 aebc ebc2 b93c 0c39 71be cb79 3cbe
00000170: 2409 413c 641d 953e 0647 cb3d b1f1 c6bd
00000180: 05fe 53be 4f33 a23d 5b8b a83c cdac 31be
00000190: d76e b3bc 3ea1 debe 599a d33d 2748 dc3d
000001a0: 370a 7bbe 2749 503d 7615 1cbe daaf 4f3d
000001b0: d0af 11b6 f512 e8bd f184 8c3e 220c 0c3d
000001c0: 8550 a53e 54a2 8c3d 32ba f2bd 0516 6fbe
000001d0: 058e d0be ba4f 23bd c423 e83d 9832 15be
000001e0: 1c34 26bd 60ed 8ebe b293 9dbd 440e 85be
000001f0: 3298 86bd 8ec1 8b3d ac68 9a3e 631a 613c
00000200: 2145 9abd caa7 473e b6e0 003e 5d38 a73d
00000210: 4973 b3bc 7cb9 313d 02e2 48bd 7e39 483e
00000220: e955 983e b37b 2f3e 8234 203e 6e69 673d
00000230: 5b21 65be 2ba1 05be 762f 4cbe 9736 b0bd
00000240: 35ce 623e 3ad6 f7bd 01b0 e63e 7a90 96bc
00000250: 7496 8a3c 9e81 0d3d 0aa2 103e 8a68 eebd
00000260: ae15 86be b5f3 9e3e 8fc0 40bd 2133 84be
00000270: 2488 b2bd d750 dabd 9d9e bf3d 616b d0bd
00000280: 12df 053c 6059 e33d 727a b13d 2d69 613d
00000290: 33e6 72be 1083 b1be 4c30 df3d eb97 a4bc
000002a0: a63b 96be add1 49bc e65a 983e 3128 a63d
000002b0: 8d0c 3abe 6af3 df3e 8f62 8e3c aaa1 583e
000002c0: 16c5 44be d90d 5d3c ec0f 68be 3a17 d1bd
000002d0: 4d16 cdbe cacb 943b dbdf 0bbd 92b6 003e
000002e0: 7975 21be c79c 0b3d f45b 07bd b493 02be
000002f0: 4846 9e3c 429c 9f3c fefe 1a3e 70b2 473e
00000300: db86 abbd 261f 70bd 7cda 453e 398d 653c
00000310: 1bc5 8b3d 6429 c7bd e43f 58be 34f1 f8bd
00000320: 611d e53d 60ee dabd ce80 50be c22a a83d
00000330: 0790 93be 2b19 efbd 7fb3 bebc 340d 2bbe
00000340: a145 a03c 2eb4 a23d 4cd6 223e 8684 ddbd
00000350: 7213 02be d7b9 2fbe bc9f 2c3e 2c30 b93d
00000360: 9d26 9ebe 5c22 4bbe 6cb1 a4bd 35ac 32bd
00000370: b12f 89bc fecc 69bd 40f7 3bbe 5c8e f43d
00000380: ace4 783e 2537 8abc f053 033e 5ce0 69bd
00000390: 70ab 71be 7827 273e b7c2 9abd d334 26bd
000003a0: 5c01 803e a080 b0be e736 5b3d e1a6 423e
000003b0: e553 1c3d dee0 a2bc 77f7 633b 1481 6c3e
000003c0: 43d7 7c3d 8904 cc3d 8280 283d be02 ae3e
000003d0: 51a9 39be 97da bcbd 9be2 00bc 7e06 c83c
000003e0: 423d 213e 9e13 a4bd cf26 903c d4a0 503e
000003f0: 2fc6 75bc 0238 5bbe 93a0 41be 0f62 8e3c
0.15958495 -0.08550479 -0.07470563 0.0054272884 -0.27690613 -0.22551426 -0.20328587 -0.10222165
-0.21102534 -0.11677812 0.049984828 -0.011654372 0.08196441 0.20925331 -0.07327117 0.14984669
-0.35706943 0.15797645 -0.16424148 -0.09633163 -0.14494021 0.13561578 0.020354802 -0.2896049
-0.048758056 0.24396189 0.20650457 0.37647 0.061132945 0.29507846 0.12633482 0.08397645
-0.38372722 -0.12715203 -0.009351929 -0.16573814 0.034384318 -0.033207547 -0.18159692 0.12978968
-0.067046985 -0.051406946 0.17372747 0.15057491 0.29134807 -0.27352402 0.1131531 0.02701269
0.18995388 0.17069867 -0.11889182 -0.08435964 0.077353805 -0.1097247 0.12240763 -0.22543032
-0.24059758 -0.061652232 -0.38331145 0.26522803 0.019397976 0.044819593 -0.055598438 0.023880176
0.24025188 0.083605535 -0.026258124 -0.039312556 -0.20117922 0.10042054 0.23365717 -0.01241503
0.050634466 -0.06372683 -0.26598588 0.24325636 0.32824925 -0.050199807 -0.13512151 0.14754592
-0.08407029 0.13584463 -0.16108596 -0.12006053 0.24885094 0.1718981 -0.07043796 -0.035776917
-0.021274025 0.022675952 -0.23556918 -0.18405835 0.011781964 0.29123986 0.09925656 -0.09714068
-0.2070237 0.079199426 0.020574262 -0.17351075 -0.021903438 -0.43482393 0.10332174 0.107559495
-0.24515615 0.050851014 -0.15242562 0.050704814 -2.170902e-06 -0.11331741 0.27445176 0.03419126
0.32287994 0.06866899 -0.1185192 -0.23348244 -0.40733352 -0.039870955 0.11334947 -0.14570081
-0.04057704 -0.27915478 -0.07694186 -0.25987446 -0.06571998 0.06824027 0.30157983 0.013739201
-0.075327165 0.194976 0.1258572 0.08165047 -0.021905558 0.043389782 -0.049043663 0.19553182
0.29753044 0.17137031 0.1564503 0.05649703 -0.22376005 -0.13049762 -0.1993998 -0.08604162
0.22148974 -0.12101407 0.45056155 -0.018379439 0.016917445 0.03454744 0.14124313 -0.11641033
-0.26188415 0.3104531 -0.04705864 -0.25820258 -0.08717373 -0.1065995 0.09356425 -0.10176731
0.00817086 0.11101031 0.08665933 0.055031944 -0.23720627 -0.34670305 0.10897884 -0.020091971
-0.29342383 -0.012318057 0.2975685 0.08113135 -0.1816885 0.43740398 0.01738098 0.2115542
-0.19215807 0.013492071 -0.22662324 -0.10209508 -0.40056077 0.004540895 -0.034149032 0.12569645
-0.15767469 0.03408506 -0.033046678 -0.12751657 0.019320622 0.01948369 0.15136334 0.19501662
-0.08375331 -0.058623455 0.19321626 0.014010721 0.06824704 -0.097246915 -0.21118122 -0.12155381
0.11187244 -0.10689998 -0.20361635 0.082112804 -0.28820822 -0.11674722 -0.02327895 -0.16704255
0.019564452 0.07944523 0.1590206 -0.108162925 -0.1270273 -0.17160736 0.16857809 0.09042391
-0.30888835 -0.19837326 -0.08041653 -0.04362126 -0.016746374 -0.05708026 -0.18356037 0.119412154
0.24305981 -0.016871998 0.12824988 -0.05709873 -0.23600554 0.1632365 -0.0755667 -0.04057772
0.25001037 -0.34473133 0.053519156 0.19008972 0.038165946 -0.019882616 0.0034784952 0.23096114
0.061728727 0.099618025 0.04113818 0.33986467 -0.18130995 -0.0922138 -0.007866527 0.024417158
0.15746024 -0.08011554 0.01759663 0.20373851 -0.015000864 -0.21408084 -0.1890891 0.017380742

critic.2.bias f4 [128]
00000000: b00d afbd 153c e63d 35c3 23be c731 c7bd
00000010: 06cd 013e 80ea 353e 762b fabd 9701 c13d
00000020: 8c3b 38be b030 e63d 8ed3 fabd 8c1b 81bd
00000030: e374 e63d b076 f13d fee3 173e 01aa 1b3e
00000040: e08c 05be d97c 16be 963f e03d 3e18 0cbe
00000050: de90 46be e316 ff3d 1bd6 e3bd 0008 17be
00000060: 80da d43d d4dd 45be d479 09be a0d9 d1bd
00000070: 364c b73d adc8 afbd eb77 3a3d 7d8b f73d
00000080: a411 cd3d ca3d cfbd cbb0 01be 6e85 01be
00000090: a6c4 cfbd 4b10 24be 9ab2 1b3e 2cab f4bd
000000a0: d961 00be a348 033e 494f d8bd 8979 d0bd
000000b0: 2aff 633d cb3e f8bd ea0c ef3d 798c 9f3d
000000c0: c256 0dbe 459a 10be 8eaa c13c f319 803d
000000d0: 4064 bb3d 3e66 f8bd 30f4 e0bd 1686 06be
000000e0: 012d 6e3d 488c b7bd 9e6a c13d 22f5 e3bd
000000f0: 7e81 f9bd 8eca d93d dcbc a03d d3c7 fdbd
00000100: 2fb3 b83d a776 a8bd 3433 ed3d d32b cbbd
00000110: 46d5 f5bd 1b01 e23d 5363 0dbe c9db 02be
00000120: 346e d43d c737 363e 60f6 47be 9fce bebd
00000130: 1230 923d e7e0 003e 721f aa3d e6fd 323e
00000140: 0aca 5cbd 25ee 14be 0abf 033e 9b63 f93d
00000150: 93c4 c3bd 6ddc bcbd 8e37 1e3e ce72 08be
00000160: ec20 39bd 3bec 12be 0ac9 923d 7d21 393e
00000170: 548c 353e 6a41 013e 90c4 f0bd 88ad fb3d
00000180: 243f 283e 7cfd 46be 856d 01be 0c43 29be
00000190: f3a4 8d3d 741d d5bd 1911 0cbe 1512 1f3e
000001a0: 2c6d 103e a4c2 d83d 975c 773c 071a ddbd
000001b0: 5423 1d3e 001c c73d 7596 da3d f2e3 113d
000001c0: f560 f7bd b3b4 0abe 4e1d b63d 67ad afbd
000001d0: bd60 9c3d d2e7 033e 54a1 c53d c9df 0b3e
000001e0: e0cf 2d3e f302 003e c47a 04be 73ad 07be
000001f0: 4fa3 fc3d 876a 153e 941e fd3d 8cb1 973d
-0.085475326 0.112419285 -0.15992434 -0.09726291 0.12675866 0.17765236 -0.12215321 0.09424131
-0.17991465 0.11239755 -0.12247382 -0.06304082 0.11252763 0.11790216 0.14833066 0.1520157
-0.13042021 -0.14696063 0.10949628 -0.13681123 -0.193912 0.12455537 -0.11124822 -0.14749146
0.10393238 -0.19322902 -0.1342538 -0.10246587 0.08950083 -0.08583198 0.04552452 0.12087152
0.1001313 -0.10119207 -0.12665097 -0.12648556 -0.101449296 -0.1602184 0.1520485 -0.11946711
-0.12537326 0.12820677 -0.105619974 -0.10179431 0.055663265 -0.12121352 0.11672385 0.07790465
-0.13802627 -0.14121349 0.023640897 0.062549494 0.091499805 -0.12128876 -0.10984075 -0.13137087
0.058148388 -0.089623034 0.09444164 -0.1113074 -0.12182902 0.10634337 0.07848522 -0.12391629
0.090185516 -0.08225756 0.11582032 -0.09920468 -0.12003569 0.11035367 -0.1380742 -0.12779154
0.10372582 0.17794715 -0.19527578 -0.093167536 0.07138075 0.12585793 0.08306779 0.17479667
-0.053903617 -0.1454397 0.12865844 0.12177201 -0.09558978 -0.092217304 0.1545088 -0.13325045
-0.045197412 -0.14347927 0.071672514 0.18079181 0.17729312 0.1262261 -0.11756241 0.12288958
0.16430336 -0.19432634 -0.12639435 -0.16529483 0.06916227 -0.10406008 -0.13678397 0.15534241
0.14104146 0.10584 0.015097759 -0.1079598 0.15345508 0.097221375 0.10673229 0.035617776
-0.1207904 -0.13545494 0.08892308 -0.08577996 0.07635639 0.12881401 0.096499115 0.13659586
0.1697383 0.12501125 -0.12937456 -0.1324976 0.12335836 0.14591418 0.12359348 0.07406911

critic.4.weight f4 [2, 128]
00000000: 98b9 01be c7fe 62bc 345b 223d 9f9b aebd
00000010: d922 233e 0c08 363e bde2 0ebe d939 0d3d
00000020: 561c 993c fcb3 d73c 17e1 b1bd 5cda 99ba
00000030: 2d60 893e 7313 08bd 5967 6a3e 0a2c 283e
00000040: d8e1 0cbe d0c7 553d 949d 833e a9fd b1bd
00000050: 1cc6 bbbc 1282 483e 40ac 76be 64d8 29bd
00000060: 8d48 183d 3abe 51be 41dc edbd ee19 55be
00000070: 4aed 453e 6c85 a13c 2034 c3bf a01a aa3d
00000080: 8a1b 4abd 3394 3abe 7c86 99be 76c6 923d
00000090: 46b4 263e c2c3 edbb 8517 143e 3d1b 33bd
000000a0: a6b6 f5bd e793 f73d debd 603c 3e73 7b3d
000000b0: adf7 803d bce1 78be ac46 873d 23c7 0f3e
000000c0: 61b4 bb3c 5fe2 da3c 8063 273e 75bc f53d
000000d0: ba98 0c3e cd70 adbd 7a86 50be 28c0 dabd
000000e0: 1e99 423e 93e0 84bd 6571 35bd 5465 173e
000000f0: 5b73 35be ff16 a33d 8415 483d 724f b63d
00000100: 623f 4e3e 5c7c 93bd a047 2e3e 2eb3 12be
00000110: 6023 82bc 1872 6fbe 1e4d 95bf 1e69 6e3d
00000120: 848a e73d e392 5b3d 954f c2be fae2 a73d
00000130: 8d79 793d e153 0d3e abd3 243e 313c 6ebd
00000140: c117 923d e74c 4abe 4773 313e 15f3 cd3d
00000150: bbeb 06be ed75 143d 4f0d a03d a795 3ebe
00000160: fa75 a0be b1c6 82be d844 0e3d 98bb da3e
00000170: 5d23 353e 8fd0 063c 2d5f 8dbc 4d5c a43d
00000180: cf24 49bd 75c0 8abe b1f0 28bd 1ff7 963c
00000190: a9a7 e63d eaa6 51bb 3e49 9c3c f2d3 483e
000001a0: e324 903d 67eb cbbc b202 7dbe 1848 a53d
000001b0: 01ff 55bd 05b7 f73c 02a6 633d 493d e43d
000001c0: c2ff 87bd 8054 d63d bed2 8c3f cc87 52bd
000001d0: dfce ba3d 896a 8abb 795e a93d fc9e 0b3e
000001e0: 55bf eabc db71 9b3e 3774 58bd cb35 a8be
000001f0: 9cd5 5f3e a0d7 143d 9883 9ebd 6ac0 613c
00000200: 759b 60be 376b 933e ecda 94be b5c3 a2be
00000210: 59a8 483e f610 d13e 202c 42be 2080 6a3e
00000220: 1a74 09bf 8d37 8c3e c573 7cbe ea00 91be
00000230: 39c7 6c3e 33af 5d3e f299 603e e3c5 4f3e
00000240: a0df 5dbe da1e ddbe 7798 413f c56b a6be
00000250: 3755 7dbe 060b 743e 19d6 55be bfa0 31be
00000260: dd0d 873e 6a84 09bf 4762 73be 7bc0 aabe
00000270: 57bc 423e a2f8 97be 43da 0f3d e0b6 4a3e
00000280: c8d3 463e 0856 dcbe 5c49 cabe 74c7 2cbe
00000290: 7031 b0be cc60 53be 5206 9e3e 1664 7dbe
000002a0: c044 66be 7441 163f 35cb 6dbe 2e34 e4be
000002b0: 5985 5e3e 2ba7 f1be 5a0c 813e 6e86 4e3e
000002c0: 4e34 a3be 862a 4ebe f353 cf3e c6c0 c83e
000002d0: 156a 593e 79b5 72be 051e 92be 400e c5be
000002e0: c7f4 663e 31fe 88be 7b5b 803e 1198 c0be
000002f0: a711 68be 8991 993e b491 c23e 44ad a5be
00000300: fe91 d63e 5544 a1be 20ff a13e f13e 99be
00000310: b547 86be e8e2 103f 71f8 cfbe 75b9 a4be
00000320: d51d 703e 9db3 f93e 5bcf 12bf 12ea 99be
00000330: 07c9 693e 7d5a 893e e3ca 543e f9b0 483e
00000340: 4ea4 abbe 737e 6bbe 18b2 b33e 9b4d 9a3e
00000350: 9093 82be dd00 8ebe 3eb9 393e 88f5 8cbe
00000360: d8a8 1bbf eb2c 81be 6a7f a73e e53f 013f
00000370: 5d3e 8e3e 85e3 963e 4497 7bbe 9f10 a93e
00000380: 7b85 cb3e 0401 e0be 41df 9abe 238a 97be
00000390: 50a3 983e e1eb d0be c6bb aabe cb97 6b3e
000003a0: 75ad b13e 71d4 9a3e 5c43 a9be 0214 7dbe
000003b0: 4868 4b3e b711 b83e e021 753e 3ba0 ab3e
000003c0: 48c4 47be 0119 38be 7f8b 14bf c1b2 7cbe
000003d0: 9902 a73e b325 c63e 53ff d53e 2dd1 5c3e
000003e0: 4263 653e ee43 053f 7d6a 6cbe b904 ddbe
000003f0: 2326 cd3e 2859 973e 35e8 9a3e e9e3 963e
-0.12668455 -0.013854689 0.03963776 -0.08525776 0.15931262 0.17776507 -0.13953681 0.034478996
0.01869027 0.02633094 -0.086855106 -0.001173805 0.2683119 -0.033221673 0.22890987 0.1642305
-0.13758028 0.05219251 0.2570616 -0.0869096 -0.022921614 0.19580868 -0.24089146 -0.04146613
0.037178565 -0.20482722 -0.11614276 -0.20810673 0.193288 0.01971694 -1.5250282 0.083058596
-0.04934267 -0.18220596 -0.29985416 0.0716676 0.16279706 -0.007256002 0.14462097 -0.04372715
-0.11997728 0.12088757 0.013717143 0.0613892 0.062972404 -0.24304861 0.066052765 0.14040808
0.02291316 0.02671927 0.1634655 0.11998836 0.13730136 -0.08468781 -0.20363799 -0.10681182
0.19003722 -0.06488147 -0.044297595 0.14784747 -0.17719786 0.079633705 0.048848644 0.08901872
0.20141366 -0.07201454 0.1701951 -0.14326164 -0.015886009 -0.23383367 -1.1664159 0.058205716
0.11305717 0.05360688 -0.3795134 0.08197589 0.060906935 0.13801529 0.1609637 -0.05816287
0.07133437 -0.19755898 0.17329131 0.1005613 -0.13175862 0.036245275 0.078150384 -0.18611775
-0.3134001 -0.25542215 0.034733623 0.42721248 0.17689271 0.008228435 -0.017257297 0.080254175
-0.04910737 -0.27099958 -0.041245166 0.018428383 0.112624474 -0.0031990358 0.019077893 0.196121
0.070382856 -0.024892522 -0.2470806 0.080703914 -0.052245144 0.030238638 0.05557824 0.11144502
-0.06640579 0.10465336 1.1001813 -0.051399037 0.09121489 -0.0042241258 0.08269972 0.13634866
-0.028655687 0.30360302 -0.052845206 -0.3285354 0.2185883 0.03633845 -0.07739943 0.013778785
-0.21934302 0.28792736 -0.29073274 -0.31789938 0.1959547 0.40833253 -0.18962145 0.22900438
-0.5369278 0.27386132 -0.24653538 -0.2832101 0.23122872 0.21648864 0.21933725 0.20290332
-0.21667337 -0.431876 0.7562327 -0.32504097 -0.24739538 0.2383233 -0.20882453 -0.17346476
0.26377764 -0.5371767 -0.23767959 -0.33349976 0.19017158 -0.2968188 0.03512026 0.19796324
0.19416726 -0.43034387 -0.39509094 -0.1687296 -0.34412718 -0.20642394 0.30864197 -0.24745211
-0.22487164 0.58693624 -0.23222049 -0.4457106 0.21730556 -0.47197852 0.25204736 0.20168468
-0.31875843 -0.20133409 0.40493736 0.39209574 0.21231873 -0.23702039 -0.28538528 -0.38487434
0.22554313 -0.26756433 0.25069794 -0.37616017 -0.22662984 0.29993847 0.38001788 -0.32358754
0.41908258 -0.31497446 0.31639957 -0.29930833 -0.26226583 0.5659623 -0.40619233 -0.32172742
0.2344888 0.48769847 -0.5734765 -0.30061394 0.22830592 0.2682685 0.2078052 0.1959876
-0.33523792 -0.22997455 0.35096812 0.30137333 -0.25503206 -0.27735034 0.1813707 -0.27531075
-0.6080451 -0.25229582 0.32714397 0.5048812 0.27781954 0.2947046 -0.24569422 0.33020493
0.39750275 -0.43750775 -0.30248454 -0.29597577 0.29812098 -0.4080496 -0.33346385 0.23007123
0.3470265 0.30240205 -0.33059204 -0.24714664 0.19863999 0.35951015 0.23938704 0.33520684
-0.19508469 -0.17978288 -0.58025354 -0.24677564 0.3261917 0.38700637 0.4179636 0.21564169
0.22401145 0.5205678 -0.23087497 -0.43167666 0.40068159 0.29560208 0.30255285 0.29470757

critic.4.bias f4 [2]
00000000: ed09 8b3d 00ec 123e
0.067890026 0.1434784

actor_mean.0.weight f4 [128, 17]
00000000: 1aa5 49bc 5a3b e23d fdd4 7a3e a938 493e
00000010: caa7 d93a 529f 933e d529 40bc 89b4 703e
00000020: 60bd d43d 943d 08bd af09 813d 2590 73bd
00000030: eb55 54be de8d 04be 0b2c 2cbe 23af 40bd
00000040: 4ea8 12be 820b 893d 777d 3d3e aa73 843e
00000050: 9de6 33bd 4d79 50bd d218 3d3e 211f af3c
00000060: c33e f73b 4806 4f3e 8bc4 22be 40ba 8e3d
00000070: 1f48 6e3e e870 85be 8029 883d a94b 75be
00000080: b2c6 433e b9ca 9abc 2fab aabd c0eb 213e
00000090: 8584 a8bd e051 e83c 723d e0bd 0f3e dfbd
000000a0: b36a 78be 552b 1f3e 0467 b5bd af73 7a3d
000000b0: 434d b83d ad90 b33d 3606 0c3e bd9b a33d
000000c0: 9790 42be 9df7 d93d 1753 773b c28b 82be
000000d0: 0f22 933e 5691 51be d4c3 883e 8589 a3be
000000e0: 1973 0fbe 0d3d d6bd 9bb8 06be 515c 82be
000000f0: 402d 01bd 6556 733d afb0 bcbd c582 8abd
00000100: 92b6 c73e aadc 9b3d cbd6 003e fa71 113e
00000110: c5dc febe 5a26 b3bd ccd7 4fbe 5a22 6abd
00000120: c060 283e 32b5 6bbd 3bde 753d 847b db3d
00000130: f7fa fbbc 67e5 313e fc25 44be c140 c5bd
00000140: 6a0e 1fbc 1042 ddbd 107c 52bc 6228 553e
00000150: bdfc 10bc e007 6d3c e23b 4bbe a7ba 103e
00000160: 922c 0b3d d83b 283e 5a2f 0d3d 070c 343e
00000170: fc33 c5bc 7d78 1abd 9cb3 b73d b11a 98bc
00000180: b512 c13e 37d9 26be 46ce 803d 6454 933e
00000190: 0042 6fbd 8cbb 18bc d174 b6bd f913 173e
000001a0: 36e6 e33d ea0a 8f3e da07 293d d425 7e3d
000001b0: 38ce 993d 350d 5d3e 8f1a 4dbe 2692 3d3e
000001c0: c316 d33d 8336 183e f5c6 ea3d 513c 2fbd
000001d0: c8dc 003e 1122 e0bc 0b2a 14be 5863 28be
000001e0: 5782 e3bc 95e5 60be 8f91 ce3d 15ec 8c3c
000001f0: c754 e13d d8e9 173c e819 693d a239 fa3d
00000200: f969 8c3c 59f6 3f3d c6d9 0fbd 32f1 453d
00000210: 016b 253f 03ee 3bbc 42db 153e 4446 023e
00000220: 8411 983d 0796 1ebe f94d 603c 18d6 a0bd
00000230: 9b82 71bc fa86 73be 561b cebe 99db c1bd
00000240: 21e5 29be 4082 42be 2790 88bd b8d5 a73d
00000250: b6eb 87be d53e b33e bfe5 4f3d be75 193c
00000260: b21b d8bd ec35 903d ef61 493d dfd5 15bf
00000270: 6535 153e 0b2a 63be ccd8 6dbe 0f05 683e
00000280: 6d38 4f3c b6f7 bc3d d1f2 193e c910 5ebc
00000290: 6f24 56bd 258a eebb 465f a5bd a7ae 803e
000002a0: 63d5 93be 1e98 3fbe d4b1 babc 6933 933d
000002b0: a81e 00be d745 23bd 0c1d e0be 2e2f e5bd
000002c0: 1c8e 01bd cbdb 453e edb8 e43d 441c cbbc
000002d0: 6903 1e3e efae 2c3c cd96 a1be 3e5f 553e
000002e0: ca80 a0bc 7123 a6be 4261 e63d cecd 0a3d
000002f0: 922e 09bd c1fb d63d c9c8 ac3e e689 993c
00000300: 19ca 95be d2f2 b03c 971b eb3d 6a62 1bbb
00000310: 4a5c 4b3e 5171 edbc af88 abbb 8dee a63d
00000320: 597e 3d3e f666 bc3d e953 1ebe e5ea 903e
00000330: 37b4 303e 9ed7 3dbe 0d98 953c 8bea 343e
00000340: f37e 89bd 3c30 c93a 0388 bd3d aa64 a83e
00000350: 50ab 98be 8548 5abe 4f96 2abe 0d2a 973c
00000360: 80f4 00be 1af8 15be 56be aa3d b65e 75bd
00000370: 6f85 babd 42b3 ad3d 5678 a73c 46a4 d1be
00000380: 7f1a a13e 9094 1a3d ca3e 1b3e c188 3d3c
00000390: 8be3 603e b5fa 773c 3cd2 443e e181 fcbb
000003a0: 343f 9a3d 0d02 6d3c 4df5 4b3e 94c4 10be
000003b0: 2c51 973d b7da eabd 590d 0e3e b69c 32be
000003c0: e20b 3cbe b776 923e 015f a2bc a3d8 7bbc
000003d0: c6fa 5ebe 0c5d ccbc 5526 8bbe d729 d23e
000003e0: a91a 083d 91a8 d8bd 7b86 8cbd a6a8 cd3d
000003f0: c78b 3ebe 4550 16be dfcb c7be eb34 01be
-0.01230743 0.11046477 0.24495311 0.1965052 0.0016605791 0.2883249 -0.0117287235 0.23506369
0.10387683 -0.03326185 0.06300675 -0.05946364 -0.207359 -0.12944743 -0.16813676 -0.047042023
-0.14322016 0.06691648 0.18504892 0.25869495 -0.0439211 -0.05089693 0.184665 0.021377148
0.0075453236 0.2021724 -0.15895288 0.06969118 0.232697 -0.26062703 0.066485405 -0.23954643
0.19118765 -0.018895494 -0.08333432 0.15812588 -0.08228401 0.028359354 -0.1094922 -0.109005086
-0.24259453 0.15543874 -0.08857539 0.06114548 0.089991115 0.08767829 0.13674244 0.07988689
-0.19000469 0.106429316 0.0037738734 -0.25497252 0.28736922 -0.20465598 0.26711905 -0.31940857
-0.1400875 -0.10460863 -0.13156359 -0.25461057 -0.031537294 0.059408564 -0.09213387 -0.067632236
0.39006478 0.07610448 0.12581937 0.14203635 -0.4977781 -0.08747549 -0.20297164 -0.057161666
0.16443157 -0.05754585 0.06002639 0.10716918 -0.030759318 0.17372666 -0.19155115 -0.096314915
-0.009708026 -0.10803616 -0.012846962 0.20816186 -0.00884932 0.01446721 -0.19847062 0.14133702
0.033978052 0.16429079 0.034468986 0.17582713 -0.02407264 -0.037712563 0.08969805 -0.018567415
0.37709585 -0.16293798 0.062893435 0.28775322 -0.058412552 -0.009322058 -0.08909 0.14753713
0.111278936 0.27938014 0.041267253 0.062047794 0.07510036 0.2158707 -0.20029663 0.18512782
0.10307076 0.14864545 0.11463729 -0.04278213 0.12584221 -0.027359994 -0.14469163 -0.16444147
-0.027772112 -0.21962579 0.10086357 0.017202416 0.11002498 0.009272061 0.05690947 0.12218024
0.017140375 0.046865795 -0.035119794 0.048325725 0.646164 -0.011470321 0.14634421 0.12722117
0.07425216 -0.15486918 0.013690465 -0.07853335 -0.014740611 -0.23781958 -0.4025523 -0.09465713
-0.16591312 -0.18994999 -0.0666812 0.081950605 -0.2654702 0.35008875 0.050756212 0.009366451
-0.105521575 0.07041535 0.049165662 -0.58529466 0.1457115 -0.22184007 -0.23227233 0.2265818
0.01264773 0.092269346 0.15034033 -0.013553807 -0.05228084 -0.0072796517 -0.080748126 0.2513325
-0.2887374 -0.18710372 -0.022789873 0.0718754 -0.12511694 -0.039861526 -0.4377216 -0.111906394
-0.031629667 0.19322126 0.11168084 -0.024793752 0.15430988 0.010539754 -0.31560364 0.20837113
-0.019592661 -0.32448915 0.11249019 0.033887677 -0.03349168 0.10497237 0.33746937 0.018742513
-0.2925575 0.02160016 0.11479872 -0.0023709782 0.19859424 -0.028984698 -0.0052348 0.08150969
0.18505229 0.09199326 -0.15461697 0.2830421 0.17256247 -0.18539283 0.01826098 0.17667596
-0.06713667 0.0015349458 0.09254458 0.328893 -0.298182 -0.21316727 -0.166589 0.018452669
-0.1259327 -0.14645424 0.08337085 -0.059904777 -0.09107482 0.08481456 0.020443123 -0.40945643
0.31465527 0.037739336 0.15160671 0.011568249 0.21961801 0.015135457 0.19220823 -0.0077059125
0.07531586 0.014465821 0.19917794 -0.14137489 0.07388529 -0.11467498 0.13872279 -0.17442593
-0.18363908 0.28606197 -0.019820692 -0.015371474 -0.2177535 -0.024946712 -0.27177683 0.41047546
0.03322855 -0.105790265 -0.068615876 0.10041933 -0.18608008 -0.14679058 -0.3902273 -0.12617843

actor_mean.0.bias f4 [128]
00000000: 031b abbd d324 413d 8ece 853c f21f 783d
00000010: 8f06 103e 21fb d2bc c4ef 963c ca82 143d
00000020: 8994 d6bc 5c52 fdbc 3652 01bd 5a6f 8fbc
00000030: 00c3 0abd 596e 0fbd e224 b6bd a7d4 ce3d
00000040: 196c ea3d 0cc3 b73d fb49 3ebd 4c50 b6bc
00000050: 7588 9a3d db6e a13c 1f17 b9bb 9f14 2e3d
00000060: de02 e0bc 734c 16bc 70ce e73d c02e 993d
00000070: db97 1a3d 6bfa 883c 08d1 b7bd 84ba f9bc
00000080: e107 c23d 5dad 73bd b789 ecba 8417 abbc
00000090: d2ad 063e 8cfd 36bc 1f60 17bd 3b9a 51bc
000000a0: a5c5 2a3a 5d1f 893c ba68 4f3d 5d42 dfbb
000000b0: 5faf 2e3d 1d14 29be fceb 10bd ad7b 123c
000000c0: 3423 b83d 3c9a 7dbd a566 003e eca0 bd3c
000000d0: 0816 f7bc 287f 7ebd 32d9 3c3d ab1a 3f3d
000000e0: 6330 3e3d b198 05be c785 93bd 1aaa 44bd
000000f0: 74cd 24be daf0 e9bd b89e 993d d540 1fbd
00000100: 5d96 1f3c 9380 3d3d fda5 d2bb b466 c1bd
00000110: 1547 83bd 2577 60b9 2f39 bebc 7fcb 9fbd
00000120: 2fb2 06bc 9783 553d eb0e 3bbd 7382 403c
00000130: 7a98 cbbd 7f12 eebc 8292 d1bc ea68 643c
00000140: 20aa 07be a112 b2bd b511 a23d d085 063d
00000150: 6bd9 113d 2738 4cbd cbb0 63bd 3ca2 2e3d
00000160: 3963 0b3e 1049 c9bc 265a 76bd 071e 4ebd
00000170: ee87 a8bb ac11 7dbc c1d0 3b3c 298c 4b3c
00000180: 1ee0 cbbc 2f06 393d 775f 313c 2cfc 373b
00000190: aab4 17bd 0861 383d e5c2 d0bd 1288 133d
000001a0: a87d b53c ed5e cbbd 4301 da3c 8398 0abd
000001b0: 67a8 4dbc 3c9d 52bd 8d34 76bc d277 47bc
000001c0: 7545 f7bd db1f b7bb cdfe 583e ad3f 09bc
000001d0: e82d ffbd 9243 f23d 7283 1e3d e975 dcbc
000001e0: e9d7 8dbd a907 003c e18b 27bd 3079 43bc
000001f0: a621 52bc 7bb0 a1bd 01ba e9bc cf72 62bc
-0.083547615 0.04715426 0.016333845 0.06057734 0.14065002 -0.025754513 0.018424876 0.036257543
-0.026193874 -0.030923061 -0.031572543 -0.017509151 -0.033877373 -0.035017345 -0.088937536 0.10099154
0.11446399 0.08972749 -0.046457272 -0.022255085 0.07545558 0.01970618 -0.005648508 0.042500135
-0.027345117 -0.0091735 0.11318672 0.0747962 0.037742477 0.016720971 -0.089754164 -0.030484445
0.09474159 -0.059491504 -0.0018046413 -0.020885237 0.13152245 -0.011168849 -0.036956903 -0.012793119
0.00065144367 0.016738588 0.050636984 -0.006813331 0.042647716 -0.16511579 -0.035381302 0.008940619
0.089910895 -0.061914667 0.12539156 0.023148023 -0.030161873 -0.062132984 0.04610557 0.046656292
0.046432864 -0.13046528 -0.072032504 -0.048013784 -0.16093999 -0.11422892 0.07500976 -0.038880188
0.009740439 0.046265196 -0.0064284788 -0.09443417 -0.06410042 -0.0002140669 -0.023220627 -0.07802486
-0.008221193 0.052127447 -0.045668524 0.0117498515 -0.09941192 -0.029061554 -0.025582556 0.013941029
-0.13248491 -0.086949594 0.079135336 0.032842457 0.035607737 -0.04985824 -0.055588525 0.042635188
0.13612069 -0.024570972 -0.060144566 -0.050321605 -0.005143157 -0.015446108 0.011463345 0.0124235535
-0.02488714 0.045171913 0.010825983 0.002807389 -0.03703753 0.04501441 -0.10193423 0.03601844
0.022154644 -0.09930215 0.02661193 -0.033836853 -0.012552357 -0.05141948 -0.0150271775 -0.0121745635
-0.12073795 -0.0055885143 0.21190949 -0.008376998 -0.12459928 0.11829294 0.038699575 -0.026911693
-0.06925947 0.007814326 -0.040904883 -0.011930749 -0.012825405 -0.07894989 -0.028531076 -0.013821318

actor_mean.2.weight f4 [128, 128]
00000000: dbfc 1b3e 5f07 403c 76df 8a3d ebdd 7d3e
00000010: 8479 8abe 7be5 3a3e a4cc 853c 13e1 0f3e
00000020: 1523 953e 6905 bbbd 529a 31be 3b53 fc3c
00000030: 48b9 b83d da9c 08be 1f7f 10be 22ef 463d
00000040: ce08 123e 7ddc d2bd 7cb1 b43e a632 a23d
00000050: fd5b 7dbd 1c77 b6bb a82a 3f3d 259c 833d
00000060: b739 8cbd 44a3 9a3d 0204 26be b680 383e
00000070: 4140 b6bd fa8c 41be 28d1 67be 4e69 4cbc
00000080: 8f0b 47be c561 613e faed 353e 4720 b9bd
00000090: bd7b 03bd 25ea 11be 4ed3 f1bd 47cf eebd
000000a0: d63d b7bd d869 103d 2035 f03c 7242 743b
000000b0: 6368 28be c2c1 81be e3a1 2b3e 98dc 163e
000000c0: 2f6e 78be b12f b33e 8cc2 4dbc c54c ff3d
000000d0: 5a5f 5a3e 23aa b9bc 940d 8d3d cfd5 8d3d
000000e0: ff6a c43d 357c 30be 9327 263d 71d6 db3d
000000f0: ab67 813e c9ab e53d ec5b 55be f410 72be
00000100: 636d 003e a204 ae3d 3e79 c6bd 7f32 0b3e
00000110: d0dc bfbc 8674 7c3b 5053 0e3e c1d6 fdbd
00000120: 93f8 a13d b7dc ec3c e582 5f3e 228c 5bbb
00000130: 62de 8c3d 4bdc a2be c87e a53d 446e 5ebe
00000140: 3513 aebd b71c debb c468 de3c 3127 d3bd
00000150: 5c9a 163d 914a 793d 7f7a 453c 8600 9f3d
00000160: 0f80 f23d 4112 5bbe eacc 6e3e 5383 a1bc
00000170: d1b7 0dbe 6737 d53d 8d94 873d ea4d 893c
00000180: b36d c23d 262e bbbd d6fa 4e3d 67fe 17bd
00000190: bb20 22bd eccb 99bc ec7a 8fbe 803a f7bc
000001a0: e7f9 a93c 817f 863d b482 1fbe f610 103d
000001b0: db3b 82bd a5de 173d 0ede a0be ee5d 133e
000001c0: e543 dabd 3719 86be 5430 f73d fc0f e0bc
000001d0: 1acf 293e 71ab 1b3e a113 8a3e 5a3b 243e
000001e0: f456 78be 0ce4 b0bb 42b4 13bb 3969 383e
000001f0: b0f9 c0ba 5228 633d 06a8 fcbd 0893 98be
00000200: b413 0bbe 1911 9abd da07 453e 3770 aabd
00000210: 8973 cbbd 415b 80be c5fb 723e fdae 8ebd
00000220: 6c65 853d 6c8f c9bd c5cd d13d 3574 09bd
00000230: ad19 e83d e9f6 303d f90c 35be 2fe5 af3d
00000240: 34e7 0e3e 7a5a 003e eeb4 25be eba5 303e
00000250: 2d87 593d f185 243e 2d7b 753e db63 adbd
00000260: 8613 15be 7f13 093e 1095 623e 21c3 e43d
00000270: 6079 993d de69 dd3c b050 a43d 7363 c93a
00000280: ddd7 b53d 1021 c13d 4c67 01bd 83c2 15be
00000290: 8016 393d 9736 b4bd f47e 1d3e 4371 82be
000002a0: 020a 9bbd d5e0 b73c 5afc 9b3d 5526 683d
000002b0: 8d02 0abc aa5e 263d 6863 c03c 885c 3e3e
000002c0: 4c01 0f3e 0a36 19bd a821 ed3d 6e82 cbbe
000002d0: 6bfc 6a3d f631 0d3e 16c6 54be 37c2 2dbe
000002e0: 0321 7e3e 257a 0f3d 418a 8e3d a9e6 633d
000002f0: 2a44 b63c b03b 5b3e db51 a23d d90a fdbd
00000300: 94a4 c23e 4ee4 f93a 8aae 6e3d a835 57be
00000310: 468d 9dbd 90e9 913d a474 05be a6c2 92be
00000320: 742d abbd bc9f 39bd 99d7 8b3d 04a8 6d3d
00000330: b37a e0bd 79f4 25be 8e78 d93d 6e1b 94be
00000340: fe6b eabd 563e 243e 963c 89bc 550f edbd
00000350: 227e c43e 9cec 2dbd a3a0 cd3d 109f 7c3d
00000360: ffec 743e 8c55 293e d542 a9bd a19e abbd
00000370: 409a 33be 0a5f 2cbe 7c74 f23d f3b2 22bd
00000380: b82c 89bd d411 693e ca41 8fbe af60 aa3d
00000390: 4b2d a5bd a0cb 14be bc98 2e3e 50b1 f53d
000003a0: 1f71 20bd 8ef4 993b 988c 15bd 9a1e 553d
000003b0: b48f 313e 9fb7 15be 1581 6ebd 3baa 3ebe
000003c0: a17c e2bd 1185 463e 5134 21bd ae0b da3b
000003d0: 3cf7 163e 078d c6bd 442b 8a3d 25ef 95be
000003e0: a5d7 2d3d f443 2d3d 32eb d13c 749e d43d
000003f0: 1877 49be b4ba 063d 1f07 b53d 0902 84bd
0.15233175 0.011720507 0.06780903 0.24791686 -0.27045834 0.18251602 0.016332932 0.14050703
0.29128328 -0.09131891 -0.17344025 0.030801406 0.090197146 -0.13341084 -0.14110993 0.0485679
0.14261171 -0.10295961 0.3529166 0.07919817 -0.061855305 -0.005568398 0.04667154 0.064262666
-0.06846946 0.07550672 -0.16212466 0.1801785 -0.08898974 -0.18901435 -0.2263838 -0.0124762785
-0.19438003 0.22009952 0.17766562 -0.090393595 -0.032100428 -0.14249475 -0.11807881 -0.11660629
-0.08947341 0.03525719 0.029322207 0.003727105 -0.1644607 -0.25343138 0.16760974 0.14732587
-0.24260782 0.34997323 -0.012558591 0.124658145 0.21325436 -0.022664135 0.068873554 0.069255464
0.095907204 -0.17234881 0.040565085 0.10734261 0.25274405 0.11214406 -0.20835847 -0.2363928
0.12541728 0.084969774 -0.09691094 0.13593481 -0.023420721 0.0038521602 0.13898969 -0.12394477
0.0790874 0.028913839 0.21827276 -0.0033500274 0.06878354 -0.31808695 0.08080822 -0.2172175
-0.08499757 -0.0067783254 0.027149566 -0.103102095 0.036768302 0.060862128 0.012053131 0.07763772
0.118408315 -0.21393682 0.23320356 -0.01971594 -0.13839652 0.10410958 0.06620131 0.016760785
0.0949358 -0.091396615 0.050532185 -0.03710785 -0.039581995 -0.018773995 -0.2802347 -0.030179262
0.020749046 0.06567288 -0.15577203 0.035172425 -0.06359073 0.037077565 -0.31419414 0.143913
-0.10657481 -0.26191112 0.12069765 -0.027351372 0.16582909 0.15202118 0.269681 0.16038266
-0.2425192 -0.005398279 -0.0022537862 0.1800889 -0.001472285 0.055458374 -0.123367354 -0.29799676
-0.13581735 -0.07522792 0.19241276 -0.083221845 -0.09934146 -0.2506962 0.23728855 -0.0696697
0.06513485 -0.09841809 0.102443255 -0.03355809 0.11333022 0.043204222 -0.1768073 0.08588635
0.13955384 0.12534514 -0.161823 0.17250793 0.05310743 0.1606672 0.23972769 -0.084663115
-0.14558229 0.13386343 0.22127175 0.111700304 0.074938536 0.02702802 0.080232024 0.0015364721
0.08879063 0.09430134 -0.031592652 -0.14624982 0.045187473 -0.08799475 0.1538046 -0.25477037
-0.07570268 0.022446075 0.076164916 0.05667718 -0.00842346 0.040617622 0.0234849 0.18589985
0.13965338 -0.03740505 0.11578685 -0.39747947 0.05736963 0.1378859 -0.20778689 -0.16968618
0.2481728 0.035028595 0.069599636 0.055639897 0.0222493 0.21409488 0.07925769 -0.12355585
0.38016188 0.0019065232 0.058271922 -0.21016562 -0.076929614 0.07124627 -0.13032776 -0.2866413
-0.08358279 -0.04531835 0.06828231 0.05802156 -0.10960903 -0.1620654 0.10618697 -0.28927177
-0.11446379 0.16039404 -0.016752522 -0.1157519 0.38377482 -0.042461976 0.10040405 0.06167513
0.23918532 0.1653654 -0.082647 -0.083798654 -0.1753931 -0.1683313 0.11838624 -0.03972144
-0.066979825 0.22760707 -0.2797988 0.08319222 -0.080652796 -0.14530802 0.17050451 0.1199671
-0.03917038 0.0046983426 -0.036511034 0.052031137 0.17339975 -0.14620827 -0.05822857 -0.18619625
-0.11058927 0.19386698 -0.039356533 0.0066542244 0.1474275 -0.096948676 0.067465335 -0.29284015
0.042441983 0.042301133 0.025624845 0.10381785 -0.19674337 0.032892898 0.08839249 -0.06445701

actor_mean.2.bias f4 [128]
00000000: 7834 fbbc c58f 3e3d 19af 403d 08d7 df3d
00000010: 6ec7 c73d c9e3 033e 4b52 82bb 2447 91bc
00000020: a25d 1cbe ea4a 343e b709 023d 60b7 b9bb
00000030: e1a2 b6bd ee4a c63c 5085 c23c 4ca0 78bc
00000040: 3873 ac3d d719 1eba 6190 ed3b abbf cc3c
00000050: c774 163d d187 003d ed77 f13b 1ef7 b1bc
00000060: 4986 a23c abad 06bd 03e9 38bd fdcb e73c
00000070: 5d89 77bc 903e 81bd 39cc 16bd 1d3b cdbc
00000080: 410e a03b 1b12 93bd 59e3 313c 2a47 5e3c
00000090: ec3e 3f3d 11fa 2dbd 4054 adbc d55b 5ebd
000000a0: b263 a8bb f386 493d 0925 053e 49e7 fe3d
000000b0: d808 813d fb98 1abd 5d11 c43d 04b7 fb3d
000000c0: 3d90 123d b9e1 2b3d 10fb a1bd a41a 85ba
000000d0: d185 a8bc da5d 07bd 24fe dcbb 7db6 29bd
000000e0: 7f71 cf3d 0771 0b3d 5f6f 45bd f449 33bb
000000f0: 7eb5 a93c 9020 e8bc d9ce f7bc 6d2c 433d
00000100: e828 003e 542b eabc bc88 2cbd 0391 ab3d
00000110: 95d3 f8bc 9f22 bbbd f6fd c1bc f15c 903d
00000120: 50a9 18bc 51b4 9e3d 3a58 2d3d 8994 09bd
00000130: b6b3 cfba 79ed b63b ed06 30bd 666e 543d
00000140: c2b6 81bc 3250 223d f476 15bd 088c dabd
00000150: 22fd 1ebd 134a 43bc 59fd be3d 9657 ba3c
00000160: e53a 21be 27a3 ea3d 7e91 a0bb dd81 0d3d
00000170: 7e96 af3d 2632 17bd 48d6 913d d2e2 06bd
00000180: 83c3 483d aed1 6f3d 56a2 cd3c a388 98bc
00000190: c02d a73d 03f6 b43c 79a0 d03c 82d1 843d
000001a0: f82a a0bd 44a0 a83b 142d bcbd 6bf9 7539
000001b0: e8c3 c03c 4d57 13bd c9a1 3f3d e167 a03d
000001c0: 4898 7cbc 1afd d93c 34c5 d7bd d0ec 623d
000001d0: 4eea 193d 9358 313d ca77 9b3d d747 dcbd
000001e0: fc1a 5fbd 7a8d 173e 97dc 6eb9 09f3 e93c
000001f0: caf2 d1bd d7f8 583d 5bc4 0fbd e7af dabc
-0.030664667 0.046523828 0.047041986 0.10929686 0.09754835 0.12879862 -0.0039770952 -0.017734118
-0.15270093 0.17606702 0.031747546 -0.005667612 -0.089177854 0.024205651 0.023745209 -0.0151749365
0.08420414 -0.0006031072 0.0072498773 0.024993738 0.03673246 0.031379525 0.0073690326 -0.02172428
0.019839423 -0.032880466 -0.045144092 0.028295511 -0.015108434 -0.06310761 -0.036815856 -0.025052601
0.0048845117 -0.07181188 0.010857427 0.0135667715 0.046690866 -0.04247481 -0.021158338 -0.054286797
-0.0051388377 0.049200963 0.13002409 0.12446458 0.06300515 -0.03774355 0.09573624 0.12290767
0.035782088 0.041963313 -0.079092145 -0.0010155034 -0.020571621 -0.03304849 -0.006744163 -0.0414338
0.101290695 0.03404334 -0.048201915 -0.0027357312 0.020716425 -0.02833584 -0.03025 0.04764979
0.12515604 -0.028585114 -0.042122588 0.08377268 -0.030374328 -0.09137463 -0.023680668 0.07048977
-0.009317711 0.077492364 0.042320468 -0.03358892 -0.0015846405 0.005582508 -0.042975355 0.051863097
-0.015834216 0.03962726 -0.036490396 -0.1067124 -0.038815625 -0.011919516 0.09325666 0.022746842
-0.15745123 0.114569 -0.0049001565 0.034547675 0.08573626 -0.03691306 0.07120949 -0.032931156
0.04901458 0.058549576 0.025101822 -0.018619841 0.08163023 0.022089964 0.025467144 0.06485273
-0.07820696 0.0051460583 -0.091882855 0.00023457936 0.023530915 -0.03597193 0.04678515 0.07832313
-0.015417166 0.026609946 -0.105356604 0.055401623 0.037576966 0.04329736 0.07591207 -0.1075589
-0.054469094 0.14800063 -0.00022779625 0.028558271 -0.102513865 0.052971687 -0.03509937 -0.026695205

actor_mean.4.weight f4 [4, 128]
00000000: de30 2dbc 52c3 69bd 8b53 5bbc e90f 60bd
00000010: 0f28 d63c d2c9 fb3c cf3d 9cbd f565 b6bb
00000020: ad72 7fbc ab1a 24bd 25c6 383d f1bd 93bc
00000030: d25f 3b3d ae36 bcbc 2cd2 80bb c519 8d3c
00000040: f3b8 5bbd 34fe 39bd 7908 063d f671 323c
00000050: fdec 16bd 9c9c 11bc 47d0 f7bb 56cd 6f38
00000060: acda 19bb 192a 1abd db70 993c db6d 5dbd
00000070: b61f 5db7 c965 593c abd7 9abd 1d88 3d3d
00000080: 14b6 693c f2e0 f83d bf90 a6bd 4120 883c
00000090: c7bf 1cbd 72db dabc aeb9 a23d 594f 0fbd
000000a0: aee5 3f3d 91df 39bd 1c5c 09bd 27ed 61bd
000000b0: 39c4 00bd eee3 423c 9df4 b8bc 6c7c 50bd
000000c0: 23c5 70bd 9e4f c03c cfd0 29bd 6449 e2bb
000000d0: 7a95 e43b fd65 483d be9f 8b3d aecc 4c3c
000000e0: 2a8a 76bc 113f b8bb 36c4 30bd e9ec a63d
000000f0: f717 11bd e574 c73c c315 bb3d 70c8 473c
00000100: 7421 01bc ee62 ebbc e920 16bd b28c edbc
00000110: b469 9cbc 491a eb3c 9701 a53c 0bb8 4e3c
00000120: d751 123b 0435 ecbb 0ed1 d5bd 6076 6bbd
00000130: c037 91bd 553e 4fbd daba 6fbc 4fbc 8dbd
00000140: 91a6 b7bd 5c70 163c 6cbe 123d 6b8b aebc
00000150: 3107 1dbc 3b36 6bbc 1253 82bd a05d a83d
00000160: a9b4 2f3d 5813 593d 6c15 13bd 38b4 fe3c
00000170: 28ed c3bc 1270 0b3e a837 3fbd b3fa 773c
00000180: 0726 9dbc 6913 873c 7a22 b4bc cb96 f23c
00000190: 7945 ea3c 65eb 54bd 90b6 72bc 3c79 cbbc
000001a0: 14a5 12bd 1dd3 d5bb 5805 3b3d f109 353d
000001b0: 9783 e5ba 823d cebc 18d0 6ebc b3d6 2ebd
000001c0: 2ac0 c63d 5b29 2d3d 1327 17bc fc22 96bc
000001d0: c49c 8cbd 0ce1 91bb b9c3 a2bd 9cc5 d53c
000001e0: 3e99 383d e8ec 06bd faff 2cbd 3a73 b03c
000001f0: b0ec 5b3d b7bf 673d d369 363c 3e0d cbbc
00000200: 7ed3 603d 877f dfbd fcc0 023c 86c0 b13d
00000210: a0b9 9b3c 32bb cebd 89e1 5f3c 4af8 d4bb
00000220: 0865 ebbb 1991 253c 0528 62bd a4b6 70bc
00000230: 2e49 b93c 5243 80bc efd5 bb3c e995 4c3b
00000240: 35d8 9bbd ac75 8f3d 0598 9dbc 4b35 b1bb
00000250: acee d83c a2a0 d53c e737 ffbc aa83 99bb
00000260: ec21 ae3d b110 fbbc 2d30 773d 10ea 2dbd
00000270: 9825 cdbc a017 9db9 bc7a 5f3c 563a 393d
00000280: ec81 ea3c a9d8 9a3c 53bc 9cbc e50d 633c
00000290: 849a 043d 75b2 3d3d 86f5 a23d 8216 b43b
000002a0: b3ba c0bc 61c7 b03d 9ef2 873c 2b71 a23d
000002b0: 7d48 78bd 5865 d8bb 6b6d 0dbd 3529 78bc
000002c0: 0bc5 89bd 3a14 98bc 0994 8e3d aa76 90bc
000002d0: a3fa aabd 5da9 3bbc e35b 3d3c c06f 3b3d
000002e0: 6188 cb3b 1616 95bd 76c1 4ebd a280 983c
000002f0: 106e ffbb 07e8 8bbd 4762 b03d 7bdd d5bc
00000300: 85d2 7b3c 0bcc 74bc 9805 563d 9508 dabc
00000310: f54a 863c 19be 453c 5e38 653c 276a 1abc
00000320: fd3a 3bbd 2328 cebc 5fdc 0a3d d9b2 903d
00000330: 67b1 8a3d 9d52 2fbd 314b 373d 5b3b 533b
00000340: a6c8 81bd 90c7 0c3d e5e6 cc3c 679b 86bd
00000350: 3796 b2bb 210a 5fbc 7760 843d 7aca 603d
00000360: 444e db3c d122 86bd 0137 82bc dc7d 363d
00000370: 58cd a63c 4db2 03bd 24f2 54bb b916 233d
00000380: 2d1a 96bd a397 b93c bb06 0ebb b797 f93c
00000390: a408 abbc 55af 763c 5708 063b 7822 363c
000003a0: fe37 d23c 7d2e 423d d2dd 3c3d 257a 27bd
000003b0: fa46 0d3c b294 9fbd f2de 81bd 52ae 12bc
000003c0: 9239 963d 4d7b 4f3d 8b33 853c 0755 93bc
000003d0: 45cb 5a3c e3ba 503d 6140 93bd b6fb 493c
000003e0: 96e5 543c 76a1 2dbd cec6 27bc c169 8e3c
000003f0: e23f cf3c c6df 02bd 4c89 13bd 9220 a5bd
-0.010570733 -0.057071038 -0.013386617 -0.054702673 0.026142148 0.030735884 -0.076289766 -0.0055663534
-0.015591306 -0.040064495 0.04511084 -0.018034907 0.04574568 -0.022975292 -0.0039313044 0.017224202
-0.05364318 -0.045408443 0.032722924 0.010891428 -0.036847103 -0.008887436 -0.0075626704 5.7173274e-05
-0.0023476286 -0.037637804 0.018730571 -0.054059844 -1.318001e-05 0.013268896 -0.07560667 0.046272386
0.014264602 0.1215228 -0.08133077 0.016616942 -0.03826883 -0.026715968 0.07945572 -0.03498778
0.0468499 -0.045379225 -0.033535108 -0.055157807 -0.031437133 0.011895163 -0.022577578 -0.050899908
-0.058781754 0.023475464 -0.0414589 -0.0069057215 0.006975827 0.04892539 0.06817578 0.012499971
-0.015047589 -0.0056227525 -0.04315587 0.08150656 -0.035423245 0.024347732 0.0913501 0.012193784
-0.007881511 -0.028733697 -0.03665248 -0.028997753 -0.019093372 0.028699057 0.02014236 0.012617121
0.0022326612 -0.0072084684 -0.10440265 -0.057485938 -0.070907116 -0.050596554 -0.014631951 -0.06920683
-0.08967317 0.009182062 0.03582613 -0.021306714 -0.009584234 -0.014356191 -0.06363501 0.082209826
0.0428969 0.052996963 -0.0359091 0.031091794 -0.023916796 0.1361697 -0.046683937 0.015135455
-0.019183172 0.016488748 -0.021989096 0.02961292 0.02859758 -0.051982302 -0.014814034 -0.024838082
-0.035801962 -0.006525411 0.045659393 0.044198934 -0.001751053 -0.025175814 -0.014575981 -0.042685222
0.09704621 0.042275768 -0.009225625 -0.018327229 -0.06865838 -0.0044518765 -0.079474874 0.026095204
0.04506802 -0.032940775 -0.042236306 0.02153932 0.05369252 0.056579318 0.011133629 -0.024786588
0.054889195 -0.10912996 0.007980581 0.08679299 0.019009411 -0.100942984 0.013664612 -0.006499325
-0.0071836747 0.010105395 -0.055213947 -0.014691982 0.022617903 -0.0156571 0.02292916 0.0031217283
-0.076095976 0.07004866 -0.019237528 -0.0054079643 0.026480995 0.026077572 -0.031154586 -0.004684885
0.08502564 -0.030647608 0.06034868 -0.042459548 -0.02504234 -0.00029962976 0.013640102 0.04522165
0.028626405 0.01890214 -0.019132769 0.013858293 0.03237392 0.046312768 0.07956986 0.005495847
-0.023526525 0.086317785 0.016595181 0.07931741 -0.060616005 -0.006603878 -0.034528177 -0.015146543
-0.06727036 -0.018564332 0.06961829 -0.017634708 -0.083485864 -0.011453954 0.011557552 0.04576087
0.006211326 -0.07279603 -0.050477467 0.018616024 -0.007795103 -0.06831365 0.08612495 -0.026106587
0.015370016 -0.014941226 0.05225143 -0.02661542 0.016393164 0.012069249 0.01399049 -0.009424723
-0.045710552 -0.025165623 0.03390157 0.070653625 0.06772118 -0.042803396 0.044749442 0.0032231424
-0.06337099 0.034370005 0.025012443 -0.065726094 -0.005450036 -0.013613255 0.06463712 0.054880597
0.026770718 -0.065496095 -0.015895369 0.044553623 0.020361587 -0.032152463 -0.003249296 0.039816592
-0.073292114 0.022655314 -0.0021671492 0.030467851 -0.020878144 0.015056451 0.0020451748 0.011116616
0.025661465 0.047407616 0.04610998 -0.04088797 0.008622879 -0.07792033 -0.063413516 -0.008952694
0.073351994 0.0506547 0.01625993 -0.01798488 0.013354127 0.05095948 -0.07190014 0.012328079
0.012994191 -0.04239031 -0.01024027 0.017384412 0.025299016 -0.03195169 -0.03601961 -0.08062853

actor_mean.4.bias f4 [4]
00000000: cb53 69bd bec8 82bd ba66 96bd 04ce dbbb
-0.056964677 -0.06385945 -0.07343812 -0.0067079086
