saved_agents/dm_hopper_d.pth (torch, 112341 bytes, 26 tensors)

actor_logstd f4 [1, 4]
00000000: 0e15 b3bf 432e b1bf 2916 b1bf b373 b2bf
-1.39908 -1.3842243 -1.3834888 -1.3941559

critic.0.weight f4 [64, 17]
00000000: d62e 44be eb1a 183d 7659 46be cd28 86be
00000010: 3f28 4ebe 2566 1abe b7fc 29be edf8 0d3e
00000020: cf38 77be 8eef edbd 7ac1 313e ecde 76be
00000030: 1175 a23b d44d 883d 1062 d43c c17e da3e
00000040: 94be a93b 4b21 293e 5ebd a23c fe40 823e
00000050: 7eef 293e b75a 7f3e 0aed e7bc dca3 d0bd
00000060: bd57 a83d 7844 37bd de6b f53d c50d 54be
00000070: 0431 6cbc 4037 813c 237d 93be b3af 633c
00000080: b47e 49be 2ec6 b8be 193d 1d3e 3ca1 623e
00000090: 99ea 7ebe 335b 533e 2417 5abe 48d8 1fbd
000000a0: d112 5f3d 8914 683e 51ca 963e 91f5 2a3f
000000b0: 2afb 3c3e 5a5d 4dbe 5dac e0bd a6fa 803d
000000c0: 2dfa 61bd 3b9a 24bd 4509 12bf 5c19 42be
000000d0: 0477 5d3d db31 b7bc 4c47 f3be 616e c33e
000000e0: 6da6 173e daf5 853e 0817 c23e 57a1 393e
000000f0: a3d5 36be 3f02 0a3d 7534 d93d 415c 3a3d
00000100: 827b d4bc 7255 fdbb 6b6c 9b3e 52e6 943e
00000110: b113 7c3e 1beb e33c 7d74 1dbd 3f4e afbb
00000120: 1f2e 1e3d c078 2f3e b6f1 1b3e 630d 2bbe
00000130: abd7 453e b577 013e 4de7 153d ddf3 44bc
00000140: 418c 4f3d 4bf4 c3bd 5a13 303d bcf4 8c3e
00000150: 6176 16bf 95cf 863e 21c6 efbe 82cb 043d
00000160: f1d8 b1bd f93c 2ebc b003 4abe 8842 eabe
00000170: de28 533d 3be0 583e 89f6 463e 0b8f c7bc
00000180: 523a c03b 08d6 203d 2271 eabd 9d35 193e
00000190: bfa1 153e fbe6 d5be f832 2c3e ac79 83bd
000001a0: 4300 d8be 9ee5 cfbd 9cd9 04be c953 11be
000001b0: 2b0c bd3d 0506 413e 681f 973d 16cc 843e
000001c0: 0451 d53d 4a27 ff3d 71ea 5abd c792 82be
000001d0: 228f 69be a9b1 15bc c416 903d 5383 d33e
000001e0: cb56 dd3d 6639 4dbe 79c2 383d c023 10be
000001f0: 27e5 afbe f2e0 ad3c 4db3 85bd 996b 623d
00000200: d081 123e 4ec1 21be 5807 edbb 69c7 b53d
00000210: b410 5a3d 7e8f 2bbe ad45 4cbe 157a 823d
00000220: 2816 32be 68ff 22be 2730 143e 86c8 dc3c
00000230: ab62 d53d d3eb f63b c365 3a3e 5033 163d
00000240: 4400 e9bd 233b 42bd d333 323e be0a a33c
00000250: 3e8a a8be 6f8f 88be 12ab dabd cb80 413e
00000260: 1436 4b3e 265c 003e 6440 55bd d792 b23a
00000270: ad5e d53d 5462 a53c 0412 c23e 9cef 083d
00000280: 6dee b13e 79ce 2fbe 1894 1dbc b257 efbd
00000290: 46fd 963d 9c96 0f3e 7507 5cbe b2d0 98bb
000002a0: fb79 d63e dd8c 5dbb 2514 b8be 8d6b f83c
000002b0: 4a23 96be f3b5 2abf 212f e63d e15d bf3e
000002c0: 2924 8cbc 3938 e63d 7976 323d 2a71 3ebe
000002d0: 0464 24be 7c65 1cbe b2d5 b0bd e5c1 7abc
000002e0: c3fb 2cbd f062 6b3e 296d a53b 52b1 4d3e
000002f0: 0777 7f3d 03d5 60be 08ab 9e3e 2a5c 073e
00000300: a9f4 b3bd 0577 67be 08a7 07bd afba 49be
00000310: 9b8a 613e 56f4 cbbd 7986 1a3e fbb7 3f3e
00000320: 23bc 2f3d 7cd4 9abc d079 c4be 534c 9ebe
00000330: 1d4f b03d 14f8 193d 875e 79be ab26 9c3e
00000340: 0d5d 00be b7e8 223d 79fa 59be 99ce 34bb
00000350: eeb2 0abd 1667 113d 113a 8e3e fdbb c43d
00000360: c919 373d bb14 dd3c 13cb 56bc d40f b63d
00000370: e9c9 8ebe 0491 4c3e 4bd5 6e3e 53bd d23e
00000380: d906 8e3e 65c6 86be e56a 833e 86c5 5dbe
00000390: d81f 84bd dfc7 a53d 9542 82bd f612 7cbd
000003a0: 3713 65be bd16 5c3d ec1f 8bbb fd13 9c3c
000003b0: 0c89 7abd 3120 25be 94c9 ec3e 0be4 86be
000003c0: bc98 8abe 4b38 96bc 9ffe 47bd fa9c 76bc
000003d0: 1afd 8e3d a7a9 023d 19f3 d83e d816 fb3d
000003e0: 0946 103e c2bc 8f3c 5f9d c9bd e801 173d
000003f0: 4e64 993b 3ae1 fcbd 9caa afbd bf0e cd3e
-0.19158491 0.037135046 -0.19370064 -0.26203004 -0.2013254 -0.15078028 -0.1660031 0.13864489
-0.24142765 -0.11617957 0.17358962 -0.24108475 0.004957803 0.066554695 0.025925666 0.4267483
0.0051801894 0.16516607 0.019865688 0.2544021 0.16595265 0.24936949 -0.028311271 -0.10187504
0.0821986 -0.04474303 0.11983465 -0.20708378 -0.014415983 0.015773416 -0.2880641 0.01389687
-0.1967724 -0.360887 0.15355338 0.22131819 -0.2489418 0.20640258 -0.2129789 -0.03902462
0.054461304 0.22664084 0.2945123 0.66780955 0.18455186 -0.20055142 -0.10970376 0.062978074
-0.055170227 -0.040186148 -0.57045394 -0.18954986 0.05406858 -0.02236264 -0.47515333 0.3817015
0.1480958 0.26164132 0.37908196 0.18127953 -0.17854933 0.03369355 0.106057085 0.045498136
-0.0259378 -0.007731133 0.30356154 0.2908197 0.24616887 0.027822068 -0.03844117 -0.005349904
0.038618203 0.17135906 0.15228924 -0.16704325 0.19320552 0.12643321 0.03659754 -0.012021032
0.050670866 -0.095680796 0.042987205 0.27530468 -0.5877438 0.26330248 -0.46830848 0.032420643
-0.086839564 -0.010634654 -0.19727969 -0.45753884 0.051552646 0.21179287 0.19429983 -0.0243602
0.0058663273 0.039266616 -0.114473596 0.14961858 0.14612482 -0.41777787 0.16816318 -0.064196914
-0.421877 -0.10151218 -0.12973636 -0.14192118 0.092308365 0.18849953 0.07379037 0.25936955
0.10415843 0.12458666 -0.053446237 -0.25502607 -0.22808507 -0.009136596 0.07035592 0.4131113
0.1080757 -0.20041427 0.04510734 -0.14076138 -0.34354517 0.021225426 -0.065283395 0.055278394
0.14307332 -0.15796396 -0.0072335415 0.08875925 0.053238586 -0.16753957 -0.19948454 0.063709415
-0.17391264 -0.15917742 0.14471494 0.026951086 0.1041921 0.0075354367 0.18202882 0.03667003
-0.11377004 -0.04741968 0.17402582 0.019902583 -0.3291797 -0.2667193 -0.1067716 0.18896787
0.19844848 0.12535152 -0.05206336 0.0013624084 0.104184486 0.020188488 0.3790437 0.033431634
0.34752217 -0.17168607 -0.009617828 -0.116866484 0.07372527 0.14022297 -0.2148722 -0.0046635503
0.4188994 -0.0033805885 -0.3595287 0.030324722 -0.29323798 -0.6668388 0.11239458 0.3737631
-0.017107086 0.11241192 0.043570016 -0.18597856 -0.16053778 -0.15273088 -0.08634509 -0.015305017
-0.042232286 0.2298696 0.0050484133 0.20087174 0.062369373 -0.21956258 0.3098986 0.13218752
-0.087868996 -0.22603996 -0.033118278 -0.1970012 0.2202553 -0.09958713 0.1509036 0.18722527
0.04290403 -0.018900149 -0.38374186 -0.30917606 0.0860884 0.0375901 -0.24352466 0.3049825
-0.12535496 0.039772715 -0.21286954 -0.0027588962 -0.033862047 0.0354987 0.27778676 0.096061684
0.044702325 0.026987424 -0.01310994 0.08889738 -0.2788842 0.19977194 0.23323552 0.41160068
0.277396 -0.26323238 0.25667492 -0.2165738 -0.06451386 0.08094763 -0.06360356 -0.06154152
-0.22370611 0.053732622 -0.0042457487 0.0190525 -0.061165854 -0.16125561 0.46247542 -0.26345858
-0.27069652 -0.01833739 -0.04882681 -0.015052075 0.06981869 0.031900074 0.4237297 0.122602165
0.14089216 0.017546061 -0.09844469 0.036867052 0.0046811467 -0.12347646 -0.08577463 0.40050313

critic.0.bias f4 [64]
00000000: 6d50 c53d 491a 14be 3919 38be e8b0 983e
00000010: b5ae 49bd 3e0a 78bd 9a1d 6dbd aa3c 80be
00000020: 9b40 763e 0233 013e 1047 c33e 7d57 97be
00000030: 65a8 3ebe 44b6 32be ba68 38be 8976 a0be
00000040: 81ef 3abe 90cd 1e3e 372a b73e 36ad c93e
00000050: 822e 9e3e 29ea a3be 7164 733e 16e4 e0bd
00000060: 30df c4be d3be ac3e 3a2f 8ebe 0841 00be
00000070: 0cb0 43be 8bb5 d6bc a626 91be e7b3 60be
00000080: 1ae5 4f3e 694c 8cbe e5ac 3b3e 2e89 6e3e
00000090: 7850 2abe 23c3 5dbe fcd0 00be 6b7e a1bd
000000a0: 143d 60be 5653 acbd 129d c13e 327b 923c
000000b0: 42a6 58be e20e ca3e 7930 b03d 412a ca3d
000000c0: 3bda 76be 7127 963e 38b1 a8be 8166 bf3e
000000d0: 4a8c 6bbe 9b60 a43e 88c8 4e3e ead3 5ebe
000000e0: fbb1 503e a3a5 57be a1b8 543e 0971 ee3e
000000f0: e2a8 aa3d ab5d 6fbe a131 61be 56b2 4d3e
0.096344806 -0.14463152 -0.17978372 0.2982247 -0.04923888 -0.060556643 -0.05788956 -0.25046283
0.24048083 0.12617114 0.38140154 -0.29558936 -0.18618925 -0.17452341 -0.180087 -0.31340435
-0.18255426 0.15508103 0.35774395 0.39389962 0.30894858 -0.32014588 0.23768784 -0.10981004
-0.3845153 0.33739337 -0.27770406 -0.12524807 -0.19110125 -0.026209613 -0.283498 -0.21943627
0.20302239 -0.27402046 0.18327673 0.23294517 -0.16632259 -0.2165647 -0.12579721 -0.078854404
-0.218983 -0.084143326 0.37815148 0.01788101 -0.21157172 0.3946448 0.086029954 0.098713405
-0.24106686 0.29326966 -0.32947707 0.37382892 -0.23002735 0.32104954 0.20193684 -0.21760526
0.20380394 -0.21059279 0.20773555 0.46570614 0.08332993 -0.23375575 -0.21991588 0.20087561

critic.2.weight f4 [64, 64]
00000000: 436d 8fbc 8cf8 27be 4606 07be 0330 653e
00000010: e1ae 42be 8a33 c8ba 9ac0 adbe 015b 2abe
00000020: 2e98 16b8 d1b9 853d 69cb 643e ac1b 18be
00000030: a3eb 19be 67f2 01bf 83de 3cbe 8156 a8be
00000040: b70c da3c 1d02 cf3d e450 ed3d 4e84 893e
00000050: f012 bc3e 957a cdbe f9b6 4a3e 2886 503e
00000060: 0eea 05be d5d6 6a3e 8f4b 11be 9142 923d
00000070: fb74 b1be 3647 9f3e 1f00 d9be fa54 34be
00000080: c11e bd3e b2f0 98bd a6e2 6fbb 9e0d 76bd
00000090: 5675 463e ffcf 34be 72b5 323e 6f0f 1ebc
000000a0: c9c0 46be e11d eabd 87d9 e63e 0290 aebe
000000b0: 6deb dcbe a552 8a3e 17d3 cc3d 6790 d73d
000000c0: 1c5f f93c ff28 1d3e 2bc7 9bbe a497 afbc
000000d0: 7279 993d dabf a93d 5dd1 563e 38ac 7abe
000000e0: c390 713d e0d5 99be 51bc 813e 3a81 4f3d
000000f0: 4e4e c93d 54e5 20bf 6a96 6fbe 6121 07be
00000100: a634 463e 81e1 27be e46c 13be 527d 4c3e
00000110: def3 2cbe e2a4 50be 79b5 093d fcaf 9a3c
00000120: d183 a93d 4f5a 1a3d 3bcb 8f3d 6178 83be
00000130: 2ec5 95bd 5726 14be e5ed f5be 73fe e7be
00000140: c2e2 2cbe e761 923e 11d3 923b ddc5 d33d
00000150: 09d6 52bd a27f f5be 35c2 9c3e 930f 2ebe
00000160: c0b4 b0bd 91c1 ba3e add3 3bbe 0a1a 87be
00000170: 38f7 29bd 5b34 b83e 852c a7be be51 3cbe
00000180: 6375 aebc 010d 02bf d5f2 5f3e c444 9638
00000190: f998 1ebe 5277 41be 14a4 02be 135b ecbd
000001a0: 7e0b 9ebe b154 c9bd 6b92 e73e ca36 06be
000001b0: 094e 45be 965c 26bd b541 463e c09d 4dbe
000001c0: 9f6d 7fbc 3423 91bd 9773 a9be 8c9f 6b3e
000001d0: eb2d 3abe d3f1 b83e 38a4 963e ad28 483e
000001e0: c22d 5d3c db77 1b3e 61d0 1c3e d9ad 1b3f
000001f0: 9208 dcbd 9397 01be bd3b 03bd 3c2d 093d
00000200: f508 4a3e fba2 a7be 58c4 31be c8f3 233e
00000210: 9d3b 903d a4f9 553d ade6 903e 19f1 3cbc
00000220: 181f 44bd 14d8 143e b24b 8d3e 2872 d0be
00000230: 9b0b a8be 5a81 94be a781 2f3e 3936 8f3d
00000240: a25f 00be 2506 603d a21d b23e 5e9e 893d
00000250: 234b 8dbd 9eac 92be 2feb 433e adb6 8c3c
00000260: b381 aabe c790 c93e ab35 e9bd 3ec5 973e
00000270: dc01 31be 882b 44bc b7a2 39be e83a b0be
00000280: 62ca 72be de75 e5bc b89f 673d 7c28 003e
00000290: efac 9bbe cc75 aebe 5ef1 aebe ed85 44be
000002a0: b157 8abe 2c5c 8dbe 2cca 883d d733 333e
000002b0: 9805 6e3e cab0 1a3e 0ea0 923d b422 75bd
000002c0: b253 d43c b2b2 9a3e af38 893d 0a69 803c
000002d0: c286 a5bd 63a2 0b3e bec0 313e 17d3 d73d
000002e0: b401 cb3e 762c a8be 7c34 4c3e 2b22 8f3e
000002f0: 64ec 9d3e eb09 46be 1913 a5be 385d bebb
00000300: d8ad 86bd 851c 503d d560 7b3e cea4 85bd
00000310: 3d44 973e 8e84 21be 09ca 1f3e f035 dbbc
00000320: 7e56 e73c 2fa6 5ebe 029c 70be a355 993e
00000330: 5680 66bd 7018 a13e 6e01 0bbe 1585 1d3f
00000340: a323 563d a0c5 0ebe e516 84bd 50e6 a3be
00000350: d4be 19bf 230e 0c3f 7466 2abe 49a5 b9bd
00000360: caeb a03e 221d 8ebe dcbf c9bc dbd9 633e
00000370: 6421 9b3e 5544 673d 9ede 933e d26c c73e
00000380: cdd5 9abe 5053 3e3e 4043 cfbc 79a5 9abe
00000390: 29ea a13c 5190 df3d 2d73 68bd 02c4 483e
000003a0: 5149 093e ebba d9bd 01a4 aabd f050 bdbb
000003b0: 921d 443e 9f01 7e3e d926 29be 1b6e a63d
000003c0: 45b9 df3d 7a3a c5bd 8c8c cebd 022c 49be
000003d0: c4bf ab3e 7ef3 a33d 8c3a 7ebe 623e 323e
000003e0: 8e8c a9be 0acd 373d f3dd 67bc 9f35 fabd
000003f0: 45a8 74bc 61ba 0abd d5d9 a4bd 0467 c83e
-0.017508155 -0.16403407 -0.13185987 0.22381596 -0.19012024 -0.0015274149 -0.33936006 -0.16636278
-3.5904515e-05 0.06529582 0.2234322 -0.14854306 -0.15031295 -0.507605 -0.18444256 -0.32878497
0.026617391 0.10107825 0.11587694 0.26858753 0.36733198 -0.40132585 0.19796361 0.20363677
-0.13077566 0.22933514 -0.1418898 0.07141603 -0.34659562 0.31109017 -0.42382905 -0.17610541
0.36937526 -0.07467784 -0.00366036 -0.06007158 0.19380698 -0.17657469 0.17452028 -0.009647234
-0.19409479 -0.1143148 0.45087835 -0.34094244 -0.43148366 0.27016178 0.100012 0.105255894
0.03044086 0.1534767 -0.3042539 -0.021434613 0.07493867 0.08288546 0.20978303 -0.24479759
0.058975946 -0.30045986 0.25338987 0.05066035 0.098293886 -0.62849927 -0.23397222 -0.13196327
0.19356021 -0.16394617 -0.14397007 0.19969681 -0.16889903 -0.20375398 0.03362033 0.018882744
0.08277095 0.03768378 0.07021185 -0.2567778 -0.07313 -0.1446775 -0.48033062 -0.45311317
-0.16883376 0.2859032 0.0044807275 0.10340474 -0.05147365 -0.4794894 0.30616918 -0.16998129
-0.08628225 0.36475804 -0.18342467 -0.26387054 -0.04149553 0.35977444 -0.32651153 -0.18390557
-0.021296209 -0.5080109 0.21869977 7.165366e-05 -0.15488042 -0.18893173 -0.12757903 -0.115408085
-0.30868143 -0.09830607 0.45228896 -0.13106838 -0.1926805 -0.04061564 0.19361003 -0.20079708
-0.015590101 -0.070867926 -0.33096 0.23010081 -0.18181579 0.36121997 0.29422164 0.19546767
0.013499679 0.1518244 0.15313865 0.60812145 -0.10743822 -0.12655477 -0.032039393 0.033490404
0.1972998 -0.32741532 -0.17360055 0.16010964 0.0704262 0.05224003 0.28300992 -0.011532092
-0.047881216 0.14535552 0.27596813 -0.40712094 -0.32821354 -0.29004937 0.17139302 0.06992764
-0.12536481 0.05469336 0.34788233 0.06719659 -0.06899097 -0.2864732 0.19132684 0.01717695
-0.33302078 0.3936827 -0.113871895 0.2964267 -0.17285866 -0.011973269 -0.18128477 -0.34419942
-0.23710015 -0.028010305 0.056548804 0.12515444 -0.30405375 -0.34074247 -0.34168524 -0.19191714
-0.27020028 -0.27609384 0.06679186 0.17500244 0.23244321 0.15106502 0.07159434 -0.05984755
0.025918815 0.3021446 0.06700265 0.015675087 -0.08082344 0.13636164 0.17358682 0.10538309
0.39649737 -0.3284642 0.19941896 0.27955756 0.30844414 -0.19339721 -0.32241133 -0.0058094524
-0.06576127 0.05080845 0.24548657 -0.065255746 0.2954425 -0.15773222 0.15604414 -0.026759118
0.028239485 -0.21743082 -0.23497012 0.29948148 -0.056274734 0.31463957 -0.13574764 0.6153119
0.05228008 -0.13942575 -0.06449679 -0.32011652 -0.60056806 0.5470907 -0.16640645 -0.09064729
0.31429893 -0.27756602 -0.024627618 0.22251074 0.30298913 0.05646165 0.2888078 0.3895021
-0.30241242 0.18586469 -0.025300622 -0.3020437 0.019764977 0.10916198 -0.056750465 0.19606021
0.13406874 -0.10631355 -0.083320625 -0.005777471 0.19151905 0.24805306 -0.16518725 0.0812647
0.10924009 -0.09630294 -0.10085401 -0.19645694 0.33544743 0.08005427 -0.24827021 0.1740661
-0.33115047 0.044873275 -0.014152038 -0.12217259 -0.014932697 -0.03386915 -0.08049361 0.39141095

critic.2.bias f4 [64]
00000000: 52fc 353e 7520 073e 132c 3c3e 7839 76be
00000010: 5c22 243e 89fd 443e cc7f 04be 58d5 30be
00000020: 387d e83d 0c27 13be e8a4 16be ec41 2f3e
00000030: 97cb 3e3e 5a77 16be c60d 853e 5d62 3a3e
00000040: 960b 243e 09d1 3e3e 121c efbd 73d4 3ebe
00000050: d1c4 3b3e de19 10be 8821 86be 32d4 e53d
00000060: 1de1 153e 49ab 59be b006 68be 6877 3f3e
00000070: 0f94 2fbe 18a1 553e f58a 5bbe 3126 6f3e
00000080: 3a2e 0dbe 1fdd 4cbe e0f1 5fbe cc10 693e
00000090: 58f4 4f3e e40e 343e af9a 1abe b3ad 34be
000000a0: 9af2 30be fe8f 333e d693 eabd 3b49 2cbe
000000b0: 8342 42be 9b8c 683e 7321 7f3e 62b9 183e
000000c0: f95f 2e3e 27c3 61be 3dc8 133e 42fb 4bbe
000000d0: df8b 1d3e e953 25be 0007 0fbe 604f 50be
000000e0: f6d9 36be 0982 49be 28af 13be 8ad1 f43d
000000f0: 9c58 57be 7bf6 273e c0cc 4d3e c83a 053e
0.17772034 0.13195975 0.18376188 -0.2404536 0.16028732 0.19237341 -0.12939376 -0.17268884
0.113520086 -0.14370364 -0.14711344 0.17114991 0.18632351 -0.14693967 0.2598707 0.18201585
0.16020045 0.18634428 -0.11675276 -0.1863573 0.18336798 -0.14072368 -0.26197457 0.11222114
0.14636655 -0.21256746 -0.22658801 0.18697894 -0.17146324 0.20862234 -0.21439727 0.23354413
-0.13787165 -0.20006226 -0.21869612 0.22760314 0.20308053 0.17583805 -0.1509807 -0.17644386
-0.17280045 0.17535397 -0.11453979 -0.1682481 -0.18970685 0.22709887 0.24915104 0.14914468
0.17028798 -0.22047101 0.14431854 -0.19920066 0.15385388 -0.1614529 -0.13967514 -0.20342779
-0.17856583 -0.1967851 -0.14422286 0.11954029 -0.21029896 0.16402619 0.20097637 0.13010705

critic.4.weight f4 [2, 64]
00000000: de86 0e3e f9c8 7f3d 0e42 5a3d 9091 81be
00000010: bbfb bfbb d741 6ab8 397a edbb 56ed 423c
00000020: 0d2e a03e e76a b3be 8d2c ce3d ec9a c43e
00000030: a630 cb3d f544 5bbe 491a b03d b299 843e
00000040: 2db0 d8bd 2081 a63d 16d6 6cbd 30b7 dab9
00000050: 3bd7 58be c463 3bbd 8292 83bd ada1 7dbd
00000060: 9714 8c3d 01f3 433e b69d 903d 3629 40bb
00000070: dcd9 5f3d a3c8 85bd 1adf 39bd b284 813d
00000080: 276c 20be dc1e a9bc 2e82 1dbb 88d5 a53e
00000090: c1d9 123c d7b4 91bd cbb0 71bd c9b1 06be
000000a0: 32ac 91be 12f3 e93d b769 f43f 9cf7 f63d
000000b0: f29b 873c d2e4 373c d330 f8bd f8e8 963e
000000c0: d6d2 993d f572 65bd 4ad8 02be 6737 af3d
000000d0: ad09 183e d90b 64be 1d2c 103b 6985 0ebd
000000e0: 74ca d0be 8d49 d1bd 8643 9bbd 2405 c43d
000000f0: 17ff 983c e5a9 063e d37a 44bd 3c2a da3d
00000100: b803 ae3f a96d c13f 2a18 b13f 5262 aebf
00000110: ed4a c33f 4cee a13f c9bf b4bf 153b b7bf
00000120: 7e3c c23f f74c b3bf 0fd9 b0bf bffe ad3f
00000130: 6800 a33f 1bb9 d5bf 6907 ad3f a6af bc3f
00000140: e026 ba3f e39f b03f cd6b c7bf 1fd4 b4bf
00000150: 17a6 af3f 98bd c1bf a8c1 a5bf ce10 ca3f
00000160: ef9a be3f b6a1 aabf 7631 a7bf 731c ae3f
00000170: 8ef4 c0bf 878c b33f 1857 a4bf b638 ac3f
00000180: 0e29 afbf 4a3c b2bf 50ee a3bf ae31 ae3f
00000190: 1635 b83f 33b8 b33f 92be acbf c8f8 c3bf
000001a0: 581e afbf 9f30 b33f f5a8 4ebf e1f6 cebf
000001b0: dcaf acbf 5a84 a93f 0b68 a73f 5735 a43f
000001c0: 59b2 c03f cbb6 aabf 7d4b bd3f 397c b2bf
000001d0: 18bc b83f b9c5 b0bf 3ca9 b5bf 3edb abbf
000001e0: 69ca bbbf 9c7c bbbf ab3d acbf f17d b83f
000001f0: aed5 b2bf 2bfc ae3f 9261 aa3f f9eb b63f
0.13918635 0.06244752 0.05328565 -0.25306368 -0.005858866 -5.5851266e-05 -0.007247236 0.011897406
0.31285134 -0.35042498 0.10067091 0.38399446 0.09921388 -0.21413024 0.085987635 0.2589851
-0.10580478 0.081300974 -0.057821356 -0.00041716686 -0.21175854 -0.04574944 -0.064244285 -0.061921764
0.06839865 0.19135667 0.07061331 -0.0029321439 0.054651126 -0.06532409 -0.04537878 0.06324138
-0.15666257 -0.020644598 -0.0024033892 0.32389474 0.008963049 -0.071145706 -0.059006494 -0.13153757
-0.28451687 0.11423315 1.9094762 0.120589465 0.016553853 0.011223989 -0.121186875 0.29474616
0.07510917 -0.056017835 -0.1277782 0.08555489 0.14847441 -0.22270145 0.002199895 -0.0347952
-0.4077946 -0.10219107 -0.075812384 0.09571293 0.018676324 0.13150747 -0.047968697 0.10652587
1.3594885 1.5111591 1.3835499 -1.3623755 1.525724 1.2650847 -1.4121028 -1.4314905
1.5174711 -1.4007863 -1.3816241 1.3593367 1.2734499 -1.6697115 1.3517886 1.4741104
1.4543114 1.3798794 -1.5579773 -1.4127234 1.3722562 -1.5135984 -1.2949724 1.5786378
1.4891032 -1.33306 -1.3061969 1.3602432 -1.5074632 1.402726 -1.2839079 1.3454807
-1.3684404 -1.3924649 -1.2807102 1.3608911 1.43912 1.4040588 -1.3495657 -1.5310297
-1.3681135 1.3999213 -0.8072656 -1.6169091 -1.3491168 1.3243515 1.3078626 1.2828778
1.5054427 -1.3337034 1.4788662 -1.394416 1.4432402 -1.381034 -1.4192271 -1.3426282
-1.4671146 -1.4647403 -1.345632 1.4413434 -1.397146 1.3670706 1.3311026 1.4290763

critic.4.bias f4 [2]
00000000: 71cc ab3d 7534 9c3f
0.083886035 1.2203509

actor_mean.0.weight f4 [64, 17]
00000000: e8be 80bd 6972 00be 87ef d6bd b0db 53be
00000010: 82de b8bd fc79 fcbd fdf0 b9bd 1e9e 7d3d
00000020: 9bfb 60be 21fb acbe 757c 23be 0d46 603c
00000030: 6351 bd3e aeb4 28bd 90d5 28be 58da b2bd
00000040: cf68 993e a037 11be 9104 4a3e 015d 423e
00000050: c90f 89bd 51fb 363e d3d2 98bd 8c51 c73d
00000060: f08f 81be 69e0 6c3b db3c 703e 46f3 8b3c
00000070: 6b28 033e 92a8 653e 4ab1 e2bd aef8 d6be
00000080: 356e b63d d54d 6d3a 6b6e 4e3d 954b 803c
00000090: 55a0 2abe d562 51be 87d7 06be c663 203e
000000a0: 033a 64be 3cb9 803e 7e2f 43bd 4fbd cfbd
000000b0: b013 f3bd ec6e d33d 5035 c53c dccf 6dbe
000000c0: a3b0 e8bc fc69 403e 07f0 513e 9e6e a2bc
000000d0: e46b e33c c339 29be 1171 183e 8310 3abd
000000e0: 9a3f e53d 08a1 893e 98a4 dcbd 363e 38be
000000f0: 46c0 ab3c 81e5 9c3d 4648 4f3e 429c a53e
00000100: c8cf 47bd cc6f 26bd bb18 86be e44f 363e
00000110: f4d5 243e 98b7 c33c bd31 e2bd 72bb 043e
00000120: a1f7 32bd 836b 713d 4740 6b3e 400a 30be
00000130: b498 343e e18c b33e f662 58bc 7fe9 7cbe
00000140: b101 9f3d 9e70 653d 5b2a 20be 4288 08bb
00000150: cdcc 8bbe b05f 193e a29c 493c 9fd8 233e
00000160: fce1 a1be 8ee7 123e 71a5 923d ac76 16be
00000170: af62 e3be 9ffe 49bd 5288 093e 3b46 d1be
00000180: 4879 7d3e f3ec 50be b288 ebbc 5dbd ef3d
00000190: 6d8b 6f3d 9f48 50be 9e5b 3f3d 146c 123c
000001a0: 403b b1be ef08 803e 02fb 1abe 6f79 e0be
000001b0: 2147 b1be 8f44 833d 3459 b83d 1ab2 e73d
000001c0: e6f2 883e 021f 93bd 7e51 37be 38d7 35be
000001d0: 950b 8cbd 04db ab3e 122d 463c 8d50 85be
000001e0: 19e1 b4bd a744 193e f9e3 6ebb 4b70 133e
000001f0: aaf7 9b3c f16c 883c a185 90be 5d44 b03e
00000200: 9107 1f3e 29c7 233d e86e c53b a8a2 7d3e
00000210: 1ad6 c83d 65fc 0dbe df94 8a3e 97d5 01be
00000220: 3428 59be 74a7 28be 5b9e 8fbe b7b1 f1bc
00000230: b542 45be 426d 133f 4adc 0f3d 0c07 70be
00000240: 09ac 62be 3cb9 69be af86 e23d dad8 0cbc
00000250: 4b6f abbd bac8 f7bd a849 623c cb1c 333e
00000260: 9736 1b3e 510e 283e dbaa 233d 254c 72be
00000270: d741 803d 0bf8 9bbb b5c3 9c3d 8e80 753d
00000280: a07e 883d c4f7 753d 41f7 c8be 646c bf3d
00000290: d3a8 81be 14e2 de3d 79e4 903e 0233 cebd
000002a0: 2407 91bc baef 61bc 032b abbe cbb6 283e
000002b0: 04ba 79be e0d0 34be 11cb e5be 1963 9e3d
000002c0: f99f b43e 361a 10be e7e1 9f3c 078f 82bd
000002d0: 543a db3d 4a84 333c 317f 25be 827e 4ebe
000002e0: 921d 423e 9b87 cebd 1c0d ecbc 67c1 bb3e
000002f0: fb1e 83be 5cbc 86be f338 8a3e a45e fb3e
00000300: 54d6 9d3d 495e e13d 44f1 6bbd 37b2 e0bd
00000310: 61e0 613d d060 2a3e 648e a13e 6fad 2abe
00000320: 70dd 64be a64a ca3e c1f6 4c3d 83ca 6b3e
00000330: ee96 143e 337a 723d ab83 6a3d ace4 973e
00000340: c072 92be 851c 303e 5dd2 683e 9122 ddbb
00000350: c41d 8a3d ca6d 783b b4ff e83c 1690 4cbe
00000360: 013c 78be ff23 0f3e 7cf5 bdbc 955c f83a
00000370: cd95 17be e187 023e 6d40 393c 91c7 cfbb
00000380: 4841 a03d 232f d0be 6d60 e3bd 2d37 2c3e
00000390: ebdf 243e de9a 4dbe 05e2 193d 855b 8bbe
000003a0: 0703 4ebd 7f29 263e dcf5 dfbb 360c 773c
000003b0: 5db8 bb3c 930c 17be 3cae 03be b6aa 21be
000003c0: fc2f c8bd 6b66 713d 6561 89be 98c3 f13d
000003d0: 509f d3be 35ee 61be ab93 e83c 29be 9d3d
000003e0: 26c9 c3be 7cb2 d53e 8986 753e 9a88 50be
000003f0: 4efb 9e3d cbe8 2e3d aa86 5fbe c62f bbbd
-0.062864125 -0.12543644 -0.10494905 -0.20689273 -0.09026815 -0.12327954 -0.09079168 0.06191837
-0.2197098 -0.33785346 -0.15965445 0.013688576 0.36976156 -0.041187935 -0.16487718 -0.08733052
0.29962775 -0.14181376 0.19728304 0.1898079 -0.06692464 0.17869307 -0.074620865 0.09732351
-0.25305128 0.00361445 0.23460715 0.017083775 0.12808387 0.22427586 -0.110689715 -0.41986603
0.08907739 0.00090524304 0.05039827 0.01566104 -0.16662724 -0.20447858 -0.13168155 0.1566306
-0.22287755 0.25141323 -0.047652714 -0.101435296 -0.118689895 0.10323891 0.024073273 -0.23223823
-0.02840454 0.1879043 0.2050172 -0.019828137 0.027761407 -0.1652594 0.14886881 -0.045425903
0.11193772 0.2688067 -0.10773581 -0.17992482 0.020965707 0.07660962 0.20242414 0.32345778
-0.04878214 -0.04063396 -0.26190743 0.17803913 0.16097242 0.023891255 -0.11044643 0.1296213
-0.04369319 0.05894042 0.22973739 -0.1719141 0.17636377 0.3506842 -0.013207188 -0.24698447
0.077639945 0.056015603 -0.15641157 -0.002083317 -0.27304688 0.14977908 0.012305411 0.16000603
-0.31617725 0.14346144 0.07160462 -0.14693707 -0.44411227 -0.04931509 0.13430908 -0.40873894
0.24753296 -0.20402889 -0.028751705 0.1170604 0.058482576 -0.20340203 0.046718232 0.008936901
-0.34615517 0.25006816 -0.15134814 -0.43842646 -0.3462458 0.06409561 0.09001389 0.11313267
0.26747817 -0.07183649 -0.1790218 -0.1775788 -0.068381466 0.33565533 0.012095707 -0.26038018
-0.088319965 0.14967595 -0.00364518 0.14398305 0.019038994 0.01665351 -0.2822695 0.34427157
0.1553023 0.039984856 0.006025184 0.2476908 0.09806462 -0.13865812 0.27066705 -0.12679134
-0.21206743 -0.16470128 -0.28050503 -0.029503686 -0.19263728 0.5758859 0.035122193 -0.23440188
-0.22135939 -0.22824568 0.11060845 -0.008596623 -0.08370837 -0.120988324 0.013811506 0.17491452
0.15157543 0.16411711 0.039957862 -0.2366186 0.06262558 -0.0047597936 0.07654516 0.059937052
0.06664777 0.06005074 -0.3925114 0.09346846 -0.25324115 0.10882965 0.2829931 -0.10068323
-0.0177036 -0.013790065 -0.33431253 0.1647598 -0.24387366 -0.17657804 -0.4488149 0.07733745
0.352783 -0.14072499 0.019516898 -0.063749366 0.107044846 0.010956833 -0.16161801 -0.20165446
0.18956593 -0.100844584 -0.028814845 0.36670992 -0.25609574 -0.26315582 0.26996574 0.49095643
0.077068955 0.110043116 -0.057603136 -0.10971492 0.055145625 0.16638494 0.31553948 -0.16667722
-0.22350097 0.39510077 0.05004001 0.23026471 0.145107 0.05919857 0.057254475 0.2966665
-0.28603172 0.1719838 0.22736497 -0.0067485054 0.067439586 0.0037907236 0.028442241 -0.1997684
-0.2424164 0.13978575 -0.023188345 0.001894849 -0.14803238 0.12747146 0.011306864 -0.006340929
0.078249514 -0.40660962 -0.11102376 0.16817923 0.16101043 -0.20078608 0.037569065 -0.2721826
-0.050295856 0.16226767 -0.0068347286 0.015078595 0.02291506 -0.1475089 -0.12859434 -0.15787777
-0.09774777 0.058935564 -0.2683212 0.11804885 -0.41332483 -0.22063525 0.028390726 0.07702286
-0.38239402 0.41737735 0.23977102 -0.2036461 0.07762776 0.042702477 -0.21828714 -0.091399714

actor_mean.0.bias f4 [64]
00000000: be5f 8e3d 69c8 ff3c 64c3 2c3d e354 733c
00000010: a663 843c 70f4 443d 25bb 87bd 52c0 fcbc
00000020: dd68 82bd 55f2 223c 879c 623c d908 2e3c
00000030: b6dd 83bd 7cf8 1a3d 4864 95bd 9308 9b3d
00000040: 5c4a 59bc c10b 9f3d 6404 e23d 3f4b 6c3d
00000050: a0dc 32bd 75d2 a43c 5344 b8bc 53c6 61bc
00000060: 9655 48bb 66af 5fbc 0c81 2b3d d735 41bd
00000070: 109f d23d ead4 93bd 75e4 6c39 ad98 423b
00000080: e0cb 683d 0678 2eba c0f2 113d 27d1 2e3d
00000090: 8887 5e3d 6af2 8e3d ec8c 53bc f2c6 6abd
000000a0: 6e3d 56bd d2db 6cbc 7e88 993b 73d1 a03d
000000b0: c4a2 403d d9ee 7c3d 8c07 92bd 4f5a fd3c
000000c0: 566d 3bbd 5da3 bdbd 1896 89bd 7e90 46bd
000000d0: a11e c73c 3e86 b33c 14bb 433c 1600 2cbb
000000e0: a0e5 c0bd da5e 1cbc ea25 bbbd b232 b23d
000000f0: c6e6 00bc 8f29 12bd 520a 92bd bd57 b6bc
0.06951855 0.031223493 0.042178527 0.014851782 0.016160797 0.048084676 -0.06627492 -0.030853424
-0.06367657 0.009945472 0.013831264 0.010622227 -0.064387724 0.03783463 -0.07294518 0.07569995
-0.013262358 0.07765914 0.11035994 0.057688948 -0.043667436 0.020119885 -0.022493517 -0.013780194
-0.0030568591 -0.013652658 0.041871116 -0.047170486 0.10284245 -0.072183445 0.00022591821 0.0029693053
0.056835055 -0.0006655458 0.035631895 0.042679932 0.05432847 0.069798306 -0.012912016 -0.057318635
-0.052304678 -0.014456706 0.0046854606 0.07852449 0.047030225 0.06175122 -0.07130346 0.030926852
-0.045758568 -0.09259675 -0.06718081 -0.048477642 0.024306597 0.021914598 0.011946458 -0.0026245168
-0.094187975 -0.009544099 -0.09138091 0.087010756 -0.007867521 -0.035684165 -0.07130875 -0.022258634

actor_mean.2.weight f4 [64, 64]
00000000: 4c04 2fbe 173f 0d3e 917f 493e c086 63bd
00000010: 3b71 433e 35cb ff3d 772d d9be d8b0 723e
00000020: 7293 2fbe 0ec8 8c3e 4db3 02be 6caf 43bd
00000030: fcd4 d83e 4050 2e3e 2fe3 e2bd 59ce 96bc
00000040: 61c7 2b3c f2d4 923e f81f 01bc feae 47be
00000050: 6525 f23e e799 93be 3527 e43d 3b7b a33d
00000060: ec69 6dbe 4b13 b13c 8767 983e fd3e 423d
00000070: 780a bf3d 5236 f2bd f3b4 b63d ff8b 92be
00000080: 5e58 f33d 0501 c33d 45a1 443e 6e53 95bd
00000090: 172e a1bb 00be 643d ad85 223e 3159 96bd
000000a0: 9dd3 2abe 006c d9bd d215 4dbe ddad 313e
000000b0: 708b c5bd 08ab cfbb 1c2a 03be 2e3e c53e
000000c0: 3237 b93a b3ac 57be 6ed5 d7bd f3ad 513e
000000d0: 64cc 163e 6a98 6f3e 5083 b33d f4aa f33e
000000e0: 7989 6fbe 8de9 8dbd 097e 2cbc bf76 e53c
000000f0: cd1f a1bd 75f6 37be 0e65 dd3b c597 813d
00000100: 6996 313e c083 793e 4b74 d43c 0a2b a3be
00000110: ea9a 34be 98f5 d83e 3519 523d c3dd a6bd
00000120: 3711 553e 0f36 143d c16f 4fbc c5f4 c9be
00000130: eb92 78be 5621 903c 281a 79be 90bd eabb
00000140: 6b52 f83d 642a a1be 94e0 7e3d 4912 423b
00000150: a56b 993e 0286 bcbc 5b39 98be 56d9 a8bd
00000160: 39f5 0dbe d4c0 2b3c d1af 98bc d17b 153e
00000170: 204c 0d3e db40 bcbd 04f6 85bc 3e44 96be
00000180: d18e a93d 29f4 013e cafa 8b3b a28d 59be
00000190: c921 eabc 3575 063e c1a9 f33d f25e d3be
000001a0: 6c15 773e 0fba df3d 1c79 67be 6a45 cbbd
000001b0: 62e8 263e 491e 113e 8054 163b 26b2 d63d
000001c0: f877 023d 5f40 cf3e ddf1 503e 3cb6 4ebe
000001d0: 084d b03e 2df3 bcbd 437e fabd b7c2 173e
000001e0: 864e 0d3e 25fd af3d 280a bfbd e452 d0bd
000001f0: b89d 623e 8fb1 eebe 7a78 aabd 9087 4abd
00000200: 9667 81bd f5a2 963e 4433 2dbe 82f1 5b3e
00000210: 4a70 2cbe 21b0 1bbe 9851 d83d 6e89 36be
00000220: cd77 ef3d edb3 e73d d9b7 8bbd fea8 9b3d
00000230: 0e00 f83d 5936 cd3c 03bb acbd afa5 483d
00000240: d8a4 32be 8c19 26be fb29 c2be 22c2 eebd
00000250: 8536 253e 5b82 1a3e d584 06be 9bd3 efbb
00000260: 5519 d6bd 9af8 823e eaa3 fb3d 2535 02be
00000270: 1df3 93be c076 bbbe 9a43 3b3e 6123 223e
00000280: fa76 a33e aa34 353e cdf6 10bd b1d7 4f3e
00000290: c004 4c3d aa7a 7c3e 4a08 96be 8253 5e3c
000002a0: d54b 9cbe eac6 f3bd db13 eb3b da26 913d
000002b0: ded7 573e 4cbb 4a3e 29a6 7c3e b266 47be
000002c0: 5e43 a8bd fcb7 f73d 4460 2e3e 9b12 673e
000002d0: ac10 27be 9547 913c 197a aebd f106 d0be
000002e0: ba5e dfbd 9374 c8bd 5629 e8be 1320 40be
000002f0: 849e 9bbb c808 503e 11c1 133e 6b53 84be
00000300: 20a7 85be 026c fbbd 36bb a0be d326 c73d
00000310: 587b 1e3e 5a00 0bbe 91bc bebc 8dbb f63c
00000320: ead1 153d 02a3 8cbd 135c b3bd 61e3 ff3d
00000330: 2297 6f3e ce96 953d 8534 8abd 2289 bcbd
00000340: 2bce 8d3e f1d5 4fbe 78e8 b5bd 2eb2 e8bd
00000350: a908 723e 8bd1 38bd 3bc9 003d 6b65 93be
00000360: e49d aabe d961 6d3e faf9 b73d 8481 52be
00000370: a82d b4bd 1206 be3e fbe8 043e 0848 ea3c
00000380: 44fc 033d 4e65 4fbe 9cb4 663e 784d c8be
00000390: 9c24 1c3d 3070 a03c 2f81 91bc 6c55 853d
000003a0: 6547 7b3e 0c64 5e3e c4a3 5abe a30f 13be
000003b0: a8ac 54be 8c4b 75be 529a 3b3e d8e3 98be
000003c0: 9c92 c23e 1f66 343e 7a60 40be 3b10 a0bd
000003d0: 7fd1 6bbe 777b 96be 571a 113e e16c bc3c
000003e0: ee22 f4bd e17d 513e 7c98 85be 6b48 363d
000003f0: 5a98 af3d a3ed c43d 5c52 b53e ac63 993e
-0.17091483 0.13793598 0.19677569 -0.05554843 0.19086163 0.124899305 -0.424175 0.23700273
-0.1714609 0.2749638 -0.1276371 -0.047774717 0.42349994 0.170228 -0.11078488 -0.018408941
0.010484547 0.2867809 -0.007881157 -0.19500348 0.47294155 -0.28828356 0.11140291 0.07982489
-0.23184937 0.021615645 0.29766485 0.04742335 0.09328169 -0.11826767 0.08921232 -0.28622434
0.11882089 0.09521679 0.19202144 -0.072913036 -0.0049188244 0.05584526 0.15871306 -0.07341231
-0.16682287 -0.106163025 -0.20027855 0.1735148 -0.09645736 -0.006337527 -0.12809032 0.38524002
0.0014130829 -0.21061973 -0.10538755 0.20476513 0.14726406 0.23397985 0.0876528 0.47591364
-0.23392285 -0.06929312 -0.010528096 0.028010724 -0.07867394 -0.1796511 0.0067564314 0.06327776
0.17342533 0.24366665 0.025934359 -0.31868774 -0.1763722 0.42374873 0.05129357 -0.081477664
0.20807348 0.036184367 -0.012660922 -0.39444557 -0.24274795 0.01759402 -0.24326384 -0.007163711
0.12125095 -0.31477654 0.062225893 0.002961295 0.2996494 -0.023013119 -0.2973126 -0.082445785
-0.13863076 0.0104829855 -0.018638523 0.14598013 0.1379857 -0.09192058 -0.016352661 -0.2934894
0.08279193 0.12690796 0.0042718397 -0.21245435 -0.028580563 0.13130648 0.11897612 -0.41283375
0.24129266 0.1092416 -0.22604793 -0.09925349 0.16299585 0.14171709 0.002293855 0.10483198
0.031852692 0.404788 0.20404764 -0.20186704 0.3443377 -0.092260696 -0.12231114 0.14820372
0.13799486 0.08593205 -0.09328109 -0.1017206 0.22130477 -0.4661984 -0.0832376 -0.04944569
-0.063185856 0.294212 -0.16914088 0.21478847 -0.1683971 -0.15203907 0.10562438 -0.17825863
0.11692772 0.11313615 -0.068221755 0.07600592 0.121093854 0.025050329 -0.08434107 0.048986133
-0.17445695 -0.16220683 -0.37922654 -0.11658122 0.16134079 0.15088789 -0.13136609 -0.0073189265
-0.104540505 0.25580293 0.122871235 -0.12715586 -0.28896418 -0.36614037 0.18287507 0.15833808
0.3192671 0.17695871 -0.035391618 0.20297123 0.049809217 0.24656168 -0.293032 0.0135697145
-0.30526605 -0.11903174 0.007173998 0.070874885 0.2107844 0.1979801 0.2467276 -0.19472769
-0.08215974 0.12095639 0.1702891 0.22565691 -0.16314954 0.017734328 -0.08519382 -0.40630296
-0.109067395 -0.0978786 -0.45344037 -0.18762235 -0.004749121 0.2031585 0.14429118 -0.25844893
-0.2610407 -0.1227646 -0.3139283 0.09724202 0.1547674 -0.13574353 -0.023283275 0.030118728
0.036577143 -0.06867029 -0.08757796 0.12494541 0.23397496 0.07304154 -0.067482986 -0.092058435
0.27696356 -0.20296456 -0.088822305 -0.1136211 0.23636116 -0.04512171 0.03144191 -0.28788313
-0.33323586 0.23181857 0.08983226 -0.20557219 -0.08797771 0.37114006 0.129795 0.0285988
0.032223 -0.20253488 0.22529835 -0.39121604 0.03812085 0.019584745 -0.017761795 0.065104336
0.24538954 0.21717852 -0.21351534 -0.14361434 -0.20768988 -0.239546 0.18320587 -0.2986133
0.3800248 0.17617081 -0.18786803 -0.07815596 -0.23029135 -0.2939107 0.14170204 0.023001136
-0.11920725 0.20458175 -0.260929 0.044502657 0.08573981 0.09615638 0.35414398 0.29958856

actor_mean.2.bias f4 [64]
00000000: 6da6 113d b62b 9dbc 3f75 9f3c 8e48 a5bd
00000010: 9a2f b43b a482 6abd 66ad 073d b0e1 c8bb
00000020: c53f a7bd 1a97 c1bd 230e e6bd 7f59 c63b
00000030: 032d 48bd 4d9d ed38 c136 8bbc eaeb 8fbc
00000040: a203 9a3d d381 d23c ac33 193d 0ed4 e4ba
00000050: d0c7 873d b70f 3dbd a983 12bd 37d7 67bc
00000060: 5792 c2bb aed5 44bd 7fa0 eabb 7ede e8bd
00000070: 460d aabd d344 d13c f848 e83d 847b 313b
00000080: 47a1 fabb 89b3 2abd 626e de3b a8e4 203d
00000090: 6e30 bf3d 1ff2 e83c 9e5c 3bbc 7bd3 0ebc
000000a0: 428c 17bc 7fec dbbc 5244 a03c f7ab 5d3d
000000b0: 9809 8c3c 82fe 9f3d 29f6 013d 421d 173d
000000c0: d11b 39bd c007 f339 e048 18bd e800 963d
000000d0: 59e2 013d 9648 1fbd a0c2 07bd 24e4 dbbd
000000e0: 97ef 21bb a07a 803c 64a4 bb3c a796 633a
000000f0: ca46 bbbc 09f0 86bc 8314 9d3c 33fd 2c3d
0.035559107 -0.019185882 0.019465087 -0.08070479 0.0054988386 -0.057253495 0.03312435 -0.0061304197
-0.0816646 -0.094526485 -0.11233165 0.0060531492 -0.04887105 0.0001133034 -0.016993882 -0.017568547
0.07520224 0.02569667 0.037402794 -0.0017458217 0.06629908 -0.046157565 -0.035770092 -0.014150432
-0.005937855 -0.048055343 -0.007160246 -0.11370562 -0.08303313 0.025545513 0.11342043 0.0027081678
-0.0076486203 -0.041675124 0.006788061 0.039280564 0.09335409 0.028435765 -0.011435656 -0.008717413
-0.009249749 -0.026846169 0.019563828 0.054119077 0.017094418 0.078122154 0.031728897 0.036893137
-0.045192543 0.00046354346 -0.037178874 0.073243916 0.031710003 -0.038887583 -0.033144593 -0.10736874
-0.0024709457 0.015683472 0.022905536 0.0008681812 -0.022860903 -0.01647188 0.01917482 0.042233657

actor_mean.4.weight f4 [4, 64]
00000000: 9f94 093d 18af deba 32dc cfbb cda2 a9bc
00000010: c792 d53b 78df bcbc 0a2a 993c 9630 5d3c
00000020: c24f 14bc cb64 033c efa8 033d 858d 73bc
00000030: 4a8d fabc 7c7d 4d3c b2f5 a83a eea9 f7bc
00000040: a1cd 273b 1406 233b 75db 7dbb a1f5 8ebb
00000050: 187e 5fbd 400a 42bc f7fa 1ebd 5c94 b93b
00000060: c36b b2bb 31d6 103d 1188 583c 4ea3 21bd
00000070: 1ebe 4cbc ee31 11bd cb3f 5b3c b7a7 163d
00000080: 5076 b2bc 30ec 1d3d ee86 b93b 9e6f 87bc
00000090: 91cf 0b3c ed60 a0bc 91fa 173d 332d 70bd
000000a0: 3a05 573c a7fb a9bc 538a 063d 582d c63b
000000b0: 4142 ac3c 6422 90bc ff97 403d 83c5 2fbd
000000c0: 76d2 443c 6043 b1bc 5955 373c b169 a23b
000000d0: 5add ffbb 2abe f9bb dd67 9ebc fa01 a4bb
000000e0: 08ff 83bb 8d90 6bbd aeee a03c e870 acbc
000000f0: e1d0 863c 183c efbc dc09 12bc 5d0d 1c3c
00000100: ab95 903c c009 503d 34d6 42bd 976c 403d
00000110: d009 573c 62b5 b03c 3421 03bc aa64 d6bc
00000120: 439d a03c 47b2 323c 1f4a 8c3d 194e f03b
00000130: 16ac 5e3a 1100 27bc 53ad 80bc 8cae 21bc
00000140: 325e 1cbd e926 3ebc dd7f 0bbd 7882 d13c
00000150: 8c0b 1b3c 9c77 053c cd12 18bd 9c56 52bb
00000160: 9e9f a3bb d1a2 d6bc caea 5cbc d712 1ebd
00000170: abb0 bc3c 9f29 44bc c8a4 32bc 000c 963c
00000180: f02a 1a3d bb83 143c 1e2e 1dbc aaad 4a3c
00000190: 9249 fbbc e18b 41ba 5c6f b4bb 79d0 ed3c
000001a0: b1a0 cdbc b35e 953c 3b23 90bc 3d31 91bc
000001b0: be0f c43c 5c17 843b ce10 303d 746b 22bc
000001c0: dd4b 593b 75d8 3bbc d53c e53a afb6 253a
000001d0: 86da afbc 0246 ec3c 9875 f3bc 1d4e 803c
000001e0: 1cd1 b93c 2648 11bc a29d 9c3c c423 813c
000001f0: 3663 4fbb da9f 12bd b7c8 173d 686f 08bd
00000200: 6775 fe3c 8c64 c33c 83a3 b73b f68a 2cbc
00000210: 9aff bebc db6e 203d 0be1 803c 8fcd a1bc
00000220: 0187 05bd 704d f83a 049c 173d 4972 c3bc
00000230: 9160 18bc 9b32 3a3d 1917 293d 7e3a 15bc
00000240: df5c 2f3b 44d4 26bb 18d1 5dbc c18c 0ebc
00000250: c88c 813c e932 bf3c fb95 803b 7106 65bb
00000260: 8d85 41bd ab13 c8bb 51ea c8ba d98c 96bb
00000270: 6383 dbbc 8552 7fbc a465 363c 9687 ae3c
00000280: 6285 613d 6407 cd3c 8310 6abc 1bd9 343d
00000290: 6a0b 843c 09a3 8c3b a326 8dbc 84ff ba3c
000002a0: 4343 b5bc be20 c0bb 4481 b33c 5ae2 b1bc
000002b0: 1b1b 613b 82a9 463c abad 023d de01 1d3c
000002c0: dd8f 0e3c c87f 113c 84f9 e8bb c218 a53a
000002d0: 0718 e1bc a78e 763c 0314 913a f05f 4cbd
000002e0: 7097 953c e337 113d bae3 95bc 9dde 3d3d
000002f0: 9955 7d3d da85 033d 697b 9fbb 09dd f43c
00000300: ae60 90bb 84c7 e6bc 9633 953a 59c4 1339
00000310: 8435 16b9 4a61 f0bb e136 03bd 3df5 a8bd
00000320: 45eb 883b c91c 67bc 89ad bcbc cad7 423c
00000330: 23ff 72bc e846 a2bc 1dd4 0fbd 0a0e bebc
00000340: c55e b9bc 7257 abbc 51e2 043d c5b4 843b
00000350: 29b0 7fbb eea8 3b3c 4d9f 843b fb73 7c3a
00000360: 1647 7bbc 8420 18bc b6e0 c63c c064 c83c
00000370: 542d 6bbc 997c 183c b69e 6e3c 2553 8e3c
00000380: 0d4c 21bc bbd3 fc3c b878 f13b aed2 8bbc
00000390: ed1a b63a 4d78 f33c 20a7 ecbc 073f 3d3d
000003a0: 88a6 163c 310d 473c d16e 563c f18e 06bc
000003b0: 8829 f13c 75d1 06bd 3de0 8fb9 7929 25bc
000003c0: 15de c2bc ffb6 8dbc 6bcc 7fbc 6e02 26bc
000003d0: 91a1 62bc 13b6 1e3d 2b38 713c 65c8 d3b9
000003e0: 5054 f43c 87a3 9abc 3d0e 85bc 9643 743a
000003f0: 051b 293c aea8 f43b 1a12 453c c07f dc3b
0.033589 -0.0016989438 -0.006343388 -0.020707512 0.0065177414 -0.023055777 0.018696804 0.013500353
-0.009052219 0.008019636 0.03214353 -0.014865284 -0.03058495 0.012542125 0.0012890606 -0.030232396
0.0025604742 0.002487545 -0.0038735543 -0.0043627773 -0.05456361 -0.011843264 -0.038813557 0.005663438
-0.005444975 0.03536052 0.0132160345 -0.03946238 -0.012496499 -0.035448007 0.013381909 0.03678104
-0.021784931 0.038555324 0.005661837 -0.016532715 0.008533374 -0.019577468 0.037104193 -0.058636855
0.013123805 -0.02074988 0.03284676 0.006047886 0.021027686 -0.017594524 0.047019955 -0.04291297
0.012013068 -0.021638572 0.011189782 0.004956447 -0.0078083696 -0.0076215463 -0.019336635 -0.0050051184
-0.004028205 -0.0575109 0.019645061 -0.021049932 0.016457023 -0.02920346 -0.0089134835 0.00952467
0.017649492 0.05079055 -0.04756756 0.04697856 0.013124898 0.021570865 -0.008003522 -0.026171047
0.019606238 0.010906762 0.06850075 0.0073335287 0.0008494271 -0.010192887 -0.015707647 -0.009868275
-0.03817577 -0.011605957 -0.034057487 0.025574908 0.009463202 0.008146193 -0.037127305 -0.003209508
-0.004993393 -0.026200684 -0.013483712 -0.038592186 0.02303346 -0.011972814 -0.010903545 0.018316269
0.037638605 0.00906461 -0.009593515 0.012370506 -0.03067473 -0.00073832093 -0.005506439 0.029030072
-0.025101038 0.018233633 -0.017594924 -0.017723674 0.023933288 0.004031105 0.042984776 -0.009913314
0.003315679 -0.011465182 0.0017489443 0.00063214725 -0.021466505 0.028841976 -0.029719159 0.015662247
0.022682719 -0.008867299 0.019118134 0.015764125 -0.0031644828 -0.035796978 0.03705665 -0.03330937
0.031061841 0.023851655 0.005604209 -0.010531178 -0.02331524 0.03916822 0.015732309 -0.019751338
-0.032599453 0.0018943977 0.037014022 -0.023858206 -0.009300367 0.045458417 0.041281793 -0.009108184
0.0026758236 -0.002545611 -0.013538621 -0.0087005505 0.0158142 0.023339706 0.003924129 -0.0034946466
-0.047246505 -0.00610586 -0.0015328621 -0.004594427 -0.026796049 -0.015583639 0.011132631 0.021304887
0.055058844 0.025027938 -0.014286163 0.04415236 0.016118724 0.0042918962 -0.017230337 0.022826917
-0.0221268 -0.005863278 0.021912225 -0.021714378 0.0034348432 0.012125375 0.031903904 0.009582965
0.008701292 0.008880563 -0.0071098227 0.0012595879 -0.027477277 0.015048659 0.0011068586 -0.04989618
0.018260688 0.03545369 -0.018297065 0.04635488 0.06184921 0.032110073 -0.0048670066 0.029890554
-0.0044060564 -0.028171308 0.0011383172 0.00014092158 -0.00014325051 -0.0073358165 -0.03203476 -0.082499005
0.004178437 -0.014105984 -0.023031967 0.011892268 -0.014831337 -0.019809201 -0.035114396 -0.023200054
-0.022628197 -0.02091572 0.032442395 0.0040498697 -0.0039014912 0.01145385 0.0040473104 0.00096303195
-0.015336772 -0.009285096 0.024277072 0.024462104 -0.014354069 0.00930705 0.014564207 0.01737363
-0.009844792 0.03086268 0.007369127 -0.017068233 0.0013893523 0.02972045 -0.028888285 0.046202686
0.009194978 0.012149141 0.013087944 -0.008212791 0.029438749 -0.032914598 -0.00027442156 -0.010080689
-0.023787538 -0.017299173 -0.015612702 -0.010132415 -0.013832466 0.03874786 0.014722864 -0.00040394362
0.02982536 -0.018876804 -0.01624214 0.00093179324 0.010321383 0.0074663972 0.0120282415 0.006729096

actor_mean.4.bias f4 [4]
00000000: 9bad b3bc 7b6b 41bd b1c5 9f3b 1a19 b23c
-0.021933367 -0.047221642 0.0048758616 0.021740485

codebook f4 [100, 2]
00000000: b217 803e 8e2c 3c3f f35d 053f ea7b f33e
00000010: aeab 09ba 8099 7b3f cb4a 623f 75b9 903d
00000020: 0e61 153f cbd1 cf3e ff0c 323f 1cc3 973e
00000030: 0020 023f 48bb f83e cc55 3e3f 6426 6b3e
00000040: 656e b73e 68c5 213f 6355 f63e 518c 033f
00000050: 9e72 683f fb24 8d3d 8fb2 e33e f065 0d3f
00000060: 7606 a73e 96a5 2a3f d514 b53e 7524 223f
00000070: 4799 db3e c9a0 113f 0f65 5f3f d710 953d
00000080: b59a c33e fd75 1b3f 9998 b63e 55bd 223f
00000090: fd12 293f 0d72 a63e 64f8 17bc eb45 7b3f
000000a0: 8d60 703f b3fb 853c 386d 7e3f c0d3 87bd
000000b0: d3a2 613f 412d 713d 7e04 2c3f e32f a03e
000000c0: c799 843e 2d4e 3a3f 87af 963e 6d3f 313f
000000d0: 7067 a23e eb32 2c3f 5c30 763e 4322 3f3f
000000e0: ff97 4b3e 5067 483f b0f9 ba3e 3cb1 1e3f
000000f0: 0dae 053f 60f3 f03e 62f4 143f f4e6 d13e
00000100: a491 373e 5c65 4e3f fe90 1e3f 00a0 be3e
00000110: 571f bd3e e853 203f 80e5 ff3e 7d8e ff3e
00000120: f10e 313f f51f 973e a6e6 193f 7c1b c93e
00000130: 1fc6 6f3f 6bbf f9ba 9b72 eb3e c3ce 083f
00000140: 6e93 403f b9fd 693e 098a 133f 14cd d33e
00000150: 27fc 633f 05f1 753d 4abb 7b3f e49c 35bd
00000160: 1d7b 273f 1c4c a93e e3b0 9f3e d453 2b3f
00000170: 94ef da3e 11bb 103f 21f8 683f e0dd a6bd
00000180: 289b 293f 7ce3 a43e eae6 703f 1dbb 30bd
00000190: 89a5 0f3f f55c df3e 07b4 6b3f 61a1 653c
000001a0: dfe2 193f 33fc c53e 65c8 9c3e 9ea9 2f3f
000001b0: 21be 143e ad1e 553f 543e ad3e 36f7 263f
000001c0: 1a78 383f c1ca 853e 65b5 403f 47c8 603e
000001d0: ca75 1a3f 86b0 c53e 156f c43e aeaa 1b3f
000001e0: ae2d f93e 3e61 023f cf71 dabc d1e4 6a3f
000001f0: 04c6 233f d260 b23e 8494 443f 308f 603e
00000200: 2469 e33d 49db 5b3f 2ce6 413e d6ac 483f
00000210: a319 e43e 883f 0c3f 46cc fb3e 977a 023f
00000220: a221 613f ae50 853d 46ee 893d 647f 673f
00000230: ebb6 153f 37a2 d13e 468a 003f 656f fe3e
00000240: 762c e93e 2fbb 0a3f 904f 433f 2e6c 613e
00000250: 1781 fc3e b59c 013f 5673 69bd a839 803f
00000260: d0a9 fb3e c96c 013f 9fbe 433e 809d 4b3f
00000270: 195c fc3e 3b35 013f fac8 573f 8bd0 fb3d
00000280: a64e 1e3f f883 bf3e 6f19 593f 11cc fb3d
00000290: 0e97 063f d69b f23e 17aa 1f3f be9d ba3e
000002a0: 4aae 213f aab7 b83e 4f41 313f 006d 943e
000002b0: 418a 0d3f e7eb e33e 2274 dd3e 4d71 103f
000002c0: 3146 073f 11b2 f13e c496 c43e 2f73 1a3f
000002d0: e8d6 ed3e 44a8 083f 45ae cf3e 25aa 163f
000002e0: 4f23 ec3e 7af3 083f 48b2 a33d e8b6 673f
000002f0: 1832 1e3f e301 bc3e 4799 823e 833c 3c3f
00000300: 85c3 133f 12e2 d53e 87c5 4d3f 7fb7 243e
00000310: f6f5 e63e 5b7a 0b3f 417a 593f 850f dd3d
0.25018078 0.73505485 0.5209648 0.47555476 -0.00052517175 0.982811 0.88395375 0.07066623
0.5835122 0.40589747 0.6955108 0.29641044 0.5083008 0.48580384 0.74349666 0.22963864
0.35826412 0.63191843 0.4811202 0.5138598 0.9079989 0.06891819 0.44472167 0.5523367
0.32622117 0.66658914 0.35367456 0.6333688 0.4289038 0.56885964 0.8726358 0.072786026
0.3820397 0.6072691 0.35663298 0.6357015 0.660446 0.3250889 -0.0092755295 0.9815356
0.93897325 0.016355371 0.99385405 -0.06632185 0.88139075 0.058881048 0.67194355 0.31286535
0.25898573 0.72775537 0.29430792 0.69237405 0.31719542 0.67265195 0.24041885 0.74661654
0.198822 0.7828264 0.3651862 0.6198919 0.52218705 0.4706068 0.581854 0.40996516
0.17926651 0.8062341 0.6193999 0.37231445 0.36937973 0.6262803 0.49979782 0.49913397
0.69163424 0.2951657 0.60117567 0.3927878 0.93661684 -0.0019054239 0.45985875 0.53440493
0.7522496 0.22850694 0.576325 0.413674 0.8905663 0.060044307 0.98332655 -0.044339076
0.6542223 0.3306588 0.3118964 0.66924787 0.4276091 0.5653544 0.91003615 -0.08147788
0.66252375 0.32204807 0.94102347 -0.043147195 0.5611196 0.43625608 0.92071575 0.0140155265
0.601118 0.38668975 0.3062164 0.6861819 0.14525653 0.8324993 0.33836615 0.65220964
0.7205826 0.2613125 0.75276786 0.219514 0.6033598 0.3861124 0.38366 0.6080731
0.48667663 0.5092963 -0.026665596 0.91755396 0.6397402 0.34839493 0.76789117 0.21929622
0.11104038 0.8588148 0.1893546 0.78388727 0.4455081 0.5478444 0.49179286 0.5096831
0.87941945 0.06509529 0.067349 0.9042876 0.58482236 0.40944073 0.5021099 0.49694362
0.45541734 0.5419187 0.7629328 0.22013924 0.49317238 0.5062974 -0.05699476 1.0017595
0.49152994 0.5055662 0.19115685 0.795372 0.49289015 0.5047185 0.8429104 0.12295636
0.6183876 0.37405372 0.84804434 0.12294782 0.5257424 0.47384518 0.6236891 0.36448473
0.6315657 0.36077625 0.6924028 0.2898941 0.55289084 0.44515917 0.43252665 0.56422883
0.5284148 0.47206166 0.38396275 0.60332006 0.46453023 0.5338175 0.40562645 0.5885337
0.46120688 0.53496516 0.07992989 0.9051347 0.61795187 0.3672019 0.25507566 0.73529834
0.57720214 0.4177404 0.8037953 0.16085623 0.45109528 0.54483575 0.8495217 0.10793976
