saved_agents/dm_humanoid_b_raw.pth (torch, 636714 bytes, 28 tensors)

actor_logstd f4 [1, 21]
0	0x3bc62d67	0.006047893
1	0xbd6a5037	-0.057205405
2	0xbcd8c65c	-0.026461773
3	0xbd832ad3	-0.064046524
4	0xbca2b349	-0.01986088
5	0xbd237d24	-0.039914265
6	0xbd45c05d	-0.048279155
7	0xbd941c41	-0.072319515
8	0x3abb303b	0.0014281342
9	0xbc732277	-0.01483976
10	0xbd637ebb	-0.05554078
11	0xbd6158dd	-0.055016387
12	0xbd8595de	-0.065227255
13	0xbd190074	-0.037353948
14	0xbcf70420	-0.030153334
15	0xbca799a3	-0.020459002
16	0xbd3666bd	-0.044531573
17	0x3cdf2575	0.02723954
18	0xbd6cc357	-0.057803478
19	0xbd18e9c8	-0.037332326
20	0xbcdb23a7	-0.026750399

critic.0.weight f4 [64, 69]
0	0xbb74c5c8	-0.0037349332
1	0x3badcf6a	0.0053042667
2	0x3e964867	0.29352114
3	0xbeabd721	-0.33562568
4	0xbecfde1e	-0.4059915
5	0xbd4e91dd	-0.050432075
6	0x3e241316	0.16022906
7	0xbefd2a7b	-0.49446473
8	0x3eb1bcf1	0.34714463
9	0xbeac7eb4	-0.33690417
10	0x3f088914	0.53334165
11	0xbe9a0a23	-0.3008586
12	0x3f08a73e	0.5338019
13	0x3f08ae7a	0.5339123
14	0x3f49cbd4	0.7882664
15	0xbf3bd204	-0.73367333
16	0xbd920de3	-0.07131555
17	0x3ee9e39a	0.4568146
18	0xbe6c44a1	-0.23073055
19	0x3e93e57f	0.2888603
20	0x3de8554e	0.113443956
21	0x3f17e3d1	0.59331995
22	0x3e850dce	0.25987095
23	0x3e0fddca	0.1404945
24	0xbe554bb1	-0.20829655
25	0x3ea486ed	0.3213419
26	0x3e43fd63	0.19139628
27	0x3ead28f9	0.33820322
28	0x3e91c0ba	0.2846735
29	0x3d8e6532	0.06952895
30	0xbc7a8f6e	-0.015292985
31	0xbe551add	-0.20811029
32	0x3f06e2cf	0.5268983
33	0x3d8faaed	0.070150234
34	0xbdac6392	-0.08417429
35	0xbe712c3e	-0.23552033
36	0xbe18743b	-0.14888088
37	0xbe9481e2	-0.29005343
38	0xbce399f1	-0.027783366
39	0xbe835030	-0.25647116
40	0x3e016853	0.12637453
41	0x3e097755	0.13424428
42	0xbefeb04e	-0.49743885
43	0x3e6409ec	0.2226941
44	0xbe221960	-0.15829992
45	0xbdbc25eb	-0.0918692
46	0x3d7239e0	0.059137225
47	0xbe4cf1a8	-0.2001406
48	0xbc6f0ba2	-0.014590176
49	0xbd6d489f	-0.057930585
50	0xbc08c042	-0.008346619
51	0xbe2b7532	-0.16743925
52	0x3d0c9a48	0.03432682
53	0x39fc3ee6	0.00048112049
54	0xbc727bd1	-0.014800028
55	0x3c8bb753	0.01705519
56	0xbdd0c669	-0.10194094
57	0x3d2f68b3	0.04282446
58	0xbc061eaa	-0.008186022
59	0x3c22cb59	0.009936177
60	0x3c270f77	0.010196558
61	0xbb3d251b	-0.0028861228
62	0xbdba92d6	-0.09110038
63	0x3c0f15e4	0.0087332465
64	0xbc552610	-0.013009563
65	0x3cf038e6	0.029324006
66	0xbc13e181	-0.009025932
67	0xbede03e6	-0.4336235
68	0xbf195b94	-0.5990536
69	0xbde0ef72	-0.109831706
70	0x3eab4db1	0.3345771
71	0xbc0a1ed6	-0.008430203
72	0xbe7f6560	-0.24941015
73	0xbe6f0b59	-0.23344173
74	0x3e0a4ea8	0.13506567
75	0xbd7f07a2	-0.06226314
76	0x3e59c2f2	0.21265772
77	0x3eb55605	0.3541719
78	0xbda89f4d	-0.08233509
79	0x3f0469bf	0.51723856
80	0xbe234fce	-0.15948412
81	0xbc3c499d	-0.01149216
82	0x3d9d9055	0.07693545
83	0x3e5380fe	0.20654675
84	0xbd2c5d9f	-0.04208147
85	0x3dfb4686	0.12269311
86	0x3e169251	0.14704253
87	0x3e648b9f	0.22318886
88	0x3f014a5c	0.5050409
89	0x3dbacff2	0.09121694
90	0x3e2e3915	0.17013963
91	0x3e22b84d	0.15890618
92	0xbbcf380e	-0.006323821
93	0x3c0996cc	0.008397769
94	0x3e0f22f8	0.13978183
95	0xbe657a74	-0.22409993
96	0x3f0717af	0.52770513
97	0x3decad64	0.11556509
98	0xbea9ba32	-0.33149868
99	0xbdf43f39	-0.11926121
100	0xbe192f64	-0.14959484
101	0x3e741342	0.23835471
102	0x3ed017e6	0.40643233
103	0xbc6f7b85	-0.014616852
104	0xbd5773fa	-0.05260084
105	0x3de64114	0.112428814
106	0xbe8c34a7	-0.2738392
107	0xbe233e41	-0.15941717
108	0x3d4def83	0.050277244
109	0xbbc5e12b	-0.006038805
110	0xbe10643a	-0.14100733
111	0xbe2172aa	-0.15766397
112	0xbb53d6bc	-0.0032324037
113	0x3e466726	0.19375286
114	0x3b01b90a	0.001979413
115	0xbcaa3d6a	-0.020781238
116	0x3e153859	0.14572276
117	0x3c626a74	0.013819326
118	0x3e1f8ea2	0.15581754
119	0x3d8596ad	0.0652288
120	0x3d9cfc5e	0.07665323
121	0x3cd9b54a	0.026575703
122	0xbd5ad608	-0.053426772
123	0x3e1edc27	0.15513669
124	0x3da65ed6	0.08123557
125	0xbe9e7008	-0.30944848
126	0x3c521f7c	0.012824889
127	0x3e04f443	0.12983803
128	0x3e3d7743	0.18502526
129	0x3e0aaa1c	0.13541454
130	0x3c988fb4	0.01862321
131	0xbe071b8a	-0.13194099
132	0x3e85cfb6	0.26135033
133	0xbd6d0e83	-0.057875168
134	0xbae31647	-0.0017325365
135	0xbdfc5796	-0.12321393
136	0xbe84749e	-0.25870222
137	0xbea6dd43	-0.32590684
138	0xbcf3faf7	-0.029782755
139	0xbe635cb4	-0.22203332
140	0x3d0904d1	0.03345186
141	0xbee8c869	-0.454654
142	0xbec9ff90	-0.3945279
143	0x3e6c5731	0.23080136
144	0x3eb6f021	0.3573008
145	0xbdbd4064	-0.09240797
146	0x3f42dbec	0.76116824
147	0xbe9db8ae	-0.30804962
148	0x3f0c27b0	0.5474806
149	0xbe028898	-0.12747419
150	0x3e23e5f8	0.16005695
151	0x3ea12714	0.31475127
152	0x3f1100c2	0.5664178
153	0xbf36e99b	-0.71450204
154	0xbda1f29c	-0.07907602
155	0x3db153dc	0.08658573
156	0x3ea26f41	0.31725505
157	0x3e9afd99	0.30271605
158	0x3e9e15c7	0.3087599
159	0x3e79474f	0.24343608
160	0x3f041c23	0.51605433
161	0x3d3e9473	0.04652829
162	0xbeb5d397	-0.35512993
163	0x3e2c4ee3	0.16826968
164	0x3edd8d60	0.43271923
165	0x3f291418	0.66046286
166	0x3ead3bdb	0.3383473
167	0x3e4d2b07	0.20035945
168	0xbe4049da	-0.18778172
169	0x3da136b1	0.0787176
170	0x3e2d7533	0.16939239
171	0x3d6d2533	0.057896804
172	0xbdaf8b20	-0.08571458
173	0x3b3b0291	0.0028535465
174	0x3e4fbf7c	0.20287889
175	0xbe098476	-0.13429436
176	0x3e1d5ed9	0.15368213
177	0xbedfdd78	-0.43723655
178	0x3c5b1e66	0.013373947
179	0xbe86a002	-0.2629395
180	0xbdd2ed78	-0.102992
181	0xbdd1bfaa	-0.10241635
182	0x3e1f99e9	0.15586056
183	0xbdf0717a	-0.11740394
184	0x3dfcc0ae	0.12341438
185	0x3e0970a2	0.13421872
186	0x3e0d210c	0.13782138
187	0x3db79bf8	0.089652956
188	0xbd5cefcb	-0.053939622
189	0x3dd50baf	0.10402619
190	0xbd98393e	-0.07432793
191	0x3cd5d180	0.026100874
192	0x3d000a2e	0.031259708
193	0x3cb189f3	0.021672225
194	0xbd1944d2	-0.037419148
195	0x3dabe70c	0.08393678
196	0xbde23d5b	-0.11046859
197	0x3d92b198	0.071627796
198	0xbcf378a8	-0.02972062
199	0xbd8a5bb1	-0.0675577
200	0xbd4db95b	-0.050225597
201	0xbd34aa1b	-0.044107538
202	0xbd8e3b23	-0.06944873
203	0x3d0764cd	0.033055115
204	0x3d022230	0.031770885
205	0xbeae9974	-0.3410145
206	0xbed80e30	-0.42198324
207	0xbbd757db	-0.0065717525
208	0xbea9dc96	-0.33176106
209	0x3e4d842e	0.20069954
210	0xbeb2e6c4	-0.34941685
211	0xbea90f67	-0.33019564
212	0xbe43335e	-0.19062564
213	0xbe17cf9f	-0.14825295
214	0xbe8fc968	-0.28083348
215	0x3e3a0e98	0.1816963
216	0xbe32e9bf	-0.1747198
217	0x3eb82168	0.35962987
218	0xbd83ccc9	-0.06435544
219	0xbe0aece1	-0.13566925
220	0x3e77192c	0.24130696
221	0x3ea08d3f	0.31357762
222	0x3e69ce3a	0.22832575
223	0x3e93f2e0	0.28896236
224	0xbd768b1f	-0.06019127
225	0x3d98cb56	0.07460658
226	0x3e731fa2	0.23742536
227	0x3d9fb73a	0.077986196
228	0x3eeeacf0	0.46616316
229	0x3e8a06d8	0.26958346
230	0xbdf97d2a	-0.12182076
231	0xbdb90e18	-0.09035891
232	0x3d461fa4	0.04837002
233	0x3d420b12	0.04737384
234	0xbd43ea58	-0.04783091
235	0x3e3c01c4	0.18360049
236	0xbe08d2d0	-0.13361669
237	0xbe627980	-0.22116661
238	0xba82e3a9	-0.0009986061
239	0x3ebac1ba	0.36475927
240	0xbe0b1caa	-0.13585153
241	0xbd81b48e	-0.06333266
242	0xbe22e831	-0.15908886
243	0xbe3a2627	-0.18178616
244	0x3daaa013	0.08331313
245	0xbdf5982a	-0.119919136
246	0xbf173730	-0.59068584
247	0xbe373f79	-0.17895307
248	0x3d55a142	0.05215574
249	0x3d92f63f	0.07175874
250	0xbc453fdd	-0.012039152
251	0x3e05867c	0.13039583
252	0xbc80ad03	-0.015707498
253	0x3e943384	0.28945553
254	0x3d1b33ea	0.037891306
255	0xbdc56167	-0.09637719

critic.0.bias f4 [64]
0	0xbefc15f5	-0.49235502
1	0xbe9da183	-0.30787286
2	0xbedb2f5b	-0.42809567
3	0xbe847ff7	-0.2587888
4	0x3d3ac760	0.045600295
5	0x3ec9d610	0.3942113
6	0xbed479c2	-0.41499144
7	0xbea999d1	-0.33125165
8	0xbcad5a54	-0.021161236
9	0x3e455ba4	0.1927324
10	0xbea7f284	-0.32802212
11	0x3ec9ead3	0.3943697
12	0xbebbf409	-0.36709622
13	0xbea7e017	-0.32788154
14	0xbed7ef6d	-0.42174855
15	0x3e532f1a	0.20623437
16	0xbec3073f	-0.38091466
17	0xbec718cd	-0.3888611
18	0x3eb6abb9	0.3567789
19	0xbead2c29	-0.33822754
20	0xbeb59699	-0.3546646
21	0xbe9aa4fc	-0.30203998
22	0x3d1cf77c	0.038321957
23	0xbe9a3a83	-0.30122766
24	0x3eb801d3	0.35938892
25	0x3db3fde5	0.08788661
26	0xbea3f8ab	-0.32025656
27	0xbeca50db	-0.39514813
28	0x3e32bd59	0.17455043
29	0xbeae0cdd	-0.3399419
30	0xbea43b07	-0.32076284
31	0xbeb1d344	-0.34731495
32	0x3e2cf81c	0.16891521
33	0x3ee1637b	0.4402121
34	0x3ecc68e7	0.39923784
35	0x3eaa1fdd	0.33227435
36	0xbec5baba	-0.38619024
37	0x3e90ce6d	0.2828249
38	0x3e3cc340	0.18433857
39	0xbeee0cad	-0.46494046
40	0x3ec21f86	0.37914675
41	0xbea350e4	-0.31897652
42	0x3e905d00	0.28195953
43	0xbebc084d	-0.36725083
44	0xbeb52868	-0.3538239
45	0x3eca91b8	0.395643
46	0x3eb32a6f	0.34993312
47	0xbea88c43	-0.3291951
48	0x3ebb439a	0.36575013
49	0xbe4a626c	-0.19764107
50	0xbec6e99a	-0.388501
51	0xbec9a076	-0.39380234
52	0xbebc7e6c	-0.36815202
53	0xbe8f15f2	-0.2794643
54	0xbe883d90	-0.26609468
55	0xbeca0a0f	-0.394608
56	0x3e85d36a	0.2613786
57	0xbeaf8a00	-0.34284973
58	0xbee072c9	-0.43837574
59	0x3e85d51c	0.26139152
60	0xbebef168	-0.37293553
61	0x3eb8e4fa	0.36112195
62	0x3e91b56f	0.28458735
63	0xbe9fffdb	-0.3124989

critic.2.weight f4 [64, 64]
0	0xbe9a9186	-0.3018915
1	0xbde41aa6	-0.11137895
2	0xbd9985c2	-0.074962154
3	0x3d5e15c5	0.05421998
4	0x3e0198a8	0.1265589
5	0x3e932d01	0.28745273
6	0xbe7f9dcf	-0.24962543
7	0xbe09b896	-0.1344932
8	0x3e3236e4	0.17403752
9	0x3d36cb9b	0.044627767
10	0xbe464274	-0.19361287
11	0x3dda79fb	0.10667797
12	0xbe1e1a38	-0.15439689
13	0x3d4b52bd	0.049639452
14	0xbe0c5504	-0.13704306
15	0x3ab7f7cc	0.0014035641
16	0xbe521b95	-0.20518334
17	0xbeb8f7fb	-0.36126694
18	0x3e8990ae	0.26868194
19	0xbe0b9921	-0.13632633
20	0xbdf81698	-0.121136844
21	0xbe6735c7	-0.22579108
22	0xbd6efa47	-0.05834415
23	0x3c368e9a	0.011142397
24	0x3df5b309	0.11997039
25	0xbe94abaf	-0.29037234
26	0x3e12fcef	0.14354299
27	0xbe5c1699	-0.21492995
28	0x3d482eb2	0.048872657
29	0xbec7145e	-0.38882726
30	0xbea5e16f	-0.32398555
31	0xbdbd8990	-0.092547536
32	0xbdebbeba	-0.115109876
33	0x3cbf0657	0.023318453
34	0x3e8bc86e	0.27301353
35	0x3dbbcf72	0.091704264
36	0xbec4d9b3	-0.3844734
37	0xbdb1a728	-0.08674461
38	0xbc86753b	-0.016413322
39	0xbea4971a	-0.3214653
40	0x3e8aea42	0.2713185
41	0xbebb9f8b	-0.3664516
42	0x3e387d60	0.18016577
43	0xbe367b41	-0.17820455
44	0xbf016b0b	-0.5055396
45	0x3e5a1ec5	0.213008
46	0x3da0176a	0.07816966
47	0xbe22c234	-0.15894395
48	0x3ee84ef9	0.4537275
49	0xbe200929	-0.15628494
50	0xbdf4be1d	-0.11950324
51	0xbdbecce8	-0.093164265
52	0xbec640d3	-0.38721332
53	0xbd58418f	-0.052796897
54	0xbe9ca9c3	-0.30598268
55	0xbe8d52ec	-0.27602327
56	0x3e409cad	0.18809767
57	0xbe8c53fc	-0.27407825
58	0xbec08d3a	-0.37607747
59	0x3c96405e	0.01834124
60	0xbe988555	-0.29789224
61	0x3eda1fa1	0.42602256
62	0xbd8f2e0f	-0.06991207
63	0xbe8d8161	-0.2763777
64	0x3e38787a	0.18014708
65	0x3df781fb	0.12085339
66	0x3e817122	0.25281626
67	0x3ec8eced	0.3924326
68	0xbe40d314	-0.1883052
69	0xbd8173ac	-0.06320891
70	0x3efa00e7	0.48828813
71	0x3e8d0024	0.2753917
72	0xbada4182	-0.0016651603
73	0xbe0acd05	-0.13554771
74	0x3d2a9223	0.041643273
75	0xbe826c7f	-0.254734
76	0x3dc70a6f	0.09718787
77	0xbc025c02	-0.007956507
78	0x3e99216d	0.29908314
79	0x3cdbf699	0.026850985
80	0x3ead89c0	0.33894157
81	0x3e2d07c6	0.16897497
82	0xbeac6e36	-0.33677834
83	0x3e4f9372	0.2027109
84	0x3e2f8b4d	0.17142983
85	0x3def0e14	0.11672607
86	0x3bb25c22	0.005443112
87	0x3c2984c9	0.0103466
88	0xbdcbddc1	-0.099544056
89	0x3e3f0dab	0.18657558
90	0x3ec3d6c3	0.38249788
91	0x3e70dd3a	0.23521891
92	0xbddca0c9	-0.10772855
93	0x3c34df04	0.011039499
94	0x3e360294	0.17774421
95	0xbd61159c	-0.05495225
96	0xbdff76ef	-0.12473857
97	0xbe6b9cbb	-0.23009007
98	0xbd36d7bc	-0.044639334
99	0xbd984baf	-0.074363105
100	0x3e0b6884	0.13614088
101	0xbe4ab3ff	-0.19795226
102	0xbdda1922	-0.10649325
103	0x3e757767	0.2397133
104	0xbea396c4	-0.31950963
105	0x3e1e72ed	0.15473528
106	0xbe064599	-0.13112487
107	0x3e6e6b4c	0.23283118
108	0x3f27667e	0.65390766
109	0xbebe28fa	-0.37140638
110	0xbdb4c3e2	-0.08826424
111	0x3e507db3	0.2036045
112	0xbf20485e	-0.62610424
113	0x3e31395d	0.17307039
114	0x3e432c89	0.19059958
115	0x3e877164	0.26453698
116	0x3e8e4b65	0.27791896
117	0x3d50338a	0.0508304
118	0x3e15b97a	0.14621535
119	0x3edc27df	0.4299917
120	0xbe6c37da	-0.2306818
121	0x3db921f1	0.09039677
122	0x3e48c06d	0.19604655
123	0xbd469c30	-0.048488796
124	0x3e910b79	0.28329065
125	0xbe99abb4	-0.30013812
126	0xbd865751	-0.06559623
127	0x3db0acfa	0.08626743
128	0xbc715a2b	-0.01473097
129	0x3dc656b2	0.096845046
130	0x3db76a76	0.08955853
131	0x3e13a5f1	0.1441877
132	0xbc9451f0	-0.018105477
133	0xbe4295f5	-0.19002517
134	0x3e894b5d	0.2681531
135	0x3eb8815d	0.36036196
136	0xbc76e674	-0.015069593
137	0xbde61300	-0.11234093
138	0x3df42f2f	0.11923062
139	0xbe91c620	-0.2847147
140	0xbd0d75f3	-0.034536313
141	0x3da3e369	0.080023594
142	0x3ec44762	0.3833571
143	0x3e422564	0.18959576
144	0x3e304196	0.17212519
145	0x3e2066f2	0.1566427
146	0xbe8ec9f1	-0.27888444
147	0x3d1b208f	0.037872847
148	0x3e73dce3	0.2381473
149	0x3eb55a51	0.35420468
150	0xbc3a123c	-0.0113568865
151	0x3c1c434b	0.009537528
152	0xbde63745	-0.112410106
153	0xbe0e07da	-0.13870183
154	0x3df3497e	0.11879252
155	0x3eb214f1	0.34781602
156	0x3d9faa06	0.07796101
157	0x3e1a24d0	0.15053105
158	0x3e834989	0.2564204
159	0x3dfbca4e	0.12294446
160	0x3e565ec4	0.20934588
161	0xbe93c49d	-0.28860942
162	0xbe9317f8	-0.28729224
163	0xbd8accc9	-0.06777341
164	0x3e727e63	0.23681025
165	0xbd1ca0cb	-0.03823928
166	0xbdc01cb5	-0.093804754
167	0x3d9492c8	0.07254559
168	0xbe22dc20	-0.15904284
169	0x3d6464c1	0.05576015
170	0xbe046285	-0.12928207
171	0x3e86253e	0.2620029
172	0x3eafd4cf	0.34342048
173	0xbedfb8eb	-0.4369577
174	0x3c04f533	0.008115101
175	0x3f25c77d	0.6475752
176	0xbdf3e4ac	-0.1190885
177	0x3d127026	0.035751484
178	0x3e1c13e1	0.15241958
179	0x3eaadcdd	0.3337163
180	0x3f4a8146	0.79103506
181	0xba023373	-0.0004966773
182	0x3e0d768a	0.1381475
183	0x3f006804	0.50158715
184	0x3ba8e032	0.0051536793
185	0x3d1cf606	0.038320564
186	0xbd9b54c4	-0.07584527
187	0xbd4d7e09	-0.050169025
188	0x3e083598	0.13301694
189	0xbeb114b8	-0.3458612
190	0xbdb7ff27	-0.08984213
191	0x3eb96259	0.36207846
192	0x3e48d375	0.19611914
193	0x3d7a86d1	0.061163727
194	0x3d95f868	0.0732277
195	0x3eaf6fa3	0.3426486
196	0x3e08ace9	0.1334721
197	0xbf2326f7	-0.6373133
198	0x3d43d43b	0.04780982
199	0x3e30eb4f	0.17277263
200	0xbc26c35c	-0.010178413
201	0x3dd81c73	0.10552301
202	0x3d1c0d7e	0.038098805
203	0xbe9eac28	-0.3099072
204	0x3da892e6	0.08231144
205	0x3d9c5957	0.07634228
206	0x3e7b5019	0.24542274
207	0xbe966ac8	-0.29378343
208	0x3e82bef4	0.2553631
209	0x3deb68f7	0.1149463
210	0x3dd5948b	0.10428723
211	0x3dabbe58	0.083859146
212	0xbd9162f5	-0.07098953
213	0x3e4308fb	0.19046395
214	0xbb77f4c1	-0.0037835094
215	0xbcab4139	-0.020905124
216	0xbe0a41ad	-0.13501616
217	0x3de2855a	0.11060591
218	0x3e46e1a8	0.19422019
219	0x3e278d73	0.16362552
220	0x3d62f7cd	0.055412102
221	0x3d2aed01	0.04172993
222	0x3c7cbe46	0.015426224
223	0x3db007d7	0.08595245
224	0xbe14cb9d	-0.14530797
225	0xbe9666f8	-0.29375434
226	0xbeabed6b	-0.33579573
227	0xbda60cb2	-0.0810789
228	0x3e2ef1d8	0.17084444
229	0xbe1b7a33	-0.15183334
230	0xbbd7d9c1	-0.0065872376
231	0x3e711400	0.23542786
232	0xbe02916d	-0.12750788
233	0x3de2e3f9	0.110786386
234	0x3d8a48f1	0.06752194
235	0x3e24ef5e	0.16106936
236	0x3f307f27	0.6894402
237	0xbe300657	-0.17189918
238	0xbe8fdf31	-0.2809997
239	0x3ea8c0f8	0.32959723
240	0xbef863fa	-0.48513776
241	0xbd55a347	-0.052157667
242	0x3de4f153	0.111788414
243	0x3eab8445	0.3349935
244	0x3eadaffd	0.3392333
245	0xbd11ba5c	-0.035578117
246	0x3e7a8514	0.24464828
247	0x3f07f65d	0.53110296
248	0xbe83a415	-0.25711122
249	0x3ed77777	0.42083332
250	0x3dda592c	0.106615394
251	0x3e203d11	0.15648295
252	0x3eac9955	0.33710733
253	0xbe3fcc32	-0.18730238
254	0x3d77eff5	0.060531575
255	0x3e262868	0.16226351

critic.2.bias f4 [64]
0	0x3e60718d	0.21918316
1	0xbe919376	-0.28432816
2	0xbe589d0d	-0.2115366
3	0xbe45d9c4	-0.19321352
4	0x3e51ed2a	0.20500627
5	0x3e5cbb8e	0.21555921
6	0x3e512157	0.20422874
7	0xbe4229f8	-0.18961322
8	0x3e33a24d	0.17542382
9	0xbe3f1552	-0.18660477
10	0xbe3f144f	-0.18660091
11	0x3e54ecf1	0.20793511
12	0xbe870f60	-0.26378918
13	0xbe3c50ea	-0.18390241
14	0xbe1f3edf	-0.15551327
15	0xbe9f3182	-0.3109246
16	0x3e360118	0.17773855
17	0x3e9c0fae	0.30480713
18	0xbe3f22c3	-0.18665604
19	0xbe7f3874	-0.24923879
20	0x3e5cf015	0.21575959
21	0xbe7831ff	-0.24237822
22	0x3e355706	0.17708978
23	0x3e91a42e	0.28445572
24	0x3e8850dc	0.2662419
25	0xbe537bb9	-0.20652665
26	0xbe782c21	-0.24235584
27	0xbe5838fc	-0.21115488
28	0xbe44630a	-0.19178405
29	0xbe843bec	-0.25826967
30	0xbe7e0ebe	-0.24810311
31	0xbe3c438f	-0.18385147
32	0xbe4fd9d9	-0.20297946
33	0x3e426837	0.18985067
34	0xbe8a53f0	-0.27017164
35	0xbe6d49f9	-0.2317275
36	0xbe4aab9b	-0.19792025
37	0x3e3857af	0.18002199
38	0xbe6bc085	-0.23022659
39	0x3e60c722	0.21950963
40	0x3e3ea530	0.18617702
41	0x3e5f368b	0.2179815
42	0xbe41be68	-0.1892029
43	0xbe5d7a0f	-0.21628593
44	0xbe9114b7	-0.28336117
45	0xbe863430	-0.2621169
46	0xbe7552f3	-0.23957424
47	0xbe6be436	-0.23036274
48	0xbe69ab71	-0.22819306
49	0x3e58e805	0.21182258
50	0xbe6bb8df	-0.23019741
51	0x3e539725	0.20663126
52	0x3e257975	0.16159613
53	0xbe80d56f	-0.25162837
54	0xbe9cbdd1	-0.30613568
55	0x3e42bc04	0.19017035
56	0x3e4d7932	0.20065764
57	0xbe696001	-0.22790529
58	0xbe415b51	-0.1888249
59	0xbe3fe2a0	-0.18738794
60	0xbeafa3ba	-0.343046
61	0x3e241b3a	0.16026011
62	0x3e77b3a7	0.24189626
63	0x3e87b2bf	0.2650356

critic.4.weight f4 [2, 64]
0	0x3e6cd8d5	0.2312959
1	0xbab1bbbf	-0.0013559981
2	0x3d59fd95	0.05322035
3	0xbdeb348c	-0.11484632
4	0x3d051767	0.03249302
5	0xbc8cc13c	-0.017181985
6	0xbe3c8325	-0.18409403
7	0xbe17b7e7	-0.14816247
8	0x3df6562d	0.120281555
9	0xbdd3ca9d	-0.1034138
10	0xbe1ca2e6	-0.15296516
11	0xbd39898a	-0.045297183
12	0xbc9ae9a5	-0.018910239
13	0xbc5a5b49	-0.013327428
14	0x3dd990d2	0.106233254
15	0xbe04ebe1	-0.12980606
16	0xbd929fc8	-0.07159382
17	0xbe28729c	-0.1644997
18	0xbe29c303	-0.16578297
19	0x3e1f81cd	0.15576859
20	0xbca7e59c	-0.020495228
21	0x3e4acebc	0.19805425
22	0xbc177057	-0.0092430925
23	0xbdea9b28	-0.11455375
24	0xbc161317	-0.009159825
25	0xbda650b8	-0.08120865
26	0xbc64be30	-0.01396136
27	0xbd10769f	-0.035269376
28	0x3d91b136	0.071138784
29	0x3cc7d9a2	0.024395768
30	0x3ceb3fac	0.028716885
31	0x3dc8537e	0.0978155
32	0x3d0a4ee2	0.033766635
33	0xbd7f0567	-0.06226101
34	0xbd1f4641	-0.03888536
35	0x3cacaa1a	0.021077204
36	0x3e894088	0.26807046
37	0x3e597089	0.21234335
38	0x3cdcea89	0.026967304
39	0x3e105f73	0.14098911
40	0x3db05561	0.08610035
41	0xbccc9cba	-0.024977077
42	0xbe38f729	-0.18063034
43	0xbdb60604	-0.08887866
44	0x3da843fb	0.08216091
45	0xbb96cda6	-0.004602152
46	0xbdbdb685	-0.092633285
47	0x3d55c0be	0.052185766
48	0x3bf4d752	0.0074719572
49	0xbe067417	-0.13130222
50	0xbd827a8a	-0.06371029
51	0x3e2ec1b6	0.17066082
52	0x3d2f32f7	0.042773213
53	0x3dca9fcc	0.0989376
54	0x3e1689df	0.14701031
55	0x3e2f4ff2	0.1712034
56	0x3d71d003	0.059036266
57	0xbd614ef2	-0.05500693
58	0x3e2242a0	0.15845728
59	0xbdbc78a0	-0.09202695
60	0xbdb33a80	-0.08751392
61	0xbe4bef47	-0.19915496
62	0x3e237366	0.1596199
63	0xbc971833	-0.018444156
64	0xc01cbdc5	-2.4490826
65	0x401b1d58	2.423666
66	0x401e0a52	2.46938
67	0x401f8224	2.4923182
68	0xc026143f	-2.5949857
69	0xc02300e0	-2.5469284
70	0xc020c2ba	-2.5118852
71	0x4022b42a	2.5422463
72	0xc0273359	-2.612509
73	0x4024de03	2.5760505
74	0x4022f4ae	2.546184
75	0xc02d0d4f	-2.7039373
76	0x4018f945	2.3902142
77	0x401924b9	2.3928664
78	0x402a0328	2.6564426
79	0x401a1eb5	2.4081242
80	0xc0276d17	-2.6160333
81	0xc01acb6a	-2.4186654
82	0x40298785	2.6488965
83	0x401ba97d	2.4322197
84	0xc021eba6	-2.5300078
85	0x401d0299	2.4532835
86	0xc027a5a8	-2.6194859
87	0xc01babbb	-2.4323566
88	0xc01ab46a	-2.4172616
89	0x4021ecfc	2.5300894
90	0x401dbf75	2.4648106
91	0x40223cf2	2.5349698
92	0x402c0a4e	2.688129
93	0x401a8328	2.4142551
94	0x401955a1	2.3958514
95	0x401d68a4	2.4595118
96	0x40229f50	2.5409737
97	0xc02da153	-2.7129714
98	0x401b96b9	2.4310744
99	0x401e9736	2.4779792
100	0x4029387e	2.644073
101	0xc0208f55	-2.5087483
102	0x401f20fa	2.4863877
103	0xc01fb7b4	-2.4955873
104	0xc0220eb1	-2.5321467
105	0xc024109d	-2.563514
106	0x401bc1ae	2.4336963
107	0x402037b5	2.5034
108	0x401a8437	2.4143198
109	0x401c9885	2.446809
110	0x401df232	2.4679074
111	0x4018e38e	2.3888888
112	0x401d478b	2.4574916
113	0xc021043a	-2.515883
114	0x401b2e2e	2.4246936
115	0xc0218d9c	-2.5242682
116	0xc0225a1c	-2.5367498
117	0x40209b03	2.5094612
118	0x401a2fb8	2.4091625
119	0xc01dbdee	-2.4647174
120	0xc021e00a	-2.5292993
121	0x401cdb0a	2.450869
122	0x402af27c	2.67105
123	0x4024da2c	2.5758162
124	0x4018e3d3	2.3889053
125	0xc0185dca	-2.3807244
126	0xc01fb81b	-2.495612
127	0xc01a5256	-2.4112754

critic.4.bias f4 [2]
0	0x3c197056	0.009365162
1	0xc0033de5	-2.0506527

actor_mean.0.weight f4 [64, 69]
0	0x3e3123fb	0.17298882
1	0xbe27d03f	-0.16388033
2	0x3d90f118	0.07077235
3	0x3cc34ef9	0.023841368
4	0xbe6f9a3d	-0.23398681
5	0x3d1fdfc9	0.039031778
6	0x3e5f9ac9	0.2183639
7	0x3e63cf5c	0.2224707
8	0xbd7b7036	-0.06138631
9	0x3e9885b5	0.2978951
10	0x3d13d79c	0.036094293
11	0x3e00adcb	0.12566297
12	0xbe4950f5	-0.19659789
13	0xbe7034eb	-0.23457687
14	0xbdf3591a	-0.11882229
15	0x3eaa8354	0.3330332
16	0xbe247eea	-0.16064039
17	0x3ef83772	0.484798
18	0x3d2bf3e5	0.041980643
19	0xbeac0e6a	-0.33604747
20	0x3c5a5d84	0.01332796
21	0x3e2a74d8	0.16646135
22	0xbe6dd03c	-0.23223966
23	0xbdc561df	-0.09637808
24	0x3e01fe7f	0.12694739
25	0x3caacdf1	0.020850154
26	0x3e06cba7	0.13163625
27	0x3e100124	0.14062935
28	0xbb80e8d1	-0.003934004
29	0xbea31676	-0.31853074
30	0x3e5b2222	0.2139974
31	0x3d0f2c7d	0.034954537
32	0x3c2b9e7f	0.0104748
33	0xbed48240	-0.41505623
34	0xbe032a6e	-0.12809154
35	0x3d54c37d	0.051944245
36	0xbd01cbd0	-0.03168851
37	0xbe707d48	-0.23485291
38	0xbddbcfc4	-0.107329875
39	0xbd916314	-0.07098976
40	0xbaa12fe6	-0.00122976
41	0xbdd55a98	-0.1041767
42	0xbd074814	-0.033027723
43	0xbd8329f8	-0.06404489
44	0x3e21afb7	0.15789686
45	0x3e0d6562	0.13808206
46	0x3e6f6046	0.23376569
47	0x3e35d67f	0.17757605
48	0x3df8c39e	0.12146686
49	0xbdbef8a6	-0.0932477
50	0x3d09fd99	0.033689115
51	0xbe11d3b5	-0.14240916
52	0xbd94e905	-0.072710074
53	0xbe544c08	-0.20732129
54	0x3d54885f	0.051887866
55	0xbe9506c8	-0.29106736
56	0x3eaa2f8a	0.33239394
57	0xbd4e49af	-0.05036324
58	0x3d049bb6	0.03237506
59	0xbd0d6592	-0.034520693
60	0xbc9e0293	-0.019288337
61	0xbd0a65cc	-0.033788487
62	0xbeaf5c92	-0.34250313
63	0xbb65402f	-0.0034980883
64	0xbea5269f	-0.32256028
65	0xbe01e9a0	-0.12686777
66	0xbe3c6a88	-0.18400013
67	0x3e1a219c	0.15051883
68	0xbdfce696	-0.12348668
69	0xbde300a8	-0.110841095
70	0x3e2cc7d6	0.16873106
71	0x3e2d6986	0.16934785
72	0x3e4c5030	0.19952464
73	0x3d2178d7	0.039421882
74	0x3e1118df	0.14169644
75	0xbe1d293d	-0.15347762
76	0x3ced0bdf	0.028936325
77	0x3d5f0e8b	0.05445723
78	0x3d38b0e8	0.045090586
79	0x3d599913	0.0531245
80	0x3e728ec3	0.23687272
81	0x3ada7bf4	0.0016669021
82	0xbdfb4db8	-0.12270683
83	0x3a59d647	0.0008309823
84	0x3e135692	0.14388493
85	0xbdbdc1bf	-0.0926547
86	0xbe468bb4	-0.1938923
87	0x3beab93f	0.0071631963
88	0x3ccdefff	0.025138853
89	0xbe9c4b10	-0.30526018
90	0x3ebdd846	0.37079066
91	0x3d10db7b	0.035365563
92	0xbdf136c4	-0.11778024
93	0x3dcb245a	0.09919043
94	0x3e40f835	0.18844683
95	0xbe6c3aae	-0.2306926
96	0xbe1c2dac	-0.15251797
97	0x3e11fee3	0.14257388
98	0xbe549721	-0.20760776
99	0xbdc54049	-0.09631402
100	0xbdf960f1	-0.12176693
101	0x3eb0e337	0.3454835
102	0x3e244af0	0.16044211
103	0xbc4ac5b8	-0.012376241
104	0xbe84108f	-0.25793883
105	0x3cf9218e	0.030411508
106	0xbd6e22e0	-0.05813873
107	0xbc5dfaf6	-0.013548603
108	0xbe228cb8	-0.15873992
109	0x3ef9a252	0.48756653
110	0xbea86977	-0.32892963
111	0xbdff7bf7	-0.12474816
112	0xbdfdb96e	-0.123888835
113	0x39812a00	0.0002463609
114	0xbe555ef1	-0.20836999
115	0xbe1e20a7	-0.15442143
116	0xbd24e609	-0.04025844
117	0xbbbfcff5	-0.005853648
118	0xbe00728a	-0.12543693
119	0x3e0ee673	0.13955097
120	0x3d661d2f	0.056180175
121	0xbc9a208b	-0.018814346
122	0x3e018ae6	0.12650642
123	0x3c6da81f	0.014505415
124	0x3dac7c26	0.08422117
125	0x3e6aa8fa	0.22916022
126	0xbe82a5cd	-0.2551712
127	0xbd023106	-0.031785034
128	0x3ec131aa	0.37733203
129	0xbda41d5c	-0.08013412
130	0x3e03054d	0.12794991
131	0x3e77171b	0.24129908
132	0xbd03b6a4	-0.0321566
133	0xbd8e53d3	-0.06949582
134	0x3e1a1545	0.15047176
135	0x3e85b96f	0.26118037
136	0x3e1e1f79	0.15441693
137	0xbe5c193b	-0.21494
138	0x3e26cf76	0.16290078
139	0xbdb1534d	-0.086584665
140	0x3ca3c75d	0.019992525
141	0xbeae745a	-0.34073144
142	0x3e5392ec	0.20661515
143	0x3cfda79b	0.03096371
144	0x3c096cd2	0.008387761
145	0x3df37ec4	0.11889413
146	0x3e5062b7	0.20350157
147	0xbe27bce3	-0.16380648
148	0x3dfa19d9	0.12211961
149	0xbe29dcaf	-0.1658809
150	0xbe65af32	-0.22430113
151	0xbdbfd860	-0.09367442
152	0xbe349c13	-0.17637663
153	0x3b4c8dcc	0.0031212447
154	0xbb478105	-0.0030441892
155	0x3de96dcb	0.113978945
156	0xbea61073	-0.32434425
157	0xbdbac2b6	-0.091191694
158	0xbd81e86e	-0.063431606
159	0x3d63f301	0.05565167
160	0x3d7e52f3	0.062090825
161	0x3db4c2d8	0.08826226
162	0x3d17fe36	0.03710767
163	0xbd42a84e	-0.04752379
164	0xbc640e59	-0.013919436
165	0x3c95b329	0.018273907
166	0x3e67c363	0.22633128
167	0xbe26ed33	-0.16301422
168	0xbe8dada8	-0.27671552
169	0xbe8563a4	-0.26052582
170	0xbe67c69d	-0.22634359
171	0xbdea5953	-0.114428185
172	0x3d15cffa	0.036575295
173	0x3d9d7e88	0.076901495
174	0x3c92ce2e	0.01792058
175	0x3e4ef398	0.20210111
176	0x3d3b7b7a	0.045772053
177	0xbe68a113	-0.22717695
178	0xbe85e5ed	-0.26151982
179	0xbe9379ae	-0.28803772
180	0x3db90daa	0.09035809
181	0x3cb4095f	0.021977125
182	0xbd9f3a8b	-0.07774838
183	0xbe83a0b9	-0.2570856
184	0xbf046381	-0.5171433
185	0x3e86928f	0.2628369
186	0x3e12acd4	0.14323741
187	0x3e4e5f4c	0.2015354
188	0x3e7f9569	0.24959339
189	0xbe26d938	-0.162938
190	0xbe1f08a3	-0.15530638
191	0x3e053eb4	0.130122
192	0xbd338564	-0.043828383
193	0x3e2ef0cf	0.17084049
194	0xbe3b4ce6	-0.18291053
195	0x3ea24006	0.3168947
196	0x3e85ef26	0.26159018
197	0x3d4cb5e0	0.049978137
198	0xbe0882ca	-0.13331142
199	0xbc9bdc64	-0.019025989
200	0xbe30935d	-0.17243715
201	0x3d883595	0.06650845
202	0xbb88aa2c	-0.0041706767
203	0x3ed5236f	0.41628596
204	0x3c7c734e	0.01540835
205	0xbe6ac573	-0.22926883
206	0xbd251309	-0.040301356
207	0xbdb4b2b6	-0.08823149
208	0xbcfa8ff9	-0.03058623
209	0x3e4050d6	0.18780836
210	0x3eadaccf	0.33920905
211	0xbe99acf8	-0.30014777
212	0x3e62dd16	0.2215465
213	0xbe8715b2	-0.2638374
214	0x3d859e02	0.06524278
215	0xbeaeb19c	-0.3411988
216	0x3db69e82	0.08916952
217	0xbe316873	-0.17325
218	0x3d02b979	0.03191516
219	0xbe4b15ef	-0.19832586
220	0x3ece10e9	0.40247276
221	0xbdc65190	-0.096835256
222	0xbd3e5fb2	-0.04647798
223	0xbe3efc24	-0.18650872
224	0xbe983656	-0.29728955
225	0xbe22b095	-0.15887673
226	0xbd8d898c	-0.069110006
227	0xbe49e42b	-0.19715945
228	0xbcafe004	-0.021469124
229	0x3d4e52fc	0.05037211
230	0x3dc6f3ab	0.09714445
231	0x3bd9a23a	0.0066416534
232	0xbc703ba5	-0.014662658
233	0xbd9443a0	-0.07239461
234	0x3da0006a	0.07812579
235	0xbe6e2e60	-0.23259878
236	0xbeaa2a4d	-0.33235398
237	0x3dec4388	0.11536318
238	0x3e8e96a5	0.27849308
239	0xbcbd1c2a	-0.023084719
240	0x3aa97fed	0.0012931802
241	0x3d006dbe	0.03135466
242	0x3e1b3df7	0.15160356
243	0x3dd27b3e	0.10277413
244	0x3dd3c66c	0.1034058
245	0xbf181b65	-0.594168
246	0x3da50780	0.08058071
247	0xbda2ea2c	-0.07954821
248	0xbcf19d8d	-0.029494071
249	0x3e3323eb	0.1749417
250	0x3e05c104	0.13061911
251	0x3db24053	0.08703675
252	0xbe0a46b9	-0.13503541
253	0xbe0431cb	-0.1290962
254	0xbd8a571d	-0.06754897
255	0xbd184f1c	-0.03718482

actor_mean.0.bias f4 [64]
0	0x3da9caed	0.08290658
1	0xbd2c6c4d	-0.04209547
2	0xbd956429	-0.07294495
3	0x3d3440a0	0.044006944
4	0x3d982b4f	0.074301355
5	0x3da1001b	0.07861348
6	0x3cee11a7	0.029061152
7	0xbaeabd78	-0.0017909249
8	0x3c2d21dc	0.010567155
9	0xbd0009d2	-0.031259365
10	0x3d4a4a78	0.049387425
11	0xbcb4ee53	-0.022086298
12	0xbdeaffc0	-0.11474562
13	0x3d021a8f	0.03176361
14	0xbd9a7dc0	-0.07543516
15	0xbd9d15f4	-0.07670203
16	0x3ca8d431	0.020608993
17	0x3d084a67	0.03327408
18	0x3bf4c581	0.0074698334
19	0xbd1d5d3a	-0.038418986
20	0xbcd1cbe3	-0.025609916
21	0xbc091343	-0.008366409
22	0x3c0c8dc2	0.00857872
23	0xbda2b027	-0.07943755
24	0xbc8f1ed1	-0.01747075
25	0xbbdc8555	-0.0067297616
26	0x3d9d28ad	0.07673774
27	0x3d78cccd	0.06074219
28	0x3d3a8908	0.04554084
29	0x3d999861	0.07499767
30	0xbdb16bdd	-0.086631514
31	0xbc6933d5	-0.014233549
32	0x3dbcaf06	0.092130706
33	0x3b19c9d1	0.002346624
34	0x3c20bed6	0.009811124
35	0xbad6b1be	-0.0016379876
36	0xbdbea6a0	-0.09309125
37	0xbacfad79	-0.0015844546
38	0xbcabea5f	-0.02098578
39	0xbce7883b	-0.028263202
40	0x3d1e776a	0.0386881
41	0x3d22e253	0.03976662
42	0x3a89ea8a	0.0010522169
43	0x3d888aac	0.066670746
44	0x3d0ea8c7	0.034828927
45	0x3d9dda78	0.07707685
46	0xbc7b7875	-0.015348543
47	0x3dea1e0a	0.11431511
48	0x3d8d715a	0.06906386
49	0xbd4dc760	-0.050238967
50	0xbcb97ac6	-0.02264155
51	0xbc7dfc4f	-0.01550205
52	0xbce0d7ea	-0.027446706
53	0x3b689cb7	0.00354938
54	0xbb991675	-0.0046718665
55	0xbca5d740	-0.02024424
56	0x3e14c58d	0.14528485
57	0xbd053548	-0.032521516
58	0xbc839572	-0.016062472
59	0xbbdb4bcd	-0.0066923858
60	0x3d8c4d2e	0.06850658
61	0x3c6aaa03	0.0143227605
62	0xbd942eaf	-0.07235467
63	0x3d517221	0.051134232

actor_mean.2.weight f4 [64, 64]
0	0x3d42647e	0.047459118
1	0xbb3d3ba1	-0.0028874653
2	0xbd698302	-0.057009704
3	0x3dd9b185	0.10629562
4	0xbd0ba8c8	-0.03409651
5	0x3ded1c22	0.115776315
6	0xbe638603	-0.2221909
7	0xbdb866d3	-0.09003987
8	0xbe77b5e5	-0.24190481
9	0x3d4187e4	0.047248736
10	0x3e85accd	0.261084
11	0x3ebe5cd1	0.37180188
12	0xbdd324c2	-0.10309745
13	0xbba9c9e4	-0.005181538
14	0xbd987c67	-0.07445603
15	0x3e1029e3	0.14078479
16	0x3ce68049	0.028137343
17	0x3ee144b4	0.4399773
18	0xbdc643c3	-0.09680893
19	0xbdfa8384	-0.12232116
20	0xbdc865cc	-0.09785041
21	0xb83ffb65	-4.5772078e-05
22	0x3ef64c3e	0.48105043
23	0x3eb77d8d	0.35837975
24	0xbd9f2a2f	-0.07771718
25	0xbaedeaf9	-0.0018151692
26	0x3e566da3	0.2094026
27	0x3e5c28c1	0.21499921
28	0xbe529774	-0.20565587
29	0x3e87fbf3	0.2655941
30	0xbd42c112	-0.047547407
31	0x3e17db31	0.14829709
32	0x3dcc91df	0.0998876
33	0x3e6aeec3	0.22942643
34	0x3cef7dc2	0.02923477
35	0x3e2fddcb	0.17174451
36	0xbda2a94b	-0.07942446
37	0x3dac3bdd	0.084098555
38	0x3d6e2446	0.05814006
39	0x3e4918b4	0.1963833
40	0xbd9ba2b8	-0.075993955
41	0xbe07ff21	-0.13280918
42	0x3df964d1	0.12177432
43	0xbe753993	-0.23947744
44	0x3e1025a1	0.14076854
45	0xbde60a6f	-0.11232459
46	0xbe09a0f5	-0.13440306
47	0x3e7bd1dc	0.24591774
48	0x3e9415fc	0.28923023
49	0x3c0fc779	0.008775585
50	0x3ed4e78b	0.41582903
51	0x3dd5f39c	0.104468554
52	0xbeceea05	-0.40412918
53	0x3ec55109	0.38538387
54	0x3e272dc8	0.16326058
55	0xbdfa7462	-0.122292295
56	0x3b8394e6	0.004015553
57	0x3dd0703e	0.101776585
58	0xbddee8c6	-0.10884242
59	0x3dcac11b	0.09900113
60	0xbe1e1b17	-0.15440021
61	0xbe71cd87	-0.23613559
62	0x3d89c2cc	0.06726608
63	0xbe66459d	-0.22487493
64	0xbe6a778d	-0.22897168
65	0x3e4d58e3	0.20053439
66	0xbd989fd7	-0.07452362
67	0xbdf48708	-0.11939818
68	0x3df96094	0.12176624
69	0x3e9861d0	0.29762125
70	0xbe2aed84	-0.16692168
71	0x3d13b584	0.03606178
72	0x3e2a43ac	0.16627377
73	0x3e8884d4	0.2666384
74	0x3dfb6baf	0.122763984
75	0xbe867394	-0.26260054
76	0xbf11a9ec	-0.56899905
77	0x3e311ceb	0.17296188
78	0xbe9b688f	-0.3035321
79	0xbd1bbb84	-0.038020626
80	0xbeab440a	-0.33450347
81	0xbe81a5c8	-0.25321794
82	0xbb8cda06	-0.0042984514
83	0x3ccb07d8	0.024784014
84	0x3e430a57	0.19046913
85	0xbe4642e6	-0.19361457
86	0xbe2065d9	-0.15663852
87	0xbe16b69f	-0.14718102
88	0xbcced34d	-0.02524724
89	0x3e82f533	0.25577697
90	0x3e3c90fc	0.18414682
91	0xbdef860a	-0.11695488
92	0x3d740bf7	0.059581723
93	0x3d6abc76	0.057308637
94	0xbe4a1501	-0.19734575
95	0x3e4fcaec	0.20292252
96	0x3ee184e8	0.44046712
97	0x3e017aa7	0.12644444
98	0xbc66f8d9	-0.014097416
99	0x3dea168f	0.11430084
100	0xbd768aba	-0.060190894
101	0xbd92d7b2	-0.07170047
102	0xbda8ab42	-0.0823579
103	0xbe6c7333	-0.2309082
104	0x3df0b39b	0.11753007
105	0xbde190f2	-0.11013974
106	0x3ddcf4f2	0.10788907
107	0xbb205502	-0.002446473
108	0x3e0a4573	0.13503055
109	0xbe0b3821	-0.1359563
110	0xbe8a12bf	-0.26967427
111	0xbe0c9098	-0.13727033
112	0x3c554dbf	0.013019024
113	0xbd2b4d8b	-0.041821998
114	0xbdf08347	-0.11743789
115	0xbe4a6893	-0.19766454
116	0xbeb90837	-0.3613908
117	0x3e8ee3b5	0.27908102
118	0xbe49f0fd	-0.19720836
119	0x3d98f7b4	0.074691206
120	0x3d7d9a27	0.06191459
121	0x3e0db21f	0.13837479
122	0x3e33f214	0.17572814
123	0x3e1f913f	0.1558275
124	0x3e14c4f3	0.14528255
125	0x3ccd05b6	0.025027137
126	0xbeb00850	-0.34381342
127	0xbe52f600	-0.20601654
128	0xbdeceddf	-0.11568808
129	0xbde774dd	-0.11301587
130	0xbe205f56	-0.15661368
131	0xbe2e267b	-0.17006867
132	0xbe728a8f	-0.23685668
133	0xbec01fc0	-0.37524223
134	0xbd0915ff	-0.033468243
135	0xbe8fdc6c	-0.28097856
136	0xbd581c06	-0.0527611
137	0x3c83997f	0.016064404
138	0x3db524fb	0.08844944
139	0xbe492a1e	-0.19644973
140	0x3d64b298	0.055834383
141	0x3ef76134	0.48316348
142	0xbe0b36da	-0.13595143
143	0x3dd7e02f	0.105408065
144	0x3d7f616d	0.06234877
145	0x3d812ca1	0.063073404
146	0x3de8f954	0.113756806
147	0x3e5c92f5	0.21540435
148	0x3de65236	0.11246149
149	0x3e0c9a2a	0.13730684
150	0x3eaa9aae	0.33321136
151	0xbe5031b7	-0.20331465
152	0xbe68a7de	-0.22720286
153	0xbe382a78	-0.1798495
154	0x3e627f43	0.22118859
155	0x3e1d977e	0.15389821
156	0xbe7d39a5	-0.24729021
157	0xbd906144	-0.07049802
158	0xbea5d653	-0.3239008
159	0x3d848bb0	0.06471956
160	0xbe5399b6	-0.20664105
161	0xbe48ff8f	-0.19628738
162	0x3db7cc1f	0.0897448
163	0x3e03bb17	0.12864338
164	0x3e2e47a2	0.17019513
165	0x3da6f975	0.08153049
166	0xbe89b4f0	-0.26895857
167	0x3ec8c892	0.39215523
168	0x3d39a2a4	0.04532112
169	0x3dea0f9a	0.11428757
170	0x3cf07487	0.02935244
171	0x3e36c68a	0.17849174
172	0x3e5b6185	0.2142392
173	0xbb8e1600	-0.0043361187
174	0xbe07b504	-0.13252646
175	0x3e717aaa	0.23581949
176	0xbe271658	-0.16317117
177	0x3e069020	0.13140917
178	0xbdf68587	-0.12037187
179	0xbd4e1511	-0.05031306
180	0xbdb11078	-0.08645719
181	0x3e54ad51	0.2076924
182	0xbda8d333	-0.08243408
183	0x3ea56428	0.32302976
184	0xbe8560b5	-0.26050344
185	0xbe63f02e	-0.2225959
186	0xbdc1dcee	-0.09465967
187	0xbe086d1a	-0.13322869
188	0x3d1f34a7	0.038868573
189	0x3ecba8b4	0.39777148
190	0xbce23c60	-0.02761668
191	0xbe425b4c	-0.1898014
192	0x3d0e2ea9	0.034712467
193	0xbd3be5ad	-0.045873333
194	0x3a0b3a65	0.00053111307
195	0xbe07e860	-0.13272238
196	0xbcffbeb5	-0.031218866
197	0xbd9414c1	-0.07230521
198	0x3edda3e7	0.4328911
199	0x3bc6fccd	0.0060726167
200	0xbeaf98a5	-0.34296146
201	0x3d72d7da	0.059287883
202	0xbecba360	-0.39773083
203	0xbe87ab11	-0.264977
204	0x3e93f9dd	0.28901568
205	0xbdaa35c0	-0.08311033
206	0x3e249f79	0.16076459
207	0xbd91e09f	-0.07122921
208	0x3dc17103	0.094453834
209	0x3df5c758	0.120009124
210	0x3c119637	0.008885912
211	0x3e930cc8	0.2872069
212	0x3d22044d	0.039554883
213	0xbd1b9653	-0.037985157
214	0x3e4dd6ec	0.20101517
215	0xbe77e741	-0.2420931
216	0x3e1901ac	0.14942044
217	0xbe39ec64	-0.18156582
218	0xbcc30287	-0.023804916
219	0x3e0a5ddf	0.13512371
220	0x3e2c5e0f	0.16832756
221	0xbdd29aa6	-0.10283403
222	0xbb13faab	-0.002257983
223	0x3da9ce1f	0.082912676
224	0x3e679b08	0.22617733
225	0x3e4bf823	0.19918875
226	0xbdc663a8	-0.09686977
227	0x3e57d6cc	0.21078032
228	0xbccc81a4	-0.024964161
229	0xbde43af9	-0.11144061
230	0x3e208540	0.15675831
231	0xbdb59ca3	-0.08867767
232	0xbda916d1	-0.08256305
233	0x3ce9288e	0.02846172
234	0x3e8a7714	0.27043974
235	0xbd46f670	-0.048574865
236	0xbde2027f	-0.11035632
237	0xbedba674	-0.4290043
238	0xbe9a9464	-0.30191338
239	0x3dadc0f1	0.08484066
240	0xbe0ac9e2	-0.13553575
241	0x3db0b8ac	0.08628973
242	0x3e7d7e31	0.2475517
243	0xbe840030	-0.25781393
244	0x3cbf7566	0.02337141
245	0xbd1a7bb7	-0.03771564
246	0xbe533153	-0.20624284
247	0xbf167d58	-0.5878501
248	0xbe3a3156	-0.18182883
249	0x3cb98f54	0.022651352
250	0x3e07309a	0.13202134
251	0xbdc23dee	-0.094844684
252	0x3dfee994	0.12446895
253	0x3c94c055	0.018158117
254	0xbeaf6081	-0.34253314
255	0xbe8e36cb	-0.2777618

actor_mean.2.bias f4 [64]
0	0xbca6ee15	-0.020377198
1	0xbbd3f7a4	-0.00646873
2	0x3ce0ffe7	0.027465774
3	0xbd28b035	-0.04118367
4	0x3d63c2ba	0.055605628
5	0xba9a90c5	-0.0011792412
6	0x3be7d42b	0.007074853
7	0x3de2e054	0.110779434
8	0x3d084073	0.03326459
9	0xbd91b6e6	-0.07114963
10	0x3d404013	0.046936106
11	0xbd750172	-0.05981583
12	0x3dcb50cd	0.09927521
13	0xbd3a3ee8	-0.04547015
14	0x3d400ac8	0.04688528
15	0xbd1431fb	-0.036180478
16	0x3da48953	0.08034005
17	0x3d914d98	0.07094878
18	0x3d1819f8	0.03713414
19	0xbb09a884	-0.0021004984
20	0x3cba22ee	0.022721734
21	0xbd89f58e	-0.06736289
22	0xbda24b61	-0.07924534
23	0xbb3285e0	-0.002724044
24	0x3d191024	0.03736891
25	0x3c848742	0.016177777
26	0x3d258195	0.040406782
27	0xbb3f9bf8	-0.0029237252
28	0x3ba0aade	0.0049031815
29	0x3abb7277	0.0014301081
30	0xbd1e7c98	-0.03869304
31	0xbbae7ae8	-0.00532471
32	0xbccc0cf0	-0.024908513
33	0x3c540fd8	0.012943231
34	0x3bf6f8ef	0.0075369994
35	0xbd10b383	-0.035327446
36	0x3cf00812	0.029300723
37	0xbd810308	-0.06299406
38	0x3b1da84c	0.0024056612
39	0x3d7370ea	0.059433855
40	0xbc85a11c	-0.016312174
41	0x3ac932c6	0.0015350215
42	0x3b0ce49b	0.0021498564
43	0xbc3ba504	-0.011452917
44	0xbd31ca2a	-0.04340569
45	0x3bc63d33	0.006049776
46	0xbceb1169	-0.028694825
47	0x3c28e01b	0.010307337
48	0xbc5df6e3	-0.013547632
49	0x3dc16fad	0.094451286
50	0xbcabf81b	-0.02099233
51	0xbcd37188	-0.025810972
52	0xbca26401	-0.019823076
53	0x3af56bd0	0.0018724147
54	0x3d134835	0.035957534
55	0x3d5fdbe9	0.054653082
56	0x3d7bacda	0.06144414
57	0xbbc6d713	-0.0060681193
58	0xbc598596	-0.013276478
59	0xbd78c65d	-0.06073605
60	0x3d30f861	0.043205623
61	0x39ff8646	0.00048737432
62	0xbd8c3d90	-0.068476796
63	0xbda684be	-0.08130787

actor_mean.4.weight f4 [21, 64]
0	0xbc2235d7	-0.009900532
1	0x3c55dd5e	0.013053266
2	0x3d9ece7e	0.07754229
3	0x3d4750a5	0.048660893
4	0x3d143ca3	0.03619064
5	0x3c762c52	0.015025215
6	0x3cca00fa	0.024658669
7	0xbcfc07be	-0.03076541
8	0x3cb8de88	0.022567049
9	0x3d3821a8	0.044953972
10	0x3d454c95	0.048168737
11	0xbc904377	-0.017610295
12	0xbc52da85	-0.012869482
13	0xbc861a04	-0.016369827
14	0xbccc8d78	-0.024969801
15	0x3bb1c46d	0.005425027
16	0xbda73218	-0.081638515
17	0xbcb7759a	-0.022394944
18	0x3cd7b19c	0.026329808
19	0xbd2c8066	-0.042114638
20	0x3c145a07	0.009054667
21	0x3b8a85f0	0.0042273924
22	0x3d38948d	0.045063544
23	0x3cb03847	0.02151121
24	0xbd464c32	-0.04841251
25	0x3db027dd	0.08601353
26	0x3b9f866c	0.0048683193
27	0x3d2cee92	0.042219706
28	0xbd373fa6	-0.044738434
29	0xbdb494e7	-0.08817463
30	0xbce39d5c	-0.027784996
31	0xbcc99350	-0.024606377
32	0x3b1c1dbf	0.002382144
33	0x3d3c0208	0.045900375
34	0x3cd84731	0.026401134
35	0x3d09126e	0.03346484
36	0xbc926ad6	-0.017873209
37	0xbd7286e7	-0.059210684
38	0x3d0d6e09	0.034528766
39	0xbc61c439	-0.013779693
40	0x3c9484f6	0.018129807
41	0x3db91550	0.09037268
42	0xbce23dd2	-0.027617369
43	0xbb0fefc3	-0.0021962977
44	0x3c919cf2	0.017775033
45	0x3cff9fb3	0.03120408
46	0xbc7d7aea	-0.0154711995
47	0x3bacf214	0.0052778814
48	0xbc55081c	-0.013002422
49	0xba54caa4	-0.0008117354
50	0xbb93e284	-0.0045130868
51	0x3acb53cd	0.0015512645
52	0xbd73fa3e	-0.05956482
53	0x3d2f7295	0.042833883
54	0xbcfa3559	-0.030543016
55	0xbd4dca8c	-0.050241992
56	0x3cd244ab	0.025667509
57	0xbb90aeed	-0.004415384
58	0xbcb237f8	-0.021755204
59	0xbd4d3bd8	-0.0501059
60	0x3d570e18	0.052503675
61	0x3bd70e70	0.0065630004
62	0x3d9cbfab	0.07653745
63	0x3c971cce	0.018446352
64	0x3ccb7978	0.024838194
65	0xbd21cb4d	-0.039500523
66	0x3ce3d99b	0.027813723
67	0x3c1b1aa4	0.009466801
68	0xbd68f824	-0.05687727
69	0x3cb6e06f	0.022323815
70	0x3cdbfa63	0.026852792
71	0xbc834ebb	-0.016028753
72	0xbc712a56	-0.014719566
73	0xbcec5201	-0.028847696
74	0xbd1407a0	-0.036140084
75	0x3b2993d3	0.0025875464
76	0x3dc52f86	0.09628205
77	0x3db28061	0.087158926
78	0xbd93121f	-0.07181191
79	0xbb620e14	-0.0034493254
80	0xbc599132	-0.013279246
81	0x3d154d71	0.036450807
82	0x3d5e99fa	0.054346062
83	0xbd60b447	-0.054859426
84	0xbcc6d6ff	-0.02427244
85	0xbbf96141	-0.0076104705
86	0xbd657c52	-0.056026764
87	0xbccbb613	-0.024867093
88	0x3d2d5e9c	0.042326555
89	0xbc5b2c0e	-0.013377203
90	0x3ceacac4	0.02866114
91	0x3d8cd44d	0.06876431
92	0x3d48b7a7	0.04900327
93	0xbd27a955	-0.040932972
94	0xbcb71b15	-0.02235178
95	0xba247ba0	-0.0006274525
96	0xbc3b3ddf	-0.011428325
97	0xbbe6766a	-0.007033159
98	0x3c60c16d	0.013717991
99	0xbbc0550e	-0.0058695143
100	0xbd0c600c	-0.034271285
101	0x3d40a294	0.047030047
102	0xbd42d4eb	-0.047566336
103	0xbcc382bc	-0.02386605
104	0x3cb2b9b8	0.021817073
105	0x3d80e37a	0.06293388
106	0xbd97b8b9	-0.0740828
107	0xbc24b82a	-0.010053674
108	0x3d1ecd4c	0.038770005
109	0x3d121f26	0.035674237
110	0x3d81d5ff	0.06339645
111	0x3d53ab18	0.05167684
112	0x3d20e5f0	0.039281785
113	0xbc559218	-0.01303532
114	0xbc00e37f	-0.007866739
115	0x3cc5f853	0.024166262
116	0xbd6cd5a7	-0.057820942
117	0xbb5005ab	-0.003174166
118	0x3c56d184	0.013111476
119	0xbd778e91	-0.060438696
120	0xbca4c681	-0.020114185
121	0xbcc9d1df	-0.024636207
122	0xbb3afc12	-0.0028531593
123	0x3dc87059	0.097870536
124	0x3d10d5a4	0.035359994
125	0x3c59585c	0.013265695
126	0xbd3620ae	-0.04446476
127	0xbc8ae415	-0.016954461
128	0xbc2cc7c5	-0.010545676
129	0x3d2a3499	0.041554067
130	0xbcca84d6	-0.024721544
131	0xbcc63d9e	-0.024199303
132	0xbc3013eb	-0.010746936
133	0xbcf5c14a	-0.029999394
134	0x3c3a4c7e	0.011370776
135	0xbcf32fc1	-0.029685857
136	0x39853bb6	0.00025412225
137	0xbce4b45f	-0.027918039
138	0x3d4cd72c	0.05000989
139	0xbc10e8ae	-0.008844538
140	0xbd802cd4	-0.0625855
141	0x3c1742a2	0.009232195
142	0x3dcb3084	0.09921363
143	0xbd1cd749	-0.03829125
144	0x3cc4d8b2	0.02402911
145	0xbd111f45	-0.03543021
146	0xbc56125d	-0.013065902
147	0xb8886819	-6.504375e-05
148	0xbc924232	-0.01785383
149	0xbc98d962	-0.018658344
150	0xbc90134d	-0.017587328
151	0xbb49812f	-0.0030747165
152	0x3b7f1856	0.0038924417
153	0xbd119cba	-0.035549857
154	0x3cb51ddb	0.022108963
155	0x3cc370a0	0.023857415
156	0x3c91d722	0.017802779
157	0xbd206e12	-0.03916747
158	0xbd667927	-0.056267884
159	0xbc7e916c	-0.015537601
160	0x3c86fdb4	0.016478397
161	0xbd24749b	-0.040150266
162	0xbb142894	-0.0022607194
163	0x3d50ea3f	0.051004644
164	0xbd7c5d65	-0.061612505
165	0xbbabc1b8	-0.005241599
166	0x3d1642b1	0.036684696
167	0xbc107901	-0.008817912
168	0xbcbe0e62	-0.023200218
169	0x3cad4da9	0.021155195
170	0x3c6be7fe	0.014398573
171	0x3ca2bb51	0.01986471
172	0xbd506da2	-0.050885804
173	0x3d9ebc6e	0.07750784
174	0x3df637f6	0.120223925
175	0x3b89841d	0.0041966573
176	0x3d51a474	0.051182225
177	0xbb97ca3b	-0.004632262
178	0xbdacb212	-0.08432402
179	0x3b615f76	0.0034389175
180	0xbd2c8ee4	-0.04212846
181	0xbca47b29	-0.020078259
182	0xbc721697	-0.014775894
183	0x3c976be1	0.018484058
184	0xbd82126b	-0.06351169
185	0xbb8dce1f	-0.00432755
186	0x3c8fff3c	0.01757776
187	0x3c397eb5	0.011321713
188	0x3cfad315	0.03061823
189	0xbd575ddb	-0.052579742
190	0x3c71c536	0.014756491
191	0x3b933867	0.0044928077
192	0x3be36dde	0.0069405874
193	0xbc9c39d2	-0.01907054
194	0x3d4dbca8	0.050228745
195	0x3d5824ba	0.0527694
196	0x3cd49b2a	0.025952894
197	0xbca13475	-0.019678334
198	0x3c33558b	0.010945688
199	0x3da23dd9	0.07921953
200	0x3c9dea93	0.019276893
201	0xbdb54d28	-0.08852607
202	0xbc6165a4	-0.013757143
203	0xbcd4a59c	-0.025957875
204	0xbc7b886d	-0.015352351
205	0xbc00764e	-0.007840706
206	0xbd849922	-0.0647452
207	0x3d0ef461	0.034901027
208	0xbda6bab4	-0.081410795
209	0xba4f27fa	-0.00079023803
210	0xbd6e8b05	-0.058238048
211	0xbcb83a64	-0.02248878
212	0x3d91b222	0.07114054
213	0x3de26575	0.11054508
214	0x3d388da4	0.045056954
215	0x3c8d1ea0	0.017226517
216	0x3c0cec6e	0.008601291
217	0xba70bf13	-0.0009183746
218	0xbbb58561	-0.0055395816
219	0xbd38be47	-0.045103338
220	0xbcd684e2	-0.02618641
221	0x3ca61e55	0.020278135
222	0x3c68df28	0.014213361
223	0xbc96d6ff	-0.018413065
224	0x3b71ec7f	0.0036914644
225	0x3b0926a2	0.0020927568
226	0xbcd9860b	-0.026553174
227	0xbd89dcb3	-0.06731548
228	0x3db09789	0.08622653
229	0x3c951a23	0.01820094
230	0x3bdb0ed1	0.006685116
231	0x3c0f543b	0.008748109
232	0x3dcd40d8	0.100221336
233	0x3c882fc7	0.016624345
234	0x3d25de84	0.04049541
235	0xbd1d5b8c	-0.038417384
236	0xbd21948d	-0.03944831
237	0x3c22e7a0	0.009942919
238	0x3c18a879	0.009317511
239	0xbc116752	-0.008874731
240	0x3da622b2	0.08112086
241	0x3ce1ef40	0.027579904
242	0x3da89eab	0.082333885
243	0xbb322b4a	-0.0027186447
244	0xbcecd4c6	-0.028910052
245	0xbd007afd	-0.03136729
246	0x3ceabb13	0.028653657
247	0x3ca3d714	0.020000018
248	0x3bafae69	0.0053613675
249	0x3d1d2489	0.03836492
250	0xbc9280c1	-0.01788366
251	0x3cd090af	0.025459616
252	0x3c3960e6	0.011314606
253	0xbb0da64c	-0.0021614013
254	0xbca61d2d	-0.020277584
255	0x3db8a3c8	0.09015614

actor_mean.4.bias f4 [21]
0	0xbc291b8e	-0.010321511
1	0x3c02282f	0.007944151
2	0xbca0503d	-0.01956951
3	0x3b43fc60	0.0029905066
4	0xbc2e6f92	-0.010646718
5	0x3d1563e8	0.03647223
6	0xbcdcf0e0	-0.026970327
7	0x3d88e20f	0.06683742
8	0x3be6856f	0.0070349495
9	0x3cd90ed1	0.026496323
10	0x3c6730d2	0.014110761
11	0xb9f5ddd1	-0.00046895308
12	0xbb46c8b0	-0.0030332021
13	0xbb3979bf	-0.0028301326
14	0x3d5edd9f	0.054410573
15	0x3c896081	0.01676965
16	0x3cd92291	0.02650574
17	0x391f2d64	0.00015180331
18	0x3d2adf34	0.04171677
19	0x3cdfbd1a	0.02731185
20	0x3b4964fb	0.0030730355

in_proj.weight f4 [32, 2]
0	0xb85a96f3	-5.2115833e-05
1	0xbefce000	-0.49389648
2	0xbe7805b2	-0.24220923
3	0x3d5e359d	0.05425035
4	0x3db743c6	0.08948474
5	0xbeb35e6f	-0.35032985
6	0xbf00e84d	-0.5035446
7	0x3e1cf3c2	0.15327361
8	0x3f0ca7f5	0.5494378
9	0xbed4702b	-0.41491827
10	0x3efa11b4	0.4884163
11	0x3e3a0a45	0.1816798
12	0x3f2dfc1f	0.6796283
13	0xbf2657ee	-0.6497792
14	0x3e200c57	0.15629707
15	0xbed6159e	-0.41813368
16	0xbf23a225	-0.6391929
17	0x3f3001e7	0.687529
18	0xbe5d8854	-0.21634036
19	0x3db36712	0.087598935
20	0xbf1b17ea	-0.60583365
21	0x3ed2fe49	0.4120963
22	0x3e289d2a	0.16466203
23	0xbea2cefa	-0.31798536
24	0x3f304182	0.68849957
25	0xbeba1203	-0.36341867
26	0x3ed02347	0.40651914
27	0xbf31940e	-0.6936654
28	0xbcfc5f3b	-0.030807128
29	0xbf041b8a	-0.5160452
30	0xbe63982a	-0.22226015
31	0xbe4675f3	-0.19380932
32	0x3cf3f46b	0.029779634
33	0xbe55bb8a	-0.20872322
34	0x3f276c2a	0.6539942
35	0xbea67f14	-0.32518828
36	0xbf0a9501	-0.5413361
37	0xbe437e42	-0.19091132
38	0xbd3237af	-0.043510135
39	0xbf2e7dc3	-0.6816065
40	0xbd94929f	-0.07254528
41	0xbee81a44	-0.4533254
42	0xbf02726f	-0.5095586
43	0x3eeef042	0.46667677
44	0x3ef128cb	0.47101435
45	0x3eccf66f	0.40031764
46	0xbe35ee38	-0.17766654
47	0x3dc1863d	0.09449432
48	0xbe9c3688	-0.30510354
49	0x3e96e6e6	0.29473037
50	0xbf35893f	-0.70912546
51	0xbe8fc74b	-0.28081736
52	0xbf32725c	-0.6970575
53	0xbf0a88ee	-0.5411519
54	0xbe242497	-0.16029583
55	0xbf1347ab	-0.5753123
56	0x3edaeb31	0.42757562
57	0x3f1c2a60	0.6100216
58	0x3eb97ec8	0.3622954
59	0x3d8f6ef3	0.07003584
60	0xbf06962e	-0.52572906
61	0x3f03c11e	0.5146655
62	0xbebb5334	-0.36586916
63	0xbee56901	-0.44806674

in_proj.bias f4 [32]
0	0xbe88b0b0	-0.26697302
1	0x3f2bd035	0.67114574
2	0x3f026da4	0.5094855
3	0x3e3179a1	0.17331554
4	0xbf11f947	-0.5702099
5	0xbe557f1f	-0.20849274
6	0x3d9a85cc	0.07545051
7	0x3ea3fe92	0.3203016
8	0xbf15ac2a	-0.58465827
9	0x3debcd9c	0.11513826
10	0x3dc0f747	0.094221644
11	0xbd22e7b0	-0.039771736
12	0x3d835102	0.064119354
13	0x3ee3038e	0.4433865
14	0xbf2eb100	-0.6823883
15	0xbe77ee5f	-0.24212025
16	0xbf217f8a	-0.63085234
17	0xbda7a540	-0.08185816
18	0x3e55f466	0.20894012
19	0x3e088844	0.13333231
20	0xbf339e16	-0.70163095
21	0x3f2250d6	0.63404596
22	0xbf23d988	-0.640038
23	0x3ef3f5a5	0.4764835
24	0x3f19dc46	0.60101736
25	0x3f12cc1b	0.5734269
26	0xbf1f648f	-0.62262815
27	0x3f24324f	0.64139265
28	0x3e487e95	0.19579537
29	0x3f1212bb	0.5705983
30	0xbf017d29	-0.50581604
31	0x3f07ac4a	0.5299727
