saved_agents/dm_hopper_c.pth (torch, 112341 bytes, 26 tensors)

actor_logstd f4 [1, 4]
000000 77 10 4d bf d6 98 51 bf 18 6f 44 bf 6a a5 3e bf
       -0.8010325 -0.81873834 -0.76732016 -0.7447115

critic.0.weight f4 [64, 17]
000000 19 76 bf be 7a 14 8e bd 34 46 04 bd 04 ec 7f be
       -0.3739479 -0.06937499 -0.032293513 -0.24992377
000010 5c da 9f 3e dc ef 33 3e 61 84 a0 bc 2a 68 a8 3c
       0.31221282 0.17571968 -0.019594373 0.020557482
000020 55 04 96 3e f9 14 2f be 9f e8 34 bd 99 6c 90 3c
       0.2930018 -0.17097844 -0.044167157 0.017629908
000030 7f 5b 68 3d 67 2d 03 3d 49 1a 85 bb b7 21 8d 3e
       0.056727882 0.03202572 -0.0040619713 0.27564785
000040 9a 6b 8b 3d 45 e2 b5 be a7 83 2d bd c9 2d 05 be
       0.06807633 -0.35524192 -0.04236188 -0.13005747
000050 63 23 75 be 9d a2 39 be b5 22 23 3c 14 aa 8c 3e
       -0.2393928 -0.18128438 0.009957005 0.2747351
000060 30 9b 2c be 7c 2c d8 3d 3a 85 1f bc e0 93 0f 3d
       -0.16856074 0.1055536 -0.0097363535 0.035053134
000070 d6 79 46 be ae a7 e5 3d d0 5a 96 bc 22 54 b1 be
       -0.19382414 0.11213623 -0.01835385 -0.346345
000080 60 db 24 3d c4 47 c7 3d 17 d6 a3 3e 3c 6c de 3d
       0.040248275 0.09730485 0.31999275 0.10860488
000090 39 08 99 3e d9 12 83 3e c3 58 96 be 07 a6 16 be
       0.29889086 0.25600317 -0.29364595 -0.14711772
0000a0 22 55 de 3c 7f c5 af bc 61 37 97 bd b1 78 cd 3c
       0.027140204 -0.021456478 -0.073836096 0.025081964
0000b0 1e 35 99 bd 98 51 7a bd fb 1f 14 3d cb 4b 0a bd
       -0.074808344 -0.06111297 0.03616331 -0.033763688
0000c0 2a 01 60 bc 7e 9a bf bd d3 a2 fa be a4 b4 f8 bd
       -0.0136721525 -0.09355639 -0.4895235 -0.121438295
0000d0 de d8 a6 3d aa 13 9e bb f7 53 49 3e 32 8d 14 be
       0.08146833 -0.0048241215 0.19660936 -0.14506987
0000e0 c9 22 02 bf 0e ca 77 be 10 ea d3 bd 61 34 9b bd
       -0.5083433 -0.24198171 -0.10347378 -0.0757835
0000f0 d9 d9 3d be 76 ac 03 be ab b8 f3 bc 93 16 f1 3d
       -0.18540134 -0.12858757 -0.029751142 0.11771884
000100 25 91 11 3e d5 5f 5c 3d 13 1d c5 bd 7f a4 1d be
       0.14215524 0.05380233 -0.09624686 -0.15394782
000110 87 78 e3 bd 8f 86 f6 bd 80 98 d7 be 94 33 96 be
       -0.11106973 -0.12037384 -0.42108536 -0.29336226
000120 cf 29 4a 3e 31 5e 86 bd 13 40 b7 3e bd cc 8d 3e
       0.19742511 -0.06560934 0.35791072 0.27695265
000130 97 23 1d 3e 1f 81 ac be 95 da d7 bc 3c be 8d 3d
       0.15345608 -0.33692262 -0.026349345 0.0692105
000140 49 00 9d 3b ca 79 73 bc c1 76 7d bd 56 75 3e 3e
       0.0047912938 -0.01486058 -0.06188083 0.18599448
000150 41 3e b1 3c a9 02 6f 3e 05 83 d8 3d 87 bf ba 3e
       0.02163613 0.23340859 0.10571865 0.3647425
000160 08 ae 46 3e 26 9a 9b be 60 ea ed bb b3 cc 36 be
       0.19402325 -0.30391043 -0.0072606057 -0.17851524
000170 76 50 f7 3d 49 fc f8 3d f0 ca 89 3e cd c8 d8 3d
       0.120758936 0.121574946 0.26912642 0.10585175
000180 b1 e9 83 3c a0 db 99 3d 5b 65 5e 3d f1 0a 58 3d
       0.016102644 0.07512593 0.05429588 0.05274481
000190 0f 2c 11 be 08 55 da 3c 2f 73 df 3d cb 65 bc bd
       -0.14176963 0.026651874 0.109106414 -0.09199103
0001a0 c5 50 07 be 27 de 99 3e b8 f4 07 bf 8e 88 fa be
       -0.13214405 0.300523 -0.53107786 -0.48932308
0001b0 75 60 2a be be f1 70 3d 42 79 a1 be 3e 4e eb 3e
       -0.16638358 0.058824293 -0.31537825 0.45958132
0001c0 2f e0 8a 3e fd fe 2f 3e ac f2 01 3e 30 bc 44 3d
       0.27124164 0.17187114 0.12690228 0.048031032
0001d0 22 2a 2d bb d9 96 bf be c9 5f 3b bd 59 93 c5 3d
       -0.0026422818 -0.37419775 -0.045745645 0.09647245
0001e0 8a 52 43 bd dd 79 d9 3d fd 05 81 3e 46 a0 82 be
       -0.047686137 0.10618947 0.2519988 -0.25512904
0001f0 14 59 18 bf da 68 af be 9d 71 82 3e cc 7d 38 bd
       -0.5951092 -0.34259683 0.25477305 -0.045041844
000200 34 87 31 be f4 3e 1d 3e dd 97 66 be 22 bf 03 3e
       -0.17336732 0.15356046 -0.22518869 0.1286588
000210 33 17 24 be 93 f8 c2 3d 89 a3 4d be 54 d2 ff 3c
       -0.16024475 0.09520068 -0.20081915 0.031228222
000220 59 f8 09 bf 3b 75 83 bd 04 65 87 be bc 8e 8b be
       -0.53894573 -0.06418844 -0.26444256 -0.27257335
000230 e1 39 71 3c 84 52 56 3e 11 6d 83 bc 04 61 ca 3e
       0.014723272 0.20929915 -0.016043218 0.39527142
000240 d7 57 27 3e c3 b9 4b be 61 70 74 be 4c 86 08 be
       0.16342102 -0.19895081 -0.23870994 -0.1333248
000250 e3 e8 ab bd 52 6d d9 3c f7 c1 67 bd 38 05 36 3f
       -0.08394029 0.026541386 -0.056581464 0.71101713
000260 7c 30 91 3d a0 05 86 3d 5e 64 24 3e d8 5c c1 3d
       0.07089326 0.06544042 0.16053912 0.09441537
000270 b4 d1 8e 3e 11 71 a1 3d af 70 e2 3e 46 32 22 bd
       0.27894366 0.07882894 0.44226596 -0.039598726
000280 b8 e3 28 be cf 88 7b 3d 79 b2 ab be bd 51 68 3e
       -0.16493118 0.061409768 -0.335346 0.2268743
000290 5b dd 2e be 3f 67 0f be 11 83 ab bd 5f 3f 94 be
       -0.17076628 -0.14004229 -0.08374608 -0.28954598
0002a0 81 82 26 bc 48 e3 d6 3d 3e 65 df 3e 54 d6 1f bd
       -0.0101629505 0.10492569 0.4363193 -0.03902276
0002b0 fc e8 54 be e8 dc ea 3e 6e f3 11 be e7 2a 1f 3e
       -0.20792001 0.45871663 -0.14253017 0.1554371
0002c0 af c7 ec 3d c9 ee d0 be da 44 04 3e d0 1d 65 3e
       0.11561524 -0.4080718 0.1291689 0.22374654
0002d0 88 73 bf bd 5f 91 7b bc 3a 9e 04 bd 0d be 1f bc
       -0.09348208 -0.015354483 -0.03237746 -0.0097499015
0002e0 5d 20 89 3c 49 20 7c 3c d0 ee a8 be ff dd aa 3e
       0.016739065 0.015388557 -0.329947 0.33372495
0002f0 c7 02 10 be 6e 54 e4 3d b8 a1 ad 3e 18 88 ff be
       -0.1406356 0.11148916 0.33912444 -0.4990852
000300 66 87 2c 3e 8c f8 99 3d 64 3e 52 be 5c 29 de 3e
       0.16848525 0.0751811 -0.20531613 0.4339093
000310 d2 0d 9b 3d ee 59 4e be bd 60 11 be b3 e6 e0 bd
       0.075709954 -0.20151493 -0.14197059 -0.109815024
000320 07 ca 90 3d 88 f7 1a be 29 e7 ff be 2d 7d 0b bf
       0.07069784 -0.15133488 -0.4998105 -0.5448788
000330 30 42 b6 be 34 69 d3 3d e0 12 df bd 74 74 81 be
       -0.35597372 0.103228 -0.10892272 -0.2528416
000340 f8 fd be 3e c1 01 c3 3e 50 c8 81 3e 23 94 23 bd
       0.37303138 0.38087276 0.2534814 -0.039936196
000350 34 41 95 3d 0b 90 73 be 22 de 60 3d a1 e7 3d bd
       0.07287827 -0.23785417 0.054899342 -0.046363477
000360 4a 7f e9 bc da 45 6e bd 89 60 46 3b 50 d6 28 3e
       -0.028503079 -0.058172084 0.0030269942 0.16488004
000370 1a 74 0d 3f 44 3c 8d be 92 9c f1 3d ea 28 11 bd
       0.5525528 -0.27585042 0.117974415 -0.03543941
000380 df 1e 46 3d 84 35 40 3e 9e 4c f6 3d 17 34 87 3e
       0.048369285 0.18770415 0.12026332 0.2640693
000390 fb 92 b6 3e 7c d3 d9 bc fc 52 fb 3c 5a 05 81 bd
       0.35659012 -0.026590101 0.030679218 -0.06299849
0003a0 5a 6b 8c bd a9 2c d4 bd fb b1 d1 bd bf 27 02 3e
       -0.06856413 -0.10360081 -0.10239025 0.12710474
0003b0 99 4f 9f 3e 20 cc aa 3e 0f 2e a4 3e 22 2c 0a 3d
       0.31115416 0.3335886 0.3206639 0.033733495
0003c0 33 59 c8 3d b3 87 d6 3d 9f b5 4f be 06 d8 c7 be
       0.097826384 0.10475101 -0.20284127 -0.39032
0003d0 c1 d8 12 3e 19 c8 d4 bd 11 6c 96 be c5 54 09 3e
       0.14340498 -0.10389728 -0.29379323 0.13411243
0003e0 ae ee bf 3d 67 f0 0d 3b 67 65 a0 bb bd 0f e6 bc
       0.093716964 0.0021658184 -0.0048949006 -0.028083676
0003f0 c1 77 98 3d 50 21 e7 be 98 82 8a be 1d 01 a1 3e
       0.07444716 -0.45142603 -0.2705276 0.31446162

critic.0.bias f4 [64]
000000 49 b9 7a 3e 63 47 dd 3d 67 f4 4e be 2d 3d 1b bd
       0.24484743 0.108046316 -0.2021042 -0.03790014
000010 b5 a8 47 3e bf 8b 53 be f9 a4 83 be 73 1f 70 3b
       0.1949795 -0.20658778 -0.25711802 0.003663984
000020 d0 60 75 3e d6 8c 67 bd f6 2d 7b be 62 2f 8d be
       0.23962712 -0.056530796 -0.24529251 -0.27575213
000030 c8 97 54 3e bd e8 19 3e 12 03 51 be 08 89 92 be
       0.20761025 0.15030189 -0.20411327 -0.28620172
000040 ec 72 e5 3c 50 66 2b be c3 ee 63 3e d1 c1 89 be
       0.0280089 -0.16738248 0.22259049 -0.26905683
000050 fb cb 1a be 56 e7 20 3e 86 d9 4c be 04 6b 78 be
       -0.15116875 0.15713248 -0.20004854 -0.24259573
000060 a8 84 7c be 04 83 7f bd cb b3 8d be 85 9b 9d 3d
       -0.2465998 -0.062380806 -0.27676234 0.076956786
000070 93 cc 82 3e e0 dc 36 be 8c 29 99 3d 15 37 3d be
       0.25546703 -0.17857695 0.074786276 -0.18478043
000080 48 fc a8 bd 9e bf 0f be 9d 7d 55 3e 3c 7d 83 3e
       -0.08251244 -0.1403794 0.20848699 0.25681484
000090 31 51 01 3e a3 ea cd 3d 2f ee 46 be 90 87 58 be
       0.12628628 0.10054519 -0.19426797 -0.21145463
0000a0 23 57 72 3e fd 9d 79 3e 07 6e 7c be f2 8e 68 3e
       0.23666053 0.24376674 -0.24651347 0.2271078
0000b0 be f9 8c 3e 7c f1 25 3e 6d 33 72 3e be 32 54 3e
       0.27534288 0.162054 0.2365243 0.20722482
0000c0 4a 8e 5a be 9e 6a 3c be 63 ae c8 bd aa 36 c0 bc
       -0.21343341 -0.18400046 -0.097988866 -0.023463566
0000d0 ad 13 60 be d8 68 d9 bc 2c 80 53 be 10 5d ea bd
       -0.21882506 -0.026539251 -0.20654362 -0.114435315
0000e0 dc 5c 85 be d9 13 5e 3e d5 ce 57 3e 94 6c f8 3d
       -0.2604741 0.21687259 0.21074994 0.12130085
0000f0 4b 0b d5 3d 95 36 4a bd 32 50 42 be 8d 92 43 3d
       0.104025446 -0.04936846 -0.18975905 0.047747184

critic.2.weight f4 [64, 64]
000000 30 0c 7d 3e 1e ea 4f 39 3f ee e6 3d 0c c5 f0 bd
       0.2471168 0.00019828274 0.112759106 -0.11756334
000010 27 84 90 3e 15 29 a6 be e9 c4 80 bd a9 f9 2d bd
       0.28225824 -0.32453218 -0.06287558 -0.042474423
000020 9d e6 cd 3e 54 4d f7 3d c2 73 9a be f8 05 7f bd
       0.40215006 0.12075296 -0.3016644 -0.06226155
000030 1f e3 48 3e 94 8e ca 3d 15 7e 97 be 07 6b 55 be
       0.1961789 0.09890476 -0.2958838 -0.20841609
000040 c1 7d a9 be 63 4b 89 be b3 35 4e 3e 11 f6 fe bd
       -0.33103755 -0.26815328 0.20137672 -0.12449277
000050 50 a7 a2 bd 20 db 0f 3e 6c ef 02 bf 42 40 b4 be
       -0.079420686 0.14048433 -0.5114658 -0.35205275
000060 5a 07 3e 3c 28 ba 73 3e 17 56 c4 bd bd b0 cb 3e
       0.011598432 0.23801482 -0.09586733 0.39783278
000070 6e 13 3a 3e ad 24 8d bd e6 4c 34 3e 00 da c7 be
       0.18171474 -0.06891761 0.1760746 -0.39033508
000080 9d e6 9e 3d 6a e9 62 bd 49 3c ae 3e 85 66 ad be
       0.0775883 -0.055398382 0.3403037 -0.3386728
000090 e8 53 84 3e 93 74 09 be de d8 80 be d0 8b e9 3b
       0.25845265 -0.13423376 -0.25165457 0.0071272627
0000a0 06 d3 fe 3e 35 38 4c 3c d8 9b 61 be 80 5d c5 3e
       0.49770373 0.012464573 -0.22032106 0.38547897
0000b0 45 99 7e bc fc d7 97 3d ec 5f ca 3e 6d f5 06 3e
       -0.015539472 0.074142426 0.39526308 0.1317956
0000c0 e4 fe 2e be f1 92 8c 3d 33 3e bd 3d 17 48 92 bd
       -0.1708942 0.06863964 0.09240379 -0.07142656
0000d0 55 fd 29 be b6 09 d4 3d a4 35 bb be c7 4c 80 be
       -0.16600545 0.10353415 -0.36564362 -0.25058576
0000e0 b6 68 43 bd 3c c1 dd 3d 83 fa 91 bb 1a 44 ba bd
       -0.047707282 0.10827872 -0.004454912 -0.090950206
0000f0 bf 89 a2 bd cc 6d 46 be 53 b4 1a be 7b 97 98 3d
       -0.07936429 -0.19377822 -0.1510785 0.074507676
000100 05 e4 ae 3d 5c 87 45 be 0a 90 b3 3e be 76 c1 bd
       0.08539585 -0.19289917 0.3507083 -0.094464764
000110 55 44 ca be 0d cd 44 3e 83 00 40 3e 83 c8 97 3d
       -0.39505258 0.19218846 0.18750195 0.074112915
000120 76 13 7b be 25 1c e8 bb e1 b0 9e 3e c2 a5 fa 3d
       -0.24519143 -0.007083433 0.30994323 0.12238647
000130 0d 03 e2 be 7c 5b 17 be 0b 40 c1 3e ec f8 8f bd
       -0.44142953 -0.14780992 0.37744173 -0.070299
000140 c8 47 cf bd 4f 21 8e bd 10 39 01 bd f0 ca 80 be
       -0.10121113 -0.06939947 -0.03154856 -0.2515483
000150 c4 c4 ea bd 9b 97 0b be f2 a8 af 3e 69 ac 3f 3e
       -0.11463311 -0.13632052 0.34308583 0.18718113
000160 9d b1 05 3e 11 1a 93 be 8d e4 d6 3d e5 ac 5e be
       0.13056035 -0.28730825 0.10492811 -0.21745642
000170 3a 72 7b be 72 ff 8b 3d d3 31 35 be 1a 09 50 3e
       -0.24555293 0.06835832 -0.17694788 0.20315972
000180 75 0b 0b be c0 20 45 3e 17 db c2 be 0b cb 3e be
       -0.1357859 0.19250774 -0.38057777 -0.18632142
000190 4f 63 c1 bd 02 bd df bd 9c 9b 95 3d 5f a3 8f 3e
       -0.0944277 -0.10924722 0.07305071 0.2805433
0001a0 c3 a0 c5 3d e5 a2 bf be 65 d2 a9 be 10 8d cf be
       0.096498035 -0.37428966 -0.3316833 -0.4053731
0001b0 3f 93 f0 3c 38 89 c6 bd d0 6e 4d bd b1 09 99 be
       0.029367087 -0.09694141 -0.050154507 -0.29890206
0001c0 f6 de 5a be 77 8e 2f 3e f6 57 b9 3c 70 8e 9b be
       -0.21374115 0.1714419 0.02262495 -0.3038211
0001d0 fc c5 fa 3d 2c 22 1a 3e 25 66 ba 3e 4b cb c9 3c
       0.12244794 0.15052098 0.36406055 0.02463307
0001e0 3b 02 53 3e 1d 25 b8 be 5b ae 82 bd a2 36 40 be
       0.2060632 -0.35965815 -0.06380912 -0.18770841
0001f0 8b 63 19 be f8 10 a8 bd e4 6b a7 3e 81 ef 28 bd
       -0.14979379 -0.082063615 0.32699502 -0.041244034
000200 50 77 36 3d c8 16 31 bd 50 d2 6d 3e 67 3f 49 3b
       0.04454738 -0.043234617 0.23224759 0.0030707957
000210 a2 ca 66 3d 9a 65 1d 3e 0d e5 9b be 16 44 9c 3c
       0.05634559 0.15370789 -0.3044819 0.019075435
000220 31 a2 2b 3d 70 3a 17 bb 81 60 1f 3d 2c ab 26 be
       0.041902725 -0.0023075603 0.038910393 -0.16276234
000230 ea f9 34 3e ea f8 97 3e 7f a1 71 bd 6f 0a a8 be
       0.1767346 0.29682094 -0.058991905 -0.3282046
000240 36 84 2a bd 49 47 d4 bd 6e 9c e5 3e 99 74 08 3e
       -0.041629992 -0.10365159 0.4484591 0.13325728
000250 4f 94 1a be 0c 52 05 3e 3d 81 85 be cb 93 b3 be
       -0.15095638 0.1301958 -0.26075163 -0.35073695
000260 47 b1 9f bd 38 b0 51 bd c7 44 54 be eb a2 91 3e
       -0.07797485 -0.051193446 -0.20729361 0.2844461
000270 26 89 82 3e cb a9 39 bd d1 39 cd 3e d8 86 a4 bb
       0.2549526 -0.045327943 0.40083173 -0.0050209574
000280 79 0d af bd 0a a3 e5 be a4 aa e1 3d 27 25 b1 3e
       -0.085474916 -0.4485095 0.11018875 0.34598657
000290 02 38 68 bd 91 42 88 3e a1 59 fa be c2 c8 53 be
       -0.05669404 0.26613286 -0.48896506 -0.20682052
0002a0 39 15 98 bd 55 36 33 bd cf f8 32 3d cd b6 8c 3e
       -0.07425923 -0.043752987 0.043694314 0.27483216
0002b0 3c 11 a8 3e 35 db 34 3c 1b 80 12 3e 35 bf fc 3e
       0.3282565 0.011038591 0.14306681 0.4936463
0002c0 3a d9 13 3e f0 3c dc bd c6 f8 b0 bd 2e a9 68 3c
       0.14438334 -0.107538104 -0.086412 0.014200492
0002d0 d8 9c e5 be e6 2b 01 3d 10 a6 56 be 5e ee 14 3e
       -0.44846225 0.031536005 -0.20961785 0.14544055
0002e0 e8 c6 ad be 61 66 22 be 02 bb 81 3a 33 7b 62 bd
       -0.33940816 -0.15859367 0.0009897652 -0.055293273
0002f0 3a 5c 8f 3d e5 e5 e2 bd aa 81 aa 3b 36 37 91 3e
       0.07000013 -0.11079005 0.0052034454 0.28362435
000300 b9 a9 14 3e d0 72 72 3e 60 53 4d 3d 92 2a db 3d
       0.14517869 0.2367661 0.05012834 0.10701479
000310 36 33 b6 3d 40 11 e7 3d a9 38 a1 be f7 32 95 be
       0.088964865 0.11282587 -0.3148854 -0.29140446
000320 98 8b 8c 3e b0 f5 c5 bd f7 c2 90 be 32 53 77 bd
       0.27450252 -0.09666002 -0.28273746 -0.060382076
000330 3a 3b 5b 3e 09 bd 7d 3e a2 6f 07 bf 9a 20 94 bd
       0.21409312 0.24779142 -0.52904713 -0.07232781
000340 09 bd 4a 3e 71 a1 f2 bd ec ea 16 3e bb 40 04 bf
       0.19798674 -0.11847199 0.14738053 -0.5166127
000350 06 e4 fa bc 72 a9 95 3e 10 c7 8f be 6b 4d 33 be
       -0.030626308 0.2923084 -0.2808156 -0.17510001
000360 73 9c 6d 3d 54 ff 66 bd 68 36 9e be c3 f0 0f bd
       0.05801053 -0.056395844 -0.30900884 -0.035141718
000370 76 49 a1 3d 9f d3 e7 be 36 66 63 3e b0 d2 80 3d
       0.0787534 -0.45278642 0.22206959 0.062901855
000380 fe 30 8a be 4d 16 10 bf f8 f3 02 3f a3 66 b4 bc
       -0.26990503 -0.5628403 0.51153517 -0.022021597
000390 69 0c 93 3e f9 b0 24 be 3c 81 59 be 5e 0d 8c be
       0.28720406 -0.16083135 -0.21240705 -0.27353948
0003a0 41 fe 15 3e 3a 79 cf 3d e2 7f b2 3b 17 34 0e be
       0.14647771 0.10130544 0.0054473737 -0.13887058
0003b0 76 72 08 3f 1c f1 1e 3e a5 1a 69 3e 15 c0 63 3e
       0.53299654 0.15521663 0.2276407 0.22241242
0003c0 79 2c 73 be 5b 88 be 3d 9b d2 91 b9 92 a3 0c 3c
       -0.23747434 0.093033515 -0.00027813468 0.00858392
0003d0 44 7b f3 be 1c e5 2b bd 88 a7 13 be 3f 27 ed bd
       -0.47554982 -0.041966543 -0.14419377 -0.11579751
0003e0 b9 25 41 be 87 ed fa 3d a5 92 16 be b6 d9 d9 3b
       -0.18862046 0.12252336 -0.14704378 0.0066482676
0003f0 b7 82 1c 3d 87 ed bf bc 02 71 5a be d4 1f 87 be
       0.038210597 -0.023428692 -0.21332172 -0.2639147

critic.2.bias f4 [64]
000000 16 d6 05 3e 29 de 29 be 56 49 09 3e ec eb 15 3e
       0.13069949 -0.16588654 0.13406882 0.14640778
000010 d1 e4 06 be 3a ad e2 3d cb 68 3b be 6b 55 0e 3e
       -0.13173224 0.110681966 -0.18301694 0.13899772
000020 1f 09 0b be 85 09 f4 3d 92 3f 1f be 97 9f df 3d
       -0.13577698 0.11915878 -0.15551594 0.10919111
000030 a6 ee 1f be 8f f5 08 3e e9 ef 2e be 94 7a 03 3e
       -0.15618381 0.13374923 -0.17083706 0.12839729
000040 65 40 12 be 59 8a 10 be 20 be 0c be 69 50 19 be
       -0.14282377 -0.14115275 -0.13744402 -0.1497208
000050 90 9b f8 bd 0a 74 35 3e 71 2f f7 3d eb 5d 59 3e
       -0.12139046 0.17720047 0.120695956 0.21227233
000060 ef ec 07 be 12 3d 18 be d2 87 3b be b4 7e 07 3e
       -0.13273977 -0.14867046 -0.1831353 0.13231927
000070 2e fc ab 3d f0 4e 23 3e 11 47 d2 3d 40 bb 23 3e
       0.08397709 0.15948081 0.10267461 0.15989399
000080 83 ce 33 3e 3a c0 19 be 75 49 23 be af 31 20 3e
       0.17559247 -0.15014735 -0.1594599 0.15643953
000090 82 97 a8 3d 92 80 4f be 7f 37 18 be 0e 02 cb 3d
       0.08232023 -0.2026389 -0.1486492 0.09912501
0000a0 e2 62 39 3e 1c d8 3b be a6 ce 4a be 0e 7d 0e be
       0.18104127 -0.18344158 -0.19805393 -0.13914892
0000b0 a1 46 0a 3e 1a bf 21 be 6d 18 2b 3e b1 7f 03 be
       0.13503505 -0.15795556 0.16708536 -0.12841679
0000c0 a3 fe 32 be cb a8 1f 3e 65 d4 19 3e 60 c6 0d 3e
       -0.17479949 0.15591733 0.15022428 0.13845205
0000d0 5f 9a ce bd b6 8f 23 be ff 93 24 3e 86 04 1d be
       -0.10088038 -0.1597279 0.16072081 -0.15333757
0000e0 89 b7 31 be 12 a4 7e 3d 5c 53 1f 3e d2 a4 fe bd
       -0.1735517 0.06216819 0.15559143 -0.12433781
0000f0 77 c0 c8 bd a3 ad f2 bd 16 c7 f2 bd 94 16 0d 3e
       -0.09802335 -0.11849525 -0.11854379 0.13778144

critic.4.weight f4 [2, 64]
000000 fa e8 45 3d 3d 49 a1 bc 1a 78 73 3d 30 55 d7 3d
       0.048317887 -0.019688243 0.05944071 0.10514295
000010 fd b9 23 be f8 65 d6 3d b2 03 c8 3d b3 36 c5 3d
       -0.15988918 0.10468668 0.0976633 0.09629574
000020 97 70 ac 3c ba dd ab bd f1 c5 86 3d 18 79 48 3d
       0.02104978 -0.083919 0.06580723 0.04894361
000030 3a 21 92 3b c9 07 03 3e 3a 12 a5 bd 22 63 8a 3e
       0.0044595273 0.12795939 -0.08060117 0.27028757
000040 16 3b 63 3c f9 00 59 bd 6d da 46 bd 21 64 b4 bd
       0.013869068 -0.052979443 -0.04854815 -0.088081606
000050 8e a8 cd 3d c7 64 c4 3d 57 17 f7 bd 23 c9 38 3e
       0.10041915 0.09589534 -0.120649986 0.18045478
000060 38 a7 6d bd f8 c6 24 be 82 a1 57 bd 03 b2 7e bc
       -0.0580208 -0.16091526 -0.05264426 -0.015545371
000070 f7 96 9d bd 92 13 b3 3e 6b 70 fc bd 91 e4 28 be
       -0.0769481 0.34975868 -0.123261295 -0.16493441
000080 11 e8 2b 3e 42 39 76 bd 4b cc af be 6a 22 8e 3e
       0.16787745 -0.0601132 -0.3433555 0.2776063
000090 93 b0 21 3e 03 92 9b bd 92 9a a0 bd a0 48 82 bd
       0.15790014 -0.07596209 -0.07841982 -0.06361508
0000a0 bf 3d a4 bd 35 2e 35 3e a4 af 10 be 54 01 01 be
       -0.0801959 0.17693408 -0.14129502 -0.12598163
0000b0 ec ac 0f be ba de 69 b8 ae 93 07 3d 69 93 d2 bd
       -0.14030808 -5.575896e-05 0.033099823 -0.102820225
0000c0 65 d9 d1 3c d3 23 7a 3c bf 60 93 be db 4d 2e 3e
       0.025616357 0.01526733 -0.2878475 0.17021887
0000d0 98 ee 81 3e 7b 73 24 be 9c a5 ec 3d 80 5f 6c bd
       0.25377345 -0.16059677 0.11555025 -0.057708263
0000e0 74 65 3a be 0e 48 0c 3d 13 cd 1e bd 5b 73 db bc
       -0.18202764 0.034248404 -0.038769793 -0.026788404
0000f0 6e 5e f4 be 7c 24 a1 3d c4 96 8d 3c c0 b3 63 3e
       -0.47728294 0.07868287 0.017283805 0.22236538
000100 15 c6 82 3f b0 58 73 bf 90 94 73 3f 76 d6 82 3f
       1.02167 -0.950572 0.95148563 1.0221698
000110 1f 84 6a bf ed d8 8d 3f 8b af 65 bf c6 e5 87 3f
       -0.9160785 1.1081825 -0.8972098 1.0616996
000120 f6 c5 88 bf c9 52 90 3f b1 fa 7f bf 7f b6 79 3f
       -1.0685413 1.1275264 -0.999919 0.9754409
000130 a4 5d 81 bf d1 dc 74 3f 31 c6 67 bf b1 5e 71 3f
       -1.0106702 0.9564944 -0.9053679 0.9428511
000140 dc d9 78 bf 43 78 70 bf eb 2a 87 bf 07 c3 71 bf
       -0.9720743 -0.93933505 -1.0559973 -0.94438213
000150 08 c8 93 bf f1 45 64 3f f1 82 8a 3f 3b bc 6b 3f
       -1.154542 0.8916922 1.082121 0.9208409
000160 4a 0c 8f bf db 8f 6b bf 13 cf 82 bf 0c 9e 76 3f
       -1.1175625 -0.9201638 -1.0219444 0.9633491
000170 56 32 70 3f b3 04 67 3f 8e 4b 8e 3f 6b 04 7e 3f
       0.93826807 0.90241545 1.1116807 0.9922549
000180 61 36 65 3f d6 e0 6b bf a7 07 8a bf de 11 65 3f
       0.895361 -0.9213995 -1.0783585 0.8948039
000190 61 19 88 3f 2c 84 5e bf d5 71 73 bf a8 4c 86 3f
       1.0632745 -0.8692043 -0.9509557 1.0492144
0001a0 83 44 74 3f 84 31 6f bf ce 51 6d bf 65 94 92 bf
       0.9541704 -0.9343493 -0.9270295 -1.1451536
0001b0 b1 39 81 3f 66 cb 69 bf 5f e3 6e 3f de a6 8a bf
       1.0095731 -0.91325986 0.9331569 -1.0832174
0001c0 df d2 82 bf 71 a7 82 3f b7 69 8b 3f 9b c8 88 3f
       -1.0220603 1.0207349 1.0891637 1.068622
0001d0 10 c6 80 bf 9a b8 6a bf 40 af 78 3f 95 61 76 bf
       -1.0060444 -0.9168793 0.9714241 -0.9624265
0001e0 49 64 71 bf 8d 88 73 3f 93 63 72 3f 16 71 85 bf
       -0.9429365 0.95130235 0.9468319 -1.0425136
0001f0 63 80 93 bf 08 c7 74 bf fe fe 81 bf 24 fa 8a 3f
       -1.1523556 -0.956162 -1.0155942 1.0857587

critic.4.bias f4 [2]
000000 16 43 7f 3d 0f 5f 4a 3f
       0.062319838 0.790513

actor_mean.0.weight f4 [64, 17]
000000 41 47 6e 3d 98 d1 a4 be 46 06 db bd 46 b5 b2 3d
       0.05817342 -0.32191157 -0.10694556 0.087259814
000010 bc b1 9b be 26 bc 8f 3e 26 f2 8d 3e 49 cc d0 be
       -0.30409038 0.28073233 0.27723807 -0.40780857
000020 66 75 55 3d 1f 30 c4 bc 56 a5 0b bd fa a9 0c 3e
       0.052113913 -0.023948727 -0.034093224 0.13736716
000030 90 ab 02 be a5 f2 fe 3b cc d6 e4 bd 0f aa 04 3c
       -0.12760758 0.0077803903 -0.11173782 0.008097186
000040 f2 4c f6 3c 5d 86 86 bd 4f e3 69 3e c1 0f 62 be
       0.030065987 -0.065685965 0.22840618 -0.22076322
000050 21 90 64 be 87 d9 99 3d 21 ec 6d 3b 55 ea c9 3e
       -0.22320606 0.07512193 0.0036304074 0.39436594
000060 dd a0 21 3e 15 f9 03 bd 13 d4 c6 3d ca 2f 37 bc
       0.1578402 -0.032219965 0.09708419 -0.011180827
000070 66 f6 c3 3d 47 04 ca 3d df 5b 79 3d 43 11 64 3e
       0.09568481 0.09864097 0.06087863 0.2227221
000080 28 c7 c5 3c f5 e3 69 be 90 fb dd 3d c5 55 5d bd
       0.024142817 -0.22840865 0.10838997 -0.054036874
000090 a4 78 d5 3e 11 f2 81 3d 00 6d 7b bd 9c 18 aa 3c
       0.41693604 0.06344999 -0.061383247 0.020763688
0000a0 c6 67 66 be 3f 76 c5 3d c5 48 b0 bc ec 69 08 be
       -0.22500524 0.09641694 -0.021519074 -0.13321656
0000b0 d4 bd 29 bc 0a d8 5e 3d fb 05 fe 3b cf 4f d8 be
       -0.0103602 0.05440525 0.007752178 -0.4224839
0000c0 8e cb 4b be da 4c bb bd 99 74 b6 bd 6b 85 3a 3e
       -0.19901869 -0.09145518 -0.08908958 0.18214957
0000d0 5c 98 d3 bd 67 a6 b6 3e 1a 47 2e 3d 0b 8b 9e be
       -0.103317946 0.3567383 0.042548276 -0.30965456
0000e0 fb 44 46 3c bb dc 11 3e 7b 7c 2e 3e 7e 58 8f bd
       0.012101407 0.14244358 0.17039673 -0.069993004
0000f0 d8 15 c8 be dd 03 c2 3e 3e c2 51 3e ee c7 9f 3d
       -0.39079165 0.37893572 0.20484254 0.078018054
000100 cb a2 f4 3d 15 5a 0e 3e 6f f8 02 3d cb 2a 8b bd
       0.11945113 0.13901551 0.031975206 -0.067952715
000110 3d e6 c1 bd 98 2d d0 3d 8e 90 f6 be 35 16 72 3e
       -0.094677426 0.10164946 -0.4815716 0.23641284
000120 e3 6e 03 3d e0 85 fa bd 6d ee 08 3e ba df cd be
       0.03208817 -0.12232566 0.13372202 -0.40209752
000130 53 d0 78 3e e1 9c f4 3e 62 58 6d bd 22 25 15 3e
       0.2429822 0.4777594 -0.057945617 0.14564946
000140 69 f8 d5 3d bb 5f a1 3d 0a 6f e0 3c 63 2c e1 3c
       0.10447771 0.07879587 0.027396698 0.027486986
000150 45 51 86 3e 95 53 f8 bc fa 96 d5 3d dc fa 77 3d
       0.2623388 -0.030313293 0.10429187 0.060541973
000160 0c 42 62 3e 1d 24 bb bd e7 f2 32 3e 97 88 9c 3e
       0.22095507 -0.091377474 0.17475472 0.3057296
000170 87 ea 6e be 17 c8 2f be a4 7c 78 be 3c 1d 81 3e
       -0.23331653 -0.17166172 -0.24266297 0.25217617
000180 86 73 8c be b4 d7 a2 3e 84 10 96 3e e0 c5 41 be
       -0.27431887 0.31805193 0.29309475 -0.1892314
000190 6c a1 9f be 23 ab 4c be 17 c0 0a bd 5d c3 b2 bc
       -0.31177843 -0.19987158 -0.033874597 -0.021821672
0001a0 1f d7 21 3f 54 a4 86 be c9 27 cc 3d 03 41 76 be
       0.63218874 -0.26297247 0.09968526 -0.24048238
0001b0 b7 8f b3 3d 1c 52 56 bc aa 83 9c be 8c 44 33 3e
       0.08767646 -0.0130811 -0.30569202 0.17506617
0001c0 2d 7b a2 bc 92 05 89 bc 29 be 44 bd 42 2c 3c 3e
       -0.019834125 -0.016726289 -0.048032913 0.18376258
0001d0 7e 36 75 be 85 a2 b1 bd 91 46 50 be f0 b2 bf bd
       -0.23946568 -0.08673576 -0.20339419 -0.093603015
0001e0 b6 8e 96 bd 69 2a 3a 3e 40 19 21 bb 54 17 f5 bd
       -0.07351439 0.1818024 -0.00245817 -0.1196734
0001f0 7f f5 55 3e 06 bd 40 bd 35 28 9a 3e f3 e7 61 3d
       0.2089443 -0.047055267 0.301088 0.055152845
000200 1a 5d 13 bf b3 56 2d 3d 6c 7e d0 3d bf 2a a9 3d
       -0.57563937 0.04231901 0.10180363 0.08260106
000210 99 6c d8 bb 5d 50 13 bd b5 38 12 3e a5 b2 78 3e
       -0.0066047427 -0.035965312 0.14279445 0.24286897
000220 c5 3f 3a be 63 82 99 bd b6 f2 15 3e ff 71 06 3e
       -0.18188389 -0.074955724 0.14643368 0.13129424
000230 3c 58 fe 3c 56 89 2c 3e 46 97 06 3e c4 58 c4 3a
       0.031047933 0.16849265 0.13143644 0.0014980067
000240 fc 9a 90 3d bc 18 9b 3e 17 90 d8 3e 30 21 12 bc
       0.07060811 0.30292308 0.42297432 -0.008919045
000250 87 24 79 3a 8c 5f 1d 3e 86 f8 b9 3e de 3c e7 3d
       0.0009504039 0.1536848 0.3632242 0.11290906
000260 6d 07 3b bc ce f5 c3 3d 71 04 59 be f6 6a 1a bf
       -0.011415345 0.09568368 -0.211931 -0.6031946
000270 3f bf d7 bd 8b a3 80 3e fb 8a b7 bd 56 b6 93 3e
       -0.10534524 0.25124773 -0.08962055 0.2885005
000280 c0 9e 65 be 96 80 a8 3e 7e 87 03 be 2c 6b 85 3e
       -0.2242384 0.32910603 -0.12844655 0.26058328
000290 5a 9c 22 3e 2f 8b 44 be db d0 67 bd da fc 09 bd
       0.15879956 -0.1919372 -0.056595664 -0.033688404
0002a0 e6 45 03 be 40 29 5f bd 93 44 b2 3e de 26 49 bd
       -0.12819633 -0.0544827 0.34817943 -0.049109332
0002b0 72 44 ad 3e 45 0f 37 3d 80 2f 96 3e e1 39 32 be
       0.33841282 0.044692297 0.29333115 -0.17404892
0002c0 e0 96 59 3e 9d b5 42 bd 92 44 29 be b0 41 18 bd
       0.2124896 -0.04753648 -0.16530064 -0.03717202
0002d0 84 80 27 bd 00 f7 c3 3d 86 1d d7 3d 1d 6d d3 be
       -0.040894046 0.09568596 0.10503678 -0.41294184
0002e0 c6 68 23 3e f1 f1 89 3d 5f c8 cd 3c ef ed 92 be
       0.15957937 0.067356 0.025119958 -0.28697154
0002f0 11 38 b7 be f4 14 fb 3d 71 ba 04 be d0 14 94 3e
       -0.35784963 0.12259856 -0.12961747 0.2892213
000300 fd 6f 95 be 66 9a b4 3e a0 db 83 3e 51 2e 02 be
       -0.29187003 0.35274047 0.25753498 -0.12712981
000310 7f a7 ce bc 89 ed 0b be 4f 9e b6 bd 68 47 21 3d
       -0.025226353 -0.13664831 -0.08916914 0.03937474
000320 1c 93 ce 3c 5d ac 92 3e 70 de b6 bd 6e fe 1b 3e
       0.025216632 0.28647128 -0.08929145 0.15233776
000330 a4 91 36 be 14 66 80 be 48 c3 15 3d 60 46 ea bd
       -0.17828995 -0.2507788 0.036563188 -0.11439204
000340 20 8f 87 3c b5 ca 83 3e f9 c4 ce bd 16 07 0c 3e
       0.01654774 0.2574059 -0.10096163 0.13674578
000350 33 db ef bd 95 a3 91 be 6d a9 45 be e1 79 51 3e
       -0.11711731 -0.28445116 -0.19302912 0.2045665
000360 bb f7 99 3e 45 72 01 3e 04 c2 37 3e 04 73 f0 be
       0.30071816 0.12641247 0.17945105 -0.4696275
000370 c0 7b 05 be fc f0 28 be ff 6d 61 bd 47 73 d6 3d
       -0.13035488 -0.16498178 -0.05503654 0.10471206
000380 5d 22 79 3e f9 e1 69 3c 2c dd 87 3e e1 17 28 3e
       0.24329515 0.0142750675 0.26535928 0.16415359
000390 5e 90 5e bb 45 0c cb bd 3d 04 a9 be e0 cd 7b 3d
       -0.0033960561 -0.099144496 -0.33011046 0.061475635
0003a0 d0 e6 6a bd 0b cd b1 3d 9a df b1 be d0 4d 61 bd
       -0.057349026 0.08681687 -0.34740907 -0.05500585
0003b0 2a 85 3b 3b f1 c2 24 3e d7 fd 10 3e 7b 29 2f be
       0.0028613308 0.16089989 0.14159332 -0.17105667
0003c0 0f c1 ad be 0f c9 23 be b8 6a 38 3e 96 4b e8 3b
       -0.33936355 -0.15994667 0.1800946 0.0070890887
0003d0 f4 11 e3 3b 62 2d 8f be 25 5c a2 3e 8a 60 b0 3e
       0.0069296304 -0.27964312 0.31710926 0.34448653
0003e0 ce 0d b0 bd f7 36 1d be 6a 09 a6 3d 8b 1d b0 3c
       -0.08596383 -0.15352999 0.08107264 0.021498462
0003f0 a2 40 fe bd d2 57 96 bd 42 62 96 bd 1b 92 b3 bd
       -0.124146715 -0.07340969 -0.0734296 -0.08768102

actor_mean.0.bias f4 [64]
000000 03 f4 0e bc ca 00 47 3d f2 b4 d1 3c 07 20 c4 bd
       -0.008725169 0.048584737 0.025598977 -0.09576421
000010 d0 67 a1 3d 88 15 30 bd df b4 11 bd 69 44 ac bc
       0.07881129 -0.042989284 -0.035572883 -0.021028714
000020 fa dc 57 3d 67 60 2c 3d 50 3b 9a 3b 5d 92 a2 3d
       0.052700974 0.042084124 0.0047067776 0.07938073
000030 28 7d 32 bd c0 12 7f 3b 0d 05 4a 3c c2 1d 25 3d
       -0.04357639 0.0038921088 0.012330306 0.040311582
000040 0c d2 fb 3c d0 0b 81 bd a8 2d bf bc 9d fb 8d 3a
       0.030739807 -0.06301081 -0.0233372 0.0010832433
000050 51 a5 c0 3d fe 01 37 bd a0 30 86 bc c9 8b ea 3d
       0.094065316 -0.044679634 -0.016380608 0.11452443
000060 f7 d5 30 3d 79 34 96 bd 58 9a 9b bd 1c 46 83 3b
       0.043172803 -0.07334227 -0.07597798 0.0040061604
000070 d4 3b 0f 3d fc 60 1a 3d b8 55 91 3d 4a 98 99 3d
       0.034969166 0.037690148 0.07096428 0.0749975
000080 af 93 95 3d 07 45 35 3c 16 62 ea 3c 18 c4 89 3d
       0.07303559 0.011063821 0.028611224 0.06726855
000090 17 bb b2 3c d0 ca b2 bd 87 32 47 3d 0c e9 27 3d
       0.021817727 -0.0873009 0.04863217 0.040993735
0000a0 ee a7 7d 3c 95 78 5c bb 23 2a ec 3c f5 95 a9 3d
       0.015481932 -0.0033641208 0.028828686 0.08280555
0000b0 c1 1b 9f 3b 70 44 e9 3c 38 e1 1a bd fd f3 5b bb
       0.0048556034 0.028475016 -0.03781244 -0.0033562176
0000c0 04 27 76 bc 56 39 a5 bb 6d 01 49 3d 89 d8 e9 bb
       -0.0150239505 -0.0050422354 0.049073625 -0.0071364087
0000d0 67 21 b2 3c cb cd 69 3c ce c5 fe 3d c5 b2 94 bb
       0.021744443 0.014270256 0.12440072 -0.0045379126
0000e0 4c 3a e9 bd 7a c0 4e 3d 23 47 66 bc d1 00 be bd
       -0.11388072 0.05047653 -0.014055046 -0.092774995
0000f0 a8 43 08 3d 5d e1 d6 b8 8d a7 c5 3b 06 6b 67 3d
       0.033267647 -0.000102462924 0.0060319365 0.05649855

actor_mean.2.weight f4 [64, 64]
000000 04 f8 06 be 31 5e 88 bd 60 c8 01 be 57 d3 0a bc
       -0.13180548 -0.066585906 -0.12674093 -0.008473239
000010 4a d5 95 bd 31 d8 d9 3e 00 49 5a bb 20 40 2e be
       -0.07316072 0.42547753 -0.0033307672 -0.17016649
000020 40 c5 42 bd cc ab 80 bd fb 23 ac 3d 0e 6a 38 bd
       -0.047551394 -0.06282768 0.084053 -0.045023017
000030 10 8a 85 3e 7a 2a 11 be 86 d8 10 bf 0a 84 26 3c
       0.26081896 -0.1417636 -0.5658039 0.0101633165
000040 3c 73 61 3d 31 c2 b2 3d 13 a8 96 bd 56 68 b4 bc
       0.055041537 0.08728445 -0.07356276 -0.022022408
000050 ec c8 9c 3d b7 e3 c3 3b ac d4 29 bd 05 7d e6 3d
       0.0765551 0.0059780735 -0.041462585 0.11254314
000060 2b b6 68 3e 2e 57 08 3e b7 f0 2a be a2 a0 90 3b
       0.22725742 0.13314506 -0.16693388 0.00441368
000070 40 a2 fb bd a6 63 0e 3d 09 93 c7 be 44 b2 b5 3e
       -0.12286806 0.034763 -0.38979366 0.35487568
000080 27 c1 4f 3e 75 28 82 3e aa ce 12 3d a3 35 53 be
       0.20288526 0.2542149 0.03584162 -0.2062593
000090 11 9e 03 be 4c 20 af bd 23 16 1d 3e 1b c1 68 bc
       -0.12853266 -0.08551082 0.15340476 -0.014206196
0000a0 e9 dd 87 bc 6f 0c b1 bd 90 33 41 bd f1 ef 27 3e
       -0.016585307 -0.0864495 -0.047168314 0.16400124
0000b0 b2 66 4f 3e 96 41 5b bd 17 dc 91 be 1e 94 63 be
       0.20254019 -0.053529344 -0.28488228 -0.22224471
0000c0 24 f9 c0 bd a8 57 fb bd 51 16 13 3e e9 9d 37 3d
       -0.0942252 -0.122725785 0.14363982 0.04482833
0000d0 af 4e 06 3e 7e e0 1e 3e 71 bb e8 3e ac 38 ff 3d
       0.13115953 0.15515324 0.45455506 0.12461981
0000e0 1e 58 ed 3d 0c f0 1a be 9e 96 29 3c 8c 38 2c 3d
       0.11589073 -0.15130633 0.010350851 0.042046115
0000f0 40 3f 86 be 29 35 c4 3e f3 95 0e ba aa 22 70 3e
       -0.2622013 0.38321808 -0.00054392143 0.23450723
000100 e2 f1 23 3e 19 96 0e 3d 19 e2 da be 3a f9 40 bd
       0.1601024 0.034811113 -0.42750624 -0.04711268
000110 84 a4 d6 bd 99 ad 50 3d 5f 8f f6 bc 5c 16 9c bd
       -0.104805976 0.050946806 -0.030097662 -0.07621452
000120 1f 03 2b be b0 fe 93 bd 04 a8 e7 bb 0e 0d 43 be
       -0.1670041 -0.07226312 -0.0070695896 -0.19047949
000130 65 5a 7d bc 57 a6 58 3b 49 cf 11 be ed 65 6d 3c
       -0.015463446 0.003305813 -0.1423923 0.014489633
000140 33 75 d2 3e 41 06 42 3e 7d e7 99 be fd 6d f9 3d
       0.4110504 0.18947698 -0.30059424 0.12179182
000150 dc 45 cf bd b9 fc 8e 3c f6 1d c1 3d 6c 3b 08 be
       -0.101207465 0.017454492 0.09429543 -0.13303918
000160 ce 49 83 3e 7e 2b cb be 38 ec e2 3d 8c 3b 0e 3d
       0.25642246 -0.3968162 0.110802114 0.034724757
000170 b0 21 87 be 6f 2b 70 be a9 e5 95 3e 6a 05 26 be
       -0.2639289 -0.23454069 0.2927678 -0.16213003
000180 61 52 54 3e 4f 24 92 be c4 c6 bd 3d 65 6a 87 bd
       0.2073455 -0.28543326 0.09266427 -0.0661209
000190 06 bd 2f be 0d 5c bf bd 99 ad 43 be 0c f1 7d 3d
       -0.1716195 -0.09343729 -0.19109191 0.06199746
0001a0 6d 76 e2 3c 50 ee 7f be 5c ec 92 be b1 05 72 be
       0.02764436 -0.24993253 -0.28695953 -0.23634984
0001b0 3b 97 64 be 3c 75 8b 3e dc ed b0 bd 9c d9 69 be
       -0.22323315 0.2723788 -0.08639118 -0.22836918
0001c0 c0 e2 0e bd 5a 3c 92 be c9 f6 e4 bd fc bc 4e be
       -0.034884214 -0.2856167 -0.11179883 -0.2018928
0001d0 05 f6 59 3b 77 67 37 bc a2 be 91 bd 77 7e 34 be
       0.0033258211 -0.011194102 -0.071164384 -0.17626368
0001e0 c7 6e 54 be 97 ef 23 3e d2 83 34 3d 1e e7 44 3e
       -0.20745383 0.16009365 0.044071026 0.19228789
0001f0 00 c1 9b 3d a6 fe 32 be ef f7 4b be ac a1 86 3e
       0.07605171 -0.17479953 -0.19918798 0.2629522
000200 98 7e 06 be ac 86 4e bb 7d c3 f9 3c 0a 9c 30 3e
       -0.13134229 -0.0031513376 0.030488724 0.17247024
000210 e6 1a 83 be de ae 31 bd 07 94 a1 be af 62 6a 3d
       -0.2560646 -0.043379657 -0.31558248 0.05722302
000220 48 aa 92 3e 31 2a 71 be 1b fe 0c bd d1 3c 95 be
       0.2864554 -0.23551251 -0.03442202 -0.29147962
000230 db f5 29 3e d4 84 0b be 30 d8 1d be a5 32 80 3e
       0.16597693 -0.13624889 -0.154145 0.2503864
000240 08 e5 4a bd 91 1b c2 3c 40 f1 31 be 00 77 d7 3d
       -0.049534827 0.023694785 -0.17377186 0.10520744
000250 e0 fc 11 bd f9 cc a2 3e 30 e5 ed 3c a7 af 96 3b
       -0.03564155 0.31797007 0.02903995 0.004598576
000260 03 34 6c bd c9 38 01 bd 1f bd 8d 3c 4f a8 8c be
       -0.05766679 -0.031548295 0.017302094 -0.2747216
000270 e7 40 0d 3e 9c 54 73 3e e6 ea c1 bc ad 82 83 be
       0.1379429 0.23762745 -0.023671579 -0.25685635
000280 77 51 8e 3d 47 ca b8 3d bf 34 46 3d 83 62 5f be
       0.06949132 0.09022956 0.048390146 -0.21814923
000290 0b a9 fd bd 52 9c ec 3d ea b0 45 3e 6f 44 e4 bd
       -0.12385758 0.11553253 0.19305769 -0.11145865
0002a0 fb c4 0a 3f 80 7c be bd c1 7e cb bd 55 8b 29 be
       0.5420682 -0.0930109 -0.09936286 -0.16557057
0002b0 73 2c 21 bd 01 70 51 be f8 c2 3c be e7 6d 8c 3d
       -0.03934903 -0.20452882 -0.1843375 0.068569
0002c0 10 11 57 be fb 31 8e 3d e9 45 cd bd 86 42 43 3e
       -0.21002603 0.06943127 -0.100231 0.19068345
0002d0 4a f0 ba be f2 60 6b be 2b 8a 20 3e cb 9e a1 bd
       -0.3651145 -0.229862 0.15677707 -0.078916155
0002e0 5c 6c 20 bd ca f1 f2 3b ae b1 ed 3d 16 72 b9 bd
       -0.03916584 0.0074140774 0.11606155 -0.09054963
0002f0 83 f2 6b 3e 1b d4 87 bd 4b 32 16 3f b4 15 7f 3e
       0.2304173 -0.06632253 0.5867049 0.24910623
000300 43 62 24 be 9c 82 80 be fb a1 34 3d ee 35 71 be
       -0.16053109 -0.25099647 0.04409979 -0.23555729
000310 ed b2 c0 3c 99 00 1f bf f6 ab 86 be 1e 25 50 be
       0.023522818 -0.62110287 -0.2630307 -0.20326659
000320 0b d4 91 be 22 78 80 3d 47 7a 22 be bd 60 bf 3d
       -0.28482088 0.062729135 -0.15866958 0.09344623
000330 11 9f 0f be c4 7b 11 be 87 26 58 3e fe 21 b5 3d
       -0.14025523 -0.14207369 0.21108447 0.08844374
000340 9e d4 6d bc ba 7c 40 3d bf e9 90 bd 67 ed 9f be
       -0.014516024 0.04699395 -0.070758335 -0.3123581
000350 b4 6e 20 bc 2d aa e6 3c 4a 35 2e bc 95 27 36 3e
       -0.009792019 0.028157318 -0.010632822 0.17788537
000360 10 35 67 be 77 e4 f3 3d 31 fa 02 3e 8b d3 a1 be
       -0.22578835 0.119088106 0.12790753 -0.31606707
000370 c2 c2 43 bc 90 22 e3 3a f3 fd ab bd f3 82 82 3d
       -0.011948289 0.0017329026 -0.08398046 0.06372633
000380 9e e2 e4 3c 41 6b b3 bd b1 57 7a 3e 1b b3 9b bc
       0.02794009 -0.087606914 0.24447514 -0.019006303
000390 74 95 f5 bd 65 b1 0c 3d 8e cb a6 be 0d ac ef ba
       -0.119913965 0.034348864 -0.32577175 -0.0018285528
0003a0 02 ba 1c 3e fd 4a 82 bb ae 56 35 3e ae ac 0a 3d
       0.15305331 -0.0039762245 0.17708847 0.033856086
0003b0 1d 7e aa bd 13 3a 15 3e 35 67 30 3e 69 55 5e be
       -0.083248354 0.14572935 0.1722687 -0.21712269
0003c0 09 c0 ae bd 35 a9 50 be b7 99 0e be 91 00 c5 be
       -0.085327215 -0.20377047 -0.13925825 -0.38476995
0003d0 ff c4 10 3e 17 88 5e 3d 52 08 bd 3c a0 4b fd bd
       0.14137648 0.054329004 0.023075256 -0.1236794
0003e0 0c 69 06 3e 5c 7c c8 3d 51 2c 77 3e 9e a0 58 bd
       0.1312601 0.09789345 0.24137999 -0.05288755
0003f0 1b 1c 0a be 24 c3 18 3f 5d b7 0c 3e 7e ae 08 3d
       -0.13487284 0.5967276 0.13741823 0.033369534

actor_mean.2.bias f4 [64]
000000 ca bb 3d 3c 58 24 b9 3a 38 e1 cc 3c 5b ac 6e 3c
       0.011580417 0.0014125211 0.025009736 0.01456746
000010 6e 71 82 3d 61 ad 4f bd 7f 62 88 3d d7 b4 98 3d
       0.06369291 -0.050702456 0.06659412 0.074563675
000020 53 6b 83 3c 82 1f d2 3c a0 6a 7d 3b 11 cb dc bb
       0.016042387 0.02564979 0.003866829 -0.0067380746
000030 e6 0b 31 3c 8a a3 bd 3c d9 29 b6 bb 99 b6 b6 bd
       0.010806059 0.02314927 -0.005559188 -0.089215465
000040 cc 4c b8 bd fb 64 7b bc ad db 3d 3d a1 c1 3a 3d
       -0.08999023 -0.0153439 0.046352077 0.045594815
000050 8c 26 e3 3c 5d 62 06 3c 2d 8b 43 bc 4a 61 7c bd
       0.027728342 0.008202163 -0.011935038 -0.06161622
000060 24 be 91 bd 8d 9c fa 3b 09 af 1d 3c 25 71 53 3c
       -0.071163446 0.007648057 0.009624251 0.012905394
000070 9e 15 eb bc a9 9d c8 bc fe 7d 0a bc fb cb c7 3c
       -0.028696831 -0.02448924 -0.00845289 0.024389258
000080 26 76 c0 3b f3 41 10 bd 77 ed 2a bd 47 96 28 bd
       0.0058734594 -0.035219144 -0.04173037 -0.04115894
000090 40 d1 11 bd b1 6c 46 bc 0e 03 2b 3c 91 fd f1 bc
       -0.035599947 -0.012110875 0.01043774 -0.029539855
0000a0 3a 4a 8b 3d a5 35 8c 3d cf 0a c9 bc 23 d1 3c bd
       0.06801267 0.068461694 -0.024541287 -0.046097886
0000b0 6f 32 56 3c 30 e0 b0 3d 93 9d 9e 3c 65 f8 96 bb
       0.013073548 0.0863651 0.019362247 -0.0046072477
0000c0 f0 ab e3 bb 91 1b 84 3c 2b db b2 3d 61 eb 6a bb
       -0.006947987 0.016126426 0.08733209 -0.0035845863
0000d0 7c fb aa bb 9a 01 f8 3c b3 44 88 bb 8e 2c 14 3c
       -0.0052179676 0.030274201 -0.00415858 0.009043826
0000e0 df 28 38 39 62 0b 45 bd a9 20 db 3a 84 de 1f 3d
       0.00017562833 -0.04810656 0.0016718108 0.039030567
0000f0 18 ba 47 bb 9a e8 97 3c 70 f8 20 3d 28 f6 fe 3c
       -0.003047591 0.01854353 0.03929943 0.031123236

actor_mean.4.weight f4 [4, 64]
000000 92 1d e5 3c 8e c3 3d 3c 00 68 b7 3c a6 7e c5 bd
       0.027968202 0.011582268 0.022388458 -0.09643297
000010 ec cc 85 bd b1 b2 f8 3c 6d 16 84 3c 93 9b 3f 3d
       -0.06533226 0.030358644 0.016123975 0.046779227
000020 f7 a9 a6 bd 2c e5 7c 3d ae d2 48 3d a0 cc 04 3c
       -0.08137887 0.061741993 0.049029045 0.008105427
000030 06 9d 02 bc 22 7c 03 3d 60 30 91 bd ef 70 6e bc
       -0.007972008 0.032100804 -0.07089305 -0.014553293
000040 eb 9a b6 3c 26 6e 08 bd 03 7a 65 3d 59 3d b5 3d
       0.022290668 -0.03330817 0.056024563 0.08849592
000050 4c b5 37 3c 8f 17 d3 bc 1e 71 bc bb fe 34 51 3d
       0.011212658 -0.02576807 -0.0057507893 0.051075928
000060 51 f5 a3 bd c5 77 5e bc 8a 6d 87 bc 73 b9 36 3d
       -0.08005775 -0.01357836 -0.016531724 0.044610452
000070 22 8a 08 bc bb 4e 29 bd 1a c5 e1 3c e8 77 05 3d
       -0.008333715 -0.04133485 0.027559806 0.032585055
000080 02 6a 87 3c 9f 55 10 3d 0d ee 53 3d c7 96 e8 3c
       0.01653004 0.035237905 0.051740695 0.028392209
000090 98 fd b3 bd 02 62 0f 3d 53 21 81 3d 91 5c 51 3c
       -0.087886035 0.035005577 0.06305184 0.012778417
0000a0 c5 2c 44 3d be 6f 0f bd 67 86 07 3d 08 18 62 bc
       0.047894258 -0.035018675 0.03308716 -0.013799675
0000b0 f0 f3 c2 3d 18 7e 79 bd fe a9 6a bd 86 e0 21 3d
       0.09519184 -0.060911268 -0.057291023 0.039520763
0000c0 80 42 9f bd 45 0c b5 bc c7 18 4b bd fa 44 31 bd
       -0.07776356 -0.022100577 -0.049584176 -0.04327867
0000d0 2d 09 81 3d c8 0b 57 bd b1 1b 2a bd d2 33 63 3d
       0.06300578 -0.05250147 -0.041530315 0.05546934
0000e0 f0 06 b2 3c 4f be 29 3d cc 52 9c bc f5 d9 77 3d
       0.021731824 0.041441258 -0.01908245 0.060510594
0000f0 57 23 87 3d bb 27 07 bd 13 7d ec bb 70 37 f0 bc
       0.065985374 -0.032996874 -0.0072170584 -0.02932331
000100 1f f7 ed bc ae c2 fa bc 51 ed 6e 3d 4f 08 7a bc
       -0.0290485 -0.030610409 0.05833179 -0.01526077
000110 9e 13 35 bd 03 1b f2 bc ea 42 24 3d 49 96 eb bb
       -0.04420816 -0.029553896 0.040102877 -0.0071895462
000120 e2 af 0a 3d a0 0d 86 bc d4 67 cb bc 87 a9 4f bd
       0.03385914 -0.016363919 -0.024829783 -0.050698783
000130 ba e8 a5 3b a4 c2 2f 3c 4f 72 e6 bc 79 78 3f 3d
       0.0050631436 0.010727558 -0.028130678 0.04674575
000140 51 87 9e 3d d5 bd 1d bd d2 0e ae 3c 90 d4 e4 3b
       0.07740653 -0.038511116 0.021247301 0.0069833472
000150 91 99 15 bc 86 c7 55 bc dd d8 ae 3b 01 bb 93 3d
       -0.009130851 -0.013048058 0.0053359107 0.072134025
000160 df 9d 6d 3b ac fa a7 bc fc 4a 16 3d 9c b6 de bc
       0.0036257429 -0.020505272 0.036692604 -0.027186684
000170 43 17 28 3c 97 a4 5b bd ca c6 9e bc 8d 0e f8 39
       0.010259452 -0.053623762 -0.0193819 0.00047313087
000180 ed 20 51 bd d2 61 a9 bc 24 da ee 3b d4 a3 45 3c
       -0.05105679 -0.020676527 0.007289188 0.012062985
000190 10 9f de 3d 6d 4e 34 bd cf 84 b8 bd e8 ec 7c 3d
       0.108701825 -0.044020105 -0.09009706 0.06174937
0001a0 f6 5a e6 bb eb 52 7b bd 99 98 09 bd d9 43 a6 3d
       -0.0070298864 -0.061358374 -0.033592794 0.0811841
0001b0 9f 50 8d bd 71 83 8c bd c5 62 2a bd 73 52 b0 b5
       -0.06900143 -0.06861008 -0.0415981 -1.3137018e-06
0001c0 1e 30 e1 3d b5 81 ca 3c b6 91 25 bd 77 22 99 bc
       0.10995506 0.024720052 -0.040422164 -0.018693192
0001d0 9b e6 df 3c 8c af 4a bd a6 bb bb 3c 32 34 b0 bd
       0.027331641 -0.04948382 0.022916626 -0.086037055
0001e0 17 ef 89 3d fc 98 c8 bb e1 f2 e7 3c 69 51 e2 bc
       0.06735056 -0.006121753 0.028314056 -0.02762671
0001f0 ca 02 0d bd e1 10 ac 3b 91 07 a1 3c 3c 2e 24 bc
       -0.034426488 0.0052510356 0.019656928 -0.010020789
000200 54 9d c2 3c 72 ce aa bc 31 15 64 3d 64 d1 e5 bc
       0.02375666 -0.020850394 0.055684272 -0.028053947
000210 78 e5 07 be c9 d2 03 3d f8 b6 2f bd 45 01 d2 3c
       -0.13271129 0.032183442 -0.042899102 0.025635371
000220 c1 cc 5a bc b6 96 d9 bd 77 bb 2f bc cb 96 a4 3c
       -0.013354481 -0.10624449 -0.010725847 0.020091435
000230 a0 fd 56 3d 46 15 58 3c 2c 3b 70 bd c4 b8 a6 bc
       0.05248797 0.013188666 -0.05865018 -0.020351775
000240 c5 56 76 3d 88 9e e2 3c 51 70 b2 3c 10 05 2d bd
       0.060141344 0.027663484 0.021782072 -0.042241156
000250 72 3d b1 3c 85 8e 14 3d f4 c8 6b bc 34 0d b2 3c
       0.021635745 0.03626873 -0.014391173 0.021734811
000260 93 0b 38 3c c0 b9 8e bc cf 6d 15 bd 14 de b4 3d
       0.011233228 -0.017422557 -0.036481675 0.088314205
000270 37 ab 09 bd 03 f7 8f 3c 64 d9 ac 3d 66 0b 09 3d
       -0.03361055 0.017573839 0.084399015 0.033458136
000280 99 c5 55 bc c0 91 02 3d 71 6f 02 bd 70 be 8a 3c
       -0.013047599 0.03187728 -0.03184456 0.01693651
000290 7f 70 fb ba 50 ae b8 3c 78 00 8c bb fb 52 a6 3c
       -0.0019183307 0.022544056 -0.004272517 0.02030324
0002a0 cd 34 ff bc a9 77 25 3d 02 e0 75 bd a5 1a 1b bc
       -0.031153107 0.04039732 -0.060028084 -0.009466802
0002b0 48 92 3e 3c bb da c4 3d d1 01 38 bd 6e d7 6f bc
       0.011631556 0.09612032 -0.044923607 -0.014638765
0002c0 c5 cd f1 bc cf 6d bb 3b 57 ef bc 3c 10 6f 18 3d
       -0.029517064 0.0057198773 0.023063345 0.037215292
0002d0 7e 97 ab 3d b6 91 39 bd f0 38 da 3b eb 4f e0 ba
       0.08378504 -0.045304976 0.0066596195 -0.0017113661
0002e0 de 3b 30 bd a5 18 51 3c 0f 9f 49 3d 17 d5 26 bd
       -0.043025844 0.012762223 0.049223956 -0.040730562
0002f0 52 d4 35 bd 63 08 1d 3d 1d 04 74 bd c9 75 93 3d
       -0.044391938 0.038338076 -0.059574235 0.072002
000300 f7 5c df bb 25 c6 75 bc fc 75 2d bd a8 1f 35 bc
       -0.006816502 -0.015000855 -0.042348847 -0.011054911
000310 62 cf 06 bd eb 5b f6 3c 6b 8a 38 bc 24 9c ba 3c
       -0.03291262 0.030073127 -0.01126347 0.022779532
000320 63 3b ca bc d1 ff a3 3c 08 ff 40 3c ff 15 d6 3b
       -0.02468652 0.020019444 0.011779554 0.006533384
000330 b5 fe f7 3c 21 73 1d bd ba 4b e6 3c a2 de 31 3c
       0.030272821 -0.038439874 0.028112281 0.010856302
000340 31 64 65 bc 94 04 bd 3c 08 4e 72 3d 76 dc 0a 3d
       -0.014000938 0.023073472 0.059156448 0.033901654
000350 2a 50 3a bd c3 b7 83 3b ac cc 05 bd 97 43 d1 3c
       -0.045486607 0.004019709 -0.032665893 0.025544925
000360 c3 60 2d bc a8 f0 bc bb c2 ec 1b bb 0b 1c 79 3c
       -0.010582152 -0.005765993 -0.0023792242 0.01520444
000370 08 fe ae 3c 19 77 81 3d 1b 4c 72 bc 7e 7f 56 3c
       0.021361366 0.06321544 -0.014788653 0.01309192
000380 c4 8a 14 bd a9 71 f4 3c 92 9e f9 3c c1 90 aa 3a
       -0.03626515 0.029839354 0.03047112 0.0013013111
000390 e0 d3 52 bc 4a f6 31 bd ea ea 1c bc 08 73 4f 3c
       -0.012867898 -0.04344777 -0.009577492 0.012661703
0003a0 8c 2d 2b 3d d3 1f 39 3c ff 45 64 3c d8 e0 32 3c
       0.041791484 0.011299091 0.013932704 0.010917865
0003b0 19 b3 36 3d 91 e8 56 3c 42 64 ec bc 25 73 62 3d
       0.044604395 0.013116972 -0.0288564 0.05528559
0003c0 05 a9 d0 bc 6e 0d cc ba 89 d4 16 bc af 81 1f bd
       -0.02547122 -0.0015567967 -0.009205946 -0.038942035
0003d0 8e 09 6e bc 22 05 50 bd cb b2 2d bc dd d8 3a 3d
       -0.014528645 -0.050786145 -0.01060171 0.045616973
0003e0 b5 28 08 bc 3f 72 58 3b 64 18 d6 bb cc 92 2c bd
       -0.008310487 0.003302708 -0.0065336693 -0.042132184
0003f0 26 a2 66 bd ff 35 26 bc 0a 74 e9 3c a6 b6 2b 3d
       -0.05630698 -0.01014471 0.028497715 0.041922234

actor_mean.4.bias f4 [4]
000000 19 12 63 3c 3e e8 64 bc 11 25 a6 b9 fb 52 aa ba
       0.013859295 -0.0139713865 -0.00031689604 -0.0012994701
