saved_agents/dm_humanoid_a.pth (torch, 80366 bytes, 12 tensors)

actor_logstd f4 [1, 21]
-0.24805254 -0.33714807 -0.24093586 -0.3109175 -0.23683576 -0.27108106 -0.28045744 -0.2618488
-0.26972577 -0.21652225 -0.30449107 -0.29298365 -0.2930958 -0.24128136 -0.2794825 -0.265026
-0.32184744 -0.2702844 -0.29857054 -0.26176926 -0.27617055
00000000: 7c01 7ebe ac9e acbe e4b7 76be 9430 9fbe
00000010: 1385 72be 23cb 8abe 1e98 8fbe 0c11 86be
00000020: 7f19 8abe 02b8 5dbe 41e6 9bbe f401 96be
00000030: a710 96be 7612 77be 5518 8fbe 7db1 87be
00000040: 30c9 a4be b862 8abe 3dde 98be 9f06 86be
00000050: 3a66 8dbe

critic.0.weight f4 [64, 69]
-0.30986184 -0.003350602 0.33139873 -0.03779598 -0.38477418 0.14778672 -0.21713258 0.25308996
0.41125727 -0.19959906 0.37967086 0.15588301 0.097276576 0.40745932 0.22333948 -0.30699515
-0.026834697 -0.07256357 -0.08588315 0.072961226 -0.03274944 0.28185856 0.3544863 0.005358031
-0.096703574 0.08889161 0.18923615 0.33588526 0.11377884 -0.024248624 0.0715446 0.009798197
0.4222843 -0.047382303 0.09873032 -0.11981865 -0.42033714 0.08369384 0.12511188 -0.09480106
-0.22244364 -0.12377153 -0.19750558 0.018203981 0.2073822 -0.09054551 -0.25607774 -0.16503447
0.044212703 0.03295895 -0.011054165 -0.15566927 0.015613104 0.10936629 0.04023754 0.045214914
-0.034330625 -0.20491686 0.18361714 -0.11820399 0.023260456 -0.3155262 0.11583615 -0.17773236
0.31433177 0.03398299 0.38358855 -0.64335406 0.33343038 0.50571984 0.036443572 0.06011943
0.37402874 0.32754976 -0.16843349 0.2606613 0.29875046 -0.4393117 0.45496845 -0.25082785
-0.014460227 0.029237958 -0.13364583 -0.63357764 0.65592134 0.35635924 -0.37965515 0.06404328
-0.49674335 -0.071330674 -0.23388956 -0.16827613 0.27224606 0.20671162 -0.40493533 -0.11519091
-0.41922566 -0.50754523 -0.26054668 0.15556855 -0.23894745 0.14269678 -0.17155288 0.16030368
-0.017765848 0.089502074 0.3805655 0.10656691 -0.09282119 0.047041286 -0.062247306 0.16867632
0.06517964 -0.09431249 0.033105504 0.05140415 -0.08286002 0.07401877 0.0709181 -0.035649568
-0.014428089 0.036770195 0.0052699866 -0.021480909 -0.065371215 -0.028834179 -0.00084579753 0.018978449
0.022889161 -0.016844414 -0.014649659 0.04523522 0.05193963 0.029084766 -0.06552669 -0.005553806
-0.2628659 1.3405666 -0.63995594 0.06620281 -0.18922512 0.19306572 0.46263123 0.039053056
0.12758835 0.3186814 -0.38306385 0.37672755 -0.19251849 0.13821922 0.26285106 0.19978143
0.092068665 0.29715335 0.11128592 -0.35541126 -0.18628305 0.062108535 0.069017164 -0.06562415
-0.39608032 -0.28991655 0.4365236 -0.046014935 -0.09683066 -0.0044586654 -0.035689943 0.027158065
0.16352884 0.35423762 -0.026338933 0.07085951 -0.06584076 0.12704687 -0.20832811 0.80411774
0.040569037 -0.08484371 -0.25929666 0.11162515 -0.101452574 -0.032026555 0.13041295 -0.06871778
0.05418981 -0.08762164 0.02151987 -0.036610402 0.07100081 -0.13805766 -0.32986096 -0.05370803
-0.11001733 0.04826414 -0.0034543336 0.01780404 -0.14707547 -0.0039519374 -0.043578003 0.04447565
0.32185286 -0.119170055 0.011524548 -0.12369229 -0.15470147 1.2127457 -0.6066394 -0.6964587
-0.10472647 0.113338806 -0.13422611 0.14996189 -0.25189474 0.027108612 -0.38330227 -0.16331318
-0.14185272 0.072933316 0.23969461 -0.1268183 -0.07462089 0.22484285 -0.2008521 -0.08872964
0.009724629 0.15369402 0.019073483 0.46612996 0.18904874 0.14907193 0.13865738 0.0964431
0.044587668 -0.009845715 -0.19932349 -0.2628936 -0.3085042 -0.20212334 -0.21897814 0.17672728
0.1768646 0.011646698 0.27491117 0.10808941 -0.26302728 0.051718228 0.21620783 0.044544697
0.15142769 0.33442044 -0.028998747 0.15044612 -0.002098211 0.07307281 -0.12074083 0.27511305
00000000: 36a6 9ebe c695 5bbb 18ad a93e f5cf 1abd
00000010: 1f01 c5be 6755 173e 0158 5ebe 0295 813e
00000020: 5090 d23e b263 4cbe 3864 c23e cc9f 1f3e
00000030: f138 c73d 829e d03e 1bb3 643e 782e 9dbe
00000040: 70d4 dbbc 369c 94bd 81e3 afbd b26c 953d
00000050: 4724 06bd c44f 903e 3a7f b53e 6c92 af3b
00000060: 860c c6bd ce0c b63d 1fc7 413e 27f9 ab3e
00000070: e104 e93d 0da5 c6bc fa85 923d 9e88 203c
00000080: a635 d83e f213 42bd 1f33 ca3d 7b63 f5bd
00000090: 6e36 d7be ad67 ab3d 541d 003e 0f27 c2bd
000000a0: 44c8 63be ee7b fdbd e73e 4abe 8420 953c
000000b0: 005c 543e ed6f b9bd 9f1c 83be ccfe 28be
000000c0: 6118 353d f7ff 063d 871c 35bc c467 1fbe
000000d0: 1bce 7f3c 6ffb df3d 1ed0 243d 4633 393d
000000e0: 459e 0cbd bad5 51be 2206 3c3e ef14 f2bd
000000f0: b68c be3c a68c a1be 813b ed3d 79ff 35be
00000100: 18f0 a03e bf31 0b3d b865 c43e dab2 24bf
00000110: 63b7 aa3e db76 013f db45 153d cb3f 763d
00000120: b280 bf3e 9ab4 a73e d479 2cbe 6675 853e
00000130: d2f5 983e 77ed e0be a0f1 e83e 826c 80be
00000140: 97ea 6cbc 7184 ef3c 74da 08be 2532 22bf
00000150: 76ea 273f b874 b63e 2962 c2be 2029 833d
00000160: 2555 febe d115 92bd bf80 6fbe 9450 2cbe
00000170: d663 8b3e 36ac 533e af53 cfbe 36e9 ebbd
00000180: bfa4 d6be 7cee 01bf 6066 85be 5d4d 1f3e
00000190: a4ae 74be 1b1f 123e 8fab 2fbe a626 243e
000001a0: af89 91bc dd4c b73d 7bd9 c23e c13f da3d
000001b0: 0919 bebd 5dae 403d 08f7 7ebd 7cb9 2c3e
000001c0: e77c 853d e826 c1bd a399 073d 288d 523d
000001d0: 84b2 a9bd 2797 973d 823d 913d 4805 12bd
000001e0: cb63 6cbc 589c 163d daaf ac3b bbf8 afbc
000001f0: 58e1 85bd a835 ecbc 83b8 5dba b178 9b3c
00000200: 0d82 bb3c 4cfd 89bc 2005 70bc 9148 393d
00000210: a6be 543d 2d43 ee3c db32 86bd b4fc b5bb
00000220: 5c96 86be b097 ab3f 27d4 23bf 5795 873d
00000230: 3bc4 41be 05b3 453e 00de ec3e 19f6 1f3d
00000240: 85a6 023e 352a a33e f220 c4be 6fe2 c03e
00000250: 9123 45be 5789 0d3e 6a94 863e 8193 4c3e
00000260: 7f8e bc3d 7c24 983e dfe9 e33d 77f8 b5be
00000270: fcc0 3ebe 8565 7e3d df58 8d3d f465 86bd
00000280: 0acb cabe f16f 94be 0580 df3e 287a 3cbd
00000290: 274f c6bd ff19 92bb 9e2f 12bd 977a de3c
000002a0: 1b74 273e a25e b53e bfc4 d7bc ca1e 913d
000002b0: 85d7 86bd 9318 023e f753 55be a9da 4d3f
000002c0: b82b 263d 8ac2 adbd 88c2 84be ba9b e43d
000002d0: 5ec6 cfbd 472e 03bd f98a 053e e8bb 8cbd
000002e0: 22f6 5d3d f972 b3bd 704a b03c caf4 15bd
000002f0: df68 913d fd5e 0dbe 89e3 a8be f4fc 5bbd
00000300: c450 e1bd 9eb0 453d 1a62 62bb c7d9 913c
00000310: f49a 16be 417f 81bb d97e 32bd 192c 363d
00000320: e6c9 a43e 6e0f f4bd 75d1 3c3c 6252 fdbd
00000330: 106a 1ebe 403b 9b3f b84c 1bbf 1e4b 32bf
00000340: d57a d6bd 2d1e e83d 9272 09be 9c8f 193e
00000350: 59f8 80be e112 de3c 3240 c4be 923b 27be
00000360: d741 11be 105e 953d 8172 753e a8dc 01be
00000370: d6d2 98bd 343d 663e 2cac 4dbe e3b7 b5bd
00000380: 0d54 1f3c f761 1d3e fe3f 9c3c 96a8 ee3e
00000390: fe95 413e 50a6 183e 33fc 0d3e f683 c53d
000003a0: 8fa1 363d ec4f 21bc 751b 4cbe fd99 86be
000003b0: 43f4 9dbe 6cf9 4ebe ce3b 60be fff7 343e
000003c0: fe1b 353e cbd1 3e3c 28c1 8c3e fb5d dd3d
000003d0: 83ab 86be 7ed6 533d 9665 5d3e 8074 363d
000003e0: dc0f 1b3e 2839 ab3e c88e edbc 8c0e 1a3e
000003f0: 2482 09bb 33a7 953d f846 f7bd 9edb 8c3e

critic.0.bias f4 [64]
-0.18323271 0.53795725 0.22862408 -0.094824605 0.0111038415 0.29467934 -0.039302178 0.22893028
0.09728615 -0.21569031 0.24413748 0.27093622 0.15007775 -0.2507757 -0.18484686 0.036813367
-0.70486885 -0.31599495 0.13325493 -0.1295421 0.5064989 0.22315848 -0.38810602 -0.016397886
-0.3836276 -0.47061342 0.31793433 0.14755759 -0.29424706 0.3087288 0.4462316 0.14297868
-0.20892425 0.38754743 -0.18557839 0.077053286 0.31041428 -0.12065195 0.6090306 0.024981083
0.24984656 -0.09429494 0.30812067 0.39377153 -0.06309652 0.31743604 0.019619945 0.37113664
0.27945954 -0.24382466 -0.3096313 -0.19684541 -0.3265858 0.14906898 -0.3117837 -0.3523728
-0.37962207 -0.2802479 0.42268997 -0.4087475 -0.2849766 0.06649388 -0.30844292 0.2525295
00000000: 5ba1 3bbe 91b7 093f 6e1c 6a3e 6733 c2bd
00000010: e3ec 353c 36e0 963e 52fb 20bd b36c 6a3e
00000020: f63d c73d ecdd 5cbe 2dff 793e 27b8 8a3e
00000030: fbad 193e ac65 80be 7f48 3dbe 9dc9 163d
00000040: 4972 34bf 17ca a1be fb73 083e afa6 04be
00000050: e9a9 013f a883 643e d5b5 c6be dc54 86bc
00000060: d66a c4be 3ef4 f0be 4ac8 a23e 5619 173e
00000070: 8da7 96be b411 9e3e 7878 e43e 0169 123e
00000080: 3df0 55be 9e6c c63e 4308 3ebe 1dce 9d3d
00000090: 9fee 9e3e 5f18 f7bd 6ee9 1b3f 21a5 cc3c
000000a0: c7d7 7f3e b51d c1bd fec1 9d3e 6c9c c93e
000000b0: c038 81bd fa86 a23e 02ba a03c 9f05 be3e
000000c0: 5215 8f3e 2cad 79be fe87 9ebe d891 49be
000000d0: 4136 a7be 8aa5 183e 1da2 9fbe 356a b4be
000000e0: d35d c2be a77c 8fbe d26a d83e 5a47 d1be
000000f0: 74e8 91be f12d 883d 3bec 9dbe 8c4b 813e

critic.2.weight f4 [64, 64]
-0.387205 -0.06450552 0.0033443607 -0.10802562 -0.050068315 -0.17842335 -0.06973853 -0.26527524
-0.0894775 0.03514184 -0.054656338 -0.25899792 0.14948195 0.302292 0.18122776 0.051677585
0.14512007 -0.3446426 0.14588939 0.23549119 0.13262072 -0.18332389 0.08118478 0.13527536
0.07964035 -0.0871038 0.26072976 0.24714713 -0.24060087 -0.032819748 0.06698401 -0.1239506
-0.2597 0.25285748 0.059202 0.03956602 0.027206834 0.13814597 -0.26656154 -0.23546427
0.17285869 0.1151452 -0.06406385 0.04410217 0.05441764 0.19924521 -0.48836878 -0.031117352
-0.079748474 -0.16059533 0.22983031 0.115352154 -0.08145947 0.2868023 0.30893865 0.11676771
0.0072393776 -0.07547309 -0.122838154 -0.11579124 0.13774738 0.046841975 0.2225565 0.20012026
0.012026268 -0.11544809 0.15300165 -0.12969942 -0.0980833 0.4840391 -0.27636582 0.08873672
0.1630007 0.1416309 -0.13902079 -0.4035736 -0.19281986 0.024078825 -0.13457137 0.2347675
-0.12770213 -0.085609175 -0.036900643 0.09207814 -0.19179435 -0.018876232 0.10756345 0.046195976
-0.23023431 0.20160858 -0.1648326 -0.07966887 0.10826895 -0.04018491 0.034634132 0.1296849
-0.30019915 0.097061105 -0.00057717 -0.23656465 -0.21148631 0.036486976 0.30844945 -0.17208506
-0.03951908 0.08641529 -0.04469126 0.08569454 -0.0982162 0.13728724 0.63654715 -0.14889503
-0.22364688 0.0045173536 -0.072230935 0.11251026 -0.119241804 -0.16103397 0.19699673 0.14066114
0.16850333 -0.003798874 0.08534793 0.30186114 -0.15766501 0.12881106 -0.008257398 -0.013164759
-0.13636716 0.38339487 0.01930407 0.28909433 0.012373238 0.1621897 0.20388286 0.03948779
-0.39886954 -0.2373502 -0.027059302 -0.024847103 0.056021154 0.2851331 0.21659482 0.26181573
-0.106470965 0.008830162 0.20024487 0.071354985 -0.10633223 -0.09634521 -0.019203236 -0.114436865
-0.019068511 0.04198273 -0.22232363 -0.09372624 0.11955103 0.08988876 -0.059547845 0.049538106
0.016253086 0.013202802 -0.023114203 -0.038311593 -0.0034979738 0.038327347 0.47166 -0.19231313
0.1277563 0.004749544 -0.4164708 -0.1493169 0.24710609 -0.27226564 0.47709337 0.106955834
0.009171425 -0.36454618 -0.16786222 0.09479808 0.30487308 0.14352265 0.1367397 0.13199292
-0.1158464 0.21883634 -0.066662244 -0.057609163 0.2512798 0.07772925 -0.070089005 0.068584114
-0.23651578 0.09942522 0.26986855 0.26229528 0.14683108 0.20489568 -0.12953974 -0.1868108
-0.015572725 -0.17040916 0.0754688 0.10470731 0.15889555 -0.21544854 -0.009189218 0.04909947
-0.0019024841 -0.035002086 -0.042025395 0.23230313 0.3210282 -0.27451503 -0.2994161 -0.2576718
-0.3914964 0.17134802 0.018731927 0.07179486 0.07922855 0.10132435 -0.10307274 -0.04225358
0.12903692 -0.16158786 -0.28244296 -0.17093368 0.06722987 -0.06836707 0.097560555 -0.08727614
0.11531485 -0.048851296 0.0434645 0.34583315 -0.15503985 0.054810964 0.5696811 0.18483247
1.3910178e-05 0.039767366 -0.13080506 0.185748 -0.06060154 -0.035229564 -0.17936847 0.23411538
0.119116716 -0.12138405 -0.08866369 -0.026012555 -0.11837879 0.06675612 0.1851195 -0.05500338
00000000: bc3f c6be 781b 84bd 102d 5b3b 893c ddbd
00000010: 6f14 4dbd 9cb4 36be 13d3 8ebd 28d2 87be
00000020: fb3f b7bd e4f0 0f3d 53df 5fbd 609b 84be
00000030: cc11 193e 04c6 9a3e c593 393e e0ab 533d
00000040: 5b9a 143e ff74 b0be 0764 153e 9a24 713e
00000050: bacd 073e 42b9 3bbe 3544 a63d a085 0a3e
00000060: 7b1a a33d 7a63 b2bd 5f7e 853e 2314 7d3e
00000070: 1360 76be 006e 06bd ea2e 893d d0d9 fdbd
00000080: 66f7 84be 8976 813e cc7d 723d fb0f 223d
00000090: dee0 de3c 2376 0d3e c17a 88be 8c1d 71be
000000a0: de01 313e 3fd1 eb3d e833 83bd 7aa4 343d
000000b0: 08e5 5e3d f006 4c3e 790b fabe d1e9 febc
000000c0: 2b53 a3bd 1a73 24be a358 6b3e c03d ec3d
000000d0: 39d4 a6bd c0d7 923e 352d 9e3e e923 ef3d
000000e0: 4d38 ed3b a391 9abd 9292 fbbd f523 edbd
000000f0: a60d 0d3e 5fdd 3f3d dae5 633e 53ec 4c3e
00000100: d309 453c 0c70 ecbd 77ac 1c3e edcf 04be
00000110: e6df c8bd f9d3 f73e d27f 8dbe 99bb b53d
00000120: a8e9 263e b107 113e 775b 0ebe 33a1 cebe
00000130: 9272 45be f540 c53c 14cd 09be e466 703e
00000140: 59c4 02be dd53 afbd 2125 17bd 7793 bc3d
00000150: bd65 44be 54a2 9abc 3a4a dc3d fe37 3d3d
00000160: 8bc2 6bbe 7b72 4e3e e1c9 28be 6f29 a3bd
00000170: 1cbc dd3d ef98 24bd 85dc 0d3d 1ecc 043e
00000180: b4b3 99be f9c7 c63d 394d 17ba 013e 72be
00000190: de8f 58be 5e73 153d 16ed 9d3e 1137 30be
000001a0: c2de 21bd 80fa b03d 2f0e 37bd 9e80 af3d
000001b0: 9325 c9bd 0795 0c3e c1f4 223f f077 18be
000001c0: b003 65be 4f06 943b d0ed 93bd c76b e63d
000001d0: 0c35 f4bd 17e6 24be 83b9 493e 7909 103e
000001e0: 238c 2c3e 88f6 78bb e5ca ae3d 8b8d 9a3e
000001f0: f072 21be 0ce7 033e 0a4a 07bc 00b1 57bc
00000200: d5a3 0bbe 554c c43e 9223 9e3c 2c04 943e
00000210: 1fb9 4a3c 0f15 263e abc6 503e f3bd 213d
00000220: a138 ccbe ee0b 73be 78ab ddbc 278c cbbc
00000230: 7076 653d f7fc 913e 08cb 5d3e b60c 863e
00000240: 730d dabd 62ac 103c fe0c 4d3e 9022 923d
00000250: b6c4 d9bd a350 c5bd 1b50 9dbc e05d eabd
00000260: 9135 9cbc 15f6 2b3d cea8 63be 8bf3 bfbd
00000270: 2cd7 f43d 9917 b83d 71e8 73bd 78e8 4a3d
00000280: 3125 853c 9150 583c ff59 bdbc 9eec 1cbd
00000290: 433e 65bb 23fd 1c3d 6b7d f13e bced 44be
000002a0: 8cd2 023e 10a2 9b3b a93b d5be 88e6 18be
000002b0: 6109 7d3e 6766 8bbe 9545 f43e a90b db3d
000002c0: bf43 163c cca5 babe 13e4 2bbe 7f25 c23d
000002d0: 5318 9c3e 9af7 123e 7e05 0c3e 2729 073e
000002e0: e140 edbd a216 603e 3786 88bd 96f7 6bbd
000002f0: bfa7 803e 8330 9f3d d38a 8fbd d475 8c3d
00000300: 3131 72be 739f cb3d 362c 8a3e 914b 863e
00000310: e35a 163e 2cd0 513e 11a6 04be 554b 3fbe
00000320: be24 7fbc bd7f 2ebe 638f 9a3d c970 d63d
00000330: 84b5 223e 8b9e 5cbe 608e 16bc 871c 493d
00000340: c65c f9ba 595e 0fbd d222 2cbd dfe0 6d3e
00000350: cf5d a43e 3c8d 8cbe 114d 99be 8fed 83be
00000360: 3772 c8be db75 2f3e b373 993c 2f09 933d
00000370: 9442 a23d 2483 cf3d cd17 d3bd 1712 2dbd
00000380: 4122 043e 4a77 25be 5d9c 90be 3d09 2fbe
00000390: d0af 893d 0904 8cbd d4cd c73d d5bd b2bd
000003a0: 312a ec3d 4c18 48bd d507 323d 0b11 b13e
000003b0: c4c2 1ebe 7681 603d 9fd6 113f b944 3d3e
000003c0: c25f 6937 1be3 223d c3f1 05be b934 3e3e
000003d0: 5239 78bd e04c 10bd 5eac 37be f1bb 6f3e
000003e0: 77f3 f33d 3398 f8bd 4f95 b5bd 4818 d5bc
000003f0: 9470 f2bd 6fb7 883d f78f 3d3e 394b 61bd

critic.2.bias f4 [64]
-0.44927013 0.29746723 0.43150148 0.36837515 -0.4496295 -0.49269515 0.42827702 0.36853153
0.50407505 0.38561383 -0.3929903 -0.5592172 0.41540226 0.4019481 -0.4321121 -0.426048
0.5028324 -0.43214563 0.43105185 -0.37205368 -0.44486266 -0.62063223 -0.6314494 0.4983869
-0.49635845 0.40280682 0.4994494 0.4168624 -0.38030577 -0.45696884 0.52113646 0.49609825
0.5367006 -0.46142957 -0.4453437 -0.43197376 0.52733666 -0.504537 -0.36489218 0.45860642
-0.4352742 -0.34479415 -0.36023575 -0.38236856 0.5947332 -0.44559306 -0.5712522 -0.53942156
0.44470322 0.41914755 -0.57656753 0.46119672 0.32198688 -0.52444214 0.46116364 -0.3359787
0.53806275 -0.4711029 -0.43274269 0.3596325 -0.41119832 -0.382753 0.344112 0.5159203
00000000: bc06 e6be a04d 983e c3ed dc3e ab9b bc3e
00000010: d635 e6be 8a42 fcbe 2047 db3e 2ab0 bc3e
00000020: 100b 013f 2d6f c53e 0636 c9be dc28 0fbf
00000030: 9baf d43e 24cc cd3e cc3d ddbe f722 dabe
00000040: a0b9 003f 3142 ddbe d4b2 dc3e d27d bebe
00000050: 0ac5 e3be c1e1 1ebf aba6 21bf 912c ff3e
00000060: b222 febe b23c ce3e d5b7 ff3e fd6e d53e
00000070: 70b7 c2be d2f7 e9be 3369 053f 9700 fe3e
00000080: 3665 093f 7f40 ecbe 1704 e4be aa2b ddbe
00000090: 89ff 063f 5629 01bf 26d3 babe 76ce ea3e
000000a0: 43dc debe dc88 b0be d270 b8be d0c5 c3be
000000b0: 6f40 183f c624 e4be 963d 12bf 8817 0abf
000000c0: 24b0 e33e 829a d63e ee99 13bf fa21 ec3e
000000d0: 77db a43e d741 06bf a41d ec3e 6605 acbe
000000e0: 7bbe 093f 6634 f1be 7390 ddbe c021 b83e
000000f0: 9688 d2be 34f8 c3be 732f b03e 5a13 043f

critic.4.weight f4 [1, 64]
-0.36856106 0.4389855 0.38040006 0.39194617 -0.39293903 -0.49473965 0.21734653 0.22979045
0.41961586 0.2827307 -0.52611464 -0.3883658 0.52629006 0.39272735 -0.34338176 -0.45757937
0.4347071 -0.40491903 0.30792946 -0.5431151 -0.40095204 -0.34316927 -0.28672504 0.49309552
-0.40571418 0.33103833 0.3846943 0.42615965 -0.58410233 -0.2833042 0.27681673 0.4077751
0.3774693 -0.62310576 -0.35713613 -0.34787032 0.35757655 -0.6374745 -0.3333196 0.2533023
-0.37350115 -0.47863695 -0.30862498 -0.35877547 0.35245058 -0.33774215 -0.4055652 -0.32819492
0.19249566 0.27756 -0.42803994 0.27812853 0.4829505 -0.5776267 0.38482708 -0.40298915
0.34888303 -0.20245178 -0.29003775 0.33025548 -0.41153675 -0.29255065 0.44363758 0.440448
00000000: 09b4 bcbe b5c2 e03e ccc3 c23e 2bad c83e
00000010: 4e2f c9be 844e fdbe 1790 5e3e 304e 6b3e
00000020: e4d7 d63e 14c2 903e 73af 06bf e2d7 c6be
00000030: f2ba 063f 8f13 c93e bccf afbe d847 eabe
00000040: ee91 de3e 8c51 cfbe eea8 9d3e 9709 0bbf
00000050: 9649 cdbe e2b3 afbe a0cd 92be 0477 fc3e
00000060: c5b9 cfbe db7d a93e a7f6 c43e 9931 da3e
00000070: bb87 15bf 400d 91be ecba 8d3e e6c7 d03e
00000080: a843 c13e dc83 1fbf 8cda b6be 0f1c b2be
00000090: 4614 b73e 8731 23bf dea8 aabe d7b0 813e
000000a0: 8b3b bfbe e70f f5be 1804 9ebe 6bb1 b7be
000000b0: 6774 b43e 8aec acbe 3ea6 cfbe 2a09 a8be
000000c0: 951d 453e 581c 8e3e 0d28 dbbe dd66 8e3e
000000d0: 4a45 f73e 58df 13bf 0e08 c53e 9854 cebe
000000e0: cca0 b23e 854f 4fbe d47f 94be 3f17 a93e
000000f0: f2b4 d2be 33c9 95be 7724 e33e 6682 e13e

actor_mean.0.weight f4 [64, 69]
-0.09476497 0.18790652 -0.017572468 0.016799571 -0.22664867 -0.105987296 -0.20838659 -0.13097832
0.3303994 -0.14139149 0.49998388 0.19469821 0.22561194 0.2600017 0.3457515 -0.26198187
-0.25883022 -0.20712383 -0.19640952 -0.059725326 0.14440884 -0.22481582 0.047167823 -0.2518243
0.28592494 0.13485947 -0.19362733 0.24571489 0.24903524 -0.254389 0.12630689 0.14232583
-0.04083572 0.0069581214 -0.13492003 0.20314062 0.20492989 -0.119435914 0.0126768015 -0.04089289
-0.08764102 -0.14627634 -0.33338428 -0.25473028 -0.0026416497 -0.024637388 0.045628898 -0.040240556
-0.18898249 -0.106929325 0.056881703 0.2628859 -0.009734953 -0.33208427 0.0815473 -0.15261872
0.24729168 0.20929274 0.051125947 -0.16252063 0.039798908 -0.25084698 -0.08613718 0.1625166
-0.1703864 -0.06916067 0.21587047 -0.054488014 0.12714551 -0.002716909 0.09898137 0.18515447
-0.23434125 0.22187798 0.4075404 0.14222774 -0.2193325 0.04558471 0.4436056 -0.014894916
0.039742555 -0.078264564 0.10074544 0.13932966 -0.11853035 0.10911526 -0.0620376 0.2727699
0.025961597 0.33078945 -0.060032126 0.06785598 -0.07350209 -0.21148607 0.18353067 -0.0016761855
-0.10837572 -0.07832286 -0.025248311 -0.012097586 0.12710059 0.4824752 -0.19595726 -0.33186692
0.30480492 -0.004158764 -0.076951146 -0.14185847 -0.13658607 -0.19946465 0.25235167 0.25198415
-0.18282023 -0.029510017 0.0017623005 -0.114103146 0.26881307 0.17793433 0.3801265 0.022027325
-0.5068938 0.114074595 -0.047938995 -0.018307604 -0.14191146 0.27442306 -0.27893645 0.09380281
0.023623202 0.015173643 -0.061452333 -0.10799353 0.058157552 0.035932682 0.018289594 0.116659224
0.17047647 0.23042588 0.086452864 -0.09317446 0.29354572 -0.07206418 -0.20827392 -0.11897075
-0.1564514 -0.29691818 -0.15004678 0.04391698 0.048764117 0.048575357 -0.09137374 -0.5214216
0.020437077 0.17483038 -0.19701785 0.073405 0.016824022 -0.08157267 0.0744091 0.15043229
-0.3037021 0.26906034 0.26901665 0.38568592 0.20320877 0.088571995 -0.11350614 0.22745632
0.33716077 0.18455842 0.10227923 -0.037796836 0.01166139 -0.21972114 -0.16535169 0.2144476
0.09140562 -0.03259972 0.12604429 0.10110617 -0.40226647 -0.025272628 0.29328242 -0.120546564
-0.15438142 0.07437547 -0.049131438 0.022368064 -0.15374808 0.21396673 0.03643004 0.17059413
-0.08843708 0.35782096 -0.12061204 0.043610003 0.0018093745 0.0114859305 0.021069696 0.077095516
0.19223234 0.5481951 -0.06746156 -0.0799283 0.07082661 0.16403747 0.040053405 0.24819298
0.054346118 0.32988614 -0.09750775 0.17104462 0.27862173 0.19082756 0.2584253 0.025707185
0.0009079244 -0.080619544 -0.07590812 0.08798463 -0.21675953 -0.20765166 0.41019645 -0.15640214
-0.055512454 0.012616292 -0.0074750115 -0.09473549 0.05831321 -0.09022753 -0.046030972 0.15314272
0.087013714 -0.19846205 -0.123468705 0.08779718 -0.20470843 -0.172408 0.29631314 -0.11952359
-0.44341785 0.22407457 0.37410638 -0.13750838 0.054167286 -0.14455812 -0.1278069 -0.08355534
0.12614167 0.12309074 0.22573344 -0.059577856 0.017521318 0.13893291 -0.16158026 0.061156116
00000000: 2314 c2bd 916a 403e 23f4 8fbc 419f 893c
00000010: 9716 68be de0f d9bd 4b63 55be 2e1f 06be
00000020: 1c2a a93e eec8 10be e3fd ff3e f85e 473e
00000030: d106 673e f11e 853e 5706 b13e 7d22 86be
00000040: 6585 84be 4518 54be 941f 49be 8ba2 74bd
00000050: e9df 133e 1e36 66be 0c33 413d 1def 80be
00000060: c164 923e 9a18 0a3e 3e46 46be af9c 7b3e
00000070: 1803 7f3e 463f 82be 9856 013e ddbd 113e
00000080: 5b43 27bd f400 e43b 7a28 0abe 1804 503e
00000090: 24d9 513e d19a f4bd 5cb2 4f3c 4e7f 27bd
000000a0: 237d b3bd 77c9 15be 58b1 aabe 026c 82be
000000b0: 871f 2dbb 59d4 c9bc 5ee5 3a3d 48d3 24bd
000000c0: a084 41be c3fd dabd cafc 683d fb98 863e
000000d0: 5a7f 1fbc f306 aabe 4502 a73d 1548 1cbe
000000e0: 083a 7d3e d650 563e 7169 513d cf6b 26be
000000f0: 2e04 233d 046f 80be b168 b0bd c06a 263e
00000100: c679 2ebe 1ca4 8dbd 260d 5d3e d32e 5fbd
00000110: 6f32 023e 2b0e 32bb bfb6 ca3d 2299 3d3e
00000120: 27f7 6fbe fb33 633e 23a9 d03e 26a4 113e
00000130: b398 60be 08b7 3a3d 4620 e33e ce09 74bc
00000140: 17c9 223d 2c49 a0bd a053 ce3d 6fac 0e3e
00000150: 0ac0 f2bd d277 df3d 231b 7ebd 7fa8 8b3e
00000160: 6aad d43c 3c5d a93e 3fe4 75bd 13f8 8a3d
00000170: 4488 96bd ce8f 58be 77ef 3b3e 74b3 dbba
00000180: 17f4 ddbd bc67 a0bd 8cd5 cebc f434 46bc
00000190: a826 023e fd06 f73e 05a9 48be 76ea a9be
000001a0: 640f 9c3e 3e46 88bb 9098 9dbd 5943 11be
000001b0: 38dd 0bbe 7640 4cbe 3d34 813e 1104 813e
000001c0: 3a35 3bbe febe f1bc fefc e63a e9ae e9bd
000001d0: dea1 893e 6b34 363e f19f c23e a672 b43c
000001e0: cbc3 01bf f19f e93d ae5b 44bd d4f9 95bc
000001f0: 3d51 11be 2e81 8c3e c2d0 8ebe b01b c03d
00000200: 7285 c13c df9a 783c 71b5 7bbd b62b ddbd
00000210: 9d36 6e3d 262e 133d 0fd4 953c 08eb ee3d
00000220: 6291 2e3e c3f4 6b3e 330e b13d 40d2 bebd
00000230: a04b 963e 6396 93bd c245 55be f0a6 f3bd
00000240: cc34 20be a905 98be dda5 19be 4be2 333d
00000250: e2bc 473d f4f6 463d 2822 bbbd e37b 05bf
00000260: a86b a73c bc06 333e 0cbf 49be 5c55 963d
00000270: 88d2 893c 920f a7bd cc63 983d ec0a 1a3e
00000280: d77e 9bbe 47c2 893e 8dbc 893e a078 c53e
00000290: f615 503e 3c65 b53d e875 e8bd 4fea 683e
000002a0: 56a0 ac3e e2fc 3c3e c677 d13d dbd0 1abd
000002b0: 6a0f 3f3c 94fe 60be f451 29be 2798 5b3e
000002c0: df32 bb3d 4987 05bd c111 013e c010 cf3d
000002d0: dff5 cdbe 8b08 cfbc 1d29 963e 1ee1 f6bd
000002e0: 2a16 1ebe 2b52 983d 0c3e 49bd 3b3d b73c
000002f0: 2370 1dbe 181a 5b3e aa37 153d 3ab0 2e3e
00000300: 801e b5bd 4f34 b73e 7203 f7bd 67a0 323d
00000310: 8928 ed3a 7c2f 3c3c 5b9a ac3c 41e4 9d3d
00000320: 8ed8 443e 8456 0c3f 4929 8abd 73b1 a3bd
00000330: 8b0d 913d 70f9 273e 0a0f 243d 4d26 7e3e
00000340: 099a 5e3d d6e6 a83e 25b2 c7bd 5226 2f3e
00000350: 82a7 8e3e 4d68 433e 5250 843e e097 d23c
00000360: c601 6e3a dc1b a5bd b775 9bbd 4931 b43d
00000370: 36f6 5dbe a3a2 54be 4505 d23e e227 20be
00000380: 0761 63bd 90b4 4e3c f1f0 f4bb ae04 c2bd
00000390: d5d9 6e3d 36c9 b8bd f98a 3cbd 72d1 1c3e
000003a0: 3f34 b23d a339 4bbe 29dd fcbd 02cf b33d
000003b0: 169f 51be b98b 30be 5bb6 973e c9c8 f4bd
000003c0: aa07 e3be ce73 653e df8a bf3e ffce 0cbe
000003d0: 84de 5d3d 0b07 14be d0df 02be 101f abbd
000003e0: 482b 013e ff16 fc3d ab26 673e e907 74bd
000003f0: de88 8f3c 6e44 0e3e 4c75 25be d67e 7a3d

actor_mean.0.bias f4 [64]
-0.14033766 -0.007764739 -0.03404817 0.069298595 -0.021603499 0.019935502 0.010536892 0.19618234
0.039098576 -0.0852886 -0.07272497 0.028737502 -0.05694761 0.09329707 0.041816816 -0.028898682
-0.008786216 -0.021347674 0.02351945 0.096035905 -0.10199829 0.044695634 0.013843197 0.0033341777
-0.14637604 0.07243822 -0.045578502 -0.11540726 -0.015340468 -0.03562534 0.075803295 0.05167348
-0.07346806 -0.04430105 -0.07975037 0.028695358 -0.09144899 -0.037004724 0.009397869 -0.052198756
0.013612459 0.0035369168 0.014510123 0.0073169167 0.14414568 -0.0033545638 0.017003916 0.0095456
0.11342385 -0.013948404 -0.12076243 -0.03866929 0.010103165 -0.10108146 -0.042696662 0.016328651
0.02331917 -0.021420306 -0.00671024 -0.055509366 -0.016929328 0.05412704 0.041787304 0.02620629
00000000: adb4 0fbe 5a6f febb 1876 0bbd 6cec 8d3d
00000010: d2f9 b0bc c74f a33c eea2 2c3c 06e4 483e
00000020: d425 203d caab aebd d4f0 94bd e96a eb3c
00000030: e641 69bd 8912 bf3d 1c48 2b3d eebc ecbc
00000040: 10f4 0fbc 51e1 aebc ddab c03c 79ae c43d
00000050: 7be4 d0bd c512 373d 94ce 623c 3882 5a3b
00000060: 9ae3 15be 7d5a 943d 86b0 3abd a45a ecbd
00000070: 9656 7bbc e0eb 11bd c23e 9b3d 92a7 533d
00000080: 6c76 96bd 0575 35bd 2954 a3bd 8712 eb3c
00000090: 9c49 bbbd 4492 17bd 85f9 193c 5dce 55bd
000000a0: cb06 5f3c 9ecb 673b debb 6d3c bfc2 ef3b
000000b0: ed9a 133e 3ed8 5bbb cc4b 8b3c 2665 1c3c
000000c0: c34a e83d d987 64bc 4b52 f7bd b063 1ebd
000000d0: bf87 253c cc03 cfbd b2e2 2ebd aac3 853c
000000e0: d807 bf3c a379 afbc 93e1 dbbb ca5d 63bd
000000f0: 60af 8abc 51b4 5d3d 2a29 2b3d 93ae d63c

actor_mean.2.weight f4 [64, 64]
0.12068768 -0.08900685 0.42863265 0.0779559 -0.09716681 -0.10733802 -0.25693855 0.2091758
-0.1063042 -0.3130167 -0.017373703 0.0649596 -0.19201963 0.03163721 -0.072373696 -0.22789536
-0.1959117 -0.4121549 0.06653473 -0.007474284 -0.22106002 0.02974608 -0.09495306 -0.24076387
-0.024281083 0.15485772 0.019879386 -0.49056095 0.010920885 -0.000575825 0.12654553 0.15196155
-0.30209634 -0.22537401 0.059607647 -0.01025613 -0.105516635 -0.18966572 0.17799002 -0.109408565
0.035557892 -0.13582934 0.2708932 -0.28997052 0.21206431 -0.31747645 0.023818603 0.22413458
-0.063333996 -0.33103466 -0.056932867 -0.23731945 0.0050358213 -0.1627097 -0.0018228901 0.029960742
0.08316343 -0.05913478 -0.16102315 -0.37762818 0.017551003 -0.26906773 -0.05263296 0.19783945
0.21349388 0.0008433499 0.027699824 0.12519737 -0.013307972 0.15529302 0.044540387 -0.021382535
-0.19064623 0.14728431 -0.13267271 -0.027136093 0.45993948 0.06796155 0.10923072 0.01228733
0.27070048 0.025120297 0.09773561 -0.08501496 0.16366431 -0.19096279 -0.052406374 0.12510891
0.19258982 -0.26934525 0.17573957 0.0125724785 -0.042708106 -0.033945926 -0.35219812 -0.11077263
-0.037042867 -0.28861773 -0.15635438 0.2682068 -0.007511847 -0.016822971 -0.14286323 -0.06787462
-0.21386442 -0.05055442 0.07146341 0.15607624 0.33912438 -0.25154045 0.05681887 0.06264029
-0.28335807 -0.17970517 -0.1122978 -0.026918376 0.26805633 -0.16290769 0.35361347 0.36788392
0.2413933 0.34089205 -0.040626895 -0.08810253 0.23252071 -0.3368234 -0.018756133 0.47917706
0.062553056 0.39291883 0.0030768346 -0.2487204 0.1236473 -0.25234684 -0.12178961 -0.09263551
-0.15745072 -0.2783945 0.09419075 0.14320077 0.21635012 -0.2919203 -0.1643865 0.32725695
0.32730547 0.027677735 0.19084735 -0.36986524 0.08930142 0.028867565 -0.2181813 -0.12015553
0.21063451 -0.023812827 -0.081046246 0.032427076 -0.03788599 -0.05139139 0.11427101 0.07769081
-0.09668886 -0.008179717 0.024538592 0.46430203 -0.32224917 0.39075175 -0.0902635 -0.13038793
0.08747262 -0.12375707 -0.059999824 0.12430647 -0.1160434 -0.13648044 -0.39800638 0.029390467
0.23596068 0.34067684 0.006304347 -0.3318058 0.11006603 0.16814475 0.29367924 0.026595898
-0.07919347 0.015067351 -0.13860983 -0.048749153 0.12449936 -0.04988869 0.21437483 -0.10733104
0.039010257 -0.2165049 -0.23106334 -0.07367773 -0.15900043 -0.13026133 -0.079862565 0.19482984
-0.010193843 -0.3124463 -0.034077987 -0.18620399 -0.047256507 0.052672837 0.10220983 -0.3683445
-0.036636617 0.06166309 -0.01805299 0.3826764 -0.075628564 -0.2930475 0.0022183205 0.21004386
-0.24436563 0.42625174 0.044989273 -0.10599987 0.17746422 0.22683632 -0.3048263 0.07467152
0.45017007 -0.10649163 -0.23590145 0.21353588 0.08177709 0.3377296 -0.19328868 0.122999944
-0.1345107 -0.042644363 -0.18481073 -0.13654312 0.15983385 -0.42236194 -0.23435514 0.04562025
-0.1425537 0.13198128 -0.09971111 -0.11811998 -0.032455683 -0.2518781 -0.066399775 -0.106076114
0.018786531 0.06619948 0.4640314 -0.042583752 0.19994651 -0.0029793913 0.27589467 -0.17582566
00000000: 1a2b f73d 3949 b6bd bd75 db3e 58a7 9f3d
00000010: 64ff c6bd 09d4 dbbd 738d 83be 2e32 563e
00000020: 04b6 d9bd ba43 a0be 4c53 8ebc 8a09 853d
00000030: cba0 44be 0596 013d a938 94bd 675d 69be
00000040: 149d 48be f805 d3be 5c43 883d d7ea f4bb
00000050: 8f5d 62be 0dae f33c c076 c2bd ce8a 76be
00000060: 1fe9 c6bc 0693 1e3e 18da a23c ce2a fbbe
00000070: 83ed 323c f6f2 16ba 2795 013e cf9b 1b3e
00000080: 5fac 9abe 72c8 66be 2627 743d 5409 28bc
00000090: 1b19 d8bd bb37 42be 0443 363e 9911 e0bd
000000a0: 27a5 113d d916 0bbe 83b2 8a3e 0477 94be
000000b0: 6327 593e 468c a2be 3b1f c33c 8983 653e
000000c0: 41b5 81bd 607d a9be 7032 69bd df03 73be
000000d0: 8803 a53b 5f9d 26be 0bee eeba 3b70 f53c
000000e0: 9751 aa3d 5037 72bd 41e3 24be 7b58 c1be
000000f0: 1fc7 8f3c 3fc3 89be a995 57bd 6d96 4a3e
00000100: 249e 5a3e 4114 5d3a beea e23c bd33 003e
00000110: ae09 5abc 2205 1f3e fb6f 363d 6d2a afbc
00000120: c438 43be b3d1 163e 5bdb 07be 834c debc
00000130: 307d eb3e 6d2f 8b3d 5bb4 df3d cc50 493c
00000140: 4199 8a3e 15c9 cd3c 9c29 c83d 531c aebd
00000150: 9e97 273e c08b 43be 11a8 56bd 8d1c 003e
00000160: 4436 453e 9fe7 89be 13f5 333e ccfc 4d3c
00000170: b2ee 2ebd e20a 0bbd 5053 b4be c3dc e2bd
00000180: 43ba 17bd b4c5 93be 5d1b 20be 6752 893e
00000190: f125 f6bb 54d0 89bc bd4a 12be d901 8bbd
000001a0: 46ff 5abe 2712 4fbd 695b 923d 73d2 1f3e
000001b0: b6a1 ad3e e9c9 80be e7ba 683d 8d49 803d
000001c0: 4f14 91be a204 38be 64fc e5bd ed83 dcbc
000001d0: ae3e 893e 46d1 26be d30c b53e 485b bc3e
000001e0: ce2f 773e 6789 ae3e 6368 26bd 196f b4bd
000001f0: e919 6e3e 1e74 acbe 76a6 99bc b256 f53e
00000200: d11b 803d a82c c93e b8a4 493b 8fb0 7ebe
00000210: cc3a fd3d 9b33 81be d56c f9bd b0b7 bdbd
00000220: c33a 21be b989 8ebe 14e7 c03d 39a3 123e
00000230: e38a 5d3e 9476 95be ef54 28be 398e a73e
00000240: 9594 a73e 6bbc e23c 7d6d 433e fa5e bdbe
00000250: aae3 b63d ac7b ec3c eb6a 5fbe 1a14 f6bd
00000260: 93b0 573e 1e13 c3bc 93fb a5bd 41d2 043d
00000270: 572e 1bbd c77f 52bd eb06 ea3d 5c1c 9f3d
00000280: cf04 c6bd 3804 06bc 2805 c93c ffb8 ed3e
00000290: d8fd a4be 9d10 c83e 12dc b8bd 6a84 05be
000002a0: d824 b33d 5974 fdbd 60c2 75bd 6494 fe3d
000002b0: 29a8 edbd 87c1 0bbe 7ec7 cbbe 47c4 f03c
000002c0: ad9f 713e 326d ae3e b294 ce3b 73e2 a9be
000002d0: 4c6a e13d 232e 2c3e 205d 963e a4df d93c
000002e0: 3030 a2bd 0ddd 763c bcef 0dbe 31ad 47bd
000002f0: 85f9 fe3d 1558 4cbd 1385 5b3e 60d0 dbbd
00000300: 38c9 1f3d 76b3 5dbe de9b 6cbe 5ae4 96bd
00000310: 02d1 22be 3a63 05be fc8e a3bd 7981 473e
00000320: 1404 27bc f6f8 9fbe 5c95 0bbd 42ac 3ebe
00000330: 0a90 41bd 79bf 573d 6353 d13d a697 bcbe
00000340: 4710 16bd 7092 7c3d dde3 93bc 29ee c33e
00000350: 26e3 9abd 520a 96be 3e61 113b bd15 573e
00000360: fc3a 7abe ab3d da3e ac46 383d 7616 d9bd
00000370: 2eb9 353e c847 683e 3112 9cbe 62ed 983d
00000380: b17c e63e 4918 dabd 2690 71be 26a9 5a3e
00000390: bf7a a73d e5ea ac3e 78ed 45be 65e7 fb3d
000003a0: 2cbd 09be dbab 2ebd 063f 3dbe f6d1 0bbe
000003b0: 7cab 233e d33f d8be cbfa 6fbe 4ddc 3a3d
000003c0: 99f9 11be 1a26 073e 5735 ccbd e3e8 f1bd
000003d0: 40f0 04bd 2bf6 80be 9bfc 87bd 6f3e d9bd
000003e0: 36e6 993c 9893 873d 8695 ed3e 4d6c 2ebd
000003f0: c7be 4c3e e441 43bb 1142 8d3e a40b 34be

actor_mean.2.bias f4 [64]
0.07274534 0.07735829 -0.009309327 0.056884013 -0.05565627 -0.009480956 0.045556176 -0.006349889
-0.0133340005 0.072835706 0.034725368 0.040478032 0.1540323 -0.016607724 0.041293435 -0.006853662
0.019068506 0.0021312844 0.028441006 0.0071418663 -0.05792841 -0.07051018 -0.0797523 -0.0057587824
0.040383738 0.04477464 -0.04939877 0.024695344 -0.016241034 0.11139083 0.09151503 0.10689565
-0.050387725 -0.03171535 -0.032553315 -0.066362016 0.011291512 -0.017298473 -0.062002853 -0.05878552
0.07592345 0.14786895 -0.016232919 0.05992589 0.092021935 0.13429165 -0.11520997 -0.011144637
-0.06236812 -0.03461184 0.056459572 -0.059648544 -0.024451245 0.044587865 -0.053895783 -0.019860655
0.04769723 -0.10574352 0.013698585 -0.015253787 -0.08479873 -0.0017497126 0.081671834 0.046724804
00000000: 82fb 943d 066e 9e3d 2686 18bc 36ff 683d
00000010: d4f7 63bd 0356 1bbc 1d99 3a3d bb12 d0bb
00000020: da76 5abc e32a 953d 303c 0e3d 4bcc 253d
00000030: a5ba 1d3e ec0c 88bc 4e23 293d af94 e0bb
00000040: 8e35 9c3c 05ad 0b3b 1dfd e83c 5106 ea3b
00000050: 5746 6dbd a467 90bd 2d55 a3bd 2bb4 bcbb
00000060: 6b69 253d 9d65 373d 5d56 4abd e44d ca3c
00000070: eb0b 85bc e020 e43d 3b6c bb3d 1bec da3d
00000080: 5c63 4ebd f4e7 01bd a056 05bd cfe8 87bd
00000090: 0900 393c 87b5 8dbc b4f6 7dbd 16c9 70bd
000000a0: c17d 9b3d f56a 173e e6fa 84bc da74 753d
000000b0: ff75 bc3d c083 093e 34f3 ebbd ff97 36bc
000000c0: b775 7fbd 25c5 0dbd 2742 673d 0852 74bd
000000d0: fa4d c8bc c4a1 363d d3c1 5cbd d0b2 a2bc
000000e0: 2c5e 433d 0f90 d8bd 0870 603c 05eb 79bc
000000f0: f5aa adbd 9d56 e5ba 9043 a73d 8262 3f3d

actor_mean.4.weight f4 [21, 64]
-0.042195674 -0.0037379721 0.02223028 -0.10073145 -0.006200429 -0.04542629 0.08368269 0.038635362
-0.057091516 0.013234278 -0.07167521 -0.043781176 -0.11851093 -0.017189119 -0.008919299 0.1082645
0.06551667 -0.09669319 -0.024238478 0.015512657 0.025925053 0.0974777 0.0018323854 0.063780524
0.03912887 -0.036313962 -0.04494453 0.077007584 0.09424143 0.03781231 -0.049299266 0.027438253
-0.05267586 0.056567322 -0.0038808826 -0.0771051 0.020525156 -0.018028863 0.08272212 -0.016120227
-0.0661165 -0.033167474 0.10268628 0.06777898 0.061546907 -0.032016445 0.10909318 -0.020564197
-0.00554886 -0.007184989 -0.025050653 -0.054587822 -0.0451466 -0.030990256 0.020687087 0.041909978
0.014697599 -0.04306808 0.0018549815 -0.02726745 0.020276157 0.06548584 0.02331597 0.00042555894
0.027595313 0.08317415 0.062046237 -0.019672828 -0.1230178 0.057774715 -0.0726403 -0.054918405
-0.02863458 0.068281345 0.02725117 -0.08422364 0.00036046238 0.04495307 0.03514322 0.025479557
0.009185254 0.0026883974 -0.03915995 -0.062502354 0.13900262 -0.07141584 0.012953834 0.027088195
-0.005578084 -0.033679053 0.024656182 -0.076850064 0.17038986 -0.07981519 0.044693884 0.03208632
-0.033582114 0.036194004 0.003428448 -0.031524647 -0.0036414778 -0.0058549773 0.007653951 0.0134822475
-0.033774793 -0.0014831196 0.010438243 0.017639162 -0.07698789 0.11267869 0.04782121 -0.13853359
0.040784664 -0.018482152 -0.034251668 -0.0648143 0.012720543 0.014933871 0.06737112 0.121688105
0.109200075 0.08914951 0.008325503 0.08097291 0.055985406 0.06346091 -0.031635854 0.007869241
0.04758531 0.017668305 -0.015971621 -0.058083452 -0.058022976 -0.02612837 -0.031452257 0.030810565
-0.0011802376 0.002584324 0.11236591 -0.06509322 -0.05260477 -0.026420243 -0.05831724 -0.017770948
-0.039747585 0.054804157 -0.064793386 0.03355919 0.107161835 0.055851195 0.0686674 -0.045236774
-0.009902194 -0.14399973 0.008270243 0.055684105 0.06618764 -0.022563664 0.01638887 -0.01313788
0.05691836 0.026160961 0.041556668 0.05352826 -0.10184542 -0.010574658 -0.009203759 -0.018178673
0.056064516 -0.024797285 0.04447247 -0.055014595 0.029590612 0.078256615 0.03355203 0.044132017
0.14219119 -0.04108315 -0.023779042 0.009047031 0.013776227 -0.0052958 0.015959535 -0.06743139
-0.03469022 -0.042975485 -0.05015705 0.048498593 -0.026032664 -0.011192878 -0.009004147 -0.032371365
0.0032052319 0.040297806 0.015817504 -0.0058232127 -0.12144225 -0.032457344 -0.05894982 0.009958082
0.08266631 -0.06236204 0.0753716 0.026800215 -0.011644102 0.02926247 0.035252612 -0.005008457
0.05813455 -0.111374706 0.06249546 0.05082373 -0.017644675 -0.019665794 -0.04051308 -0.013552799
-0.08966516 0.05709693 -0.033619154 0.053642917 -0.031874243 0.038796294 0.022655237 0.009139802
-0.04626692 -0.0015325537 0.019782033 0.022879606 0.014695899 0.04349811 -0.034453552 -0.013535145
-0.018853027 0.03109796 0.041643452 0.030649187 0.04357893 0.03578408 -0.023195235 0.07601496
-0.044210058 -0.10654143 0.010186912 -0.014023351 -0.02685491 -0.029320968 -0.023069847 0.007022396
-0.04195715 -0.012965547 0.08752006 0.04684774 -0.07540415 -0.028001808 -0.078476004 -0.05888941
00000000: 5fd5 2cbd c4f8 74bb 471c b63c 4a4c cebd
00000010: f82c cbbb eb10 3abd d561 ab3d 1d40 1e3d
00000020: cbd8 69bd 96d4 583c 74ca 92bd e453 33bd
00000030: dcb5 f2bd 32d0 8cbc 4022 12bc c7b9 dd3d
00000040: 9b2d 863d 1407 c6bd c68f c6bc cd28 7e3c
00000050: c760 d43c 63a2 c73d a72c f03a 5d9f 823d
00000060: 9845 203d f3bd 14bd c117 38bd 27b6 9d3d
00000070: a701 c13d 15e1 1a3d 07ee 49bd 30c6 e03c
00000080: a4c2 57bd 23b3 673d 6856 7ebb 47e9 9dbd
00000090: 5f24 a83c 44b1 93bc 376a a93d 910e 84bc
000000a0: 1668 87bd 9eda 07bd 2f4d d23d b5cf 8a3d
000000b0: 9c18 7c3d ad23 03bd 3f6c df3d 3f76 a8bc
000000c0: 36d3 b5bb 0e70 ebbb 0737 cdbc 7b97 5fbd
000000d0: a4eb 38bd 47df fdbc f777 a93c cca9 2b3d
000000e0: 33ce 703c 2868 30bd da22 f33a fd5f dfbc
000000f0: 2f1a a63c 711d 863d 2201 bf3c 8e1d df39
00000100: 910f e23c 3557 aa3d 3224 7e3d e928 a1bc
00000110: c2f0 fbbd 2ea5 6c3d 70c4 94bd 1ff2 60bd
00000120: 1193 eabc 17d7 8b3d d83d df3c 727d acbd
00000130: 71fc bc39 b620 383d 56f2 0f3d 81ba d03c
00000140: bf7d 163c d32f 303b 2f66 20bd 3c01 80bd
00000150: b456 0e3e 7842 92bd 513c 543c 10e8 dd3c
00000160: 5cc8 b6bb 0cf3 09bd c3fb c93c 9163 9dbd
00000170: ae7a 2e3e 2576 a3bd ef10 373d f26c 033d
00000180: 668d 09bd 2a40 143d d0af 603b fd1f 01bd
00000190: dca5 6ebb 1cdb bfbb ffcd fa3b a5e4 5c3c
000001a0: 7057 0abd 3c65 c2ba 2a05 2b3c 0180 903c
000001b0: d4ab 9dbd 16c4 e63d 2ce0 433d c0db 0dbe
000001c0: d20d 273d e267 97bc 7a4b 0cbd 5cbd 84bd
000001d0: d369 503c 32ad 743c dff9 893d 9d37 f93d
000001e0: 4aa4 df3d 0594 b63d b167 083c 20d5 a53d
000001f0: f450 653d cbf7 813d 9994 01bd fded 003c
00000200: d0e8 423d 1fbd 903c ebd6 82bc eae8 6dbd
00000210: 80a9 6dbd 2a0b d6bc 15d4 00bd 7066 fc3c
00000220: 34b2 9aba c35d 293b 1920 e63d 984f 85bd
00000230: 1978 57bd 446f d8bc 0fde 6ebd 6194 91bc
00000240: 5dce 22bd 537a 603d 65b2 84bd 5c75 093d
00000250: aa77 db3d 39c4 643d 7ea1 8c3d 324a 39bd
00000260: d03c 22bc aa74 13be ea7f 073c 0415 643d
00000270: 638d 873d 6fd7 b8bc f441 863c 4340 57bc
00000280: 3a23 693d 834f d63c 5337 2a3d 7340 5b3d
00000290: 5594 d0bd 5541 2dbc 5dcb 16bc 71eb 94bc
000002a0: e8a3 653d ad23 cbbc c428 363d fc56 61bd
000002b0: 0368 f23c 0145 a03d da6d 093d c6c3 343d
000002c0: 919a 113e ce46 28bd 44cc c2bc 003a 143c
000002d0: afb5 613c 6488 adbb 92bd 823c 7819 8abd
000002e0: 5517 0ebd 1007 30bd 7b71 4dbd 76a6 463d
000002f0: 7442 d5bc 5562 37bc 2186 13bc d697 04bd
00000300: de0e 523b 500f 253d b693 813c a6d0 bebb
00000310: b7b6 f8bd fef1 04bd 5e75 71bd 3927 233c
00000320: f44c a93d 576f 7fbd 6d5c 9a3d 208c db3c
00000330: e7c6 3ebc d9b7 ef3c 0b65 103d fc1d a4bb
00000340: 7e1e 6e3d 6c18 e4bd 3dfb 7f3d 8b2c 503d
00000350: 918b 90bc 291a a1bc 0bf1 25bd 8f0c 5ebc
00000360: 5ea2 b7bd 78de 693d 3db4 09bd adb8 5b3d
00000370: 918e 02bd dde8 1e3d 7a97 b93c 1cbf 153c
00000380: 6282 3dbd f8df c8ba ee0d a23c 036e bb3c
00000390: 11c7 703c 132b 323d 2b1f 0dbd 83c2 5dbc
000003a0: aa71 9abc 26c1 fe3c 5392 2a3d 0114 fb3c
000003b0: d27f 323d 5492 123d ef03 bebc bbad 9b3d
000003c0: 9b15 35bd 6532 dabd 01e7 263c 32c2 65bc
000003d0: d4fe dbbc 8732 f0bc fafc bcbc 211c e63b
000003e0: 43db 2bbd 726d 54bc b83d b33d 6ae3 3f3d
000003f0: 7e6d 9abd 0c64 e5bc 07b8 a0bd 0636 71bd

actor_mean.4.bias f4 [21]
-0.01905952 0.0037148185 -0.045710657 0.008822338 -0.010431996 -0.018778004 -0.024807297 -0.029194653
-0.0020893263 0.04222828 -0.044642773 0.03383748 0.022781497 -0.11810642 0.023808643 0.0410365
-0.024297163 0.005302511 -0.026678115 -0.016097771 -0.026644425
00000000: b622 9cbc 5074 733b 193b 3bbd 918b 103c
00000010: f6ea 2abc 54d4 99bc ac38 cbbc a029 efbc
00000020: 14ed 08bb 90f7 2c3d 57db 36bd 2b99 0a3d
00000030: 43a0 ba3c c7e1 f1bd 580a c33c e415 283d
00000040: d80a c7bc b0c0 ad3b 108c dabc 79df 83bc
00000050: 6945 dabc
