saved_agents/dm_hopper_c.pth (torch, 112341 bytes, 26 tensors)

actor_logstd f4 [1, 4]
0	0xbf5acadf	-0.85465807
1	0xbf4781d1	-0.7793246
2	0xbf5a1ff9	-0.85205036
3	0xbf313a20	-0.69229317

critic.0.weight f4 [64, 17]
0	0x3db48cea	0.0881594
1	0x3e1db8c3	0.15402512
2	0x3ebb8e3e	0.3663196
3	0x3e8cacf2	0.27475697
4	0xbefb9143	-0.49134263
5	0xbf1bf857	-0.6092581
6	0xbe274dd3	-0.16338281
7	0x3dac18f1	0.08403195
8	0xbe6e883e	-0.2329416
9	0xbe33a7b6	-0.17544445
10	0xbd1ea3b0	-0.038730323
11	0xbeb39c13	-0.35080013
12	0xbc06dce2	-0.0082313735
13	0xbc3662e8	-0.0111319795
14	0xbcfbd07b	-0.03073906
15	0xbe56a52c	-0.20961446
16	0xbe700eea	-0.2344319
17	0xbe2e5f05	-0.17028435
18	0xbea628a9	-0.32452896
19	0xbd5f6648	-0.054540902
20	0xbe95731c	-0.29189384
21	0x3ec3c2db	0.382346
22	0x3e94b755	0.2904612
23	0xbc80ded5	-0.015731255
24	0x3ec9bd9e	0.3940248
25	0xbe162d99	-0.14665832
26	0xbd9ea6b1	-0.077466376
27	0xbe8d69c1	-0.27619746
28	0xbe047a28	-0.12937224
29	0xbdbf1ec2	-0.093320385
30	0xbec5695e	-0.3855695
31	0x3d43f76f	0.047843393
32	0x3e8ffcfb	0.28122696
33	0x3c07baa5	0.008284246
34	0xbc8b14aa	-0.016977627
35	0xbde3d6a0	-0.11124921
36	0xbefa06ed	-0.4883341
37	0xbdb968dd	-0.09053204
38	0xbe73c7bf	-0.23806666
39	0xbd2401bf	-0.040040728
40	0x3e42d3b2	0.19026068
41	0xbd340b48	-0.04395607
42	0x3e7311c9	0.23737253
43	0x3dc44193	0.0958282
44	0x3e37dba3	0.17954879
45	0xbb41d038	-0.002957357
46	0xbe1a7cf8	-0.15086734
47	0x3d217c7f	0.03942537
48	0x3dbbe2dc	0.09174129
49	0x3ea2beea	0.3178628
50	0x3eeaca4d	0.45857468
51	0xbe513c0c	-0.20433062
52	0xbc9ad326	-0.018899512
53	0x3e990bfd	0.2989196
54	0xbe397b2b	-0.18113391
55	0xbe90f5b5	-0.2831246
56	0x3ecf664f	0.40507743
57	0xbe07962d	-0.13240881
58	0xbdd1a5f6	-0.10236733
59	0x3d6822b7	0.05667373
60	0xbde0115f	-0.10940813
61	0xbe2e2deb	-0.17009704
62	0xbdeddad8	-0.11614007
63	0xbbc2c292	-0.0059436047
64	0x3e5038aa	0.20334116
65	0xbe90f681	-0.28313068
66	0x3e360984	0.17777067
67	0x3e220608	0.15822613
68	0xbe855801	-0.26043704
69	0xbe78079b	-0.24221651
70	0xbdea7517	-0.11448114
71	0xbeb06a3c	-0.3445605
72	0xbebde597	-0.37089226
73	0xbdbf7844	-0.09349111
74	0x3e0a9344	0.1353274
75	0x3d242be6	0.040080927
76	0xbec4b654	-0.38420355
77	0xbd976090	-0.07391465
78	0xbddb54ea	-0.107095554
79	0xbbdc81b2	-0.006729328
80	0x3dee544a	0.116371706
81	0x3c38aabf	0.011271178
82	0x3e2c850f	0.16847633
83	0xbba8a884	-0.0051470418
84	0x3e96eb56	0.29476422
85	0x3e86a015	0.26294008
86	0x3e8fcd56	0.28086346
87	0xbda45b84	-0.08025268
88	0xbe1a8d38	-0.15092933
89	0xbec3514c	-0.38147962
90	0x3ed367fd	0.41290274
91	0xbdad49f9	-0.08461375
92	0x3b6c7f46	0.0036086603
93	0xbe502600	-0.20326996
94	0x3dffca22	0.12489726
95	0x3da4e264	0.08050993
96	0xbdb97e75	-0.09057323
97	0x3d06f3d5	0.03294738
98	0xbe16b7a7	-0.14718495
99	0xbe32395d	-0.17404695
100	0xbe2f8261	-0.1713958
101	0xbdd93063	-0.10604932
102	0xbe9a1838	-0.30096602
103	0x3ddfdba2	0.109305635
104	0xbdbc88ea	-0.09205802
105	0xbe4f29ef	-0.2023084
106	0x3d3be7da	0.045875408
107	0xbd8435d5	-0.0645558
108	0xbe372f05	-0.1788903
109	0x3e18b560	0.14912939
110	0xbddc584e	-0.1075903
111	0xbebecb03	-0.3726426
112	0x3baa17ae	0.005190811
113	0x3ccfba41	0.025357367
114	0xbcedc3ae	-0.029023971
115	0x3d7c7da1	0.061643247
116	0xbe0a8b93	-0.13529806
117	0x3e7b0c87	0.24516498
118	0xbdd87afb	-0.10570332
119	0xbdfca030	-0.12335241
120	0xbd99b498	-0.07505149
121	0xbe1e8545	-0.15480526
122	0x3ebfe6b4	0.374807
123	0x3ef327f6	0.47491425
124	0x3ea729d5	0.32649103
125	0x3e540c9a	0.20707932
126	0x3d167d77	0.036740746
127	0xbdb33c20	-0.08751702
128	0x3ed730d6	0.42029446
129	0xbe6a040c	-0.22853106
130	0xbe7a52f2	-0.24445704
131	0xbe83c6fe	-0.25737756
132	0xbc765a02	-0.015036108
133	0x3eab9df7	0.33518955
134	0xbe645f9c	-0.22302097
135	0x3e68093d	0.22659774
136	0xbd8b2bf1	-0.067954905
137	0x3cd7e10d	0.02635243
138	0x3e84df8a	0.25951797
139	0xbc5b63bd	-0.013390479
140	0xbf66e71e	-0.90196407
141	0x3d9487f4	0.072524935
142	0xbe563cec	-0.20921677
143	0x3dcc6905	0.099809684
144	0xbd436857	-0.047706928
145	0x3cb1a7ad	0.0216864
146	0xbcc0b073	-0.023521638
147	0xbdc3a770	-0.095534205
148	0xbcebac39	-0.028768646
149	0xbd0ea009	-0.03482059
150	0x3ca5e853	0.020252382
151	0xbf137320	-0.5759754
152	0xbedcc5d2	-0.43119675
153	0x3c168f8b	0.009189497
154	0x3cac41f7	0.021027548
155	0x3ec67366	0.38759917
156	0xbeafd56e	-0.3434252
157	0xbd3b633f	-0.045748945
158	0xbea32445	-0.3186361
159	0x3ea91c3c	0.33029354
160	0xbdea1c98	-0.11431235
161	0xbe910f16	-0.28331822
162	0xbf27c3a9	-0.6553293
163	0xbdd77709	-0.10520751
164	0xbd43c478	-0.04779479
165	0xbd9f530b	-0.07779511
166	0x3c840467	0.01611538
167	0xbebdd56f	-0.370769
168	0x3b38551a	0.0028126896
169	0x3ea80f79	0.32824305
170	0xbee4aeec	-0.44664705
171	0xbd466c23	-0.04844297
172	0xbeb7cb36	-0.35897225
173	0xbe4a9028	-0.19781554
174	0xbdc643bb	-0.09680887
175	0xbe1163de	-0.14198253
176	0x3e9230b4	0.28552783
177	0x3c6dbdfe	0.01451063
178	0x3ee65875	0.44989362
179	0xbe89defb	-0.26927933
180	0x3c628dc8	0.013827749
181	0xbda3a972	-0.079913035
182	0x3cad7016	0.02117161
183	0x3d250ea5	0.04029717
184	0x3d8944f4	0.06702605
185	0x3ee03068	0.4378693
186	0x3eaaaef8	0.33336616
187	0xbe789191	-0.24274279
188	0xbd66760f	-0.056264933
189	0x3e90ec4d	0.28305283
190	0xbccc98ec	-0.024975263
191	0xbe4b4718	-0.19851339
192	0x3d3975af	0.045278247
193	0x3e523b22	0.2053037
194	0xbe1befb3	-0.15228157
195	0xbd92289f	-0.07136654
196	0xbe84e2e1	-0.25954345
197	0x3d51904f	0.051163014
198	0xbd80bbf8	-0.06285852
199	0x3f06aac3	0.5260431
200	0x3e82ed7c	0.2557181
201	0xbe699251	-0.22809722
202	0x3eb422db	0.35182843
203	0xbe3b0816	-0.18264803
204	0xbeb64aef	-0.35604045
205	0x3ea1d7f8	0.31610084
206	0xbde65a24	-0.11247662
207	0xbe79fe3b	-0.24413387
208	0x3e275108	0.16339505
209	0xbe204f5a	-0.1565527
210	0x3df7194a	0.120653704
211	0x3d5ccc7e	0.053905956
212	0xbf025cd0	-0.5092287
213	0xbb342226	-0.0027486174
214	0x3d1c38c0	0.03814006
215	0x3dd405fc	0.10352704
216	0xbcc7e2a4	-0.024400063
217	0x3d81a5c7	0.06330448
218	0xbe220358	-0.15821588
219	0x3f07607d	0.52881604
220	0x3e8c7fa8	0.27441144
221	0x3dbce668	0.09223634
222	0xbdd397fb	-0.10331722
223	0x3ee39a9f	0.44453904
224	0x3d6fe10f	0.058564242
225	0x3cf08195	0.029358665
226	0xbe8630a1	-0.26208976
227	0x3d057242	0.032579668
228	0xbe34e239	-0.17664422
229	0x3e109434	0.14119035
230	0x3dd7f6af	0.10545098
231	0x3dc1ddc9	0.0946613
232	0x3d77f01b	0.060531717
233	0xbe41bc0a	-0.18919387
234	0x3d668b58	0.056285232
235	0x3e646862	0.22305444
236	0xbe15f805	-0.14645393
237	0xbe1ad9cf	-0.1512215
238	0x3f24e32d	0.6440914
239	0xbe1cf0fb	-0.15326302
240	0x3deeea6c	0.11665806
241	0x3ebd5f3a	0.36986715
242	0xbf419b1f	-0.7562732
243	0x3e91cb61	0.28475478
244	0xbd07bfc1	-0.033141855
245	0xbd85631d	-0.06513045
246	0x3cd4b5e3	0.025965637
247	0x3d24c90c	0.040230796
248	0xbdee64b2	-0.116403
249	0xbdfdabad	-0.1238626
250	0xbd96225d	-0.07330773
251	0xbd9705f5	-0.07374183
252	0xbc2f4a8e	-0.010698928
253	0xbf5693f2	-0.83819497
254	0xbf25da99	-0.6478668
255	0xbcaad093	-0.020851409

critic.0.bias f4 [64]
0	0xbe15c421	-0.14625598
1	0x3e7c5b23	0.24644141
2	0x3e8bf1e5	0.27332988
3	0x3d56b562	0.052419074
4	0x3e9963ab	0.29958853
5	0xbe4284b3	-0.18995933
6	0x3e81e5b3	0.2537056
7	0xbd5b53ea	-0.053546824
8	0xbe85f6dd	-0.26164904
9	0x3e6197b4	0.22030526
10	0x3e9a896e	0.30182976
11	0x3da143e7	0.078742795
12	0x3e789685	0.24276169
13	0xbda46fe3	-0.08029153
14	0xbecca1ee	-0.39967293
15	0xbdf5b8b9	-0.11998124
16	0xbe554f38	-0.20831001
17	0x3eee7dc7	0.46580335
18	0xbcd12f45	-0.025535235
19	0x3e86438d	0.26223412
20	0xbe2af52e	-0.16695091
21	0xbe226f18	-0.15862691
22	0xbde94412	-0.113899365
23	0xbe416e3e	-0.1888971
24	0x3d165709	0.036704097
25	0x3e925ad3	0.28584918
26	0x3eaa3e16	0.33250493
27	0x3e4c734e	0.1996586
28	0x3e69a915	0.22818406
29	0x3e481683	0.19539838
30	0xbe5784b7	-0.2104672
31	0x3d9e5e20	0.07732797
32	0xbe8c7d2c	-0.2743925
33	0x3e87d0ec	0.26526582
34	0xbe9b028a	-0.30275375
35	0x3e48ca03	0.19608311
36	0x3dd57c8a	0.104241446
37	0x3e8ea300	0.27858734
38	0xbea0b57c	-0.31388462
39	0x3e74d270	0.239084
40	0x3d4b9e66	0.049711607
41	0xbde9c7fb	-0.11415096
42	0xbebde701	-0.37090304
43	0x3e539147	0.20660888
44	0xbea30bbc	-0.3184489
45	0xbe961a36	-0.29316872
46	0xbe2c1d41	-0.16808034
47	0xbe4da74c	-0.2008335
48	0xbe74a6e4	-0.23891789
49	0xbda71b8a	-0.081595495
50	0xbe5e597e	-0.21713826
51	0xbe512326	-0.20423564
52	0x3e80403d	0.2504901
53	0xbea090f0	-0.3136058
54	0xbe86b44d	-0.26309434
55	0x3d78eacc	0.060770795
56	0xbe9ac0a0	-0.30225086
57	0xbea8606f	-0.32886073
58	0x3e67d880	0.22641182
59	0x3e9ef8e5	0.31049266
60	0xbe19bbfb	-0.15013115
61	0x3ee0333b	0.43789086
62	0x3e811b13	0.25215968
63	0x3e389e5d	0.18029161

critic.2.weight f4 [64, 64]
0	0x3e3dfad3	0.18552713
1	0xbdac95ff	-0.08427047
2	0x3e1af61d	0.15132947
3	0xbdad35f8	-0.08457559
4	0x3dd667df	0.104690306
5	0xbe44b8a3	-0.19211058
6	0x3eb8b025	0.36071888
7	0xbcfcfb50	-0.030881554
8	0xbe5c2279	-0.21497525
9	0x3edd9278	0.4327581
10	0x3ea6d407	0.3258364
11	0x3e009415	0.12556489
12	0x3ee0d412	0.43911797
13	0x3e36237c	0.17786974
14	0xbed1a46c	-0.40945756
15	0xbe3494f2	-0.17634943
16	0xbe92f363	-0.28701314
17	0x3e28ff1c	0.16503567
18	0x3e56015b	0.20898955
19	0x3e1537f2	0.14572123
20	0xbeae2abb	-0.34016976
21	0xbe913b5f	-0.2836561
22	0xbda849c5	-0.082171954
23	0xbf02ee19	-0.5114456
24	0x3df36653	0.11884751
25	0x3e4941de	0.19654033
26	0x3d9b96d2	0.07597126
27	0x3d763b18	0.06011495
28	0x3dbfead1	0.093709596
29	0xbe489a87	-0.19590198
30	0x3d7b3f56	0.0613397
31	0x3d9ade82	0.07561971
32	0x3d562d84	0.0522895
33	0x3e4552c6	0.19269857
34	0x3dc1b895	0.09459034
35	0x3dee0473	0.11621942
36	0x3e5bcd2d	0.21464987
37	0x3ea2ddee	0.31809944
38	0xbe98f7ac	-0.2987646
39	0x3e409c4f	0.18809627
40	0xbe972f6c	-0.29528368
41	0x3e46a3be	0.193984
42	0xbe379d9b	-0.17931215
43	0x3e8a1972	0.26972538
44	0xbe858e09	-0.26084927
45	0xbe36eb9f	-0.1786332
46	0xbdbfbbea	-0.09362014
47	0xbedd56fc	-0.43230426
48	0xbda5695b	-0.080767356
49	0xbe7b65ba	-0.24550524
50	0xbdd1e179	-0.102480836
51	0xbec5b51c	-0.38614738
52	0x3e1ad5e8	0.15120661
53	0xbddb2c83	-0.10701849
54	0xbdecea0f	-0.11568081
55	0xbe81b5d7	-0.25334045
56	0xbe9f24ee	-0.31082863
57	0x3e13d401	0.14436342
58	0xbd333f44	-0.043761507
59	0x3d8fa29e	0.07013439
60	0x3cf23ceb	0.029570064
61	0x3eb78edd	0.35851184
62	0x3e86b9cd	0.2631363
63	0xbde82635	-0.113354124
64	0x3c9ad495	0.018900195
65	0x3d536c54	0.05161698
66	0xbd0381b5	-0.03210612
67	0xbd840333	-0.06445923
68	0x3e181dba	0.1485509
69	0x3e9f72df	0.31142327
70	0x3e7a02ce	0.24415132
71	0xbbb2702c	-0.005445501
72	0xbe8c7cf3	-0.2743908
73	0x3e9b6a78	0.30354667
74	0x3deacbd2	0.11464657
75	0x3deb82a4	0.11499527
76	0x3a92214b	0.0011148838
77	0xbe72a595	-0.23695977
78	0xbe4932a9	-0.19648232
79	0xbe59b81e	-0.21261641
80	0xbe55b893	-0.2087119
81	0x3ce024b3	0.02736125
82	0x3e707c6d	0.23484965
83	0xbb0d8138	-0.0021591913
84	0xbe5698b5	-0.2095669
85	0xbce8e266	-0.028428268
86	0xbe226e7f	-0.15862463
87	0xbe0a4c74	-0.13505727
88	0xbdbcd0af	-0.09219491
89	0x3f078668	0.5293946
90	0xbdae886d	-0.08522115
91	0x3e91c317	0.28469154
92	0x3e9edfe1	0.3103018
93	0x3e5b7ee6	0.21435127
94	0xbef04e17	-0.46934578
95	0xbc3bf869	-0.0114728
96	0xbea2eefa	-0.3182295
97	0xbdbc0da8	-0.09182292
98	0xbe78ed23	-0.2430921
99	0xbe96a726	-0.294244
100	0x3ea73179	0.32654932
101	0x3e3005cb	0.1718971
102	0x3d3c55af	0.04598015
103	0xbd85ba90	-0.065297246
104	0x3c43376d	0.01191507
105	0xbe52c495	-0.20582803
106	0xbe39fb44	-0.18162256
107	0x3eb6cfc7	0.35705397
108	0xbee910b1	-0.45520547
109	0xbe5f38fb	-0.2179908
110	0x3db15eb6	0.08660643
111	0x3e298d72	0.16557863
112	0xbec5c14f	-0.38624045
113	0xbe6604d0	-0.22462773
114	0x3ccb281d	0.024799401
115	0xbea378e8	-0.31928182
116	0x3e23804e	0.15966913
117	0xbe917d18	-0.2841575
118	0x3cd4b911	0.025967153
119	0xbc8447b9	-0.016147481
120	0xbeaab94f	-0.33344504
121	0xbe63903c	-0.2222299
122	0x3eadc30d	0.33937874
123	0x3da44cf4	0.0802249
124	0x3d1e2c2b	0.03861634
125	0x3d9024d0	0.070382714
126	0x3dbed722	0.09318377
127	0x3ec30cdf	0.38095757
128	0xbce66786	-0.028125536
129	0xbdd8b04d	-0.10580502
130	0x3ef989dc	0.4873799
131	0xbb1afef5	-0.0023650501
132	0xbe127542	-0.14302543
133	0xbdcccae5	-0.099996366
134	0x3e5fee11	0.21868159
135	0x3eaa18fb	0.33222184
136	0xbef1b21c	-0.472062
137	0xbe32275f	-0.17397831
138	0xbdfc3bbf	-0.12316083
139	0x3d67bd87	0.05657723
140	0x3eb41d14	0.35178435
141	0xbdc14aa6	-0.09438066
142	0x3c5b4050	0.0133820325
143	0x3d2cf96b	0.04223005
144	0xbe20f080	-0.15716743
145	0x3f18a033	0.59619445
146	0x3dd5f448	0.104469836
147	0x3eaaa6f8	0.33330512
148	0x3cf7e260	0.030259311
149	0xbe0d2612	-0.13784054
150	0x3e0fc828	0.14041197
151	0xbdb3e424	-0.08783749
152	0x3e85539d	0.26040354
153	0x3d78cd1a	0.060742475
154	0x3e71e398	0.23621976
155	0xbe1235a8	-0.1427828
156	0x3e0098ba	0.1255826
157	0x3d8833c7	0.06650501
158	0xbe4f0fd1	-0.20220877
159	0x3d82247e	0.063546166
160	0x3d811f90	0.06304848
161	0x3e106e88	0.14104664
162	0xbeb8dc93	-0.36105785
163	0x3e32c915	0.17459519
164	0x3e0fa359	0.14027156
165	0x3d2b6958	0.04184851
166	0xbe9b1b0c	-0.30294073
167	0x3d139c75	0.03603788
168	0x3b57fe57	0.0032957995
169	0xbd6057af	-0.05477112
170	0x3db463ac	0.088080734
171	0x3d7365d1	0.05942327
172	0xbf0421b8	-0.5161395
173	0xbdd3388e	-0.10313521
174	0x3ccc21e5	0.024918506
175	0xbdfaf1ac	-0.122531265
176	0xbf09c9bd	-0.53823453
177	0x3be7ab65	0.0070699924
178	0xbe8ddc79	-0.2770727
179	0xbdf1a67b	-0.11799332
180	0x3d00777f	0.03136396
181	0x3ca7bc44	0.020475514
182	0xbf0c65ba	-0.5484272
183	0x3cf620c4	0.03004492
184	0x3dc7563f	0.09733247
185	0x3c363d32	0.011122989
186	0x3df3e5fd	0.11909101
187	0x3e78f57b	0.24312393
188	0xbd8bc499	-0.068246074
189	0x3e39627d	0.18103977
190	0x3dba2922	0.09089877
191	0x3e83a292	0.2570997
192	0xbea35136	-0.31897897
193	0x3e41497c	0.18875688
194	0x3e6cc93e	0.23123643
195	0x3ddc5239	0.1075787
196	0xbd83a0f6	-0.06427185
197	0xbe8a4e20	-0.2701273
198	0x3ea40814	0.32037413
199	0xbe1780fd	-0.14795299
200	0xbf0c7ecb	-0.5488097
201	0x3e7b5c22	0.24546865
202	0x3f073d3f	0.5282783
203	0x3e7a263e	0.2442865
204	0x3c53f331	0.012936399
205	0xbe47e221	-0.19519855
206	0x3d5aeee1	0.05345047
207	0xbeb6bd84	-0.35691464
208	0x3d000ce9	0.031262312
209	0x3e8d5bf9	0.27609232
210	0x3ee3dada	0.44502908
211	0x3dabee74	0.08395091
212	0xbe752f5c	-0.23943847
213	0xbeb0bd85	-0.34519592
214	0xbe83f234	-0.25770724
215	0xbd0a4e7a	-0.033766247
216	0xbe306d82	-0.17229274
217	0xbe1a8f33	-0.15093689
218	0xbe5c2a5c	-0.21500534
219	0xbd7ca331	-0.06167907
220	0x3de9e64e	0.1142088
221	0x3e6220a7	0.22082768
222	0x3dd0aaaf	0.10188805
223	0xbc3a14ec	-0.011357527
224	0xbe920d4b	-0.28525767
225	0x3e601c3f	0.21885775
226	0xbf0b23a9	-0.5435129
227	0xbd86a808	-0.06575018
228	0x3dd068d8	0.10176247
229	0x3e04989a	0.12948838
230	0xbe227b77	-0.1586741
231	0x3de7f0d7	0.113252334
232	0xbe238b76	-0.15971169
233	0xbbb4b155	-0.0055143037
234	0x3d5d6fea	0.054061808
235	0x3db534c5	0.088479556
236	0xbddbc5ce	-0.107310876
237	0xbe85d74c	-0.2614082
238	0xbeb2af70	-0.34899473
239	0xbe157e44	-0.14598948
240	0x3d30e0cd	0.043183137
241	0x3da902a6	0.08252458
242	0xbdcf2b4c	-0.1011568
243	0xbe0f9439	-0.14021386
244	0x3e0bb51a	0.13643304
245	0xbe30f5f8	-0.1728133
246	0xbf0152d8	-0.50517035
247	0xbde3a181	-0.11114789
248	0xbe699c5f	-0.22813557
249	0xbe717695	-0.23580392
250	0x3eca5550	0.39518213
251	0x3e0344c4	0.12819201
252	0xbd956c2a	-0.07296021
253	0x3eb667d3	0.35626087
254	0x3e4ba18c	0.19885844
255	0x3e54e84e	0.20791742

critic.2.bias f4 [64]
0	0x3e1a4854	0.15066653
1	0x3e109233	0.1411827
2	0x3e41b0fb	0.18915169
3	0x3e9226c0	0.2854519
4	0x3e3d5d1c	0.1849255
5	0xbe0ee108	-0.1395303
6	0x3e117cdc	0.14207786
7	0x3e742412	0.23841885
8	0x3e1e9018	0.15484655
9	0xbe5f6090	-0.2181418
10	0xbdcda583	-0.100413345
11	0x3e040792	0.12893513
12	0x3cf3bcc5	0.029753098
13	0xbe42d4c5	-0.19026478
14	0x3e52a7c4	0.2057181
15	0xbe687478	-0.2270068
16	0xbe614d7c	-0.22002214
17	0xbdd24a49	-0.10268075
18	0x3e1f7aa0	0.15574121
19	0x3e41820d	0.18897267
20	0xbdd08528	-0.101816475
21	0xbde75b26	-0.11296682
22	0xbde170b2	-0.11007823
23	0x3e144c77	0.14482294
24	0x3e6ee39e	0.23329017
25	0x3e02449c	0.12721485
26	0x3e1f7ff9	0.15576161
27	0xbc75a25a	-0.014992321
28	0xbe09beb6	-0.13451657
29	0xbda7e322	-0.08197619
30	0xbe24fb48	-0.16111481
31	0x3d086bbf	0.03330588
32	0x3e2ab087	0.16668902
33	0xbd87c230	-0.06628835
34	0x3e4464d9	0.19179095
35	0x3e2368e4	0.15957981
36	0xbdebf598	-0.11521453
37	0x3e5a0d34	0.21294099
38	0x3de2119c	0.11038515
39	0x3e521c1b	0.20518534
40	0x3e3e1db1	0.18566014
41	0x3e2c5f10	0.16833138
42	0x3e68362c	0.22676915
43	0xbe198f0c	-0.14995974
44	0xbe23e73f	-0.16006182
45	0x3e7c394a	0.24631229
46	0xbdeeebf5	-0.11666099
47	0xbe51046f	-0.20411848
48	0xbe8c2096	-0.2736861
49	0xbd9daf22	-0.076994196
50	0x3dee0a76	0.11623089
51	0x3e15fc43	0.14647011
52	0x3e100fba	0.14068499
53	0x3e11b1ae	0.14227936
54	0x3e52c9dd	0.20584817
55	0x3e35670b	0.17715089
56	0xbdc2665f	-0.09492182
57	0xbe48ca90	-0.19608521
58	0xbe2f0f45	-0.17095669
59	0xbe115331	-0.14191891
60	0x3e4dba13	0.20090513
61	0xbdd5e6be	-0.10444401
62	0xbe091288	-0.13385975
63	0xbe6e7718	-0.23287618

critic.4.weight f4 [2, 64]
0	0x3e837fe1	0.256835
1	0x3e1a3500	0.1505928
2	0x3d9c59f9	0.076343484
3	0x3e7b30da	0.24530354
4	0xbe2fde91	-0.17174746
5	0xbe8395e0	-0.25700283
6	0x3d8b0a97	0.06789129
7	0xbc717a46	-0.014738625
8	0x3d607a8a	0.054804362
9	0x3cb3870d	0.021914983
10	0x3e56bf26	0.20971355
11	0xbdd21964	-0.10258749
12	0xbcda981a	-0.026683856
13	0xbdf5ec70	-0.120079875
14	0x3e551831	0.2081001
15	0xbdda4430	-0.10657537
16	0xbeabfdc1	-0.33592036
17	0x3c33c217	0.010971568
18	0x3e0521c7	0.13001166
19	0x3db16aa5	0.08662919
20	0x3dd2a398	0.10285109
21	0xbeb31ed8	-0.3498447
22	0xbdfb5657	-0.122723274
23	0x3e4cefaf	0.20013307
24	0x3df345c1	0.11878539
25	0x3d41706a	0.047226347
26	0xbcecc564	-0.028902717
27	0x3ea09992	0.31367165
28	0xbf027a44	-0.5096781
29	0xbff83721	-1.9391824
30	0xbe2f4c4f	-0.17118953
31	0x3db59e6d	0.08868108
32	0xbd9fa592	-0.07795252
33	0xbe22491a	-0.15848199
34	0x3d2cad4e	0.042157464
35	0x3e4438a9	0.19162239
36	0x3ddd34b5	0.10801069
37	0xbdb697b4	-0.08915654
38	0x3dfbbb19	0.122915454
39	0x3dd42b27	0.10359793
40	0xbdb567ef	-0.088577144
41	0xbe019ee5	-0.1265827
42	0x3e09dfdd	0.13464303
43	0xbdfea453	-0.12433686
44	0xbdf9b191	-0.12192071
45	0x3e0385cf	0.12844013
46	0xbce32a7a	-0.027730215
47	0xbe0b669a	-0.13613358
48	0xbe00f95f	-0.12595128
49	0xbea67418	-0.32510448
50	0x3c2dcfcc	0.010608625
51	0xbd5ed956	-0.054406486
52	0xbd498133	-0.04919548
53	0xbcb80801	-0.022464754
54	0x3db08408	0.08618933
55	0x3e24fa91	0.16111208
56	0xbdfc7da4	-0.123286515
57	0xbdc60a17	-0.09669893
58	0xbe0f5cab	-0.14000194
59	0x3c19a675	0.009378065
60	0x3e3558db	0.17709677
61	0xbe975bec	-0.29562318
62	0xbc5fc53a	-0.013657862
63	0x3ddb3e69	0.10705263
64	0x3f930c84	1.1488194
65	0x3f8fa524	1.1222272
66	0x3f841ace	1.032068
67	0x3f79234a	0.9731947
68	0x3f841ab2	1.0320647
69	0xbf77d381	-0.96807104
70	0x3f794b73	0.9738075
71	0x3f80183b	1.0007395
72	0x3f62a87d	0.8853834
73	0xbf8a3e43	-1.0800251
74	0xbf6d7be8	-0.9276719
75	0x3f813dd6	1.0096996
76	0xbf8edd43	-1.1161274
77	0xbf72ab1e	-0.94792354
78	0x3f6630ac	0.8991802
79	0xbf8631e7	-1.0483979
80	0xbf80eb8b	-1.0071882
81	0xbf873901	-1.0564271
82	0x3f728bf1	0.94744784
83	0x3f8b39e3	1.0877041
84	0xbf982b59	-1.1888229
85	0xbf8f359d	-1.1188236
86	0xbf796177	-0.97414345
87	0x3f850c54	1.0394387
88	0x3f82260a	1.0167859
89	0x3f7bca31	0.98355395
90	0x3f7f7af0	0.9979696
91	0xbf80fcb0	-1.0077114
92	0xbf890921	-1.0705911
93	0xbf767662	-0.9627439
94	0xbf8422ba	-1.0323098
95	0x3f729cee	0.94770706
96	0x3f9046c7	1.12716
97	0xbf809cb7	-1.0047826
98	0x3f8df912	1.1091635
99	0x3f869223	1.0513347
100	0xbf83ff72	-1.0312331
101	0x3f76ba5e	0.96378124
102	0x3f651490	0.894845
103	0x3f78267b	0.96933717
104	0x3f7c770e	0.98619163
105	0x3f87ac62	1.0599482
106	0x3f81bfde	1.0136678
107	0xbf7ffb7e	-0.9999312
108	0xbfa183f8	-1.2618399
109	0x3f6996f5	0.9124597
110	0xbfa66610	-1.2999897
111	0xbf8f7193	-1.1206535
112	0xbf6b69f4	-0.91958547
113	0xbf73e438	-0.9527011
114	0x3f81aba2	1.0130503
115	0x3f9f82e1	1.2461816
116	0x3f8839a3	1.0642589
117	0x3f80542c	1.0025687
118	0x3f804c9d	1.002338
119	0x3f8af306	1.0855415
120	0xbf880eb3	-1.0629486
121	0xbf7c3774	-0.98522115
122	0xbf89b9f2	-1.0759871
123	0xbf893a8b	-1.0720991
124	0x3f7ab2a6	0.97928846
125	0xbf816d49	-1.0111476
126	0xbfa7448d	-1.3067795
127	0xbf80d240	-1.0064163

critic.4.bias f4 [2]
0	0x3dc2bdbb	0.095088445
1	0x3f58835d	0.84575444

actor_mean.0.weight f4 [64, 17]
0	0x3edd2298	0.43190455
1	0xbe9b64e1	-0.30350402
2	0x3e9593dc	0.2921437
3	0xbde78222	-0.11304118
4	0xbea63e18	-0.3246925
5	0x3da74676	0.08167736
6	0x3e5804f6	0.21095642
7	0xbde53063	-0.1119087
8	0xbe6f81de	-0.23389384
9	0x3c7e3850	0.015516356
10	0x3ceae497	0.028673453
11	0x3d609657	0.054830875
12	0x3e2d67d7	0.16934143
13	0xbdbcba61	-0.092152365
14	0xbb86df29	-0.004115958
15	0x3e9f54d8	0.31119418
16	0x3d9715c4	0.07377198
17	0xbd80e72c	-0.062940925
18	0xbe3a2230	-0.18177104
19	0xbc19ac58	-0.009379469
20	0xbe3ee5ee	-0.18642399
21	0xbd832f1c	-0.0640547
22	0x3e428031	0.18994214
23	0xbe9285bc	-0.28617656
24	0xbc1ff206	-0.009762293
25	0xbe3f9da0	-0.18712473
26	0xbc103af8	-0.008803122
27	0xbea294b5	-0.3175408
28	0xbe404029	-0.18774475
29	0x3eded84b	0.43524393
30	0xbe6f5765	-0.23373182
31	0xbc795b00	-0.01521945
32	0x3e2619c3	0.16220765
33	0x3e1eda87	0.15513049
34	0x3c9543c5	0.018220792
35	0xbdcd6b1b	-0.10030194
36	0x3d7bb367	0.06145039
37	0x3e555531	0.20833279
38	0x3e99c00f	0.30029342
39	0x3d20fda8	0.039304405
40	0x3e273ecf	0.16332553
41	0xbd6ce6b3	-0.0578372
42	0x3eccb2bd	0.39980116
43	0x3de0b859	0.109726615
44	0xbda78629	-0.08179886
45	0x3b872706	0.004124525
46	0x3e154193	0.14575796
47	0xbd550a37	-0.052011695
48	0xbe0fc926	-0.14041576
49	0xbd8d76e5	-0.06907443
50	0x3c3aa3fd	0.011391637
51	0x3d6230aa	0.05522219
52	0xbe77b754	-0.24191028
53	0x3dcba448	0.099434435
54	0x3d106899	0.035256002
55	0x3d0f685f	0.035011645
56	0x3aefa590	0.0018283594
57	0xbdab9949	-0.08378846
58	0x3e835ba1	0.25655845
59	0x3d9f82f1	0.07788647
60	0xbdf21c09	-0.118217535
61	0xbd152b28	-0.03641811
62	0x3e985357	0.29751083
63	0xbe5eba95	-0.21750863
64	0x3d617652	0.05504448
65	0x3da0e1f2	0.07855596
66	0xbd2224bc	-0.039585814
67	0x3db37b5d	0.08763764
68	0xbb149f9e	-0.0022678147
69	0x3cba4197	0.022736354
70	0x3d97c22b	0.074100815
71	0x3e26a697	0.16274486
72	0x3e8e8b6e	0.2784075
73	0x3b2d2094	0.0026417123
74	0xbd93ace8	-0.072107136
75	0x3e22cd76	0.1589869
76	0xbef09e09	-0.4699557
77	0xbe1a4fd3	-0.15069513
78	0x3e40e253	0.18836336
79	0xbe90bea5	-0.2827045
80	0x3e43a305	0.19105156
81	0x3d734b43	0.059397947
82	0xbd9201f7	-0.07129281
83	0xbe043a42	-0.12912849
84	0x3d648f16	0.05580052
85	0xbe86eabd	-0.26350966
86	0x3e2d1290	0.16901612
87	0x3dfd9d9a	0.12383576
88	0xbe1cb119	-0.15301932
89	0x3df7eff5	0.12106315
90	0xbe9cb268	-0.30604863
91	0x3eb508f0	0.3535838
92	0xbdc72e63	-0.097256444
93	0x3e7363ab	0.23768489
94	0xbd7400ca	-0.059571065
95	0x3bac6ac2	0.00526175
96	0xbe0dde01	-0.13854219
97	0x3e1ea703	0.15493397
98	0xbe19536d	-0.1497323
99	0xbd5390f6	-0.051651917
100	0x3e2918c9	0.16513361
101	0x3f02d4a9	0.51105744
102	0xbdbba8b4	-0.09163037
103	0x3ece9a1e	0.40351957
104	0xbe0dc03c	-0.13842863
105	0xbe72a7c3	-0.23696809
106	0x3ebd1785	0.36932006
107	0xbd21cb5a	-0.03950057
108	0xbd051824	-0.032493725
109	0xbe25fa62	-0.16208795
110	0xbc368ffa	-0.011142725
111	0x3c7b4f0b	0.0153386695
112	0xbec6fc08	-0.3886416
113	0x3ed98157	0.4248149
114	0xbe73b0fd	-0.23797984
115	0xbe602f16	-0.21892962
116	0xbe66665c	-0.22499985
117	0xbe4fa327	-0.20277081
118	0x3e6c81a8	0.23096335
119	0xbe82bb40	-0.25533485
120	0xbd73c546	-0.059514306
121	0x3e09a2a4	0.13440949
122	0x3d916062	0.07098462
123	0x3ea4614c	0.32105482
124	0xbdd3e32f	-0.10346066
125	0x3ddc1905	0.107469596
126	0x3dbac598	0.09119719
127	0xbeb433c6	-0.3519575
128	0xbd9e8b69	-0.07741434
129	0x3dd601e0	0.104495764
130	0x3e90cf13	0.28282985
131	0x3e18412e	0.14868614
132	0x3e017880	0.12643623
133	0xbd46863c	-0.04846786
134	0x3d9c0fe7	0.07620221
135	0x3ca9744b	0.020685336
136	0xbb8a0f3f	-0.0042132433
137	0xbde0d937	-0.109789304
138	0x3e8431f4	0.2581936
139	0xbe7ab932	-0.24484709
140	0xbe37c8ab	-0.17947643
141	0x3d0260e6	0.03183069
142	0x3eed3600	0.4633026
143	0x3e3f9a0b	0.18711106
144	0xbe02d713	-0.12777357
145	0x3e6b68e5	0.22989233
146	0xbe5259a0	-0.20542002
147	0xbe009007	-0.12554942
148	0x3d0662f3	0.03280921
149	0x3e2728c6	0.16324148
150	0x3db8a53e	0.090158924
151	0x3e388593	0.18019705
152	0x3df4de16	0.11956422
153	0x3eb4a41c	0.35281456
154	0xbe1077ff	-0.14108275
155	0xbe718b46	-0.23588285
156	0xbe46bf37	-0.1940888
157	0x3d6d21ab	0.057893436
158	0xbdf46aa4	-0.119344026
159	0x3dba7d19	0.09105892
160	0x3e34e593	0.176657
161	0x3e5939e6	0.21213493
162	0xbde50800	-0.111831665
163	0x3e3c73c1	0.18403532
164	0xbdf9b975	-0.12193576
165	0x3f1f6d5a	0.6227623
166	0x3e80ef22	0.25182444
167	0xbcfdc957	-0.030979795
168	0xbd975d4c	-0.07390842
169	0xbe0df100	-0.13861465
170	0xbe6275d6	-0.22115263
171	0xbd8170f1	-0.0632037
172	0xbd5ca417	-0.053867426
173	0xbe4bfbaf	-0.19920228
174	0xbe6baabb	-0.23014347
175	0x3e1e429c	0.15455097
176	0x3da065d7	0.078319244
177	0x3e4a220f	0.19739555
178	0xbe2bda9c	-0.16782612
179	0xbd3aaae4	-0.04557313
180	0x3da87f4c	0.08227405
181	0xbddaca20	-0.106830835
182	0x3d0f15a6	0.034932755
183	0xbd14591d	-0.036217798
184	0x3dcbd0f0	0.09951961
185	0x3df216f1	0.11820782
186	0x3deb7f9e	0.114989504
187	0xbe8341b3	-0.25636062
188	0x3d286075	0.041107614
189	0x3f08b23c	0.53396964
190	0xbdf24444	-0.11829427
191	0xbd1bb86e	-0.038017683
192	0x3e1bc011	0.15209986
193	0x3ea3eff3	0.32019004
194	0x3cc5fd4b	0.024168631
195	0xbd5623c8	-0.052280217
196	0x3d809d24	0.06279972
197	0x3e281a03	0.16416173
198	0xbdd7ca7a	-0.10536666
199	0xbd241f10	-0.040068686
200	0x3e04d5fc	0.12972254
201	0xbee16d21	-0.4402857
202	0x3e31f349	0.17377962
203	0xbbff4a26	-0.0077908216
204	0xbe1a5256	-0.15070471
205	0x3e51f3f3	0.20503215
206	0xbe51e2e9	-0.20496716
207	0xbb1a7186	-0.00235662
208	0xbdbf0572	-0.093272105
209	0x3db54118	0.08850306
210	0xbd3e9551	-0.046529118
211	0xbd998d0f	-0.07497608
212	0xbbeba735	-0.0071915635
213	0x3d9a6eb3	0.075406455
214	0x3ed3e342	0.4138432
215	0x3bedb79b	0.0072545535
216	0xbe21aee2	-0.15789369
217	0xbced11ab	-0.028939089
218	0xbd999d9e	-0.07500766
219	0x3d8a079b	0.06739732
220	0x3e182521	0.14857914
221	0xbe836f2f	-0.25670764
222	0x3e2a076d	0.16604395
223	0xbd5f13b2	-0.054462142
224	0x3e814109	0.2524493
225	0xbcbb0edd	-0.022834236
226	0x3e870d6e	0.26377434
227	0x3e8a283f	0.2698383
228	0xbdf97e13	-0.1218225
229	0xbe5a6b6e	-0.21330044
230	0x3e87e692	0.265431
231	0x3e34073f	0.17580889
232	0xbc4af518	-0.0123875365
233	0xbd5cab46	-0.053874277
234	0x3f23ad5b	0.63936394
235	0xbdbbbb9c	-0.09166643
236	0x3d88342a	0.066505745
237	0xbc3fe250	-0.011711672
238	0x3c680bb5	0.014162947
239	0x3c0fd5d0	0.008779004
240	0xbdae10a6	-0.08499269
241	0x3c6a10de	0.014286248
242	0xbe4a7780	-0.19772148
243	0xbd0ed3ba	-0.034869887
244	0xbe29578d	-0.16537304
245	0xbd6a2cf4	-0.057171777
246	0xbdca351d	-0.09873412
247	0x3e1d73a6	0.15376148
248	0xbdc3325f	-0.09531092
249	0x3d1c2842	0.03812433
250	0x3e898932	0.26862484
251	0x3e9acbec	0.30233705
252	0x3e28af40	0.16473103
253	0x3e7a096d	0.24417658
254	0x3d0666a4	0.03281273
255	0x3d27310b	0.040818255

actor_mean.0.bias f4 [64]
0	0xbdaafc4a	-0.083489016
1	0xbc0d8ff8	-0.008640282
2	0x3cea5198	0.02860336
3	0xbd036371	-0.032077257
4	0xbd8b2413	-0.0679399
5	0x3d1b203b	0.037872534
6	0x3dc4937b	0.09598442
7	0x3b3f968e	0.0029234025
8	0x3c0c5cff	0.008567094
9	0xbc50c52b	-0.012742321
10	0x3d1e3761	0.038627032
11	0xbcd13ab3	-0.025540685
12	0xbc9f765e	-0.019465622
13	0x3d9b3eba	0.075803235
14	0x3d9337d3	0.07188382
15	0x3cc09e0b	0.02351286
16	0x3cb106ae	0.02160963
17	0x3dfb4508	0.12269026
18	0xbc2fc73b	-0.010728653
19	0xbb984432	-0.0046468014
20	0xbd213f6e	-0.039367132
21	0xbcb1a209	-0.02168371
22	0x3d9ad41a	0.075599864
23	0xba86e641	-0.001029201
24	0x3ccc9684	0.024974115
25	0xbc79533a	-0.015217597
26	0xbd906210	-0.07049954
27	0xbd0dec1c	-0.034649
28	0xbd9c0045	-0.07617239
29	0x3c61914a	0.01376755
30	0x3c742b5b	0.014902915
31	0xbb9f747a	-0.00486618
32	0xbd10ff7b	-0.035399895
33	0x3d108c38	0.035289973
34	0x3d18cb37	0.037303176
35	0x3c7cd04d	0.015430522
36	0xbc847cce	-0.016172793
37	0x3cca6a36	0.024708848
38	0xbc0507ab	-0.008119504
39	0x3d31f489	0.043446098
40	0xbc79bf9d	-0.015243438
41	0xbd014d8a	-0.031568088
42	0xbd082eff	-0.033247944
43	0x3da92cf1	0.08260525
44	0xbd21e57b	-0.03952549
45	0x3c8842ad	0.016633356
46	0xbd76014f	-0.06005984
47	0xbd89c1f8	-0.0672645
48	0x3d779032	0.06044025
49	0x3d1269b5	0.03574534
50	0x3bd7a186	0.0065805344
51	0x3d3dcd78	0.04633853
52	0xbbb622f2	-0.005558365
53	0x3d18286f	0.037147935
54	0x3c91ed6f	0.017813412
55	0xbda371c0	-0.079806805
56	0x3cda3acc	0.026639365
57	0xbd043192	-0.032273836
58	0x3d967940	0.07347345
59	0xbce2365d	-0.027613813
60	0xbd241e9b	-0.04006825
61	0x3c45833c	0.0120552145
62	0x3cca9f92	0.024734292
63	0xbc1249f8	-0.008928768

actor_mean.2.weight f4 [64, 64]
0	0x3d08f6d9	0.033438537
1	0x3db900ec	0.09033379
2	0x3dc0cc8e	0.09414016
3	0x3e59a0eb	0.21252792
4	0xbe021f2c	-0.12707204
5	0x3e6f419a	0.23364869
6	0xbe100479	-0.14064206
7	0x3e2a72dd	0.1664538
8	0xbe76d906	-0.24106225
9	0x3d0654d6	0.03279575
10	0xbe01c445	-0.12672527
11	0x3e88a817	0.26690742
12	0xbc86339d	-0.016382033
13	0xbe9d0591	-0.3066831
14	0x3dcd7181	0.10031415
15	0x3e033bfa	0.12815848
16	0xbd37048e	-0.044682078
17	0x3ed2ccb2	0.41171795
18	0xbec85a4a	-0.39131385
19	0x3e766c09	0.2406465
20	0x3da3647e	0.07978152
21	0x3e280d04	0.16411215
22	0x3bee5a47	0.0072739455
23	0xbd2d5529	-0.042317543
24	0xbe59d9d9	-0.21274509
25	0x3e82db63	0.25558004
26	0xbd92776b	-0.071516834
27	0x3d1e3ff9	0.038635228
28	0xbd79c64c	-0.060980126
29	0xbd8893f5	-0.066688456
30	0x3e3746e5	0.17898138
31	0xbd870e34	-0.06594506
32	0x3ca937d8	0.020656511
33	0xbe2c087e	-0.16800115
34	0x3c4561c1	0.012047232
35	0x3d68c1c6	0.05682542
36	0xbe0f443c	-0.13990873
37	0x3e033a1d	0.12815137
38	0x3e2b8c4a	0.16752735
39	0x3e193c67	0.14964448
40	0x3df5a65a	0.1199462
41	0x3cdd7636	0.027033906
42	0x3e1c07df	0.15237378
43	0xbc8bae8d	-0.017051006
44	0x3e499864	0.19687039
45	0x3dc53e50	0.09631026
46	0x3e46b1a7	0.19403706
47	0x3e922ca3	0.2854968
48	0x3e7de603	0.24794774
49	0xbebcc463	-0.3686858
50	0xbe757067	-0.2396866
51	0x3b5a5c10	0.0033319034
52	0xbe8d107c	-0.2755164
53	0x3d600566	0.05469265
54	0xbe021293	-0.12702398
55	0xbc0bea3f	-0.008539735
56	0xbee38031	-0.4443374
57	0xb85b3873	-5.226624e-05
58	0xbd4cdbc1	-0.05001426
59	0x3dabfbe5	0.083976544
60	0xbd9e4c94	-0.0772945
61	0xbd560b7e	-0.052257054
62	0xbe8f8cbe	-0.28037065
63	0xbea5872c	-0.3232969
64	0x3e35cc21	0.1775365
65	0xbdd429b2	-0.10359515
66	0x3ea41fea	0.32055598
67	0xbe8fa0d6	-0.28052396
68	0xbd414f27	-0.047194626
69	0x3c0f40be	0.008743463
70	0x3c6ca848	0.014444418
71	0xbd29a257	-0.041414585
72	0x3dc97cfb	0.09838291
73	0xbe3feafd	-0.18741985
74	0x3c482d7c	0.012217876
75	0x3e367eea	0.17821851
76	0x3e9828e4	0.29718697
77	0x3e8cc9ad	0.27497616
78	0x3cc86910	0.02446416
79	0xbe51e6cf	-0.20498203
80	0x3e8700a9	0.2636769
81	0x3e06c6de	0.131618
82	0xbca220c7	-0.01979102
83	0xbe3f0d3e	-0.18657395
84	0x3dd8fc1c	0.10594961
85	0xbdc61c98	-0.096734226
86	0x3e988312	0.297875
87	0x3de25d4c	0.11052951
88	0xbb81477d	-0.0039452896
89	0x3e718438	0.23585594
90	0x3da62b11	0.08113683
91	0x3e4b859e	0.1987519
92	0xbd68cdfd	-0.05683707
93	0xbe832b6d	-0.2561907
94	0xbf01de2f	-0.5072965
95	0x3dc3001f	0.095215075
96	0xbe03a4b8	-0.12855804
97	0xbdd62e8a	-0.10458095
98	0x3d6e04fc	0.058110222
99	0x3e5db938	0.21652687
100	0xbe09d7e3	-0.1346126
101	0x3dccd0f0	0.10000789
102	0xbe194cd8	-0.1497072
103	0x3ba06f19	0.0048960564
104	0xbbcfc2b7	-0.0063403505
105	0xbd140ce9	-0.036145125
106	0xbca88d3b	-0.020575156
107	0x3e018583	0.12648587
108	0xbdd0fe4b	-0.102047525
109	0xbde80f2e	-0.1133102
110	0xbca89758	-0.020579979
111	0xbea5aa20	-0.32356358
112	0xbe1b5460	-0.15168905
113	0xbe12e978	-0.14346874
114	0x3d98fbd9	0.07469911
115	0xbdc2d14f	-0.09512579
116	0xbcbe9ad8	-0.023267195
117	0xbd3c9259	-0.046038006
118	0x3eac03bd	0.33596602
119	0xbed01854	-0.4064356
120	0x3e0c600b	0.13708512
121	0xbbcd28fa	-0.0062609883
122	0x3e84e62e	0.25956863
123	0x3adb3a55	0.0016725758
124	0xbe55d524	-0.20882088
125	0x3e5ecab8	0.21757019
126	0xbe2f4c9d	-0.1711907
127	0xbeb28186	-0.34864444
128	0x3ed29a31	0.41133264
129	0xbef99465	-0.4874603
130	0x3d6f3ec7	0.05840948
131	0x3e42e91f	0.19034241
132	0x3e0ecf69	0.13946308
133	0xbee14313	-0.43996486
134	0xbd5c4ef8	-0.053786248
135	0xbe2ac446	-0.16676435
136	0xbd2250cc	-0.039627835
137	0x3e70a746	0.2350131
138	0x3d6b670b	0.057471316
139	0x3d25492a	0.040352978
140	0x3dc2de18	0.09515017
141	0xbd9b527e	-0.075840935
142	0xbd8d3c54	-0.06896272
143	0xbcfefe93	-0.03112725
144	0xbda2a174	-0.07940951
145	0x3e3dafbd	0.1852407
146	0x3ea57714	0.32317412
147	0x3e30663d	0.17226501
148	0x3b07a2be	0.0020696367
149	0x3e81a8c9	0.25324085
150	0xbe3452c2	-0.17609695
151	0x3d25fe98	0.040526003
152	0xbdfc3b73	-0.123160265
153	0x3e229354	0.15876514
154	0xbc9feb21	-0.019521298
155	0xbde9110c	-0.113802046
156	0xbd3e7284	-0.04649593
157	0xbe3298c7	-0.17441092
158	0xbdaaff71	-0.08349503
159	0xbc64ddd0	-0.0139689
160	0xbe2ab1e1	-0.16669418
161	0x3a86919d	0.0010266785
162	0xbea49564	-0.32145226
163	0xbda468f2	-0.08027829
164	0x3dc8a281	0.0979662
165	0xbde6900a	-0.11257942
166	0xbe484ae5	-0.1955982
167	0x3cfc84e9	0.030825095
168	0xbe49dbc0	-0.19712734
169	0x3e18558d	0.14876385
170	0x3ed88d4d	0.42295304
171	0xbcdf87df	-0.027286468
172	0xbe7d97ba	-0.2476491
173	0x3dfe9910	0.12431538
174	0x3c841bfe	0.016126629
175	0xbdba3ba3	-0.09093406
176	0xbcade04b	-0.021225115
177	0xbd9f4fcd	-0.07778893
178	0x3c634c62	0.013873192
179	0xbe5aa03f	-0.21350192
180	0x3ea6b0bf	0.32556722
181	0xbc09f699	-0.00842061
182	0xbe046920	-0.12930727
183	0xbbf7bb47	-0.007560167
184	0xbd6901d0	-0.056886494
185	0xbe145a75	-0.14487632
186	0xbe4ae672	-0.1981447
187	0xbdd19d06	-0.10235028
188	0xbd6a2208	-0.05716136
189	0xbe95825a	-0.29201013
190	0x3df471c5	0.11935762
191	0xbe9429d8	-0.28938174
192	0xbd142b34	-0.036174014
193	0x3dce27ae	0.10066162
194	0xbe44d753	-0.19222765
195	0x3c08955e	0.008336393
196	0x3d96f3b2	0.073707
197	0xbb2e3154	-0.0026579695
198	0x3dda4df5	0.106594004
199	0x3dfa0c5a	0.12209387
200	0xbed5d7d8	-0.41766238
201	0xbeb521ec	-0.35377443
202	0x3e26f7d2	0.16305473
203	0x3e21754c	0.15767401
204	0xbe5f8aca	-0.21830288
205	0x3e1b9753	0.15194444
206	0x3e819f18	0.2531669
207	0x3d6b0322	0.057376035
208	0x3ea8ca6e	0.32966942
209	0xbd5336a9	-0.0515658
210	0xbd1d0009	-0.03833011
211	0xbb90f21c	-0.004423393
212	0xbb3b7d7c	-0.002860873
213	0xbe22c276	-0.15894493
214	0x3e78be14	0.24291259
215	0x3c50b625	0.012738739
216	0x3d1fb177	0.038987603
217	0x3e111c08	0.1417085
218	0xbe06b7b0	-0.13156009
219	0xbccd6621	-0.025073113
220	0xbd9e3a37	-0.07725947
221	0x3e864184	0.2622186
222	0x3e7b6924	0.24551827
223	0x3d854b5a	0.06508513
224	0xbe233279	-0.15937223
225	0xbe8aeeaa	-0.2713521
226	0xbe07f7de	-0.13278148
227	0x3e76ea1d	0.24112745
228	0xbe16e0b9	-0.14734162
229	0xbed37e47	-0.4130728
230	0x3d525ef6	0.051360093
231	0xbe234711	-0.15945078
232	0xbe6ad18f	-0.22931503
233	0xbc692208	-0.014229305
234	0x3d6f5e00	0.058439255
235	0x3d4d4835	0.05011769
236	0xbe5fbac7	-0.21848594
237	0xbe1232c0	-0.14277172
238	0xbd1c23f8	-0.03812024
239	0xbec545da	-0.38529855
240	0xbe436b02	-0.19083789
241	0xbea4d517	-0.32193825
242	0x3e685122	0.226872
243	0x3e1ed26f	0.15509962
244	0xbd173eff	-0.036925312
245	0xbe1e8d1c	-0.15483516
246	0xbe48c43e	-0.1960611
247	0x3c6a44cc	0.014298629
248	0xbd400c32	-0.04688663
249	0xbe0b36e3	-0.13595156
250	0x3d1630fb	0.036667805
251	0xbd71479e	-0.05890619
252	0xbe93e8fc	-0.2888869
253	0xbea146cd	-0.3149933
254	0x3db244f4	0.08704558
255	0x3d5aa714	0.053381994

actor_mean.2.bias f4 [64]
0	0xbcee1f3d	-0.02906763
1	0x3d41f42e	0.04735201
2	0xbd3b8c86	-0.04578831
3	0x3d3c74c5	0.046009798
4	0xbd0bda14	-0.034143522
5	0x3cb30e81	0.021857502
6	0x3d0bc592	0.034123965
7	0xbcf29859	-0.02961366
8	0xbcaec100	-0.021332264
9	0x3d6fc40a	0.058536567
10	0x3c948bf9	0.01813315
11	0xbd94ae50	-0.0725981
12	0x3ca7286f	0.020405022
13	0xbbde1856	-0.0067778034
14	0x3d8e985f	0.06962656
15	0xbd313243	-0.043260824
16	0x3c9008af	0.017582266
17	0x3c7f860c	0.015595924
18	0xbd4464a6	-0.04794755
19	0x3d33cf6a	0.043898977
20	0x3d4ebed1	0.050474945
21	0x3d4bf382	0.049792774
22	0x3d09e63a	0.033666827
23	0x3da08533	0.07837906
24	0xbc303fdc	-0.010757413
25	0x3d4fd0bb	0.05073617
26	0x3d17ad0a	0.037030257
27	0xbd097476	-0.03355833
28	0xb9aa3b60	-0.00032469165
29	0xbacb6519	-0.00155178
30	0xbc31016d	-0.010803563
31	0xbca16a57	-0.019704027
32	0xbd138344	-0.036013857
33	0xbce032af	-0.027367918
34	0x3d036956	0.032082878
35	0xbc97b326	-0.018518042
36	0xbd2c3259	-0.042040203
37	0xbd2cdadb	-0.042200904
38	0x3c1a671c	0.009423997
39	0xbb43c104	-0.0029869685
40	0x3c531c1e	0.012885122
41	0x3d423998	0.047418207
42	0x3d9fa5cc	0.07795295
43	0x3d00c3d3	0.031436753
44	0x3d6188c9	0.05506209
45	0x3d27a66a	0.04093019
46	0x3d834bb8	0.064109266
47	0xbc0117cd	-0.00787921
48	0x3b2c3bb9	0.0026280715
49	0x3cfb1d58	0.03065364
50	0xbd0fd2e7	-0.03511324
51	0x3c5b74ab	0.013394515
52	0xbc1a3ab5	-0.009413411
53	0xbd89b9cb	-0.0672489
54	0xbc24f330	-0.010067746
55	0xbd018d4d	-0.031628896
56	0xbd3bd075	-0.045853097
57	0xbd45645f	-0.048191424
58	0x3d36a890	0.044594347
59	0x3d243a17	0.04009446
60	0xb93bf308	-0.00017924246
61	0x3ce2d64b	0.027690073
62	0xbd54031f	-0.05176079
63	0xbb8843b1	-0.00415846

actor_mean.4.weight f4 [4, 64]
0	0x3cef6aa0	0.029225647
1	0xbc286379	-0.010277622
2	0x3cb892cf	0.022530941
3	0xbca3783c	-0.019954793
4	0x3cad33d5	0.02114288
5	0xbc0b0ab9	-0.008486443
6	0xbceacd70	-0.028662413
7	0xbc866d4a	-0.016409535
8	0x3d72acf6	0.05924698
9	0xbb9d85bd	-0.0048072026
10	0xbc88a1ea	-0.01667877
11	0x3d1fe1be	0.039033644
12	0xbc7babc9	-0.015360781
13	0xbb866261	-0.004101083
14	0xbcc80652	-0.024417076
15	0x3d156c3b	0.03648017
16	0x3d6d5306	0.057940505
17	0xbc1a7791	-0.009427921
18	0x3cd8d734	0.026469804
19	0x3c82c87e	0.015964743
20	0xbcb4beec	-0.022063695
21	0x3b72b36c	0.0037033213
22	0x3ca897fc	0.020580284
23	0xbd4333c0	-0.047656775
24	0xbd123a10	-0.035699904
25	0xbcc96aab	-0.024586996
26	0x3abbb24f	0.0014320108
27	0xbd19754b	-0.037465375
28	0x3d6a4b0a	0.05720047
29	0x3cd3cdc1	0.025854947
30	0x3d08de00	0.03341484
31	0x3a280143	0.00064088794
32	0x3cfd3e50	0.030913502
33	0x3caaf180	0.02086711
34	0xbbb863cd	-0.0056271316
35	0x3c2256d7	0.0099084
36	0x3be29391	0.006914564
37	0x3bcc19a7	0.006228644
38	0x3c30e9ea	0.010797957
39	0xbc3bcbdc	-0.011462178
40	0xbd043b6a	-0.032283224
41	0xbd99183c	-0.074753255
42	0xbcf50e8a	-0.02991416
43	0x3ca5e793	0.020252025
44	0xbca6d0fe	-0.020363327
45	0xbc71ada0	-0.014750868
46	0xbd1e357f	-0.038625237
47	0x3d977276	0.073948786
48	0xbd42547a	-0.047443844
49	0x3c08ec89	0.008357176
50	0xbca58a8a	-0.020207662
51	0x3cc1baad	0.023648584
52	0x3c76bbbd	0.015059409
53	0x3c5a94e1	0.01334116
54	0xbcfe91c8	-0.031075373
55	0x3c008ce6	0.007846093
56	0x3bca6510	0.0061765984
57	0x3d333607	0.043752696
58	0xbae7b118	-0.0017676679
59	0x3d175a61	0.036951426
60	0xbbf4b1e8	-0.007467497
61	0xbc04a1bf	-0.008095204
62	0x3d3e8fa2	0.046523698
63	0x3d29351b	0.04131041
64	0x3be6c495	0.0070424774
65	0xbd1e9799	-0.038718794
66	0x3adf2fd2	0.0017027801
67	0xbd8591b6	-0.06521933
68	0xbca24fcf	-0.019813446
69	0x3c73ce67	0.014880753
70	0x3c9a3a71	0.018826695
71	0xbcc0809d	-0.023498828
72	0x3d117590	0.035512507
73	0x3c88aece	0.016684916
74	0xbd497e49	-0.0491927
75	0xbb049959	-0.0020233004
76	0xbd3c6c0a	-0.04600147
77	0xbc839a84	-0.01606489
78	0xbc4058d2	-0.011739926
79	0x3dd13f83	0.10217192
80	0x3cc0d6ee	0.023539986
81	0xbc6b5e26	-0.014365708
82	0x3d65658d	0.05600505
83	0x3ca88991	0.02057341
84	0x3c8d1e56	0.01722638
85	0xbcbbc5b6	-0.022921424
86	0xbb5cf193	-0.0033713325
87	0xbcb1a08c	-0.021683
88	0xbd456bf4	-0.048198655
89	0xbd738d95	-0.059461195
90	0xbc9c1e88	-0.019057527
91	0x3d68409c	0.05670224
92	0xbb33a3ba	-0.002741082
93	0xbca6e0f0	-0.02037093
94	0xbcd0717f	-0.025444744
95	0x3bcd5f43	0.0062674596
96	0x3c9e8272	0.01934931
97	0x3ce8fd08	0.028440967
98	0xbaca4fb3	-0.0015435129
99	0xbce37462	-0.027765457
100	0xbd69ac7d	-0.057049263
101	0xbd608470	-0.054813802
102	0x3d459abe	0.048243277
103	0x3c82fe97	0.015990539
104	0xbbb65ba4	-0.0055651236
105	0x3b0df28a	0.0021659457
106	0xbd2831de	-0.041063182
107	0xbd22679a	-0.039649583
108	0x3c2ce4be	0.010552583
109	0xbdc44cc7	-0.095849566
110	0xbaf5e232	-0.0018759428
111	0xbbf23bf1	-0.0073923995
112	0xbc8e165d	-0.017344648
113	0x3dd640b7	0.10461562
114	0xbb78c748	-0.0037960578
115	0xbc1c4d5b	-0.009539927
116	0x3d6bfebd	0.057615984
117	0xbd1805b1	-0.037114803
118	0xbc2fcf9f	-0.010730653
119	0xbd35201c	-0.044220075
120	0x3d344cef	0.044018682
121	0x3ce5e1ed	0.028061831
122	0xbc890e6e	-0.016730513
123	0x3c03420f	0.008011355
124	0x3d895f1b	0.06707593
125	0x3bf2e1a1	0.007412151
126	0x3c3b7f56	0.0114439335
127	0xbdd5c6be	-0.10438298
128	0x3cc21f26	0.023696493
129	0xbcac6a50	-0.021046788
130	0xbd14b118	-0.036301702
131	0xbbd3c46d	-0.0064626248
132	0xbcb70c63	-0.022344774
133	0x3ced2d6a	0.02895232
134	0x3b0d02ce	0.0021516564
135	0xbd185f1c	-0.03720008
136	0xbd3621e0	-0.0444659
137	0xbca9c45a	-0.02072351
138	0xbc413742	-0.01179296
139	0xbd5087a1	-0.050910596
140	0xbcdfda17	-0.027325673
141	0xbc4cc110	-0.012497202
142	0xbb82a0b5	-0.003986443
143	0x3d3b258d	0.045690108
144	0x3d2f9bae	0.042873077
145	0xbb303324	-0.002688595
146	0xbc98bcd5	-0.01864473
147	0x3c98c7c0	0.018649936
148	0x3c14064d	0.009034705
149	0x3d06e6db	0.032935005
150	0x3d5eddbd	0.054410685
151	0xbd798e88	-0.060926944
152	0x3d0e98bd	0.03481363
153	0x3c7a46e5	0.015275692
154	0xbbea49a4	-0.007149892
155	0xbd510ffc	-0.051040635
156	0xbca6e327	-0.020371987
157	0xbd73793f	-0.0594418
158	0xbcea2b32	-0.02858505
159	0xbd6dcd7d	-0.058057297
160	0xbbc3fdc4	-0.005981179
161	0x3cc07629	0.023493843
162	0xbd020323	-0.031741273
163	0x3c8bdcf2	0.017073128
164	0xbd4e4678	-0.050360173
165	0xbcab612e	-0.020920362
166	0xbcd4e669	-0.025988774
167	0xbd314c9d	-0.043285955
168	0xbce0e90c	-0.027454875
169	0x3cc52493	0.024065292
170	0xbca01b69	-0.01954432
171	0xbc88ae66	-0.016684722
172	0xbd8dc957	-0.06923168
173	0x3cc08226	0.02349956
174	0x3c469d91	0.012122528
175	0xbd00423e	-0.031313173
176	0xbb746d24	-0.0037296498
177	0xbd6dbfb1	-0.05804414
178	0x3d48ef1f	0.04905617
179	0x3c1dcc43	0.009631219
180	0x3abfe077	0.0014639039
181	0xbd034cc5	-0.032055635
182	0xbd167170	-0.036729276
183	0xbd62cb09	-0.05536941
184	0x3b823957	0.0039741206
185	0x3c04b813	0.008100527
186	0x3d031258	0.031999916
187	0xbd1c0124	-0.038087025
188	0x3c42f637	0.0118995225
189	0x3d418fa5	0.04725613
190	0x3c19e199	0.009392166
191	0x3c7bb884	0.015363816
192	0xbca76ba4	-0.02043707
193	0x3d0a519e	0.033769242
194	0xbd04d0bd	-0.03242563
195	0xbcd5e040	-0.026107907
196	0xbc6236d7	-0.01380702
197	0xbc79e535	-0.015252401
198	0x3ca5debd	0.020247811
199	0xbc16bd69	-0.009200432
200	0xba82c967	-0.0009978235
201	0xbbd9ca82	-0.0066464553
202	0xbc9048e1	-0.017612876
203	0xbc8d7bb4	-0.0172709
204	0xbc0fe70f	-0.008783116
205	0x3cb072e9	0.021539168
206	0xbbed8bdb	-0.007249338
207	0xbcac81fa	-0.021058071
208	0x3b7c7960	0.0038524494
209	0x3c03a233	0.008034277
210	0xbd8887cb	-0.066665255
211	0xbd3ef95a	-0.04662452
212	0x3b5fa97d	0.0034128122
213	0x3d3f7e02	0.04675103
214	0xbcd3e105	-0.025864134
215	0x3b52865c	0.0032123541
216	0x3d6144dd	0.054997314
217	0xbbf14187	-0.007362548
218	0xbc4d72ad	-0.012539548
219	0xbdb06c00	-0.08614349
220	0xbcdb42e6	-0.026765298
221	0xbd0d8cd6	-0.03455814
222	0xbcc62c94	-0.024191178
223	0xbc90e32c	-0.017686449
224	0xbbc37dec	-0.005965939
225	0xbc85ccb1	-0.016332956
226	0x3c0b15f1	0.008489118
227	0x3a51b810	0.0008000145
228	0x3c825bfc	0.015913002
229	0xbc5f55a0	-0.013631254
230	0x3c1f06fb	0.009706254
231	0xbc8e8310	-0.01739648
232	0xbd2f90cc	-0.0428627
233	0x3d086695	0.033300955
234	0x3cd6ba84	0.026211984
235	0xbada8a42	-0.0016673284
236	0x3d2a4659	0.041570995
237	0x3cf69c9f	0.03010398
238	0xbc5a8601	-0.013337613
239	0xbb98672e	-0.004650972
240	0x3c9cfccd	0.019163514
241	0xbcec497c	-0.028843634
242	0xbcef1dc7	-0.029189004
243	0x3c4ac559	0.012376153
244	0xbaaeca06	-0.0013335354
245	0x3c2901f2	0.010315405
246	0x3c8f28ef	0.017475573
247	0xbc40140e	-0.011723531
248	0xbd0292e6	-0.031878375
249	0xbcdb230d	-0.026750112
250	0x3c50d2e5	0.012745594
251	0xbd6c256b	-0.057652872
252	0x3c102cf7	0.008799783
253	0x3cae9c21	0.021314682
254	0x3cc78659	0.024356054
255	0xbd2e0cc7	-0.042492654

actor_mean.4.bias f4 [4]
0	0xbd31d0a8	-0.04341188
1	0xbcedc297	-0.029023452
2	0xbce3a360	-0.027787864
3	0xbcc12d2d	-0.023581112

codebook f4 [100, 2]
0	0x3ea41934	0.32050478
1	0x3f27a149	0.65480477
2	0x3f0ccbba	0.5499836
3	0x3edba72f	0.42900988
4	0xbf2f34b4	-0.68439794
5	0x3d0da9f5	0.03458591
6	0x3ef7de23	0.48411664
7	0x3f005bb9	0.5013996
8	0x3ed2de01	0.41185
9	0x3f11f0a0	0.5700779
10	0x3ceb42b0	0.028718323
11	0x3f75d304	0.9602511
12	0x3e35a284	0.17737776
13	0x3f4f1f51	0.8090716
14	0x3f42843a	0.7598301
15	0xbe624f6b	-0.22100608
16	0x3ee92f37	0.45543835
17	0x3f07352e	0.5281552
18	0x3ef76345	0.48317924
19	0x3eff3e78	0.49852347
20	0x3d8ff613	0.07029357
21	0x3f6a09f9	0.9142147
22	0x3f2e5d73	0.6811134
23	0x3e967355	0.29384866
24	0x3ebfa301	0.3742905
25	0x3f1ec4d0	0.6201906
26	0x3eedf44b	0.46475443
27	0x3f050da9	0.5197397
28	0x3efe7f64	0.49706566
29	0x3ef95492	0.48697335
30	0x3dd91891	0.10600389
31	0x3f5f0484	0.87116265
32	0x3f754385	0.9580615
33	0x3ca88ee8	0.020575956
34	0x3eddf5f9	0.43351725
35	0x3f0f50ed	0.5598286
36	0x3f453665	0.77036124
37	0x3e4889d4	0.19583827
38	0x3f49ddbd	0.7885397
39	0x3e3bd14c	0.18341559
40	0x3e5bfd7e	0.21483418
41	0x3f4792f6	0.7795862
42	0x3f08a703	0.5337984
43	0x3ee5e281	0.4489937
44	0x3e2315b1	0.15926243
45	0x3f572588	0.84041643
46	0x3e057fbe	0.13037011
47	0x3f597a6b	0.8495242
48	0x3e1dfc59	0.15428294
49	0x3f523510	0.82112217
50	0x3f613f8d	0.87987596
51	0x3d9ad5d8	0.07560319
52	0x3e4a978a	0.1978437
53	0x3f4be24f	0.79642195
54	0x3f0aa527	0.5415825
55	0x3ee05138	0.43811965
56	0x3ea99c34	0.33126986
57	0x3f274152	0.65334046
58	0x3f353a5e	0.70792186
59	0x3e941519	0.28922346
60	0x3eddec74	0.43344462
61	0x3f0c0727	0.54698414
62	0x3e8d8b30	0.27645254
63	0x3f33aab1	0.7018233
64	0x3f06e85b	0.52698296
65	0x3ee876fc	0.45403278
66	0x3f20d6f4	0.6282799
67	0x3eb668c0	0.35626793
68	0x3edf1931	0.43573907
69	0x3f0fe2c5	0.562054
70	0x3f1f3784	0.62194085
71	0x3eb86e53	0.3602167
72	0x3f3e1510	0.7425089
73	0x3e6fe3cd	0.23426743
74	0x3ef10c4c	0.47079694
75	0x3f0375a1	0.5135136
76	0x3f59ef1d	0.8513048
77	0x3e02a553	0.12758379
78	0x3f162c4d	0.5866135
79	0x3ec94a28	0.3931439
80	0x3f150e9b	0.5822541
81	0x3ecae32f	0.39626452
82	0x3f0521d6	0.52004755
83	0x3eeb854e	0.4600014
84	0x3e99f511	0.30069783
85	0x3f31ecdf	0.6950206
86	0x3ecd9025	0.40149036
87	0x3f142d04	0.5788119
88	0x3f3dce08	0.74142504
89	0x3e5b4bb8	0.21415603
90	0x3f10c3ff	0.56549066
91	0x3ed74d57	0.42051193
92	0x3ddda648	0.10822731
93	0x3f5c5337	0.86064476
94	0x3eac3355	0.33632913
95	0x3f24c847	0.643681
96	0x3ed34b46	0.41268367
97	0x3f11a93a	0.56898844
98	0x3f0fd0a7	0.56177753
99	0x3ed36162	0.41285235
100	0x3f22856a	0.63484824
101	0x3eaf16bb	0.3419703
102	0x3f1d19e8	0.61367655
103	0x3ebe3057	0.37146255
104	0x3f1de4cc	0.6167724
105	0x3eb5db35	0.35518804
106	0x3f1d02d0	0.61332417
107	0x3ebbccee	0.36679786
108	0x3e60c631	0.21950604
109	0x3f443232	0.7663909
110	0x3f34d1ee	0.7063283
111	0x3e8669ed	0.2625269
112	0x3f449af1	0.7679892
113	0x3e56fc8e	0.2099478
114	0x3f42a6a7	0.7603554
115	0x3e603382	0.21894649
116	0x3ed5cb70	0.41756773
117	0x3f10c804	0.565552
118	0x3f45fb1c	0.7733629
119	0x3e46968f	0.19393371
120	0x3f367098	0.71265554
121	0x3e86006c	0.26172197
122	0x3f08fef2	0.53514016
123	0x3ee37234	0.44423068
124	0x3ea9df9f	0.33178422
125	0x3f27d8f5	0.65565425
126	0x3ecb8661	0.3975096
127	0x3f163a91	0.58683115
128	0xbd03df6d	-0.032195497
129	0x3f72b2af	0.948039
130	0x3f36ad2c	0.7135799
131	0x3e80249f	0.2502794
132	0x3f1ce639	0.6128879
133	0x3ebba795	0.36651292
134	0x3f5ab7d2	0.8543674
135	0x3db8b281	0.09018422
136	0x3f023ef2	0.50877297
137	0x3ef1c8f1	0.4722362
138	0x3f62b60f	0.8855905
139	0x3d332bd3	0.043742966
140	0x3f373799	0.7156921
141	0x3e85f205	0.2616121
142	0x3f0e5185	0.5559314
143	0x3ed623f1	0.41824296
144	0x3e100e90	0.14068055
145	0x3f55cec0	0.835186
146	0x3effce8f	0.4996228
147	0x3ef8466b	0.48491225
148	0x3f0f3f17	0.5595564
149	0x3eedcfd8	0.46447635
150	0x3f48cac5	0.784344
151	0x3e31375c	0.17306274
152	0x3ed1ca16	0.40974492
153	0x3f158d57	0.5841879
154	0x3e8b5c40	0.2721882
155	0x3f3468ac	0.70472217
156	0xbb6b8541	-0.003593758
157	0x3f793770	0.97350216
158	0x3edc4893	0.4302412
159	0x3f0e2eff	0.5554046
160	0x3e657d69	0.22411121
161	0x3f4117b0	0.7542677
162	0xbdb65483	-0.08902838
163	0x3f82a6be	1.0207136
164	0x3d9e2832	0.077225104
165	0x3f67ebb3	0.90594023
166	0x3f02b7a7	0.5106148
167	0x3ef2039f	0.47268388
168	0x3d1a5d66	0.037686728
169	0x3f73bffa	0.9521481
170	0x3e30b209	0.17255415
171	0x3f517c58	0.8183036
172	0x3f2e2ccc	0.68037105
173	0x3e94a0cc	0.29028928
174	0x3f3b747c	0.73224616
175	0x3e787bb5	0.2426594
176	0x3eff2eb2	0.49840313
177	0x3ef8cfb1	0.48595956
178	0x3eea6a17	0.45784065
179	0x3f099889	0.53748375
180	0x3efde4f6	0.49588746
181	0x3efba5a1	0.49149802
182	0x3f157680	0.5838394
183	0x3ec9693f	0.3933811
184	0x3eccb43d	0.3998126
185	0x3f180c9e	0.5939425
186	0x3d00ad6d	0.03141539
187	0x3f721462	0.9456235
188	0x3e99ab0c	0.3001331
189	0x3f30b5e8	0.69027567
190	0x3ede1ff8	0.43383765
191	0x3f0e8e38	0.5568576
192	0x3f23fe25	0.6405967
193	0x3eac9f53	0.33715305
194	0x3f25f7c9	0.64831215
195	0x3ea73d53	0.32663974
196	0x3eb8e1a0	0.36109638
197	0x3f20b6e8	0.6277909
198	0x3f5044d1	0.81355006
199	0x3e1629c1	0.14664365
