saved_agents/dm_humanoid_b.pth (torch, 646180 bytes, 30 tensors)

actor_logstd f4 [1, 21]
000000 eb 2e ce be 52 bc e9 be 0f ae db be 49 5b cf be
       -0.4027017 -0.4565149 -0.42906234 -0.40499333
000010 61 00 00 bf b2 d3 cf be 5d 9e d5 be 64 69 d7 be
       -0.5000058 -0.40591198 -0.41722384 -0.42072594
000020 5d af f0 be e6 37 f4 be 89 dc 04 bf ef ad f0 be
       -0.47008792 -0.47698897 -0.5189901 -0.470077
000030 a9 a0 df be 09 fa d0 be ea 50 ea be 12 2b dc be
       -0.4367726 -0.40815762 -0.45764858 -0.4300161
000040 3b b3 f3 be f4 88 e5 be 9a af cb be 36 1e d9 be
       -0.4759768 -0.4483105 -0.3978241 -0.42405862
000050 b6 2d ea be
       -0.45738

critic.0.weight f4 [64, 69]
000000 97 30 38 bf 01 87 c4 bd 2c 87 eb 3c cf 4b 7b 3b
       -0.7194914 -0.095960625 0.028750978 0.0038344746
000010 40 96 c6 be b8 67 ad be 5a 91 1f 3b 47 01 bb be
       -0.38786507 -0.33868194 0.002434811 -0.36524412
000020 29 7f 9c 3e 04 20 62 bd 2f 08 c3 3e ec 5e a3 3e
       0.30565766 -0.055206314 0.3809218 0.31908357
000030 ae 04 ce 3e 06 03 55 be 59 84 e3 bc 01 9d 0e be
       0.40237945 -0.20801935 -0.02777307 -0.1392708
000040 48 87 2f 3d 87 0c 80 3e d0 ae 71 be d4 23 86 bc
       0.042853624 0.25009558 -0.23601842 -0.016374506
000050 6d 09 89 3c 94 c8 f2 bd e0 9b 2d 3e c2 90 47 be
       0.016728127 -0.118546635 0.16953993 -0.19488814
000060 e4 e0 d1 bc 8d 49 1b 3f 0b 23 ce bc 90 ed c2 3e
       -0.025619932 0.60659105 -0.025163194 0.3807187
000070 ee c1 18 3e 78 75 1d 3e a8 b0 8c bc 97 64 19 3e
       0.14917728 0.15376842 -0.01717408 0.14979778
000080 31 71 59 3e 87 c9 88 bd 57 73 22 be b8 fb 8a be
       0.21234585 -0.06679063 -0.15864311 -0.2714517
000090 d5 54 29 bd f5 ba 8f bd e3 ca 03 be 96 d6 a6 be
       -0.041340668 -0.07018081 -0.12870364 -0.3258559
0000a0 4c 2b 80 be 21 0a 7a 3a db 16 59 3e 3c 0f 29 be
       -0.25033033 0.00095382525 0.21200125 -0.16509718
0000b0 ad b3 d6 3d 7f 5d a1 be c0 ad c0 bd 29 bd fa bc
       0.10483489 -0.31516644 -0.0940814 -0.030607777
0000c0 1c 27 96 3e 3f 49 cc bc 39 84 4f 3d 02 a7 c6 3d
       0.29326713 -0.02493727 0.050663207 0.09699823
0000d0 1c c0 04 3e 94 7e 0e 3e ed 8d da 3b 23 5e 4b be
       0.12963909 0.13915473 0.006669751 -0.19860129
0000e0 f3 bf 06 3e d1 23 6a be 78 b2 b7 bd cb 25 81 3c
       0.1315916 -0.22865225 -0.08969587 0.015765091
0000f0 a7 8d 9d be a0 88 47 be 1d 22 11 be 3f 83 6c 3e
       -0.30772135 -0.19485712 -0.1417317 0.23096941
000100 e6 0e 60 3e 09 d0 69 3e b7 4f 67 3e 8e 7d cc be
       0.21880683 0.22833265 0.22589003 -0.3993954
000110 7f a5 fe be 83 82 18 3f 53 4d 0c 3f 21 14 97 bd
       -0.49735638 0.59574145 0.5480549 -0.07376886
000120 6e 4a ba 3e 52 46 e9 3d e5 af d2 bd 45 6d 34 3e
       0.3638491 0.11390366 -0.102874555 0.17619808
000130 72 d4 39 3e a3 8e 95 bd d2 e6 29 3c f9 ab 02 be
       0.18147448 -0.073025964 0.010369973 -0.12760915
000140 4f 2d 5b be a5 1d 0e 3e 1f 9e 5c bc 7d d7 48 be
       -0.21404003 0.13878496 -0.013465433 -0.19613452
000150 d7 44 11 3c 14 18 e4 bd d1 df 27 bf 62 9a 5f be
       0.00886651 -0.11137405 -0.6557589 -0.21836236
000160 40 00 f0 3c a3 be 96 bd 94 15 4f be 87 97 ce 3c
       0.029296994 -0.0736058 -0.20223075 0.025218738
000170 55 4d 90 bd 9a 26 07 be b3 13 98 3e 30 42 5c be
       -0.07046 -0.13198319 0.2970253 -0.21509624
000180 16 9b 91 be a9 e0 8f bc fc 35 fa bd 6a 0f c4 bd
       -0.28438634 -0.017563181 -0.12217328 -0.095732525
000190 ea 42 eb 3c 08 d1 6a be ad 65 c8 bd 84 d6 64 be
       0.02871843 -0.22931302 -0.09785018 -0.22347456
0001a0 0e e1 a0 be c5 38 67 be 19 b7 a5 3e 52 c4 b5 bb
       -0.31421703 -0.2258025 0.32366255 -0.005547085
0001b0 42 b8 47 3e bc 9e 20 3e 20 23 3d be 56 d3 0d 3d
       0.19503883 0.15685552 -0.1847043 0.034625374
0001c0 ae 95 56 bd 21 ec ff bb 6a d2 09 be e0 23 3b 3e
       -0.05238884 -0.007810131 -0.13459173 0.18275404
0001d0 dd 05 23 3d af 7f fa bd 63 5b 92 3d 8d df 7a be
       0.039800514 -0.12231385 0.07146337 -0.2449934
0001e0 bb ce 8b be 07 2b 78 bd ce 23 4f be 6b a8 de be
       -0.2730616 -0.06058791 -0.20228502 -0.43487868
0001f0 e3 ec 09 3e 76 75 7c bd 25 bb ef bd 97 8c 2e be
       0.13469271 -0.061635457 -0.11705617 -0.17045818
000200 84 14 9c bd f9 d1 55 3d a7 39 67 3d a1 b2 05 3c
       -0.076211005 0.0522022 0.056451466 0.008160264
000210 01 2e 99 bd 81 6d b7 3e 3c 0a d9 3d 5d b3 a0 3e
       -0.07479478 0.35825732 0.10597655 0.31386843
000220 60 a6 ad 3e 09 ff 55 bd ef 71 50 be 9f a5 92 3d
       0.33915997 -0.052245174 -0.20355962 0.07160496
000230 e6 58 b2 3d 0d 60 44 bf 94 2f 22 bf 96 23 90 3d
       0.08708362 -0.7670906 -0.6335385 0.070380375
000240 80 5c 98 3d 65 cb 08 bd f7 95 dc 3e 52 02 48 bd
       0.07439518 -0.033397097 0.43083164 -0.048830338
000250 6a 5e d9 3e 88 b6 ae 3d e1 81 51 be 6e 15 8a bc
       0.42454845 0.08530909 -0.20459701 -0.016855922
000260 dc 16 4e 3f b5 d5 5d bf 7a a2 12 be df 9a 51 3e
       0.8050363 -0.86654216 -0.14319792 0.20469235
000270 64 07 ea bb 57 d3 86 3e 61 59 dd 3d 0c fe 45 3e
       -0.0071419943 0.26333115 0.10808063 0.19335192
000280 0c fb e7 3d 2e 44 95 be 91 da 72 be 5d b6 fd 3e
       0.1132718 -0.2915358 -0.23716189 0.49553195
000290 a5 f9 0c 3f 75 54 9a 3e 85 20 5a 3d 7d 74 1e be
       0.5506843 0.3014256 0.05325367 -0.15474124
0002a0 a3 cd 85 3d 4a 7c 8a bd d0 c3 95 bc a7 a2 82 3d
       0.06533363 -0.067619875 -0.018281847 0.0637868
0002b0 02 70 c2 bd 71 af 70 be f8 9c 71 3e f1 e5 68 3e
       -0.0949402 -0.23504426 0.23595035 0.22743966
0002c0 14 a0 b1 be 71 4f 1d bf 0c 3b 55 be ed 72 91 3e
       -0.34692442 -0.6144934 -0.20823306 0.28407994
0002d0 1e 97 ba bd 1c f6 92 bd 64 90 c0 bb e7 75 de 3d
       -0.091108546 -0.07175848 -0.0058765877 0.10862332
0002e0 1c bc 6b be b5 f9 a0 bc 6a 54 86 3e e3 7a e0 3d
       -0.23020977 -0.01965032 0.26236278 0.10960939
0002f0 9c 90 f2 bc 2f 98 d6 bd 36 5d 6c be 34 6f 77 3b
       -0.02960997 -0.104782455 -0.23082432 0.0037755491
000300 22 9a 34 be ed 4f 15 be f7 a4 89 be cf 58 a6 bd
       -0.17636922 -0.1458127 -0.2688367 -0.08122408
000310 8f a2 2b be 26 e1 12 bc e0 18 97 3e 98 55 eb 3d
       -0.1676123 -0.008964812 0.29511166 0.11490935
000320 fb 82 21 3e 5d 38 10 3e 1b 04 02 be 34 2b 55 3e
       0.15772621 0.14084001 -0.12696879 0.20817262
000330 09 7d 39 3d 9f 9a a7 be 41 b8 d6 be 94 5d e0 3e
       0.04528526 -0.32735154 -0.4193745 0.43821394
000340 30 ac 76 3e 95 3a ec be 23 9c 92 be be a8 47 be
       0.24089122 -0.46138445 -0.28634748 -0.19497964
000350 af 7f 4f 3e c5 12 45 3d 77 3b 05 3d bb 8b 0f 3f
       0.20263551 0.048113603 0.032527413 0.56072587
000360 be 24 0f bf b8 62 32 3c d2 3b af 3b 53 e6 22 3d
       -0.5591544 0.010887794 0.0053477073 0.039770436
000370 2a d0 bd 3d 28 a7 a1 3e 12 51 f0 be d2 4e 63 bd
       0.0926822 0.31572843 -0.46936852 -0.05549509
000380 da 00 97 bd 1f 01 96 bd 22 53 c5 3e 3b 33 33 3e
       -0.07373209 -0.073244326 0.38539988 0.17500012
000390 b0 60 e3 3e 83 9c 32 3b b2 86 06 3e 7f 51 a2 bd
       0.44409704 0.0027253933 0.1313732 -0.079257004
0003a0 bf dc 8c 3c 5b b5 e6 3d 92 6f 88 3e 7d 07 b1 bd
       0.017195104 0.112650596 0.2664762 -0.086440064
0003b0 37 52 0b 3e d8 34 9b be 08 d1 b4 3c 5c 53 4a 3e
       0.13605581 -0.30313754 0.02207233 0.19758362
0003c0 47 14 cd be 1f 82 db bd df 8e 1b be f0 05 2e 3d
       -0.40054533 -0.10718178 -0.1519122 0.04248613
0003d0 ec fe 59 bd 79 fe c7 3d f3 b5 62 be b6 3a 0c 3e
       -0.053221628 0.09765334 -0.2213972 0.13694271
0003e0 d1 87 00 bd e3 10 82 bc 47 1f 9b 3e 20 29 3a be
       -0.031379525 -0.015877193 0.302973 -0.1817975
0003f0 fc 17 7d 3e a6 64 39 be 40 69 31 bd f5 4c 07 3e
       0.2471618 -0.181048 -0.043313265 0.1321295

critic.0.bias f4 [64]
000000 27 02 99 be f8 64 0f 3e ee f2 e1 be bb 0f 8f be
       -0.29884455 0.1400336 -0.44130653 -0.2794169
000010 13 d6 18 3f 36 81 f3 3e fc c8 5c bd 54 35 24 bf
       0.5970165 0.47559518 -0.05390261 -0.6414387
000020 4e 41 c0 3e dc 21 79 3e e1 7b 87 be bf 39 18 bf
       0.37549824 0.24329323 -0.264617 -0.59463114
000030 56 5c 8b 3e 95 80 10 3f cc 6b 86 be f1 ff 98 be
       0.27218884 0.564462 -0.26254117 -0.29882768
000040 e7 81 a0 be 51 8e 4a 3d 1c 41 b2 bd 27 b6 67 be
       -0.31349108 0.04945213 -0.08703825 -0.2262808
000050 41 bd b8 be b3 fd 3a be 09 56 c8 be a5 9f a2 3e
       -0.3608189 -0.18260841 -0.3912814 0.31762424
000060 98 b1 95 3e be 16 de be 70 bf de be 8d f5 e0 bd
       0.29237056 -0.43376726 -0.4350543 -0.10984335
000070 b3 5d 3d be 14 c8 0c be ae 7a 1b bf 71 24 cb bc
       -0.18492775 -0.13748199 -0.6073407 -0.02479765
000080 a7 3b a4 3e a6 22 bc 3d a5 6c 2e 3d 92 d0 d0 3e
       0.3207676 0.09186296 0.04258408 0.40784127
000090 4f 5b 30 bf 1d b3 1a be c2 f4 b0 3d 78 6d d5 3d
       -0.68889326 -0.15107389 0.08640434 0.1042127
0000a0 9d 14 d9 be 59 2a d0 be f6 c7 b2 be 8f 63 06 3f
       -0.4239854 -0.4065731 -0.34918183 0.52495664
0000b0 02 3c 6d 3e f1 e8 65 3d 50 16 79 be cc dc 2d 3e
       0.23167422 0.056130353 -0.24324918 0.16978759
0000c0 ff 3f 59 3e 81 3b 04 be 32 42 1b bf d3 36 48 3f
       0.21215819 -0.12913324 -0.6064788 0.78208655
0000d0 49 e1 7f 3e 11 50 77 be 5a 1a 29 3f e3 68 3b 3d
       0.24988283 -0.24151637 0.66055834 0.045754325
0000e0 06 c4 e7 3e 2a e0 78 be db 90 46 3e 37 de b7 be
       0.45266742 -0.24304262 0.19391195 -0.35911724
0000f0 37 79 9a 3e f0 7f d7 3e 07 85 a0 be 52 53 f7 3d
       0.30170605 0.42089796 -0.31351492 0.12076439

critic.2.weight f4 [64, 64]
000000 8b 09 c2 3d 80 57 8f be a2 81 88 3b 50 78 17 bc
       0.094744764 -0.27996445 0.004165844 -0.009244993
000010 c1 6e 94 be 9a cf a9 be 0f e5 c3 bc b8 be c0 3e
       -0.2899075 -0.331662 -0.023912935 0.37645507
000020 d1 1b 84 be b8 dd b3 3c 70 ee 95 3e d6 91 26 3f
       -0.25802472 0.02195631 0.29283476 0.6506628
000030 81 30 60 3d 7d a9 71 bd 33 40 d1 bc c5 7b 8c 3d
       0.054733757 -0.058999527 -0.025543308 0.06859545
000040 17 3b 7b be d8 73 33 bc 22 dd b6 bd 62 d0 40 3e
       -0.2453426 -0.010952912 -0.089288965 0.18829492
000050 8f 91 b2 3e a1 5c 8f bd 88 26 ce 3d b1 7c fe bd
       0.34876677 -0.070000894 0.10065943 -0.12426127
000060 71 aa 6c bd 06 69 b9 bc 5f 91 08 3e f4 e7 9b 3d
       -0.057779733 -0.022633087 0.13336705 0.07612601
000070 f4 64 4e be 35 d6 a7 bc 3e 5d 0a 3f e3 95 02 bd
       -0.20155698 -0.020487884 0.54048526 -0.031881224
000080 f7 aa 8a be 02 09 15 be 3f 9d 9d be 4b 02 e1 be
       -0.2708356 -0.14554217 -0.30784032 -0.43947062
000090 c9 bb a3 3e 13 4f e0 3d f8 4b 5a 3d 4a 91 4e 3e
       0.31979206 0.10952582 0.053295106 0.20172611
0000a0 bd 12 41 3d f4 a9 b9 3e 64 e0 23 be 09 e7 44 be
       0.04713701 0.36262476 -0.16003567 -0.19228758
0000b0 a5 a3 31 3e e3 35 98 3c 9b d1 a7 3e fb 8f b2 3d
       0.17347582 0.018580383 0.32777104 0.08718868
0000c0 80 d3 a8 bb 49 6e af bc 99 23 f4 3c 81 41 1f 3d
       -0.005152166 -0.021414893 0.02980213 0.03888083
0000d0 7b e5 7a be 35 92 84 3d 80 c8 d2 bd 8f e7 71 be
       -0.24501602 0.06473199 -0.102921486 -0.23623489
0000e0 44 47 90 3d 4e 87 81 bc f9 46 4d 3d a1 b2 1e 3e
       0.07044843 -0.015811589 0.050116513 0.15497829
0000f0 5e 45 08 be b3 a2 53 be db 0e 00 be dd 82 93 be
       -0.13307711 -0.20667534 -0.12505667 -0.28810778
000100 20 14 4c be 42 e7 9c be ae f4 02 bd 70 1d 25 3e
       -0.19929552 -0.30645186 -0.031971626 0.16124511
000110 7b 1d 2a be 8a 04 bf 3e 3a 61 44 3e 24 76 07 be
       -0.16612808 0.3730815 0.19177714 -0.13228661
000120 ba 00 15 be d1 1c a0 3e 46 71 63 3e 28 5d 9b be
       -0.14551058 0.31271985 0.22211179 -0.3034451
000130 94 d9 f4 3d 31 18 72 3d 4a 0a 24 be b7 e4 9e 3c
       0.11955562 0.059105102 -0.1601955 0.01939617
000140 de 25 18 3d af 22 2c be 9e 01 a5 be 31 bb 65 bd
       0.037145488 -0.16810106 -0.32227796 -0.056086723
000150 5d 35 19 be a6 0c 0e 3d 45 8a be bd 20 48 d9 3c
       -0.14961763 0.03468003 -0.093037166 0.02652365
000160 40 a1 75 3e c0 68 35 3d f8 86 5e be d3 e0 96 3d
       0.23987293 0.04428935 -0.21731174 0.073671006
000170 f2 69 81 3e bf 6a aa be 28 a6 fa be 49 d7 a9 3e
       0.25276142 -0.33284566 -0.48954892 0.33172062
000180 0a 7a 63 3e 49 2a 07 3d db 7c d2 3d d4 60 23 3e
       0.22214523 0.03299931 0.102777205 0.15954906
000190 ad f7 af bb b3 1c a7 bb c7 92 17 3e c0 11 d6 bc
       -0.0053701014 -0.0050998568 0.14802085 -0.02613151
0001a0 fe f6 dd be 6d 9f 7b 3e 7c db 09 be bd 28 28 3d
       -0.43352503 0.24572535 -0.13462633 0.041054476
0001b0 07 19 91 3e 00 3e f6 bb 92 2f 44 bd 1c 1f 2a 3e
       0.28339407 -0.007514715 -0.04789693 0.1661343
0001c0 d1 39 d7 3c 28 97 29 be f4 3c 57 be 0a 7a 83 bc
       0.026272686 -0.16561568 -0.21019346 -0.016049404
0001d0 62 86 dc 3d 71 46 29 be d0 c7 26 3e 2c 2e c4 3c
       0.10767819 -0.16530778 0.1628716 0.023947798
0001e0 a8 5e 91 3d c4 4a 2e 3e c1 38 c3 bd 93 d9 39 3d
       0.07098132 0.17020708 -0.09532309 0.04537351
0001f0 73 70 66 bc a9 48 df bd 2b 98 72 bd 6a 8b 52 be
       -0.014064896 -0.10902531 -0.05922715 -0.20560995
000200 6e 93 c5 3e f9 e5 aa bd da 56 fd 3d fc c8 06 bf
       0.38589042 -0.08344645 0.12370081 -0.5265043
000210 b7 3c d9 bd 6a 13 09 3f 21 8c 46 be 26 24 f7 be
       -0.106072836 0.5354525 -0.19389392 -0.48269767
000220 06 98 8b 3e 77 61 51 3e 3e 86 9d bc 99 ac 09 be
       0.27264422 0.20447336 -0.01922905 -0.13444747
000230 71 d8 89 3d ca 40 37 3e 43 a9 f5 bd 8d 50 c1 3d
       0.06730736 0.17895809 -0.11995175 0.09439192
000240 3e a3 1a be 27 75 03 bd 94 c8 e5 bd 58 81 0d 3d
       -0.15101334 -0.032094147 -0.11219898 0.03454718
000250 f0 a6 91 be 1d 0d 4a be 4d 06 ad 3d c2 e7 f8 bd
       -0.28447676 -0.19731565 0.084484674 -0.12153579
000260 df 4a e1 bd 6d 2c a5 3e b7 0e 90 be 4f 9e 55 3d
       -0.11000609 0.32260457 -0.28136227 0.052152928
000270 51 d5 1f bd 82 60 76 be 84 2b ae be ae de 79 3d
       -0.039021794 -0.24060252 -0.34017575 0.06100338
000280 0b 55 7c 3e 9f b5 2d 3e 58 01 a8 bd fb 7a 50 bd
       0.24641816 0.16963814 -0.08203381 -0.050898533
000290 37 3a be bc 8c fb e7 3d ef 82 2a 3c 7f 70 2a 3d
       -0.023221118 0.11327276 0.010407194 0.04161119
0002a0 bc 9d c1 3d 15 cc 9d be 93 62 5b bc 5e 01 37 3e
       0.094539136 -0.30819765 -0.013390201 0.17871615
0002b0 32 7c c5 3e d2 db 84 bd 11 c7 2d 3e bc 07 2e 3e
       0.38571316 -0.0648724 0.16970469 0.16995138
0002c0 e0 a3 84 bd 82 8d 86 3d 5e 9f 4d be 0f e2 fd 3d
       -0.06476569 0.06569959 -0.20080325 0.12396633
0002d0 47 b3 fe ba 01 10 64 be 74 be 35 3d 0f 05 0b be
       -0.0019432091 -0.2227173 0.044371083 -0.13576148
0002e0 ce c7 ce 3d e7 da a9 be ee 7a a4 bd 62 cf 9a bd
       0.100967035 -0.33174822 -0.080312595 -0.075590864
0002f0 60 01 21 be d2 ba 20 3e 99 71 76 3e 08 8d c0 bb
       -0.15723181 0.15696266 0.24066772 -0.0058761872
000300 c5 06 eb 3d b4 91 29 be 88 30 f2 3d 14 37 ba 3d
       0.114759006 -0.16559488 0.11825663 0.090925366
000310 fe 7f e7 3d f4 2e de be 19 02 8c 3d 7c 48 65 3e
       0.113037094 -0.43395197 0.068363376 0.22390932
000320 35 65 70 3e d8 4b a3 bc 65 1d 36 be 10 cc 80 3e
       0.23476107 -0.019933626 -0.1778465 0.25155687
000330 b4 28 b5 3d 41 07 32 be 80 38 8e bd e6 8f c6 3d
       0.08845654 -0.1738558 -0.0694437 0.09695415
000340 97 f2 a2 3d 01 ff 8d 3b 61 be 1b 3e a2 c1 5d be
       0.079564266 0.0043333774 0.15209343 -0.21655896
000350 40 4b 2f be 20 62 78 be 9d 3c 05 bf ad 93 df 3d
       -0.1711855 -0.24256182 -0.52045614 0.10916839
000360 f9 77 8b bc 3c bd a3 3d 54 0f 96 3e 0d c2 3f be
       -0.01702498 0.07995078 0.2930857 -0.18726368
000370 fd 26 72 bd 87 ee 7b bd 4c fa a0 3e 56 a5 5f be
       -0.059119213 -0.061506774 0.3144096 -0.21840414
000380 af aa 7b bd 0c 92 b4 bc eb 09 51 be a8 6b 5c bd
       -0.061442073 -0.022042297 -0.2041394 -0.053813607
000390 88 d2 5c 3d de 88 86 bc 92 8b d3 3b c8 31 33 3d
       0.053911716 -0.016422685 0.006455847 0.043748647
0003a0 e7 a9 86 be c3 88 a9 3d 03 3a fd bd 41 a1 9b be
       -0.263015 0.08278038 -0.123645805 -0.30396464
0003b0 af 15 d7 3c aa 18 11 3e 95 e2 b2 3e 98 fc 68 3e
       0.026255457 0.14169565 0.34938493 0.22752607
0003c0 fc e0 ab 3c b3 63 7e be a3 c5 d2 3e a2 bb d7 bd
       0.020981304 -0.2484272 0.4116641 -0.10533835
0003d0 60 69 44 3e d2 41 bf 3d a6 13 15 be 73 ec f2 3c
       0.19180822 0.09338726 -0.14558277 0.029653763
0003e0 42 34 43 be 2e 90 67 bd f8 1f 20 3e c3 d8 59 bc
       -0.19062904 -0.056533985 0.15637195 -0.013296309
0003f0 69 d1 61 3e a9 c9 b9 be 6e bd 73 3c 8a 32 96 3d
       0.2205254 -0.36286667 0.0148767065 0.07333858

critic.2.bias f4 [64]
000000 32 5b ea be 15 8d ea 3e dc 9a d7 3e 5b 7d 07 bf
       -0.45772702 0.45810762 0.42110336 -0.5292565
000010 b3 0e 82 3e 3c 0d ee be 10 25 b0 3e 08 aa d1 3e
       0.2540184 -0.46494472 0.34403276 0.40950036
000020 89 f3 ce 3e 8d 37 e6 be 95 7a e9 3e 38 c9 d2 be
       0.40420178 -0.44964257 0.45601335 -0.41169143
000030 af 95 12 3f fb 3b ee bd 43 19 00 bf 20 1e 07 bf
       0.5725965 -0.11632534 -0.50038546 -0.5278034
000040 33 99 0c bf 62 11 de be 66 9e 08 bf 54 63 e8 be
       -0.54921263 -0.43372637 -0.53366697 -0.4538828
000050 be 97 14 bf b1 a8 18 bf 0b f2 d5 3e 16 a8 a7 be
       -0.5804404 -0.596324 0.41786227 -0.32745427
000060 b7 cb b9 3e 45 f7 d0 3e 90 b1 19 bf 18 ba f3 3e
       0.36288235 0.40813652 -0.60036564 0.47602916
000070 b3 a6 a4 3e 01 a0 00 bf 73 d6 c6 be c5 fc e2 3e
       0.3215843 -0.50244147 -0.38835487 0.44333473
000080 5b 9f 91 be 6b 1c b8 3e 90 92 f2 3e ba 29 dc be
       -0.2844189 0.3595918 0.47377443 -0.43000585
000090 db 1a 0d 3f 61 f0 ee 3e 25 8f 0a 3f ac bc bb be
       0.55119103 0.4666777 0.5412467 -0.36667383
0000a0 2f 07 05 3f 6c 64 f9 be 77 d3 d5 3e a0 6c c7 3e
       0.51964086 -0.48709428 0.41762897 0.38950062
0000b0 6f b0 ea be a9 dd c2 3e 86 a8 b4 be 9f e2 ac 3e
       -0.45837733 0.38059738 -0.35284823 0.33766648
0000c0 8c 7b f4 be f2 d4 dc 3e 05 8e 97 3e 71 0c fd be
       -0.4775051 0.43131214 0.2960054 -0.49423555
0000d0 ba e6 00 bf 75 3b b1 be 2f 36 0d bf 0e 06 d9 be
       -0.5035206 -0.34615675 -0.551608 -0.42387432
0000e0 d2 36 a4 3e 4e 9d dd be 71 84 13 bf 68 8f fc be
       0.32073075 -0.43284076 -0.57623965 -0.4932816
0000f0 f5 80 18 3f 7d 9d ad 3e d5 9f 05 bf 99 66 f7 3e
       0.5957177 0.33909217 -0.5219701 0.48320463

critic.4.weight f4 [2, 64]
000000 08 80 a9 bd 9f 77 4b 3d 51 d9 df 3d 14 ee 8c 3d
       -0.08276373 0.049674626 0.10930122 0.06881347
000010 ea 9d 09 3e 4c c4 d0 bb bb d4 19 3d 92 3c 90 bc
       0.13439146 -0.0063710567 0.03755639 -0.017607007
000020 94 d1 61 3d 92 7d ab bd b1 bb 95 3d 46 87 b8 3c
       0.05513151 -0.0837356 0.0731119 0.02252544
000030 c4 48 87 bd 02 a5 1a 3d 1e bc c7 bd 8c 5b 04 3e
       -0.06605676 0.03775502 -0.097526774 0.12925547
000040 dd a5 36 3d cf 33 ae bd 7e ac d4 bd a9 2f 01 3d
       0.044591773 -0.085059755 -0.10384463 0.031539593
000050 37 76 5a 3c 33 0f 3d 3d 5b 61 09 3b 46 66 3d be
       0.013333849 0.046157073 0.002096257 -0.18496045
000060 e7 5c cf 3d 11 3e c6 3d a4 45 05 3c 04 e8 7b 3d
       0.101251416 0.09679807 0.008134279 0.061500564
000070 0f c5 a2 3d fc 40 61 bd 5f ff 48 be ee 76 f1 3d
       0.07947742 -0.054993615 -0.19628666 0.11790262
000080 24 93 c4 bd a0 82 60 3d 99 ca 0d 39 62 ef 7e bd
       -0.09598377 0.054812074 0.00013522281 -0.062240012
000090 05 77 75 3d 2c f6 8b 3d 5c af 35 bd 87 20 23 be
       0.05992796 0.06834063 -0.04435669 -0.15930377
0000a0 7d 4a ee 3d ed f7 8a 3b fa b5 03 3e d5 e2 17 3e
       0.11635301 0.004240981 0.12862387 0.14832623
0000b0 d8 d0 28 bd f4 f0 43 3d 94 c9 83 be 72 fe d8 3d
       -0.041214794 0.047837213 -0.2573973 0.105954066
0000c0 92 eb ba bd d3 50 82 3d 37 d0 14 3d 87 8b 12 bd
       -0.09126963 0.06363072 0.03633138 -0.035777595
0000d0 51 40 8d bd 58 fc 0a be 9c 83 c1 bb 14 bd 9e bd
       -0.06897033 -0.13572824 -0.0059055816 -0.077509075
0000e0 59 6f 36 3e 46 80 31 be 12 27 e9 bd c4 56 f4 bd
       0.17815913 -0.17334089 -0.11384405 -0.11930612
0000f0 58 e8 3f 3c 79 41 1e 3e 26 fd 01 3c e1 10 ae 3d
       0.01171311 0.15454663 0.00793389 0.08499313
000100 aa 1d 3a bf 22 62 1d 3f 48 16 38 3f 0d 2f 20 bf
       -0.72701514 0.61477864 0.71909 -0.62571794
000110 42 a2 83 3f d1 11 4d bf d1 98 62 3f df 3b 4d 3f
       1.0283892 -0.8010531 0.8851443 0.8016948
000120 b0 d8 84 3e 0b d0 39 bf da f2 38 3f 87 d8 4b bf
       0.2594657 -0.72583073 0.7224556 -0.7962727
000130 0d cb 40 3f 4f 57 c5 be cc 6f 2d bf 58 13 02 bf
       0.7530983 -0.38543174 -0.67748713 -0.50810766
000140 21 61 37 bf f3 44 04 bf 7b 89 33 bf 39 14 37 bf
       -0.7163258 -0.5166771 -0.70131654 -0.7151523
000150 40 3e 2c bf ba 61 29 bf 7c 76 33 3f 37 91 58 bf
       -0.67282486 -0.66164744 0.7010267 -0.8459658
000160 c6 7a 57 3f 48 df 09 3f bc a8 32 bf 41 ed 33 3f
       0.8417171 0.53856325 -0.6978872 0.70283896
000170 8c ed 6d 3f a4 13 2c bf 2e ed 1d bf f3 1d 46 3f
       0.9294059 -0.6721747 -0.6169003 0.7738945
000180 d7 28 4c bf 92 cd 61 3f c4 9b 3c 3f ed e8 27 bf
       -0.79749817 0.882043 0.7367518 -0.6558979
000190 87 52 4f 3f 58 c0 2d 3f 83 ad f1 3e 80 98 fe be
       0.809853 0.6787162 0.4720269 -0.49725723
0001a0 01 d4 2c 3f fb 1c 45 bf ff c5 2a 3f 6b d8 5c 3f
       0.6751099 -0.76997346 0.6670837 0.8626773
0001b0 7c 3c 39 bf 90 c2 30 3f e1 a2 6a bf ec 7e 5b 3f
       -0.72357917 0.6904688 -0.91654783 0.8574054
0001c0 04 a2 05 bf b8 c0 58 3f 05 f1 64 3f 11 7b 59 bf
       -0.5220034 0.84669065 0.89430267 -0.8495341
0001d0 b0 a1 29 bf 95 47 59 bf 74 78 26 bf 0c 7d 18 bf
       -0.6626234 -0.8487485 -0.65027547 -0.59565806
0001e0 b4 55 52 3f 99 9f 28 bf 4e ee 41 bf 9b b3 43 bf
       0.8216202 -0.65868527 -0.7575425 -0.7644593
0001f0 a8 3c 36 3f 79 f7 6b 3f 17 81 02 bf 0b 3c 13 3f
       0.71186304 0.9217449 -0.50978225 0.57513493

critic.4.bias f4 [2]
000000 e3 71 04 3e 83 cd 2c 3f
       0.1293407 0.67501086

actor_mean.0.weight f4 [64, 69]
000000 c4 2f f4 bd af 03 66 3d 6e 60 4e 3d 61 57 36 3e
       -0.11923173 0.056155857 0.05038493 0.1780677
000010 db 58 81 bd 7c aa fc 3d 0e f0 d7 3d de f0 32 3e
       -0.06315776 0.12337205 0.10543834 0.17474696
000020 9b 7e 28 bd da a9 a6 be 45 89 0f be 83 7b da bd
       -0.041136365 -0.3255146 -0.14017208 -0.10668089
000030 46 17 22 be 37 e8 38 be 59 e3 03 be 88 52 1b 3e
       -0.1582919 -0.18057333 -0.12879695 0.15168202
000040 cf c4 45 be 73 36 ce 3c 46 be 40 be f2 6a a9 3d
       -0.19313358 0.025172448 -0.18822584 0.08272351
000050 73 67 2b 3e 1f 59 79 be 21 a9 28 be 48 4f 54 be
       0.16738681 -0.24350403 -0.16470768 -0.20733368
000060 da 1f 91 3e d1 a3 06 3c 16 f6 71 3d 86 80 89 be
       0.28344613 0.008217768 0.059072576 -0.26855868
000070 fb 6a 2d 3e f2 9b bc 3e 11 ed e2 bd d3 01 b4 3e
       0.16935341 0.36837727 -0.11080373 0.35157642
000080 db 29 d0 be c8 be f8 3c fd 14 0f be 37 79 0f 3d
       -0.40656933 0.03036441 -0.1397285 0.03502771
000090 f0 92 69 3e f7 42 ae 3d 1a cf a1 3e 87 7d fe 3e
       0.22809958 0.08508866 0.31603318 0.49705145
0000a0 ee cf ce 3e 83 43 ea bb 78 e4 bc be 98 00 38 3c
       0.40393013 -0.0071491613 -0.36893058 0.01123061
0000b0 e6 9f 91 3d 81 fd 74 bd c6 48 30 bc 98 48 c3 3e
       0.07110576 -0.059812073 -0.010759538 0.38141322
0000c0 fc c4 7f 3d 47 41 5b 3e 7a 98 35 3e 12 68 99 3d
       0.06244372 0.2141162 0.17733946 0.07490553
0000d0 a8 77 38 3b 00 a7 47 3d cd 56 34 be 2e 3f 29 3e
       0.0028147493 0.048743248 -0.17611237 0.16528007
0000e0 d7 73 32 3e 07 cc 4e 3e f0 13 0f 3e e0 5d be bd
       0.17427002 0.20195018 0.1397245 -0.09295249
0000f0 b4 a5 ac 3e 9d 7a c6 3d e3 fb a3 3d 13 e4 18 3e
       0.3372017 0.096913554 0.08007028 0.14930753
000100 3d 37 4d 3d 46 4c 26 bd 6b a3 46 bc 89 25 aa 3d
       0.050101507 -0.040600084 -0.012123923 0.083079405
000110 29 a8 76 3e a6 22 39 3d 88 8f 98 be 32 5b 6b be
       0.24087586 0.04519906 -0.29797006 -0.22984007
000120 ab d2 37 3d e4 0e b3 3e ab 0b 87 be bf 2e fc 3c
       0.044878643 0.34972298 -0.2637609 0.030784009
000130 0e 3c 50 3e 50 52 8c be d6 17 7f be 2a 1f c2 3e
       0.20335409 -0.2740655 -0.24911436 0.379144
000140 e5 ae a9 3e 3e ae d4 bd 87 1f de bd 99 cc 3c be
       0.33141246 -0.103847966 -0.10845857 -0.18437423
000150 3b 45 fd 3d 60 de 5b 3d 82 fa 7c 3e 9b 4e 8c 3e
       0.1236672 0.05367887 0.24704936 0.2740372
000160 62 43 0a 3e 7b d8 01 be 59 b7 ef bd 16 05 e3 bd
       0.13502267 -0.12680237 -0.11704893 -0.110849544
000170 02 7d b0 bd 0c 4f 33 3d 7a 5e ed bd 8c d1 50 3e
       -0.08617593 0.043776557 -0.115902856 0.20392436
000180 f1 21 35 be 63 e2 57 3e 77 1c 88 3c 08 1a 7f be
       -0.17688729 0.21082453 0.016615136 -0.24912274
000190 94 ab 01 be cc 4f 09 3d e7 fc ae 3d b5 17 8a be
       -0.12663108 0.033523366 0.08544331 -0.26971212
0001a0 ed a2 8a bc 0d 10 58 3d 64 63 a1 3d 29 66 aa be
       -0.016923392 0.052749682 0.078802854 -0.33281067
0001b0 4f c8 a6 bd ca ee 16 be f4 20 eb 3d 1b c0 d5 3d
       -0.081436746 -0.14739528 0.11480895 0.10437032
0001c0 c6 60 44 bd 67 f7 74 be 5d 2e a4 3c f1 92 c7 bd
       -0.047943853 -0.23922502 0.020041639 -0.09744824
0001d0 14 1e 5f 3e f0 33 92 be da 10 9d be c3 0d 25 3e
       0.21788818 -0.2855525 -0.3067692 0.16118531
0001e0 5a f5 04 be ad b1 e4 3d 98 da 93 3d 13 7c b3 3d
       -0.12984219 0.111667015 0.07219428 0.087639
0001f0 f7 b2 df 3e 4a b1 12 3e 70 61 f9 3c 19 63 f0 bd
       0.43691227 0.14325443 0.03044197 -0.117376514
000200 81 f4 e7 3d cf 23 6b bd 68 0e 80 3d 78 97 e1 bc
       0.11325932 -0.057407197 0.06252748 -0.027538046
000210 b3 f3 4c 3e bc 20 df bd 3f 05 65 3d fc 64 6d be
       0.20014839 -0.108949155 0.055913206 -0.23183054
000220 ef 48 93 be df 6d 71 3d bf 8f 94 3d a5 a2 46 be
       -0.2876658 0.058942672 0.0725398 -0.19397981
000230 52 bc 22 3e ea 78 66 3e 17 7f a8 3e 7e 24 8f 3d
       0.15892151 0.22507063 0.32909462 0.06989382
000240 18 a1 2f 3e c3 4a 73 be 03 e3 3c 3e 5a 86 d1 bb
       0.17151296 -0.23758988 0.18445973 -0.00639419
000250 23 d0 52 be cc 9f e4 3d 40 cf 17 3c 17 e9 27 3d
       -0.2058721 0.11163291 0.009265721 0.040993776
000260 a8 2b 07 be 48 b4 62 3e 21 7e 0c 3e 9d 13 4a be
       -0.13200247 0.22139084 0.1371999 -0.19734044
000270 4f 29 69 3e b3 1c 2c be 56 d4 cb bd ed 7b 3e 3e
       0.22769664 -0.16807823 -0.09952609 0.18601961
000280 18 9b 2d 3e 91 0e 49 3d c5 7d 0d be e4 84 d0 3e
       0.16953695 0.049086157 -0.13817509 0.40726388
000290 ee 5d 80 3a 57 a7 ae 3e b0 b8 70 3d 2e 48 0f bc
       0.0009793618 0.34112045 0.05876988 -0.008745236
0002a0 9d 19 c2 bd 16 2c 20 3e 05 02 34 be e9 8a 10 3e
       -0.094775416 0.15641817 -0.17578895 0.1411549
0002b0 b7 4d 03 be 85 57 91 be bc c8 18 be b2 d9 39 3c
       -0.12822615 -0.28387085 -0.14920324 0.0113434065
0002c0 f7 fe 4e be 87 8e 90 3e 96 4b 99 be c3 2b 6d be
       -0.20214449 0.2823374 -0.2994048 -0.23161225
0002d0 41 fe 0f be 32 32 09 be bb 7e 3a bd e5 bf 70 3d
       -0.14061834 -0.13398054 -0.045531016 0.058776755
0002e0 da 38 bb bc 4e 21 53 3e 5c ed dc 3d 55 0e 5d 3b
       -0.022854257 0.20618173 0.1078746 0.0033730466
0002f0 d9 78 3c 3e ef eb 9b 3e b0 62 5e be ec 7e 6c 3e
       0.18405475 0.3045344 -0.21717334 0.23095292
000300 d4 76 b3 3e e9 f0 83 3e c6 ce 3b be 44 2c 06 bd
       0.35051596 0.25769737 -0.18340597 -0.03275706
000310 40 e4 97 be 29 fb 06 be 4e 4d 04 3e 65 09 1e be
       -0.29666328 -0.13181747 0.12920114 -0.15433271
000320 9c fc 2e bd 19 ff 1e be d2 6c b1 be 93 23 d0 bc
       -0.042721376 -0.15527 -0.34653336 -0.025407588
000330 e6 d9 39 3e 16 1a 68 3d bd 1d 2d 3d 39 00 0e 3d
       0.18149528 0.056665502 0.04226469 0.03466818
000340 38 c1 b9 be c8 67 76 be da f0 55 bd c9 86 d4 bd
       -0.36280227 -0.24063027 -0.052231647 -0.10377271
000350 a6 3d 53 3d ae 59 82 be 06 fd 96 bc d3 05 76 3e
       0.051572464 -0.25459045 -0.018431198 0.2402566
000360 0d 91 bd 3e 72 33 1c be e0 d2 41 bd d3 53 04 3e
       0.37024727 -0.15254 -0.047320247 0.12922601
000370 b1 6d c3 3e 85 7b e2 3d 9a a8 06 3e 05 10 11 3e
       0.38169625 0.11058716 0.13150254 0.14166267
000380 11 b1 29 bd ad 62 f1 bc 7c 45 ef 3d b6 71 65 3e
       -0.04142863 -0.029465998 0.11683175 0.22406659
000390 e0 97 06 be b9 bf 7d be ae 06 97 3e fb bb 02 3e
       -0.13143873 -0.24780168 0.29497284 0.12767021
0003a0 ae 47 99 3e ea f0 69 3d 28 d7 cc 3d 63 d4 53 3d
       0.299375 0.05711452 0.10001975 0.05171622
0003b0 5a d8 c1 3e ed 14 3e 3e 97 d5 3f 3e 10 9a e0 3e
       0.37860376 0.1856267 0.18733822 0.4386754
0003c0 e9 29 6a be 30 1c b1 3d d3 e7 5e be 8e f7 39 3e
       -0.2286755 0.086479545 -0.21768121 0.18160841
0003d0 30 2c 33 bd 18 b3 b5 3e bc 85 b5 3d 56 67 f0 bd
       -0.043743312 0.354882 0.088633984 -0.1173846
0003e0 29 fa 54 3d cf a8 75 be 8f ec bd bd 1e ff 34 be
       0.051996384 -0.23990177 -0.092736356 -0.17675444
0003f0 57 46 10 3e ee 66 3b 3e cf 75 9f 3c 94 93 c6 bd
       0.14089333 0.18300983 0.019465355 -0.09696117

actor_mean.0.bias f4 [64]
000000 27 4b 51 3d 19 ed 9a 3d 33 38 89 bd d4 28 4e bd
       0.05109706 0.07564754 -0.06700172 -0.050331905
000010 89 d9 6d bc ff 49 db bc b2 49 ad 3d a4 d6 cf bc
       -0.014517196 -0.026768683 0.08461322 -0.025370903
000020 68 b7 e4 3c 82 32 07 bd 91 a3 bb 3d e9 8b a6 bd
       0.027919486 -0.033007152 0.09162057 -0.081321545
000030 82 4a 1a 3d 4b 9d e3 bc 03 86 c7 bd fd 67 b2 bd
       0.037668712 -0.027784964 -0.097423576 -0.087112404
000040 c8 d2 87 3c 9c 79 1d be e6 61 91 3d e7 5f 2d 3d
       0.01658 -0.15378422 0.07098751 0.042327788
000050 e7 02 45 3d 35 f4 e8 bc fa 2a d6 bd 25 6a 91 3c
       0.04809847 -0.02843676 -0.10457416 0.017750809
000060 a0 c8 99 3d 19 ce 07 3c ae f0 bd bc 1b 54 df 3c
       0.07508969 0.008288884 -0.023186054 0.027261784
000070 49 99 f0 bd a6 4c fa 3c a7 5a 97 3d e7 65 f7 3d
       -0.11747987 0.030554127 0.073903374 0.12079983
000080 d9 3d 6d bd 18 ca b6 bc f3 f5 17 bd f9 b3 ca 3c
       -0.05792031 -0.022313163 -0.03709979 0.02474402
000090 63 6d 90 bc 03 d4 00 3d 3d 1b 17 bc dd 64 0c 3d
       -0.017630285 0.03145219 -0.009222803 0.03427588
0000a0 e6 cd 7f bd 20 ef b4 3d 7f 46 89 bd 2d 3b 36 3d
       -0.06245222 0.08834672 -0.06702899 0.04449003
0000b0 52 19 4d ba c9 6f bf bd 5c 62 4e 3d bd e1 9e 3d
       -0.00078239024 -0.09347493 0.05038677 0.077579
0000c0 28 18 86 3d 26 5b 95 3c f6 59 72 bc 82 06 59 3c
       0.06547576 0.01823194 -0.014791956 0.0132461805
0000d0 b6 12 73 bd e3 d5 62 3d e1 6d 34 be b1 cd 22 3d
       -0.059344016 0.05537976 -0.1762004 0.039746944
0000e0 44 cf 31 be 4d bc 3a 3c 34 7b 26 3e 6d 0a ab 3d
       -0.17364222 0.0113974335 0.16257936 0.08351598
0000f0 9b 99 0b bd 3c 70 1c 3d 67 6b 2c bc 96 7a 84 bd
       -0.034082036 0.038192973 -0.010523654 -0.06468694

actor_mean.2.weight f4 [64, 64]
000000 ad 30 bc be 67 71 76 bd 28 43 30 bc 1c 18 96 3e
       -0.36755887 -0.060166743 -0.010758199 0.2931527
000010 6f 87 2e 3e 02 0f 35 be d0 68 01 bd 5a 2e 09 be
       0.17043851 -0.17681506 -0.031594098 -0.13396588
000020 5b db c3 bc 82 4c 57 bc 6e 31 d9 bd f3 a9 49 3d
       -0.023908308 -0.0131407995 -0.10605131 0.04923434
000030 5f 49 87 bd 0b 35 81 be b0 84 0e 3e 97 c8 09 bf
       -0.06605791 -0.2523578 0.13917804 -0.538217
000040 c9 e1 6b be bb 58 a8 be 6c 40 d6 3d 8b 7f 3e bd
       -0.23035349 -0.32880196 0.10461506 -0.046508353
000050 6b 73 63 be ce 0f 18 3e 30 53 42 bd 52 f2 a7 bd
       -0.22211997 0.14849779 -0.047442615 -0.08200516
000060 a3 49 ba 3d 83 e2 22 bd d2 05 08 3d e9 2a 62 3d
       0.09096076 -0.0397668 0.033208676 0.055216704
000070 c3 00 19 be 15 52 6a 3d 23 ef de bc c2 87 c2 bd
       -0.14941697 0.057207186 -0.027213639 -0.0949855
000080 70 c2 e4 bd 0c 98 a3 be c8 f0 d7 bd 11 7f 2e be
       -0.111698985 -0.3195194 -0.10543972 -0.1704066
000090 57 9f 51 be 2d a4 71 bd a6 1f 2a be 22 18 59 be
       -0.2047094 -0.05899446 -0.16613635 -0.21200612
0000a0 14 e7 2a bd 1d 22 db bd e9 46 d4 3d b8 bf 86 be
       -0.04172428 -0.10699866 0.103650875 -0.26318145
0000b0 10 a3 ea bd 2c 5b b6 3d 56 72 0e 3e ef 5c 10 bf
       -0.11456883 0.089041084 0.13910803 -0.56391805
0000c0 c5 d6 bf be bb 29 b6 be f4 75 ca bd a3 40 f3 bd
       -0.37468544 -0.35578713 -0.09885779 -0.11877563
0000d0 b2 05 a1 3d a0 b7 95 3d 4c 02 20 be 36 90 89 be
       0.078624144 0.07310414 -0.15625876 -0.26867837
0000e0 e8 16 27 3e 1f d2 9b bd 5e fe e4 3d 38 35 82 be
       0.16317332 -0.07608437 0.11181329 -0.25431228
0000f0 ad 34 3c 3e a3 5c 90 bd 25 28 15 be f2 12 6d 3e
       0.18379469 -0.07048919 -0.14566095 0.23151758
000100 43 4e ef 3d 90 2e 0d be d8 6d b1 3e 61 18 c1 3d
       0.11684849 -0.13787293 0.34654117 0.09428478
000110 c2 e9 ca bd f9 50 fb 3d 41 37 9f 3e 9f 3a 02 be
       -0.09907867 0.12271304 0.31096843 -0.12717675
000120 99 85 25 be 5b 03 8f 3d 15 9f 36 3e 16 02 05 bf
       -0.16164245 0.06983062 0.17834122 -0.5195631
000130 4e 8e cc 3d ea 6f 49 3d f1 6b 23 bd 38 a0 2b bd
       0.0998808 0.049178995 -0.039897863 -0.041900843
000140 9f 7c 21 be 61 aa bf 3e de 79 1e bc d2 0d 4b be
       -0.15770195 0.37434676 -0.00967261 -0.19829491
000150 a6 eb d3 3d 3d cb 3a be 85 34 64 3c f0 7d dc bd
       0.10347681 -0.18241592 0.013928537 -0.10766208
000160 71 4b ba bd b7 67 5f be b3 80 7b 3e 98 66 8e 3e
       -0.090964206 -0.21816908 0.24560814 0.27812648
000170 80 27 ad 3e 06 a7 19 be 0a 56 30 be 3f 66 19 3e
       0.338192 -0.1500512 -0.17220321 0.1498041
000180 20 12 b6 bd d5 ab f7 bd c0 90 0e be 77 49 49 3d
       -0.08890176 -0.12093321 -0.13922405 0.049142327
000190 f8 85 5b 3e d9 7e b5 bc 00 5a 5a 3e 78 04 06 3e
       0.21437824 -0.022155212 0.21323395 0.13087642
0001a0 47 bf 3b 3e 55 ff 27 be 48 77 a3 be 77 12 0f bd
       0.18334685 -0.16405995 -0.31926942 -0.03492972
0001b0 76 e8 8d bd a0 fc 29 3d 0a e8 de 3e f5 06 8c 3d
       -0.06929104 0.041500688 0.43536407 0.068372644
0001c0 60 a6 73 be b3 be 8b be 15 ce f3 3d 3c 0b b9 3e
       -0.23793936 -0.2729393 0.119045414 0.36141384
0001d0 8e 62 72 be 02 24 0c be 31 31 59 3c 32 07 98 3d
       -0.23670408 -0.13685611 0.013256357 0.074232474
0001e0 ab f1 98 bd 07 a6 0f 3e 4a 41 e5 bd 1c 07 3e 3a
       -0.074679695 0.14028178 -0.111940935 0.0007248984
0001f0 48 89 cf 3b bc f5 23 be 8e d5 b4 be bf ca cf bd
       0.006333504 -0.16011709 -0.3531918 -0.101460926
000200 b2 e7 ae be 33 48 30 3e fe fe 94 3c 9c e6 6d 3d
       -0.34161144 0.17215042 0.018187996 0.058081254
000210 6a b1 42 bd 58 6f ab be 53 fe 32 be a8 f4 7d 3e
       -0.047532476 -0.33483386 -0.1747983 0.2480036
000220 6b fe f4 3d b9 ce e3 3d db 96 ad bc b9 6c 9a be
       0.11962589 0.111234136 -0.021190098 -0.30161074
000230 8e 67 af bd 82 17 3e 3e c1 2b 70 bc 08 95 a2 bd
       -0.08564673 0.18563655 -0.014658869 -0.07938582
000240 83 00 4d 3c 1c 2e 60 bd a5 f7 56 be 46 0d a5 bc
       0.012512329 -0.054731473 -0.20992906 -0.02014793
000250 bc 9d 89 be 27 21 09 be 22 77 32 be 3d 8a f9 3d
       -0.26878154 -0.13391553 -0.17428258 0.1218457
000260 bd bb be bc c1 38 b9 bd 7e 24 90 be f2 3d 2e 3d
       -0.02328288 -0.09044028 -0.2815284 0.042539544
000270 b1 57 19 3d 59 3c 1a 3d 36 34 8f 3e c1 78 9e bd
       0.037437145 0.03765521 0.2796952 -0.07737876
000280 96 c1 48 3e cb c0 94 3d e4 dc 72 be e2 ab 2a be
       0.19605097 0.07263335 -0.23717076 -0.1666713
000290 6c 9d 17 3e 99 31 8b bd b5 43 02 be 6e a5 82 bc
       0.14806145 -0.067965694 -0.1272114 -0.015948024
0002a0 95 f1 90 3d 73 62 16 3e 94 2b 5d be 4a 2d 03 be
       0.07077328 0.14685993 -0.21598655 -0.12810245
0002b0 9c 7a 19 3e 69 33 cc 3e 40 b4 db 3d e8 57 4d 3d
       0.14988178 0.39882973 0.10727739 0.050132662
0002c0 bb b2 a6 3d ca b9 d3 be 21 ef 0b 3d 48 94 a9 bd
       0.08139559 -0.41352683 0.034163598 -0.082802355
0002d0 51 36 ec bd 5f c6 63 be 8a 99 67 be 39 26 fd 3e
       -0.115337975 -0.22243641 -0.22617164 0.49443224
0002e0 56 aa 2f be 50 9d 3c be 9a c3 3e 3e d3 20 63 bd
       -0.17154822 -0.18419385 0.18629304 -0.055451225
0002f0 de 37 13 3e 60 39 bf 3e 38 76 7a 3e 0d a7 bd be
       0.1437678 0.3734846 0.2445916 -0.37041512
000300 4e 86 70 3c 31 83 56 be 6e 76 43 3e fa ab 8c 3c
       0.014680458 -0.20948483 0.19088146 0.017171849
000310 d4 93 f4 bd de 15 58 3c a8 9c c0 bd 6c 6b 2c 3e
       -0.119422585 0.013188807 -0.0940488 0.16837853
000320 a2 12 cd 3c dd d2 5c 3e fe 4c 9e 3d f5 7d bc 3e
       0.025033299 0.21564813 0.07729529 0.36814848
000330 0b 3d 9b be 97 0d a1 3e ee f8 11 3e df 41 22 3e
       -0.3032001 0.3145568 0.14255115 0.1584544
000340 23 00 54 bd 58 b8 fe bb 51 13 3a bd 43 84 2f 3e
       -0.051757943 -0.0077734403 -0.045428578 0.17140298
000350 e7 73 c2 3d fb 97 25 3e f5 a5 69 be e5 52 1b 3e
       0.09494763 0.16171257 -0.22817214 0.1516834
000360 85 96 4d 3e b5 44 4b be 99 4a 27 be 35 65 a7 3d
       0.2007695 -0.19850428 -0.1633705 0.081736006
000370 05 62 0f 3e 95 d1 a5 3e 4b 4b 1a be 70 97 cb be
       0.14002235 0.3238646 -0.15067784 -0.39763975
000380 22 0e 4d 3d d8 4a 3c bb 67 6b 64 be ea b2 9e 3e
       0.050062306 -0.0028731134 -0.22306596 0.30995876
000390 af 76 d3 3d 2b a9 32 bd 31 d3 7f 3d f6 af 97 3e
       0.103253715 -0.043618362 0.062457267 0.29626435
0003a0 5a b4 be bd 10 40 4e bd 88 2d fe 3d 7f 55 26 bd
       -0.09311743 -0.050354064 0.12411028 -0.04060888
0003b0 dc e8 6d 3d 69 fd c8 3e d1 b2 17 3e a0 8f 0e be
       0.0580834 0.39255837 0.14814307 -0.13921976
0003c0 dc fc 8a be 82 5a f3 3a 20 f5 d0 3d d0 11 9f be
       -0.2714604 0.0018566402 0.10203004 -0.31068277
0003d0 2f 9e 44 be e7 a6 35 be cc 23 9c 3d 16 c7 55 bd
       -0.19200967 -0.1773945 0.07624015 -0.052191816
0003e0 bf bb 8c 3e e5 00 c3 bc 74 d3 31 be 56 f9 a1 3e
       0.2748699 -0.023804137 -0.17365819 0.3163554
0003f0 cd ba be be cf 06 05 bd 4a 51 35 be af d1 d6 3d
       -0.37251893 -0.032477196 -0.1770679 0.10489213

actor_mean.2.bias f4 [64]
000000 75 0e b1 b9 ae 1a 08 3c e7 a7 22 3c 03 42 0f bd
       -0.00033770842 0.008307142 0.009927726 -0.034975063
000010 03 6b 27 3c 79 75 99 3d d3 54 49 bc fc 9a 8c 3c
       0.010218385 0.07493109 -0.01228829 0.017163746
000020 0d 33 0a 3d 5c 20 82 3d e6 f1 3f ba 7e 46 33 bc
       0.033740092 0.06353828 -0.00073221175 -0.0109421
000030 50 27 91 bc f6 13 ac bd 66 53 d7 3c 7b be 7a 3c
       -0.017718941 -0.08402245 0.026284885 0.015304203
000040 05 57 79 bc 0a e0 41 3d 8f ac 89 bd 4a a7 20 3c
       -0.015218501 0.0473328 -0.06722366 0.00980551
000050 12 83 14 3d 1e 81 0a 3c 98 e6 cb bc 32 f9 91 3d
       0.03625781 0.0084536355 -0.02489023 0.07127608
000060 48 75 3b bc bd df 1c bc 59 ab aa bb 2c 35 51 3c
       -0.011441536 -0.009574828 -0.0052084145 0.012769025
000070 a8 e6 c4 bd 0a 51 a6 bc 6b ec dd bb 3e 8a 96 3d
       -0.09614307 -0.020302314 -0.006772568 0.07350586
000080 5d 81 ac bc 71 37 26 3d 88 36 d0 3b 25 9f e8 3c
       -0.021057779 0.040580217 0.006354157 0.028396199
000090 52 7b b7 3d 60 58 9f bc 7a dc b5 3d 7b b0 c8 3c
       0.08959068 -0.01945132 0.08879943 0.024498215
0000a0 4d 95 50 bd 35 e1 43 bd 1d d0 86 3c 1f 23 9c 3c
       -0.050923634 -0.047822196 0.016456658 0.019059716
0000b0 40 41 2e bd 5a 2c 81 bd eb 28 1e 3d 8b 8c 36 bc
       -0.042542696 -0.063072875 0.03861324 -0.0111419065
0000c0 a0 39 64 3d 34 3a f6 3c 36 5c 97 3b 98 a5 de bc
       0.055719018 0.03005705 0.0046191467 -0.02717857
0000d0 dc d1 01 bd f6 9c 00 bd 4e 87 1a 3c c6 6d 22 bd
       -0.031694278 -0.03139969 0.009431673 -0.03965547
0000e0 cf ef ee 3c 6d b4 05 bb ac c9 e3 ba 67 66 9a 3c
       0.029167084 -0.0020401732 -0.0017378828 0.018847657
0000f0 df d5 48 bd da 1d f8 bc 3c 71 2c 3c 88 3c 44 3c
       -0.04903209 -0.030287672 0.010525044 0.011977322

actor_mean.4.weight f4 [21, 64]
000000 e7 14 2b 3d 9e 91 e7 3b d8 45 35 bd 77 e0 7b bc
       0.04176798 0.0070669195 -0.04425606 -0.015373341
000010 6d 2b 86 bd 63 da 7c bc e6 e7 04 bb 56 70 cb 3d
       -0.065512516 -0.015432927 -0.0020279824 0.09933536
000020 1f ac 7f 3c 82 fb c7 bb 94 33 b7 bc 93 22 95 bb
       0.015605002 -0.00610298 -0.022363462 -0.0045512407
000030 b0 6e 42 bc 12 d0 ab 3c 9a 34 23 bd f0 78 3b 3d
       -0.01186721 0.02097324 -0.039845087 0.04576963
000040 5c 0a 49 3d ea 4c 1b bd 83 23 60 3c 07 7a e0 3c
       0.049082145 -0.037915148 0.013680342 0.027401937
000050 56 21 1f 3b f1 d9 93 bc 58 eb 48 bd dd 81 a2 bc
       0.0024281344 -0.018048258 -0.049052566 -0.019837314
000060 d0 af 14 3d 40 eb 81 3c b2 c1 e8 bc 35 f8 cb bc
       0.03630048 0.015859246 -0.028412674 -0.024898628
000070 dc aa 2a bd 79 eb 11 3d 9b 93 10 bd c0 77 b9 bd
       -0.04166685 0.035624955 -0.035297018 -0.090560436
000080 5b 0b c0 3d 79 e6 a2 3b 63 f9 80 3d 63 ee 9f bd
       0.09377166 0.004971322 0.06297567 -0.078091405
000090 88 6a c6 b9 07 bc 8c 3d fd 3b 4e bd b1 17 e2 3c
       -0.00037844875 0.06871801 -0.050350178 0.027599188
0000a0 1f 76 16 3d ab ac 9d 3d 50 b2 dd 3c 06 bf 96 bc
       0.036733743 0.076989494 0.027062565 -0.018401634
0000b0 b7 a8 fa bc 63 79 1a 3c c2 9f 50 bd b1 f8 9e 3d
       -0.030598028 0.009428355 -0.050933607 0.07762278
0000c0 04 9e 0d bd 0b b0 5b 3d a6 e8 42 3d 99 56 a6 bc
       -0.034574524 0.053634685 0.047585152 -0.020304965
0000d0 a3 0a b8 bc 56 ca 7c 3d a4 d1 4a bd 56 9e 36 bd
       -0.02246601 0.0617164 -0.049516335 -0.044584595
0000e0 d5 b7 95 3d ce 6b 82 bd 77 dc 3a bc 65 82 af b9
       0.07310454 -0.06368218 -0.011405102 -0.00033475753
0000f0 23 6a 15 bd c9 27 5b bc 87 2a 83 bd a3 46 a0 3c
       -0.036478173 -0.013376185 -0.06404596 0.019564932
000100 f6 12 05 3c ee 0a 1a 3c 3e 79 5a bc f4 fe b2 bd
       0.008122196 0.00940202 -0.01333457 -0.08740035
000110 ab 13 21 bd 5d 4d 8a 3d a8 66 58 3c 61 60 b5 3d
       -0.039325397 0.06753037 0.013208069 0.088562734
000120 e6 f2 17 bd 19 02 9b bb 64 a5 35 3b 1c 3e a0 3c
       -0.03709688 -0.0047304747 0.0027716989 0.019560866
000130 a3 9e ae 3c be be ab bc 13 12 1f bc c8 28 ee 3c
       0.021315878 -0.020964976 -0.009708899 0.02907218
000140 67 bf 78 3d fb 8c 56 bc 72 29 35 3b f6 56 a7 3c
       0.06072941 -0.013095136 0.0027643112 0.020427208
000150 2a 11 32 3c f1 26 76 bd 54 4b c1 3b 45 93 ec 3c
       0.01086835 -0.06009573 0.0058988724 0.028878817
000160 df 9c 9d 3b 11 21 77 3d df 99 f9 bc b9 c6 a8 bc
       0.0048099603 0.06033427 -0.03046888 -0.02060257
000170 a9 91 90 3c 40 8d 77 bd 32 f4 a2 bd 05 15 b0 bb
       0.017647581 -0.06043744 -0.07956733 -0.0053735995
000180 c6 18 65 3d c1 54 74 bc 7d d7 0c bc a5 19 bd bc
       0.05593183 -0.014912785 -0.008596298 -0.023083517
000190 a3 95 6e 3c 9c 8a ca 3b 2a 19 bd bc 69 73 e9 bc
       0.014562043 0.0061810743 -0.023083288 -0.028497415
0001a0 30 fb af bc 3a 0d 2f bc e9 70 ad 3d a8 42 60 3d
       -0.02148208 -0.010684306 0.084688015 0.05475107
0001b0 b2 f1 fd 3c b3 c7 83 3d 0a 48 d1 bd 1c ce 31 3d
       0.030999038 0.06434574 -0.102188185 0.04340945
0001c0 38 d0 4f 3d 6a 49 f1 bc e9 c0 2d 3d d7 7e 6b bd
       0.050735682 -0.029453952 0.0424203 -0.05749401
0001d0 ce 7c 69 3b f6 30 b3 3c 13 9a 50 bd 17 f0 35 bb
       0.0035627368 0.021873932 -0.050928187 -0.0027761513
0001e0 aa a5 1d 3d 2a 15 91 3c 27 a4 4b 3c 09 e6 9c bc
       0.038488068 0.017710287 0.012429274 -0.019152658
0001f0 9f 69 4b bd ef fd 51 bd e3 8d da 3c 88 69 54 3d
       -0.049661275 -0.05126756 0.026678985 0.051858455
000200 07 e0 93 3c 23 34 d5 bc d2 d6 4c bd 0a 6b a2 bc
       0.01805116 -0.026025837 -0.050009556 -0.01982643
000210 57 82 fb ba 46 9d 85 bd e8 6d 71 bd 26 50 74 bc
       -0.0019188625 -0.06524138 -0.058942705 -0.014911687
000220 0f 4d 0b bb 35 2b f4 3c ff b9 0f 3c cd bf 84 3c
       -0.0021255647 0.029805759 0.008772372 0.016204739
000230 b9 0f 9c 3d 75 2d 14 bd c5 08 3f bd 34 7a ee 3d
       0.07620186 -0.036176164 -0.046639223 0.11644402
000240 5b 44 0e 3c 12 80 82 3d d2 b2 57 3c ad 78 ef bb
       0.008683289 0.06372084 0.013165193 -0.007308087
000250 53 ff fe 3a ab 1c ff 3b cb c2 0a bd 98 d8 a7 3d
       0.0019454755 0.0077854 -0.033877175 0.08195609
000260 3c 6a 5b 3d 7a 2f 21 3a 21 40 ce 3d 04 ff b0 bc
       0.05356811 0.0006148737 0.10070825 -0.021605976
000270 08 8a 9b bc 43 01 86 3d 86 62 96 3d e6 79 1e bc
       -0.018986717 0.065432094 0.073430106 -0.009672618
000280 55 70 2e bd b4 97 eb 3a 61 be 61 3c 3a bb d5 bc
       -0.042587597 0.0017974288 0.0137783 -0.026090253
000290 bc 6f 14 3d 68 ec 33 bd 7b 14 35 bd 64 ec 27 3c
       0.03623937 -0.043926626 -0.044208985 0.010249231
0002a0 56 94 67 bb 1f 9f 86 3d 1b 49 d5 bc 91 bb 34 3c
       -0.0035336218 0.06573319 -0.026035836 0.011031047
0002b0 1b 03 27 bd 39 f3 9f 3b ea d4 6e bd a8 75 8a 3c
       -0.040774446 0.0048812893 -0.05830852 0.016901806
0002c0 c6 8d 14 bd 33 2d a9 bc 6c d5 ed 3b c0 d6 b9 3c
       -0.03626802 -0.020651435 0.007258108 0.022685409
0002d0 42 62 5f 3c ab 17 f3 bc 3f 90 6e bd 8a 8b 65 3c
       0.013634266 -0.029674372 -0.058243033 0.0140103195
0002e0 a2 01 26 3c 20 45 8e bd 89 38 28 bb b5 de 36 3d
       0.010132225 -0.06946778 -0.0025668463 0.044645984
0002f0 7e 2e 10 bd fe c8 ca bb 73 86 a1 3a ad 58 a3 3d
       -0.03520059 -0.006188511 0.0012323394 0.07975898
000300 d4 cd 5b bd fa 30 be 3c 60 bd 8c bd 99 a1 17 bd
       -0.05366309 0.023216713 -0.06872058 -0.037019346
000310 ec fe 5e bd ba a5 2f 3d a6 ab f3 bc f0 1b 77 3b
       -0.05444233 0.04288266 -0.029744934 0.003770586
000320 66 0f af bc 15 af 79 bc c2 43 34 bd 44 8e 3f 3a
       -0.021369647 -0.015239497 -0.04400993 0.0007307271
000330 4e 4d cd 3d 9f 13 19 3a 52 49 41 39 d6 72 80 bc
       0.1002451 0.00058394106 0.00018433228 -0.015679758
000340 c6 6f 41 bd 69 29 f4 3a ee b7 53 3d 05 f8 ae 3b
       -0.047225736 0.0018628064 0.05168908 0.005339625
000350 85 81 13 bc 42 ff 99 bd 9f 65 af bd ec 1d 81 bc
       -0.009003048 -0.0751939 -0.085643046 -0.015761338
000360 58 22 90 3c 7b 38 dc bc 7b 8f 2d 3c b1 03 fd bc
       0.017594501 -0.0268824 0.01059329 -0.03088555
000370 74 be 0d 3d 41 41 af bc 2e 12 e3 3c c5 c4 dc bb
       0.03460546 -0.02139342 0.02771863 -0.006737324
000380 a2 39 2e bd 1e 01 d3 bb fd c0 9c bb 3e fa 99 3d
       -0.04253543 -0.006439342 -0.004783748 0.07518433
000390 1d 04 08 3d a5 9f d7 3c 6a a0 89 bc ca 41 a1 bd
       0.033207048 0.026321242 -0.016800124 -0.078738764
0003a0 66 e0 45 3c d4 ca af 3d 93 cd 81 bc a2 c1 17 3d
       0.012077427 0.08583608 -0.015845096 0.037049897
0003b0 89 0e 96 3c 12 98 42 3d 3a 6b 15 3d b9 d2 5c bd
       0.018317478 0.047508307 0.036479212 -0.0539119
0003c0 39 5a 31 3d eb 7c 51 3c 2c 95 8d bd 70 b9 f1 bc
       0.043298934 0.01278613 -0.06913218 -0.029507369
0003d0 c4 29 90 bd 0d 85 47 bd a9 8a b2 3d a1 bb 5c bb
       -0.07039216 -0.04871087 0.087178536 -0.0033681171
0003e0 6b 81 61 3c bd 72 1c 3d d2 99 13 bd 3f 54 06 3d
       0.013763766 0.03819536 -0.036035366 0.032795187
0003f0 c7 52 0d bc 29 07 84 3d 33 21 96 bc 26 f7 df bb
       -0.008625693 0.06446678 -0.018326377 -0.0068348823

actor_mean.4.bias f4 [21]
000000 87 28 e9 bb d6 eb 78 3b 7c 9b 7b 3c 64 cb 0f bc
       -0.007115427 0.0037982366 0.015356895 -0.008776519
000010 1b 25 9f bb c8 f5 08 3c e5 59 79 bc 34 bd b9 3c
       -0.0048567182 0.00835938 -0.015219186 0.022673227
000020 59 0d 78 3c 8a 58 1b 3d 20 fe 80 3c de 25 24 3d
       0.015139901 0.037926234 0.015746176 0.040075175
000030 b0 ba 53 bd a9 c4 49 bc 0d 4d 70 bc d3 72 0a bd
       -0.05169171 -0.012314954 -0.014666808 -0.03380091
000040 35 c9 2c bd 25 f0 02 bd f8 b6 37 3d b8 23 03 b8
       -0.042184073 -0.0319673 0.044852227 -3.12661e-05
000050 e1 06 d5 bb
       -0.006501064

in_proj.weight f4 [32, 2]
000000 8e 9e 1c 3f ba 2f 27 3e c5 b0 2f 3f 87 50 0b 3e
       0.61179435 0.163268 0.68629104 0.13604937
000010 a3 d1 1c 3f bc e3 ed 3c 35 59 11 3f e3 91 24 be
       0.6125738 0.029039256 0.56776744 -0.16071276
000020 46 e7 aa 3e f4 6b a6 bd 6e 3c 8a bc 05 74 f9 be
       0.33379573 -0.08126059 -0.016874518 -0.48721328
000030 86 b3 05 bf c4 1d bb be 6a 47 2f 3f 09 ea e6 3d
       -0.52227056 -0.36546147 0.68468344 0.112751074
000040 fd 20 78 be 23 94 5a 3e 9c 55 f8 3d 50 b0 34 3e
       -0.24231334 0.21345572 0.12125704 0.17645383
000050 94 c6 17 3f d3 07 fb be 59 77 a4 be e0 af fb be
       0.5928738 -0.49029407 -0.32122305 -0.4915762
000060 20 df 1a bf 6b fa 22 3f 13 46 31 3f ae 24 1a 3f
       -0.6049671 0.6366336 0.6924755 0.6021222
000070 b4 07 0f 3f 7b 56 e2 3e f6 dc 47 bf 7d b8 fe 3d
       0.5587113 0.44206604 -0.78071535 0.12437532
000080 ff 9c 27 3f ab 80 00 3f 26 e6 28 bc 23 03 34 3e
       0.6547393 0.5019633 -0.010308778 0.17579322
000090 68 f8 ba be 86 48 d7 3e ff 17 24 bf 56 c7 80 be
       -0.36517644 0.42047518 -0.64099115 -0.2515208
0000a0 fd 6b 37 bc 83 cd 59 be e3 b0 a2 be 1f 18 39 3e
       -0.01119518 -0.21269803 -0.3177558 0.18075608
0000b0 00 b4 0c bf 2e eb 92 3e 06 e5 d5 be f4 85 05 bf
       -0.5496216 0.28695053 -0.41776294 -0.5215752
0000c0 b1 6c ee 3e 90 03 eb be 7d c1 c9 3e 97 18 f2 3e
       0.465673 -0.45901155 0.39405432 0.47284386
0000d0 7c 30 45 bf 69 c1 8b 3d 81 1e bc be 0b 98 77 be
       -0.77027106 0.068239994 -0.36742023 -0.24179094
0000e0 d8 a0 47 bf 8d 90 00 3e a6 05 23 bf 2d 54 8f be
       -0.77979803 0.12555142 -0.63680494 -0.2799391
0000f0 41 a2 fd 3e 3a 93 51 3e e8 be b0 3d 60 9e 4e 3e
       0.49537852 0.20466319 0.086301625 0.20177603

in_proj.bias f4 [32]
000000 9e f0 8b 3e 7c e9 44 be e0 68 c4 be 61 5b 92 be
       0.27332014 -0.19229692 -0.38361263 -0.28585342
000010 40 61 81 bd f0 19 2e 3f 00 41 ee 3e a8 cf 9c be
       -0.06317377 0.6800833 0.46533966 -0.3062718
000020 2b 2b 8c be 59 c1 e5 be bf b7 c4 be 59 e0 fe be
       -0.27376685 -0.44874075 -0.38421437 -0.4978054
000030 13 a3 5b be c7 ec 0e 3e da 0c 5f be 0d e1 94 3e
       -0.21448927 0.13957511 -0.21782246 0.2907795
000040 b1 1e b3 be 45 1a d6 3e 6c f7 8a be 72 c2 49 3f
       -0.34984353 0.41816917 -0.27141893 0.78812325
000050 ff fe 1f bf 4d ce 07 3f de 51 81 bd 39 82 1b 3f
       -0.6249847 0.53049165 -0.06314443 0.6074558
000060 24 23 89 3d 50 11 8f be e6 29 9b be 7c 25 26 3f
       0.06696156 -0.27942896 -0.30305403 0.64900947
000070 72 8d ee 3d 57 7f 35 3f d1 4a 91 3e 17 89 06 3f
       0.11648072 0.7089743 0.28377393 0.5255293
