saved_agents/dm_humanoid_d.pth (torch, 156821 bytes, 26 tensors)

actor_logstd f4 [1, 21]
000000 f9 53 da be be 86 c7 be e2 c6 c8 be e3 40 c8 be
       -0.4264219 -0.38969988 -0.39214236 -0.39112005
000010 57 52 cf be 17 99 cf be 22 f3 d5 be b3 14 dd be
       -0.40492508 -0.40546486 -0.41787058 -0.43179855
000020 9e 2f e3 be 31 79 c6 be 60 56 cc be b2 c3 d6 be
       -0.44372267 -0.38764337 -0.3990965 -0.4194618
000030 61 22 d6 be 51 73 db be 85 64 d6 be 4f 4b c9 be
       -0.41823104 -0.42861417 -0.41873565 -0.39315268
000040 ba 4d c7 be 2e 48 e1 be 87 6a cd be 23 ec dd be
       -0.38926488 -0.4400038 -0.40120336 -0.4334422
000050 87 71 c6 be
       -0.3875849

critic.0.weight f4 [64, 69]
000000 07 93 be be cd 5d 07 3f 3a e4 32 3e 3b c6 42 bf
       -0.37221548 0.52877504 0.17469874 -0.76083726
000010 44 90 bb be 5d f7 c5 bd 97 07 82 3e d4 22 67 bc
       -0.36633503 -0.096663214 0.25396416 -0.014107425
000020 da f5 06 3f 5e d2 39 bf fc b1 0e 3f 92 a0 95 be
       0.5271889 -0.7258662 0.5574033 -0.29224068
000030 31 08 4e 3e bc 56 9a 3e ca 9c 3b 3f be 4a 15 bf
       0.20120312 0.30144298 0.73286116 -0.5831717
000040 ac 6f 37 3e 15 bf 01 3f be b8 2e 3e 36 39 06 3f
       0.17913693 0.50682193 0.17062661 0.52431047
000050 3f 74 1d be 73 0a d0 3e dd a1 70 3e 65 f7 2d 3e
       -0.15376376 0.40632972 0.23499246 0.16988905
000060 c4 dc ba bd 71 fa 9d 3e 5a 15 05 be bb 60 c0 3e
       -0.09124139 0.30855134 -0.12996426 0.375738
000070 2f 99 d1 3e 54 3f 86 bd 33 3f 96 bc 55 c6 19 3e
       0.40937182 -0.06555048 -0.018340683 0.15017064
000080 5f 3f f6 3e ae aa 47 be 5b a5 82 be 2f 7c b4 be
       0.48095223 -0.19498703 -0.2551678 -0.35250995
000090 86 db 9a ba d0 34 4e be 30 8b 5b be 20 a3 d5 be
       -0.0011814691 -0.20137334 -0.21439815 -0.41726017
0000a0 ec fe 91 3c 9f f8 aa bd 7a af 7e be 9d 09 c0 3d
       0.017821752 -0.08348202 -0.24871626 0.093768336
0000b0 56 6b cb bd a7 a5 50 3d bf 1c db bd 58 4c 70 bb
       -0.09932582 0.05093923 -0.10698842 -0.0036666598
0000c0 ec 2c 0b 3e 30 0a ef 3c 94 ab f2 3c f2 9d 56 3d
       0.13591355 0.029179662 0.02962283 0.052396722
0000d0 05 73 ae ba de 10 3b bc 0b 3f 93 3b 94 f8 a5 bd
       -0.0013309425 -0.011417596 0.0044935993 -0.08104053
0000e0 60 05 35 3d 21 87 e9 bc 43 86 04 3c da 0e 08 3c
       0.04419458 -0.028506817 0.008088651 0.008304322
0000f0 3c f4 83 3c 34 16 a9 3c f6 37 0a 3d 13 d4 ef 3c
       0.016107671 0.02064047 0.033744775 0.02927593
000100 14 53 94 bc 84 68 34 3c f3 bc 46 3c 07 63 da be
       -0.018106021 0.011011247 0.01213001 -0.42653677
000110 b1 bc 1c bf b2 ab 0d bf 76 3e 43 3e 14 78 cf 3e
       -0.6122542 -0.5534011 0.19066796 0.405213
000120 86 9f e6 be 3b b9 60 be 27 1c 02 be 09 1f 82 3e
       -0.45043582 -0.2194566 -0.12706052 0.25414303
000130 df 48 e6 3d f1 c7 23 3f 62 4e d5 be 22 3c 17 3f
       0.11244368 0.6397696 -0.41661364 0.5907613
000140 1b 9d 1c be f6 5e b5 3c 01 d3 93 3e 20 6c 4d 3f
       -0.15294306 0.022140007 0.2887192 0.8024311
000150 af c7 4f bf b7 60 ad be a5 cf 62 3e 56 e9 83 3e
       -0.8116407 -0.3386285 0.22149523 0.2576396
000160 81 7f b8 3e f9 71 a2 bc b6 f9 6a 3e 11 a0 d2 3e
       0.36034778 -0.019829737 0.2294682 0.41137746
000170 42 4c 38 3e 43 2f ae 3e 9b 9d 97 3e 40 5b 37 3e
       0.1799784 0.34020433 0.2961243 0.17905903
000180 47 f6 67 3d 94 72 d0 3e 84 8f a7 bd 74 5b 60 3e
       0.056631353 0.40712416 -0.0818167 0.21909887
000190 7d 9a 7a 3d 8d 8a d9 3d 1d cb 2d 3e 9b 57 44 be
       0.061182488 0.106221296 0.16972013 -0.19174044
0001a0 fb 89 12 be c5 d6 92 be 55 b4 aa be 2f 74 0c bf
       -0.14310448 -0.2867948 -0.33340707 -0.5486478
0001b0 5b 69 c6 bc 48 ef 28 3e 35 21 6e 3d c8 ff 6a be
       -0.02422016 0.16497529 0.058137137 -0.22949135
0001c0 fc be 22 3c 5f 7e 93 bd 27 42 a2 3d 7b bd ba 3d
       0.00993323 -0.07201838 0.07922774 0.09118172
0001d0 a0 52 46 bc 3f fb 70 bc 4e c3 4c 3c aa 2b c1 bc
       -0.01210466 -0.014708339 0.012497736 -0.023580391
0001e0 aa b8 a2 bd f7 6e 0d 3d e5 33 04 3b fb 0f a4 3c
       -0.07945378 0.034529652 0.0020172533 0.020027151
0001f0 85 b7 c5 bc 70 cc 12 bd 9d af b9 3d 24 04 2f bc
       -0.02413536 -0.035839498 0.09066699 -0.01068214
000200 fc ac 4c 3b e7 4d e6 bb 48 c9 5b bd ec 9d fd 3c
       0.0031231036 -0.0070283297 -0.053658754 0.030959092
000210 d0 20 a8 3c b7 fd 19 3d c4 b9 ba bc 29 f8 44 bb
       0.020523459 0.037595477 -0.022793658 -0.0030055142
000220 41 a9 d4 be d1 51 1a bf 89 78 b6 3f ed a4 d9 bd
       -0.4153538 -0.6028109 1.4255534 -0.1062716
000230 e0 e7 4f be 2a 94 0a be d3 15 7d 3c 38 10 15 3e
       -0.20303297 -0.13533083 0.015447098 0.14556968
000240 a8 72 60 bc 23 23 bf bc c6 ca ea be 53 0f 01 3f
       -0.013699211 -0.023332184 -0.4585783 0.5041401
000250 cc d3 98 be 1f d4 b4 bc 7d d0 71 3e c0 cd c3 3d
       -0.29849088 -0.022073803 0.23614688 0.09560728
000260 3a cb 59 bd 10 a4 ad 3e 71 19 d2 be 2c 64 31 bc
       -0.053172328 0.33914232 -0.41035035 -0.0108271055
000270 fb 01 18 be 07 01 fa bd 51 77 b9 bd 92 29 60 be
       -0.14844505 -0.12207227 -0.09055961 -0.21890858
000280 e9 d8 93 be aa fd 6f 3e 43 56 7b be f3 94 85 be
       -0.28876427 0.23436609 -0.24544625 -0.26090202
000290 d4 73 a1 3b 8c 9b 42 be b8 4d 2d be db f2 d8 bd
       0.004927138 -0.19004649 -0.16924179 -0.10593196
0002a0 ae 91 b1 be 64 a9 01 3d 1e ff 24 be 46 1a 23 3d
       -0.34681457 0.031655684 -0.16112944 0.03981998
0002b0 bc 61 84 3e 9a 65 e4 bc 12 12 56 be 21 62 b4 3d
       0.25855815 -0.027880479 -0.20905331 0.08807779
0002c0 62 79 51 be f7 e3 94 bd c4 63 cf 3e 23 56 04 bf
       -0.2045646 -0.07270043 0.40505803 -0.51693934
0002d0 df f7 2e be 56 65 ee 3d 21 67 f7 bd 53 c6 ac bd
       -0.17086743 0.11640422 -0.12080217 -0.08436265
0002e0 73 a5 80 3d c4 48 85 3e 89 57 27 bd 95 b2 eb bd
       0.06281557 0.26032078 -0.040854964 -0.11508671
0002f0 cb 77 11 bd 24 41 33 3d b2 11 64 3e dc 0f 8e be
       -0.035514634 0.043763295 0.22272375 -0.27746475
000300 63 9f 80 be 69 22 3b 3a 3f 62 0c bc 4c b5 81 3c
       -0.25121602 0.00071386114 -0.008568346 0.01583352
000310 08 21 5c be 65 66 12 3e 87 eb f8 bd 68 54 cd bd
       -0.21496975 0.14296873 -0.12154298 -0.10025865
000320 3b 22 55 3d a9 d7 be bd 79 2d ab 3e cd 40 b4 3e
       0.052034598 -0.09318478 0.3343313 0.3520569
000330 97 08 71 bd 05 3e 09 3f d4 0f a9 3e 2f 35 fe bf
       -0.058846083 0.5361026 0.33019888 -1.985998
000340 6d 0b 60 be ec 66 5a 3d dc 82 e2 3b bf 21 fe bb
       -0.21879359 0.05332081 0.0069125723 -0.0077554877
000350 17 96 2d 3e 7d 97 f0 3d 92 be 9d be c2 7b 09 3f
       0.16951786 0.11747644 -0.30809456 0.53704464
000360 e6 69 e0 3d 70 e4 2b 3d 20 43 ce be cb fa 26 3e
       0.109576985 0.0419659 -0.40285587 0.16306607
000370 f0 69 bb 3e 4d 6d f3 3c 98 d2 55 be 11 f8 97 be
       0.3660426 0.029715205 -0.20881116 -0.29681447
000380 16 c4 06 3e 2a 10 70 3d ef 86 8e 3d f2 c5 66 be
       0.13160738 0.058609165 0.0695933 -0.22536448
000390 c1 8c 51 3e d1 88 78 3e b3 54 5c bd e7 33 92 3e
       0.2046385 0.24270941 -0.053791713 0.28555223
0003a0 e3 b1 c6 bd a7 5f df be 1c 07 2f 3e 61 1a 28 3e
       -0.09701898 -0.43627664 0.17092556 0.16416313
0003b0 c6 b0 95 3e 81 d2 98 bd ae 4d 56 3e 77 d3 16 be
       0.2923643 -0.074620254 0.2092807 -0.14729105
0003c0 10 96 85 be 50 e2 a8 3d 0d 16 08 3e da 55 9a be
       -0.2609105 0.08246291 0.13289662 -0.30143625
0003d0 fe cc b1 bb 49 ac af 3e b2 46 15 be 22 4b 1d be
       -0.0054260483 0.3431113 -0.1457775 -0.15360692
0003e0 35 5c c8 bd bc 67 dd 3d 97 e8 36 be 12 ff 28 3d
       -0.09783212 0.108108014 -0.17862163 0.04125888
0003f0 26 13 5a bd b7 f8 74 3e 32 26 23 3d 0e e3 5c 3c
       -0.053240918 0.23923002 0.039831348 0.013481868

critic.0.bias f4 [64]
000000 bd 54 0f bf fc 6b 07 bf d8 1f 6b 3e d1 f2 3a be
       -0.55988675 -0.52899146 0.22961366 -0.1825669
000010 27 dd c3 bd fa e5 a6 be dd f9 10 3f c3 d9 4c bd
       -0.09563666 -0.32597333 0.5663126 -0.05001236
000020 cb 64 c8 3d cc ba 14 bf ab 5e 25 3f 5b 28 90 be
       0.0978485 -0.5809753 0.64597577 -0.2815579
000030 4b d0 2d bc fc 33 49 be f8 b0 04 3f 9b a8 41 be
       -0.010608743 -0.19648737 0.5183253 -0.18911974
000040 0f f8 58 3e 57 05 0c be 23 9f e3 be f5 80 4b be
       0.21188377 -0.13673912 -0.4445735 -0.19873412
000050 6f 4c ad be 61 76 4b 3e 22 14 0d be 0a d6 88 be
       -0.33847377 0.19869377 -0.13777211 -0.267258
000060 d8 05 6f be 5f 49 7e be e9 86 b4 3e c2 80 4d 3e
       -0.23342073 -0.24832676 0.35259178 0.20068648
000070 4b cb 98 3e 13 9a cd 3e 1e 39 6c be f5 d8 b2 3e
       0.298426 0.40156612 -0.23068663 0.3493115
000080 95 5a 81 3e 30 51 a4 3e 17 e3 82 be 41 9e da be
       0.2526442 0.3209319 -0.2556388 -0.42698863
000090 b5 d2 8e 3e 43 c6 53 be 32 0e 84 be c9 11 86 be
       0.27895132 -0.206811 -0.2579208 -0.26185444
0000a0 89 01 0c 3f 0b 49 bd be 63 6b 96 be 9e 1f a9 3e
       0.5468984 -0.3696979 -0.29378805 0.33031934
0000b0 66 b9 cf be b9 ce 42 3d a5 ab cc 3d 13 ab 3c be
       -0.40571135 0.047560427 0.09993676 -0.18424635
0000c0 dc 7c 79 3e bc 19 6c be 10 2b bb be 97 92 8d be
       0.24364036 -0.23056692 -0.36556292 -0.27650902
0000d0 b4 fd 3a 3e e3 c9 a1 3e 19 93 e4 3e 1c 34 5a 3d
       0.18260843 0.3159934 0.44643477 0.05327235
0000e0 df 9e 30 be d4 5e 04 bf 4c 4f 1a 3f 01 61 f2 3c
       -0.17248105 -0.51707196 0.6027725 0.02958727
0000f0 51 b1 2d be af 79 f5 3d 87 41 19 3d 6e 22 80 3e
       -0.16962172 0.119861 0.037416007 0.25026268

critic.2.weight f4 [64, 64]
000000 89 9e 22 bf bd 00 95 bd 60 ea 3c be d2 86 49 bd
       -0.63523155 -0.072755314 -0.18448782 -0.04920084
000010 a5 55 aa bd b9 9f bd bd f8 3b a6 3d 42 e2 cf 3d
       -0.08317117 -0.0925898 0.08116907 0.10150577
000020 7c d8 c4 bd ae 3c 01 bf 7b c2 2e 3f 20 0f f7 3d
       -0.096116036 -0.50483215 0.68265504 0.12063432
000030 31 25 f8 bd 3c d2 83 3e 20 68 47 3e db 65 80 be
       -0.12116469 0.25746334 0.19473314 -0.2507771
000040 3f f4 12 bd 74 87 45 bd c2 e4 4f be d7 42 24 3e
       -0.035877462 -0.04822488 -0.20302108 0.16041122
000050 a5 82 f7 3b 6f aa 22 3b a4 27 02 be 76 b8 bb bc
       0.007553416 0.0024820825 -0.12710434 -0.022915106
000060 97 25 20 3e 2d 67 dc bd b2 cc 01 3d cb 37 1a 3e
       0.1563934 -0.10761867 0.031689353 0.15060346
000070 86 8c 9a 3d 5d 5a a3 bd b4 44 25 3e e3 9e 89 3d
       0.07546334 -0.0797622 0.1613949 0.06719758
000080 78 a0 0d bd 71 2e 9d 3d 07 6f f1 bb d9 f2 bf bd
       -0.034576863 0.076748736 -0.007367972 -0.093724914
000090 47 e6 b1 bd 04 9c f3 bd 78 b6 8d 3e b2 d1 14 bd
       -0.086865 -0.11894992 0.27678275 -0.036332794
0000a0 ee 6b 96 3d 3d 44 a8 3d bc 5e 86 3d 23 ed 84 3e
       0.07344805 0.082161404 0.06561038 0.2596217
0000b0 45 c1 08 bd 46 1d dc 3d db a8 cf bd 30 20 46 be
       -0.03338744 0.10747771 -0.101396285 -0.19348216
0000c0 8b 6f 25 be 64 a0 42 3e 31 81 1b be d4 50 b9 3a
       -0.16155832 0.19006497 -0.15186001 0.0014138469
0000d0 72 1d b1 b9 c1 ef 1a be 9c 0e 86 3e f8 a4 0d 3d
       -0.0003378201 -0.15130521 0.2618302 0.034581155
0000e0 55 14 d8 bd 26 e9 47 bd 6f 26 df bc f4 37 80 3d
       -0.10550753 -0.048806332 -0.027240006 0.06260672
0000f0 42 49 1f 3d 61 6f 07 3e 62 68 fb bb 04 13 0e bd
       0.038888223 0.13226081 -0.0076723555 -0.034686103
000100 0c 0d 15 bf 7b 79 5f be 16 a7 6a 3d 42 41 2e be
       -0.5822303 -0.21823685 0.05728825 -0.17017081
000110 4c 77 8f 3d 22 48 2b 3d 1d bf 33 3e 9b 7f 26 3e
       0.07005176 0.041816838 0.17553373 0.16259615
000120 e0 52 7d 3d 12 52 ac be 9a c0 c6 3e ba 2d 79 bd
       0.061846614 -0.33656365 0.38818818 -0.060834624
000130 09 17 3b be a1 c5 72 3e 9e 43 84 3e 06 2b 3a 3e
       -0.18270506 0.23708202 0.25832838 0.18180475
000140 34 59 06 3e d9 14 00 3d 2a 82 91 be 0e 1d 9f 3d
       0.13119966 0.031269882 -0.2841962 0.077692136
000150 75 c0 ac bd 3c b7 62 be 93 8a 34 be 9f c2 2f 3e
       -0.08435146 -0.22140211 -0.17630987 0.17164086
000160 78 bb 75 3d 8e e2 96 be f0 43 82 3e 3a 27 87 3d
       0.059993237 -0.29469723 0.25442457 0.06599279
000170 cf 7d 7f 3d fa 88 70 3a 65 5c 12 3e 4f e2 d9 bc
       0.06237584 0.00091756845 0.14293058 -0.02659717
000180 0c d1 0b bb f8 e2 53 3e 67 c0 3e be 45 cf 99 be
       -0.0021334318 0.2069205 -0.18628083 -0.30040947
000190 ff 27 f4 3d 7d f2 65 bc ed 75 be be a7 51 43 bd
       0.11921691 -0.0140348645 -0.37199345 -0.04768529
0001a0 b2 de de bc 8e 4a 9b 3d d7 77 1d 3e 64 4f 9a 3d
       -0.027205799 0.075825796 0.15377747 0.07534674
0001b0 4b 56 41 be eb 77 d1 bd 8c d3 93 bd 44 74 87 be
       -0.18880574 -0.10227951 -0.07218084 -0.2645589
0001c0 fa da 97 3c 04 ed 76 be da 98 34 bd 2a 23 80 3d
       0.018537033 -0.24113852 -0.044091083 0.06256707
0001d0 35 e5 a5 bb d4 37 dc bd a2 d2 00 3e 46 aa 27 be
       -0.005062724 -0.10752836 0.1258035 -0.16373548
0001e0 24 76 6d 3d 63 a8 df 3b 90 e5 f8 3e 75 0f 56 3e
       0.057973996 0.006825493 0.48612642 0.20904334
0001f0 7c 4e 9f 3a 86 a3 89 3d 90 41 e9 3d 14 51 d4 3d
       0.0012154127 0.06720643 0.11389458 0.10367027
000200 96 ce 2b bf 01 34 b2 be 2e be f3 3b c8 19 05 3e
       -0.671121 -0.348053 0.0074384427 0.12998116
000210 6f 81 6e 3d 9e 72 8f be 7e d1 98 3e 08 c0 5f 3e
       0.058228906 -0.28017133 0.2984733 0.21850598
000220 00 15 4a 3d a9 c7 89 be d7 12 e2 3e 31 d1 20 3d
       0.049336433 -0.2691014 0.44155 0.039262
000230 e0 cc a3 bd c3 e6 92 bd 43 5d ac 3c d2 61 21 3e
       -0.07998061 -0.071729206 0.021040564 0.15759972
000240 8d df 4a 3d ff d4 98 bd 85 e1 a7 be b5 24 49 bd
       0.0495296 -0.07462501 -0.32789245 -0.049107272
000250 2a 9c ac bd 8f 91 6c 3d 85 e4 a2 be 07 e4 13 3e
       -0.084282234 0.057756003 -0.31814972 0.14442454
000260 ae e5 0d be d9 c3 49 3d d4 53 8e 3e e1 3f 24 3e
       -0.13857147 0.04925904 0.2779833 0.16039993
000270 9f d9 11 be 78 8a 23 3d fe 1a b0 bd 51 e6 3b 3e
       -0.14243172 0.039926976 -0.08598898 0.18349577
000280 fa 8e c2 3c d1 e4 d0 3c e9 4a 66 be b7 14 c3 3c
       0.023749817 0.025499733 -0.22489513 0.023813589
000290 5d f3 be 3c 68 ad 1b be 93 da 2a 3d d8 89 25 3c
       0.023309404 -0.15202868 0.041712355 0.010103665
0002a0 5f cc 1c 3e a0 09 5a 3a 11 31 31 be 07 51 4f be
       0.15312336 0.0008317474 -0.17303874 -0.20245753
0002b0 67 09 ad 3e dd d9 05 3e 27 e8 a6 bd f3 7d 1c be
       0.33796236 0.1307139 -0.08149748 -0.15282421
0002c0 68 0f 0f be d8 bf 2b bd 63 e5 97 bd 36 23 08 bd
       -0.13970721 -0.041931003 -0.07416799 -0.033236705
0002d0 64 a6 a4 3d f5 88 c6 3d c3 6b 88 3e 69 58 e0 3d
       0.08039549 0.09694091 0.26644716 0.10954363
0002e0 1d 15 68 3d 23 ba 8a be 54 c3 d6 3e fe 84 9c 3e
       0.05666076 -0.27095136 0.419459 0.30570215
0002f0 aa 8a 5c be 1b 47 0c be 1a 72 5a be 68 d8 06 be
       -0.21537271 -0.13699 -0.21332589 -0.1316849
000300 b6 8d ac be 2a f3 29 bf 6a ef 39 3d 03 ba e1 bd
       -0.33701867 -0.66386664 0.04539434 -0.11021807
000310 ae b3 fe 3d 3f 7b 80 be a0 60 02 3f 55 c9 0e be
       0.12436615 -0.2509403 0.5092869 -0.1394399
000320 b1 d4 25 be 46 8c 04 bf 31 7a c4 3e 6e fe f2 bd
       -0.16194417 -0.5177654 0.38374475 -0.11864935
000330 34 b3 84 3e 09 5f fa 3c 5c d2 ff bb c4 ad d8 bd
       0.2591797 0.030562894 -0.007807059 -0.10580018
000340 c3 bd 72 3e 34 ce e5 bc ac d1 9d be 83 6d 50 bd
       0.23705201 -0.028052427 -0.3082403 -0.05088569
000350 c3 24 7c bd 9c 64 ee bd d1 47 94 3d 3e 12 cc bd
       -0.061558496 -0.116402835 0.072402604 -0.09964417
000360 4a c9 c6 3c e6 16 98 be 88 44 8f 3e 41 80 3f 3e
       0.024265904 -0.2970497 0.27981973 0.18701269
000370 42 4e 29 bd f1 cc 00 be 20 aa 01 be f0 1e bc bd
       -0.041334398 -0.12578179 -0.12662554 -0.09185588
000380 47 d3 43 bd 49 e7 b9 3e 84 b1 f2 bd 38 e3 db be
       -0.04780891 0.3630927 -0.11850265 -0.42946792
000390 4d 50 ba 3c 84 16 3b 3d e2 b3 06 be ce 7c 36 be
       0.022743369 0.04567577 -0.13154557 -0.17821047
0003a0 4f 1f 9c bd 5d a9 1a be 1d bc 63 be 84 5e ba 3b
       -0.07623159 -0.1510367 -0.22239728 0.0056875367
0003b0 e6 e1 90 3c 8b 9c f3 bd bc 2f 14 be 2f 30 c0 3b
       0.017685842 -0.118950926 -0.14471334 0.005865119
0003c0 1a f8 ec bd 01 dc d7 3c a0 2e 29 3b 01 5c c5 b8
       -0.11570759 0.026350023 0.0025815144 -9.410829e-05
0003d0 7f 09 36 3e 71 af 02 3e 7a ac 0f 3f 3b 68 25 be
       0.1777706 0.12762238 0.56122553 -0.16153042
0003e0 05 79 5a be 0c e8 73 be 4d 44 c9 3e 03 c0 1c 3d
       -0.21335228 -0.23818988 0.39309922 0.038269054
0003f0 36 ae 04 be 05 ea 63 be 66 a5 62 3d f2 28 87 39
       -0.12957081 -0.2225724 0.055333517 0.00025779713

critic.2.bias f4 [64]
000000 d6 26 0e 3f 72 fe 29 3f c1 31 11 3f ca 46 fc 3e
       0.5552801 0.6640388 0.56716543 0.49272758
000010 70 32 fc be aa 4e 25 3f 55 69 aa be bb 13 14 3f
       -0.4925723 0.64573157 -0.33283487 0.57842606
000020 87 dc 0c bf f7 ba 08 bf ff 1d 1f bf f4 e7 f9 3e
       -0.55024 -0.53410286 -0.62155145 0.4880978
000030 ef 13 f6 be 2c 94 23 3f eb c5 1d bf 65 1b fc 3e
       -0.48062083 0.6389797 -0.61630124 0.4923965
000040 9d e3 04 3f 5f f5 b0 be fb ce 0e 3f 95 0c fe be
       0.5190981 -0.34562203 0.5578458 -0.49618974
000050 6b f4 cc be 5d 33 e9 3e 45 d3 e7 be 91 e6 fc be
       -0.40030226 0.45547 -0.45278373 -0.49394658
000060 04 ae cc 3e 59 be 00 3f 56 64 9d 3e b4 49 13 bf
       0.39976513 0.5029045 0.30740613 -0.5753434
000070 51 b7 01 bf 69 60 c9 be 4c 59 fe be 82 58 25 3f
       -0.50670344 -0.39331368 -0.49677503 0.6458818
000080 4d 28 0b bf 90 48 b8 be e1 4b 07 bf 10 7b b5 be
       -0.5435837 -0.3599286 -0.5285016 -0.35445452
000090 7b e8 da be 59 a2 03 3f e2 fc 04 3f af 60 e6 be
       -0.42755494 0.514196 0.5194837 -0.4499564
0000a0 e1 18 f5 3e 54 2f 01 3f df 78 f1 3e 90 ea ea be
       0.47870544 0.5046284 0.4716253 -0.45882082
0000b0 1f 2c 16 3f 62 24 fa be 2f bf 10 bf e5 7b 1d 3f
       0.58661073 -0.48855883 -0.56541723 0.61517173
0000c0 02 ac fb be d6 1d d3 3e d3 17 ef be af bc 04 3f
       -0.4915467 0.412337 -0.46697864 0.5185041
0000d0 5e 27 aa 3e d4 9e f9 be ef 89 d2 3e 1d df e8 be
       0.3323316 -0.4875399 0.4112086 -0.45482722
0000e0 29 83 f3 be ce 61 04 bf 1e 75 0a 3f bb 90 a3 be
       -0.47561005 -0.5171174 0.54084957 -0.31946358
0000f0 1a 18 00 3f d8 48 03 3f 53 6c e7 be 45 6c d7 be
       0.50036776 0.51283026 -0.45199832 -0.4207479

critic.4.weight f4 [2, 64]
000000 ee 1e 7d 3d 2e 9b b1 3d 47 99 21 3d 81 a5 db ba
       0.061797075 0.08672176 0.039452817 -0.0016757698
000010 b6 5a cc 3c 9e 12 af bd f8 7d 50 be 9e 79 a8 3d
       0.024945598 -0.08548473 -0.20360553 0.08226322
000020 44 38 3f bd 1a 77 0b be c5 d9 8f bc eb 06 2b 3e
       -0.04668452 -0.13619652 -0.017559895 0.16701858
000030 4b 9b 05 bd a3 f8 2e bd b4 24 9e bd 86 09 25 3b
       -0.032618802 -0.042717587 -0.07721844 0.0025182678
000040 19 ba 55 3c bf 7b 73 3f 69 94 92 3c 0b 2d c8 3c
       0.013044857 0.95110697 0.017893033 0.02443554
000050 1c 1f 5a be 62 66 2d 3e 09 90 ed bd a6 35 d9 bb
       -0.2130093 0.16933587 -0.11599738 -0.00662871
000060 c4 2a 07 3e 74 13 6a 3e 14 4c 32 3e 87 82 04 be
       0.13199908 0.22858983 0.17411834 -0.12940417
000070 22 5e 79 bd 23 41 02 be 94 28 03 be e0 04 13 3d
       -0.060880788 -0.1272016 -0.12808448 0.03589332
000080 ac 2a aa bd 1b dd 2a be 0d e3 b8 3d 17 e3 4e be
       -0.0830892 -0.16685908 0.090276815 -0.20203815
000090 6a 8d 25 be ed 0c af 3d b2 13 4d bd 82 0a bf bd
       -0.16167226 0.08547387 -0.05006761 -0.09328176
0000a0 0c 30 e3 bd 03 27 36 3e 0f 38 40 3e f6 91 93 3d
       -0.110931486 0.1778832 0.18771385 0.07205574
0000b0 1a af 71 bc 77 6f 30 be d0 23 93 3d 31 25 fc 3c
       -0.01475122 -0.1723002 0.07184565 0.030779453
0000c0 c2 02 b1 bc 30 4c 80 3e 31 27 c2 bd bd a3 20 3d
       -0.02160776 0.25058126 -0.094801314 0.039218653
0000d0 99 2a 01 3f 19 6c 04 bd e8 c8 57 3e 8e 55 22 be
       0.50455624 -0.032329652 0.21072733 -0.15852949
0000e0 f0 e1 d2 bd 2a e1 ec bc a1 57 a4 3d 69 24 92 be
       -0.102970004 -0.02891596 0.080245264 -0.28543404
0000f0 69 2f 0f 3e c8 eb 31 3e e0 29 32 be 95 f0 85 bc
       0.1398293 0.173751 -0.17398787 -0.01635007
000100 8a 04 4b 3f 9f 54 20 3f 91 0f 3c 3f 53 52 3c 3f
       0.793038 0.6262912 0.7346125 0.73563117
000110 19 45 4f bf ac 87 16 3f d4 d3 7d bf 06 cc 32 3f
       -0.8096481 0.5880077 -0.9915135 0.69842565
000120 26 ce 38 bf e7 78 3f bf f0 ee 4e bf f7 c5 49 3f
       -0.7218956 -0.7479386 -0.8083334 0.78817695
000130 35 0f 47 bf 7b bd 28 3f 14 2e 3f bf 59 d4 57 3f
       -0.7775758 0.65914124 -0.74679685 0.8430839
000140 96 68 43 3f 0f 00 49 be cb b8 48 3f b0 45 4c bf
       0.7633146 -0.19628929 0.7840697 -0.79793835
000150 f4 61 50 bf 54 9c 4a 3f 94 1c 3c bf 31 97 4d bf
       -0.81399465 0.7914479 -0.73481107 -0.80308825
000160 92 07 5b 3f 04 7d 0d 3f 2f 33 8c 3f 1b 49 15 bf
       0.85558426 0.55268884 1.095312 -0.58314675
000170 18 0e 44 bf 80 e6 37 bf 9c 87 3d bf a8 ee 29 3f
       -0.76584005 -0.7183609 -0.7403505 0.66379786
000180 2a 32 2a bf c6 a5 76 bf f9 70 16 bf b1 43 74 bf
       -0.66482794 -0.963467 -0.5876613 -0.9541579
000190 b4 23 4a bf eb 94 38 3f 99 b9 1f 3f 9d 35 39 bf
       -0.7896073 0.7210223 0.62392575 -0.7234743
0001a0 9f 6f 62 3f 00 21 10 3f 76 fd 22 3f 85 d2 5f bf
       0.8845157 0.56300354 0.63668 -0.874306
0001b0 58 46 2f 3f fe dd 21 bf 39 fd 3e bf b9 31 3e 3f
       0.6846671 -0.6322936 -0.7460514 0.7429462
0001c0 cf 08 3b bf 3f 0c 1d 3f 0c cf 53 bf 50 19 4a 3f
       -0.73060316 0.6134681 -0.82737803 0.78944874
0001d0 ff da c8 3e a5 1b 46 bf c5 69 53 3f da b6 45 bf
       0.3922958 -0.7738593 0.82583266 -0.77232134
0001e0 d0 ad 4a bf 0c ac 42 bf 7f ef 3e 3f 0c eb 91 bf
       -0.79171467 -0.7604377 0.7458419 -1.1399856
0001f0 6a 6d 32 3f be 56 41 3f da 66 1d bf e0 36 54 bf
       0.696982 0.75522983 -0.61485064 -0.8289623

critic.4.bias f4 [2]
000000 00 62 24 3e 92 1a 35 3f
       0.16053009 0.7074367

actor_mean.0.weight f4 [64, 69]
000000 af 67 99 bd 35 84 9b be 1f c8 66 3e a0 33 3a 3e
       -0.07490479 -0.30374303 0.22537278 0.18183756
000010 97 aa 92 be be 70 13 3e 6d 69 9f 3d b6 99 9f 3d
       -0.28645775 0.14398476 0.0778378 0.0779299
000020 be 50 be bd ee 29 0c 3e a8 bf 3b 3e d5 dc 4b 3e
       -0.09292744 0.1368787 0.1833483 0.1990846
000030 9f 27 3d 3e 72 19 30 3d 2c ac c8 3d 9d 42 7f 3d
       0.18472145 0.042993017 0.09798464 0.062319387
000040 e5 2a 88 3d c5 b1 8e bd b6 3b 4f 3d f2 8b 3a bd
       0.066488065 -0.069675006 0.050594054 -0.04554362
000050 df 5d 94 bc 29 1b a3 bd 9f 7f 49 3d b0 c1 4c be
       -0.018111167 -0.07964165 0.049193975 -0.19995761
000060 c7 d5 b1 3e ea 50 47 3d ed fb b4 be 4a 5f 9a bb
       0.34733412 0.04866115 -0.35348454 -0.0047110664
000070 0d 53 b6 3e 9b a5 27 be b5 cc c8 3e 53 c9 3b 3c
       0.35610238 -0.16371767 0.3921868 0.011461574
000080 42 49 f6 3e 59 80 cb 3d 8e f8 2e be 65 2b bf bd
       0.48102766 0.0993659 -0.17087004 -0.09334449
000090 0e 48 0b be 1c b6 c5 3e 4e 3c eb 3e fc 75 ff 3b
       -0.13601705 0.386155 0.45944446 0.0077960473
0000a0 7e 12 61 be 73 f5 fd 3c c9 f7 32 3c 83 30 ff bb
       -0.2197971 0.031000828 0.010923334 -0.0077877655
0000b0 56 53 99 be b9 43 6d 3e c1 d7 a9 3c e4 e7 f4 bd
       -0.29946393 0.23170365 0.020732762 -0.11958292
0000c0 0a 48 94 3e 1b 0a 80 be 93 13 ee be 54 f8 70 3e
       0.2896121 -0.2500771 -0.4649931 0.2353223
0000d0 03 80 44 3e 47 6e 26 be ca 8a 39 bd 94 4b 91 3e
       0.19189458 -0.16253005 -0.045298375 0.28377974
0000e0 6a dd 19 3c f8 71 4f 3e 8d 0f 5f be ff b9 b3 bc
       0.009391168 0.2025832 -0.21783276 -0.021939276
0000f0 8a 15 cd 3d a3 f1 3d 3e 60 9c dc 3d 95 31 f5 3d
       0.10013874 0.18549208 0.10772014 0.11972348
000100 53 ee 07 3e c8 8e fe bd c2 2b 37 3e 73 e2 a2 3d
       0.13274507 -0.12429577 0.17887786 0.07953348
000110 e3 d9 8d bc 8a 78 9c bd 56 3d 77 3e ec 42 23 3e
       -0.01731581 -0.076401785 0.24144492 0.15943497
000120 0c 76 da 3c 78 34 4f bd df 91 a2 be 5c 60 30 3e
       0.026667617 -0.050587147 -0.31751916 0.17224258
000130 9d e0 a0 bb 9d 78 76 3b a7 43 ac bb 52 07 0b 3e
       -0.0049095885 0.0037608512 -0.005257088 0.13577011
000140 5a 95 b4 3d 1f 69 6b 3e 93 a2 fb 3d 42 7b c3 bd
       0.08817549 0.2298932 0.12286868 -0.09544994
000150 fe 89 7a 3e 54 10 ad 3e c8 fd fd 3e 16 79 58 3d
       0.24466702 0.3380152 0.49607682 0.05284985
000160 0e 77 90 3e 0d 13 a2 bd 8a fb 75 3e 5a 59 22 be
       0.28215832 -0.0791379 0.24021736 -0.15854397
000170 76 be a3 3e b0 0c a6 3d ba bf ea 3e 3c cc 3a bd
       0.31981248 0.08107889 0.458494 -0.04560493
000180 7e 1c e5 3e 40 c2 23 3e f3 cb c9 bd 04 34 25 be
       0.447483 0.15992069 -0.09853353 -0.16133124
000190 54 96 1b 3d ce 8f 20 3e 34 6e 35 3e 9a 28 8e be
       0.03798516 0.15679857 0.1771782 -0.27765352
0001a0 e6 b8 7b 3d c8 00 09 3e e7 01 8d bd de 04 dc bc
       0.06145563 0.13379204 -0.068851285 -0.02685779
0001b0 e1 47 04 be 74 2d 7c 3e 5a 90 1d 3d da 43 c9 3c
       -0.12918045 0.24626714 0.038467743 0.024568487
0001c0 da c1 92 bc 68 62 cf bc 01 e0 95 3d b6 c9 f9 bc
       -0.017914701 -0.025315478 0.07318116 -0.030491691
0001d0 c5 f6 ea 3d 03 7d 34 3e 7d 50 04 bd 85 74 cb 3d
       0.11472849 0.17625813 -0.032303322 0.09934334
0001e0 f5 16 c3 be 98 6c 8e 3d 8b 92 5d 3d 62 1d 59 bd
       -0.38103452 0.06954306 0.054094832 -0.053006537
0001f0 39 e5 c6 bd 35 c6 a6 bd 45 b4 24 be 56 9a 1b be
       -0.097116895 -0.08143274 -0.16084392 -0.15195593
000200 80 e5 ae be ae df b5 be ff 62 9e bb 3b 21 96 bd
       -0.3415947 -0.35522217 -0.0048335786 -0.07330557
000210 3c ec 8a bc 28 23 26 3c 5c f0 59 bd 35 a2 67 3d
       -0.016958348 0.010140218 -0.05320774 0.056551177
000220 59 d8 b1 3c 83 bf 83 3d 90 c5 06 be 83 66 aa 3a
       0.021709608 0.06433012 -0.13161302 0.0013000522
000230 5b a7 e0 be a5 56 89 3e 24 af 81 3d 68 82 70 be
       -0.43877682 0.26823917 0.063322335 -0.23487246
000240 bf 03 37 be 22 a3 31 3e db 7d 99 bd 9c 83 4c be
       -0.17872523 0.17347386 -0.07494708 -0.1997208
000250 42 d2 28 bd e5 96 ab bd 17 b6 ae 3c df 10 8d 3e
       -0.041216142 -0.0837839 0.021327062 0.27551934
000260 3d e7 3f 3e d7 ca 2f be f4 17 c7 be 93 d5 35 3e
       0.18740554 -0.17167221 -0.38885462 0.17757253
000270 ac 72 15 3f ac 67 4e bd 51 0d ab be a8 7a 98 bd
       0.583781 -0.050391838 -0.33408597 -0.0744527
000280 3d c2 3f 3e 0a d6 91 bd c1 6c 18 be d2 49 fc 3d
       0.1872644 -0.07120903 -0.14885236 0.123187676
000290 5c 05 e0 3d f9 b0 31 be ec 0a 33 3c ae d8 7a be
       0.10938522 -0.17352666 0.010927897 -0.24496719
0002a0 4d c8 bb bd 5d 39 1c 3e de e7 00 3e 5b 80 8b 3e
       -0.09169064 0.15256257 0.1258845 0.27246365
0002b0 52 75 86 3d 91 09 0e 3e 86 80 8a 3e cd 30 10 bb
       0.06565346 0.13870837 0.2705118 -0.0022001744
0002c0 a9 55 1b 3d 46 16 de 3d a3 31 ea 3c bf f6 7a 3b
       0.03792349 0.10844092 0.028588122 0.0038294045
0002d0 c5 21 68 3e 1c 45 43 be 71 cd 22 be 76 15 2a 3e
       0.22669132 -0.19069332 -0.15898682 0.16609749
0002e0 b7 30 41 be e0 ec 35 be d0 b7 d4 3d 7e d6 bf be
       -0.1886624 -0.17766142 0.10386622 -0.37468332
0002f0 58 c0 45 3e e3 05 ee 3d 42 57 74 3d 31 11 2e bd
       0.19311655 0.116222166 0.059653528 -0.042496864
000300 e1 9a 0f 3c 42 92 6d bc ff 5a 1c be fd ae 75 3d
       0.008764953 -0.014500203 -0.15269087 0.059981335
000310 08 71 67 bd 0b e7 94 be 26 0f 8a 3c ee 0b a3 be
       -0.05650428 -0.29082522 0.016852926 -0.3184504
000320 bb 06 d9 be 40 ca c1 bd 70 db 12 bd 45 9f 29 3e
       -0.42387947 -0.09462404 -0.035853803 0.16564663
000330 58 e7 41 bd 76 f7 9e bd dc 37 ab bb d9 f0 84 3e
       -0.047339767 -0.07762043 -0.005225165 0.25965002
000340 0d 5d 2d 3e 96 49 a1 3d 8c 2b 5b be a6 8d 26 bc
       0.16930027 0.078753635 -0.2140333 -0.010165608
000350 85 13 08 bd ff 74 7d be 05 f4 13 be 1f 7d 87 3c
       -0.03322174 -0.24751662 -0.14448555 0.016539155
000360 f3 ba 88 be 65 29 32 bd 81 98 0d bd 96 f2 4e 3e
       -0.2670513 -0.04349651 -0.034569267 0.20209727
000370 18 94 2e be 3d c2 b5 bd c6 39 05 be 58 e1 12 3e
       -0.17048681 -0.08874939 -0.1301032 0.14343774
000380 8e 73 14 be ad 59 f4 bc 97 d4 c8 bc dd df 6a be
       -0.14497206 -0.029827917 -0.024515433 -0.2293696
000390 6a b7 24 bd d7 a4 9a be 2a c0 16 3d bf f9 52 3d
       -0.04021398 -0.30203888 0.036804356 0.051507708
0003a0 5c 32 8e be b9 8c 37 3e 21 d2 45 3e 05 4c 48 3e
       -0.27772796 0.17924775 0.19318439 0.19560249
0003b0 7a a7 43 3d 2f 6a 1a bd 47 d3 09 be fc a6 61 be
       0.04776714 -0.03769892 -0.13459502 -0.22036356
0003c0 92 96 3c be 1c e1 1d be a9 ed 82 bd 14 24 9c 3d
       -0.18416813 -0.15417904 -0.06392986 0.07624069
0003d0 c0 77 a5 3e 0e 3d ba bd 15 a1 a9 bd cb 9d cc bd
       0.32317924 -0.090936765 -0.08282677 -0.09991034
0003e0 08 c1 52 3e d1 8e 07 3d fd 09 01 be d5 7f 75 be
       0.20581448 0.033095185 -0.12601466 -0.23974545
0003f0 e8 bd e5 3d c7 0f 11 3e e6 84 da 3e f4 ec d2 bd
       0.11217862 0.14166175 0.42679518 -0.102991015

actor_mean.0.bias f4 [64]
000000 04 41 99 bd bf a2 d8 bd ce 59 d0 3c bd 23 93 3c
       -0.07483104 -0.10577916 0.025433447 0.017961377
000010 07 bb 12 bc 5b b9 a6 3b e8 18 0a bc 92 97 ca 3c
       -0.008955724 0.005088014 -0.00842879 0.024730477
000020 6f 86 c2 3c 68 42 04 3d f3 55 61 3d 12 d2 2b 3d
       0.023745744 0.032289892 0.05501361 0.041948386
000030 d8 ba 7f bc 04 33 0e 3d e2 32 fb 3c db 6e 82 3d
       -0.015608512 0.03471662 0.030663911 0.063688
000040 3c 94 5b 3b f1 9a 12 bd eb d5 6c bb 03 1a d6 3d
       0.0033505103 -0.035792295 -0.0036138247 0.1045418
000050 18 34 b1 bd 63 68 9d bd f4 08 9b 3d d4 7e 50 3b
       -0.08652514 -0.07685926 0.07570067 0.0031813877
000060 e8 c8 10 bd bf a3 03 3d 67 15 5b 3d 86 68 eb bc
       -0.03534785 0.032138582 0.053487208 -0.028736364
000070 81 88 bf 3c c8 ee 3a bd 79 d4 d6 bd 25 41 d5 bc
       0.02338052 -0.045637876 -0.10489745 -0.02603204
000080 3a 69 67 bc 71 53 26 3c ad 86 9b 3d 6d 05 36 bb
       -0.014124209 0.01015173 0.07594047 -0.002777423
000090 6b d8 94 3d f8 cb 76 3d e3 18 1c 3d aa 26 04 3e
       0.07267841 0.060253114 0.03810967 0.12905374
0000a0 c1 f8 fb 3c 2b ec 0d 3e 84 d0 11 3d 97 d4 8c 3d
       0.030758264 0.13859622 0.035599247 0.06876486
0000b0 c7 bd 66 3d ab 62 0a bd c5 5b 2b 3d 46 0e 4f 3c
       0.05633333 -0.033785503 0.041835565 0.01263768
0000c0 6c 62 16 3d 5c f3 19 3e 8b 5f 8c 3d 2a d6 b5 3c
       0.036714956 0.1503424 0.06854161 0.022196848
0000d0 3d 0a 07 bb 56 47 98 3c 39 0e 3d 3d 25 64 2d 3d
       -0.0020605468 0.018588703 0.046156142 0.042331833
0000e0 6a be 06 bd 33 e1 3b bd c6 6e 84 bd 10 ba 00 3c
       -0.032896437 -0.045869064 -0.06466441 0.007856861
0000f0 3a f4 20 be 21 a9 32 bd 93 2f 89 3c c2 0d e5 bc
       -0.15718165 -0.043618325 0.016746318 -0.027960662

actor_mean.2.weight f4 [64, 64]
000000 6b 57 76 bc b7 bf 95 bb 4b c2 b5 3d e9 f1 73 be
       -0.0150354905 -0.0045699733 0.08874949 -0.2382275
000010 16 3f 0f be 80 92 96 3e d7 b5 bb be 75 9c 70 be
       -0.13988909 0.29408646 -0.3666217 -0.23497184
000020 7e f2 3e be 9f d4 84 3d 85 67 2d 3d 6d e9 a7 3e
       -0.18647191 0.06485867 0.042335052 0.32795277
000030 f2 5a f1 bd f6 52 13 3d 6f 76 b9 3d 52 41 90 3e
       -0.117849246 0.03596779 0.090557925 0.28174835
000040 45 b6 70 3e 00 90 a3 bd 1f 70 ec bc 4a ce 15 bd
       0.2350703 -0.0798645 -0.028862057 -0.036573686
000050 71 8a a0 bc 60 16 aa bd ce c6 22 be 34 a1 ab be
       -0.019597264 -0.08305049 -0.1589615 -0.33521426
000060 e0 ac f4 3d f4 11 71 3e 55 a0 1a 3e 57 f1 b4 be
       0.11947036 0.23542005 0.15100224 -0.35340378
000070 46 50 39 3e 01 b7 4a bd 86 a6 93 be f5 54 98 bc
       0.18097028 -0.049490932 -0.28837985 -0.018595198
000080 e3 6d e9 3b da 69 9d 3e a5 f5 10 be f9 7b 3b be
       0.007123695 0.3074482 -0.14156206 -0.1830901
000090 a9 c7 e7 bd 58 5b 99 3e 98 bf 68 bc 77 25 67 bd
       -0.11317379 0.29952502 -0.014205836 -0.056432214
0000a0 c5 ad 66 3c 42 6a fd bd 55 64 be 3d f3 79 3e be
       0.014079516 -0.12373783 0.092964806 -0.18601207
0000b0 e1 f1 61 be 5c 6a 44 bd 8d 7f 71 3b b0 fb 90 bd
       -0.22064926 -0.047952995 0.0036849708 -0.070792556
0000c0 99 4e 22 3e 88 28 6d bd 13 d7 60 3d df 75 c9 3e
       0.15850295 -0.05789998 0.05489261 0.3934774
0000d0 98 d7 9e 3d bf fb 87 3e b7 8a cf bd 8d a1 ce 3d
       0.07755965 0.26559255 -0.1013388 0.10089407
0000e0 cb 85 72 3e fa 16 db 3d f3 95 11 3f 50 9c 50 3e
       0.2368385 0.10697742 0.5686943 0.20372128
0000f0 fd 96 16 be d5 cc b9 bd e4 f0 e9 ba 3d d2 fa 3e
       -0.14706035 -0.09072272 -0.001784828 0.48988524
000100 60 a7 3a be ab 00 c8 be 96 13 05 3e 5e 04 75 3e
       -0.18227911 -0.3906301 0.12995753 0.23927447
000110 2c e6 0a 3e 9f 14 af 3e 16 35 64 be 9c 92 f4 bd
       0.13564366 0.3419542 -0.22285876 -0.11942026
000120 88 5d 89 3d aa c1 35 3e f8 f1 5a be d6 3d 1b be
       0.06707293 0.17749658 -0.21381366 -0.15160307
000130 63 9c 8c be 78 d8 15 be 6f b2 9b bd 6b f8 a9 bd
       -0.27463064 -0.14633358 -0.07602393 -0.08299335
000140 0f 37 82 3e 70 7b 09 be 17 ab a8 be 79 71 96 3e
       0.2543263 -0.13425994 -0.3294303 0.29383448
000150 ab da e4 3d 8e 32 6f 3e 54 3b ec bd a0 6a a8 3e
       0.1117452 0.23359129 -0.115347534 0.32893848
000160 9b b2 2b be 3f d1 e0 3c 54 92 aa bd 8d c2 89 be
       -0.16767351 0.027443526 -0.08328691 -0.26906243
000170 55 a7 aa bd 5b 41 b3 3c 2c 94 eb bd 12 00 50 3e
       -0.08332697 0.02188175 -0.11502871 0.20312527
000180 e9 fc f7 bd 59 b6 ad be ed cd 43 3e 0c cf 6a bd
       -0.12108786 -0.33928183 0.19121523 -0.05732636
000190 ad fd 20 bc be 03 34 3e 9c dc 46 3e cb 17 92 bd
       -0.009826106 0.17579553 0.19420093 -0.071334444
0001a0 a8 c3 43 be 12 50 73 3e 26 d4 51 be ae 87 63 be
       -0.19117606 0.23761013 -0.20491084 -0.22219726
0001b0 5e 4b 29 3d aa 29 0b 3d 31 25 13 3f 41 66 23 be
       0.04133164 0.03397528 0.57478625 -0.15956976
0001c0 a0 1e 34 be e0 54 d0 3d c9 26 fd 3e 58 25 98 3d
       -0.17589808 0.101724386 0.49443653 0.07428998
0001d0 30 28 51 3d ca 00 a7 bd 1f f6 3e bd a3 45 18 bd
       0.051063716 -0.081544474 -0.046621438 -0.037175786
0001e0 bc fd e9 3c 26 11 fa bd 99 2c f6 3d 6e 6e c4 3d
       0.028563373 -0.12210302 0.12020225 0.09591375
0001f0 58 f5 92 3d 34 d4 6d 3d c7 6e ca 3d 4d fd 4f bb
       0.07175702 0.0580637 0.0988441 -0.0031736672
000200 2c a6 e0 3c 47 9c 29 bd 8c d6 f3 3d 0e 75 97 3e
       0.027422987 -0.041408803 0.11906156 0.29581493
000210 de 6f 94 bd a2 e6 ee be 8a 15 cf be 1a 5b 30 3e
       -0.072478995 -0.46660334 -0.4044612 0.17222252
000220 5c 79 5d bd 81 df 57 3e c2 00 ca bc bc e4 95 3e
       -0.054070815 0.21081354 -0.024658564 0.29276073
000230 22 d3 9b be fc ac 8b 3d 59 19 7e 3e a5 aa f2 3d
       -0.3043452 0.068201035 0.24814357 0.11848954
000240 6d fb 7b bb e6 42 2f be 66 40 d5 3e 11 58 5b be
       -0.0038449422 -0.17115363 0.41650695 -0.21420313
000250 ac e9 e4 bd 27 bf aa 3e 79 bd fb 3d 88 cb 2f 3e
       -0.11177382 0.33348963 0.122919984 0.17167485
000260 15 67 1d bb 3f dc 40 3e b3 ae 4d be 11 be 92 3e
       -0.002401774 0.18834017 -0.20086174 0.28660634
000270 8d 4d 98 be 16 dd 41 3d 07 e2 00 3e 15 ae 9d 3d
       -0.29746667 0.047329985 0.12586223 0.07699219
000280 ab 60 8c 3d 7b 89 f9 bd ca 67 ab be 67 26 94 3e
       0.068543755 -0.121844254 -0.33477622 0.2893555
000290 cf c9 d2 3e 28 dc fe bd 97 d9 d1 bd 38 46 5c 3d
       0.41169593 -0.12444335 -0.1024658 0.053777903
0002a0 67 0d 56 bd b7 ba ca 3d d7 9a 01 bd 44 fd 49 be
       -0.052258875 0.09898894 -0.031641807 -0.1972552
0002b0 4b fd bd 3d 7e 98 80 3d 81 8d 82 3e 16 ad db bd
       0.092768274 0.062790856 0.25498584 -0.10726373
0002c0 d1 1f 20 3e 24 fe c7 bd e7 6e 2b be 36 be 5d 3e
       0.15637137 -0.0976527 -0.16741525 0.21654591
0002d0 78 e4 18 3e 1e f0 b9 3d 31 f0 f2 bd bb 84 6f be
       0.14930904 0.09079002 -0.11862219 -0.23390476
0002e0 d8 aa 37 be 9e 91 70 ba d6 3a 31 3d 0a 00 15 3c
       -0.17936265 -0.0009176972 0.043269 0.009094248
0002f0 b5 4f 4f be 18 de 52 3e 91 8c 7c 3e 2d 1f 6a be
       -0.2024525 0.20592535 0.24662997 -0.22863455
000300 cb 63 2c be 01 fa cc bd b8 5c 5b be be d8 53 3e
       -0.16834943 -0.10008622 -0.21422088 0.2068815
000310 1d b9 ea 3e f0 3c 9d 3d fb aa 61 bc e7 fb 52 3e
       0.45844355 0.076776385 -0.013773675 0.20603906
000320 f7 d0 6f bd 2e 7a 8b bd fc 60 a9 bd 9e 89 12 be
       -0.058548894 -0.06810413 -0.082704514 -0.1431031
000330 f0 1b 8f be da 5f 44 bd c8 73 25 3e e2 4a b3 be
       -0.27951002 -0.047942974 0.16157448 -0.3501807
000340 0f 3e 74 be 66 47 44 3e 35 24 bf 3d ff 83 46 be
       -0.23851798 0.19167861 0.09333078 -0.1938629
000350 f7 e0 67 bd 3d 46 f7 bd 71 b2 89 3e 48 e0 7a 3d
       -0.056611028 -0.12073944 0.26893952 0.061249048
000360 c5 7c e2 bc 43 f5 4f 3e 5e 15 85 3e df 4e fc 3c
       -0.027647385 0.20308404 0.25992864 0.030799327
000370 de a7 66 3d 8b 1c 91 3e da 5a 7b be 42 ca 8f be
       0.056312434 0.2834209 -0.24546376 -0.28083998
000380 be 89 44 be 36 1e eb bd 50 96 5e 3e da f5 67 3e
       -0.1919317 -0.11480372 0.21737027 0.22652379
000390 5a a4 26 bc fd 89 db bd dc b5 01 bc c9 86 6c be
       -0.01017102 -0.107196786 -0.007916894 -0.23098291
0003a0 1d c4 3e bd 00 f9 c4 bd 8f 3d 86 be 69 a7 47 be
       -0.046573747 -0.096178055 -0.2621884 -0.19497456
0003b0 13 c5 24 be a1 cf f5 bd 76 f1 00 bf 8c 72 61 3e
       -0.16090803 -0.12002493 -0.5036844 0.22016352
0003c0 ba 5f b5 3e 9d db 89 3e e9 9e cb 3d e5 0a 67 3e
       0.35424596 0.26925364 0.09942419 0.2256275
0003d0 9e 25 73 3e 00 f9 3a bd 83 9d 03 bd 57 f0 50 3e
       0.23744819 -0.04564762 -0.032132637 0.20404182
0003e0 26 96 28 be de dc e0 3d e5 3e c7 3e b4 7c bc bd
       -0.16463527 0.10979627 0.38915172 -0.09203473
0003f0 16 a2 06 be df df 17 3e eb ce 82 3d 60 60 ac bd
       -0.13147768 0.14831494 0.06387123 -0.084168196

actor_mean.2.bias f4 [64]
000000 ba ea 11 3d a6 62 a3 3d 00 65 29 3d c5 45 1b bd
       0.035624243 0.079778 0.041356087 -0.037908334
000010 49 45 da 3c 26 70 9c bc ab 83 03 3d 1d 3d be 3b
       0.026644366 -0.019096445 0.03210799 0.005805625
000020 02 cd 91 3d 10 2e d0 3d 37 be 25 bc e2 12 28 bd
       0.0711918 0.10165036 -0.0101161515 -0.041033633
000030 0b 62 18 bd e3 1e fd 3b 6a 81 85 bb b5 f5 9c bd
       -0.037202876 0.0077246292 -0.0040742652 -0.076640524
000040 0f ba c3 bd 1a d8 93 bd 2d 23 49 3d db ca 3c bd
       -0.09556972 -0.072189525 0.049105812 -0.046091896
000050 e8 09 1f 3d 24 a1 b6 bd 83 8d 1b 3d cf 8b df 3c
       0.038827807 -0.08917454 0.037976753 0.027288346
000060 67 64 11 3a 89 31 a1 bb ec 8d 3a bc 94 a4 c2 3b
       0.0005546272 -0.004919235 -0.011386376 0.0059400294
000070 46 ce 9f 3d de 05 2c 3c b9 e9 35 bb a1 06 d3 3c
       0.078030154 0.010499446 -0.0027757718 0.025759997
000080 e1 ad eb bc 3b 28 62 3d 7c 0b 81 3b ab e8 94 bd
       -0.028769435 0.055214148 0.0039381366 -0.072709404
000090 58 9d 11 3c 56 d8 df 3c 8e 96 9c bd 03 26 7e 39
       0.008887611 0.027324837 -0.076459035 0.00024237488
0000a0 f2 af aa bd 76 08 07 3b 7e ac 28 3d 9c 4b 54 3c
       -0.0833434 0.0020604408 0.041180126 0.01295748
0000b0 f1 ff cd 3b c9 75 9f 3d 30 c9 5a 3d ee d7 98 bd
       0.006286614 0.077861376 0.053414524 -0.0746306
0000c0 e4 ea c0 bc 78 72 17 bc ec 4c 98 3c 68 80 18 3d
       -0.023549505 -0.0092436 0.018591367 0.037231833
0000d0 90 5c 8a bc 77 b1 24 3d 85 d7 5c 3d c1 c2 74 bc
       -0.01688984 0.040208306 0.053916473 -0.014939011
0000e0 94 82 d3 bc f7 c0 44 3d dd ff 0a 3d b9 cd 68 3c
       -0.0258191 0.048035588 0.033935416 0.014209204
0000f0 ad 72 94 3a 5a 0f 06 3e d2 b2 0f 3d 8b eb 82 bd
       0.001132568 0.13091794 0.035082646 -0.063925825

actor_mean.4.weight f4 [21, 64]
000000 f8 e6 e1 bc 48 1d 8e bb 2a 6d b8 bc 6a 69 f3 3c
       -0.027575955 -0.0043369867 -0.022512991 0.029713351
000010 67 36 2f bd 7b f6 fe bc 22 73 05 bc 22 26 d4 3c
       -0.04277649 -0.03112339 -0.008145126 0.02589709
000020 34 95 23 3c 1f 39 25 bd 38 fe 0a bd 86 11 98 3b
       0.009984303 -0.040337678 -0.03393385 0.004640761
000030 d7 75 24 bd 7f 91 d2 bc 81 86 a2 bc 49 33 3b bc
       -0.040151443 -0.025704144 -0.019839527 -0.011425802
000040 d1 59 59 ba f0 ef 88 3c ed ff a0 bc a5 e7 9f 3a
       -0.0008291277 0.016715974 -0.019653285 0.0012199773
000050 80 e8 7d bd d3 fd 09 3d e2 60 14 bb 95 72 8e 3c
       -0.061989307 0.03368933 -0.0022640754 0.017388621
000060 39 f4 4c 3b 5f a3 44 3c d0 f9 b3 bc 24 c5 ef bc
       0.0031273498 0.012001841 -0.021969706 -0.029268809
000070 0f 1d 21 3c 2b 7b 49 bc 2e 05 d2 bc 3d 07 9a 3b
       0.009833588 -0.012297432 -0.025637235 0.00470057
000080 36 49 da 3c 2b 6c fc bb 44 ef 9e bc ba 7f 55 bc
       0.026646238 -0.0077033243 -0.0194012 -0.013030941
000090 3c c7 df bb 49 8c 7c 3d 7e 45 13 bd e7 b1 ac 3c
       -0.0068291705 0.061657224 -0.035954945 0.021080924
0000a0 75 f8 30 3d 0d da 8e bc eb 7f d4 3c 1e d2 5f bc
       0.043205697 -0.01743796 0.025939902 -0.013660936
0000b0 7c 83 1e bd 1d a4 f8 bc 0a 80 3e bd a3 8d 3c 3d
       -0.038699612 -0.030351693 -0.046508826 0.046033513
0000c0 3d 14 3d bc 13 87 83 bd 96 5f 52 bd ae 35 0c 3d
       -0.01154047 -0.06422248 -0.05136069 0.03423088
0000d0 55 77 eb 3c e4 b0 16 3d 1a 92 91 3b 64 7d 99 3b
       0.028743425 0.03678979 0.0044424655 0.004684137
0000e0 7d 53 f6 3c 51 65 8c 3b 9d 56 80 bc 6c 1b 50 3c
       0.030069107 0.004284539 -0.0156663 0.01270185
0000f0 1b e5 c1 3d 5a 63 a5 bc 04 a5 e4 3b 09 53 bb 3c
       0.094675265 -0.020188976 0.006977679 0.022866743
000100 ed 49 93 3c b9 07 9c 3c 37 79 f6 bc a8 ed a9 3b
       0.017979586 0.019046651 -0.030087097 0.0051858015
000110 13 17 47 3d 56 d8 1d bc 16 18 3b bb 82 be 63 bc
       0.04860599 -0.009634098 -0.0028548292 -0.013900401
000120 79 21 31 3d e6 12 06 bd 96 5f e2 3b 50 a2 01 3c
       0.043244813 -0.032732867 0.0069083674 0.0079122335
000130 2e f6 d9 ba 0e 56 8c 3d 8a bd 96 3c 29 a9 df 3c
       -0.0016629153 0.06852351 0.018400926 0.027302342
000140 27 9c 85 bd 3e 0a ab b9 12 6c 80 3d 45 e8 94 bc
       -0.06523924 -0.00032623293 0.06270613 -0.018177161
000150 90 d7 ea 3a 1e 4f 49 3d de 9e 7a 3d 9f bf 83 3c
       0.0017917026 0.049147718 0.061186664 0.016082583
000160 2f 3b be bd 57 7a 1d 3b 53 68 8f bc 3a 12 32 bd
       -0.09288632 0.002402922 -0.0175058 -0.043474413
000170 93 49 41 3c 5a c2 aa 3c 98 68 b4 3c 5d b1 2a bd
       0.011797327 0.020844627 0.02202253 -0.041673053
000180 de cf 3f bd f7 82 25 3d 8e e2 07 3c f9 5d f9 3c
       -0.046829097 0.0404081 0.008293761 0.030440317
000190 2a 0b f6 bb 24 5e 90 bc 99 67 b0 bc 6f c6 93 3c
       -0.007508655 -0.017623015 -0.021533774 0.018038956
0001a0 fa 75 9b bc 8d 2e 7e 3a 12 09 db 3b 46 25 bd bd
       -0.018977154 0.00096962677 0.006684431 -0.09235625
0001b0 7f bf cb bc 71 60 07 3d 09 05 41 3d 79 f0 ab 3c
       -0.024871586 0.033050958 0.047123943 0.02098869
0001c0 45 f8 b2 3d ee bb 9c bc 85 14 26 3d d3 22 01 3c
       0.0873876 -0.01913258 0.040546913 0.007881838
0001d0 65 3b 9c bc bc 8f 1e bb 5f 86 72 3d eb c4 08 3d
       -0.01907129 -0.002419456 0.059210178 0.03339092
0001e0 72 4a 5f bd 00 7f e8 bb bd 53 bb bb aa 86 d2 3b
       -0.054514356 -0.0070952177 -0.0057167695 0.0064247446
0001f0 2e 9e 8a 3c 57 4c 42 3d a5 04 6d 3c 04 bb 0c bd
       0.01692113 0.047436085 0.014466439 -0.03435804
000200 10 b1 78 bd 1b 32 44 3d 01 4e 4a bc 98 59 81 bd
       -0.060715735 0.047899347 -0.012347699 -0.06315917
000210 65 0e 86 bd 53 6e f6 bc 86 03 66 bc d3 52 60 3d
       -0.06545714 -0.030081904 -0.014038926 0.054766487
000220 90 e4 9d 3b 11 3f 26 3c dd 82 1c 3c 08 90 a3 3c
       0.0048185065 0.010146872 0.009552685 0.01996614
000230 1f 6c fb 3c b0 ee c4 bc a4 3e a3 bd 31 b3 2f 3d
       0.030691205 -0.024039596 -0.07970932 0.0428955
000240 04 d5 c6 bc 91 85 7f 3d 8d b4 08 bc 21 38 1d bc
       -0.024271496 0.06238324 -0.008343828 -0.009595902
000250 33 04 3f 3d 4c c5 42 bc 2c 29 18 3d 52 24 03 3d
       0.046634864 -0.01188786 0.03714864 0.03201706
000260 7b 7f 65 bc d5 78 13 bd ea 13 f3 bc 6f 61 68 3d
       -0.0140074445 -0.036003906 -0.029672582 0.056733545
000270 91 de c3 bc a6 60 59 3d b3 f5 36 bd d7 1e 6b bd
       -0.023909839 0.053070687 -0.04466791 -0.057402458
000280 5e d0 be bc 0c 9a d8 3c f0 90 3c 3c 80 7a 8f bd
       -0.023292717 0.026440643 0.011509165 -0.07005787
000290 82 a6 79 b9 8d b6 6d bd 0b a4 ca bc 62 6d d1 3c
       -0.0002380852 -0.058035422 -0.024736425 0.025564853
0002a0 4d fe 87 3d ca 92 2b 3d bb ff 28 3d e5 fd 1d bc
       0.06640301 0.041888036 0.04125951 -0.009643053
0002b0 52 2b 28 3b 86 16 9c 3c 36 04 25 3c f8 84 6b 3c
       0.0025660587 0.019053709 0.010071805 0.014374964
0002c0 4b f4 29 3a b4 07 59 bc 2c 4e cc 3b b0 bf 04 bc
       0.0006483241 -0.0132464655 0.0062349048 -0.0081023425
0002d0 d0 68 86 bd aa 8e bd 3c d2 e3 29 bd 89 40 ac 3c
       -0.0656296 0.023139317 -0.041477032 0.021026867
0002e0 45 bb 52 3b 01 d0 9e 3c 2c 90 26 bc 9b e9 90 bb
       0.0032155078 0.019386293 -0.010166209 -0.004422379
0002f0 80 50 07 bd bf 62 d4 3b a4 3e 14 bc 64 c1 1e bd
       -0.033035755 0.006481498 -0.009048138 -0.03875865
000300 f3 10 1f bd 88 5e 84 bc 55 99 9d bc 1b 83 79 b9
       -0.038834523 -0.016158357 -0.019238153 -0.00023795331
000310 36 ae 9c bc 95 2e 32 bc 0e 2d 83 bd 7e 99 f7 3b
       -0.019126039 -0.010875364 -0.06405078 0.0075561395
000320 2a 43 30 3d ec 1f bc bc ea e6 bf bd 37 bb ea bb
       0.043032803 -0.02296444 -0.09370215 -0.007163431
000330 05 13 15 3d b0 1a a0 bc a9 1d 09 bd eb b9 31 3d
       0.03639509 -0.019543976 -0.03347555 0.043390196
000340 82 e7 1b bd 9e ce 3b bd 2a af 40 3d 36 1c 00 bd
       -0.03806258 -0.045851342 0.04704205 -0.031276904
000350 04 39 f9 ba ba a4 74 bb d9 00 d3 bc c8 83 f2 3c
       -0.0019014184 -0.003732963 -0.02575724 0.029603854
000360 3a 95 ab 3b f9 dc 1e 3d e4 eb 70 bc 90 c7 69 3d
       0.005236295 0.038784955 -0.014704678 0.057075083
000370 2b bd 7f bd ed 7c 1e bc d3 50 d2 bc 37 ee b8 bc
       -0.062436264 -0.009673339 -0.025673306 -0.022574527
000380 e6 ed 0a 3d bb 74 48 bc 68 07 31 3d 75 ca 8a 3c
       0.033918284 -0.012234862 0.043219954 0.016942242
000390 31 3f 4b bd da 65 8d bc cc fe 26 bc e6 60 a0 bb
       -0.04962081 -0.01726048 -0.010192584 -0.0048943637
0003a0 c1 8f 25 3d 53 54 9b bc 95 e7 20 bd 08 2f 0b 3c
       0.040420298 -0.018961107 -0.039283354 0.0084951
0003b0 e1 2c 54 ba e0 e5 9e bb 52 e6 15 bd 4b aa 17 3d
       -0.00080938457 -0.0048491806 -0.036596604 0.03702764
0003c0 61 5c 97 bc ba 7c 76 bb 8f d0 2b 3d e3 b4 11 3d
       -0.018476667 -0.0037610964 0.041946944 0.035572898
0003d0 d4 ab c5 bc 44 96 d7 bc 8c 4c 9a bc 1f 97 f8 bb
       -0.024129786 -0.02631677 -0.018835329 -0.0075863744
0003e0 f7 3e ec bb d6 68 b7 bc 7f 35 3b 3d a5 5f 18 3d
       -0.0072096544 -0.022388857 0.045705315 0.03720059
0003f0 b4 d7 59 bd 01 90 ad 3c 9b 85 f0 3c 5f 92 15 bd
       -0.053184226 0.02118683 0.029360583 -0.036516543

actor_mean.4.bias f4 [21]
000000 ec 3f d7 3c 70 3b b6 3b 11 77 d1 3c 7f 50 69 3c
       0.026275598 0.0055612847 0.02556947 0.014240383
000010 ff 52 2b bc 3c e0 97 3b df bf ea bc 3c 83 93 3c
       -0.0104567995 0.004634885 -0.028655944 0.018006913
000020 f2 9c 67 3c d7 cf 0e 3d e8 67 5d 3c 82 9d 22 bd
       0.01413654 0.03486618 0.013513543 -0.039700992
000030 f0 87 a7 bc cb 68 11 bc 83 f5 fd bc 34 45 1d bd
       -0.020450562 -0.008875082 -0.031000858 -0.038396075
000040 32 3b 06 3d 42 81 bb 3c 5c 32 44 bc 00 6e 2e 3d
       0.032771297 0.022888783 -0.011974897 0.042585373
000050 db 25 5e 3d
       0.05423532
