saved_agents/dm_hopper_a.pth (torch, 49224 bytes, 12 tensors)

actor_logstd f4 [1, 4]
0	0xbf3b7d7f	-0.73238367
1	0xbf3b2384	-0.7310107
2	0xbf3757b6	-0.7161821
3	0xbf306933	-0.6891052

critic.0.weight f4 [64, 17]
0	0xbeb22388	-0.34792733
1	0xbe35feaf	-0.17772935
2	0xbe48ee9a	-0.1962227
3	0xbf092fc3	-0.53588504
4	0x3e0b6065	0.1361099
5	0xbe699c21	-0.22813465
6	0xbdddc975	-0.108294405
7	0xbd3ccd19	-0.046094034
8	0xbe3d8772	-0.185087
9	0xbe1a53a2	-0.15070966
10	0xbbf999ef	-0.0076172273
11	0x3dc72815	0.09724442
12	0x3e0cdb9c	0.1375565
13	0xbd890a6f	-0.06691443
14	0x3dc82911	0.09773458
15	0x3eae6010	0.34057665
16	0xbe1006f6	-0.14065155
17	0xbe36e6a5	-0.17861421
18	0xbe3909db	-0.18070166
19	0xbde5ac5f	-0.11214518
20	0xbe1f2024	-0.15539604
21	0xbe45ce35	-0.19316943
22	0xbe5aef98	-0.2138046
23	0x3e10b6d8	0.1413225
24	0x3e837978	0.2567861
25	0x3e15a46a	0.146135
26	0x3dfa7a3b	0.12230345
27	0xbdc7c376	-0.09754078
28	0x3c425378	0.011860721
29	0xbe0fdff2	-0.14050272
30	0x3d1dc120	0.038514256
31	0x3e1de494	0.15419227
32	0x3d55fee4	0.052245036
33	0xbeec1c56	-0.4611537
34	0xbe332bfd	-0.17497249
35	0xbd05cf29	-0.032668266
36	0xbe26ee6a	-0.16301885
37	0x3cc3ad55	0.023886362
38	0x3d5db949	0.05413178
39	0xbee16fb2	-0.4403053
40	0xbde41d24	-0.11138371
41	0x3e3d570f	0.18490241
42	0x3e5b5279	0.2141818
43	0xbcd38b73	-0.02582333
44	0xbd46f018	-0.048568815
45	0xbdc33ca9	-0.095330544
46	0xbde5bded	-0.11217866
47	0x3d506a11	0.050882403
48	0xbd99b1a6	-0.07504587
49	0x3e42cc04	0.19023138
50	0xbf0f3fb4	-0.5595658
51	0x3d15b544	0.03654982
52	0x3de26838	0.110550344
53	0x3eac66ba	0.33672124
54	0x3ddf4d48	0.10903412
55	0x3c81f6d6	0.01586477
56	0x3e14d408	0.14534009
57	0xbd011755	-0.03151639
58	0x3e06ba37	0.13156973
59	0x3cc5d4bd	0.024149293
60	0x3d83e7ca	0.06440695
61	0x3cde61a3	0.027146166
62	0x3dead7a6	0.11466913
63	0x3ddec94a	0.108782366
64	0x3db752c9	0.08951337
65	0xbd8bf272	-0.06833352
66	0xbf047452	-0.5173999
67	0x3f051660	0.51987267
68	0x3e068b72	0.13139132
69	0xbd127821	-0.035759095
70	0xbe63bb13	-0.22239332
71	0xbdcb6abe	-0.09932469
72	0xbc216e2f	-0.00985293
73	0xbd36ba94	-0.04461153
74	0xbe027eaf	-0.12743638
75	0x3dc99801	0.098434456
76	0xbe0faf53	-0.14031725
77	0x3dcccc3d	0.09999893
78	0xbe139f0a	-0.14416137
79	0xbdad7d22	-0.08471133
80	0xbc3f519c	-0.011677172
81	0xbb5dd5b9	-0.0033849312
82	0x3d374fd7	0.044753876
83	0xbf3c3bd2	-0.7352878
84	0x3ea92660	0.3303709
85	0x3e526241	0.20545293
86	0xbd1d5d00	-0.03841877
87	0x3cc0c199	0.023529815
88	0xbdb053d0	-0.08609736
89	0x3e2d1c63	0.1690536
90	0xbe2d182d	-0.16903754
91	0xbcc66b2a	-0.024221022
92	0xbb43c536	-0.0029872186
93	0xbd8ee9a5	-0.06978158
94	0x3e56d433	0.20979385
95	0xbdf7a277	-0.120915346
96	0xbe283f21	-0.16430332
97	0xbddd6f00	-0.10812187
98	0xbca4367d	-0.020045513
99	0xbc92caa9	-0.017918902
100	0xbf3c3c4e	-0.7352952
101	0x3eeec1a2	0.46632105
102	0xbe380fdb	-0.17974798
103	0x3e84dcb7	0.25949642
104	0xbdfc35d6	-0.12314956
105	0x3c4ece80	0.012622476
106	0xbea84322	-0.32863718
107	0xbd229fe0	-0.03970325
108	0xbe84282f	-0.25811908
109	0xbe14d6e6	-0.14535102
110	0xbe9346b1	-0.2876487
111	0x3ea18dde	0.3155355
112	0x3e7afe18	0.24510992
113	0xbdbab3d1	-0.091163285
114	0xbe958ab2	-0.2920738
115	0x3e4deaa1	0.20109035
116	0x3b264cc6	0.002537535
117	0xbe9e245f	-0.30887124
118	0xbe0dcd77	-0.1384791
119	0x3e8013b5	0.25015035
120	0x3eac6bf2	0.33676106
121	0x3e8fd5c5	0.2809278
122	0xbe16a446	-0.14711103
123	0x3ef81230	0.48451376
124	0xbe5c35f2	-0.21504954
125	0x3bee6b89	0.007276003
126	0x3d31e6ff	0.043433186
127	0x3ddd0f34	0.107939154
128	0xbd039bbe	-0.03213095
129	0xbd2df71a	-0.042471983
130	0x3d9eb91b	0.0775015
131	0x3cfa4755	0.030551592
132	0xbdf6d652	-0.12052597
133	0xbe585534	-0.21126252
134	0xbe476c70	-0.1947496
135	0x3e970337	0.2949464
136	0xbdd47b77	-0.103751116
137	0xbe483ef1	-0.1955526
138	0xbdbf1e99	-0.09332008
139	0xbe8127a6	-0.25225562
140	0xbd010b67	-0.031505015
141	0xbedff699	-0.43742827
142	0x3c0cd658	0.008596025
143	0xbe85028c	-0.25978506
144	0xbc1cbe7a	-0.0095668975
145	0xbc46a978	-0.012125365
146	0x3d6b4e30	0.057447612
147	0x3d41c67f	0.04730844
148	0x3d336d9a	0.043805696
149	0xbcbda89e	-0.023151692
150	0x3df60d2d	0.12014232
151	0xbdb21952	-0.08696236
152	0x3eeac5d3	0.45854053
153	0x3baf5104	0.005350234
154	0xbda5f68b	-0.08103665
155	0xbe816b22	-0.25277048
156	0xbe8e06f8	-0.27739692
157	0xbe679e7b	-0.22619049
158	0xbe124cd0	-0.14287114
159	0x3d784de5	0.06062116
160	0xbddcc514	-0.10779777
161	0xbbffa1da	-0.0078012766
162	0x3e404105	0.18774803
163	0xbd95f15f	-0.073214285
164	0xbd21b7a6	-0.03948178
165	0xbd9da4f2	-0.076974764
166	0xbdbb4cc9	-0.09145505
167	0x3a98619c	0.001162577
168	0x3f3ccb26	0.7374748
169	0xbe805362	-0.25063616
170	0xbd0ad527	-0.033894684
171	0x3ec229fd	0.3792266
172	0xbe051229	-0.12995209
173	0x3c4dc532	0.012559222
174	0x3e3ae9bf	0.1825323
175	0x3df0d15e	0.117586836
176	0xbcc8aed7	-0.024497433
177	0x3d93dafb	0.072195016
178	0xbcdefb9b	-0.027219584
179	0xbe2dae46	-0.16961011
180	0x3e20459f	0.15651558
181	0x3e5e4acb	0.21708219
182	0x3dccf7ec	0.10008225
183	0x3d5c5b89	0.053798232
184	0x3d5a9e43	0.053373586
185	0xbea79930	-0.3273406
186	0x3ec151b0	0.37757635
187	0xbf10f081	-0.5661698
188	0x3d1a2dd6	0.03764137
189	0x3d3e298d	0.046426345
190	0x3d95f25c	0.07321617
191	0xbd741fa2	-0.05960048
192	0xbda76127	-0.08172827
193	0xbd1719d6	-0.036889873
194	0x3e19dde0	0.15026045
195	0x3daf821b	0.085697375
196	0x3cc24117	0.023712678
197	0x3e817398	0.25283504
198	0x3dec0976	0.11525242
199	0x3dd26397	0.102729015
200	0xbd24c91b	-0.04023085
201	0xbf134a31	-0.5753508
202	0xbd47f025	-0.048813004
203	0xbe0c956f	-0.1372888
204	0xbe85853d	-0.26078215
205	0xbd561a19	-0.052270982
206	0xbeab3807	-0.33441183
207	0xbd91f81f	-0.071274035
208	0xbd63ee40	-0.055647135
209	0xbe34727a	-0.17621794
210	0x3e6022c5	0.21888264
211	0x3ea06809	0.31329373
212	0xbd23cdac	-0.039991066
213	0x3cec30a8	0.028831795
214	0x3e052f6a	0.13006368
215	0x3e0fd2d9	0.14045276
216	0x3d434bb1	0.047679607
217	0x3cfa4342	0.03054965
218	0x3e36846b	0.17823951
219	0x3eddc10e	0.43311352
220	0x3eaa8d84	0.33311093
221	0xbdae50fc	-0.0851154
222	0x3ddba8ba	0.107255414
223	0xbe161c3e	-0.14659211
224	0x3d035bf0	0.0320701
225	0x3c218e10	0.0098605305
226	0x3e2fd1cc	0.17169875
227	0xbdb6e6ca	-0.08930738
228	0x3ea2d7a1	0.31805137
229	0x3ed785af	0.4209418
230	0xbdec5f02	-0.11541559
231	0x3c2db2a5	0.010601674
232	0x3db6c91b	0.089250766
233	0x3e78272a	0.2423369
234	0x3c074125	0.008255278
235	0xbde4eaaf	-0.11177575
236	0x3e9556c3	0.29167756
237	0xbe999e2b	-0.30003485
238	0x3dc3b938	0.09556812
239	0xbe0a8d39	-0.13530435
240	0xbe9a0105	-0.30078903
241	0xbd35f72d	-0.04442518
242	0xbcbf5648	-0.023356572
243	0xbdba9817	-0.0911104
244	0x3d91952f	0.07108533
245	0x3ddc59e9	0.107593365
246	0xbde2a58f	-0.11066734
247	0xbe692b1c	-0.22770351
248	0x3e3658ae	0.17807266
249	0x3e0a6644	0.13515574
250	0x3d9a56c2	0.07536079
251	0x3c9cb643	0.019129878
252	0x3b87c57f	0.0041434164
253	0xbefca981	-0.4934807
254	0x3f24afb0	0.6433058
255	0x3c4ea549	0.012612649

critic.0.bias f4 [64]
0	0x3e5efdd7	0.2177652
1	0xbde6ad2a	-0.11263497
2	0xbd9585d3	-0.073009156
3	0xbc5b7f21	-0.013397009
4	0xbc7a5351	-0.015278653
5	0xbca9d088	-0.020729318
6	0xbe0730a4	-0.13202149
7	0x3d9944ec	0.07483849
8	0x3e72b762	0.23702767
9	0x3dec2201	0.11529923
10	0x3dc6d551	0.097086556
11	0x3e0d387a	0.13791075
12	0x3ea133ea	0.3148492
13	0x3d826a3c	0.06367919
14	0x3af4f686	0.0018689192
15	0x3ce6f3f8	0.028192505
16	0x3e9d71d2	0.307509
17	0xbebd5dab	-0.36985525
18	0x3deed002	0.11660768
19	0x3e9405f3	0.2891079
20	0xbe5b1337	-0.21394049
21	0x3dee2d93	0.11629786
22	0x3c903a34	0.017605878
23	0x3ede36fd	0.43401328
24	0xbc272989	-0.010202774
25	0xbdbb3555	-0.09141032
26	0xbead7217	-0.33876106
27	0xbe1767e0	-0.14785719
28	0xbe2eb017	-0.1705936
29	0x3ea5f819	0.32415846
30	0x3e5ffc85	0.21873672
31	0xbd9a328f	-0.075291745
32	0xbe36388c	-0.17795008
33	0x3e7b5308	0.24543393
34	0xbe7c7aa9	-0.24656166
35	0xbe7e219a	-0.24817505
36	0xbe7189f7	-0.23587786
37	0xbde0eeb7	-0.10983031
38	0x3d8953b9	0.06705422
39	0xbe647ebe	-0.22313973
40	0xbc18e266	-0.009331321
41	0xbcd9d3d2	-0.026590262
42	0x3d4a6d28	0.049420506
43	0x3dab9124	0.08377293
44	0xbe51d8a8	-0.20492804
45	0xbcd063c4	-0.025438197
46	0x3d638c54	0.05555375
47	0xbe504eae	-0.20342514
48	0x3e3bf8f8	0.18356693
49	0xbd981a71	-0.07426918
50	0xbda0761e	-0.07835029
51	0xbc9fd7a9	-0.019512014
52	0x3dc36f39	0.095426984
53	0xbd1fac1c	-0.038982496
54	0xbc005501	-0.0078327665
55	0x3cf5c3af	0.030000536
56	0xbdb3cdb0	-0.08779466
57	0xbe40a8a8	-0.18814337
58	0x3e39dfa8	0.18151724
59	0xbe8bb15e	-0.27283758
60	0x39868e54	0.00025664514
61	0x3e2e7ceb	0.1703984
62	0x3de0629a	0.10956307
63	0xbee4fbea	-0.44723445

critic.2.weight f4 [64, 64]
0	0x3d35e06b	0.044403475
1	0x3ee751cb	0.4517959
2	0x3e246282	0.16053203
3	0xbe992ced	-0.29917088
4	0xbf11786b	-0.5682437
5	0xbe66a256	-0.22522864
6	0x3be5f6d9	0.007017952
7	0x3e656a51	0.22403838
8	0xbcbb8b68	-0.022893623
9	0x3f08f9b0	0.5350599
10	0xbe4f526e	-0.20246288
11	0x3d7b7257	0.06138834
12	0x3d4db15c	0.05021797
13	0x3e4b4696	0.19851145
14	0xbe2293c5	-0.15876682
15	0xbf01a03a	-0.5063511
16	0x3e280541	0.16408254
17	0xbed93d30	-0.42429495
18	0x3e6b6663	0.22988276
19	0x3d2b6885	0.041847724
20	0xbd25238e	-0.04031711
21	0x3d73057b	0.0593314
22	0xbf248367	-0.64263004
23	0xbe8903e4	-0.2676078
24	0x3ea974b0	0.33096838
25	0xbe80dbe0	-0.2516775
26	0xbebe852c	-0.37210977
27	0xbdd41cd3	-0.1035706
28	0x3e399da8	0.18126547
29	0xbdd978c7	-0.106187396
30	0x3db5c8e9	0.08876211
31	0x3e03d681	0.12874795
32	0x3d2eff68	0.042724043
33	0xbe51d592	-0.20491627
34	0xbe29af7c	-0.16570848
35	0xbe8ad466	-0.27115172
36	0xbe40a724	-0.18813759
37	0xbf132221	-0.5747395
38	0x3e695d32	0.22789457
39	0xbdebc4d2	-0.1151215
40	0x3e0cf10c	0.13763827
41	0xbcf71528	-0.030161455
42	0x3dd308df	0.103044264
43	0xbdca08e7	-0.09864979
44	0x3c1ee92a	0.009699145
45	0xbe8acefd	-0.27111045
46	0xbd486d6c	-0.048932478
47	0xbd6ad8f6	-0.057335816
48	0x3e0fcdef	0.14043401
49	0x3b3388bf	0.002739474
50	0xbdcf398d	-0.10118399
51	0x3f176c99	0.5915008
52	0x3d11e2a1	0.03561652
53	0xbedd2b43	-0.4319707
54	0x3e9cd028	0.3062756
55	0xbe27d981	-0.16391565
56	0xbdd339cb	-0.103137575
57	0xbe90e839	-0.28302172
58	0x3e8007ff	0.250061
59	0x3e6e5088	0.23272908
60	0x3eb7e13e	0.35914034
61	0xbda45e48	-0.08025795
62	0x3ea14600	0.31498718
63	0x3dad536d	0.08463178
64	0x3e1a71e0	0.15082502
65	0xbcf35e2d	-0.029707992
66	0x3d8e157d	0.06937692
67	0xbd4fb19f	-0.050706502
68	0x3d890119	0.066896625
69	0x3e64975d	0.22323366
70	0x3e46008b	0.19336145
71	0x3bffbff1	0.0078048636
72	0x3d4dae06	0.05021479
73	0x3e8779fd	0.26460257
74	0x3d27daa4	0.040979996
75	0xbdfd93ee	-0.12381731
76	0x3f1c948e	0.61164176
77	0xbe227f84	-0.15868956
78	0x3e454475	0.19264396
79	0x3d7e1c44	0.062038675
80	0x3ddc1bcd	0.1074749
81	0xbe8494f5	-0.25894895
82	0x3dc9c8c4	0.09852746
83	0x3f0bcea3	0.5461218
84	0xbef06ea8	-0.46959424
85	0xbe329de6	-0.17443046
86	0x3d93bcf4	0.07213774
87	0x3e23946b	0.15974586
88	0xbdcdc2bd	-0.10046909
89	0x3cf59fe2	0.029983465
90	0xbdc99667	-0.0984314
91	0xbe019f63	-0.12658457
92	0xbe8f0728	-0.27935147
93	0x3e2af470	0.16694808
94	0xbd8d3cc5	-0.068963565
95	0xbf0b0cf7	-0.5431666
96	0x3e332c55	0.1749738
97	0xbd925004	-0.07144168
98	0xbe5e5a6a	-0.21714178
99	0xbebf8fdb	-0.3741444
100	0xbe43e5d0	-0.19130635
101	0x3da25496	0.0792629
102	0x3ee37c68	0.44430852
103	0xbeca786a	-0.39544994
104	0x3e3e77e1	0.18600418
105	0x3e9bfa3f	0.3046436
106	0x3d74b2e8	0.05974093
107	0x3ed9c845	0.42535606
108	0xbeb66f67	-0.35631868
109	0xbe0cb7e9	-0.13742031
110	0xbd9cf327	-0.07663565
111	0xbe21540c	-0.15754718
112	0x3d04981b	0.03237162
113	0xbd48d0ef	-0.04902738
114	0x3d3007bf	0.042976137
115	0xbedf148a	-0.43570358
116	0x3d88613a	0.066591695
117	0xbca3e5b5	-0.020006994
118	0xbda9c87f	-0.08290195
119	0xbdb95ea6	-0.09051256
120	0x3d345a6a	0.044031538
121	0x3ed5e390	0.4177518
122	0xbe2fbaf3	-0.17161159
123	0xbe6535bf	-0.22383784
124	0xbe985050	-0.29748774
125	0x3ecd509b	0.4010056
126	0xbe74f3a9	-0.23921074
127	0xbead31d7	-0.33827087
128	0x3dca773c	0.098860234
129	0x3df40e42	0.11916782
130	0xbdb16cad	-0.086633064
131	0x3e9f615b	0.31128964
132	0x3e75d2fd	0.24006267
133	0x3ea22eb1	0.31676248
134	0x3e77258a	0.24135414
135	0x3e9c68fa	0.3054884
136	0x3db02cea	0.08602317
137	0x3d9fb932	0.07798995
138	0x3de03fea	0.10949691
139	0x3e330c4b	0.17485158
140	0xbe245b15	-0.1605037
141	0xbe715abd	-0.2356977
142	0x3c626215	0.01381733
143	0x3e6fb882	0.23410228
144	0xbd60fc48	-0.054928094
145	0xbd841222	-0.06448771
146	0x3e954eb1	0.291616
147	0xbe98b689	-0.29826763
148	0xbe607f6a	-0.21923605
149	0x3db909cc	0.09035072
150	0x3eafac9f	0.34311387
151	0x3dd78373	0.10523119
152	0xbf0a06ba	-0.53916514
153	0xbe257e6e	-0.1616151
154	0xbb92470b	-0.0044640354
155	0xbe3e263b	-0.18569271
156	0x3cd46512	0.0259271
157	0x3d5cdcd5	0.05392154
158	0x3b0d5045	0.0021562737
159	0xbede11a4	-0.43372834
160	0x3c84dde6	0.01621909
161	0xbd28d139	-0.041215155
162	0xbb5e85b3	-0.0033954203
163	0x3eafc18d	0.34327355
164	0x3d8cc764	0.06873968
165	0x3ebc5aed	0.3678812
166	0xbe1d0197	-0.15332638
167	0xbe85a5e6	-0.26103133
168	0xbd6dca7b	-0.05805443
169	0xbdb27275	-0.08713237
170	0x3e8c9957	0.2746074
171	0x3e1ac856	0.15115485
172	0xbe9b94d1	-0.30386975
173	0x3de5703f	0.1120305
174	0x3e5c6c1f	0.2152562
175	0x3e5ca458	0.21547067
176	0xbc9aef85	-0.01891304
177	0xbed42a81	-0.41438678
178	0xbddcf6b4	-0.107892424
179	0xbe83b9e5	-0.25727764
180	0xbed21019	-0.41027907
181	0x3f2b85de	0.6700114
182	0xbe1fb4e7	-0.15596353
183	0x3e311838	0.17294395
184	0x3e1d625a	0.1536955
185	0x3d8cdd89	0.06878192
186	0xbcf6354d	-0.030054713
187	0x3e6ee2df	0.23328732
188	0xbf475f92	-0.77880204
189	0xbd7b5989	-0.061364684
190	0xbe128f8d	-0.14312573
191	0x3d9f763a	0.07786222
192	0xbda9770b	-0.08274659
193	0x3e8dfe0d	0.27732888
194	0x3e95a84e	0.2922997
195	0xbe056d31	-0.13029934
196	0x3dddad29	0.10824043
197	0x3d8c2047	0.06842094
198	0x3e104433	0.14088516
199	0x3e7a6c3d	0.24455352
200	0xbc612c72	-0.013743507
201	0xbde3dc33	-0.11125984
202	0xbe84e1a6	-0.25953406
203	0xbea1069d	-0.31450358
204	0x3de3f6d3	0.11131062
205	0x3e52e83f	0.20596407
206	0xbce5baf6	-0.028043251
207	0x3e2f681e	0.17129561
208	0x3b499763	0.00307604
209	0xbe5834c1	-0.21113874
210	0xbd474f86	-0.048659824
211	0xbc2a3a0f	-0.010389819
212	0xbdf206b6	-0.11817686
213	0xbd5c3da5	-0.053769726
214	0xbf103bec	-0.56341434
215	0xbdc68e11	-0.09695066
216	0x3eac07e2	0.33599764
217	0xbe4d855f	-0.20070408
218	0x3e294a90	0.1653235
219	0x3b0d3d4a	0.0021551424
220	0x3e927291	0.28603032
221	0x3c643089	0.013927587
222	0x3e24dcf1	0.16099907
223	0x3da0149d	0.07816432
224	0xbe362f9e	-0.17791602
225	0xbe206bfa	-0.1566619
226	0x3ea60e1a	0.32432634
227	0x3e87fc17	0.26559517
228	0x3f2f150b	0.68391484
229	0xbe8c86a0	-0.2744646
230	0xbce0a5cd	-0.02742281
231	0x3df22e74	0.118252665
232	0xbe5fbc7a	-0.21849242
233	0xbc23d351	-0.009999112
234	0x3dac9050	0.08425963
235	0xbdeeceb8	-0.11660522
236	0x3df5de79	0.12005324
237	0xbe2903a3	-0.16505294
238	0x3e13c42b	0.14430301
239	0xbd764fa9	-0.060134564
240	0xbd9211c2	-0.07132293
241	0x3e6ad67d	0.22933383
242	0x3d9a4898	0.075333774
243	0x3e86f2f0	0.26357222
244	0x3d5cd49f	0.05391371
245	0xbea4733e	-0.32119173
246	0xbdae804f	-0.08520567
247	0x3e0f3cd0	0.13988042
248	0xbc0233bf	-0.007946908
249	0x3e821d1b	0.2541283
250	0x3d72cf36	0.059279643
251	0x3d77f243	0.060533773
252	0x3e23c537	0.159932
253	0x3e592420	0.21205187
254	0xbe567d32	-0.20946196
255	0x3e162674	0.14663106

critic.2.bias f4 [64]
0	0xbc48a849	-0.012247154
1	0x3e4f66b4	0.20254022
2	0x3d80b36d	0.06284223
3	0xbe2e2bc7	-0.17008887
4	0x3d2d7e3a	0.042356707
5	0xbe558c8e	-0.20854399
6	0xbc38ec50	-0.01128681
7	0x3e58b179	0.2116145
8	0xbc02ada7	-0.007975972
9	0x3e03d04d	0.12872429
10	0x3dfa8cf8	0.12233919
11	0xbe32a328	-0.17445052
12	0x3e695201	0.22785188
13	0xbe1c2747	-0.15249358
14	0xbe33aadb	-0.17545645
15	0x3e29eba3	0.16593795
16	0xbe604dc7	-0.2190467
17	0x3e328541	0.17433645
18	0x3deae734	0.1146988
19	0x3dbd1136	0.09231798
20	0x3e40ac99	0.18815841
21	0xbdc125a8	-0.094310105
22	0x3e2a6e42	0.16643623
23	0xbe1d59f4	-0.15366346
24	0x3df1f31c	0.118139476
25	0xbe06d303	-0.13166432
26	0x3da0d5c9	0.07853276
27	0x3e60cd18	0.21953237
28	0xbdb18dae	-0.086696014
29	0xbe51ffaf	-0.20507692
30	0x3e11fb03	0.1425591
31	0xbe3230f3	-0.17401485
32	0xbe2f3bac	-0.17112607
33	0xbd0479eb	-0.032342833
34	0xbe07bffd	-0.13256831
35	0xbdd69582	-0.10477735
36	0xbe7365be	-0.2376928
37	0xbe23aace	-0.15983126
38	0xbe4b6e0f	-0.19866203
39	0xbe899be6	-0.26876754
40	0xbdbc3a74	-0.091908365
41	0xbe71eff0	-0.23626685
42	0x3d2701a6	0.040773056
43	0x3df023f4	0.117256075
44	0xbe2565be	-0.16152093
45	0x3e03b0f7	0.12860475
46	0x3e3c347c	0.18379396
47	0x3e41f654	0.18941623
48	0x3e2acb28	0.1667906
49	0x3e254a91	0.16141726
50	0x3e0cce52	0.1375058
51	0xbe25205d	-0.16125627
52	0x3e947bde	0.29000753
53	0x3e4ca5b7	0.1998509
54	0xbd5e554a	-0.054280557
55	0x3e6a095c	0.22855133
56	0xbe0a573b	-0.13509838
57	0xbe63cb20	-0.22245455
58	0x3dcfaca4	0.101403505
59	0xbe514c75	-0.20439322
60	0xbd5032bc	-0.050829634
61	0xbe425407	-0.18977366
62	0x3cda22f5	0.026627997
63	0x3e040bd6	0.1289514

critic.4.weight f4 [1, 64]
0	0xbf80843b	-1.0040354
1	0x3f365d4f	0.7123613
2	0x3f60fa3f	0.87881845
3	0xbf4d0d2f	-0.8009824
4	0x3f8860ed	1.0654579
5	0xbf5e6123	-0.8686697
6	0x3f7db6a9	0.9910684
7	0x3f31c926	0.69447553
8	0x3f7bd32a	0.98369086
9	0x3f3935ab	0.72347516
10	0x3f65b0b8	0.89722776
11	0xbf461168	-0.7737031
12	0x3f4edb8e	0.80803764
13	0xbf4e56c6	-0.80601156
14	0xbf53554c	-0.8255203
15	0x3f328ce6	0.69746244
16	0xbf3aa46b	-0.7290713
17	0x3f496d6f	0.7868261
18	0x3f514b11	0.8175517
19	0x3f69283c	0.9107702
20	0x3f426366	0.7593292
21	0xbf7091ea	-0.9397265
22	0x3f5f0168	0.8711152
23	0xbf569a4f	-0.83829206
24	0x3f4e2ea0	0.80539894
25	0xbf98d406	-1.1939704
26	0x3f86512e	1.0493524
27	0x3f6059b3	0.8763687
28	0xbf86a764	-1.0519834
29	0xbf479938	-0.7796817
30	0x3f4f9433	0.8108551
31	0xbf562193	-0.8364498
32	0xbf672ae8	-0.90299845
33	0xbf5a6a1a	-0.8531815
34	0xbf487aa5	-0.7831214
35	0xbf702ab4	-0.9381516
36	0xbf3412bb	-0.7034108
37	0xbf585276	-0.84500825
38	0xbf4a879d	-0.7911318
39	0xbf38119b	-0.71901864
40	0xbf56caea	-0.8390337
41	0xbf2eec98	-0.68329763
42	0x3f842044	1.0322347
43	0x3f520fc5	0.8205531
44	0xbf3b019b	-0.73049325
45	0x3f463b25	0.77434
46	0x3f33c581	0.7022324
47	0x3f2a63a7	0.6655831
48	0x3f571259	0.8401237
49	0x3f86e092	1.0537283
50	0x3f403ca9	0.7509256
51	0xbf4f8de4	-0.8107588
52	0x3f37cb53	0.71794623
53	0x3f2bbc29	0.67083985
54	0xbf90e65b	-1.1320299
55	0x3f4c619c	0.7983644
56	0xbf3437be	-0.70397556
57	0xbf4026bd	-0.7505911
58	0x3f3cf2b1	0.7380782
59	0xbf30a3e2	-0.69000065
60	0xbf925d30	-1.1434689
61	0xbf32cc98	-0.69843435
62	0x3f540c84	0.828316
63	0x3f80249e	1.0011175

actor_mean.0.weight f4 [64, 17]
0	0xbd456d1d	-0.04819976
1	0xbe553ba5	-0.20823534
2	0xbea75f57	-0.32689926
3	0x3e0b46c8	0.1360122
4	0xbe2297df	-0.15878247
5	0xbe61595b	-0.22006743
6	0x3e9033ca	0.28164512
7	0xbedb2b77	-0.428066
8	0x3d9352df	0.07193541
9	0xbeb54300	-0.3540268
10	0x3d06771f	0.032828446
11	0x3e139ec2	0.1441603
12	0x3da3d0de	0.07998823
13	0xbebd592d	-0.36982098
14	0x3aa61120	0.0012669899
15	0xbdd3e5e5	-0.10346583
16	0xbd589da2	-0.052884705
17	0xbd7cd64b	-0.061727803
18	0x3dbe0024	0.092773706
19	0x3d89bd09	0.06725509
20	0xbe7bef5e	-0.2460303
21	0x3e8929c8	0.2678969
22	0xbd7295af	-0.05922478
23	0xbaf85d2e	-0.0018948668
24	0xbe35b59e	-0.17745063
25	0x3e9da9c1	0.30793574
26	0xbdb1ea48	-0.08687264
27	0xbea1d054	-0.31604254
28	0xbe49e679	-0.19716825
29	0x3ead5a58	0.3385799
30	0x3e2b0680	0.16701698
31	0xbdc70631	-0.09717978
32	0xbe79cd54	-0.24394733
33	0x3de335d7	0.110942535
34	0xbed062f0	-0.40700483
35	0x3e52aca0	0.20573664
36	0xbec9fbd0	-0.3944993
37	0xbe131158	-0.14362085
38	0x3e081f36	0.13293156
39	0xbd2c7536	-0.04210397
40	0x3de37675	0.11106578
41	0x3f05f0dd	0.52320653
42	0x3e104230	0.14087749
43	0x3e7ec543	0.24879937
44	0xbe8ce759	-0.27520254
45	0x3e2827c5	0.16421421
46	0x39917f5d	0.00027751448
47	0x3dea6700	0.11445427
48	0x3dc5787d	0.09642122
49	0xbda59fa4	-0.0808709
50	0xbd6d9cf6	-0.058011018
51	0xbe6398ae	-0.22226211
52	0xbe7d84ba	-0.24757662
53	0x3e56d151	0.20978285
54	0xbe6bf5ed	-0.23043032
55	0xbd0c0789	-0.034186874
56	0xbd96a988	-0.07356554
57	0x3eb472bb	0.35243782
58	0xbe488705	-0.19582756
59	0xbea22d15	-0.3167502
60	0xbe87f3b8	-0.2655313
61	0x3d2cb91a	0.042168714
62	0xbe58d7c0	-0.21176052
63	0x3da4df5c	0.08050415
64	0xbe6d8ac4	-0.23197466
65	0x3e70b303	0.23505788
66	0xbe6143ab	-0.2199847
67	0x3d3418b2	0.043968864
68	0xbe141898	-0.14462507
69	0xbdb01dad	-0.0859941
70	0xbb7d9705	-0.003869475
71	0xbd4f304c	-0.05058317
72	0xbdc11282	-0.09427358
73	0x3cf741d2	0.030182753
74	0xbc576755	-0.013147195
75	0xbf1c8da0	-0.611536
76	0xbda327f0	-0.07966602
77	0xbde7d69d	-0.11320231
78	0xbea73289	-0.32655743
79	0x3dc1b79e	0.0945885
80	0x3e9b6137	0.30347607
81	0x3bf90dd7	0.007600527
82	0xbcc245c2	-0.023714904
83	0x3e58184b	0.21103017
84	0xbd8edddf	-0.06975912
85	0x3c4bfea9	0.012450852
86	0xbe0cfdfe	-0.13768765
87	0x3e058da1	0.13042308
88	0x3d823041	0.0635686
89	0xbd9b0f86	-0.0757132
90	0x3ddd73e9	0.10813124
91	0xbe395819	-0.18100013
92	0x3d9675ee	0.07346712
93	0x3dff1df5	0.12456886
94	0xbb380699	-0.0028080104
95	0x3d8eb11a	0.06967373
96	0x3f0064fa	0.5015408
97	0xbeb0e46a	-0.34549266
98	0x3e0bb734	0.13644105
99	0x3eb7539e	0.35805982
100	0x3df9385f	0.12168955
101	0xbe3db0c9	-0.1852447
102	0x3df793f8	0.1208877
103	0x3ee9f7c6	0.4569685
104	0x3e948cc7	0.29013655
105	0x3d9d014e	0.076662645
106	0xbd859fa4	-0.0652459
107	0xbe50d940	-0.20395374
108	0x3e9fdeae	0.3122458
109	0xbe0e483a	-0.1389474
110	0xbc017053	-0.007900315
111	0xbddd67a9	-0.10810787
112	0x3dce1726	0.10063009
113	0xbe5f0908	-0.21780789
114	0x3d68069a	0.05664692
115	0xbe0e98d9	-0.13925494
116	0x3e149596	0.14510188
117	0x3e87685b	0.26446804
118	0xbe300c04	-0.17192084
119	0xbcd779ee	-0.026303258
120	0x3c432894	0.01191153
121	0xbe429129	-0.19000687
122	0xbe512fdf	-0.20428418
123	0xbdfd93e7	-0.12381726
124	0x3d85083b	0.064957105
125	0xbdf00299	-0.117192455
126	0x3bc1988d	0.005908078
127	0x3ee541ba	0.44776708
128	0xbe8ced55	-0.2752482
129	0x3e828a26	0.25496024
130	0xbe60013b	-0.2187547
131	0xbe77ac1f	-0.24186753
132	0x3ea1d123	0.3160487
133	0xbd7d5027	-0.061844017
134	0xbe114e1f	-0.14189957
135	0x3d45dee1	0.048308257
136	0xbe8062b6	-0.2507531
137	0xbe1f70dd	-0.15570398
138	0xbeeb61ae	-0.4597296
139	0x3dc9e917	0.098589115
140	0xbe2b9096	-0.16754374
141	0x3e195616	0.14974245
142	0x3d8b909b	0.06814691
143	0x3b6afb93	0.0035855516
144	0xbe4dad66	-0.20085678
145	0x3d7e18fb	0.062035542
146	0x3ebc02ee	0.36720985
147	0x3e85501f	0.2603769
148	0xbd29f67e	-0.04149484
149	0x3def1e91	0.11675752
150	0xbe15e785	-0.14639099
151	0xbdc74764	-0.097304136
152	0x3e00e846	0.12588605
153	0xbe2a1771	-0.16610505
154	0x3e02f904	0.12790304
155	0xbee2d5ad	-0.44303647
156	0xbe901039	-0.28137377
157	0x3eaff681	0.34367755
158	0xbe113c41	-0.14183141
159	0x3d3f8a71	0.046762887
160	0x3bdeb0ac	0.0067959633
161	0xbe6c6661	-0.2308593
162	0xbcde45d2	-0.027132902
163	0xbd0094b3	-0.03139181
164	0xbe26128c	-0.16218013
165	0x3ca1a2d6	0.019730967
166	0xbe5975e0	-0.21236372
167	0xbd43c6a3	-0.047796857
168	0x3de76d21	0.113001116
169	0x3d19820d	0.03747754
170	0xbe443d88	-0.19164097
171	0xbe5f94a8	-0.21834052
172	0x3f076227	0.52884144
173	0xbe3bdf70	-0.18346953
174	0xbe4266d7	-0.18984543
175	0xbd08ebac	-0.03342788
176	0x3d979c03	0.07402804
177	0x3e1298f3	0.14316158
178	0xbd8be70e	-0.068311796
179	0xbdef5f28	-0.116880715
180	0x3e16c1c5	0.14722355
181	0x3e5c7227	0.2152792
182	0x3e9e940d	0.3097233
183	0xbe7092a5	-0.2349344
184	0xbd67da24	-0.05660452
185	0x3eb77e2e	0.35838455
186	0xbdc3bab0	-0.09557092
187	0x3e058729	0.13039841
188	0xbca1d8ca	-0.019756693
189	0x3dad0e56	0.0845
190	0x3d608a3f	0.05481934
191	0xbdb4515e	-0.08804582
192	0x3d5a471c	0.05329047
193	0x3dfd9d9c	0.12383577
194	0x3e55a1c8	0.20862496
195	0x3d5b39a1	0.053521756
196	0x3e23ae0b	0.15984361
197	0xbe87e25a	-0.2653988
198	0x3f00258f	0.5005731
199	0xbe344d75	-0.17607673
200	0x3d4e7ea0	0.050413728
201	0x3db96fbb	0.09054514
202	0xbcdcb0c5	-0.026939759
203	0xbce5c915	-0.028049985
204	0x3e9d8d83	0.30772027
205	0xbd98f687	-0.07468896
206	0xbe8e1888	-0.2775309
207	0x3b942afe	0.0045217266
208	0x3e361f1e	0.17785308
209	0x3e6f54cb	0.2337219
210	0x3e43088d	0.1904623
211	0xbdd90658	-0.10596913
212	0x3d7138f3	0.0588922
213	0x3e709c01	0.23497011
214	0xbe6e58aa	-0.2327601
215	0xbe250cd2	-0.16118172
216	0xbd8d57f7	-0.069015436
217	0x3e7322fd	0.23743816
218	0x3e012f99	0.12615813
219	0xbed7f541	-0.421793
220	0xbed1d288	-0.40980935
221	0xbbcf4c23	-0.006326215
222	0xbd3522aa	-0.04422251
223	0xbda48d37	-0.08034747
224	0x3e6274b4	0.22114831
225	0xbdfeeede	-0.12447904
226	0xbe216083	-0.15759473
227	0xbd86309e	-0.06552242
228	0x3ed94926	0.4243862
229	0xbd835a73	-0.06413736
230	0x3e177f12	0.14794567
231	0xbd4a6592	-0.04941327
232	0x3c8c2b2f	0.017110435
233	0xbb03750c	-0.002005878
234	0x3eea1515	0.4571921
235	0xbe3acce3	-0.1824222
236	0x3e9eeaf0	0.31038618
237	0x39e607d1	0.00043874842
238	0x3e98630a	0.2976306
239	0x3da6ad57	0.08138531
240	0x3d561f80	0.052276134
241	0xbd901579	-0.070353456
242	0x3d4a5bed	0.049404074
243	0x3dd240a6	0.10266237
244	0xbba74b1b	-0.005105389
245	0x3e7110e6	0.23541602
246	0xbed77325	-0.42080036
247	0xbe8abff8	-0.27099586
248	0x3e1e5612	0.1546252
249	0x3d08c096	0.03338679
250	0xbdeeca12	-0.116596356
251	0x3df0a808	0.117507994
252	0xbe88b57c	-0.26700962
253	0x3ca689fe	0.020329472
254	0x3da6f236	0.08151667
255	0xbd98de2f	-0.07464253

actor_mean.0.bias f4 [64]
0	0xbb1bbb40	-0.0023762733
1	0xbcb1d8e8	-0.021709874
2	0x3de69594	0.112589985
3	0xbb8495c4	-0.0040461738
4	0xbcb0313a	-0.021507848
5	0xbc8dc897	-0.017307563
6	0xbd1cc975	-0.038278062
7	0xbcbd602e	-0.023117151
8	0x3da43abe	0.08019017
9	0x3ce24d0f	0.027624635
10	0x3ccb75c7	0.024836434
11	0x3dc2018a	0.0947295
12	0x3c6e8b03	0.01455951
13	0x3d6a8b99	0.057262037
14	0xbd3f2cbd	-0.046673525
15	0xbd3c5763	-0.045981776
16	0xbdd125ca	-0.10212286
17	0x3c498dd9	0.0123018855
18	0x3d543008	0.05180362
19	0xbd158107	-0.036500003
20	0xbd3759db	-0.044763427
21	0xbd863af0	-0.0655421
22	0xbb1eebc0	-0.0024249405
23	0x3d98cf0c	0.07461366
24	0xbbf15015	-0.007364283
25	0x3d83aa00	0.06428909
26	0xbd9189fc	-0.071063966
27	0xbd469361	-0.048480395
28	0xbd6a26ec	-0.057166025
29	0x3be48cc9	0.0069747907
30	0x3c195b4f	0.009360149
31	0xbc78bcb5	-0.01518171
32	0x3d91711a	0.071016505
33	0xbd582697	-0.052771177
34	0x3bcb146e	0.006197504
35	0xbc387fed	-0.011260969
36	0x3da0793e	0.07835625
37	0xbdc452ed	-0.09586129
38	0xbabb0c35	-0.0014270606
39	0x3e32f67d	0.1747684
40	0xbc466287	-0.012108452
41	0x3b961f15	0.004581342
42	0x3ce241a3	0.027619189
43	0x3ac43881	0.0014970453
44	0x3d932905	0.07185558
45	0x3e31a8e1	0.17349578
46	0x3d1a08bf	0.037605997
47	0xbd59095e	-0.05298745
48	0xbd345335	-0.044024665
49	0x3cdfbf92	0.027313028
50	0x3cd238c9	0.025661843
51	0x3da2c4ea	0.079477146
52	0xbdfeb88d	-0.12437544
53	0xbdd3feb7	-0.103513174
54	0xbcf14021	-0.029449524
55	0x3cab04f6	0.020876389
56	0xbd2596ca	-0.040427007
57	0xbcaf776c	-0.02141925
58	0x3d71c87b	0.059029084
59	0xbb8fb2e8	-0.004385341
60	0xbd93196b	-0.071825825
61	0x3be8f331	0.007109069
62	0x3d88d75c	0.066817015
63	0x3dd7eeb9	0.105435796

actor_mean.2.weight f4 [64, 64]
0	0x3d8227b5	0.0635523
1	0xbe416be3	-0.18888812
2	0x3e228afc	0.15873331
3	0xbcc45875	-0.02396796
4	0xbdf42011	-0.11920179
5	0xbbd381a5	-0.006454664
6	0x3c9784cb	0.018495938
7	0x3e478015	0.19482453
8	0x3d871ece	0.065976724
9	0xbcdb413c	-0.026764505
10	0x3d30a9f9	0.04313085
11	0x3f0b8c08	0.54510546
12	0xbe04c850	-0.12967038
13	0x3d36eb9e	0.044658296
14	0x3ed6a4b1	0.41922525
15	0xbd8f3c88	-0.06993967
16	0xbe1cb812	-0.15304592
17	0xbe54d67a	-0.20784941
18	0xbe2b5791	-0.16732623
19	0xbe534358	-0.20631158
20	0xbd31a4c9	-0.043370042
21	0x3d939f6e	0.07208143
22	0x3e23deb4	0.16002923
23	0xbe0ce9a8	-0.13761008
24	0x3d420787	0.04737046
25	0xbe6276c1	-0.22115614
26	0x3bbd7eae	0.0057829237
27	0x3d5d4e5a	0.0540298
28	0xbe5f9bf2	-0.21836832
29	0x3d564052	0.052307434
30	0xbdab8f35	-0.08376924
31	0xbd3229e7	-0.043496992
32	0x3ea67edd	0.32518664
33	0x3e6c8373	0.23097019
34	0x3e2e0efe	0.16997907
35	0x3e514b5d	0.20438905
36	0xbd27a894	-0.040932253
37	0xbddead25	-0.108728684
38	0xbe275eda	-0.16344777
39	0xbe87b316	-0.2650382
40	0x3e4364e8	0.19081461
41	0xbd778dac	-0.060437843
42	0xbd26c7a1	-0.040717725
43	0x3e82692d	0.25470868
44	0xbe9092dc	-0.28237045
45	0xbeeb5161	-0.45960525
46	0x3de39580	0.11112499
47	0xbdad2230	-0.084537864
48	0x3e67a3ba	0.2262105
49	0xbe337f80	-0.17529106
50	0x3e7cff9e	0.24706885
51	0x3c164260	0.0091710985
52	0xbead0938	-0.33796096
53	0xbe3cf646	-0.18453321
54	0x3eb35239	0.35023668
55	0x3dee6a0a	0.11641319
56	0x3c3ffd73	0.011718142
57	0xbd5e42d3	-0.054262947
58	0x3e050588	0.12990391
59	0x3d8b12f4	0.067907244
60	0x3dd1d444	0.102455646
61	0xbb3f5902	-0.002919734
62	0x3ec77d44	0.38962758
63	0x3e0d0525	0.13771494
64	0x3da5bd24	0.08092716
65	0x3e165261	0.14679863
66	0xbe88453d	-0.26615325
67	0x3df16bbc	0.11788127
68	0xbed79f66	-0.421138
69	0x3da8de9e	0.08245586
70	0x3e2a4045	0.1662608
71	0x3ec52186	0.3850214
72	0xbe2b1bf8	-0.16709888
73	0xbea7d492	-0.32779366
74	0xbe20a6aa	-0.15688577
75	0x3b625dc5	0.0034540754
76	0xbe64da05	-0.22348793
77	0xbe4b6b8a	-0.19865242
78	0xbe44c597	-0.19216
79	0x3bc85c2b	0.006114503
80	0xbe41d1b1	-0.18927647
81	0x3df8eb6e	0.1215428
82	0xbd9e91e2	-0.07742669
83	0x3dc98f47	0.09841781
84	0xbc90a1bb	-0.017655244
85	0xbe2c783f	-0.16842745
86	0xbe507f3d	-0.20361038
87	0x3d528612	0.05139739
88	0x3d2e0dd7	0.042493667
89	0xbebcb8b1	-0.36859658
90	0xbe859ffc	-0.2609862
91	0x3e9b1975	0.3029286
92	0x3c4f111d	0.0126383575
93	0x3e207f82	0.1567364
94	0x3dc19d64	0.09453848
95	0x3db99e46	0.090633914
96	0xbd9db295	-0.077000774
97	0x3e90e914	0.28302824
98	0x3e6a338f	0.2287123
99	0x3e71fe36	0.2363213
100	0xbef8aa39	-0.4856737
101	0x3d822403	0.06354525
102	0x3dac723c	0.08420226
103	0xbec94802	-0.3931275
104	0xbdb9f3a8	-0.09079677
105	0x3cc6d6e6	0.024272393
106	0xbe9591f4	-0.29212916
107	0xbe2836c8	-0.16427147
108	0xbd50a4eb	-0.050938528
109	0x3d33432a	0.043765225
110	0x3ea74a7c	0.32674015
111	0xbe6fe283	-0.23426251
112	0xbc213f94	-0.009841818
113	0x3ba3a652	0.004994192
114	0xbd1f0b36	-0.03882905
115	0x3c080453	0.008301812
116	0xbb6b75a3	-0.0035928271
117	0x3eda92ff	0.42690274
118	0x3e1c958c	0.15291423
119	0xbea55c7a	-0.32297117
120	0x3e24cc16	0.16093478
121	0x3e5fcb82	0.21854976
122	0xbe2d6f4c	-0.16936988
123	0x3d203e93	0.039122175
124	0xbd353a1a	-0.044244863
125	0xbe0c0bad	-0.13676329
126	0x3de712b8	0.11282867
127	0xbd90476f	-0.07044875
128	0xbdff1cf2	-0.12456693
129	0x3e6cde0e	0.23131582
130	0x3dbdeb5d	0.092734076
131	0x3e45aa7c	0.19303316
132	0xbd741c57	-0.05959734
133	0x3e4897a6	0.195891
134	0xbdf322d3	-0.118718766
135	0xbc42a43c	-0.011879977
136	0x3cdae38d	0.026719833
137	0xbd4a6efa	-0.04942224
138	0x3e51c4c4	0.20485216
139	0xbced55e7	-0.028971625
140	0xbe4a0cf0	-0.19731498
141	0x3dbfe806	0.09370427
142	0x3de84f9c	0.11343309
143	0xbe4b5d65	-0.19859846
144	0x3e395726	0.1809965
145	0x3e5530d5	0.20819409
146	0xbd9a51b7	-0.07535117
147	0x3e4efd57	0.20213829
148	0x3eb9df16	0.36303014
149	0x3d44d662	0.048056014
150	0x3dbb54db	0.09147044
151	0x3f041561	0.5159512
152	0xbe782cc3	-0.24235825
153	0xbd56dde9	-0.052457724
154	0x3e389613	0.18025999
155	0xbd985bc6	-0.074393794
156	0xbe037bde	-0.1284022
157	0xbcb08da1	-0.021551909
158	0xbdb4e445	-0.088326015
159	0x3ea0b973	0.31391487
160	0x3e7673c2	0.24067596
161	0x3e3783b1	0.1792133
162	0x3e2a4d25	0.16630991
163	0xbe46c997	-0.19412838
164	0x3e840b26	0.25789756
165	0x3dbd1390	0.09232247
166	0x3e287625	0.16451319
167	0x3ec7f2d1	0.39052442
168	0x3dfe7827	0.12425261
169	0x3e921998	0.2853515
170	0x3e2e3d30	0.17015529
171	0xbe88dae8	-0.26729512
172	0x3e21facd	0.15818329
173	0xbe0a0475	-0.13478263
174	0xbe100d8f	-0.14067672
175	0xbe3cfb9a	-0.18455353
176	0xbe087d24	-0.13328987
177	0x3eb64abb	0.3560389
178	0xbe56198e	-0.20908186
179	0x3e575a70	0.21030593
180	0xbcf337f2	-0.029689763
181	0xbeb28ab7	-0.34871456
182	0x3cd180be	0.025574084
183	0xbe280560	-0.164083
184	0x3dcaa9c4	0.098956615
185	0x3d888b1d	0.06667159
186	0x3e9dd2aa	0.30824786
187	0x3d9a228d	0.07526121
188	0xbdb9f786	-0.090804145
189	0x3ec30203	0.38087472
190	0x3e14905e	0.14508197
191	0x3da34c36	0.079735205
192	0x3d273dfc	0.040830597
193	0xbe1cf707	-0.15328608
194	0x3e593a90	0.21213746
195	0xbe889017	-0.26672432
196	0xbc0ad8cd	-0.008474541
197	0x3e06429d	0.13111348
198	0xbbe016e2	-0.0068386653
199	0x3c4205b9	0.011842185
200	0x3d14e88b	0.036354583
201	0x3e15291f	0.14566468
202	0x3d8517d8	0.064986885
203	0x3e9b8670	0.30376005
204	0x3cb3a297	0.021928115
205	0x3dbf9a2a	0.09355576
206	0x3de20aae	0.11037193
207	0xbc4d2ce8	-0.0125229135
208	0xbe12bba9	-0.14329399
209	0x3b784d84	0.0037888
210	0xbee03e97	-0.43797752
211	0xbe9c0c80	-0.30478287
212	0xbddc48c0	-0.107560635
213	0x3e362fa5	0.17791612
214	0xbe4fb800	-0.20285034
215	0x3d806fe0	0.062713385
216	0xbce89d7f	-0.028395412
217	0xbe185958	-0.14877832
218	0xbe88cf3d	-0.2672061
219	0xbca06f46	-0.01958431
220	0x3c86eee1	0.016471328
221	0xbeca50f1	-0.39514878
222	0xbda7c2c7	-0.08191448
223	0x3ed02fac	0.4066137
224	0x3dbfb97e	0.09361552
225	0xbece0d9b	-0.40244755
226	0xbe3b34f5	-0.1828192
227	0xbe98f05c	-0.2987088
228	0xbc016967	-0.007898665
229	0xbe7c32fa	-0.24628821
230	0x3ede9c99	0.4347885
231	0x3c4b8965	0.012422894
232	0xbe8706f7	-0.263725
233	0x3ea0e284	0.31422818
234	0x3d009315	0.03139027
235	0x3d20690b	0.039162677
236	0x3e3f62ba	0.18690005
237	0x3c2f6a16	0.010706445
238	0x3de8fd57	0.11376446
239	0xbeff284e	-0.49835438
240	0xbd5c7f82	-0.05383254
241	0xbd9156d2	-0.07096638
242	0xbb85cc10	-0.004083164
243	0xbee5f5e2	-0.44914156
244	0xbd0d5a09	-0.034509692
245	0xbd5973cd	-0.05308895
246	0xbd8d53ac	-0.06900725
247	0xbdb565a8	-0.0885728
248	0x3d496366	0.04916706
249	0x3e400603	0.18752293
250	0x3e0856bb	0.13314335
251	0x3e3f061b	0.18654673
252	0x3d441700	0.047873497
253	0xbd8fdc95	-0.070244946
254	0x3d5edf6f	0.0544123
255	0xbdebe5ba	-0.11518426

actor_mean.2.bias f4 [64]
0	0x3d1b61b0	0.03793496
1	0xbd9b821d	-0.075931765
2	0x3d261589	0.04054788
3	0x3d0550a9	0.032547627
4	0x3c9d26a1	0.019183459
5	0x3d359191	0.044328276
6	0x3d7d7e2d	0.06188791
7	0x3d4ded17	0.050274935
8	0xbbef60c9	-0.007305239
9	0x3d0cc60f	0.03436857
10	0xbc71f3ab	-0.014767568
11	0x3d4d3c88	0.050106555
12	0xbc21b762	-0.009870382
13	0xbd4f846a	-0.05066339
14	0x3be7ba99	0.0070718047
15	0x3c61ef2f	0.013789936
16	0xbb3c49d3	-0.0028730526
17	0x3d8e9c55	0.06963412
18	0x3d17a886	0.03702595
19	0x3c68bca5	0.014205133
20	0xbc3d4093	-0.01155104
21	0x3cf489a9	0.029850798
22	0xbc88b265	-0.016686628
23	0xbc827c85	-0.015928516
24	0x3b333481	0.0027344527
25	0x3c93b5ac	0.018030964
26	0x3d6e282b	0.058143776
27	0x3cfaf3d6	0.030633848
28	0xbd86a180	-0.065737724
29	0x3d1fde54	0.039030388
30	0x3d4327a5	0.04764523
31	0x3d2237b9	0.039603923
32	0xbcd03497	-0.025415702
33	0x3d300c55	0.04298051
34	0xbd6028c3	-0.054726373
35	0x3d86e956	0.06587474
36	0xbcd9b43b	-0.026575198
37	0x3cd8ff1a	0.02648883
38	0x3d8f8afc	0.07008931
39	0xbc9072e2	-0.017632905
40	0x3d2c4cc3	0.042065393
41	0xbc0d2480	-0.008614659
42	0x3da74668	0.08167726
43	0xbb58f461	-0.0033104646
44	0xbd127caa	-0.03576342
45	0x3cad18b2	0.02112994
46	0x3cf71d5d	0.030165369
47	0x3cf1a5de	0.029498037
48	0xbdd11460	-0.10208964
49	0x3a90f90a	0.0011060548
50	0x3aa79787	0.0012786248
51	0xbc87ca4b	-0.016575953
52	0xbcb82b71	-0.022481652
53	0x3c50bf50	0.012740925
54	0xbda4af5e	-0.08041261
55	0xbca00107	-0.01953174
56	0xbca64121	-0.020294728
57	0x3944dcf0	0.00018774322
58	0xbc8e4408	-0.017366424
59	0xbd2da550	-0.042393982
60	0xbce7eb9a	-0.028310586
61	0x3c64e805	0.013971333
62	0x3ba593db	0.005053026
63	0x3b845615	0.004038582

actor_mean.4.weight f4 [4, 64]
0	0xbd30e30e	-0.043185286
1	0x3d6d3eee	0.057921343
2	0xbd32623a	-0.043550707
3	0x3d80b6a9	0.0628484
4	0xbc40004e	-0.011718823
5	0x3d0179ec	0.031610414
6	0xbdb7b81c	-0.08970663
7	0xbd06aa22	-0.032877095
8	0x3c0f57a0	0.008748919
9	0xbd2fbb9e	-0.042903535
10	0xbd197a51	-0.037470166
11	0x3dc3ea85	0.095662154
12	0x3c38d59f	0.0112814
13	0x3dca6d44	0.09884122
14	0xbd2e7605	-0.04259302
15	0xbd49989d	-0.04921781
16	0x3d3fb04b	0.046798985
17	0xbd2f9a08	-0.042871505
18	0x3d3c8f47	0.046035077
19	0x3d9bbcca	0.07604368
20	0xbd01b8fc	-0.031670555
21	0xbd7ccd67	-0.061719324
22	0xbc60f0b9	-0.013729268
23	0xbc8f1858	-0.017467663
24	0x3d806e3b	0.06271025
25	0x3b865f73	0.004100734
26	0xbc547b32	-0.012968825
27	0xbd7443c2	-0.05963493
28	0x3d058b2e	0.032603435
29	0x3d5b2b21	0.053507928
30	0xbd53a128	-0.051667362
31	0x3d5e5361	0.054278735
32	0x3cee7237	0.029107196
33	0x3c972c69	0.018453794
34	0x3cd526f0	0.026019543
35	0x3c5b7663	0.013394925
36	0x3d57adb5	0.052655894
37	0x3cb13d1d	0.021635586
38	0xbbcdb244	-0.0062773544
39	0x3cd1f264	0.025628276
40	0xbd37668b	-0.044775527
41	0xbcd319bc	-0.025769107
42	0xbdaaea48	-0.08345467
43	0x3d3f12fe	0.04664897
44	0xbcc6032c	-0.024171434
45	0xbc2808b9	-0.010255986
46	0xbcf9639d	-0.030443007
47	0x3d5daff6	0.054122888
48	0x3c2005f8	0.009767048
49	0xbb35912a	-0.0027704933
50	0x3c8db83f	0.01729977
51	0x3bc36765	0.0059632533
52	0xbb830924	-0.0039988924
53	0x3c7ded62	0.015498491
54	0x3d7bb102	0.061448105
55	0xbc8db80c	-0.017299674
56	0xbc393c4c	-0.01130588
57	0xbd8011bc	-0.062533826
58	0xbcc9795b	-0.024594
59	0x3d14da08	0.036340743
60	0xbce4e9cf	-0.02794352
61	0x3cedcf52	0.029029522
62	0x3c923a2a	0.01785
63	0x3d6ec1f1	0.058290426
64	0xbbc06147	-0.0058709714
65	0xbc08a6be	-0.008340536
66	0x3d0b67b5	0.03403445
67	0xbd3e6878	-0.046486348
68	0xbd835d12	-0.06414236
69	0xbb9eecf1	-0.004850023
70	0xbcd5ec90	-0.026113778
71	0xbd59f0af	-0.05320805
72	0xbb9450b9	-0.0045262245
73	0xbd9757a8	-0.07389766
74	0x3cb41d73	0.021986699
75	0xbcfa8319	-0.03058009
76	0xbc97ffc2	-0.018554572
77	0x3c94ed2d	0.0181795
78	0x3d1eb3f1	0.038745824
79	0x3c39f4b9	0.01134985
80	0xbce06b1c	-0.027394824
81	0x3b037dad	0.0020063922
82	0xbd099330	-0.033587635
83	0x3bd7cacc	0.0065854546
84	0xbd9b2534	-0.07575455
85	0x3bac9152	0.005266347
86	0x3c6292b5	0.013828923
87	0xbbfc5ca0	-0.0077014714
88	0x3cec041a	0.02881055
89	0xbd7b176a	-0.061301626
90	0xbd8d1aeb	-0.068899
91	0xbcbf0873	-0.023319459
92	0xbc42cb57	-0.0118893
93	0xbccb0067	-0.024780465
94	0x3cd3e7cf	0.02586737
95	0x3d03b99a	0.032159425
96	0x3d26da8a	0.04073576
97	0x3cf3b3a6	0.029748749
98	0xbc2c4098	-0.010513447
99	0xbc066f10	-0.00820519
100	0x3cb338d9	0.021877693
101	0x3d58902a	0.05287186
102	0xbbab5d58	-0.0052296333
103	0x3d1e9396	0.038714968
104	0xbd85c2f5	-0.06531326
105	0x3c96e3ea	0.018419225
106	0x3cbfacd2	0.023397837
107	0xbbd614d5	-0.006533245
108	0xbd546444	-0.051853433
109	0x3ce633b3	0.028100824
110	0xbcd89f46	-0.026443135
111	0xbd217c4b	-0.039425176
112	0xbd6537f5	-0.055961568
113	0x3c9cbbc5	0.019132504
114	0x3da02e8b	0.07821377
115	0xbcb87730	-0.02251777
116	0x3946cdf2	0.00018959472
117	0xbd1ac5e5	-0.037786383
118	0x3d55639c	0.052096948
119	0xbd81fd37	-0.06347125
120	0xbcf7b15f	-0.030235944
121	0x3b0408df	0.002014689
122	0xbc891ca5	-0.016737292
123	0x3c8ba27d	0.017045254
124	0xbd88c185	-0.06677536
125	0xbb836d3b	-0.004010824
126	0xbd65018c	-0.05590968
127	0xbc222da8	-0.009898581
128	0x3c334c79	0.0109435255
129	0x3b8daca7	0.0043235603
130	0x3cd6cb1e	0.0262199
131	0xbc08a511	-0.008340136
132	0x3c51a758	0.0127962455
133	0x39a89963	0.0003215774
134	0x3b646884	0.0034852335
135	0x3d37328c	0.04472594
136	0x3da71d3a	0.081598714
137	0xbc00c177	-0.007858626
138	0xbd46d19a	-0.048539735
139	0xbcc85e96	-0.024459165
140	0x3cf77a60	0.03020972
141	0xbba4b894	-0.0050268862
142	0x3c38c3bf	0.011277138
143	0x3b07550f	0.0020650064
144	0xbd45c12e	-0.048279934
145	0xbd0d7b2e	-0.0345413
146	0xbd19eb56	-0.03757795
147	0x3bc0b202	0.005880595
148	0x3cc10394	0.023561276
149	0xbdd266e0	-0.10273528
150	0xbc248181	-0.010040642
151	0x3b0b3021	0.0021238404
152	0xbc6a3573	-0.01429497
153	0xbb3d87fe	-0.002892017
154	0x3d1274d2	0.03575594
155	0xbd03a669	-0.032141123
156	0x3d34608d	0.04403739
157	0x3a8404cc	0.001007223
158	0xbb98810e	-0.0046540564
159	0x3d7e2ef6	0.062056504
160	0x3d1e3c6c	0.03863184
161	0xbd5601b5	-0.05224772
162	0x3c7c5d42	0.015403094
163	0x3c55329e	0.013012556
164	0xbd20b871	-0.039238397
165	0xbaef8597	-0.0018274066
166	0xbd1f6a37	-0.038919654
167	0xbd736e1e	-0.059431188
168	0xbd016cdd	-0.03159796
169	0xbc6867e2	-0.014184924
170	0xbcb626db	-0.022235325
171	0xbc062d7d	-0.008189556
172	0x3cb01e76	0.0214989
173	0xbd2dd54a	-0.042439736
174	0x3cb153cc	0.021646403
175	0xbb4e1a46	-0.0031448766
176	0xbd20e52e	-0.039281063
177	0x3d880e31	0.06643332
178	0xbcec7a83	-0.028867012
179	0x3d130d57	0.035901394
180	0xbcbca74b	-0.02302899
181	0x3a1dd354	0.0006020565
182	0xbb55f159	-0.0032645075
183	0xbd8cb780	-0.06870937
184	0xbcb2a3a2	-0.021806542
185	0xbcf6e8b4	-0.030140258
186	0xbc250a51	-0.01007326
187	0x3d74e14a	0.059785165
188	0x3c7ad311	0.015309111
189	0x3d5ca270	0.05386585
190	0xbd245ad8	-0.040125698
191	0x3bcdf4d6	0.0062852902
192	0xbd2f2e0c	-0.042768523
193	0x3da9ac97	0.08284872
194	0xbcdc8679	-0.02691959
195	0xbcb34127	-0.021881653
196	0xbd2c7467	-0.042103197
197	0xbd219211	-0.03944594
198	0xbb288ad3	-0.0025717511
199	0xbba59d30	-0.0050541386
200	0xbcb08735	-0.021548847
201	0x3d3910d7	0.045182075
202	0x3d2f4db0	0.042798698
203	0xbcd43a4a	-0.0259067
204	0x3d30bc5f	0.043148395
205	0x3ced3c20	0.028959334
206	0x3c7d9857	0.015478215
207	0xbcbdd371	-0.023172112
208	0x3d0bfb40	0.034175158
209	0xbde74fe0	-0.11294532
210	0x3d8591e3	0.06521966
211	0x3c5a0601	0.0133070955
212	0x3d7ff7cd	0.06249218
213	0x3ccfa788	0.02534844
214	0x3d30335a	0.043017723
215	0xbc102c83	-0.008799675
216	0xbc39f657	-0.011350236
217	0x3d85238a	0.06500919
218	0xbc29621f	-0.010338335
219	0xbb8091a0	-0.00392361
220	0xbc920c64	-0.017828174
221	0xbd022aa0	-0.03177893
222	0xbcc3632f	-0.023851005
223	0xbd7d585f	-0.061851855
224	0xbd2a065d	-0.041509975
225	0xbb7dfdf8	-0.0038756113
226	0xbd97e9ae	-0.07417618
227	0x3a822da5	0.0009931816
228	0x3d383384	0.044971004
229	0xbc51cbf9	-0.0128049785
230	0x39b8e540	0.0003526602
231	0x3ccdcacd	0.025121117
232	0x3d717e60	0.05895841
233	0x3d0d335d	0.034472812
234	0x3c6be954	0.0143988915
235	0xbd8253c4	-0.06363633
236	0xbd8bcf87	-0.06826692
237	0xbd02d91a	-0.031945325
238	0xbc45021b	-0.012024428
239	0x3d433986	0.04766228
240	0xbd470883	-0.0485921
241	0x3c85b7a5	0.01632292
242	0x3d9b367f	0.07578754
243	0xbbe4a9b4	-0.006978238
244	0x3d81241f	0.06305718
245	0xbd988dd5	-0.07448927
246	0xbd5fb7a8	-0.054618508
247	0x3d16160f	0.03664213
248	0x3d5f3e1e	0.0545026
249	0xbc746ffb	-0.014919276
250	0x3bf96cf5	0.0076118656
251	0xbc4a61af	-0.012352391
252	0xbcd40455	-0.025880972
253	0xbd7094f6	-0.05873581
254	0x3cae920f	0.02130988
255	0x3d127276	0.03575369

actor_mean.4.bias f4 [4]
0	0xbc9297a5	-0.017894575
1	0xbcacfeed	-0.021117652
2	0x3bebe5ee	0.0071990406
3	0xbc277a04	-0.010221962
