saved_agents/dm_hopper_b.pth (torch, 608346 bytes, 30 tensors)

actor_logstd f4 [1, 4]
00000000: 32c9 dfbf 8699 dabf 7a97 d9bf 2826 dcbf
-1.7483275 -1.7078102 -1.6999352 -1.7199144

critic.0.weight f4 [64, 17]
00000000: 05cb bf3e 8af1 283e 94ba 773d d22e 3a3e
00000010: 7a1c 50be b7f2 2a3d f9b8 babc 615f f0be
00000020: fdb5 9c3d cbec 943d 19ac d9bd 4e98 abbd
00000030: d485 67bb 382d 12bc 7992 80bd 2413 3dbf
00000040: 9d22 7abe ad48 883d bbc0 19be 3a53 54be
00000050: b05c 083f 63de 67ba c7d4 a7bd 73e0 00be
00000060: d084 1e3d db78 84be 2e62 2d3e 680b 81be
00000070: 1008 0bbe 944a 5cbe ef1a 56bc e8b5 b5be
00000080: aefa c9be 7bae 50be e317 86be ff5c bc3b
00000090: ca81 273e 4f4f e53c ce8f 093c adf7 e33e
000000a0: 439e 92bd a2b5 b73b 658d cfbe 8968 bcbe
000000b0: 266f 443e 7ba0 e13d 94ec 803e 353c 223e
000000c0: 1bbb 56bd 3c59 413e a2cb cc3e a90b d8be
000000d0: de59 02be 268c 2d3e 8889 a5be 4584 14bd
000000e0: 1a3d 893e 4d36 92be 031a 843c bfaf a83e
000000f0: 931b a8be be08 c2bc 31aa ad3c bb79 6c3c
00000100: 1232 863d 9f3f c33c 05b7 013f 8585 cabc
00000110: b014 913e c516 643d 090d 263e daf3 2b3e
00000120: 0d8f 31be 51d3 0d3f 766f 8abd afcf a6bb
00000130: 89c7 b2bc fdcc 523e 0e76 1d3d 751e 8d3e
00000140: 071c afbd 9ecc 1c3e 2558 163e 5498 8f3e
00000150: 686b e0bd bd2e 66be d0df cb3c f204 7dbd
00000160: 9631 2bbd 80f7 b93e 27aa c53e a092 633e
00000170: d85f 8f3e 00b0 b73b 2490 2cbe dbb8 0cbe
00000180: ba7f 87be dbb7 7c3d ed3e abbd 242f 05be
00000190: af91 323e 48d8 073f 7b7e 2cbe 0434 c33d
000001a0: 6dc8 113e ffea 063f d490 473d 9f20 8cbe
000001b0: 691a 11bd 5bd4 0d3e 61ca c23d d4d7 b6bd
000001c0: 4ea2 5fbe 99c1 113d 4a35 3dbd 5a46 61be
000001d0: 0d0a 323e 7dff 2ebe d8e4 8e3e 972b 4ebc
000001e0: 96de 933d 4851 283c 15e0 7ebe 71b5 cb3d
000001f0: b008 a6be 7d9c 42bc 108e d33d b500 753d
00000200: 2044 5bbe ef2f f8bd 0f00 f3bd 6a00 adbb
00000210: 3805 433d e8d4 e13b d1cb 043f 6f52 97bc
00000220: f079 463e 3e80 d33d db83 6cbe 7a4e 5f3d
00000230: 719c 1dbe eaea bd3e 2bdd 503e 8a4d 303e
00000240: 8a06 10bc 9996 9c3c b5c2 47be 2768 0cbe
00000250: 1534 233e 8fd4 8cbe b4b2 6bbe ccae 01bc
00000260: 3c02 bbbe a68f 0d3e 0136 1b3d 6d6e 2fbe
00000270: 34c4 443f 8a79 37bd 1427 6cbe 8f40 233e
00000280: 6305 b73d a2a2 043e ac02 2ebd cb27 42bc
00000290: 575b 9b3d d13d ec3c 236a ef3d 5fbc 0cbc
000002a0: cf8a dfbe 5603 533e ef19 a13e cf96 4b3c
000002b0: d7a3 703d 0840 123d 26b7 b4bd ffa9 98be
000002c0: beca 39bf ec08 b73d 63cd d63d 6bcc 9e3e
000002d0: 27bd 623c 4c8f b7bd 8d92 9fbd ec04 893d
000002e0: a033 1dbd 4a3f 1dbf 1963 8dbe 0fee 89be
000002f0: 765e 433c 5695 463e 0bb2 0fbe 0162 353e
00000300: 7d41 d53e 3415 59bd 8a8c 2d3e 3190 a8bd
00000310: 7eb7 a5be 6bbe 1bbc c01a 39be 7209 6f3d
00000320: 93ea 1f3e 7fb7 18be 00cb d63e 3e9d cc3d
00000330: 8f39 04be 056d 3ebd 905e 153e 4008 7e3e
00000340: 5c3a d73d ed24 6ebe fb85 4e3e 1de6 35be
00000350: b14a a73e e796 bcbd 57ad 2dbd ac76 14be
00000360: 727b b1bb fe84 023b 8923 81be 58e0 543d
00000370: 11a2 163f 572b 8dbe 317a 903e ed59 07bd
00000380: a956 473e cba8 80bd 6756 b4bb f323 0b3e
00000390: 01c2 963e 831c da3e 6ac0 f4bd c117 a63e
000003a0: ddd2 c63d 64a3 66be 0763 483e 9470 fcbd
000003b0: 29de b6bd 0a18 9c3d 98aa 233f 8db7 243e
000003c0: 0e00 79be 5f07 883e 3784 10bf f276 af3c
000003d0: d339 48be a917 3fbe 401a 1bbe dbd1 503e
000003e0: 1514 3ebe 6614 a8bd d0c9 163c c21c 9e3d
000003f0: 72dd 7c3d 20e3 32bf 2bc7 c8be 3606 3abd
0.3745958 0.1649839 0.06048067 0.18181923 -0.20323363 0.041735377 -0.02279328 -0.46947768
0.07651899 0.07271727 -0.10628528 -0.08378659 -0.003532757 -0.008921914 -0.062779374 -0.7385733
-0.24427266 0.06654487 -0.15014927 -0.20734873 0.5326643 -0.0008845089 -0.08194881 -0.1258562
0.03870088 -0.25873455 0.16931984 -0.25204015 -0.13577294 -0.21512824 -0.013067945 -0.35490346
-0.39449066 -0.20379059 -0.261901 0.0057483907 0.16358104 0.027991919 0.008396102 0.445249
-0.07159092 0.005606369 -0.40537563 -0.36798504 0.19183025 0.11016937 0.25180495 0.1584328
-0.05242453 0.18881696 0.3999911 -0.42196396 -0.12729594 0.16947994 -0.3233149 -0.036258955
0.2680443 -0.28557053 0.016125685 0.32946584 -0.32833537 -0.02368581 0.021199318 0.01443332
0.06552519 0.023834048 0.5066989 -0.02472187 0.28336096 0.055685777 0.1621591 0.1679224
-0.17339726 0.5540057 -0.06759541 -0.005090676 -0.021823661 0.2058601 0.038442664 0.275623
-0.08550268 0.1531243 0.14682062 0.28045905 -0.10957986 -0.22478767 0.024886996 -0.061772294
-0.041795336 0.3632164 0.38606378 0.22223902 0.2800281 0.0056056976 -0.1685186 -0.13742392
-0.26464635 0.061698776 -0.083616115 -0.13006264 0.17438386 0.53064394 -0.16845123 0.095314056
0.14236613 0.52702326 0.048722103 -0.27368638 -0.035425577 0.13850538 0.09511257 -0.08927885
-0.21839258 0.03558502 -0.0461934 -0.21999493 0.17386647 -0.17089649 0.2790897 -0.012583635
0.07220189 0.010273285 -0.24890168 0.099467166 -0.32428503 -0.01187813 0.10329831 0.059815127
-0.21412706 -0.121185176 -0.118652456 -0.0052795904 0.0476124 0.0068918355 0.518735 -0.018471925
0.19382453 0.10327195 -0.23097174 0.0545182 -0.15391709 0.37093288 0.20396869 0.17217079
-0.0087906215 0.01911478 -0.19507869 -0.13711606 0.15937836 -0.2750592 -0.23017389 -0.00791521
-0.36525142 0.13824329 0.0378933 -0.17131968 0.7686188 -0.044793643 -0.23061782 0.15942596
0.08936574 0.12952664 -0.042483017 -0.011850308 0.07585781 0.02883807 0.11690166 -0.008589833
-0.4366059 0.20606741 0.31465098 0.012426092 0.05875 0.035705596 -0.08823995 -0.29817197
-0.72574985 0.089372486 0.10488393 0.31015334 0.013839043 -0.089628786 -0.07791624 0.06690392
-0.03837931 -0.61424696 -0.27614668 -0.26939437 0.011924377 0.19392905 -0.14032762 0.17713167
0.41651526 -0.052998737 0.16948143 -0.08230627 -0.32366556 -0.009505848 -0.1807661 0.058358617
0.15616827 -0.14913748 0.41951752 0.09990929 -0.12912582 -0.046490688 0.14586854 0.24807835
0.10509178 -0.23256274 0.20168297 -0.17763563 0.32674173 -0.0920847 -0.042401638 -0.14498395
-0.005416327 0.0019915695 -0.25222424 0.051971763 0.58841044 -0.27572128 0.28218225 -0.033044744
0.19466652 -0.06282195 -0.005503464 0.13587932 0.29444888 0.42599878 -0.119507626 0.32439998
0.09708188 -0.22523266 0.19569026 -0.1232616 -0.089290924 0.076217726 0.6393218 0.16085644
-0.24316427 0.26568124 -0.56451744 0.021419022 -0.19553308 -0.1866137 -0.15146732 0.20392554
-0.18562348 -0.08207016 0.009203389 0.07720329 0.061734624 -0.69877815 -0.39214453 -0.04541608

critic.0.bias f4 [64]
00000000: 67f9 87be eb06 42be 35f5 413e fb20 763e
00000010: f55a 4fbd 01ff 5e3e 78ca e83d 16af 213e
00000020: 17ce b3bd c391 73be f076 81be f591 213e
00000030: 5140 0a3e 903f af3c 6531 e3be 4221 18be
00000040: 1f74 c43d 3473 473e 10df 223e 5511 1e3e
00000050: 3f72 a03d 1866 87be 8b3d 0c3e 37ee 943e
00000060: af9d 773e 7dd8 04be f350 a5bd d061 80be
00000070: d059 8cbd 1336 103e f73b 91bb a5a9 f0bd
00000080: 58cd 433e 6a28 34be 2392 863e 0d19 0dbe
00000090: 9bfa 423e a03b 80be f17e d6bd 05c3 7fbe
000000a0: 75a0 813e 97a1 5d3e 20cd 78be 1dd3 42be
000000b0: c3f3 723e abc9 9d3c 4b9a a5bd b3cd 03be
000000c0: 3c05 813e abda 2b3e 607d 133d 90a7 4dbe
000000d0: b2a4 10bc b78a d83d 00fc b5be 16f7 8d3b
000000e0: e862 55be 1716 41be 1aac 8c3e 1bb9 22be
000000f0: c94c 2dbd f0d7 52be c4d3 a4bd b561 673e
-0.26557466 -0.18947951 0.18941195 0.24036019 -0.050623853 0.21776964 0.11366743 0.15789446
-0.08779543 -0.23786072 -0.25286055 0.15778334 0.13501097 0.021392614 -0.44373623 -0.14856437
0.09592461 0.1947754 0.15905404 0.15436299 0.07834291 -0.2644508 0.13695352 0.29087994
0.24181245 -0.12973209 -0.080720805 -0.25074625 -0.06853068 0.14083128 -0.004432197 -0.11751107
0.19121301 -0.17593542 0.26283368 -0.13779087 0.19040911 -0.2504549 -0.10473431 -0.24976738
0.25317731 0.21643673 -0.24296999 -0.19025846 0.237258 0.019261202 -0.0808607 -0.12871437
0.25199306 0.16782634 0.03600824 -0.20083451 -0.008828329 0.10573333 -0.35543823 0.0043324335
-0.20838511 -0.18856083 0.27475053 -0.15890925 -0.042309556 -0.20590186 -0.080482036 0.22595866

critic.2.weight f4 [64, 64]
00000000: fa27 513e fcbe bf3c a5aa cbbd a2ad febd
00000010: 0391 3d3e b3b8 61bc a58b 6cbe a769 16be
00000020: b67f 8b3e de0c 123d 435d 013f 17e6 373d
00000030: bc9f f13d 9c0c 25bd dc0e a03d 1938 a13e
00000040: 35d3 26be b5c9 a0bd ca9f 8b3d f38a acbe
00000050: f3fd b6bd 8f79 e03d 046c 563e ee86 a9be
00000060: a2d2 38be 269b 683e 1fb2 0b3e 466f 503c
00000070: 21c7 433e 22f7 343b 0fc1 1f3e 7921 d1bc
00000080: 7967 b7be c0bf a03e 72d7 5bbe 59ab 033e
00000090: 9c1a c9bd 815b 633d 2bae d03e 47f2 783e
000000a0: 8f1f 54bd 55a7 433d 5a61 da3d d3de 8e3e
000000b0: 1c55 b5be 677e dfbd d436 8f3e a638 e43d
000000c0: 55de 68be c16f 76bd 613a de3c 5071 003e
000000d0: 780f 823c 87ef 9b3e c6c2 e23d c56d 6c3e
000000e0: 581e c33e 3218 5d3e 8ef1 bcbe 682e a6bd
000000f0: 1b9b e63d bd29 123f 22ea a53e 04bc 0fbf
00000100: d9d3 1d3e f99e 8a3d c6d0 36bd 9d1d 10be
00000110: 2f23 1b3e 5312 8fbe b93a b5bc 2774 bc3e
00000120: f087 90bd 418e c43e fd70 373d c011 d63d
00000130: a797 adbe e092 773d 0f01 3e3e aa39 b83e
00000140: 5fa3 27be 29ac acbd e927 b2be 1ae6 a8bc
00000150: f101 b93d 0377 f03d caae 36be f16b 17bd
00000160: 7a06 b4be 1f80 7a3e feda 7e3c b69c f33e
00000170: 5e26 953e 703e afbd e430 633e b746 adbd
00000180: 2b68 85be 715f cb3e 6113 abbd 3383 253e
00000190: 3018 3abe 4096 083d a73b 003e 9b98 f03c
000001a0: 84d9 11bf a08b 28bf a208 4e3d 165e 2a3e
000001b0: 2ed1 46be a60c 9d3d ee12 543e 7410 b43e
000001c0: d854 a7bd 26f2 2d3d 65a1 773e 3298 983e
000001d0: 6a70 403c 1218 833d 44d9 9a3d d8a0 f33d
000001e0: a9b7 9a3e d368 403e 54b6 a5be 18bd 71bd
000001f0: 0ed8 08be ed81 e03e e88a 223d acd9 253e
00000200: fbb1 8abe bc2a 86be 4e95 e6bd 48be 513e
00000210: ce97 a2bd eafb 4e3e bd4a f73d f5ae 5d3e
00000220: bd45 b3be d6cf 4abe 2a07 04bf 9fa5 c0bb
00000230: d925 943e 3f05 5a3e 554c a2bd 338a 8dbe
00000240: b3d0 3b3e 18fe f6bb ffb6 693e 6654 8dbd
00000250: 7e8a 7fbd a485 96bd 8d32 a6bd 22cf db3d
00000260: 9530 363c cbe4 43be 41a8 b63c 63d5 373e
00000270: 2042 eebe 98e7 c63e 366e 2c3e 74cd 8fbe
00000280: a599 bd3d d151 8bbe d5bf bb3e 10f8 cf3a
00000290: c38b 55be ab28 7dbd 40a8 4a3d f060 8cbe
000002a0: fce9 a9bd 50f1 ee3e c845 34be f416 e53d
000002b0: 2205 b7bc 18ce 87bd 7aea 143e e9de 0cbe
000002c0: c2d9 673e 30f8 c33d 2776 bd3c 5a6f 08bf
000002d0: 3982 82be 03b9 b23e ba69 0ebe 069c bcbc
000002e0: d6e2 80bd 1f62 a7bd c721 8a3e b9df f6bd
000002f0: a0de a93d de38 a9be 5145 50be bcde ed3d
00000300: fb65 ffbe 7768 9a3d f999 c23d f9c2 803d
00000310: a224 033e 798b 813e 177a c33e dcb3 773d
00000320: bef0 a1bd 8aa6 453e 7567 e1bc 0b9d c83d
00000330: a169 493e 08d1 34be 0ba0 ccbe 6f26 acbd
00000340: 85a2 26be 1cb1 b03d ce52 2ebe 7cad fb3d
00000350: a519 6d3e be06 1fbe f7a5 da3d 5c35 f73e
00000360: 58fa 0a3c ef1b 8cbe c453 bebe 8a77 e3be
00000370: 21b8 0c3e b379 103e 400f 6dbd fea1 0bbe
00000380: c3d7 853e 7809 aebe e108 533e 7cc3 52be
00000390: d696 ba3d cc53 55be ef50 40be e5ab 84be
000003a0: 0997 293d a9d8 b13e 20bf 343e 36d9 93be
000003b0: 9d6b c23e 79c9 973d 0262 5cbc b20e 92be
000003c0: e79c 8d3e 339f 3a3e 6fc6 d0bc a9c2 d0bc
000003d0: dd81 35bd 6eaf 863e bc4b 583c 8c50 c53d
000003e0: fc88 01be 658f f3be d2b1 633e b12e d8bd
000003f0: 3735 bb3e 6215 00be a8aa d7bc 0ea7 b73d
0.20425406 0.023406498 -0.09944657 -0.124354616 0.18512349 -0.013776946 -0.23100145 -0.1468874
0.27245873 0.035656802 0.5053293 0.044897165 0.11798045 -0.04029523 0.07815334 0.31488112
-0.16291507 -0.078509726 0.06817587 -0.3369976 -0.08935156 0.109606855 0.20939642 -0.33110756
-0.180491 0.22715434 0.13642167 0.012721842 0.1911893 0.0027613123 0.1560099 -0.025528656
-0.3582113 0.31396294 -0.21468905 0.12858333 -0.098195285 0.055507187 0.4075788 0.24311171
-0.05178791 0.047767002 0.106630996 0.27904376 -0.35416496 -0.10912781 0.27971518 0.11143617
-0.22741063 -0.06016517 0.027127447 0.12543225 0.015876517 0.30456182 0.11072306 0.23088749
0.38109088 0.21591261 -0.36903042 -0.0811432 0.11260053 0.5709494 0.32405192 -0.56146264
0.15412845 0.06768603 -0.044632696 -0.14073797 0.1515014 -0.27943668 -0.022122728 0.36807367
-0.07057178 0.3838978 0.04478549 0.10452604 -0.33904764 0.060442805 0.18555091 0.35981494
-0.16370915 -0.084312744 -0.34796074 -0.020617533 0.090335734 0.1174145 -0.17840114 -0.036968175
-0.3516119 0.24462937 0.0155551415 0.47580498 0.29130834 -0.08556831 0.22186619 -0.084607534
-0.26056036 0.39721254 -0.083533056 0.1616333 -0.1817329 0.033346415 0.12522756 0.029369643
-0.5697253 -0.6583805 0.0503012 0.16637453 -0.19415733 0.07668428 0.20710346 0.35168803
-0.081704795 0.04246726 0.24182661 0.29803616 0.011745552 0.064010754 0.075609714 0.11895913
0.30218247 0.18789987 -0.32365668 -0.059018224 -0.13363668 0.43849126 0.039683253 0.16196316
-0.27088913 -0.2620448 -0.11258946 0.20482743 -0.07939111 0.20213285 0.12074802 0.21648772
-0.35014144 -0.19805846 -0.5157343 -0.0058791186 0.28935125 0.21291064 -0.079247154 -0.276445
0.18341331 -0.0075376146 0.22823714 -0.06900863 -0.062387936 -0.07349709 -0.081151105 0.10732867
0.011119981 -0.19130246 0.022297027 0.17952494 -0.46534824 0.38848567 0.16838917 -0.28086436
0.09257821 -0.27210858 0.36669794 0.0015866775 -0.20854096 -0.061806362 0.049476862 -0.27417707
-0.08296582 0.46668482 -0.17604744 0.111860186 -0.022341315 -0.06631106 0.1454257 -0.13756908
0.22641662 0.095688224 0.023127628 -0.5329491 -0.25489977 0.34906778 -0.13907519 -0.023023617
-0.062932655 -0.08173012 0.26978895 -0.120543905 0.082944155 -0.330512 -0.20338942 0.11614749
-0.49882492 0.07539456 0.09502024 0.06287188 0.12806943 0.25301722 0.38179085 0.06047426
-0.07907246 0.19301811 -0.027515152 0.097955786 0.196692 -0.17657864 -0.39965853 -0.08405768
-0.16272934 0.08627531 -0.17023775 0.12288949 0.23154314 -0.15529916 0.106761865 0.48282897
0.008482538 -0.27365062 -0.37173283 -0.4442714 0.13742115 0.14108925 -0.05787587 -0.13636014
0.26141176 -0.339916 0.20608856 -0.20582384 0.09110801 -0.20832747 -0.18780874 -0.25912395
0.041403804 0.3473561 0.17651033 -0.28876656 0.37972727 0.07411475 -0.013451101 -0.28526837
0.2765877 0.18224792 -0.025485246 -0.025483446 -0.0443133 0.26305717 0.01320165 0.09634504
-0.12649912 -0.4757034 0.22235802 -0.10555781 0.36564037 -0.12508157 -0.026326492 0.0896741

critic.2.bias f4 [64]
00000000: d0eb 36be 61ce 1bbe 733f 193e 5746 9a3e
00000010: b7c8 62be 89f6 3dbe f116 f23d 96cd d4bd
00000020: cc97 443e 2126 033e 05c3 e43d 19ab 11be
00000030: 6898 da3d 0ffd 283d 64bb 96bd 7fd9 eabd
00000040: 7cfa e73d 6751 083e 6716 2c3e 903f 11be
00000050: e573 60be 250f b0bd 39a8 55be 9bfb 18be
00000060: 69d6 8f3d 5600 f53d 151d 243e c6be 303e
00000070: 8f7e 03be 3b4e 5ebe 2699 22be 0962 3b3e
00000080: 8b25 0ebe b76a debd 3e1f 273e 9da5 0dbe
00000090: 203e fcbd 58bf 2f3e 5454 6f3e b7bc 50bd
000000a0: eff9 6f3e 1f29 f7bd 5655 573e 7b52 a9bd
000000b0: 634d 2d3e 7499 04be e4f7 0b3e a74c de3d
000000c0: f2e3 41be 7852 10be 1829 ccbd 5d6b 74be
000000d0: 3a53 28be 4542 76be e21c 213e e97c c63d
000000e0: a951 1dbe dae5 38be 8a29 f0bd 2b77 90be
000000f0: 9808 83bd d021 313e 4f5d 4cbe 28da 163e
-0.17863393 -0.15215446 0.1496561 0.3013179 -0.22146879 -0.18551077 0.11820782 -0.10390775
0.19198531 0.12807514 0.111700095 -0.14225425 0.106736004 0.04125696 -0.07359961 -0.11467265
0.11327073 0.13312303 0.16805421 -0.14184403 -0.2191921 -0.085966386 -0.20864953 -0.1493973
0.07023317 0.11962955 0.16026719 0.17260274 -0.12841247 -0.2170953 -0.15878734 0.18299116
-0.13881509 -0.10860198 0.16320512 -0.13832708 -0.12316537 0.17162836 0.23372012 -0.050961222
0.23435186 -0.1206839 0.21028647 -0.08267685 0.16924052 -0.12949163 0.13668782 0.10854464
-0.1893461 -0.1409396 -0.099687755 -0.23869081 -0.16437998 -0.24048717 0.15733674 0.096917935
-0.15363182 -0.18056431 -0.11726673 -0.28215918 -0.063981235 0.17298055 -0.1995747 0.14731658

critic.4.weight f4 [2, 64]
00000000: 0824 47be 0e24 f83c 994a 9ebc 5df4 94be
00000010: 594b a9bd 69d2 1bbe 3f5e 163e 09d4 56be
00000020: ffda 99bd 4185 94be 5a75 2b3e 6035 ac3c
00000030: 1905 e63c 6ce5 383e 8166 863d 18f9 8abc
00000040: 4dd2 1f3e bdba 30b9 a54d 09be bfd9 b53d
00000050: ac7e 5a3e 21b3 55bd f69e 63be 888f 73be
00000060: e66c a03d bd50 7d3d 5b29 34be 40d0 eb3d
00000070: add0 123e 7bbc 1f3d caad 853d 5ad6 413d
00000080: 0667 253d be50 a33d 2b97 27be 695b a1bd
00000090: 1b86 e0bc 5edf 6fbd eb14 4ebd 2211 01be
000000a0: fd6e 0dbd 3664 59be 90b8 cc3d c9f3 bbbd
000000b0: 3fa0 d03d 1811 06be 18de 2abe d72f 083e
000000c0: 33fc d13b add1 cdbb 3604 37be db2d df3d
000000d0: bdae dd3d a2ec c8bd f98f 97bd c5b6 783d
000000e0: b904 dbbd ac35 f8bd 1e6e 9ebc fe75 403e
000000f0: 6001 063e d45a 1abd 5e5d b6bd efb9 aabd
00000100: 969f b7bf fa96 b7bf f328 b13f 64e2 9f3f
00000110: 008e a9bf 7ac0 a0bf 3ec6 ab3f 4896 a1bf
00000120: 0897 a73f 10ee a63f 1080 9e3f 2c28 a5bf
00000130: e736 a63f be1a 9d3f 2815 a5bf ae3b a6bf
00000140: 816d dd3f ae03 b73f 51ac ba3f 170c aebf
00000150: a81d acbf dc4d aabf c76b aabf fb0c a5bf
00000160: 7081 af3f 685b a53f 5b63 ab3f 14b9 ac3f
00000170: abb5 9cbf d1b1 a2bf dd3f a6bf 2d03 a63f
00000180: 8e93 adbf cb43 b4bf dda5 a43f e7d9 a7bf
00000190: cdb1 c2bf c64b a13f 025a aa3f 3a3f a2bf
000001a0: 3f9f a83f 5073 aebf e5c7 a13f a35b a7bf
000001b0: 28aa ba3f 6060 c0bf 7d4b af3f a549 a63f
000001c0: eae3 b1bf faa6 a0bf af91 bbbf 64a0 a6bf
000001d0: e64b c0bf 8ade a1bf 804f a73f 68d9 b73f
000001e0: 2313 a6bf 110d a8bf 3ada b2bf 7a95 a5bf
000001f0: 6061 b0bf f770 af3f b488 a8bf c220 ac3f
-0.19447339 0.03029063 -0.01932268 -0.29092684 -0.082663245 -0.15216984 0.1468439 -0.20979322
-0.07512473 -0.29007915 0.16743985 0.021021545 0.028078603 0.18056267 0.0656252 -0.01696448
0.15607567 -0.00016854233 -0.13408525 0.088794224 0.21337384 -0.052172784 -0.22228608 -0.23785222
0.07833271 0.061844576 -0.17593901 0.1151433 0.14337416 0.03899811 0.06527288 0.047323562
0.040381454 0.07974385 -0.1636626 -0.07878763 -0.027407696 -0.05856263 -0.050312918 -0.12604192
-0.034529675 -0.21229634 0.0999614 -0.09177358 0.101868145 -0.13092458 -0.16686285 0.132995
0.0064082383 -0.006281099 -0.178727 0.10897418 0.10824344 -0.09810759 -0.074005075 0.060721178
-0.1069426 -0.12119612 -0.019339617 0.1879501 0.13086462 -0.037684277 -0.08904527 -0.08336245
-1.4345577 -1.4342949 1.3840622 1.2490964 -1.324646 -1.2558739 1.3419874 -1.2623987
1.3092966 1.3041401 1.2382832 -1.2902884 1.2985505 1.2273786 -1.2897081 -1.2986963
1.7299043 1.4297998 1.4583837 -1.359744 -1.344655 -1.3305011 -1.3314141 -1.2894586
1.3711376 1.291852 1.3389696 1.3493981 -1.2242941 -1.2710515 -1.298824 1.2969719
-1.3560655 -1.4083189 1.2863117 -1.3113374 -1.521051 1.2601249 1.3308718 -1.2675545
1.3173598 -1.362894 1.2639128 -1.307484 1.4583178 -1.5029411 1.3694912 1.2991225
-1.3897679 -1.2550957 -1.4653834 -1.3017697 -1.5023162 -1.2646039 1.3071136 1.4363222
-1.297459 -1.3128988 -1.3972847 -1.2936242 -1.3779716 1.3706349 -1.3166718 1.3447497

critic.4.bias f4 [2]
00000000: dc81 3b3d 0827 963f
0.04577814 1.1730661

actor_mean.0.weight f4 [64, 17]
00000000: bd42 85be 0669 9e3e 4998 cabe da8f 593e
00000010: 500c 853d d7c1 cdbe 9d08 db3d a510 3abc
00000020: 965a dc3b 78a0 d1bc 2986 90be 6b11 123e
00000030: 055a 41be beab d0bb 8c72 ad3d 86cf bfbc
00000040: dbed 3bbe 4bcd 50bd 4ac0 003e adc4 b03e
00000050: dce2 633e 3942 afbe a990 3abd 2541 eb3c
00000060: 3795 633e 4cc9 5ebc a96a 583e aa2d 79be
00000070: a055 0e3e 3ad9 7fbd 7c1c d23e a208 ebbd
00000080: 72ca 9d3e c2c2 07bd b477 533d c7bd 0d3e
00000090: 988f 9f3e 21d5 92be 8946 48be 06f5 f9bc
000000a0: 2ce3 de3c e520 c7bd 9c37 b63d 5bfb 90be
000000b0: a65a 593c ff6d b43c ab3b 5fbe a7af 5fbd
000000c0: 4aad 11bd 7b66 403d f654 1c3e 1a06 03be
000000d0: 38d7 753b 706b 51be a2ed 32bd 67dd 80be
000000e0: 9b38 623e 71ee 47be 49e2 aabb b520 1abe
000000f0: 257f ce3e 57b0 783d b364 d43d 323c a93d
00000100: 8c27 c23c 8165 253e 4d4f 2e3d 04e1 9c3e
00000110: fcc5 5dbe 458e 863e f519 80be 8cfb 2fbc
00000120: ac23 6bbe 927a 45be 9dbb 4c3d 62fa a73e
00000130: 0b69 d13d 0047 b5bd ec13 0f3e 6ab5 f0bd
00000140: 30ee 733c 1c26 83be cc40 8e3e b1b5 983c
00000150: 7b36 ac3d d4a2 3abd 2ffc 8bbe 87dd 643d
00000160: b1be 5dbd aaa6 853e 2d7f b3be 2609 11be
00000170: 556b 3fbe 0388 3ebe 2442 1c3e f544 8e3e
00000180: 3e21 173e 6432 b83c fdb3 103d 10b2 12be
00000190: 73fe 6bbe bce7 413d 3566 10be d50b 30be
000001a0: 2685 e2bc d367 4dbe 9d6f ce3d 4907 0dbe
000001b0: 8724 db3d fb98 5b3d ad6c 053f cea7 323e
000001c0: b64e 543d af59 9a3e ad40 673d 2630 573e
000001d0: 7507 9d3d 358f a2bc 67ee 58be d254 e5bb
000001e0: e2ec 653d b3f3 2abd c109 d3ba 9654 353c
000001f0: ef50 e83d 7760 1d3c 082f a93d 24b0 babe
00000200: 47cc 40bd 9053 983e 12ec 4e3d 6c3b 3d3e
00000210: 6a10 fdbe ff47 f33d 7d3a f1bd 9b50 733e
00000220: a8e1 253e ca8d aebd 8f95 07be dcbb 943e
00000230: 74c8 283e 05ed 0cbe 35f0 ecbd 8e83 8e3d
00000240: 02d1 98bd 345a 2ebe 4414 78bd 45fc 123c
00000250: e787 2dbc 393f 073c 00f0 98bd 9e11 093d
00000260: e14b 88be 3e4f 31be fde7 263e af27 8dbd
00000270: c640 c43d 2881 f8bc 0400 46ba ff53 aebe
00000280: aef9 fe3d 2f8d 6dbd 1a0d 563e 1330 8d3d
00000290: 9b61 73be 7e4b 37bd 74bb 3bbe ad9f ca3d
000002a0: 5af1 52be 3e28 5c3e 2368 c83d 77f8 643e
000002b0: 7627 f23d 30bb a63e 8091 60bd 184d a2bc
000002c0: 44b0 fe3d dbc8 1a3d babd a23c 68c3 53bd
000002d0: e0f8 923e 9985 81bc 508e 2dbe 9802 103d
000002e0: 0ee1 9cbb 4fe2 6a3e 5cec b93d dd5c de3c
000002f0: d862 173b e308 e73e 2524 bbbc 91ae a73d
00000300: 928f 343e bbd2 78bd b3d3 83be cc92 8c3d
00000310: dd6a 2dbe 36e6 efbe f3d2 3c3d c1c0 933e
00000320: 020c d4be 1b7f 583b 7b72 573d fd50 de3d
00000330: 7a29 1f3e 564b 3a3d 91b0 043e 0296 d53e
00000340: 9417 8fbe bcfe 9abc f2ad 413e 41fd 0b3d
00000350: 11db 82be fef3 193b 9116 573e 0ed9 903e
00000360: cbc0 42be f8bd 0abb 2998 45be 4310 613d
00000370: 837b 2fbe cb6f 6d3e 6040 d83c 4921 ecbb
00000380: ef50 f23d 66e0 173d 3219 1dbe 7725 8cbe
00000390: f125 9d3d 0242 af3d eae3 15be 8ea7 adbd
000003a0: 8489 763e 5737 ac3c f9d8 243d 03dd db3d
000003b0: 4cd4 b13d 2228 bb3e 7183 fabd ef09 be3d
000003c0: e54f 113e 2069 06be f5af f03d 9300 0e3e
000003d0: e950 bfbe e117 0f3e f607 2dbd 457f 173d
000003e0: c298 03be a8c2 653e fee4 723d 5617 93bd
000003f0: 7f37 73be 8a74 a7bd 9baf 043e 3b61 853d
-0.2602748 0.30939502 -0.3956931 0.21246281 0.06496489 -0.4018695 0.10695002 -0.011356507
0.006724666 -0.025589213 -0.28227356 0.14264457 -0.18881996 -0.0063681295 0.08469114 -0.023414385
-0.18352453 -0.050977033 0.12573352 0.34525052 0.22254509 -0.3423021 -0.045548115 0.028717587
0.2222489 -0.013597798 0.21134438 -0.24333826 0.13899851 -0.062463023 0.41037357 -0.11476256
0.30818516 -0.03314472 0.05162783 0.13841926 0.3116424 -0.2867823 -0.19558157 -0.030512344
0.027207933 -0.09723071 0.088973254 -0.2831677 0.013266241 0.022025106 -0.21800105 -0.054610875
-0.035565652 0.046972733 0.15266785 -0.12795296 0.0037512314 -0.2045114 -0.043683656 -0.25168917
0.22091906 -0.19524552 -0.0052149636 -0.15051539 0.4033138 0.060715046 0.10370769 0.082634345
0.023700498 0.16152002 0.042556096 0.30640423 -0.21657556 0.26280418 -0.25019804 -0.010741126
-0.22962826 -0.19285038 0.04998361 0.32808214 0.102251135 -0.08851433 0.13972443 -0.11753352
0.014888331 -0.25615013 0.2778381 0.018641325 0.08408829 -0.04556544 -0.27340838 0.055875327
-0.054136936 0.26103717 -0.35057965 -0.14163646 -0.18693288 -0.18606572 0.15259606 0.27786985
0.14758775 0.022484966 0.0353279 -0.14325738 -0.23046283 0.04734014 -0.14101489 -0.17192014
-0.02765138 -0.20059137 0.10079882 -0.1377231 0.107003264 0.05361269 0.5211895 0.17446825
0.051832877 0.30146548 0.056458164 0.21014461 0.07667438 -0.019843677 -0.21184693 -0.0069986368
0.056134112 -0.041736316 -0.0016100929 0.01106753 0.11343562 0.009605519 0.082609236 -0.3646251
-0.047069814 0.29751253 0.050518103 0.18479699 -0.49426585 0.118789665 -0.11778734 0.23761217
0.16199362 -0.08523138 -0.13240646 0.29049575 0.16482717 -0.13762291 -0.11569253 0.06958686
-0.0746174 -0.17026597 -0.0605662 0.008971279 -0.010591484 0.00825482 -0.07467651 0.033464067
-0.2662039 -0.17315385 0.16299434 -0.06892335 0.09582667 -0.030335024 -0.0007553103 -0.3404846
0.12449966 -0.05799597 0.20903435 0.06893935 -0.23767702 -0.04474973 -0.18333226 0.09893737
-0.20599881 0.21499726 0.097854875 0.22360407 0.11823933 0.32564688 -0.05482626 -0.019812152
0.12435964 0.037789207 0.01986586 -0.051700026 0.28705502 -0.015810775 -0.16948819 0.035158724
-0.004787571 0.22937892 0.09078285 0.02714389 0.0023099687 0.45123968 -0.022844383 0.08187593
0.17632893 -0.060747843 -0.2574745 0.06863937 -0.16935296 -0.46855325 0.046099614 0.28857997
-0.4141541 0.0033034745 0.05259941 0.10855291 0.15543166 0.045482002 0.1295798 0.4171601
-0.27947676 -0.018920295 0.18914011 0.03417707 -0.2555776 0.0023491378 0.21004702 0.282906
-0.19018857 -0.002117036 -0.19296326 0.05494715 -0.1713696 0.23187177 0.026397884 -0.0072061163
0.11831843 0.037079237 -0.15341642 -0.27372333 0.076732524 0.08557512 -0.14637724 -0.08479224
0.24075896 0.021022482 0.040245984 0.10735514 0.086830705 0.36554056 -0.12232102 0.092792384
0.14190634 -0.1312604 0.11752311 0.13867407 -0.37366417 0.13973953 -0.04224392 0.036986608
-0.12851241 0.22437537 0.059300415 -0.07182185 -0.23751639 -0.08176525 0.12957613 0.06512686

actor_mean.0.bias f4 [64]
00000000: 39ff 3bbd e7f0 1bbc 4872 3dbd 9baf 973c
00000010: 2ae4 6e3d 3ee9 dbbc c7e1 3abd 25d8 e43c
00000020: 7a08 63bd 3dfe f9ba 7a02 16bd 43b3 ed3c
00000030: 6bf4 4b3d 53bc 46bc 6053 1a3c 0caf 693d
00000040: a6bf 073b ff6b d6bd 3620 3e3c 4bfb 53bc
00000050: 3c01 f0ba d1f6 83bb 31f3 0c3d 8e1a a8ba
00000060: 5c50 20bd cb4b 42bd e766 c638 e5da 843c
00000070: 7c35 99bd 90b0 b43c 0fcf c2bb ee1c 05bc
00000080: f5cd a0bd 7c1a 2b3d d1ef 74bb 32c7 bb3c
00000090: 0980 bbbc c8f3 a53c cc14 a9bc 9560 b13d
000000a0: 6b90 21bd 66ac c93c aca3 42bd 0be9 fe3c
000000b0: 173d 61bd 685d 503d d1c6 d93c 6546 8dbd
000000c0: 2f67 d33c ed2c 4a3c b449 b13c f5a6 093c
000000d0: 4f59 b0bd 587f 093d 615d 0c3d 05bc 553d
000000e0: 90f6 943c da25 70bc a6f8 793d 3e9f b83c
000000f0: 4f65 673d be63 72bb 583b a83b 3faa b0bc
-0.045897696 -0.009517885 -0.046251565 0.018516352 0.058323063 -0.026844617 -0.045625474 0.027935097
-0.055428006 -0.0019072961 -0.036623456 0.029016143 0.049793642 -0.012129861 0.009419292 0.057051703
0.0020713597 -0.10469817 0.011604359 -0.012938331 -0.0018310915 -0.0040272255 0.034411613 -0.0012825297
-0.039139137 -0.047435563 9.460543e-05 0.016217658 -0.074809045 0.022056848 -0.0059450935 -0.008124573
-0.07851783 0.041773304 -0.0037374387 0.022922132 -0.0228882 0.020257846 -0.0206398 0.08661
-0.03944437 0.024618339 -0.04751937 0.031116983 -0.0549899 0.05087033 0.02658406 -0.06898192
0.025806038 0.012339813 0.02164159 0.008401622 -0.08610784 0.03356871 0.03426874 0.052181263
0.018183976 -0.014657462 0.061028145 0.02253687 0.0564931 -0.003698572 0.0051340275 -0.021565555

actor_mean.2.weight f4 [64, 64]
00000000: 8367 1dbd a2ed 95be 5a14 32be 3502 293e
00000010: 5e75 0ebd 9201 873e fdde 91bd 27f6 103d
00000020: b503 a1be b44b be3e 0445 27be 4915 dc3d
00000030: 70ff ce3c 0ea6 653e 47c3 8cbe 0b0d 543d
00000040: 54c5 49be 2d79 30be 8a6c 7b3c 4819 3f3e
00000050: 80f5 cd3e d8db 9dbd ae38 36bd ff0c 27be
00000060: 1527 873e da21 e03b 8e47 483e 9a4a 033e
00000070: 138b a6bc fe3c 403e fb99 a3be 4c96 363e
00000080: db92 07be 8a25 083c 9d48 c13e 5fbd c9bd
00000090: c892 5fbe 0c30 97be b17d 2fbe e6b3 ff3c
000000a0: f9e6 76bd ac79 5ebe 4ca9 053b 6027 0ebe
000000b0: e590 82be fc8f 943d 99e3 a33e 379f 0fbd
000000c0: 7a61 943d a325 ae3e e648 1fbe d4cb ffbd
000000d0: 3307 adbd 677e 10be f993 53bd ac36 50be
000000e0: 23a7 1fbe 16ec 7abd b2f0 0f3e 0930 b8be
000000f0: 5c42 003e 3884 463d 7e9a 003e ef21 d4bd
00000100: ef96 b2be 20b1 ddbd baa4 4c3e 59e1 6cbd
00000110: 9a6a 86bc cc0b 763e a0ff 583e 5501 55be
00000120: 11ad 86be 6c14 63be 7aea 3bbd b49f f3bc
00000130: 70ae b5bd a90d 53be fe96 593e a56e efbd
00000140: 839b 3dbe a0f1 21be e7e8 253e 1697 36be
00000150: b96b fa3d 9dde 023e 3a76 84be 4c54 cc3d
00000160: 80eb 59be 1c6b 8dbe b786 92bd 5998 b4bd
00000170: 4fe7 89bd 5056 253d 0c4b e4be 0175 a8bd
00000180: 165c 57be beee 38be 027b d3bd de16 af3d
00000190: b0ba 96bd 37f1 813c a616 c6bd e721 d93e
000001a0: cad2 41bc c43d 003e 5734 bbbd 8093 2cbe
000001b0: 767d a93d c1d6 bcbd 85fe 42be a10d 583d
000001c0: 8985 ff3c 7eec 083e 99ee a6be e43f e7bd
000001d0: 082d 9abd d96b 73be c752 4d3d 34f0 683e
000001e0: 1782 a73c 8f49 953d 54d6 a0bc 588b e73d
000001f0: fee9 1dbe dffd 523c 41ae 5e3e 36ea 02be
00000200: 3f89 88be d5a3 bf3b bb32 91bc 602d 19be
00000210: 6af9 0ebd b5c4 50be ec19 343d 145b 363e
00000220: 0b95 513b 7949 e3bc 8323 dd3d 2169 7d3c
00000230: e8f0 a63d c5cf 1bbd b474 fcbd 11e8 04bd
00000240: 94a0 d9bd b785 8c3d 31d6 303d f3ff bcbc
00000250: 607f 86be ca1d 20be 1775 a1be 066e 09be
00000260: 0d7e f1bd fd67 babd 4bbe 9a3e d235 f5be
00000270: e8af 0ebd ef54 6d3d fb61 00be 62fd 7b3e
00000280: 4c8b 683e b675 e53d bcdc 223d 8a52 303d
00000290: 7b61 49bd abd7 e83e 1d65 943d ef19 b3bd
000002a0: 6796 4a3e e60a eabe d2bc 353d 6ec9 653d
000002b0: 0f61 5d3c c068 d93a 95c3 8f3e 3633 a33d
000002c0: b432 b1bd 2824 bc3d b8e7 87ba 4c83 37be
000002d0: a15d 39be f494 8f3d 2b2d b83d 4806 f33e
000002e0: 5f7c 153e 9c8b b83d 2bb9 073d 1a5e e7be
000002f0: 8426 cd3d f221 543e acfc 4abd 109a b63d
00000300: b2bb 2ebc 32a8 94bd 88f4 1b3d faa0 89be
00000310: aec4 6dbe 77ea 183e e7f3 5f3e fb72 9d3e
00000320: 917e 3fbd bef9 8f3d 58b4 b03b 0b17 0b3d
00000330: 2e08 e63d ea01 45be dde3 87be 6acc a73d
00000340: cb4a abbe d409 233e 28ce 24bd 4398 2ebd
00000350: 8cc6 19be 56cd 3e3e 574b b33d 7a37 443d
00000360: e80b 193e 2d0c 2fbe 1a60 1b3e 5947 a43e
00000370: d014 333e dbbe 303e a461 dc3e cb44 28be
00000380: 81d5 823d b156 15be 8a14 ef3e 6d77 603e
00000390: 6cde 0e3d 0d36 b63e 674d eabb 6945 903d
000003a0: a58a 4d3e 6ec8 6f3e 2431 9cbd a7a1 053d
000003b0: d4ea 8a3d 8d04 92be 0f66 f93d 5ed9 983e
000003c0: d02a 8ebd 50cb d3bc 7cf9 0fbe 30cb 333d
000003d0: 7671 d63d dc2c a73d 4507 6c3d 9d44 24be
000003e0: 85a0 0abe 4d07 e03d ec55 203e 80a6 dd3d
000003f0: 10d1 d9bc e107 1a3e d7a2 d73c e3eb 8abd
-0.038428795 -0.29282862 -0.17390576 0.16504748 -0.0347799 0.26368386 -0.0712261 0.035391
-0.3144814 0.37167132 -0.16334921 0.10746247 0.025268286 0.22426626 -0.27492735 0.05177025
-0.19704181 -0.17233725 0.015345702 0.18661988 0.40226364 -0.077079475 -0.044487648 -0.16313551
0.26397005 0.006839973 0.19558546 0.12821427 -0.020329988 0.18773267 -0.31953415 0.17830771
-0.13239615 0.008309731 0.37750712 -0.09850573 -0.21833336 -0.29528844 -0.17137791 0.031213712
-0.060278866 -0.21726102 0.0020395098 -0.13882208 -0.2550117 0.07254025 0.3200958 -0.03506395
0.07245155 0.3401309 -0.15555152 -0.12490049 -0.08448639 -0.14110719 -0.05165479 -0.20333356
-0.15591101 -0.061260305 0.14056662 -0.35974148 0.12525314 0.048465937 0.12558934 -0.10358035
-0.34880778 -0.108247995 0.19984713 -0.057832096 -0.016408253 0.24027938 0.21191263 -0.2080129
-0.26303914 -0.22175759 -0.04587791 -0.029739238 -0.08871162 -0.2061068 0.21249005 -0.11691026
-0.18516354 -0.15814829 0.16202126 -0.17831072 0.12227578 0.12780233 -0.2587145 0.09977016
-0.21281242 -0.2762078 -0.07154601 -0.088181205 -0.06733572 0.040365517 -0.44588506 -0.08225442
-0.21031222 -0.18059823 -0.10326196 0.085492834 -0.073598266 0.01586209 -0.096722886 0.42408678
-0.011830041 0.12523562 -0.091408424 -0.16853142 0.08275883 -0.092206486 -0.19042404 0.052747373
0.031191604 0.13371465 -0.3260391 -0.11291483 -0.0752812 -0.2377161 0.05012777 0.2274788
0.020447774 0.07289421 -0.01963345 0.113058746 -0.15421292 0.01287791 0.2174616 -0.12784657
-0.2666721 0.0058483877 -0.017724385 -0.14958715 -0.03490583 -0.20387538 0.043970034 0.17808181
0.0031979706 -0.027744995 0.10797789 0.015466959 0.08151418 -0.03803994 -0.12326947 -0.03244788
-0.10626331 0.068614416 0.04317302 -0.023071265 -0.26269054 -0.15636364 -0.31534645 -0.13420877
-0.117916204 -0.091018654 0.30223307 -0.47892624 -0.034835726 0.057942327 -0.12537377 0.24608377
0.22709388 0.11204092 0.03976129 0.043047465 -0.04916523 0.45477042 0.07245848 -0.08745181
0.19783936 -0.4571144 0.044369526 0.0561003 0.01351191 0.0016587004 0.28078905 0.07968752
-0.08652249 0.09186584 -0.001036874 -0.1792118 -0.18102123 0.070108324 0.0899299 0.4746573
0.14598225 0.090110034 0.033135574 -0.4518898 0.10017112 0.20716074 -0.049557373 0.08916104
-0.010664867 -0.07258643 0.038075 -0.26880628 -0.23219559 0.14933191 0.21870385 0.30751786
-0.046751563 0.070300564 0.0053925924 0.033957522 0.11232029 -0.19239011 -0.26541033 0.08193286
-0.334555 0.15921718 -0.04023567 -0.042625677 -0.15017146 0.18633017 0.08754604 0.04790447
0.14945948 -0.17094488 0.15173379 0.32085684 0.17488408 0.17260306 0.43043244 -0.16432492
0.06388379 -0.14583851 0.46695358 0.21920557 0.034880087 0.35588112 -0.0071503404 0.07044489
0.2007242 0.23416302 -0.0762656 0.032624867 0.06783071 -0.28519097 0.12177669 0.29853338
-0.069417596 -0.025853783 -0.14060014 0.043894947 0.1047086 0.08162853 0.05762412 -0.16041799
-0.13537796 0.109388925 0.15657777 0.10822773 -0.026588947 0.15042068 0.026322765 -0.06783273

actor_mean.2.bias f4 [64]
00000000: a623 903c 71ed 00bc 656e fd3b a20d 41bd
00000010: 0943 163d a3a9 c5bb 98e3 8abc a68b 31bb
00000020: ce3b 543c e562 9abc 0bfe 76bd f099 6a3c
00000030: f91a dfbc 0534 9ebc fbe3 993c 335e 413d
00000040: 06ca 3abd 9db4 a03a 598b 06bd c932 08bd
00000050: bf3c 2abd 410f 92bc d6fe debc befb 0bbd
00000060: b88a 36bc d124 f8bc 8c25 03bd 2bdf 9dbc
00000070: b14a 183b b5a0 1d3d aff5 db3b 1dac 983c
00000080: 1479 8a3c 50a2 c83c fcb0 80bd ce40 053d
00000090: 96f3 a5bc 1e8c e03a 79a9 03bc 72e5 033a
000000a0: 98a9 953c 0e32 dc3c 2557 2a3d afcf 753d
000000b0: 33ef 32bd 8ae6 d7bb d9f7 083d 53a8 963c
000000c0: f4e8 0abc b354 143d 77a7 1c3d 345c 9cbc
000000d0: 2762 00bd 38d0 1bbd 38a1 e5bc cc79 cc3c
000000e0: 241f 0b3d ef88 a0bc a500 84bd e348 a3bc
000000f0: 092a 3e3d 2b27 013d 573f 82bc 689a 793c
0.017595123 -0.00786911 0.0077341073 -0.047132142 0.036685023 -0.006032185 -0.016954228 -0.0027091294
0.012953712 -0.018845985 -0.060300868 0.014318928 -0.027234541 -0.019311914 0.018785467 0.047208976
-0.04560282 0.0012260858 -0.032847736 -0.033251557 -0.04156184 -0.01782954 -0.027221125 -0.034175627
-0.011141472 -0.030290993 -0.03201823 -0.019271454 0.002323788 0.03848334 0.0067126374 0.018636758
0.016903438 0.02449146 -0.06283757 0.032532506 -0.020257752 0.0017131602 -0.008036011 0.00050314434
0.018269345 0.026879337 0.041587014 0.060012516 -0.04368515 -0.0065887617 0.03343949 0.01839081
-0.008478392 0.036213588 0.038245644 -0.019086935 -0.031343605 -0.03804037 -0.028030977 0.024960421
0.033965245 -0.019596545 -0.064454354 -0.019932216 0.046426807 0.031531494 -0.015899343 0.015234567

actor_mean.4.weight f4 [4, 64]
00000000: 9193 0f3d 5556 043b 3de2 863c c072 ae3b
00000010: 3fa9 99bc 08d6 5bbc 2a2f e9bb 4dcc c6ba
00000020: 5938 123a bb3b 903c 26e1 e73a 0103 2fbd
00000030: c658 0fbc a1d7 9ebc ed21 42bc 9447 0f3b
00000040: 60ac ff3b f02e cdbb bb2d 5ebc 3cff 163c
00000050: 2ada f63c 9e83 8b3c 00af 953c e68d 24bc
00000060: 8c0e c33c 0d81 263d 4c74 c73c f0a8 633b
00000070: 68f0 9b3c 513c 98bc 4a27 643b 170c 46bc
00000080: 7965 bcbc f7fd 4e3c 3839 83bc 184a 43bc
00000090: 7350 d43c 0544 a4bc 8241 a4bc a63c a63c
000000a0: 3cbf 94bb f76f 1fbb d123 f8bc 14a0 533c
000000b0: 1ddc f6bb ce61 6abc 1a58 7e3c e564 2cbc
000000c0: f304 15bc dca3 f33a 662a 133b 5f97 833c
000000d0: 89e6 2e3b d8ac 393c b31a 49bc 5336 3abb
000000e0: 86e7 b2bb 0a8d c5bc 7abd 3f3c 868a fd3b
000000f0: 2a49 21bd caf3 d83c 6e14 24bc 507c 673c
00000100: 61f2 2dbc 2cd0 603c 7ded 603d f5de 9cbc
00000110: a520 bbba 1207 30bd a65d 953c 4b63 273d
00000120: 5dc9 393c 270b 85bc 3542 4ab8 d0a1 16bd
00000130: 2926 583b 6010 d53c 7c83 01bc 170a d2bb
00000140: 650f 003d 4eb8 54bc 6c40 033c 4d75 c43b
00000150: 981a 4bbc 69c2 ef3c 9cba f5bc a682 f53b
00000160: 1963 d83c 6c5c 543c 1c5d db3b a193 983c
00000170: b4b7 293d 6684 ce3c 557b 53bc 81af f538
00000180: bebd 81bc af55 393c 9fb8 4f3d 6d44 1f3c
00000190: 729b b33c 4ef8 d5bc 865b cfbc 4519 333c
000001a0: a67d b93c 6e1c 2c3c 9148 643c e357 d0bc
000001b0: 83f7 b9bc c15d ddbb 73fb f5bc 3915 5bbb
000001c0: 27b0 33bc 3c62 0a3a 60d5 62ba 0daa 643b
000001d0: ebdb 9ebc 40ef 6fbb 94a9 d53b f259 c33b
000001e0: fde4 e03b fe38 0cbd d352 513c ed12 c73c
000001f0: 6f54 8fbc e555 0b3c 390c b53c ece4 d63b
00000200: 5296 583d 318f f83b 78af 033b 7191 45bc
00000210: dfe9 703c 96c8 043b 399a debc 5a5f edbc
00000220: 3430 02bd bf93 ffbb 01f9 593d b554 00bc
00000230: f191 b03c 574e 043d 53fb e33c 2d36 3bbc
00000240: f5e4 333c 5a8a d8bc 9558 5fbb 28bd afbb
00000250: b3ef b6bc be7b 85bc 5fca 2c3c 429b 853c
00000260: 3e5c 5bbc 9cf3 343b 01fe 09bd 2215 673d
00000270: 1a67 15bb 99d8 813b c762 94bc 0e0f 88bc
00000280: 8dab f93c cde8 913c be72 ef3b 088a 033c
00000290: 9bd6 173b 54b9 babb 2754 0e3c f410 b2bc
000002a0: 1e8c 023d 2142 c7bb 882c 47bb 1913 933c
000002b0: 81cc 373c 7e6b dfbb e4d1 8c3c 097f c83b
000002c0: 12cd f73c be80 e3bc 262a eabb 1dd1 c2bc
000002d0: 2c13 3cbd 799f a93c 6f72 0c3d f591 bebc
000002e0: 8714 a8bc 72ed 633b 943f c7bb fb05 5cbb
000002f0: 054a 513c 3274 613c dc1e 1a3c 6c89 5e3c
00000300: d6ea 37bb 0fc1 a93b 9c58 803c 3390 393c
00000310: ed9c 6e3c 7243 fcba 471f 72bb ffcb b5bc
00000320: c118 28bc c5ec 663c dca1 d73c 8b5b c3bc
00000330: 3e15 b23b 4b44 9bbc 9154 af3c 952c 79bb
00000340: 5376 9ebc afb1 2e3c 4844 bdbc 6282 cbbc
00000350: 67cb 383c 3f70 00bb d46a 0bbd 05aa 1a3b
00000360: 196c 0abc c536 b1bb 9879 debc 258f 133b
00000370: 8105 a63b 7705 313b e0ba ac3c bcba ad3c
00000380: 24c1 353d 91c8 46bb eeb6 873c 4ebc 25bd
00000390: dde1 a5bc d696 dd3b d5a1 0e3c c611 983b
000003a0: bd7d bc3c c9ca 9cbb 73e8 993c 1788 14bb
000003b0: 78e7 cb3a 6273 3cbc b559 a63b fd2e 37bc
000003c0: 3734 c83c 99fe b6ba ffa8 0cb9 7b3c 6dbb
000003d0: f22a 39bc 3379 8a3c 61ca 86bc f6ae 653d
000003e0: c974 a7bc 5169 8fbc d158 82bc 37da d13c
000003f0: 9025 9cbc 54c3 a9bc fe91 203d 7a9f 43bc
0.03505284 0.002019306 0.0164653 0.005323738 -0.01875746 -0.013417728 -0.007116218 -0.0015167088
0.00055778545 0.017606607 0.0017691001 -0.042727474 -0.008749193 -0.01938993 -0.011848909 0.0021862732
0.007802531 -0.006261699 -0.013560708 0.009216126 0.030133326 0.017030533 0.018271923 -0.010043597
0.023810647 0.040650416 0.024347447 0.0034738146 0.019035533 -0.018583449 0.0034813457 -0.012087843
-0.022997605 0.012633792 -0.016018495 -0.011919521 0.025917267 -0.020051965 -0.020050768 0.020292591
-0.0045393985 -0.002432821 -0.030290516 0.012916584 -0.0075335638 -0.014305545 0.015523935 -0.010522102
-0.009095418 0.0018588263 0.0022455691 0.01606339 0.0026687703 0.011332713 -0.012274432 -0.0028413727
-0.0054597287 -0.024115104 0.01170289 0.0077374605 -0.039376415 0.026483435 -0.010014636 0.0141287595
-0.01061687 0.013721507 0.054913986 -0.019149283 -0.0014276697 -0.042975493 0.018233132 0.040866178
0.011339513 -0.01624067 -4.8222213e-05 -0.03677541 0.003298173 0.026008785 -0.0079048835 -0.006409894
0.03126468 -0.012983395 0.008010965 0.0059954287 -0.012396477 0.029267507 -0.029996209 0.007492381
0.026414441 0.012961488 0.006694449 0.018625082 0.04143496 0.025209617 -0.012907823 0.000117152005
-0.015837546 0.0113119325 0.050713178 0.009720904 0.021924708 -0.026119377 -0.025312196 0.010931318
0.022642922 0.010504825 0.013933317 -0.025432533 -0.02270103 -0.006755561 -0.030027127 -0.0033429398
-0.010967291 0.000527892 -0.0008653011 0.0034891397 -0.019391974 -0.003661111 0.0065204594 0.00596165
0.006863235 -0.03423404 0.0127760945 0.024301017 -0.017496316 0.008504366 0.022100555 0.0065580513
0.05287773 0.007585429 0.0020093601 -0.012058602 0.014704197 0.002026116 -0.027173148 -0.028976131
-0.03178425 -0.007799595 0.053215984 -0.007832696 0.021553965 0.032301273 0.027829802 -0.011426491
0.010979881 -0.026433159 -0.0034079899 -0.0053631254 -0.022331094 -0.016294356 0.010546296 0.016309384
-0.0133886915 0.0027611023 -0.033689503 0.05641664 -0.002279705 0.003962588 -0.018113507 -0.016608741
0.03047731 0.017811203 0.0073073795 0.008028515 0.0023168686 -0.0056983624 0.008687056 -0.0217366
0.031871907 -0.006080881 -0.0030391533 0.017953442 0.011218191 -0.006818234 0.017189927 0.0061186594
0.030249152 -0.02777135 -0.0071461378 -0.023781354 -0.04591672 0.020705925 0.03428882 -0.023262957
-0.0205176 0.003477898 -0.006080577 -0.00335729 0.012773995 0.013760613 0.0094067715 0.013582569
-0.0028063557 0.005180485 0.015667252 0.011325884 0.014563781 -0.0019246174 -0.0036944912 -0.022192
-0.010259808 0.014094536 0.026322298 -0.023847362 0.005434661 -0.018953463 0.02140263 -0.0038020958
-0.01934353 0.01066248 -0.023103848 -0.024842445 0.011278964 -0.0019598154 -0.034037426 0.0023599875
-0.008448624 -0.0054081404 -0.02715759 0.002251574 0.005066574 0.0027011314 0.021085203 0.021207206
0.044373646 -0.003033195 0.01656672 -0.040462784 -0.020249302 0.006762366 0.008705576 0.0046407906
0.023009175 -0.004784916 0.018787598 -0.0022664124 0.0015556654 -0.011502119 0.005076612 -0.0111806365
0.02443896 -0.0013961374 -0.00013414396 -0.003619938 -0.011301743 0.016903495 -0.016453924 0.05607506
-0.02044143 -0.017506273 -0.015911492 0.025616748 -0.01906088 -0.020723023 0.03920173 -0.011939878

actor_mean.4.bias f4 [4]
00000000: ad8c cfbc 6fee a4bc d5ab 59ba 674e d53c
-0.025335634 -0.020133225 -0.0008303498 0.026038362

in_proj.weight f4 [32, 2]
00000000: 7b6c f73e a403 f03e 7a8d 28bf b69b 45be
00000010: 091c 8dbd 191f 7ebc 2dd9 96bd 3036 f73d
00000020: e244 1ebf 706c a83e a146 b73e ba01 b93e
00000030: 2536 cdbe 507f a33e 8bcf dbbe 6442 253f
00000040: 9cb9 20bf bacd e5be 2d6e 9dbe 25f0 9c3e
00000050: 5b96 27bd 9648 b93e d0fc e43d e68f 533d
00000060: 33d3 bb3e 5d9f 203f c476 213f 9e57 903d
00000070: 6193 253f 27cb ab3e 1350 f43e 7a51 0abf
00000080: be2d 15be 3456 2abf ecaf 203f 8aaf fc3e
00000090: 2d1e 5d3e a8ef 07bf 8674 1abf e84d b53e
000000a0: 4f68 ef3d 9f4a ed3e 612d f9be b3e0 ab3e
000000b0: 1c3a f5be 7692 66ba 1d91 0a3e b4f2 033f
000000c0: 8e42 093f 6697 fcbe 27bb bc3e 43de 753e
000000d0: 36b8 34be af1c 4ebe ff03 713e 7abc c83e
000000e0: 125d 3dbf df21 183e 0bd4 2dbf 4431 783e
000000f0: f7c4 993e 2e75 7bbe 26a2 7d3e 31c9 c03b
0.48324952 0.46877778 -0.65840876 -0.1929768 -0.06890113 -0.015510344 -0.07365642 0.12070882
-0.61823857 0.3289523 0.35796073 0.3613413 -0.40080371 0.3193307 -0.4293178 0.6455443
-0.6278322 -0.4488352 -0.3074812 0.30651966 -0.040914875 0.3618819 0.11181033 0.051650904
0.3668457 0.6274317 0.63071847 0.07047962 0.6467801 0.3355343 0.47717342 -0.54030573
-0.1456823 -0.66537786 0.62768435 0.49352676 0.21593542 -0.5310006 -0.6033405 0.35411
0.11689817 0.46345994 -0.48667434 0.3356987 -0.47895896 -0.0008795628 0.13531919 0.5154221
0.5361718 -0.49334258 0.36861536 0.24010567 -0.17648396 -0.2012813 0.2353668 0.39206296
-0.7397014 0.14856671 -0.67901677 0.24237543 0.30033085 -0.24556419 0.24768886 0.005883359

in_proj.bias f4 [32]
00000000: 5eed d13e 085b 8fbe aa19 45bc d88b e53d
00000010: 90c4 253f 8baf 123f 0511 f13e f15b 353f
00000020: 3ff2 143f 96f8 883e a554 cabc b34f 443e
00000030: ca35 9f3e 6293 b53e 0b82 e83d b439 9fbe
00000040: 22a0 98be cf65 55be 05b4 683e 5ef6 a63e
00000050: 01f8 f83c 0ab2 31bf d461 8a3e 335f bd3e
00000060: e13f f1be ce96 36bf 2a4e 5ebe b8b4 1b3f
00000070: 341b f9be 88c9 043f 94c3 64be 08f7 b73e
0.4100141 -0.2799914 -0.012030045 0.11208314 0.64753056 0.5729911 0.47083297 0.70843416
0.5818214 0.26752156 -0.024698565 0.19171028 0.31095725 0.35464007 0.11352929 -0.31098711
-0.29809672 -0.20839618 0.22724922 0.32609838 0.030391695 -0.6941229 0.27027762 0.36986694
-0.47119048 -0.7132386 -0.21709505 0.6082263 -0.48653567 0.5187001 -0.22340232 0.35930657

state_proj.weight f4 [32, 17]
00000000: 8b8b 383e 9b4d 013e 28c2 2fbe 433e 713e
00000010: da47 3a3e bddb 3bbd 4e4d de3d 663e af3c
00000020: fe4d 79be 2b38 58bd 1268 3abe 6f7b 163e
00000030: 8893 463e 42b5 fabc c29d 8e3c 0319 843e
00000040: 08b7 523e 758d 513e c740 ea3d af49 7c3d
00000050: 1dd8 003e 1a19 3c3d b9c3 963c 92f8 41be
00000060: b854 17be 967d 0abe 7005 89be b3b6 1bbe
00000070: 3a55 31bb 1d28 c53d a262 dd3d aa89 65be
00000080: c77c 6f3d 7ec5 ff3d dd28 b4bd 3a26 ab3d
00000090: 82d7 343e a353 3d3b b1fc 53bd c88a 3ebe
000000a0: 2b3d b73c 2fb9 ad3d 2395 d53d 9b16 5a3e
000000b0: 480f 3dbe 464e 64be d5af 073e 3224 43be
000000c0: e036 21be 4812 193d 5fc8 453e caad 7fbe
000000d0: 0a35 21bd ea8c 97bd 4606 7fba f258 dc3d
000000e0: 7c78 8b3d 2fad 083e 6b1f 0fbd e135 73be
000000f0: 359f 32be 2b50 913d dbe0 35bd 5f2c 013e
00000100: ef4a 8cbc e87b 613d 8c44 753d 8cf1 58bd
00000110: cc0a dabd 19a3 d73d ce8d 18be e17e 003e
00000120: c45c e6bd eead 613e 758a b2bd 5310 9b3d
00000130: 1c6e 843e 98c3 cb3c 0a6c dc3d 2bdd 1dbe
00000140: 41c3 303e aae5 6a3e 6338 573e 05a0 dbbd
00000150: de05 413c f298 c93d fadd 06be 4b39 51be
00000160: cee8 603e ef1a 11be 78a1 a43d e9f0 2d3e
00000170: ae01 963d a7f6 483e d8df 77be 3bbf d2bc
00000180: 355e a2bd 42af 65bb 3443 e8bc 87d8 ea3c
00000190: 79fa 8f3c 81de 2dbe 0190 1c3e 6ad7 5e3d
000001a0: a99c cdbb afe1 3b3e 5980 233e 268b d73c
000001b0: 369e 61bd 8147 0fbd 93ba 003e 0895 f53d
000001c0: d347 cbbd 7c9b 0dbd f373 313e 30bc cc3d
000001d0: 217b 1b3d bcd9 f23c cb35 813d cdd1 6e3d
000001e0: 6679 bf3d bc43 e43d be7d 33be 4cbf 36be
000001f0: e5d7 f3bd 88d9 a9bd f2e8 fcbd c560 c43d
00000200: 0bd8 8e3c 1812 f43d e7b5 88bd 77f7 b43d
00000210: 63e9 73bd b11c 4c3d b6b4 2ebc 2156 d9bd
00000220: 6741 5bbe 4aea 40be ad5f c03d a402 48bd
00000230: ce05 ff3d 2372 213e 81fe 3c3e ca61 ecbd
00000240: 0ece 6c3e f8ef 923d bc6c 2a3b de35 ff3d
00000250: 3bce 4abe 01d6 1a3e a315 72bd 428f 47be
00000260: 1350 2d3c 23be 193e ffa4 61be 5114 5bbe
00000270: b163 223e 126a 2c3d 9959 553e 0d2d 143e
00000280: 9b04 eb3c de50 da3b 9a5f 00be 8372 1b3e
00000290: 29fe 84bd ce53 9c3d 5113 9a3d e80d 163e
000002a0: 728a 2abd 5a2a 293e 1fb6 113d e583 2d3e
000002b0: 7b96 c73c dd56 f2bc 82e3 2b3e adb7 b13c
000002c0: ca73 48bd 0f29 3f3d d8f7 453e 864f 973d
000002d0: 544c 32be 93c0 68bd eaa3 09be aad9 77bc
000002e0: a6fd 193e 7a11 3c3e 3434 16be 7459 2c3e
000002f0: f367 73bd 4ea9 90bb 99e4 0c3e f16b 6bbe
00000300: b72a 5dbe 107f 65be 85b2 cbbd 3cdb 44be
00000310: 3560 cdbd 9298 fb3d aea0 c8bd 2890 19bd
00000320: a0a4 6ebe 4cdf 94bc 1b9b 173d 29fd 9e3d
00000330: f05a e9bd a3d8 c13d 7ceb 37be 39a5 d1bd
00000340: 770b 87bd 6f9e 443d 34ae d9bb 738a 263e
00000350: 18f4 6aba 8846 3fbe 5814 273e f593 0c3e
00000360: 9d91 6f3e ad4a 4bbe ab19 a1bd 10cd 423d
00000370: df81 a7bd 4337 afbd f065 57be 78b9 863e
00000380: 64a2 42bd 0f72 34be 5ecd 47be 878d 463e
00000390: 20d1 47be 439f cbbd 12d6 193e a6d3 4cbe
000003a0: 0ec8 16be c670 513e dae9 c9bd 5233 4a3e
000003b0: 1ed6 95bd 3766 373e af62 893e 3c00 05be
000003c0: f1e4 b93d 80e1 1f3e cf86 24bd 4bfe 053e
000003d0: de7d 14be b7d3 e7bc 3920 c13b 48f2 9fbc
000003e0: 43e5 5fbc 65af db3d 3d20 563e 6412 6e3e
000003f0: 015e 103d 9d6b 023e 4a75 24bd 1f90 233d
0.18021981 0.1262726 -0.17163908 0.23558907 0.18191472 -0.045863856 0.108545884 0.021392059
-0.24346158 -0.05278794 -0.18203762 0.14695524 0.19392216 -0.030604009 0.01740921 0.25800332
0.20577633 0.20464118 0.114381365 0.061593708 0.1258244 0.045922376 0.018403875 -0.18942478
-0.14778411 -0.1352447 -0.2676196 -0.15206413 -0.0027058856 0.096267916 0.10809828 -0.22415796
0.058468606 0.124888405 -0.087968566 0.083569005 0.17660335 0.0028888963 -0.051754657 -0.18607628
0.022368034 0.084825866 0.10428836 0.21297686 -0.1846286 -0.22295484 0.13250668 -0.19056776
-0.1574359 0.03737095 0.19314717 -0.24968639 -0.039357223 -0.07399924 -0.0009728413 0.107591525
0.0681009 0.13347314 -0.034942072 -0.23751022 -0.17443545 0.07095369 -0.044403892 0.12614582
-0.017125575 0.055049807 0.059879825 -0.052964732 -0.106465906 0.10529155 -0.14897844 0.125484
-0.112481624 0.22039005 -0.08717815 0.07571473 0.25865257 0.02487354 0.10762794 -0.154164
0.17261983 0.22939172 0.21017604 -0.10723881 0.011781184 0.09843625 -0.13170615 -0.20432012
0.21963808 -0.1417043 0.0803861 0.16986431 0.07324539 0.1962534 -0.24206483 -0.025725951
-0.07928125 -0.0035047089 -0.028352357 0.028667701 0.01757549 -0.1697941 0.15289308 0.054404654
-0.006274779 0.1834781 0.1596693 0.026311468 -0.055082522 -0.0349803 0.12571172 0.11991316
-0.09925809 -0.03457211 0.17329387 0.099968314 0.03795922 0.02964484 0.06309088 0.05830555
0.09349327 0.11145732 -0.17528436 -0.17846411 -0.11906413 -0.08293444 -0.12349118 0.0958877
0.017437002 0.119175136 -0.0667532 0.08836263 -0.059548747 0.04983205 -0.010663202 -0.10612131
-0.21411668 -0.18839374 0.09393249 -0.048830643 0.12452279 0.15766196 0.1845646 -0.11542089
0.23125479 0.07174677 0.0026004752 0.12461446 -0.19805233 0.15120699 -0.059102666 -0.19488242
0.010578173 0.15013938 -0.22035597 -0.21394469 0.15858342 0.042093344 0.2083496 0.1447031
0.02868872 0.006662472 -0.12536469 0.15180402 -0.0649379 0.07633172 0.075232156 0.14653742
-0.041635938 0.16520062 0.035574075 0.16944845 0.024363747 -0.029582435 0.16786006 0.021694029
-0.04893855 0.046670016 0.19332826 0.07388215 -0.1741193 -0.056824278 -0.13441435 -0.015127579
0.15038165 0.18366042 -0.14668351 0.16830999 -0.059425306 -0.004414714 0.13759078 -0.22990395
-0.21598326 -0.22411752 -0.09946159 -0.19224256 -0.10028116 0.1228496 -0.09796272 -0.037490994
-0.23304987 -0.018172882 0.037013154 0.0776313 -0.11394298 0.09465148 -0.17960924 -0.10236592
-0.065939836 0.048002657 -0.006643081 0.16263752 -0.00089627644 -0.1867925 0.16316354 0.13728316
0.23395391 -0.19852705 -0.07866224 0.047558844 -0.08179068 -0.08555462 -0.2103498 0.26313376
-0.04751815 -0.17621635 -0.19511935 0.19389926 -0.19513369 -0.09942486 0.15023068 -0.20002612
-0.14724752 0.20453176 -0.09859057 0.1974614 -0.0731623 0.17910086 0.26833102 -0.1298837
0.0907687 0.15613365 -0.040167626 0.13085286 -0.1450114 -0.028299196 0.005893734 -0.019524708
-0.0136655 0.10726813 0.20910735 0.23249203 0.0352459 0.12736364 -0.040150918 0.039932366

state_proj.bias f4 [32]
00000000: 6747 153e 04e5 333e 423c 243e b018 47be
00000010: a294 bb3d 7ee9 7cbd 8dc3 713d 48a7 c73d
00000020: 010e 053e 0795 a9bc 43e5 033e 8efe 1bbc
00000030: 3344 513d 6117 0c3e 38ac 66be c2f2 633e
00000040: 532e 333e e799 343e 2c27 263d a74d 03be
00000050: aaaa 0cbe 17b4 6c3e 5b8f 353e 5e27 2d3d
00000060: 149c 2abe cf95 023e 8b9d db3d 84fa afbd
00000070: c227 a13d 76a4 18be f568 16be dc34 32be
0.14578019 0.17567831 0.16038612 -0.19443011 0.09159209 -0.061746113 0.059024382 0.09748703
0.12993623 -0.020700945 0.12880425 -0.00952114 0.05109043 0.13680793 -0.22526634 0.22260574
0.1749814 0.17636834 0.0405647 -0.12822591 -0.13736978 0.23115574 0.17730467 0.04227387
-0.16661102 0.1275246 0.10723408 -0.08592704 0.07868911 -0.14906487 -0.14688475 -0.17402977
