saved_agents/dm_humanoid_c.pth (torch, 156885 bytes, 26 tensors)

actor_logstd f4 [1, 21]
0	0xbe852077	-0.2600133
1	0xbe9fc4d7	-0.31204864
2	0xbe8f141d	-0.27945033
3	0xbe84fef4	-0.25975764
4	0xbe8237e8	-0.25433278
5	0xbe9f9350	-0.31167078
6	0xbe9faf20	-0.31188297
7	0xbe9754b0	-0.295568
8	0xbe8964d9	-0.26834753
9	0xbe9084c5	-0.28226295
10	0xbea1e63c	-0.31620967
11	0xbe7e650e	-0.24843237
12	0xbe9f40c2	-0.31104094
13	0xbe84f264	-0.2596618
14	0xbe70dc94	-0.23521644
15	0xbe787ae9	-0.24265637
16	0xbe8d33cd	-0.27578583
17	0xbe8e5b07	-0.27803823
18	0xbe914dd0	-0.2837968
19	0xbe9bd151	-0.30433133
20	0xbe75ca92	-0.24003056

critic.0.weight f4 [64, 69]
0	0xbe147413	-0.14497404
1	0x3e4fe64b	0.20302694
2	0x3ef5bde9	0.47996452
3	0xbe61c876	-0.22049126
4	0xbf1186ca	-0.56846297
5	0xbd27149a	-0.04079113
6	0x3dfd0eba	0.123563245
7	0x3d551fdc	0.052032337
8	0x3ef35b63	0.4753066
9	0xbdeecb2b	-0.11659845
10	0x3ddf7936	0.10911791
11	0xbe5d3bd6	-0.21604857
12	0x3db14b32	0.086569205
13	0x3e9ab6e6	0.30217665
14	0x3cfbff7e	0.030761477
15	0xbf1b39df	-0.6063518
16	0x3c86e3d0	0.016466051
17	0xbd4254ef	-0.04744428
18	0x3e25398a	0.1613523
19	0x3e464be4	0.19364887
20	0x3e409a6b	0.18808906
21	0x3e33b959	0.17551173
22	0x3eac736b	0.33681807
23	0xbdaabbd2	-0.08336605
24	0xbe55897b	-0.20853226
25	0xbdd7743e	-0.10520218
26	0xbdd2fc50	-0.10302031
27	0xba63e41a	-0.00086933526
28	0x3e715a3d	0.2356958
29	0xbe6c3092	-0.23065403
30	0x3ef65dfd	0.48118582
31	0xbe926ae1	-0.28597167
32	0xbebe9606	-0.37223834
33	0x3db86210	0.09003079
34	0xbe8ca1ea	-0.2746728
35	0x3e1bfd19	0.15233268
36	0xbbfb8c55	-0.007676641
37	0x3c16a5c3	0.009194794
38	0xbdf793ae	-0.120887145
39	0xbe8b16d7	-0.27165863
40	0xbe8387a3	-0.2568942
41	0xbce84cab	-0.02835687
42	0xba8ad83c	-0.0010593007
43	0x3e294d01	0.16533281
44	0xbe175214	-0.14777404
45	0xbdc8667b	-0.097851716
46	0x3e269bac	0.16270322
47	0x3c3d87a7	0.011567987
48	0xbc8398b5	-0.016064027
49	0xbd384bbb	-0.044994097
50	0xbea128fa	-0.31476575
51	0xbda9db76	-0.08293812
52	0xbe257cd4	-0.161609
53	0xbdbe18ad	-0.0928205
54	0x3e17b6dd	0.1481585
55	0x3c8d5f5e	0.017257389
56	0xbc5442ba	-0.012955362
57	0xbdb26b8d	-0.0871192
58	0xbdc01b39	-0.09380192
59	0xbda2c2d6	-0.07947318
60	0xbe9f1423	-0.3107005
61	0x3c6c8bf1	0.0144376615
62	0xbdb24a7c	-0.08705613
63	0x3dc02d15	0.09383599
64	0x3e6369f7	0.22208391
65	0x3e6d2f98	0.23162687
66	0x3ee6f285	0.45106903
67	0xbee6478a	-0.44976455
68	0xbebbad00	-0.36655426
69	0x3f619f01	0.88133246
70	0x3ebb3493	0.36563548
71	0xbf07de80	-0.53073883
72	0xbcf151ab	-0.029457888
73	0x3e109f95	0.14123376
74	0x3d69a274	0.057039693
75	0xbe415f53	-0.1888402
76	0x3e312c78	0.1730212
77	0xbf1f4947	-0.6222119
78	0x3e8106ac	0.25200403
79	0xbdc5e255	-0.0966231
80	0x3cb0100c	0.021492027
81	0xbeb40b6b	-0.3516496
82	0xbf0339e3	-0.51260203
83	0xbec7095c	-0.38874328
84	0x3f35ed02	0.7106477
85	0xbe759a0f	-0.2398455
86	0xbdb7f96b	-0.089831196
87	0xbdafa4c3	-0.08576348
88	0xbeb27d25	-0.34861103
89	0x3bbfe079	0.0058556166
90	0xbe9a25c9	-0.30106953
91	0xbf209f98	-0.6274352
92	0x3e9427b0	0.2893653
93	0xbe46fa15	-0.19431336
94	0x3d50aa1a	0.05094347
95	0x3d4ccc95	0.049999792
96	0x3e7135f6	0.2355574
97	0xbe51c1e1	-0.20484115
98	0xbd92b512	-0.07163443
99	0x3e494405	0.19654854
100	0xbdfcd1e8	-0.12344724
101	0xbe9b7964	-0.3036605
102	0x3d2eafc5	0.042648096
103	0x3e292c1e	0.16520736
104	0xbe4436c8	-0.19161522
105	0xbc32d161	-0.010914178
106	0xbf4737ba	-0.77819407
107	0x3dec5740	0.11540079
108	0xbd8c7a8a	-0.0685931
109	0xbcb34065	-0.021881292
110	0x3eaa80ef	0.33301494
111	0xbe635950	-0.22202039
112	0x3de86e49	0.1134916
113	0x3d187227	0.03721824
114	0x3e7f6b9e	0.24943396
115	0xbd40396a	-0.046929754
116	0x3e39b152	0.18134049
117	0xbdfb4f73	-0.12271013
118	0x3dde4c1b	0.1085436
119	0xbe6213b1	-0.22077824
120	0xbdad7793	-0.084700726
121	0xbe0d7f85	-0.13818176
122	0x3c85c058	0.016327068
123	0x3d9ea7bb	0.07746836
124	0x3e98ae3c	0.2982043
125	0xba80e816	-0.0009834792
126	0x3dfa945d	0.12235329
127	0xbdd355dc	-0.10319111
128	0x3dc58900	0.09645271
129	0x3ded4109	0.1158467
130	0x3dd20127	0.10254126
131	0x3e36b119	0.17840995
132	0x3e3c3912	0.18381146
133	0xbd3b5832	-0.045738406
134	0x3dc1f66f	0.094708316
135	0xbc4927ee	-0.012277586
136	0x3ec9ede0	0.39439297
137	0x3edfa85a	0.4368313
138	0x3ec9b3d6	0.39395016
139	0x3b9e01a0	0.004821971
140	0xbe2310a1	-0.15924312
141	0xbe621acd	-0.22080536
142	0xbe16d4ec	-0.14729661
143	0x3ea2e6f6	0.31816834
144	0xbec4cda3	-0.38438138
145	0xbf1efb88	-0.62102556
146	0x3ebde865	0.37091365
147	0x3e90bbfa	0.28268415
148	0x3c80e4be	0.015734073
149	0x3e49d4af	0.19710039
150	0x3ead7bf0	0.3388362
151	0xbdd72764	-0.1050556
152	0x3eca9930	0.39569998
153	0x3ef4f178	0.47840476
154	0xbe578b99	-0.21049346
155	0xbdfa0a8b	-0.12209042
156	0xbeac4602	-0.33647162
157	0xbe870ce7	-0.2637703
158	0x3e99eedf	0.30065057
159	0xbe8b03bc	-0.27151287
160	0x3e6c9110	0.23102212
161	0xbdc605fd	-0.09669111
162	0xbdea5e65	-0.114437856
163	0x3ec25b83	0.37960443
164	0x3e5fff31	0.21874692
165	0x3e23f7ec	0.16012543
166	0x3db5752a	0.08860238
167	0x3cd41830	0.02589044
168	0xbda83146	-0.08212523
169	0xbdc45dbb	-0.0958819
170	0x3d5c9216	0.053850256
171	0x3d9abbdb	0.07555362
172	0xbe82e53f	-0.25565526
173	0xbdd0bba3	-0.10192039
174	0x3d3ab188	0.045579463
175	0xbea90c7c	-0.33017337
176	0x3e13a5cc	0.14418715
177	0x3dfbba81	0.12291432
178	0xbdaf4aa9	-0.08559162
179	0xbeed5c79	-0.46359614
180	0xbe17759b	-0.14790957
181	0x3dbe14ef	0.092813365
182	0x3e4f0682	0.20217326
183	0x3e4825f4	0.19545728
184	0xbe63b235	-0.2223595
185	0xbe66c846	-0.22537336
186	0xbda1d63b	-0.07902189
187	0x3e139294	0.14411384
188	0x3c179fb4	0.009254385
189	0x3e399a2a	0.18125215
190	0xbe604fa1	-0.21905376
191	0x3d04ca10	0.032419264
192	0x3d22618a	0.0396438
193	0xbb5609fe	-0.0032659764
194	0xbdcb3e71	-0.09924019
195	0x3dd76cd8	0.10518807
196	0xbe993c97	-0.2992904
197	0x3cadc980	0.021214247
198	0xbe271a2b	-0.16318576
199	0xbd3be4d4	-0.045872524
200	0x3cb89839	0.022533523
201	0xbe5a2938	-0.21304786
202	0xbe416fc7	-0.18890296
203	0x3e4edb4d	0.20200844
204	0xbc8408bd	-0.016117448
205	0xbf0415b9	-0.51595646
206	0xbd5bb118	-0.053635687
207	0xbfca26ad	-1.5793053
208	0xbd6eea07	-0.058328655
209	0x3c9343b5	0.017976621
210	0xbe570671	-0.20998551
211	0xbdea6a76	-0.11446087
212	0x3e4598d3	0.19296579
213	0xbc4fab2e	-0.01267509
214	0xbe9400a4	-0.2890674
215	0xbe5e0db5	-0.21684916
216	0xbe8c810b	-0.27442202
217	0x3e149171	0.14508606
218	0x3c17c4eb	0.0092632575
219	0x3e18301c	0.14862102
220	0xbdf92565	-0.121653356
221	0x3e27b8a4	0.16379029
222	0xbea8821d	-0.3291177
223	0xbdd3528c	-0.10318479
224	0xbe314356	-0.17310843
225	0xbdcd3f2a	-0.10021813
226	0xbd975c1b	-0.073906146
227	0xbe0fa5d2	-0.14028099
228	0x3ebbd456	0.36685437
229	0x3ea570b4	0.32312548
230	0x3e3da5b3	0.1852024
231	0x3cebc2a6	0.028779339
232	0x3eabeee6	0.33580703
233	0x3ec1c821	0.37848
234	0x3d71b0b1	0.059006397
235	0xbdbe9a72	-0.09306802
236	0xbdb18ec1	-0.08669806
237	0x3e5aeb7e	0.21378896
238	0x3e17def3	0.14831142
239	0x3e1b78e7	0.1518284
240	0x3ecbd44b	0.39810404
241	0xbe2c6780	-0.16836357
242	0x3e7dd7d1	0.24789359
243	0x3e999e14	0.30003417
244	0xbcccaad7	-0.024983807
245	0x3d0588b7	0.032601085
246	0x3e231454	0.15925723
247	0xbee71d40	-0.45139503
248	0xbd909903	-0.07060435
249	0x3e51524c	0.2044155
250	0x3cf39038	0.029731855
251	0x3e8956af	0.26823947
252	0x3dac4587	0.08411699
253	0xbdb4164c	-0.08793315
254	0x3e186971	0.14883973
255	0x3e548b78	0.20756328

critic.0.bias f4 [64]
0	0xbe7256ff	-0.23665999
1	0x3eda699b	0.42658696
2	0xbe5e8ce9	-0.2173344
3	0xbe0589ff	-0.13040923
4	0xbe97b8e0	-0.29633236
5	0xbd93ad3c	-0.07210776
6	0xbe3638bc	-0.1779508
7	0x3ebf98d2	0.3742128
8	0xbef0586b	-0.46942458
9	0xbebd7338	-0.37001967
10	0xbe0bff23	-0.13671546
11	0x3d904dae	0.07046066
12	0x3f02dbd4	0.5111668
13	0x3e030ded	0.12798281
14	0xbe99edaa	-0.30064136
15	0x3e9cd4bc	0.30631053
16	0x3ec06de1	0.3758383
17	0x3e00d5cf	0.12581562
18	0x3f2ccaa7	0.6749672
19	0xbeb747fb	-0.35797104
20	0xbe34a2c0	-0.17640209
21	0xbd47d1a5	-0.048783917
22	0x3e166b98	0.14689481
23	0xbf0d0d2a	-0.5509821
24	0x3dd83eaf	0.10558831
25	0x3ece2f86	0.40270633
26	0x3ea9db3f	0.33175084
27	0x3e9d9e77	0.30784962
28	0x3d6caf26	0.057784222
29	0x3f16da9f	0.5892734
30	0xbea53a58	-0.32271075
31	0x3ef433bc	0.4769572
32	0xbf110410	-0.56646824
33	0x3d6cb986	0.057794116
34	0x3c48a0fc	0.012245413
35	0x3c19e744	0.009393517
36	0xbe8718fd	-0.26386252
37	0xbe695baa	-0.22788873
38	0xbdbb516d	-0.0914639
39	0x3ed02eae	0.40660614
40	0xbe8130a7	-0.2523243
41	0xbf1c97fe	-0.6116942
42	0xbf0e912e	-0.55690277
43	0xbdc9f369	-0.0986088
44	0x3f0b1314	0.54325986
45	0xbd99c6d9	-0.0750863
46	0xbdbdfc68	-0.09276658
47	0xbf1939fc	-0.598541
48	0x3deb217a	0.114809945
49	0x3e337003	0.17523198
50	0x3eaa294e	0.33234638
51	0xbf16b35e	-0.5886744
52	0xbec47b70	-0.38375425
53	0xbeac1e98	-0.3361709
54	0xbe401c25	-0.18760736
55	0xbd9c316b	-0.07626613
56	0xbda5da18	-0.08098239
57	0x3e8a9ac1	0.27071193
58	0xbdda1bc1	-0.10649825
59	0x3e0ae2cc	0.13563079
60	0xbe94c9c0	-0.29060173
61	0x3ccd27b6	0.02504335
62	0xbe7d1d39	-0.24718179
63	0xbf273a03	-0.65322894

critic.2.weight f4 [64, 64]
0	0x3ea56900	0.3230667
1	0x3cd5e54d	0.026110316
2	0xbde3430e	-0.11096774
3	0x3e6de7f6	0.23233017
4	0x3d6bd6e8	0.057577997
5	0x3db3998e	0.087695226
6	0xbe6ead10	-0.23308206
7	0x3df0b092	0.11752428
8	0x3ca631e3	0.02028746
9	0xbe7c9c2c	-0.2466895
10	0x3e47f1f9	0.19525899
11	0xbe330e64	-0.17485958
12	0xbd53fab3	-0.051752757
13	0x3d45bc74	0.048275426
14	0xbd3948e3	-0.045235526
15	0xbdf36166	-0.11883812
16	0xbe692942	-0.22769645
17	0xbca2be26	-0.01986606
18	0x3cfb22d4	0.030656256
19	0xbdbb7ffc	-0.091552705
20	0x3e3ec479	0.18629636
21	0xbde1a462	-0.11017682
22	0x3e35dcc1	0.17759992
23	0xbe97f4ce	-0.2967896
24	0xbdfb6d8d	-0.122767545
25	0x3dbd5627	0.09244948
26	0xbdf77abb	-0.12083956
27	0x3e3dc5cb	0.18532483
28	0xbca63fd1	-0.020294102
29	0x3f3726a6	0.7154335
30	0xbe7b693e	-0.24551865
31	0x3d82c1e6	0.063846394
32	0xbe0c5f1d	-0.13708158
33	0x3de2077b	0.11036583
34	0xbe3e7bf1	-0.18601967
35	0x3d8596ac	0.06522879
36	0x3c70ef66	0.014705515
37	0xbe9e8398	-0.30959773
38	0xbd4624a5	-0.04837479
39	0xbe7f701e	-0.24945113
40	0xbe6e368c	-0.23262995
41	0xbe06658b	-0.13124673
42	0x3dfdb96d	0.12388883
43	0x3dfa77ba	0.12229867
44	0x3b501461	0.0031750428
45	0x3d5c621d	0.053804506
46	0xbd17c37a	-0.037051655
47	0xbdb02ce8	-0.08602315
48	0x3e87ebe6	0.26547164
49	0x3cb165e8	0.021655038
50	0x3da1d38c	0.079016775
51	0xbc9027f1	-0.01759717
52	0x3ccd206d	0.025039876
53	0x3e69baec	0.22825211
54	0xbd3057a4	-0.04305233
55	0xbe217a6b	-0.15769355
56	0x3e806893	0.25079784
57	0x3dadb1dd	0.0848119
58	0xbe2dc4b0	-0.16969562
59	0x3c6a175e	0.014287798
60	0x3c7a6dcb	0.015284966
61	0x3e34ed9f	0.1766877
62	0x3e48d7ba	0.19613543
63	0xbef5a783	-0.47979364
64	0x3c935e2d	0.017989242
65	0xbe349dff	-0.17638396
66	0xbd850ce7	-0.064966016
67	0x3da43ecc	0.0801979
68	0xbe1462d5	-0.14490826
69	0x3dfa3d08	0.12218672
70	0xbe528396	-0.20558009
71	0xbd128ab9	-0.035776827
72	0x3f057d1a	0.52144015
73	0xbd7b1a9e	-0.06130468
74	0x3beaec43	0.007169278
75	0x3e789f2a	0.24279466
76	0xbda34172	-0.07971467
77	0x3cbc6f0c	0.02300217
78	0x3e0b1293	0.13581304
79	0x38b1c68e	8.4770014e-05
80	0x3db4cae7	0.08827763
81	0x3e1a3e3e	0.15062806
82	0xbea5f02f	-0.32409808
83	0xbdd7cf41	-0.105375774
84	0x3e0c9272	0.1372774
85	0x3dddb745	0.108259715
86	0xbd663704	-0.05620481
87	0x3de7c2f0	0.11316478
88	0xbe67b21b	-0.22626536
89	0x3d1b77f9	0.03795621
90	0xbdfdcd60	-0.12392688
91	0x3cb97816	0.02264027
92	0xbe3f960d	-0.18709584
93	0xbe938287	-0.28810522
94	0xbe60b4d4	-0.2194398
95	0x3e93a37e	0.28835672
96	0x3d6535e3	0.055959594
97	0x3dfd4ece	0.123685464
98	0x3e9a71d4	0.3016497
99	0xbe175d9d	-0.14781804
100	0xbe5cbbb4	-0.21555978
101	0x3df308e4	0.1186693
102	0xbd6ff70e	-0.05858522
103	0x3e7ed9ce	0.24887773
104	0xbe8ab66f	-0.2709231
105	0x3d827614	0.06370178
106	0x3d9a4617	0.075329
107	0xbe5f0a9a	-0.21781388
108	0xbe265efb	-0.1624717
109	0x3d79aa49	0.060953412
110	0xbc8af4f5	-0.016962508
111	0xbd220f9f	-0.03956568
112	0x3d9dac31	0.076988585
113	0xbdaff024	-0.08590725
114	0x3e328739	0.17434396
115	0xbf02b5ee	-0.5105885
116	0xbdd864eb	-0.105661236
117	0x3e2c869c	0.16848224
118	0x3cdba967	0.026814176
119	0x3cce5bd6	0.025190275
120	0x3d3ad35d	0.045611728
121	0x3c7010c5	0.014652436
122	0x3dafdaca	0.085866526
123	0x3e1212a0	0.14264917
124	0xbe548120	-0.20752382
125	0x3c05f924	0.008177076
126	0x3c75c7e8	0.015001275
127	0x3ea88d2e	0.32920212
128	0x3cad62d4	0.021165289
129	0x3f0a5ffb	0.54052705
130	0x3e310243	0.17286019
131	0xbcbafe5d	-0.022826368
132	0x3e02aa11	0.12760188
133	0xbdc9e1b4	-0.098575026
134	0xbd8640dc	-0.0655534
135	0x3ea36c8a	0.31918746
136	0x3cad3409	0.021142976
137	0x3e13cc88	0.14433491
138	0x3ea3b3e0	0.3197317
139	0x3e46f8c2	0.19430831
140	0xbd4b9b56	-0.049708687
141	0xbe387f8f	-0.1801741
142	0xbdef3ef2	-0.11681928
143	0xbd463faa	-0.04840056
144	0xbe19b17d	-0.15009113
145	0xbe2ec51a	-0.17067376
146	0x3e9b7d17	0.30368873
147	0x3e983028	0.2972424
148	0xbe116d1a	-0.14201775
149	0xbd760339	-0.060061667
150	0x3dec4197	0.11535948
151	0xbeaee5aa	-0.34159595
152	0xbdd1253d	-0.10212181
153	0x3e3ee482	0.18641856
154	0x3e25c5fe	0.1618881
155	0x3db4e9ad	0.088336326
156	0xbd81d04b	-0.06338557
157	0x3e1b75c9	0.1518165
158	0xbc6cce6f	-0.0144535145
159	0x3d9d910a	0.0769368
160	0x3db8385d	0.089951254
161	0x3db8ed0c	0.09029588
162	0xbe8865eb	-0.26640257
163	0x3e24cae6	0.16093025
164	0xbe205b60	-0.15659857
165	0x3d59645b	0.053074222
166	0xbda7f60c	-0.082012266
167	0x3e4c35aa	0.19942346
168	0x3e3b0bba	0.18266192
169	0x3d40a1fb	0.047029477
170	0xbdc62c30	-0.09676397
171	0xbea3beed	-0.31981602
172	0x3ed2ef60	0.41198254
173	0xbbeb34ad	-0.0071779103
174	0xbe4ddb23	-0.20103125
175	0xbec5527b	-0.3853949
176	0x3db6b7c9	0.08921773
177	0x3ddf2b39	0.10896916
178	0xbe2a7b31	-0.16648556
179	0xbe325c01	-0.17417909
180	0xbe50703b	-0.20355313
181	0x3d558c28	0.052135617
182	0x3d8d5f04	0.069028884
183	0x3ea1a09e	0.31567854
184	0x3e37400a	0.17895523
185	0x3d63b294	0.055590227
186	0xbde4c269	-0.11169893
187	0xbe175d20	-0.14781618
188	0x3d85eefb	0.065397225
189	0x3d499ff9	0.049224827
190	0xbe0da579	-0.13832654
191	0xbe8d5ac7	-0.2760832
192	0xbe9abd3f	-0.30222508
193	0x3d8cade2	0.06869103
194	0x3dcdf3e7	0.10056286
195	0x3da8a0a0	0.08233762
196	0x3d64fa8f	0.055903014
197	0xbde688b7	-0.11256545
198	0xbd87dc89	-0.066338606
199	0xbd04a6c3	-0.0323856
200	0xbd1e2d59	-0.038617466
201	0x3e000343	0.12501244
202	0xbc89c859	-0.016819166
203	0x3e2eb52e	0.17061302
204	0x3dfdca3b	0.12392088
205	0x3ddd37a3	0.108016275
206	0xbcf0107a	-0.029304732
207	0x3dda683a	0.10664411
208	0xbdb60dc2	-0.08889343
209	0xbbd64ff5	-0.0065402933
210	0x3daf40f1	0.085573085
211	0xbe240968	-0.16019213
212	0xbd5b2239	-0.053499434
213	0xbc8da3b4	-0.017289974
214	0xbd8c6759	-0.068556495
215	0xbd66a493	-0.056309294
216	0xbdda166d	-0.10648809
217	0x3e00a66a	0.12563482
218	0x3b92796c	0.004470041
219	0x3dded119	0.10879726
220	0x3dd9eeed	0.106412746
221	0x3e446149	0.19177736
222	0xbd430a94	-0.04761751
223	0xbe5176f9	-0.2045554
224	0x3e0762e7	0.13221322
225	0x3ec41de9	0.3830407
226	0xbe2e6e46	-0.17034253
227	0xbe0535e3	-0.13008837
228	0x3e3fa54b	0.18715398
229	0x3e55220a	0.20813766
230	0x3dac4fa8	0.08413631
231	0xbeca7ecc	-0.39549863
232	0xbc7cad79	-0.0154222185
233	0x3dc2f38c	0.09519109
234	0x3e5ff28f	0.21869873
235	0x3d46c814	0.048530653
236	0x3f49f2ad	0.7888592
237	0x3cdcc708	0.026950374
238	0xbd7b584b	-0.0613635
239	0x3de4988a	0.11161907
240	0xbb85750e	-0.004072792
241	0x3ca7ea4e	0.020497467
242	0x3e5d5126	0.21612987
243	0x3dcb2368	0.099188626
244	0x3e5cc7e6	0.2156063
245	0x3e49f9bc	0.19724172
246	0xbe3a3c85	-0.18187149
247	0x3e40c727	0.1882597
248	0x3de217e9	0.11039717
249	0x3e92223f	0.28541753
250	0x3ac77139	0.0015216238
251	0x3cb3899f	0.021916209
252	0xbe5afa9b	-0.21384661
253	0xbe11867c	-0.14211458
254	0xbe3b5cab	-0.18297069
255	0xbef6f2d6	-0.48232144

critic.2.bias f4 [64]
0	0x3ec1a379	0.37820032
1	0xbebbede5	-0.36704937
2	0x3f016479	0.50543934
3	0x3ee06f51	0.43834928
4	0x3edc5265	0.43031612
5	0xbebfabbf	-0.3743572
6	0xbea1b5cd	-0.31584015
7	0x3ef42cfa	0.47690564
8	0xbec8a435	-0.3918778
9	0x3ed57015	0.41687074
10	0x3ecd7d8a	0.4013484
11	0xbed886e7	-0.42290422
12	0xbedbb51b	-0.4291161
13	0x3efdbfdc	0.4956044
14	0x3ee812f3	0.45326957
15	0x3ed65f54	0.41869605
16	0xbe7854fe	-0.24251172
17	0xbea598ce	-0.32343143
18	0x3eef643c	0.4675616
19	0xbece4ffe	-0.40295404
20	0x3e981480	0.2970314
21	0x3ebfa6ff	0.37432095
22	0xbec9e61b	-0.3943337
23	0x3f114045	0.5673869
24	0x3ec03e7a	0.37547666
25	0xbede75cb	-0.43449244
26	0x3e9cd0ad	0.30627957
27	0xbef18475	-0.4717137
28	0x3ef5a7ad	0.4797949
29	0x3f033356	0.5125021
30	0xbecc678b	-0.39922747
31	0x3e9eb3e8	0.30996633
32	0xbf0f4729	-0.55967957
33	0x3ecb7ca0	0.3974352
34	0xbed57a6f	-0.41694972
35	0x3edf1602	0.43571478
36	0xbec73fd5	-0.38915887
37	0x3f0515e4	0.5198653
38	0xbee28b1d	-0.4424676
39	0x3ec7e3fe	0.39041132
40	0xbefd1079	-0.4942663
41	0xbe51cf9e	-0.20489356
42	0xbed370d6	-0.41297024
43	0x3ebb2786	0.3655359
44	0x3ed9406b	0.4243196
45	0xbea8ceec	-0.3297037
46	0x3ec1cea6	0.37852973
47	0x3f03c896	0.51477945
48	0xbee9760d	-0.45597878
49	0xbeccf64c	-0.4003166
50	0x3ec763d9	0.38943365
51	0xbeceb4cf	-0.4037232
52	0x3ea45e8f	0.32103392
53	0xbf11cde5	-0.56954795
54	0xbe7b2cc6	-0.24528798
55	0xbe873735	-0.26409307
56	0xbed36705	-0.41289535
57	0xbedafcb9	-0.42770937
58	0xbebaa965	-0.36457363
59	0xbec7a17c	-0.3899039
60	0x3ed24b6e	0.41073173
61	0xbee73c8b	-0.45163378
62	0xbf0c66cd	-0.5484436
63	0xbea9d3c2	-0.3316937

critic.4.weight f4 [2, 64]
0	0x3dac9174	0.084261805
1	0xbcedaa05	-0.029011736
2	0x3dba14c2	0.090859905
3	0x3d6c7466	0.057728194
4	0x3e0d1b0b	0.13779847
5	0xbe330112	-0.17480877
6	0xbe00fc39	-0.12596215
7	0x3db5fff3	0.08886709
8	0x3c9713fe	0.01844215
9	0x3e2f730b	0.17133729
10	0x3dd473cf	0.10373651
11	0xbb26ac38	-0.002543224
12	0xbcba99a0	-0.022778332
13	0x3ddd1282	0.10794546
14	0x3de0aa8a	0.10970028
15	0xbd9d770f	-0.07688724
16	0xbe48a8ea	-0.19595686
17	0xbdf9676b	-0.121779285
18	0x3b28051b	0.0025637809
19	0xbd55d8ca	-0.0522087
20	0x3e44c610	0.1921618
21	0x3e42d2a8	0.19025671
22	0xbe674673	-0.22585468
23	0x3d3ca557	0.046056118
24	0x3df94cec	0.12172875
25	0x3cef1b5b	0.029187849
26	0x3e9d7af8	0.3075788
27	0xbd404ff3	-0.046951246
28	0x3d36ff64	0.044677153
29	0xbd22e40f	-0.039768275
30	0xbe41e570	-0.1893518
31	0x3db76af4	0.089559466
32	0xbdfab24b	-0.12241038
33	0x3e0893d0	0.13337636
34	0xbdef8c4e	-0.11696683
35	0x3d686ba8	0.056743294
36	0xbe0ec574	-0.1394251
37	0x3dc65ecb	0.09686049
38	0xbdef8423	-0.11695125
39	0x3db4ad23	0.08822086
40	0xbde3d394	-0.1112434
41	0x3d0a34e8	0.03374186
42	0xbe5284ec	-0.20558518
43	0x3e30b53a	0.17256632
44	0x3dcb8619	0.099376865
45	0x3e185ebe	0.14879891
46	0x3dec3d4e	0.115351304
47	0x3dd2542c	0.10269961
48	0x3d2d4fac	0.04231231
49	0xbda95392	-0.08267893
50	0x3de1d75d	0.110274054
51	0xbdbf6ab8	-0.09346527
52	0x3db73079	0.08944792
53	0x3ce04c75	0.027380208
54	0x3df47f0c	0.11938295
55	0xbe136a88	-0.14396107
56	0xbd25cc9b	-0.04047833
57	0xbdead001	-0.11465455
58	0xbdb2d9d6	-0.08732955
59	0xbe184ad3	-0.14872293
60	0xb9c357a7	-0.00037258604
61	0x3c7ac025	0.0153046
62	0x3d4185fd	0.04724692
63	0x3e366953	0.17813616
64	0x3eca9e81	0.39574054
65	0xbe3bfcd1	-0.1835816
66	0x3ec19cea	0.37815028
67	0x3f15a037	0.58447593
68	0x3f06e075	0.52686244
69	0xbf30201f	-0.6879901
70	0xbf35f2a8	-0.7107339
71	0x3eeb6390	0.45974398
72	0xbf1c3470	-0.61017513
73	0x3f0b11ed	0.5432423
74	0x3e9fc990	0.31208467
75	0xbf2be903	-0.6715242
76	0xbf1adb1c	-0.60490584
77	0x3f054ff1	0.52075106
78	0x3f1ae352	0.60503113
79	0x3f4051cc	0.7512481
80	0xbf3db68f	-0.7410669
81	0xbf157c7d	-0.5839308
82	0x3f18242c	0.59430194
83	0xbec23273	-0.37929115
84	0x3f0bfe7b	0.5468518
85	0x3ec4e628	0.38456845
86	0xbee58c52	-0.44833618
87	0x3ebe9e03	0.37229928
88	0x3f3a5aed	0.7279499
89	0xbecfab27	-0.40560266
90	0x3f2844d2	0.6573001
91	0xbe9256a5	-0.2858173
92	0x3ecc74d8	0.39932895
93	0x3edfdd08	0.4372332
94	0xbf354184	-0.70803094
95	0x3e66a81a	0.22525063
96	0xbf09d316	-0.53837717
97	0x3f054be0	0.520689
98	0xbf1b9b83	-0.6078417
99	0x3f02056b	0.5078952
100	0xbef4a6e2	-0.4778357
101	0x3efa71ae	0.48914856
102	0xbf06748f	-0.52521604
103	0x3f3050ed	0.6887348
104	0xbf17186f	-0.5902166
105	0xbe970a3c	-0.29499996
106	0xbee9cb73	-0.45663032
107	0x3f102717	0.56309646
108	0x3f2a246f	0.66461843
109	0xbe1d5197	-0.15363155
110	0x3f272aa1	0.6529942
111	0x3f14678e	0.5797051
112	0xbef94e5a	-0.4869259
113	0xbf2884e6	-0.65827787
114	0x3f184bc7	0.5949063
115	0xbf106141	-0.563984
116	0x3f41a73c	0.75645804
117	0xbf0da20e	-0.553254
118	0xbe8c9201	-0.27455142
119	0xbe6f3bcf	-0.23362659
120	0xbf2069ef	-0.6266164
121	0xbf245372	-0.6418983
122	0xbf30bad1	-0.6903506
123	0xbf37367a	-0.715675
124	0x3f2f6045	0.6850627
125	0xbf1b0c28	-0.60565424
126	0xbea30df2	-0.31846577
127	0xbd813cbe	-0.06310414

critic.4.bias f4 [2]
0	0x3dfbecd1	0.123010285
1	0x3ef1ca6f	0.47224757

actor_mean.0.weight f4 [64, 69]
0	0x3e6ac25e	0.22925708
1	0xbd5c6ca8	-0.05381456
2	0xbe6e9895	-0.23300393
3	0x3e842281	0.25807574
4	0x3d901d27	0.0703681
5	0x3e901df7	0.2814786
6	0xbe026320	-0.12733126
7	0xbd711d5f	-0.0588659
8	0x3dccf429	0.10007507
9	0xbdbaabdd	-0.091148116
10	0xbe3d8ae3	-0.18510012
11	0xbdd74b32	-0.10512389
12	0x3d9171ab	0.071017586
13	0x3dcab8bf	0.09898519
14	0x3e8794cc	0.2648071
15	0x3e26f706	0.1630517
16	0xbe20320e	-0.15644094
17	0x3da9d7da	0.082931235
18	0xbd8ff650	-0.07029402
19	0x3c07e281	0.008293749
20	0xbddebc06	-0.108757064
21	0xbdc287a9	-0.09498531
22	0xbd84f93f	-0.064928524
23	0xbe243187	-0.16034518
24	0xbe92af5e	-0.2864942
25	0xbd35aeac	-0.044356033
26	0xbdc5100e	-0.09622203
27	0xbdd20e95	-0.102566876
28	0xbc31de87	-0.010856277
29	0x3e95d579	0.2926443
30	0xbe458d13	-0.19292097
31	0xbd738832	-0.059456058
32	0xbe98bbff	-0.2983093
33	0xbd8ec99c	-0.06972048
34	0x3de61fd6	0.11236541
35	0x3c96a930	0.018391222
36	0xbe3ee05d	-0.18640275
37	0xbea8a066	-0.32934874
38	0xbc8e46fa	-0.017367829
39	0xbefa68db	-0.48908123
40	0x3ceadae7	0.028668834
41	0x3dc0d432	0.09415473
42	0xbd363a44	-0.04448916
43	0x3de13a5a	0.10997458
44	0xbdd2263e	-0.102612
45	0xbe2dbef5	-0.16967376
46	0x3d36149b	0.044453245
47	0xbe590511	-0.21193339
48	0xbdd3eacf	-0.103475206
49	0xbe145964	-0.14487225
50	0x3ec3e606	0.3826143
51	0x3da33dcb	0.079707704
52	0x3e523987	0.20529757
53	0x3ac47be7	0.0014990539
54	0x3e482d46	0.1954852
55	0xbe4a2ec4	-0.19744402
56	0x3db134c7	0.086526446
57	0x3c35d155	0.011097272
58	0x3c8541af	0.016266672
59	0x3d4a019e	0.04931795
60	0xbe4eeace	-0.20206758
61	0xbe5f4b17	-0.21805988
62	0x3e95490b	0.2915729
63	0xbe47504f	-0.19464229
64	0x3e06dd02	0.13170245
65	0x3cb7294d	0.022358561
66	0xbe8a4451	-0.27005246
67	0xbd8e56ac	-0.06950125
68	0xbdafa4d6	-0.08576362
69	0xbe5acead	-0.21367903
70	0xbd3c2981	-0.04593802
71	0xbe8b8358	-0.27248645
72	0xbc0eb4c4	-0.00871009
73	0x3e9dfdfd	0.3085784
74	0xbd641568	-0.055684477
75	0xbd786642	-0.060644396
76	0xbcc98270	-0.02459833
77	0xbe5abded	-0.21361513
78	0x3cd3f3e2	0.025873128
79	0xbcc841d1	-0.024445446
80	0xbdc309e4	-0.09523371
81	0x3cf9837b	0.030458203
82	0x3e137b50	0.14402509
83	0xbea37c43	-0.31930742
84	0xbd80c50a	-0.06287582
85	0xbe106db5	-0.1410435
86	0x3c9b12fb	0.018929949
87	0x3de4a93b	0.11165091
88	0x3d2ae621	0.041723374
89	0xbe298393	-0.16554098
90	0xbd97993d	-0.07402275
91	0x3e336fee	0.17523167
92	0xbe74c35e	-0.23902652
93	0x3d81c22e	0.06335865
94	0xbd8e8238	-0.06958431
95	0x3ce69a2d	0.028149689
96	0xbcef6b29	-0.029225903
97	0xbec009ca	-0.37507468
98	0x3ebe63b9	0.37185457
99	0x3d5e735b	0.05430923
100	0xbe067161	-0.13129188
101	0xbe484f9c	-0.19561619
102	0x3d81f3ec	0.063453525
103	0x3e998805	0.29986587
104	0x3d830172	0.0639676
105	0x3e899f31	0.26879266
106	0xbd8fccb1	-0.07021464
107	0xbe75e729	-0.24013962
108	0xbe39367b	-0.18087189
109	0xbe56990a	-0.20956817
110	0x3e2a4bed	0.16630526
111	0x3e86ef9d	0.26354685
112	0xbe268326	-0.16260967
113	0xbd907b64	-0.07054785
114	0x3e289ee7	0.16466866
115	0xbe646d86	-0.22307405
116	0x3deda343	0.11603405
117	0x3e459a86	0.19297227
118	0x3e041f70	0.12902617
119	0x3dbdc863	0.09266736
120	0xbdf9b100	-0.12191963
121	0xbe206aa6	-0.15665683
122	0xbc7ffd47	-0.015624351
123	0xbc2283ee	-0.00991915
124	0x3e83db14	0.2575308
125	0x3ecb6fd3	0.39733753
126	0xbe7b46b2	-0.24538687
127	0xbea98d49	-0.33115605
128	0x3e1ca9ad	0.15299101
129	0xbd92d754	-0.07169977
130	0xbd95132f	-0.072790496
131	0xbdab94da	-0.083780006
132	0xbdd84ef7	-0.10561936
133	0x3d5f7f46	0.054564737
134	0xbe181468	-0.14851534
135	0x3dd0f880	0.102036476
136	0xbeaa1acf	-0.33223578
137	0xbdbbc084	-0.09167579
138	0xbe983a1b	-0.2973183
139	0xbdede506	-0.116159484
140	0xbceedd98	-0.029158399
141	0x3e451cad	0.1924922
142	0x3dd70385	0.10498718
143	0xbc06e9b4	-0.00823443
144	0x3e9e5a78	0.30928397
145	0xbe698c12	-0.22807339
146	0xbd13c90e	-0.036080413
147	0xbe24d55b	-0.16097014
148	0xbdc95562	-0.098307386
149	0x3d910f95	0.0708305
150	0xbd01f3e7	-0.031726744
151	0xbd3f390d	-0.046685267
152	0x3c51bf71	0.012801991
153	0xbdd0c1a6	-0.101931855
154	0x3d5043bf	0.050845858
155	0x3e20e7b4	0.15713388
156	0x3e8ed119	0.27893904
157	0xbdda557a	-0.106608346
158	0x3e1c78d2	0.15280464
159	0xbd2fa15b	-0.04287849
160	0xbe5bbef2	-0.21459559
161	0x3e2871fb	0.1644973
162	0x3e1d4e08	0.15361798
163	0xbe96debb	-0.29466805
164	0xbde018ff	-0.109422676
165	0xbd8b5f61	-0.068053015
166	0x3e6882b6	0.22706112
167	0xbe6c1794	-0.2305587
168	0x3e3ec9b3	0.1863163
169	0x3e74b815	0.23898347
170	0xbe25c319	-0.16187705
171	0xbe8afa5e	-0.2714414
172	0x3e1d1cc6	0.15343007
173	0xbcdc71f2	-0.026909802
174	0x3e4999a8	0.19687521
175	0x3e47e7d6	0.19522032
176	0x3cecf86c	0.02892705
177	0x3ce724bd	0.02821576
178	0xbf01df22	-0.507311
179	0xbe1b9c31	-0.15196301
180	0xbe702963	-0.23453288
181	0xbd038d22	-0.032117017
182	0x3dc32531	0.09528578
183	0xbcf3fee4	-0.029784627
184	0x3cb7726d	0.02239343
185	0xbdc66b8f	-0.09688484
186	0xbe2cb375	-0.16865332
187	0xbe8a83bf	-0.2705364
188	0xbcc2e837	-0.02379237
189	0x3ea7e003	0.32788095
190	0x3dd3699c	0.10322878
191	0xbde727ab	-0.11286863
192	0x3e48b68a	0.19600883
193	0xbe4637fd	-0.19357295
194	0x3ceb07a2	0.028690163
195	0x3e83f2ad	0.25771084
196	0x3e4a85b9	0.19777574
197	0x3d38740e	0.045032553
198	0xbe6dfad7	-0.23240219
199	0x3e8d8184	0.27637875
200	0xbe5ec2e1	-0.21754028
201	0x3d15bca9	0.036556873
202	0xbde9211d	-0.11383269
203	0x3c1564ae	0.009118242
204	0x3cf3cd1e	0.029760893
205	0xbdecce7d	-0.11562822
206	0xbe3a0512	-0.18165997
207	0xbdf66cf2	-0.120324984
208	0x3dabf797	0.083968334
209	0x3e873e85	0.26414886
210	0x3dc1cab6	0.09462492
211	0x3e10b32b	0.14130847
212	0xbe014a7e	-0.12626073
213	0xbc6d24b1	-0.01447408
214	0x3ca1d8cc	0.019756697
215	0x3dc7209e	0.09723018
216	0xbedba3db	-0.4289845
217	0x3ebc2261	0.3674498
218	0x3e544db1	0.20732762
219	0x3dcb5934	0.099291235
220	0xbd1b483c	-0.037910685
221	0xbdc6bf37	-0.0970444
222	0x3e21e4da	0.15809956
223	0xbd116e2b	-0.035505455
224	0x3eaae339	0.33376482
225	0xbe237cb8	-0.15965545
226	0xbdc7c880	-0.09755039
227	0x3e8f2373	0.27956733
228	0xbe45a9fb	-0.19303124
229	0x3e083f32	0.13305357
230	0xbc9ce404	-0.019151695
231	0xbe6c0065	-0.23047026
232	0xbde77410	-0.11301434
233	0x3de665b1	0.11249865
234	0x3e8e6527	0.27811548
235	0x3dae77f7	0.08518975
236	0x3e77b1c9	0.24188913
237	0xbd32da9c	-0.043665513
238	0x3e1ca3c5	0.15296848
239	0x3dc33a59	0.09532613
240	0xbc17f71c	-0.009275224
241	0x3e1043c9	0.14088358
242	0x3d9c4dfc	0.07632062
243	0x3d46aa4c	0.04850225
244	0xbe24da52	-0.16098908
245	0x3e35f356	0.17768607
246	0x3e1d69d3	0.153724
247	0x3e1f0115	0.15527757
248	0x3c145d51	0.0090554515
249	0x3e6e2c4d	0.23259087
250	0xbe700291	-0.23438479
251	0xbd8925fd	-0.06696699
252	0xbdb4060d	-0.087902166
253	0xbe0fe83c	-0.14053434
254	0xbdd98c8f	-0.106225125
255	0x3d99339e	0.07480548

actor_mean.0.bias f4 [64]
0	0xbcf77472	-0.030206893
1	0x3d50c95a	0.050973274
2	0x3ccfef9e	0.025382813
3	0x3dacf974	0.08446017
4	0x3dbeec50	0.09322417
5	0x3d413367	0.04716816
6	0xbd9ad5dd	-0.075603224
7	0xbc572eda	-0.013133729
8	0x3c2f8117	0.01071193
9	0x3d2d5677	0.042318787
10	0xbc7198bd	-0.014745888
11	0xbc57079d	-0.013124374
12	0x3d00b336	0.03142091
13	0x3d815697	0.06315344
14	0xbe047b86	-0.12937745
15	0x3c3e1626	0.01160196
16	0xbd4ad307	-0.049517658
17	0x3da1f3ed	0.07907853
18	0x3d5c19c5	0.053735513
19	0x3cfe0d9d	0.03101235
20	0xbaa054b4	-0.0012232275
21	0x3ca37bcc	0.019956492
22	0xbdc7f715	-0.09763924
23	0xbc9c5cb7	-0.019087179
24	0xbc83aafa	-0.016072739
25	0xbd0090da	-0.03138814
26	0x3d9007f7	0.07032769
27	0x3d3f1591	0.046651427
28	0x3dffca71	0.124897845
29	0xbc7269d0	-0.0147957355
30	0xbdf807ae	-0.1211084
31	0x39d4fefc	0.0004062577
32	0x3dbbab32	0.09163512
33	0x3d1f0212	0.038820334
34	0xbc989a21	-0.018628182
35	0x3d28a2ae	0.04117077
36	0xbd41eba9	-0.047343884
37	0x3ce12274	0.027482249
38	0x3cee6b76	0.029103976
39	0x3d853cb2	0.06505717
40	0x3d80a1a8	0.062808335
41	0xbcb4dec0	-0.022078872
42	0x3d8aef07	0.06783872
43	0x3dce03ab	0.10059293
44	0xbb112411	-0.0022146741
45	0xbc2f14fb	-0.0106861545
46	0xbcbd8a55	-0.02313725
47	0x3c0a5aaa	0.008444468
48	0xbc46b8fd	-0.012129066
49	0xbdaa7780	-0.08323574
50	0xbc3db4ec	-0.01157878
51	0xbccd34ce	-0.025049593
52	0xbd363b57	-0.044490185
53	0x3d679ecc	0.056547925
54	0xbcff29e0	-0.031147897
55	0xbc7cb878	-0.01542484
56	0x3d14d95e	0.03634011
57	0x3c16c6d4	0.009202678
58	0xbdcc3c76	-0.099724695
59	0x3b6ec745	0.0036434692
60	0x3c5a35af	0.013318463
61	0x3c4f6db2	0.012660431
62	0x3cfe2e22	0.031027857
63	0xbcffc0fc	-0.031219952

actor_mean.2.weight f4 [64, 64]
0	0xbca72052	-0.020401154
1	0x3e2b601d	0.16735883
2	0xbd1a9ad0	-0.037745297
3	0xbe70cb0e	-0.23514959
4	0xbd5d9ee3	-0.054106604
5	0x3deb30f7	0.11483949
6	0xbd0fb2bb	-0.03508256
7	0x3e468ae8	0.19388926
8	0x3de84637	0.113415174
9	0xbdf02749	-0.11726243
10	0x3eb83caf	0.35983798
11	0x3ea1c60d	0.31596413
12	0x3e98c933	0.29841003
13	0x3e3ff868	0.18747103
14	0xbea4672f	-0.32109973
15	0xbe94fefc	-0.29100788
16	0xbe47ea7b	-0.19523041
17	0x3ea17f53	0.31542453
18	0x3d3719cf	0.044702347
19	0x3d74af64	0.059737578
20	0xbe1f349e	-0.15547416
21	0x3ed69cbd	0.41916457
22	0xbd8df250	-0.06930983
23	0x3e89d9d9	0.26924017
24	0x3c071dc0	0.008246839
25	0x3d3f2211	0.046663348
26	0xbdd814b7	-0.10550826
27	0x3e88fbbf	0.26754567
28	0x3d95af11	0.07308782
29	0xbe488562	-0.19582132
30	0xbe2801ff	-0.16407011
31	0x3e58ae50	0.21160245
32	0xbdb6ec61	-0.089318044
33	0xbe924b0c	-0.2857288
34	0xbe3de29e	-0.18543479
35	0x3e81e45f	0.25369546
36	0xbe6d113e	-0.23151109
37	0xbde87881	-0.11351109
38	0x3da90be2	0.082542196
39	0xbe97445d	-0.29544345
40	0x3e052f2b	0.13006274
41	0xbdae7a15	-0.08519379
42	0xbe6fcd02	-0.23418048
43	0x3d8c276c	0.068434566
44	0xbe1cbdfd	-0.1530685
45	0xbd3e947a	-0.046528317
46	0xbea886f3	-0.32915458
47	0xbd94031c	-0.072271556
48	0x3e3e43b3	0.18580513
49	0xbca85bcc	-0.020551585
50	0xbd1dec55	-0.038555462
51	0xbcff51e0	-0.03116697
52	0xbc2d6378	-0.010582797
53	0xbd1348ac	-0.035957977
54	0xbd49966b	-0.049215715
55	0x3e33971a	0.1753811
56	0x3d52280c	0.051307723
57	0x3e35cc49	0.1775371
58	0xbaf148f9	-0.0018408588
59	0xbe5e55ff	-0.21712492
60	0x3d93f776	0.07224934
61	0x3e1d89f6	0.15384659
62	0xbea1124c	-0.31459272
63	0xbed939fd	-0.42427054
64	0xbd398439	-0.045292113
65	0x3e01c8e5	0.12674291
66	0xbe3c687b	-0.18399231
67	0x3d95e4f1	0.07319058
68	0x3dc0fc1c	0.09423086
69	0xbd84a189	-0.06476123
70	0xbeaa66e8	-0.33281636
71	0xbcbed395	-0.02329425
72	0xbd071dbf	-0.032987352
73	0xbe2233c3	-0.15840058
74	0xbe6e679d	-0.23281713
75	0x3bea912d	0.0071584196
76	0xbe4d1d7a	-0.20030776
77	0xbe4fe347	-0.20301543
78	0xbd6a9c37	-0.057277884
79	0xbdc6e63f	-0.09711885
80	0xbd152b0b	-0.036418002
81	0x3e5f81d7	0.21826874
82	0x3e2de2de	0.16981074
83	0xbe82e5a9	-0.25565842
84	0xbe2976c5	-0.16549213
85	0x3e329bb1	0.17442204
86	0x3e39889d	0.1811852
87	0x3eb69b1f	0.35665223
88	0x3b4de310	0.0031415857
89	0x3dee23be	0.11627911
90	0xbec53641	-0.38517955
91	0xbdf14cd9	-0.11782236
92	0x3ea88673	0.32915077
93	0xbe79b06e	-0.24383709
94	0x3d28d4af	0.041218456
95	0xbe87e00a	-0.26538116
96	0x3e3bb93b	0.18332379
97	0x3d97025c	0.07373497
98	0x3d8e61f5	0.069522776
99	0xbe0c84a2	-0.1372247
100	0xbe0f4869	-0.13992466
101	0xbe73d7c6	-0.2381278
102	0x3d2569ef	0.04038423
103	0x3ecc19e3	0.398635
104	0x3d77f02c	0.06053178
105	0xbdf88a3b	-0.1213574
106	0x3c825a60	0.015912235
107	0x3e1fd146	0.15607175
108	0xbecdbddf	-0.40183923
109	0x3d30bd17	0.04314908
110	0x3e25e53f	0.16200732
111	0xbe752922	-0.23941472
112	0xbe143c68	-0.14476168
113	0x3ca30ae5	0.019902656
114	0xbdf63f36	-0.12023775
115	0x3be02c8b	0.0068412474
116	0x3e966943	0.29377183
117	0x3e8741db	0.2641743
118	0xbb47f378	-0.003051011
119	0x3d8f98de	0.07011579
120	0x3e4ab5f1	0.19795968
121	0xbe96929f	-0.29408738
122	0x3d7760fa	0.06039522
123	0xbe95317e	-0.29139322
124	0x3e077639	0.13228692
125	0x3c616266	0.01375637
126	0xbc0c33d4	-0.008557279
127	0x3e7f17b3	0.24911384
128	0x3c77de96	0.015128752
129	0xbdc9bc6d	-0.098503925
130	0xbebae356	-0.3650157
131	0xbd9cc801	-0.07655335
132	0x3ab0c97c	0.0013487781
133	0x3dc877e1	0.0978849
134	0x3e2c106e	0.16803142
135	0x3e85a06b	0.26098952
136	0x3d7eed50	0.062238038
137	0xbe4da9fd	-0.20084377
138	0x3e990155	0.2988383
139	0x3e22cfa3	0.1589952
140	0xbe5ce571	-0.215719
141	0x3ed1e577	0.4099538
142	0x3ca63873	0.020290589
143	0xbddb13df	-0.106971495
144	0xba461633	-0.00075564085
145	0x3cb94dca	0.0226201
146	0x3dce1eb0	0.10064447
147	0x3e0e114e	0.13873789
148	0x3cadcc8d	0.021215701
149	0x3e007c02	0.12547305
150	0xbdf3eca3	-0.11910369
151	0x3e855519	0.26041487
152	0x3ddbbb4b	0.10729083
153	0xbe4fa6cb	-0.2027847
154	0xbbf6afee	-0.0075282967
155	0xbe8cdec4	-0.27513707
156	0xbd545b4a	-0.051844873
157	0x3e0ff887	0.1405965
158	0x3e7268f6	0.23672852
159	0xbc9219f8	-0.017834648
160	0x3e3cbdc5	0.18431766
161	0x3e8cabd3	0.2747484
162	0xbe3a03c3	-0.18165497
163	0x3e14d443	0.14534096
164	0xbe42d815	-0.19027741
165	0x3e09902c	0.13433903
166	0x3d52daa6	0.05147805
167	0xbdc69d41	-0.096979626
168	0x3e302413	0.17201261
169	0x3d7d3a44	0.061823145
170	0x3ea6186b	0.32440504
171	0x3e2c16ce	0.16805574
172	0xbe049567	-0.12947617
173	0x3e9d5547	0.30729124
174	0x3d8529fe	0.0650215
175	0x3e9924c9	0.29910877
176	0xbda8cd2c	-0.082422584
177	0x3e4d71fb	0.20063011
178	0xbebe3605	-0.3715059
179	0xbe52698e	-0.20548078
180	0xbe98462a	-0.2974103
181	0x3ea5d63b	0.32390007
182	0xbe4d006e	-0.20019695
183	0x3d46db18	0.048548788
184	0x3d36e02a	0.044647373
185	0xbc59a6c3	-0.013284388
186	0xbe1c1f46	-0.15246305
187	0x3e5634cf	0.20918582
188	0xbe77e31d	-0.2420773
189	0xbd063485	-0.03276493
190	0xbe96efb0	-0.29479742
191	0x3e654b34	0.22391969
192	0x3d6c3443	0.05766703
193	0xbe23f3c2	-0.16010955
194	0x3c96a85d	0.018390829
195	0xbe4591d8	-0.19293916
196	0x3e63d3b5	0.22248729
197	0xbdb84bb8	-0.08998817
198	0xbe094e64	-0.1340881
199	0x3db88a55	0.0901076
200	0x3df2c4a0	0.118539095
201	0x3e88a649	0.26689366
202	0xbdc47515	-0.09592644
203	0x3e8de7a1	0.2771578
204	0x3db2e2d7	0.087346725
205	0x3eea5af5	0.4577252
206	0xbe7d0538	-0.24709022
207	0xbd47df6f	-0.048797067
208	0x3e19e17c	0.15027422
209	0x3dffa39d	0.12482379
210	0x3e211977	0.1573237
211	0x3e578786	0.21047792
212	0xbdf412a6	-0.119176194
213	0xbe048185	-0.12940033
214	0xbcd98d60	-0.02655667
215	0x3c6c3fdd	0.014419523
216	0xbdf3c318	-0.119024456
217	0x3e3547d3	0.1770318
218	0x3e215496	0.15754923
219	0xbddd3aa1	-0.10802198
220	0xbe5f7328	-0.21821272
221	0xbde52202	-0.11188127
222	0x3c9b1653	0.018931543
223	0xbe87f533	-0.2655426
224	0x3ed34ded	0.4127039
225	0xbea67ddb	-0.32517895
226	0x3e986a88	0.29768777
227	0x3e9b2eee	0.30309242
228	0xbde4be05	-0.11169056
229	0x3da0e843	0.078568004
230	0xbe585e2b	-0.21129672
231	0xbdf30675	-0.11866466
232	0x3d8333f4	0.06406394
233	0x3ce18274	0.027528025
234	0xbe934582	-0.28763968
235	0x3d76bd08	0.060238868
236	0xbefff925	-0.4999477
237	0xbd8bdfaa	-0.0682977
238	0x3dbf845c	0.093514174
239	0x3da9f3b7	0.08298438
240	0xbdfc2e0d	-0.12313471
241	0xbd47a246	-0.04873874
242	0x3db74f58	0.089506805
243	0xbd48f478	-0.04906127
244	0xbd29fd16	-0.041501127
245	0x3e3f4ab6	0.18680844
246	0x3e8927a6	0.26788062
247	0x3d208da0	0.039197564
248	0xbe4316b1	-0.19051625
249	0xbdb79b40	-0.089651585
250	0xbd08384d	-0.033256818
251	0x3ede2eb0	0.43394995
252	0x3e1c84f7	0.15285097
253	0xbe8183dc	-0.25295913
254	0x3e483267	0.19550477
255	0x3dbd3706	0.092390105

actor_mean.2.bias f4 [64]
0	0xbd4c0417	-0.049808588
1	0x3bcfef93	0.006345698
2	0x3b2733c6	0.0025513037
3	0x3c1bf8a7	0.009519733
4	0xbc5895eb	-0.013219337
5	0x3cd8bda8	0.026457623
6	0xbda9cac5	-0.08290628
7	0xbc351a6c	-0.011053663
8	0x3cd5b9bf	0.026089547
9	0x3bef1c29	0.007297058
10	0xbcec856a	-0.02887221
11	0x3d232926	0.039834164
12	0x3d4e6b1b	0.050395112
13	0x39c9991c	0.00038451783
14	0x3d4e38a2	0.050346978
15	0xbd511fbf	-0.051055666
16	0x3da5fe16	0.08105104
17	0x3d086b24	0.033305302
18	0xbcee300d	-0.029075647
19	0x3da78328	0.08179313
20	0xba8ed31e	-0.0010896658
21	0x3d0dff3a	0.03466723
22	0x3bcb56f7	0.0062054354
23	0x3c2cc65a	0.010545338
24	0x3d4b2687	0.04959729
25	0xbc306c82	-0.010768058
26	0xbe0552fa	-0.13019934
27	0xbdfb0228	-0.12256271
28	0x3d4abf78	0.049499005
29	0x3b8a4bb1	0.004220449
30	0x3c535281	0.012898088
31	0xbd7fe1cd	-0.0624712
32	0xbcde21b6	-0.027115684
33	0x3e05f5c2	0.1308203
34	0x3d89323f	0.06699037
35	0xbbdb4317	-0.0066913473
36	0xbdc53a49	-0.09630258
37	0x3ca66397	0.02031116
38	0x3d807642	0.06272556
39	0x3d07ef30	0.03318709
40	0xbdac72fa	-0.084203675
41	0xbbf37c79	-0.00743061
42	0xbcb85de1	-0.022505702
43	0x3dab7fc5	0.083739795
44	0xbdd1c908	-0.10243422
45	0x3d5e2085	0.05423023
46	0x3c211260	0.009831041
47	0x3cf9332b	0.030419907
48	0xbccf77d4	-0.025325693
49	0xbc177ca9	-0.00924603
50	0xbd200869	-0.03907052
51	0x3d9f5eec	0.07781777
52	0xbd60ac43	-0.05485178
53	0xbdaea35c	-0.08527252
54	0xbcec0625	-0.028811524
55	0x3d8bd5cc	0.06827888
56	0xb9229e18	-0.00015508418
57	0x3d8e9540	0.06962061
58	0xbd68ac62	-0.056805022
59	0x3ca6b4da	0.020349909
60	0x3cdc09f0	0.026860207
61	0x3d8cda3e	0.06877564
62	0xbd210bf9	-0.03931806
63	0x3cf36944	0.02971328

actor_mean.4.weight f4 [21, 64]
0	0xba037727	-0.00050150085
1	0x3cd12a23	0.025532788
2	0x392a4737	0.00016238993
3	0x3c8126b2	0.015765522
4	0x3adec89b	0.0016997041
5	0x3c2f3cf6	0.010695687
6	0x3ba3389f	0.004981115
7	0x3ce144b2	0.027498577
8	0xbc827ce3	-0.015928691
9	0xbd20c1fe	-0.039247505
10	0x3da6a6a4	0.08137253
11	0x3e03c417	0.12867771
12	0x3cfc408f	0.030792503
13	0xbc8b8213	-0.017029798
14	0x3e053aa1	0.13010646
15	0xbcf6abdb	-0.030111244
16	0x3c1c4791	0.009538547
17	0xbd376561	-0.044774417
18	0x3c485c85	0.01222909
19	0xbb1530b9	-0.0022764637
20	0x3d02a40e	0.031894736
21	0x3c7450ef	0.014911874
22	0x3b6cff77	0.003616301
23	0xbca5251f	-0.020159302
24	0xbbbc1fc3	-0.005741091
25	0x3d29d985	0.04146721
26	0xbcd15729	-0.025554257
27	0x3c62d6b4	0.0138451345
28	0x3d69f071	0.05711407
29	0xbc55e629	-0.013055363
30	0xbd798dd0	-0.06092626
31	0x3c80b4d2	0.015711222
32	0x3d90fdf6	0.07079689
33	0xbcbdc59f	-0.023165522
34	0xbca4904e	-0.020088341
35	0x3c046602	0.008080961
36	0xbbdc0e85	-0.006715598
37	0x3c583370	0.013195857
38	0x3d81826f	0.06323706
39	0xbbcf0ec0	-0.006318897
40	0xbd62d160	-0.055375457
41	0x3d2c0504	0.04199697
42	0x3c442b87	0.011973268
43	0xbd2d6318	-0.04233083
44	0x3cd66043	0.026168948
45	0x3d695f93	0.056975912
46	0x3db1a524	0.08674076
47	0x3cb29b59	0.021802591
48	0x3b37263b	0.002794637
49	0xbaf22e78	-0.0018476984
50	0xbd076f55	-0.03306516
51	0xbdd6a7a7	-0.10481196
52	0xbdb15239	-0.08658261
53	0xbaf44896	-0.0018637355
54	0x3d5f661d	0.054540742
55	0x3cc1cd9d	0.023657614
56	0x3ca681cb	0.020325562
57	0xbd35433e	-0.04425358
58	0xbc32fb6b	-0.0109242005
59	0x3b40cd63	0.0029419295
60	0x3c97aa00	0.01851368
61	0xba923ce4	-0.0011157063
62	0xbc75aaff	-0.014994382
63	0xbc6f9dcf	-0.014625027
64	0xbb3fd36a	-0.00292703
65	0xbd40083c	-0.046882853
66	0xbc897996	-0.01678161
67	0x3d843095	0.06454579
68	0x3ca302ec	0.019898854
69	0xbd7953e2	-0.060871013
70	0xbac01510	-0.0014654715
71	0xbbe9b626	-0.0071323095
72	0x3bd57c9c	0.0065150987
73	0x3d1f2d62	0.03886164
74	0xbdbb12b3	-0.09134426
75	0xbd171572	-0.036885686
76	0x3cc37d03	0.023863321
77	0x3dac3e32	0.084103
78	0xbc00f47c	-0.00787079
79	0xbabcdb2d	-0.0014408581
80	0x3bcc473f	0.006234079
81	0x3c9fe63d	0.019518966
82	0xbdd1d32e	-0.102453575
83	0x3d00c637	0.031439032
84	0xbc75b52d	-0.014996809
85	0x3c4bb605	0.012433534
86	0xba23e3dd	-0.0006251911
87	0x3b82c01c	0.0039901864
88	0x3d93d60e	0.07218562
89	0x3cd0a4e3	0.02546925
90	0x3da6a413	0.081367634
91	0x3d020c38	0.031749934
92	0xbc1455cc	-0.009053659
93	0x3c31d842	0.010854783
94	0xbd3918f3	-0.04518981
95	0xbd0c8bab	-0.034312885
96	0xbc0005c1	-0.007813872
97	0x3c549a86	0.012976294
98	0xbbe54cfb	-0.006997702
99	0x3d5e0641	0.054205183
100	0xbe089d54	-0.13341266
101	0xbd507aa6	-0.050898217
102	0xbdbd5ce2	-0.092462316
103	0x3dcdf3e1	0.10056282
104	0x3d13922d	0.036028076
105	0xbbb799ee	-0.0056030666
106	0xbc7be541	-0.015374483
107	0x3cd868d2	0.02641717
108	0xbd7bf703	-0.061514866
109	0xbd0782ba	-0.033083655
110	0x3dbaf2e9	0.09128363
111	0x3d269734	0.040671542
112	0xbcf561d1	-0.029953869
113	0xbd77be96	-0.06048449
114	0xbc4dc173	-0.012558329
115	0x3c96f0f7	0.018425448
116	0xbcfd68da	-0.030933786
117	0x3dc530be	0.096284375
118	0x3d13fdb9	0.03613064
119	0x3ca7f2ee	0.02050158
120	0x3d6b4513	0.05743892
121	0xbd0fddab	-0.03512351
122	0xbce78723	-0.02826268
123	0x3cb8e542	0.022570256
124	0x3d26f081	0.040756706
125	0xbcba9422	-0.022775713
126	0xbc78f826	-0.015195882
127	0xbd1c69be	-0.03818678
128	0xbd0928ac	-0.033486053
129	0x3d8f95e7	0.070110135
130	0xbbd7d191	-0.0065862616
131	0xbc8b0e77	-0.01697467
132	0xbd2c9837	-0.04213735
133	0xbc6cf23d	-0.014462051
134	0x3d96c680	0.073620796
135	0xbca9570f	-0.020671396
136	0xbc434c00	-0.011919975
137	0x3d7e57f6	0.062095605
138	0xbd42922f	-0.047502693
139	0x3d8023f8	0.062568605
140	0xbcce3e9e	-0.025176343
141	0x3c9452d2	0.018105898
142	0x3c6e2489	0.014535078
143	0x3cf6f453	0.0301458
144	0x3d0b40e4	0.03399743
145	0xbcf600ea	-0.030029733
146	0xbc6a18bf	-0.0142881265
147	0xbcbae979	-0.022816407
148	0xbd66b879	-0.05632827
149	0x3d4031c5	0.046922464
150	0xbbdeb80d	-0.006796843
151	0x3be45775	0.0069684335
152	0x3d090d93	0.03346021
153	0xbbaf023a	-0.0053408416
154	0x3bf3f363	0.0074447854
155	0x3c89d68b	0.016825935
156	0xbca19f4d	-0.01972928
157	0x3c93b8df	0.01803249
158	0xbc2e1866	-0.010625934
159	0x3d86a2a9	0.06573994
160	0x3d1714eb	0.036885183
161	0xbc83b9d7	-0.016079826
162	0x3bd9c051	0.0066452404
163	0xbd128eb6	-0.03578063
164	0xbd73e144	-0.059541002
165	0xbbae42f9	-0.0053180424
166	0xbbb5daf7	-0.0055497843
167	0x3d8ade9f	0.06780743
168	0x3c91b4a5	0.017786333
169	0xbc80b5e4	-0.015711732
170	0xbb6024ba	-0.0034201578
171	0xbcd0e40b	-0.025499364
172	0x3cf50226	0.029908251
173	0xbcf6c281	-0.030122044
174	0xbd631004	-0.055435196
175	0x3d3be696	0.0458742
176	0xbdc54160	-0.0963161
177	0x3d110bc6	0.03541162
178	0xbca90594	-0.020632543
179	0xbd4d33ec	-0.050098345
180	0xbb3b2e26	-0.0028561442
181	0x3d06a567	0.032872584
182	0xbd029e70	-0.03188938
183	0x3ca696d6	0.020335596
184	0xbc9d1ff3	-0.019180274
185	0xbbff2a1b	-0.007787002
186	0x3cf98dec	0.030463181
187	0x3b3008e0	0.0026860759
188	0x3d96aa58	0.07356709
189	0xbd237277	-0.039904084
190	0xbd233ceb	-0.039853018
191	0xbd5234b4	-0.051319793
192	0x3d319e0c	0.043363616
193	0xbd54a308	-0.05191329
194	0x3d2304c0	0.03979945
195	0x3d44b6a3	0.04802574
196	0x3ce104ce	0.027468111
197	0xbd44f68f	-0.0480867
198	0x3dca83ed	0.09888444
199	0xbd63b753	-0.055594753
200	0x3d88f384	0.06687072
201	0xbdd44117	-0.103639774
202	0x3b85487c	0.0040674787
203	0xbd960794	-0.07325664
204	0x3cd74f1e	0.026282843
205	0xbcfba06a	-0.03071614
206	0x3d0c56f0	0.034262598
207	0x3d1734de	0.036915652
208	0x3cc6b3a1	0.024255576
209	0x3c50df97	0.0127486205
210	0xbd624d1c	-0.05524932
211	0xbc2efb0f	-0.010679974
212	0xbc9c3110	-0.019066364
213	0x3d028f14	0.03187473
214	0x3d1dcfaf	0.03852814
215	0x3bd71740	0.006564051
216	0x3d1eb142	0.038743265
217	0xbc60c7a5	-0.013719474
218	0xbd335559	-0.043782566
219	0x3d415725	0.047202248
220	0xbbd25516	-0.0064188344
221	0x3adb636d	0.0016738005
222	0xbd12eae1	-0.03586853
223	0x3d6c7fbe	0.057739012
224	0x3dd8795c	0.105700225
225	0xbcf3dbb5	-0.02976785
226	0xbc1471fe	-0.009060381
227	0x3c8d0191	0.017212661
228	0x3d6cd1c9	0.057817254
229	0xbcf61100	-0.030037403
230	0x3d86d09c	0.06582758
231	0xbd42180e	-0.04738622
232	0xbca35fd0	-0.019943148
233	0x3d3efa42	0.046625383
234	0x3c954bb6	0.018224578
235	0x3c616e1b	0.013759161
236	0xbaaa2848	-0.0012981975
237	0xbd8c3503	-0.06846049
238	0xbc16c589	-0.0092023695
239	0xbcdc3669	-0.026881414
240	0xbd40aec0	-0.047041655
241	0x3d2ea489	0.04263738
242	0xbc1d31ea	-0.00959442
243	0x3d8c2ced	0.068445064
244	0xbb59c190	-0.0033226945
245	0x3d44593b	0.04793666
246	0xbcdd5c0d	-0.027021432
247	0x3d8266b6	0.06367247
248	0x3d13aba8	0.036052376
249	0xbd77bb8d	-0.060481597
250	0xbc03e7de	-0.008050887
251	0x3cf59c15	0.029981652
252	0xbcd8088b	-0.026371261
253	0x3d3f2638	0.046667308
254	0x3ca3270c	0.01991608
255	0x3d84216a	0.06451686

actor_mean.4.bias f4 [21]
0	0x3b2c3966	0.002627933
1	0x3c928395	0.017885009
2	0x3cc42b6b	0.023946485
3	0xbc712440	-0.014718115
4	0x3cd8f384	0.026483305
5	0xbc0461cf	-0.00807996
6	0xbd7769a6	-0.06040349
7	0xbd057e82	-0.03259135
8	0x3c52c1a8	0.012863554
9	0xbc211837	-0.009832433
10	0x3d006177	0.03134295
11	0xbd406339	-0.046969626
12	0xbd20e4d0	-0.039280713
13	0x3ced8acf	0.028996853
14	0xbd56c7a9	-0.052436505
15	0x3cf8f7cb	0.030391594
16	0xbc5695dc	-0.013097253
17	0xbd32bfbe	-0.04363989
18	0x3c83f81e	0.016109522
19	0xbcdd27b0	-0.026996464
20	0x3c830ce4	0.015997358

codebook f4 [100, 2]
0	0x3f42ff49	0.76170784
1	0x3e706a95	0.23478158
2	0x3eef6aaa	0.46761066
3	0x3f04dc5a	0.5189873
4	0x3f12201d	0.5708025
5	0x3ed6d95c	0.41962707
6	0x3e955cae	0.2917227
7	0x3f30e13f	0.690937
8	0x3ed987dc	0.42486465
9	0x3f0e644a	0.5562178
10	0x3e9b3a3f	0.30317876
11	0x3f2d6832	0.67737114
12	0x3f7e8fef	0.99438375
13	0xbcc68439	-0.02423297
14	0x3dca516b	0.098788105
15	0x3f609a08	0.87735033
16	0x3e92c96a	0.28669292
17	0x3f327f7d	0.6972578
18	0x3f058334	0.52153325
19	0x3ef29382	0.47378165
20	0x3e03b8a8	0.1286341
21	0x3f58fff8	0.8476558
22	0x3f19abeb	0.6002795
23	0x3ec5f8f0	0.38666487
24	0x3eddb555	0.43302408
25	0x3f0cb677	0.5496592
26	0x3ca230bf	0.019798635
27	0x3f73d0e2	0.95240605
28	0x3f030a30	0.5118742
29	0x3ef39bdb	0.47579846
30	0x3f0b8299	0.5449615
31	0x3ee606b3	0.44926986
32	0x3f50b8a1	0.8153172
33	0xbe0c7ef1	-0.137203
34	0x3effdfa1	0.49975303
35	0x3efa2921	0.48859504
36	0x3f35f033	0.7106964
37	0x3e8e347f	0.27774426
38	0x3ee0e855	0.43927255
39	0x3f0c0aeb	0.5470416
40	0x3e2372d1	0.15961768
41	0x3f50bb59	0.8153587
42	0x3f14968a	0.58042204
43	0x3ed09ca5	0.4074451
44	0x3f06b31d	0.52617055
45	0x3eef735c	0.467677
46	0x3f1aa261	0.6040402
47	0x3ec555cb	0.38542017
48	0x3f272e19	0.65304714
49	0x3eaa49d3	0.33259448
50	0x3f2d84ea	0.67780936
51	0x3ea75fe1	0.32690337
52	0x3f40a482	0.7525102
53	0x3e87ad8a	0.26499587
54	0x3ebeafbc	0.3724345
55	0x3f1c627a	0.61087763
56	0x3e852b4d	0.26009598
57	0x3f39c7ff	0.72570795
58	0x3d062d8b	0.032758277
59	0x3f72166c	0.94565463
60	0x3ea4355c	0.3207196
61	0x3f28d977	0.65956825
62	0x3f2fcb2d	0.68669397
63	0x3e9aade3	0.3021079
64	0x3f0faf59	0.56126934
65	0x3ed9bb98	0.42525935
66	0x3eb7e86c	0.3591951
67	0x3f1f3da4	0.6220343
68	0x3f596acb	0.8492858
69	0x3e12d005	0.14337166
70	0xbca1be63	-0.019744104
71	0x3f81590d	1.0105301
72	0x3efa4534	0.48880923
73	0x3eff2cbc	0.49838817
74	0x3eb7c018	0.35888743
75	0x3f21d822	0.6322042
76	0x3ecb30e3	0.39685735
77	0x3f15ffbc	0.58593345
78	0x3ec11706	0.37712878
79	0x3f1a455b	0.6026208
80	0x3f351ab1	0.7074385
81	0x3e9198bc	0.2843684
82	0x3e9262c8	0.2859099
83	0x3f329061	0.69751555
84	0x3f63d262	0.88992894
85	0x3ddb7237	0.10715144
86	0x3ee4ef51	0.44713834
87	0x3f096c7f	0.53681177
88	0x3f5033c8	0.8132901
89	0x3e386ba2	0.18009809
90	0x3f042d6d	0.51631814
91	0x3ef11d6c	0.4709276
92	0x3edf25c5	0.43583503
93	0x3f0d26f0	0.5513754
94	0x3eb76620	0.35820103
95	0x3f20d9d8	0.62832403
96	0x3c0cd3b3	0.008595395
97	0x3f763ade	0.96183574
98	0x3e97471a	0.29546434
99	0x3f320460	0.69537926
100	0x3ed20342	0.4101811
101	0x3f12b0c7	0.5730099
102	0x3ebf328e	0.37343258
103	0x3f1c94b7	0.6116442
104	0x3ea5b703	0.3236619
105	0x3f2945c9	0.6612211
106	0x3e07da1d	0.13266797
107	0x3f58ea05	0.84732085
108	0x3edcf257	0.4315364
109	0x3f0e0e92	0.5549098
110	0x3d911323	0.07083728
111	0x3f68c294	0.909219
112	0x3eb09de6	0.34495467
113	0x3f23e393	0.64019126
114	0x3f454581	0.7705918
115	0x3e6c3e18	0.23070562
116	0x3f34e654	0.7066395
117	0x3e9ab71d	0.3021783
118	0x3eb60c5d	0.35556307
119	0x3f2104bb	0.62897843
120	0x3f3d8546	0.74031484
121	0x3e88b793	0.26702556
122	0x3e44e64a	0.19228473
123	0x3f48e400	0.784729
124	0x3f07c6ea	0.53037894
125	0x3eeb6486	0.4597513
126	0x3eb6c168	0.35694432
127	0x3f1f7d81	0.6230088
128	0x3e906ec7	0.28209516
129	0x3f3608f0	0.7110739
130	0x3f79e6fd	0.97618085
131	0xbcf9c087	-0.030487312
132	0x3de67db4	0.11254445
133	0x3f5eaa11	0.8697825
134	0x3e211be4	0.15733296
135	0x3f52ec6a	0.8239199
136	0x3f1dc37b	0.61626405
137	0x3ebf0a86	0.37312716
138	0x3f418cac	0.75605273
139	0x3e767656	0.24068579
140	0x3f2fab06	0.68620336
141	0x3e9d5195	0.30726305
142	0x3f794461	0.9736996
143	0x3c2ed62b	0.010671179
144	0x3f5dd72e	0.86656463
145	0x3e0777cf	0.13229297
146	0x3f5e62f4	0.8686974
147	0x3e0d2559	0.13783778
148	0x3e8e395a	0.2777813
149	0x3f35133b	0.7073247
150	0x3e9251ce	0.28578037
151	0x3f334acd	0.7003601
152	0x3d5f9d5a	0.05459342
153	0x3f6cbeed	0.9247883
154	0x3f0dfd18	0.55464315
155	0x3edcb833	0.43109283
156	0x3f3b74bf	0.73225015
157	0x3e8dc0dd	0.27686206
158	0x3f34bc94	0.7060025
159	0x3e94c0d6	0.29053372
160	0x3e209514	0.15681869
161	0x3f537b22	0.8260976
162	0x3e9c751f	0.30558106
163	0x3f2c6e8c	0.6735618
164	0x3f3edf67	0.74559635
165	0x3e84429e	0.25832075
166	0x3e301895	0.17196877
167	0x3f4f3ecd	0.809552
168	0x3e658af0	0.22416282
169	0x3f42c282	0.76078045
170	0x3e7ec546	0.24879941
171	0x3f3b9a4a	0.732823
172	0x3f11ca3e	0.5694922
173	0x3ed706f4	0.41997492
174	0x3f48a870	0.78382015
175	0x3e5d2aed	0.21598406
176	0x3f10e551	0.5659991
177	0x3ed94e71	0.4244266
178	0x3ef684b0	0.48148108
179	0x3f015694	0.5052273
180	0x3f0eafe5	0.55737144
181	0x3eded711	0.43523458
182	0x3e55269c	0.2081551
183	0x3f44a502	0.7681428
184	0x3ec15698	0.37761378
185	0x3f1b4858	0.6065726
186	0x3e63d9fa	0.2225112
187	0x3f435a81	0.76309973
188	0x3ecc5476	0.3990819
189	0x3f15aa94	0.58463407
190	0x3efc940d	0.49331704
191	0x3efc3c04	0.49264538
192	0x3f133ea2	0.57517445
193	0x3ed417b1	0.41424325
194	0x3dc84ad2	0.09779896
195	0x3f61ef54	0.8825581
196	0x3ebaace5	0.36460033
197	0x3f1e9e33	0.6196014
198	0x3f26073c	0.6485479
199	0x3eafd21f	0.34339997
