saved_agents/dm_hopper_b.pth (torch, 605400 bytes, 28 tensors)

actor_logstd f4 [1, 4]
00000000: e473 ffbf 05f0 00c0 b5d5 ffbf 6ec9 01c0
-1.9957242 -2.0146496 -1.9987093 -2.0279193

critic.0.weight f4 [64, 17]
00000000: 2843 f23e f725 1e3e f428 693e 7d2b 973e
00000010: 0711 8ebe b587 b5bd 3f0e 69be 47f5 fdbe
00000020: 2d56 53bd 4a3b ca3e 6272 2e3d e7d7 a23c
00000030: d3bc d9bb c181 c93d 5067 c33c 6093 c3bd
00000040: 651a 01be 188f 8ebc 6764 e7bd 02b9 33bd
00000050: b9b4 d7bd 1374 dcba 4f6e 993e c6dc 2d3d
00000060: 31c4 23be 32e2 483e 1f17 90bd 3907 4b3e
00000070: 8120 013d 4668 d0bd 6c52 70be 1667 adbd
00000080: f9e0 8e3e e1cf 8d3e 4ca7 0e3e 631c 023e
00000090: a8cc 373e 6c29 923e 07c8 1abe 9163 ae3d
000000a0: c9a5 4bbe 74a0 843e 1d13 cb3b 1810 2d3e
000000b0: f5f7 29be 5b71 f8bc 818e cfbd e113 0abd
000000c0: f873 2bbe b440 9dbe 21c9 f3be 41d5 22be
000000d0: 46b6 6bbe 9400 9bbe cf21 a3be 7252 d63e
000000e0: 9373 babc 2ab9 cd3d c8a4 123f c864 5ebc
000000f0: 56b2 96be b80d 2a3d 3490 f83c 9021 af3d
00000100: 78f1 76bd adda 363c e7bc ba3e 247e 03be
00000110: 57bf 743e 6067 09bd a57c 303e e509 f93e
00000120: a38e 91be 65af 803e 650a 5cba e776 8c3c
00000130: 8fb4 b2bb f331 843e e3d9 623d b7ac 633c
00000140: 9694 193b a06c 923d b5e4 7e3d 0b43 17bf
00000150: b5ac 4f3e 9ebf c33e 1506 de3c ef87 093d
00000160: ef0b 8b3e cd65 99be b31d 983e f435 2fbe
00000170: eff6 1fbb ab75 b7be 771b ac3d 114a 823e
00000180: fdc2 753d 92fc 05bd 36f6 d9bc ed5f 32bc
00000190: d03b 19be 4552 b23d 1fc2 40be 3728 cf3c
000001a0: 4195 8ebe dd28 51be d19a cc3e 8c30 15be
000001b0: 8528 71be 4fd4 5d3e 6e42 b63e 8a3c 92be
000001c0: 2b40 aabc feaa 1dbd 0754 f8bb d219 8cbd
000001d0: 2409 3fbd b730 d43e 76cd c93e d958 b9be
000001e0: 3b86 923d 9ab0 22be 00a0 66be 848a ca3e
000001f0: d124 573e 87ad ca3d ba99 13be e880 b9be
00000200: b321 a9be 8dc3 a43d f1c0 ad3d 9f53 dc3d
00000210: 7824 4bbd 6047 673d 1f7f 413e aadf eb3e
00000220: 8d0a fa3d cdd8 343d b689 9c3e 63bd 8c3e
00000230: 42b3 18bf 53ba af3e fd65 f03d d782 b2be
00000240: f576 963e 0046 1f3e da03 19bd 98e3 8939
00000250: 72eb ab3b 5691 623d a30a e239 fc3e aabe
00000260: 927b e1bc 539b 293c 4f2d bfbd 73cb a7bd
00000270: 0a6a 10bf 9176 183f 0d59 ae3d 7cde 873e
00000280: 1812 3bbd 7ed8 283e 1543 3b3d 6301 5ebd
00000290: 57aa 17bd d0ff 8dbb 5a19 b4bd c76c 313c
000002a0: e014 f23d f8d9 053d 4c0b 7cbd b276 62be
000002b0: 657c b7bd c991 513d 362d 663b e66b 1c3e
000002c0: f829 ad3e c76a ee3d bbb0 15bc 9331 cabd
000002d0: 1532 45be ccdd 00be c9c5 dbbe 231b 1fbb
000002e0: a362 bc3e 5715 973e c630 503e cb82 a3bd
000002f0: 8076 213e ac8d 313e d0c3 61be 8b4b 853e
00000300: 5467 0a3b 0fba 833e 6890 8e3e 40cf 31be
00000310: ece9 dbbd 18ef bebb e22c 37bd 508d c93c
00000320: efce 083c a628 143e 7c39 343e 6146 db3e
00000330: bc84 cfbe 4bd0 473e 28ee e2be 6a22 8fbe
00000340: da2f e83e a5da 70be c50b cfbc 3e43 163b
00000350: 718c 01bf fd68 cebd 93df d93c 4b19 143d
00000360: af07 9b3d 5fe8 563d 9ff8 d43d 7edb b53e
00000370: 94f5 c43d 0454 143f f9b9 3abd 7f01 a73e
00000380: f776 19be bc7b 8ebe 433b b73c f416 69be
00000390: 1d46 13be ac39 1f3e 4fb7 b33d 44d3 c93d
000003a0: 9989 fe3d d8aa ce3d 9823 233d 06d6 9b3c
000003b0: dbe9 c5be ab13 2dbe 7fbd c8be 8fd8 443e
000003c0: 7200 263d 6806 14bf 6397 213f 23b6 39be
000003d0: e936 8cbc 555a 473e 9c9f e13d 36ec a5be
000003e0: b255 7c3e bd2e 633e 35f0 213e 00f6 8c3d
000003f0: edaf 3ebd ae9d e23d 477d 633e 36b4 aabd
0.4731686 0.1544417 0.22769529 0.29525366 -0.27747366 -0.08863775 -0.2275934 -0.49601194
-0.051595856 0.3949836 0.042589553 0.01987834 -0.006644824 0.09839202 0.023852974 -0.09549594
-0.12607725 -0.017402217 -0.11298447 -0.04387761 -0.10532517 -0.0016819261 0.2996697 0.042446874
-0.1599281 0.19617537 -0.0703566 0.19826974 0.03152514 -0.101761386 -0.23468941 -0.08466928
0.27906016 0.27697662 0.13931006 0.12706141 0.17949164 0.28547227 -0.15115367 0.085150845
-0.19887461 0.25903666 0.006197347 0.1690067 -0.16598494 -0.03032749 -0.10134602 -0.033710364
-0.16743457 -0.30713427 -0.47614387 -0.15901662 -0.2301875 -0.3027388 -0.3186173 0.41859776
-0.022760188 0.10045083 0.57282686 -0.013573833 -0.29432935 0.04151699 0.030342199 0.085513234
-0.060288876 0.011160535 0.36472246 -0.12841088 0.23901115 -0.03354585 0.17235048 0.4864036
-0.28429136 0.25133815 -0.0008393883 0.01714654 -0.005453653 0.25819358 0.055383574 0.013896159
0.0023434511 0.07149625 0.06222983 -0.59086674 0.20280726 0.3823213 0.02710251 0.033576902
0.27157542 -0.2996048 0.2971016 -0.17110425 -0.0024408659 -0.3583196 0.08403676 0.25447133
0.06000041 -0.032711573 -0.02660666 -0.010887128 -0.14964223 0.08707098 -0.18824051 0.02528773
-0.27848247 -0.20425744 0.39961866 -0.145693 -0.23550613 0.2166302 0.35597557 -0.28561813
-0.02078255 -0.03849315 -0.007578376 -0.06840862 -0.046639577 0.41443416 0.39414567 -0.36200598
0.07154509 -0.1588768 -0.22521973 0.39558804 0.21010138 0.09896379 -0.14414111 -0.3623116
-0.33033523 0.08045111 0.08484066 0.10758137 -0.049595326 0.056464553 0.18896149 0.4606908
0.12209044 0.04415207 0.30573815 0.2748824 -0.59648526 0.34321842 0.11738203 -0.34865448
0.29387632 0.15554047 -0.03735719 0.00026300247 0.005246573 0.055314384 0.00043114004 -0.33251178
-0.027524743 0.010351974 -0.09334814 -0.08193102 -0.564118 0.5955592 0.08513079 0.2653693
-0.045671552 0.16488835 0.04571827 -0.05420054 -0.037027683 -0.0043334737 -0.08793898 0.010829157
0.11820388 0.032678574 -0.06153421 -0.22115591 -0.08959273 0.051164422 0.0035122163 0.15275535
0.33821082 0.1164146 -0.009136374 -0.09872737 -0.19257386 -0.12584609 -0.42924336 -0.002427765
0.36794004 0.29508469 0.20331106 -0.07983931 0.1576786 0.173392 -0.22047353 0.26034197
0.0021118717 0.2572789 0.27844548 -0.17364216 -0.107379764 -0.005826842 -0.044720538 0.024603516
0.008350118 0.14468631 0.17600054 0.42827132 -0.40530956 0.19513051 -0.44322324 -0.27955943
0.45349008 -0.23520906 -0.025274167 0.0022928263 -0.5060492 -0.10078619 0.026595866 0.036156934
0.07569825 0.0524677 0.10398983 0.35519022 0.09617153 0.579407 -0.045587514 0.3261833
-0.14986788 -0.27828777 0.022367125 -0.22762662 -0.14382215 0.15549344 0.08775198 0.09854749
0.124285884 0.100911796 0.039828867 0.019022953 -0.3865498 -0.16902034 -0.39207074 0.19223236
0.04052777 -0.57822275 0.6312162 -0.18135886 -0.017116027 0.19468053 0.11016771 -0.32406777
0.24642065 0.22185798 0.15814288 0.06882858 -0.046554495 0.11065231 0.22215758 -0.08335154

critic.0.bias f4 [64]
00000000: 1b0d 81be d26d 9fba 594d 4dbe a0af 3c3e
00000010: 7b9c 35be 1374 6cbe deb9 5c3e f76c 333e
00000020: 5423 24be 0dbb 223e d83c 343e e8c6 8c3e
00000030: 05f5 733e 47e5 6abe c5c2 0d3e 0d58 303e
00000040: baac 6e3d 9f04 38be 463c 2ebe 1863 383e
00000050: bf87 3dbe 36be c6bd af98 7bbe 4d23 0e3e
00000060: 4c21 02bd 1f16 193e 81dc 963d 40c7 09be
00000070: 5a47 98be f8e6 14be 06d4 66be e8b9 533e
00000080: 02da 30be 8cb5 33be 8791 833e 0568 5c3e
00000090: e1b2 343e 6aae 2dbe 8806 30be c7b6 af3d
000000a0: fd49 d03d cb38 3d3e 59d2 833e f328 32be
000000b0: c892 de3d 64be 16bc 1dce 363e 589d 00be
000000c0: 4522 a0bc 631e 6a3e 1393 08be 1c55 5ebe
000000d0: ca28 863e 6811 02be 12ab ac3d 3af1 3c3d
000000e0: 606a 2a3e daa2 f63d 8c05 7b3e 7657 5bbd
000000f0: 38ec 653e ec2d 5d3e 249d ee3d 44c7 413e
-0.2520531 -0.0012163466 -0.20049037 0.1842637 -0.17735474 -0.23091154 0.21555278 0.17522036
-0.16029102 0.15891667 0.17601335 0.27495503 0.23823936 -0.22939025 0.1384383 0.17221089
0.058270194 -0.17970513 -0.1701518 0.18006551 -0.18508814 -0.097042486 -0.24569963 0.13880654
-0.031770036 0.14949845 0.073662765 -0.13454914 -0.29741937 -0.14541233 -0.22541818 0.20676386
-0.17270663 -0.17549723 0.25696966 0.21524055 0.17646362 -0.16961065 -0.17189991 0.08579784
0.10170362 0.18478696 0.2574642 -0.17398433 0.1086784 -0.009200666 0.17852063 -0.12560022
-0.019547591 0.22863154 -0.13337354 -0.21712154 0.26202995 -0.12701952 0.084310666 0.04612849
0.16642141 0.1204278 0.24513835 -0.053550206 0.22453392 0.21599549 0.11651066 0.1892367

critic.2.weight f4 [64, 64]
00000000: 9444 c6be 5d6e d63d 4127 d73d 1946 803e
00000010: d752 95be 65de 63bd 06d8 1e3e 6cd8 ccbd
00000020: cf7c 2ebe 08d4 883e ac6f 853e 4478 fa3c
00000030: eb07 6e3e c54e 85be bf83 b73e e13b 413b
00000040: b165 fa3c 2f22 b9be 33db 18bd a314 e23d
00000050: ab0e 97be af9e d33d e629 06be fc75 c63e
00000060: 4d59 cabd 820b 92bc bf86 2a3e edbd 083e
00000070: ceac 203d 83e6 723e 9442 5b3e c1a3 6d3e
00000080: c4bf 96be a295 a6be e23b 813d 85dd 8a3e
00000090: 453b 593e 262d 99be 4ee2 6b3e f102 b73d
000000a0: 6b75 1fbd 06ba be3e 83b3 5bbe 7499 0ebe
000000b0: 2a8a 473d 88ec 883e 2e2c ef3e 850d 1abe
000000c0: 5e32 a93c ea0b 26bd 83a4 39bd 0d29 4ebd
000000d0: 74b5 a63d 8861 21be 0e97 9a3d 96f6 a23e
000000e0: 1f84 a83e 022d c83d b1b7 873d dfa3 43be
000000f0: 7e33 903c cf12 a33b f78e 593c 39c7 b73e
00000100: baf4 c1bd 6b2a e1bd 859b 7c3e 9aff febd
00000110: 7039 973e a157 b73e 08f0 4dbe 4f38 35be
00000120: 65a7 953d fd12 41be 5294 1ebd b6c7 82be
00000130: fd32 78be eed3 8a3b 72e9 253d d98c c4be
00000140: 1120 8dbc 9f26 6e3e 4563 a83d 183f fc3d
00000150: adab 05be 1e4a 2cbd 15dc ff3e f3da 1b3d
00000160: 7f7f e63d b38e 84be a5bb f0bd 220b 503e
00000170: 794f bb3d 4773 28bd 5a77 3b3e 7fcd 54bc
00000180: 2724 f73e 69ef e73e dc03 22be da26 91bd
00000190: 8da6 35be e228 2e3e cd9d bebd 5934 1ebe
000001a0: a51c 883d be3e 29be 32a7 85be 21ea adbd
000001b0: f117 963d 8916 4fbd 713b edbd f9e4 103f
000001c0: c1cb 71bd e10f 70be dc47 acbd 1a71 b23d
000001d0: 81cd 78be c21b 073f 816b 173d e022 2d3e
000001e0: b296 c4be cd47 473e 8c56 83be 32ed 553e
000001f0: 6103 b8be 234a a3be 8984 a13e 172a 95bd
00000200: 01b7 c7bd a390 5bbd 9b73 f9bd 464a 313e
00000210: e25e 4e3d 0c9a eabd db63 ab3e d1ee 023e
00000220: e591 c2be 53ad 65be 407c 873e 7072 3bbd
00000230: 18b0 563e 28d5 ddbe 2069 ae3d ab11 a13e
00000240: 842c 443e e7cc 0bbe 9fba dbbc 2a24 083e
00000250: 7315 b43d 115e 293e 09d5 a9be 5049 2bbe
00000260: 0db8 86be ed12 833e 46b5 17bd 3291 f7bd
00000270: 112c 943d 8a91 6cbe 6382 dbbc d819 aabd
00000280: 5fde afbe 858d 81be 91b6 2dbd 11f5 6b3d
00000290: 5c43 c63c db05 3dbe 1d09 a03e 2a0a 763d
000002a0: 334c e63d 6345 383e 6836 b63e 22c8 9e3d
000002b0: 1b0f f6be 79e3 8b3e d409 a83e a5dd a83d
000002c0: dc4f 133d 30c4 ce3d 5c46 87be f5d8 9c3b
000002d0: 1d73 44be d46f 6bbe 9046 4abe 384f f63e
000002e0: 04be 7c3e 9a84 823e 6d75 3cbd d96d 7a3e
000002f0: daf7 bfbd 9ba9 1c3e 0288 223e efaf 8d3e
00000300: e249 60be 2739 a7be efbe 52bd 633a 9e3d
00000310: 040e 0fbe 136e 64be 744b 043f 7327 0c3e
00000320: 863a 0d3e 4d67 443e e971 8e3e e6e6 1dbd
00000330: 9744 383f 0f73 debd 4b6b 10bd 5992 fbbd
00000340: 4729 5bbe 5953 efbe fdb3 4dbe db14 e93c
00000350: 87ba c53c 257b 39bd 3aa9 a6be a595 283e
00000360: 53b7 8e3d 422c b83e d94f 09bd 1981 993c
00000370: e047 413e 2c72 2fbe 1570 cbbd 68ae 5dbd
00000380: e5cc 11be 2566 18bd c465 343e 1edb 643e
00000390: abba b23e 1136 b9be c438 33be 9a97 b93e
000003a0: ce13 06bb 9d5b 883e 37a5 643e 6235 16be
000003b0: 8953 793e 633c 1cbd 74dc 433e fca1 debc
000003c0: 94ca d9bc 3e4b 683d 97c8 52be 367f 693e
000003d0: ef61 463e f301 8bbe 0bd8 15be e95c 4b3c
000003e0: e957 623e e4a1 ef3e 2218 bb3d 86b3 34be
000003f0: 65c7 903c c59a 973e 496a b43d 6cad a8bb
-0.38724196 0.10470269 0.10505534 0.2505348 -0.29164764 -0.055632014 0.15512094 -0.10002217
-0.17039798 0.26724267 0.2606176 0.030574925 0.23245208 -0.2603666 0.35842702 0.0029485153
0.030566068 -0.36158893 -0.03731842 0.110390924 -0.29503378 0.10333001 -0.1310192 0.3876189
-0.09880314 -0.017827753 0.16652964 0.13353701 0.0392273 0.23720746 0.21412116 0.23206998
-0.2944318 -0.32536036 0.0631025 0.2712213 0.21214016 -0.29917258 0.23035547 0.08936108
-0.038930338 0.372513 -0.21455197 -0.13925725 0.048715748 0.2674296 0.46713394 -0.1504422
0.0206539 -0.040538706 -0.045322906 -0.050332118 0.08140078 -0.15759861 0.07548343 0.31828755
0.329133 0.097742096 0.06626833 -0.1910548 0.017602678 0.0049766074 0.013278714 0.35894182
-0.09470506 -0.10994419 0.24668701 -0.12451096 0.2953601 0.35809043 -0.20111096 -0.17697261
0.073073186 -0.188549 -0.038715668 -0.25542992 -0.242382 0.00423669 0.040505834 -0.38388708
-0.017227205 0.2325692 0.08222059 0.12316722 -0.1305377 -0.04206287 0.49972597 0.038050603
0.11254787 -0.2589012 -0.1175454 0.20316747 0.091460176 -0.041125562 0.18307248 -0.012988447
0.4826977 0.45299843 -0.15821785 -0.070874885 -0.17739315 0.17007783 -0.09307442 -0.15449657
0.066460885 -0.1652784 -0.26104122 -0.08491922 0.07328785 -0.0505586 -0.11583603 0.56599385
-0.059032205 -0.23443557 -0.084121436 0.08712979 -0.24297144 0.5277673 0.036967758 0.16907835
-0.3839622 0.19460984 -0.25651968 0.20891264 -0.35940078 -0.318925 0.3154643 -0.072834186
-0.09751702 -0.053604733 -0.12180253 0.1731349 0.050383456 -0.11455163 0.3347462 0.12786414
-0.38001934 -0.22429399 0.26461983 -0.045763433 0.20965612 -0.43326688 0.08516145 0.31458792
0.19157606 -0.13652383 -0.026822386 0.13295045 0.087931536 0.1653979 -0.33170345 -0.16727185
-0.26312295 0.25600377 -0.03703811 -0.12088241 0.072349675 -0.23102394 -0.026795572 -0.083057106
-0.34349343 -0.25303283 -0.042410437 0.05760676 0.024202041 -0.18459265 0.31256953 0.060068287
0.112450026 0.17995219 0.35588384 0.07753016 -0.480584 0.27321985 0.32819998 0.082454
0.03596483 0.100960135 -0.26420867 0.0047866055 -0.19184537 -0.22991878 -0.1975348 0.48107314
0.2468186 0.25491792 -0.046010423 0.24455966 -0.09373446 0.15299074 0.15872195 0.2767329
-0.21903184 -0.3266079 -0.05145162 0.0772598 -0.1397019 -0.22307615 0.5167763 0.13686924
0.13791856 0.19180031 0.27821282 -0.03855028 0.7197966 -0.108617894 -0.035258573 -0.12283773
-0.21402465 -0.46743277 -0.20088191 0.028452327 0.024136795 -0.045283455 -0.32550985 0.16463335
0.0696856 0.35971266 -0.033523414 0.018738316 0.18875074 -0.17133397 -0.09933487 -0.054121405
-0.14238317 -0.037206788 0.17616946 0.22349212 0.3490804 -0.36174062 -0.17502123 0.36248475
-0.0020458582 0.26632395 0.2232865 -0.14668801 0.24348272 -0.038143527 0.19127065 -0.02717685
-0.026585855 0.05671238 -0.20584331 0.22802433 0.19373296 -0.27149925 -0.14633195 0.012412288
0.22103848 0.468032 0.09135462 -0.17646608 0.017673204 0.29610267 0.08809335 -0.0051476266

critic.2.bias f4 [64]
00000000: 4869 283e 9f10 58be 8d42 023e 0f79 1c3e
00000010: 4ae3 f1bd 0937 1b3e 421a c8bd 79e9 edbd
00000020: 9a19 2dbe 1e59 b13d efaf 5abe 30e4 1f3e
00000030: 24a2 3fbe 9b94 bd3d 182e 423e 0694 ffbd
00000040: 8386 073e d976 a23d 9cda 483e 1144 45be
00000050: 271c 043e e34a 3ebe 27c1 203e 488f 42be
00000060: 1145 37be 17bf 023e 8d4a 233e 60bc cfbd
00000070: 1e5a 9c3d 4974 013e 67f0 083e b183 843d
00000080: 4528 de3d 58e3 163e d2d4 1cbe cb03 edbd
00000090: c831 1b3e 7da8 f2bd f3f2 71be ceaf 713d
000000a0: 947f 203e a37a fbbd 1a06 37be 34c4 b2bd
000000b0: 4cac 023e 68c7 3cbd 0b95 eebd 6608 dabd
000000c0: c92c 143e d2fd d4bd 77a7 2bbe db30 ff3d
000000d0: 77f6 d83d 2188 21be a96c 8abd b677 f93c
000000e0: 21b2 2cbe 1501 3b3e 1564 c4bd 3440 163e
000000f0: 8c1a 1fbe 0f84 223e 5ff1 103e 3674 2abe
0.16446412 -0.2110009 0.127207 0.15280555 -0.1181093 0.15157713 -0.09770633 -0.11616797
-0.16904297 0.08659576 -0.21356176 0.1561439 -0.18714195 0.0925686 0.18962896 -0.12479405
0.13234906 0.07932825 0.19614643 -0.19264247 0.12901364 -0.18583255 0.15698682 -0.1899997
-0.1789744 0.12768207 0.15946408 -0.101433516 0.07634376 0.12642016 0.13372956 0.06470431
0.108475246 0.14735162 -0.1531556 -0.11572989 0.15155709 -0.11848543 -0.23627834 0.05900555
0.15673667 -0.122792505 -0.17873421 -0.08728829 0.12761039 -0.046088606 -0.116495214 -0.10646133
0.14470209 -0.10399975 -0.16763102 0.1246049 0.105938844 -0.15774585 -0.067590065 0.03045259
-0.16864826 0.18262132 -0.09589402 0.14672929 -0.1553747 0.15870689 0.14154576 -0.16645893

critic.4.weight f4 [2, 64]
00000000: e006 8ebd ec71 efbd 6670 85bd 7643 5e3d
00000010: 7881 3abe 4df6 92bd ab66 763d 50ee 7e3d
00000020: d004 69bc e904 8b3d 935b 623e 486d 40bd
00000030: 5397 4e3e bdd2 02bd 196c 10be bfa4 3ebc
00000040: 9ec0 20be 3ca3 1bbe a5c4 bc3d 5b48 003d
00000050: 2ce4 6dbd e608 863d e657 2d3d b7a6 b63c
00000060: 38f8 d73d 818b 273e 2ea6 8c3d 9fc5 40be
00000070: da18 103e c61f 813e 386f b43d 79ca b23c
00000080: 39a1 37be 6172 34be 928e 14be c18d d33c
00000090: 4370 153e ee99 a5bd 626b ca3d c7c4 8d3d
000000a0: 344d 11bd 606e 36bc 7806 06be bf78 fd3d
000000b0: 6e2f 903e a40f 15be 7b4d ea3d b481 d43e
000000c0: 0b07 98bc 1b11 e6bd 44b7 cbbd 6b7b 2c3e
000000d0: 51c7 8dbe b5dd afbd d6da afbc 7253 333d
000000e0: 30ce 2ebe 6acb 5b3d c100 30be 4a82 76bd
000000f0: ff3a c7bd 138f 913d 5d49 88bc 4d2e 13be
00000100: ef3d a63f 7cd3 a2bf dea0 a33f 7395 af3f
00000110: 2be2 c1bf 1922 ad3f 9192 abbf 3dfe babf
00000120: 55d9 c2bf a195 c13f 644f afbf f978 ba3f
00000130: faf7 a6bf 6554 ab3f 9848 b23f 5ae0 acbf
00000140: f6c0 aa3f 6642 b43f 30f6 aa3f a8b6 9bbf
00000150: 6a49 b53f d9af 9abf 8778 b03f 3dd5 b1bf
00000160: 1e1a a6bf 5792 b03f 6991 b43f f4cf a3bf
00000170: 216f b53f 2c9c b53f a4a1 b63f e3cc b13f
00000180: 8be5 a93f 7707 a83f cf28 b7bf a536 c5bf
00000190: 9309 b33f 133a bbbf ab54 a3bf b934 a13f
000001a0: 1f7d af3f 1534 aebf 3a39 aabf 26ee b0bf
000001b0: b7e3 b93f 4bee 9abf 6039 a4bf f7e0 99bf
000001c0: 193a a63f 328f abbf 39fe 9cbf ce84 b73f
000001d0: 1c8a b23f 171f c7bf 131c b0bf ad8a ae3f
000001e0: 5370 acbf 5c1a af3f 7a6f a3bf 3f3f a33f
000001f0: 00f9 a0bf 5caa ae3f e9e9 a73f 81f9 a0bf
-0.06934905 -0.11691651 -0.06515579 0.054263555 -0.18213451 -0.071758844 0.060156506 0.06223899
-0.014222339 0.06788046 0.22105245 -0.04697922 0.20174913 -0.031939257 -0.14103736 -0.011635958
-0.15698478 -0.15198988 0.092171945 0.031319004 -0.05807893 0.06544666 0.042320155 0.022296293
0.10545391 0.1636181 0.06867634 -0.18825386 0.1407198 0.25219554 0.08810276 0.021825062
-0.17932595 -0.17621757 -0.14507511 0.02582443 0.14593606 -0.080860004 0.09883763 0.06922298
-0.035474017 -0.011134714 -0.13088405 0.12376546 0.28161186 -0.14556748 0.114405595 0.41505206
-0.018558046 -0.11233731 -0.099470645 0.16843955 -0.2769113 -0.08587209 -0.021466654 0.04378075
-0.17070842 0.053660788 -0.17187788 -0.060182847 -0.097280495 0.07107367 -0.016636545 -0.14373131
1.2987651 -1.272079 1.2783468 1.3717483 -1.5147146 1.3526031 -1.3404104 -1.4608837
-1.5222574 1.5123788 -1.3696103 1.4568168 -1.3044426 1.338513 1.3928404 -1.3505967
1.3340137 1.4082763 1.335638 -1.2165117 1.4163029 -1.2084914 1.3786782 -1.38932
-1.297672 1.3794659 1.4106876 -1.2797837 1.4174539 1.4188285 1.4268079 1.3890651
1.3273176 1.3127278 -1.4309329 -1.5407301 1.3987297 -1.4627098 -1.2760214 1.2594215
1.3710059 -1.3609644 -1.3298714 -1.3822677 1.4522618 -1.2103971 -1.283001 -1.2021779
1.298648 -1.3403075 -1.2265083 1.4337404 1.3948398 -1.5556363 -1.3758568 1.363607
-1.3471779 1.3679919 -1.2768395 1.2753676 -1.2575989 1.364574 1.3118259 -1.2576143

critic.4.bias f4 [2]
00000000: a208 153d 54ca 963f
0.036385186 1.1780496

actor_mean.0.weight f4 [64, 17]
00000000: 02fc 0c3d bbc9 b13d c92f f6bc 60cc 12be
00000010: b78d d1bc 7499 033e b1cd 3e3d fa6a b2bc
00000020: 133d bdbe 181a b23e 9108 b63d 9e6f 21bd
00000030: 632e d03e b14f ddbd b342 d13c 4d47 31be
00000040: 984e 783e 8db1 2bbd 8a60 20be 8ea4 cb3c
00000050: 63e4 aa3d 1811 873d 5650 5b3e b552 353c
00000060: 4913 273c 1a45 b9be b5fb 773c 4441 bebe
00000070: 6840 943e 73d5 c1be 0ccf 40be 7b72 5cbd
00000080: 9515 c43a 9088 a93e 0e9a 993d e142 4f3e
00000090: fe59 86bc 0b29 1c3c 4124 863d 056e 94bd
000000a0: 2d01 3b3e 792f e43e 4581 8f3d 3724 663d
000000b0: 24ae 03be de0f 6abe 512e aebe b6bb 55be
000000c0: d98b 64be 5df1 98bd e9c6 e83d 1a25 9a3e
000000d0: b0c7 ab3c 911e abbe 097e d73d 90d5 bb3d
000000e0: 8ce0 7c3e a392 c7be 6e81 b9bd 4b46 203e
000000f0: 423a 38be e9ee 02be f821 2c3e 12e9 623e
00000100: 28a3 1abe d7e7 95bd e414 17bd b20c 5fbe
00000110: 2312 573e 6d3e 0b3e dd19 5e3d d21d 5a3e
00000120: 5efe e43d c90f ebbb e89b 633d 0a03 bb3b
00000130: 0e6a a03e 804a 2f3e 5ac6 34bd 5c36 8f3e
00000140: 040f 89bd a324 e93c aca3 d6be ad5c d5bd
00000150: ec38 c43d a992 c43e abf6 8e3e fd3f 5d3d
00000160: 9a62 b9bd 40c8 a4be a013 193e b37f a83c
00000170: 3732 9ebd 4698 fabb eea0 213e 4285 62be
00000180: aa95 7abe 6e86 8bbe 879b f73d 2822 1fbe
00000190: 0739 acbd e00e 3f3e c372 e9bd 917d d53d
000001a0: 67b1 233e a7b9 ddbd ab08 c2bd 5934 e43e
000001b0: b157 413e 8f36 393d 9369 4ebd 360d 623d
000001c0: a9e9 ce3d 61de 95be d202 543e 35d7 ff3c
000001d0: f48d 66be f3de 843d d6d2 38be 5111 0abe
000001e0: ca0a 9f3d 6535 4e3e c4e6 8dbd 03b3 a4bd
000001f0: 29bd a1be 95ef ddbe e2af adbd af9e 1b3e
00000200: 8681 19bc 6469 c1be db52 4b3e d6ae 8f3e
00000210: 9576 26be d248 3c3e 4796 9bbe 538a 6dbb
00000220: e00a 26be 3218 39be 372e bf3e a658 bd3e
00000230: e1b7 13bb 3b88 5fbe 3134 df3d 2a83 133e
00000240: 821c 5dbd 373d 813e d469 503d e075 f5bd
00000250: 97be 0cbe 0f39 113e 519d bf3d a40b 5dbe
00000260: 982c 9abe 3248 81be dcfd 483d d7ef 27be
00000270: 90ec acbe 6607 d7bd 0529 2abd 7769 33bd
00000280: 079d 93be 6ed5 863e afc3 12be fd1e cdbd
00000290: 814c bc3e 4d97 5dbe 2cff b83e 0184 0bbe
000002a0: 6c28 a83d 9a73 30be 03ea 4bbe a178 6abe
000002b0: 8171 d9bc 9eba 0cbe 102f d0be e4a2 1ebe
000002c0: b940 4b3d dcb8 8f3d 0648 eebe 3f4d 3a3e
000002d0: 54c8 47bd 5157 88bd e63b 843d fa1e 473e
000002e0: a995 20bd 47cb 0bbb 9071 33bd 7adb ed3d
000002f0: 62b6 3c3e c509 c33d 9f38 0a3c 09da 3c3e
00000300: 9a0c 9e3d 40ab 49be 0d82 ff3d 3593 303e
00000310: 0bb5 11be 72e6 9b3e d935 213e 85e6 f2bd
00000320: 28f0 513e 611f 5bbe d1c5 33be a215 b13e
00000330: 3406 19be a5fe 9f3e 75c1 42be 03d2 babd
00000340: d697 083e fda0 ca3d 6e28 d8be 8605 25bd
00000350: 6a3a 48be e56f 8cbe 0a7e 4bbb da6c 0dbe
00000360: 888b 48be 7c04 a63d 7209 21be 6121 393d
00000370: 9903 883e fb56 b9be 8f27 34be 8dc0 86be
00000380: e271 333e 8b12 243e 1b20 0d3e 6892 313e
00000390: 7950 693e af6e 7dbe f177 30be 208a f63d
000003a0: 944d bcbd 5b59 bcbd 42c2 9abe 9235 823e
000003b0: 2f0e bcbe 3af7 bc3d 50f4 a3be 9fc0 de3d
000003c0: a985 ea3d c9d2 93bd c326 7d3d 31d2 6b3d
000003d0: e989 8a3d 34c9 023d c057 8c3d 0a95 2bbd
000003e0: f7e2 66bd ca23 96be 5ce5 d7bc 4656 b23e
000003f0: 2c37 d23e c2a3 513e d5b5 003e c7ad b9bd
0.03442002 0.08681055 -0.030052083 -0.14335775 -0.02558027 0.12851506 0.04658288 -0.021779526
-0.36960658 0.34785533 0.08888353 -0.039413087 0.4066039 -0.108062156 0.0255445 -0.17312355
0.24248731 -0.041917372 -0.15661827 0.02485874 0.083443426 0.06595057 0.21417364 0.011067082
0.010197469 -0.36185533 0.015135695 -0.3715917 0.28955388 -0.3785816 -0.18828982 -0.053820115
0.0014960045 0.33112 0.07500087 0.20240356 -0.016400333 0.00953127 0.06549884 -0.07247547
0.18262167 0.4456747 0.07007078 0.05618688 -0.12859398 -0.22857615 -0.34019712 -0.20872387
-0.22318973 -0.074679114 0.11366064 0.3010643 0.020969242 -0.33421758 0.10522086 0.09171593
0.24695033 -0.38979062 -0.0905789 0.15651815 -0.17990974 -0.1278645 0.16809833 0.22159222
-0.15101302 -0.073196106 -0.036885157 -0.21782187 0.21003012 0.13598032 0.054223884 0.21300438
0.11181329 -0.0071735126 0.055568606 0.0057071494 0.31330913 0.17118263 -0.044134475 0.2797116
-0.06692317 0.028459853 -0.41921747 -0.10418067 0.095811695 0.38393143 0.27922568 0.054016102
-0.0905201 -0.3218403 0.14948893 0.020568704 -0.077244215 -0.007647547 0.15784046 -0.22121146
-0.24471155 -0.27251 0.12090211 -0.15540373 -0.084093146 0.18658018 -0.11398842 0.104243405
0.15985642 -0.10826426 -0.094743095 0.44571188 0.18881108 0.045218047 -0.050393652 0.05518838
0.10103161 -0.29271224 0.20704201 0.031230548 -0.22515088 0.06487837 -0.18049178 -0.13483168
0.0776573 0.20137556 -0.06928781 -0.08041956 -0.3158963 -0.4334685 -0.084808126 0.15197252
-0.00936926 -0.3777572 0.19855826 0.28063077 -0.16256173 0.18387154 -0.3038809 -0.0036245778
-0.16215086 -0.18075636 0.37339947 0.36981696 -0.002254002 -0.21829312 0.108986266 0.14405504
-0.053982265 0.25242016 0.050882176 -0.119853735 -0.1374458 0.14181922 0.093561776 -0.21586472
-0.30112147 -0.25250393 0.049070224 -0.16400085 -0.33774233 -0.10499458 -0.041543026 -0.04380175
-0.2883074 0.2633471 -0.1433246 -0.10015676 0.36777118 -0.21639748 0.3613218 -0.13624574
0.08210835 -0.17231598 -0.19913487 -0.22897579 -0.02654338 -0.13743064 -0.40660906 -0.15491825
0.04962227 0.07017681 -0.46539325 0.1819353 -0.048775032 -0.06657279 0.06456737 0.1944541
-0.039205227 -0.002133088 -0.043809474 0.116141275 0.18428949 0.09523348 0.008436351 0.18442549
0.07717247 -0.19694233 0.12475977 0.17243655 -0.14229219 0.30449253 0.15743198 -0.11860374
0.20501769 -0.21398689 -0.1755593 0.34586817 -0.14943773 0.31248966 -0.1901911 -0.09122088
0.13339171 0.09893987 -0.42218345 -0.04028847 -0.19553533 -0.2742912 -0.0031050467 -0.13811055
-0.19584477 0.08106324 -0.1572626 0.04519785 0.26565245 -0.36199173 -0.17593215 -0.2631878
0.17523912 0.16022699 0.13781779 0.17341006 0.22784604 -0.24749254 -0.17233254 0.12038064
-0.09194484 -0.09196731 -0.30226332 0.25431496 -0.3672957 0.09226842 -0.32022333 0.10876583
0.11451275 -0.072179385 0.061804544 0.0575735 0.067645855 0.031930164 0.068526745 -0.04189018
-0.056368794 -0.2932418 -0.026354484 0.34831446 0.41057718 0.20472625 0.12569363 -0.090663485

actor_mean.0.bias f4 [64]
00000000: bd18 6e3b 9e5d 9bbc 3b02 50bd f6fd 16bd
00000010: 732f 86bd 522e b03c 5de6 ab3d b404 bdbc
00000020: 364f edbc aac8 033d 777d 1a3b 7d63 873c
00000030: 0f55 6b3d b601 3d3d 41ab 9c3c f9b9 efbc
00000040: 9cd3 e43c 4fae e5bb 6f3a 883c e52e c83a
00000050: 74a5 c33a 0ac4 a13d a265 93bd 2338 393d
00000060: b43e 74bc 5dad 70bd 199d af3d 76a1 01bd
00000070: 5ce8 b038 8ebb 0c3d f981 853d 631f 3f3b
00000080: 2026 c83a 35d5 0bbe b576 66bc fe77 083d
00000090: 3442 1ebd 846e 213b 19c0 813d ddcd 82bd
000000a0: 4ef4 ed3c d095 82bd ceb4 f9bc 2ea1 2b3c
000000b0: b96f 16bd e8e1 15bd 2ca0 2ebd 60b9 49bd
000000c0: e20c 333b e348 a9bc e9d2 0abd d7ef 933c
000000d0: 8b73 0dbd 8b0a a3bd 1efa 09bc 2f01 24bd
000000e0: 2b13 3f3d 529c a43d 0b29 6e3d b299 02bd
000000f0: a7a0 23bd d12e 2e3d 2537 a83d c7fe 1cbd
0.0036330663 -0.018965539 -0.050783377 -0.03686329 -0.06552019 0.021506462 0.08393548 -0.023073532
-0.028968435 0.03217379 0.0023573318 0.016526932 0.057454165 0.04614421 0.019124629 -0.029263483
0.027932934 -0.0070093046 0.016629426 0.0015272765 0.0014926628 0.078987196 -0.07197119 0.04521955
-0.014907528 -0.058759082 0.08574886 -0.03164812 8.435614e-05 0.034358554 0.06518931 0.0029162995
0.0015270151 -0.13655551 -0.014066388 0.03331756 -0.038637355 0.0024632523 0.06335468 -0.063869216
0.029047158 -0.06376231 -0.030481722 0.01047544 -0.03672764 -0.036592394 -0.04263322 -0.049249053
0.0027320911 -0.020664638 -0.033892546 0.0180587 -0.03453402 -0.07960995 -0.008421449 -0.04004019
0.04664914 0.08037628 0.05814461 -0.031884857 -0.039948132 0.042525116 0.08213643 -0.038328912

actor_mean.2.weight f4 [64, 64]
00000000: 657c 0abe 7797 2a3d 9923 68be 429d 053e
00000010: 3bde cb3e 7ed8 033e db8d 583e 0557 9c3e
00000020: bc0d a93c 7768 9e3e 70e0 463c 5c98 673e
00000030: c8bc dc3c 4c60 faba c6c3 99be 3f76 803e
00000040: e772 9b3e 6eab b4bd 2708 32bd 4c85 10be
00000050: c9d6 bbbe 1d5c c8be 4f87 623e a409 eabd
00000060: 8abf 27bd f4ec cabc 4987 7cbe 61b3 72bc
00000070: cee9 7e3e 7cca d43d fe7d d5bb addc d23d
00000080: 88cb 453d 9c6f 68bd a119 44be f0b7 80bd
00000090: 26dd b13d 4c8c 953c 444d 873c 2856 5f3d
000000a0: 91e5 ad3d b4f8 663e 1094 113c 35b8 363d
000000b0: 56a0 813d fc85 2dbd d6ae ae3d d889 23be
000000c0: 6599 263e 1853 47bc 1f43 41bd 7eaf 863d
000000d0: c6a0 413d f486 c7be 8e19 2f3e 1e4c 19be
000000e0: 52fe 8a3d 1674 dc3e a642 2bbe 1a00 9bbe
000000f0: 300b 273e 405a 81bd 3957 a43e 4b0f bfbd
00000100: 1c63 91be 23ba 143e 159e cebc 6842 fabd
00000110: 762a 143c 776e 853e d4be 63be 386c 39be
00000120: 85ec 8fbc 9798 a73c dd80 4abd dee4 973e
00000130: e4a3 8d3d 848f 613e db3c 543e f243 d23d
00000140: 800d 75be b17b ea3d a8f6 1bbe 9ca6 42bd
00000150: 1f70 b2be 8f01 39bd d157 81bd e93f 2abc
00000160: 63ab 5f3e 29ca a83e 0c64 0d3d c0ab ccbc
00000170: 1d1e 713e 2478 023e b102 a83e 0e07 843d
00000180: a4cc 123d 822e 993c 61cb 843e 3cfa b9be
00000190: ead8 d8bc e8ad 723e e0e1 ae3e 45f4 283e
000001a0: 378a e9be 7be8 a7bd c8db 673e 8d77 e63c
000001b0: 2766 efbd 0b9e 0d3e 9998 b03d f6c7 f4bd
000001c0: 70a7 193d e7ae 303e 3f97 c7bb 43de aabd
000001d0: 3b93 3b3e e532 6a3e c660 79bc a010 e2bc
000001e0: 7615 e3bc 1ffb f7bc 4510 2d3e 73cc 11be
000001f0: cc8e 513e a41c 28be a542 6bbe 6d41 453e
00000200: a42b 633d 823e af3d 8975 4e3e 39fc 40be
00000210: 0181 46bd cd8f 723d 89b4 8a3e 9710 013e
00000220: c9fb ea3e 0bb2 7c3b 5384 c73b 1490 56be
00000230: eae1 d4bd 659d 02be 1fb1 dcbe 52b5 edbd
00000240: b66f a73d 4870 363e 1a57 8cbd e89f 84bd
00000250: 7c48 24bd b9a2 f8bd 9e95 88bb f56d a7be
00000260: f1a2 15bd 43c3 9abc d76d 6a3d c896 e5bd
00000270: 67e9 083e 24af 0f3e 05bf 02be 41ec 7bbe
00000280: cd2e aebe 19db 203e 338f 0b3f 4c80 c53d
00000290: bf4d 18be 9da7 523e 0cdd be3d 9b78 77bd
000002a0: c96e a6bd 5b55 8ebc d6ab 8dbd 5fba a9bd
000002b0: c7b2 c83d 28d0 3e3e 5559 393e 8d22 653d
000002c0: 2030 5fbe f1e9 a63c 96cf d83d 63a3 103b
000002d0: 8ce1 cebd 22df 123e fcc1 7ebe 368f bfbd
000002e0: a20a babd 7567 ee3d 9667 953e 9549 37bd
000002f0: d555 8fbe 2c62 07be 95e5 133e 1008 61be
00000300: 8980 7ebe b8c8 68be 7d3a 763e 7282 a4bc
00000310: 7cce 19be 3283 35bd bb9e 98bd f8aa 12be
00000320: 6fa3 4cbe 0d24 9f3e d39c 17be 4389 bebc
00000330: f79d 56be 4b55 f13e 1df4 8d3e c3f2 e53d
00000340: 4a2a 963e 2630 9d3e 0f7b 39bb 0ce1 193d
00000350: 0784 893e 7678 57be e585 df3d d7bb 4cbe
00000360: 925d da3c bd39 4dbd 7a87 ee3d a007 a03e
00000370: 2c82 3ebe 21fa 35bd f85e 84be 790d 11bc
00000380: c5aa d1bd 3b3f d53d 9ecf af3e 5acc e93d
00000390: c837 683d ba9b c23a 278f 4e3e 6540 bc3d
000003a0: 8a60 c8bd 8cb9 083e bd5e b23d 5d63 22bd
000003b0: 769c afbd 6619 503c 77d0 9d3d 7437 943d
000003c0: eb39 df3d 95fd 8dbd 1dff 31be 3fa4 6abe
000003d0: 6c9f ed3d 8aa2 47bb 3c90 89be 8aad 66bd
000003e0: db31 b4bd 613d 8a3e 0ddf ebbe 0a19 dd3d
000003f0: cbac fabd 0146 643e 3ba3 793d 9d00 e8bc
-0.13524015 0.041648354 -0.2266983 0.1304827 0.39817986 0.12875554 0.21147864 0.3053514
0.020636432 0.30939075 0.012138471 0.22616714 0.026945487 -0.0019102185 -0.30032176 0.25090215
0.303611 -0.0882176 -0.043464806 -0.14113349 -0.36687306 -0.39132777 0.22121929 -0.1142762
-0.04095415 -0.024771191 -0.24660982 -0.014813275 0.24893877 0.10390183 -0.0065152636 0.10295997
0.048289806 -0.056747064 -0.19150402 -0.06285083 0.08684759 0.018255375 0.016516335 0.054525524
0.08491052 0.2255581 0.0088853985 0.044609267 0.0632941 -0.042364106 0.08529441 -0.15970552
0.16269453 -0.012165807 -0.047183152 0.06576441 0.047272466 -0.3897015 0.17099592 -0.14970443
0.06786789 0.43057317 -0.16724643 -0.30273515 0.16312861 -0.06316042 0.32097796 -0.09329089
-0.28395927 0.1452413 -0.025221864 -0.12219697 0.009043327 0.2606084 -0.22240764 -0.18107688
-0.017568836 0.020458503 -0.0494393 0.296668 0.06916025 0.22027403 0.2072634 0.10266866
-0.23930931 0.114493735 -0.1523081 -0.047522172 -0.34851167 -0.045167502 -0.06315578 -0.010391214
0.21842723 0.32966736 0.03451924 -0.02498424 0.23546644 0.12741143 0.32814553 0.06446658
0.03583969 0.018698934 0.25936416 -0.36323726 -0.02647062 0.23699152 0.34156704 0.16499431
-0.45613262 -0.08198639 0.22642434 0.028133178 -0.11689406 0.1382982 0.08622856 -0.11952202
0.037513196 0.1725422 -0.006091028 -0.08343174 0.18317883 0.22870977 -0.0152208265 -0.027595818
-0.027720194 -0.030271111 0.16900738 -0.14238147 0.20464629 -0.16417176 -0.22974642 0.19263239
0.05546154 0.08556844 0.20162024 -0.18846215 -0.04846287 0.05921917 0.27090862 0.12603985
0.45895222 0.003855827 0.0060887723 -0.20953399 -0.10394652 -0.12755354 -0.43103883 -0.1160685
0.08175604 0.1781627 -0.06852551 -0.06475812 -0.04010819 -0.12140412 -0.0041682264 -0.32701078
-0.036532346 -0.018891936 0.057233658 -0.112104 0.13370286 0.14031655 -0.1276818 -0.24601842
-0.3402008 0.15708579 0.5451538 0.09643611 -0.14873408 0.20571752 0.09319505 -0.060417753
-0.08126599 -0.017374685 -0.06917541 -0.082875006 0.09799724 0.18634093 0.18100484 0.055941153
-0.21795702 0.020375224 0.10586469 0.0022070042 -0.101016134 0.14342931 -0.24878687 -0.09353487
-0.09084059 0.116408266 0.29180592 -0.044747908 -0.27995172 -0.13221043 0.14443047 -0.21975732
-0.2485372 -0.22732818 0.24045749 -0.020081732 -0.15020174 -0.04431457 -0.074521504 -0.14323032
-0.1998422 0.31082192 -0.14805917 -0.02325881 -0.20958696 0.47135386 0.27725306 0.11227944
0.2932914 0.30700797 -0.0028302108 0.037568137 0.2685854 -0.21042046 0.1091421 -0.1999353
0.026655946 -0.05010389 0.11646934 0.31255817 -0.18604344 -0.044427995 -0.25853705 -0.00885331
-0.1023765 0.10412451 0.34338087 0.1141593 0.056693822 0.0014847436 0.20171796 0.0919197
-0.09784038 0.1335203 0.08709476 -0.03964554 -0.085747644 0.012701368 0.07705777 0.07237139
0.10899719 -0.069331326 -0.17382474 -0.22914217 0.11602673 -0.003046187 -0.26867855 -0.056317843
-0.08798572 0.26999953 -0.46068612 0.107957914 -0.12239989 0.2229233 0.060946684 -0.028320605

actor_mean.2.bias f4 [64]
00000000: d4ec 3abc d078 b63c e9bd 59bc 1118 243c
00000010: 9690 f13b e3c7 91bc 8aed a1bc 699a 46bc
00000020: 3f10 1dbd 25a4 a2bc fe2d 0d3c d92d 7a3b
00000030: 8746 d83c e810 e7bb 1efc 6abd 8ee6 563c
00000040: 504f 33bd 5cbe 31bd d1b2 14bc 2e66 453d
00000050: 7e49 36bc 461b 02bd 25cf 74bd b83b ef3c
00000060: a693 753d 172b 9a3c 7b9e b53d 865a f03c
00000070: 114f 27bd 1f1d 853c bab8 e93b af7a f2bc
00000080: b943 1cbc 7f14 94bc 4df7 9a3c b630 68bb
00000090: e4c2 f8bc 3aa7 2b3b 7f63 803c b448 1e3d
000000a0: 3cc3 543d a753 933c a37f 743c f25b 313c
000000b0: 1e10 44bd 33e2 aa3c 183d 573d e6a0 ba3c
000000c0: 36bc b7bc 65e9 503d cd5b 7e3c 910d 09bc
000000d0: c339 953c 3cfe f0bc 4b31 223d 6b47 10bb
000000e0: fbbc 50bd ee78 783c a204 15bd 9c71 df3c
000000f0: 6a38 02bc df3d f73c 1de5 dabc 46f7 213c
-0.011409003 0.022274405 -0.013289907 0.0100155035 0.0073719723 -0.017795509 -0.019766588 -0.012121775
-0.03834557 -0.01985366 0.008616922 0.00381743 0.026400818 -0.007051576 -0.057369344 0.013116492
-0.04377681 -0.04339443 -0.009075836 0.04819315 -0.01112592 -0.03176429 -0.05976786 0.02920328
0.05995526 0.018819375 0.088681184 0.02934004 -0.040846888 0.016249238 0.007132617 -0.029599516
-0.009537631 -0.01807618 0.01891675 -0.0035429425 -0.030366369 0.0026192204 0.015672443 0.038643554
0.051944003 0.017984224 0.014923009 0.010825144 -0.047866933 0.020859813 0.052548498 0.0227818
-0.022428613 0.051003832 0.015524817 -0.008365051 0.01821602 -0.029418103 0.03959779 -0.0022015225
-0.050961476 0.015165551 -0.03638137 0.027275853 -0.0079480205 0.03018087 -0.026720578 0.009885615

actor_mean.4.weight f4 [4, 64]
00000000: 8e03 31bc dfe8 a03b da08 6e3c 1732 c73b
00000010: 2811 f0bc 0830 80bc 4e8e 2bbc 0d9c 6abb
00000020: fbf3 6fbb e612 3abc e794 6c3b 756a b53b
00000030: 11d0 793c 1f34 cc3b 24de 083d 5408 fd3b
00000040: f374 38bc 0e6c a83b ee1f 603c 2089 acbb
00000050: d825 b53b 7f9e 77bc 8e9c 7bbc c5fd cbbb
00000060: 608c 2d3c 40dc 433c b536 e0bc 8ae1 483c
00000070: 990c 27bd f996 223c 0dc9 5fbb cf5e 443c
00000080: 189b e53a 0b76 51ba aa7b 69b9 fb5e 61b8
00000090: 7376 aa3b 90ee 233b d4d8 473a f5be 293c
000000a0: 9ec2 553b 2c82 473c 40fa 903b 4d31 0c3d
000000b0: c2e6 4abc 225f c13c c67f b53b 8e59 a53b
000000c0: 3b10 dabb 801c e83a 9fe6 a63b 92ab abbc
000000d0: 3117 50bc 113c 23bd 8495 cebb f7de 4c3c
000000e0: 0295 983b 5e56 1ebd ae7d 02bb 402e 423c
000000f0: bdb9 04bb 716d 8dbc 2489 8abc cd56 fd3b
00000100: 1206 113d 3334 d2bc 36be b13a 6151 1dbb
00000110: 8b4d 593b baee 92bb 2117 e3ba 90a9 8fbb
00000120: 5e8e 9fbc a6f5 b4bb 2e33 c13c 8326 503c
00000130: 71e7 d8bb 736a 1c3c 508e 6eb9 9404 d73b
00000140: dce6 f93c 1fae e0bb 6e45 aa3b 86fc d63c
00000150: 1963 003c 99d6 5ebb 435d 8fbc 7a2f 8fbc
00000160: 8ebc 43bc 227c f6bb 551c 7fbc a972 153c
00000170: 8636 3a3c 5148 79bb 3c2c bfbc 8e2a 38bd
00000180: 8858 45bb 86d8 e8bc dd75 23bc 2bb8 ca3c
00000190: ac52 2dbc 0d29 253c 9af7 47bc cd40 8f3b
000001a0: 9e81 b6bb f498 153d 19ff 91bc 08d4 e5bc
000001b0: 0818 52bb 925d 76bc cbe1 8b3c 0a34 663c
000001c0: 8480 bb3b 1a5e 053c ec31 26bc 86ca 03bc
000001d0: adb3 38bc f0af b23c 64fb c13b 12e2 c5bb
000001e0: 9cfc a63b d5d5 88bb 5953 92bb 6b1c 633c
000001f0: 199e 11bc ade4 d73c ab9b de3c d0a0 0f3d
00000200: b93b 1c3b 35f4 6abc 3bbd 923c f1d4 4ebc
00000210: fbc2 90ba 7616 b83b c8b3 57bc 98ef bc3b
00000220: 0082 033d 16ea 283c cd8c 1ebb 986c 49bc
00000230: aa7a 373c a3f2 b2bc 88fa 07bd 5dc9 e1ba
00000240: 3fb8 5dbc 836f b1bb d134 8d3c 26f5 85bc
00000250: 93c3 93bc 5fe0 59bc b9a8 df3b 6f33 7dbb
00000260: d499 223c d101 41bc c3f8 5e3c 5f26 453b
00000270: 6377 c63b eeca c23c 91b9 8cbc 1adf 253c
00000280: 7dbe cbbb 7cea 813c 4675 823c 8671 e53b
00000290: 6d13 dbbb f78a 2cbc d702 a9bb 0ca0 313c
000002a0: e5f9 07ba 63b2 ac3c c379 403c 0dad 533b
000002b0: be5e 243c e32a aebc a99e c73c f93a db3c
000002c0: c736 9b3c 5e39 ae3b 8459 933b cf49 ab3c
000002d0: 7aaf 153d 6d51 30bd 3543 863c 85b0 963c
000002e0: 8a73 d339 652e 783b 2d3e caba 4dbe 163c
000002f0: d379 ecbb c66a fe3b 6931 ea3b 4346 94bc
00000300: 15b6 bd3b 59b9 613c c8b7 8fbb c603 f63c
00000310: ddd8 76bc e92c 2b3b 8aa5 ae3c afb0 463b
00000320: 4b41 6c3c 9eb6 c4bc cfb7 beb9 01ca 19ba
00000330: f715 013c 87db ca3c 41bc d2bb 991d 883b
00000340: 56e0 c3bb deda e739 055f f23c b910 4d3b
00000350: 5289 07bc 2760 123b ecf7 3cbc fbbe 273a
00000360: 0a09 82bc 7281 1a3c 5960 95bc 59e3 d83c
00000370: 48ff 913c 7376 9ebc 9169 8ebb 05cc cc3b
00000380: 3a96 2e3b 491c 7a3b 6128 d3bb daa8 2b3b
00000390: 151c 94bb 61d5 96bc 600e 66bc bdcf d33c
000003a0: 184a 2abc 481b 2a3d 50b1 08bc 9c7b 663c
000003b0: d053 e23c c6b4 c13b 0caf 893c d40c 27b9
000003c0: 7f80 e63c 5b03 433c 674b bd3b a903 2a3c
000003d0: 197c a83a e39f 21bb 335d eb3b afd1 1cbc
000003e0: 8254 4dbb 9e97 a93a f194 87bb 270b c8bb
000003f0: 46fb 823b 8709 823c 7cff 91bc a5af 85bb
-0.01080407 0.004910573 0.014528478 0.006078969 -0.029305056 -0.015647903 -0.01047094 -0.003579858
-0.003661393 -0.011357045 0.0036099495 0.0055363723 0.015247361 0.0062317993 0.033414975 0.00772194
-0.011258352 0.0051398342 0.013679488 -0.00526537 0.005528193 -0.015113472 -0.01535715 -0.00622532
0.01059255 0.011954367 -0.027369836 0.012260804 -0.0407835 0.00992369 -0.0034146935 0.011985495
0.0017517535 -0.0007990307 -0.0002226668 -5.3732638e-05 0.0052021085 0.002501402 0.00076235575 0.010360469
0.0032617222 0.0121770315 0.0044243634 0.034226704 -0.0123841185 0.023604933 0.0055389134 0.005046076
-0.006654767 0.0017708689 0.00509341 -0.020955835 -0.012700842 -0.039852206 -0.0063044447 0.012504331
0.004656435 -0.038656585 -0.0019911337 0.011851847 -0.002025231 -0.0172641 -0.016911097 0.0077312947
0.03540618 -0.025659656 0.0013560716 -0.0024004804 0.0033157791 -0.004484025 -0.0017325619 -0.004384227
-0.019477066 -0.0055224476 0.023583975 0.012704494 -0.006619387 0.009546864 -0.00022750464 0.006561825
0.03050559 -0.0068566944 0.005196265 0.02624346 0.007836127 -0.0034002422 -0.017500525 -0.017478693
-0.01194681 -0.007522122 -0.01557072 0.009121575 0.011365538 -0.0038037489 -0.023336522 -0.04496246
-0.0030112583 -0.028423559 -0.009976831 0.024746021 -0.010578793 0.010080588 -0.012205029 0.0043717385
-0.005569651 0.03652282 -0.017821835 -0.028055206 -0.003205778 -0.015036957 0.01707544 0.014050493
0.0057221074 0.008140111 -0.010143738 -0.008043891 -0.011273307 0.02181241 0.0059198607 -0.0060389126
0.0050960314 -0.0041758814 -0.004465502 0.013861756 -0.008887791 0.026354158 0.027173838 0.035065472
0.0023839308 -0.01434045 0.017912498 -0.012624011 -0.0011044437 0.005617912 -0.013165422 0.0057658665
0.0321064 0.010309717 -0.002419281 -0.012293957 0.011198679 -0.021844214 -0.03319791 -0.0017226149
-0.013532697 -0.0054149046 0.017237099 -0.016352247 -0.018037593 -0.013298123 0.006825533 -0.0038635393
0.009924371 -0.011780218 0.013609114 0.0030082685 0.0060567125 0.023778405 -0.017178329 0.010123992
-0.0062177763 0.015858881 0.015925061 0.0070020584 -0.0066856653 -0.010531179 -0.0051578092 0.010841381
-0.00051870785 0.021081155 0.01174778 0.0032299191 0.010032354 -0.021260684 0.024367647 0.026761519
0.018947018 0.0053168973 0.004496755 0.020909218 0.0365443 -0.043046404 0.016389469 0.018394718
0.0004033114 0.003786945 -0.0015429907 0.009200645 -0.007216671 0.007764193 0.0071470034 -0.01809991
0.005789528 0.0137771005 -0.004385922 0.030031096 -0.015066353 0.0026119298 0.02131917 0.0030317714
0.014419864 -0.02401286 -0.00036376572 -0.0005866588 0.007878772 0.024762882 -0.006431133 0.004153919
-0.0059776707 0.00044222822 0.029586324 0.0031290485 -0.008272486 0.0022335143 -0.011533719 0.0006399003
-0.01587345 0.009430276 -0.018234419 0.026475595 0.017821923 -0.01934359 -0.0043460806 0.006249907
0.0026639835 0.0038163832 -0.0064440225 0.0026193173 -0.004519949 -0.018412294 -0.014041513 0.025855893
-0.010393642 0.041529924 -0.008343056 0.014067557 0.027627856 0.0059114425 0.016807102 -0.0001593114
0.028137444 0.0119026555 0.005776811 0.010376849 0.0012854367 -0.002466195 0.007182741 -0.009571477
-0.0031330888 0.0012938862 -0.0041376282 -0.006104845 0.0039972393 0.015873684 -0.01782202 -0.0040797764

actor_mean.4.bias f4 [4]
00000000: 0da3 0b39 6dbc 96bb ee54 1dbc 1091 753c
0.00013316814 -0.004600099 -0.009602768 0.014988199

in_proj.weight f4 [32, 2]
00000000: fe42 a33e 0aa1 0f3f a4f3 203e 4038 613e
00000010: 0d83 0e3f 42b3 c1be 9780 44bd b7bf 27bf
00000020: 0960 6d3e 4841 f83e 144b 06bf d956 c3be
00000030: eb6a 17bf e246 823e 0635 81bd 2379 15bf
00000040: db26 333f b47a d23e ac4e f8be 564e ebbd
00000050: 9f2f 0a3e 6489 ebbd db68 75be 600b 033f
00000060: 609b c0be d21b 373f 8caa 143f bfdd 29bf
00000070: 8327 213e 7443 11bf c3ab 86be bd7a 0dbf
00000080: 82b6 19bf 8aac 21bf 8b95 3abe b3b7 7b3e
00000090: d076 d53b 040f d3be 12d2 d8bb 580e 043d
000000a0: e732 733e 27d0 823e 9fab 013e 856e c43e
000000b0: 57c3 9bbd 0063 513e d1de 593e c11d 56be
000000c0: b71c 443d 6a9b 05be 3354 20bf 63b1 7fbe
000000d0: e073 633e ea8a 0ebf e97d 9ebe 0738 f53d
000000e0: d9a1 19be 6b74 113e a188 1d3e 7ed3 803e
000000f0: 0361 c13d e878 26be ce64 1abf 423e 09bf
0.31887048 0.561051 0.15717942 0.21994114 0.5566872 -0.37832075 -0.047974195 -0.6552691
0.23181166 0.48487306 -0.5245831 -0.38152197 -0.5914752 0.25444704 -0.063089415 -0.58387965
0.69981164 0.4110924 -0.48497522 -0.11489551 0.13494729 -0.115008146 -0.2396578 0.5118923
-0.37618542 0.71526825 0.58072734 -0.6635398 0.15737729 -0.5674355 -0.2630292 -0.5526541
-0.6004411 -0.631539 -0.18221109 0.24581794 0.0065144077 -0.41222394 -0.006616839 0.03224024
0.23749886 0.25549433 0.12663125 0.3836557 -0.076056175 0.20447922 0.21276404 -0.20909788
0.047878947 -0.13047567 -0.6262848 -0.24970011 0.22212172 -0.55680716 -0.30955437 0.11973577
-0.15003146 0.14204566 0.15384151 0.25161356 0.09442332 -0.1625706 -0.60310066 -0.5361062

in_proj.bias f4 [32]
00000000: 2c98 3bbf 3325 ed3e 1d28 ca3d 10f5 55be
00000010: f569 09be 3672 053f 574b 04bf 16bc cfbe
00000020: 956c 5cbd 1e5b 023f 859b 9e3e 3ea4 a6be
00000030: cb3c 173d 48a0 663e 259b 173e f7d7 14bd
00000040: c516 9abe 6858 f43e c5a2 17bf c6d1 1cbf
00000050: 2d5c 153f 6e36 d8be f97f 97be 3e58 c5be
00000060: 49e2 0abf d2b8 353e 2e09 4f3e 0d4e 723e
00000070: 9d65 d23e d194 843e 4636 90be a843 1c3f
-0.7327907 0.46317443 0.09870932 -0.20894265 -0.13419326 0.521274 -0.5167746 -0.40573186
-0.05381449 0.50920284 0.30978027 -0.32547182 0.03692321 0.2252208 0.14805277 -0.036338773
-0.30095497 0.477237 -0.5923274 -0.6125759 0.58343774 -0.42229027 -0.29589823 -0.38543886
-0.54251534 0.17746285 0.20218346 0.23662587 0.4109315 0.25894788 -0.28166407 0.61040735

encoder.layers.0.self_attn.in_proj_weight f4 [96, 32]
00000000: daa4 383e 0ef7 7bbd 1e6e 34bd f7a4 093e
00000010: b002 b4bd 11c7 3abe a5e9 66be e688 4abd
00000020: 7ac2 2d3e 6afa ddbd 8a82 66bc eb96 083e
00000030: 093f 04be 8d18 1dbe 92f5 673e a639 da3d
00000040: d9df 1e3e 31cc 60be dd56 593d 4ec8 8fba
00000050: ffe8 c03c 5698 01be a426 c6bd 4a3a e9bd
00000060: 0cb7 153e e3b2 71be 4611 463d 17b7 6cbe
00000070: cdab e8bd 0329 743c d553 04bc f439 813d
00000080: 43c8 fc3c 136e 13be 9d6e 9e3d 693a 3f3e
00000090: 410c 7f3d 30bc 6cbe 2efd 093e 5c58 bebd
000000a0: 9339 403e fbe7 89bd 7e5e 023d 3456 53be
000000b0: 943d 533b a7d7 013e be8a 0f3e ee54 f7bc
000000c0: d9b8 393e 4019 1e3e acb1 39bd ee61 253e
000000d0: f0ca 613e 98e3 12be c969 58bd 6628 6dbb
000000e0: be8a 8e3d d8dd d7bd b6fa 073e 9a8a 03bd
000000f0: a101 bf3c b3b6 dcbc 645d 8a3d a137 b6bd
00000100: cbf3 bdbd fdff 2dbe ccd2 713d 60f1 383e
00000110: 42b3 443d 0fc3 993d 83e8 13be 68d8 59be
00000120: a0b2 9abd c4ac 723e 9d35 db3d aa8b 2abe
00000130: 76bb 713e e33e a8bd 6c76 ff3d 59fd 35bd
00000140: 9196 6abd 54b3 b33d 69e1 003e 56c5 083e
00000150: 0f24 4cbe 5eef 66be f7c3 cc3d e506 e5bd
00000160: d175 45be 39c3 21be 712b a63d eae1 803e
00000170: 9362 6c3e 8c9e acbd ea58 17be 6daa db3d
00000180: 9e8e 64be 6838 433e ba0e 373e 5d72 72bd
00000190: 73f2 e2bc 853f 693e 186d 58bd d1a7 823d
000001a0: f1fd 45be 4fa8 83bd 53c6 4ebe 92cb 18be
000001b0: 59c3 103e f12b 5bbd 23b4 e3bd b615 c43d
000001c0: 9e33 fb3d 3d75 573d a891 f13d 9794 823d
000001d0: 322d febd 3f59 8e3d 21f6 4abe 87d1 0dbe
000001e0: 4f61 dbbc 091f 203d a392 0fbe e2a6 31bd
000001f0: eb0e b0bd 63f0 cb3d ad33 c33b 35c5 893b
00000200: 16a9 07bd 040e 873d 7a43 aebc 570e 96bd
00000210: f352 91bc 2b8f f6bd 94c0 333e dcc1 863d
00000220: ce2d 60bd a2ad 963d 0352 053e 4383 aebd
00000230: 09a2 08be 87ed 96bd 5dfd 92bc 0f5f 88bd
00000240: ea7c 47bb 8e54 863e 5a75 b33c c437 83bd
00000250: c756 a8bd 1707 abbc f104 393d c580 b13c
00000260: f365 273e d4d4 7fbd 662f 1d3e 2542 c93d
00000270: 5ace 763e 721c 443e 5571 86be 77bf 093e
00000280: 9919 213d e08b 0e3e 5adf e9bd 7350 cdbd
00000290: bffb 15bd 96b1 25be 04e2 ef3c 9f94 fcbb
000002a0: 88b0 0a3e f5be e33d f11e 0e3e 2612 38bd
000002b0: 8454 02be 6f74 9e3d bbdc b03c 3150 523d
000002c0: 285f 543e 58a3 1e3e 0947 ff3c ea9e ef3c
000002d0: c917 37be 0521 4fbe dc32 0a3e c209 a8bd
000002e0: e045 2f3e fb6f 2a3e 342f c93d a8f7 623e
000002f0: 2886 a13d 9115 f53d 6799 30be f214 b73c
00000300: 1ca6 683d 00b0 d53c fcf4 44be 9780 1bbe
00000310: cf2f 6e3d 3913 20be a17a 2d3e caa9 b23d
00000320: c93c 8abd 251e a43d 21b3 123e 25a0 14be
00000330: d7b1 473d 77b1 6cbe e150 8a3d 01e2 2ebe
00000340: 4730 a83d fab3 3b3e a94a 80bd 1dd2 92bd
00000350: ca55 e0bd 6f63 27be 7f54 b0bb 0703 adbd
00000360: 7f67 3b3e d745 683e 6b34 e6bd b57c 88bd
00000370: ccbd 3dbd b67d febd 0d5c 06bd c75f 2fbe
00000380: 18e9 8ebd b2d3 37bc 5fae 043e f328 d4bd
00000390: 3222 f93d 8507 ef3d 2ded 17be ba1c 65be
000003a0: 9753 913d 3712 1abe 064f ef3d 99f2 30be
000003b0: 6efd ca3b 5f04 38be ad92 55bd a819 28be
000003c0: f5a7 43be b490 e83d d1bf 043d 37bc 283e
000003d0: bcb9 21bc 09f3 4f3d 70af 42be 6697 2bbe
000003e0: aad4 2dbe 2ef7 aebc 1de3 edbd 43d5 593e
000003f0: e8dc adbd 0d1f 813d 19e6 f83d a8cc 3b3e
0.18031636 -0.061514907 -0.04405033 0.13441835 -0.08789575 -0.1824 -0.22550066 -0.049446963
0.16968718 -0.10838778 -0.014069209 0.1333882 -0.12914671 -0.15341397 0.22652271 0.10655527
0.15515079 -0.21952893 0.053061355 -0.001096973 0.023548601 -0.12655768 -0.09675339 -0.11388071
0.14620608 -0.23603396 0.048356317 -0.23116718 -0.113608934 0.014902356 -0.008076628 0.06309882
0.030857211 -0.14397459 0.077359416 0.18674625 0.062267546 -0.23118663 0.13475487 -0.09294197
0.18771963 -0.067337 0.031828396 -0.20638353 0.0032232748 0.12679921 0.1401777 -0.030191865
0.1813692 0.1543932 -0.045335457 0.16150638 0.22050071 -0.14344633 -0.05283526 -0.003618741
0.06960057 -0.1054036 0.13279232 -0.032114603 0.023316206 -0.026942587 0.06756094 -0.08897329
-0.092750154 -0.16992183 0.059038922 0.18060827 0.048022516 0.075079076 -0.14444165 -0.21273959
-0.07553601 0.23698717 0.10703585 -0.1665484 0.23606667 -0.0821512 0.12473759 -0.044431064
-0.057272498 0.087744385 0.12585987 0.13356528 -0.1993563 -0.22552249 0.09998315 -0.11182956
-0.19283225 -0.15797128 0.081137545 0.2517236 0.23084478 -0.08428678 -0.14780012 0.107258655
-0.22320029 0.19064486 0.17876711 -0.059191097 -0.0277035 0.22778137 -0.052838415 0.06379665
-0.19335152 -0.06428587 -0.20192842 -0.14921406 0.14137019 -0.053508703 -0.11118343 0.095744535
0.122657046 0.05260204 0.1179536 0.063759975 -0.12410964 0.06950616 -0.19820453 -0.1384946
-0.026779799 0.039092097 -0.14020781 -0.043372042 -0.085965954 0.099579595 0.005957088 0.004204417
-0.033120237 0.0659447 -0.02127241 -0.07326954 -0.017739749 -0.12039026 0.17553931 0.065799445
-0.054731183 0.073573366 0.13019566 -0.0852113 -0.13343062 -0.073695235 -0.017943079 -0.06658756
-0.0030439445 0.26236385 0.021906544 -0.06407121 -0.082196765 -0.020877404 0.045170728 0.021667847
0.16347484 -0.062458828 0.15350112 0.09827069 0.24102154 0.19151476 -0.2625834 0.13451944
0.039331052 0.13920546 -0.11419554 -0.1002511 -0.036617037 -0.16181025 0.029282577 -0.0077081467
0.13543904 0.111204065 0.1387899 -0.044939183 -0.12727553 0.07737052 0.021589627 0.051346008
0.20739424 0.15491998 0.031161802 0.02925058 -0.17880167 -0.2022744 0.13495964 -0.08204986
0.17116499 0.1664428 0.098234564 0.22164786 0.078869164 0.11967004 -0.17246018 0.022348855
0.05679904 0.0260849 -0.19234079 -0.15185772 0.058151063 -0.15632333 0.1694131 0.08723791
-0.06749875 0.08013562 0.14326145 -0.14514215 0.048753586 -0.23114572 0.06753708 -0.17078401
0.08212333 0.18330374 -0.0626424 -0.07168982 -0.10953863 -0.16346525 -0.0053811665 -0.08447843
0.183012 0.22682892 -0.11240467 -0.06664411 -0.046323583 -0.12426321 -0.03280263 -0.1712638
-0.06978053 -0.011219906 0.12957142 -0.10359373 0.12164725 0.11671356 -0.14836569 -0.2237424
0.070960216 -0.15046011 0.116849944 -0.17280044 0.006194762 -0.17970417 -0.052141834 -0.16416037
-0.1910704 0.11355725 0.032409493 0.16478048 -0.009870943 0.050768886 -0.19012237 -0.16756973
-0.16975656 -0.021358099 -0.11615584 0.21272759 -0.084894 0.063047506 0.12153263 0.18339789
