saved_agents/dm_humanoid_c.pth (torch, 156885 bytes, 26 tensors)

actor_logstd f4 [1, 21]
-0.30376706 -0.2954234 -0.3074576 -0.4004938 -0.36986107 -0.31753537 -0.32171786 -0.35655028
-0.33489165 -0.310474 -0.3754295 -0.34164086 -0.22215183 -0.35817188 -0.32686296 -0.26066446
-0.32936397 -0.33297956 -0.35501525 -0.32979935 -0.30867425
00000000: 5b87 9bbe bc41 97be 156b 9dbe 860d cdbe
00000010: 6e5e bdbe ff93 a2be 34b8 a4be c28d b6be
00000020: eb76 abbe 73f6 9ebe 4c38 c0be 8deb aebe
00000030: c57b 63be 4e62 b7be 955a a7be d075 85be
00000040: 65a2 a8be 4c7c aabe 8fc4 b5be 76db a8be
00000050: 8d0a 9ebe

critic.0.weight f4 [64, 69]
-0.38908136 0.41281724 -0.34265754 -0.105098255 0.116921216 0.07788297 -0.16479684 0.008804602
-0.14734392 0.22774221 -0.432187 0.03730415 -0.4864942 0.33416557 -0.21371382 0.23776211
-0.0015706469 -0.11913191 0.13779056 -0.10744248 -0.40978137 -0.08241096 -0.0077538555 -0.100972086
0.2828437 -0.25796047 0.19890419 -0.26596126 -0.28790718 -0.048307765 0.3100409 -0.12499277
0.09126734 -0.08741607 -0.046287615 0.2148806 0.057262506 0.021150202 -0.124532804 0.27658024
-0.19618976 -0.18390626 0.052457318 -0.055314343 -0.039328158 0.21939598 0.0019973984 -0.16348147
0.04469745 0.20695563 -0.033967048 -0.17435046 -0.3081129 0.30343795 0.12997569 -0.15686584
-0.061440457 -0.15619361 -0.30279177 -0.11164535 0.18423836 -0.025791276 -0.3528756 0.15890087
-0.09664216 4.5961904e-05 0.25042602 0.38015914 -0.084000304 -0.5431004 -0.3331992 0.3665223
-0.2741287 -0.46493873 0.122865535 -0.18109001 -0.14387187 0.70941556 -0.21788104 0.29822463
-0.009013673 -0.26875782 0.32986605 0.4619968 -0.54069626 0.07666316 0.5214299 0.21373197
0.4548536 0.42219684 0.3826626 0.26962945 0.13169521 -0.016445275 0.0804217 0.023990428
0.23826441 0.050809227 -0.10653849 0.46034402 -0.074633114 0.28025144 0.11208175 -2.2422368e-05
-0.21287403 0.2420097 -0.14077468 -0.12732144 -0.03930134 -0.16157745 -0.046111606 -0.049198102
-0.2526504 0.07254145 0.05765903 0.06710189 0.1204432 -0.08974744 0.1282894 -0.03228266
-0.048417147 0.07917441 0.0074280766 0.23753572 -0.10577538 -0.20016982 -0.44799727 0.045988813
-0.08773461 -0.0083147 0.26186943 0.18949759 -0.21741708 0.08823937 0.3368314 -0.08784598
-0.07857861 -0.4555488 -0.004448436 0.16147639 -0.11959684 0.189843 -0.10477425 -0.36109388
0.2814995 -0.36559442 -0.13035451 0.24314307 -0.004490258 0.31850368 0.309977 -0.34303507
-0.34696776 0.20024537 0.3005602 -0.44650775 -0.01966968 0.12183565 0.17862043 -0.056967832
0.07760311 0.5235034 0.034282606 -0.17317997 0.077560276 0.28448611 -0.16161804 -0.01444999
0.28350118 0.15727662 -0.2835519 -0.05246098 -0.50964123 0.021641316 -0.25050434 0.17264871
-0.27712813 0.13048035 -0.023655267 0.0058572446 0.18294668 0.10634665 -0.13332397 0.13471052
-0.24866338 0.014053856 -0.39896423 0.08990979 0.18803439 -0.12603126 0.011441994 -0.18815361
0.056406125 0.15533662 0.2029034 0.2575573 0.15964621 0.036768746 -0.23575985 0.047273427
-0.09393046 -0.22317177 0.106727265 0.04183116 -0.23423873 0.3090562 -0.0394682 0.23328619
-0.11022065 -0.27104118 -0.03579894 0.7677765 -0.17199713 -0.5246561 0.17293188 -0.44308433
0.5727553 -0.4954388 0.18902116 -0.4118213 -0.5348109 -0.64001274 0.4580012 -0.14775828
-0.34483257 -0.37123212 -0.18871675 -0.48997283 0.43681 -0.5485364 0.14208305 -0.023375416
-0.5177602 -0.12983777 -0.10949127 -0.62804663 0.11665154 -0.19956909 -0.24525003 -0.407412
-0.11522537 0.08878602 0.23132892 -0.12593623 -0.18276373 0.23961078 0.5090936 0.123096004
-0.14367919 -0.17197445 0.00011390709 -0.36832485 -0.034865677 -0.023166947 0.10498762 0.058412418
00000000: ac35 c7be c85c d33e cf70 afbe c13d d7bd
00000010: 6474 ef3d 1b81 9f3d 81c0 28be 2d41 103c
00000020: 53e1 16be 4135 693e 9d47 ddbe 3dcc 183d
00000030: c515 f9be c017 ab3e ccd7 5abe e977 733e
00000040: 2ade cdba 6efb f3bd f818 0d3e ce0a dcbd
00000050: ddce d1be 14c7 a8bd 0e14 febb 74ca cebd
00000060: e4d0 903e 6513 84be 8aad 4b3e 132c 88be
00000070: 9268 93be 5dde 45bd aebd 9e3e 36fc ffbd
00000080: 5fea ba3d 3207 b3bd 1598 3dbd a909 5c3e
00000090: 178c 6a3d 3043 ad3c 0e0b ffbd ed9b 8d3e
000000a0: f8e5 48be ec51 3cbe 7cdd 563d 4b91 62bd
000000b0: 9016 21bd 57a9 603e c9e6 023b b067 27be
000000c0: ac14 373d 2dec 533e 0821 0bbd ed88 32be
000000d0: f9c0 9dbe 385c 9b3e 5918 053e 70a1 20be
000000e0: fda8 7bbd 38f1 1fbe 8607 9bbe 51a6 e4bd
000000f0: fba8 3c3e 3a48 d3bc 1cac b4be e9b6 223e
00000100: 53ec c5bd 38c7 4038 d737 803e 38a4 c23e
00000110: 5a08 acbd a108 0bbf 1699 aabe d0a8 bb3e
00000120: 995a 8cbe 730c eebe eda0 fb3d a96f 39be
00000130: 2653 13be 429c 353f 351c 5fbe e6b0 983e
00000140: 16ae 13bc a09a 89be 34e4 a83e d88a ec3e
00000150: 126b 0abf 9301 9d3d 6e7c 053f 8edc 5a3e
00000160: 92e2 e83e 2f2a d83e 5aec c33e df0c 8a3e
00000170: 1cdb 063e 3eb8 86bc 22b4 a43d 9387 c43c
00000180: 96fb 733e 561d 503d da30 dabd 36b2 eb3e
00000190: 3fd9 98bd 1e7d 8f3e 1e8b e53d ab17 bcb7
000001a0: a6fb 59be 64d1 773e 3d27 10be 8d60 02be
000001b0: 71fa 20bd 8f74 25be 86df 3cbd f383 49bd
000001c0: 655b 81be 9d90 943d e02b 6c3d b76c 893d
000001d0: edaa f63d 81cd b7bd 4c5e 033e d33a 04bd
000001e0: 0f51 46bd 3126 a23d 3967 f33b 903c 733e
000001f0: c3a0 d8bd 51f9 4cbe e65f e5be c45e 3c3d
00000200: 34ae b3bd 613a 08bc c013 863e a80b 423e
00000210: 95a2 5ebe d8b6 b43d 2a75 ac3e 98e8 b3bd
00000220: d3ed a0bd b13d e9be 30c4 91bb 115a 253e
00000230: 30ef f4bd 3466 423e e293 d6bd 4ce1 b8be
00000240: b420 903e 312f bbbe a77b 05be 7ffa 783e
00000250: 0423 93bb ea12 a33e 4eb5 9e3e 4ba2 afbe
00000260: c2a5 b1be 1f0d 4d3e 07e3 993e aa9c e4be
00000270: 4f22 a1bc f884 f93d 46e8 363e 1a57 69bd
00000280: 61ee 9e3d 5204 063f eb6b 0c3d 1756 31be
00000290: ecd7 9e3d 2aa8 913e 337f 25be a7bf 6cbc
000002a0: 1127 913e 1f0d 213e b72d 91be 53e1 56bd
000002b0: d977 02bf 2149 b13c 1b42 80be d3ca 303e
000002c0: bde3 8dbe a49c 053e b1c8 c1bc 21ee bf3b
000002d0: 6056 3b3e 46cc d93d 1486 08be 8ef1 093e
000002e0: 9da1 7ebe 2542 663c 0a45 ccbe a022 b83d
000002f0: 168c 403e 570e 01be 3477 3b3c 57ab 40be
00000300: 1c0a 673d 9010 1f3e e9c5 4f3e 8dde 833e
00000310: 4c7a 233e d39a 163d 086b 71be c8a1 413d
00000320: 9d5e c0bd 2487 64be d393 da3d 2757 2b3d
00000330: 47dc 6fbe 9d3c 9e3e 68a9 21bd 93e2 6e3e
00000340: 5dbb e1bd e9c5 8abe e9a1 12bd 008d 443f
00000350: 0420 30be dd4f 06bf 0e15 313e f3db e2be
00000360: 17a0 123f 28aa fdbe c38e 413e 3eda d2be
00000370: 5ee9 08bf e0d7 23bf 227f ea3e f24d 17be
00000380: e58d b0be 2312 bebe f73e 41be b8dd fabe
00000390: 8fa5 df3e e26c 0cbf 387e 113e cd7d bfbc
000003a0: ef8b 04bf 31f4 04be f53c e0bd aac7 20bf
000003b0: 01e7 ee3d d75b 4cbe d322 7bbe 4e98 d0be
000003c0: 47fb ebbd 72d5 b53d 7de1 6c3e 6df5 00be
000003d0: 6a26 3bbe 875c 753e f553 023f c219 fc3d
000003e0: a320 13be 121a 30be 67e1 ee38 1395 bcbe
000003f0: 50cf 0ebd 9cc8 bdbc c003 d73d dc41 6f3d

critic.0.bias f4 [64]
0.18547206 -0.39703944 0.18408757 0.5492072 -0.6170883 0.5079395 -0.055006795 0.022052178
-0.4357172 0.33252808 0.09355989 -0.36508137 -0.020038059 0.5608697 0.14057833 -0.25994018
-0.61126024 0.19942202 -0.29073358 -0.12981099 -0.44727322 0.4153868 -0.11052862 0.49366286
0.27832574 0.19472231 0.0594124 0.6203643 0.040270757 0.39848253 -0.03468866 0.37936902
-0.17681508 0.32225057 -0.33059952 0.27917162 0.46954343 0.35708225 -0.50600785 0.4469269
0.49732184 -0.6234964 -0.56136566 0.21026489 0.71187234 0.0038727971 -0.13416609 0.31851894
0.5861077 0.26941985 0.5303046 0.26160437 -0.51984 -0.5120702 0.43936634 -0.07677883
-0.56660354 -0.2673644 -0.50206375 0.11686588 -0.4594358 -0.5472738 -0.19266184 -0.3754081
00000000: 63ec 3d3e c148 cbbe 7481 3c3e d898 0c3f
00000010: 80f9 1dbf 5308 023f ce4e 61bd c5a6 b43c
00000020: 5316 dfbe 1f41 aa3e 549c bf3d f2eb babe
00000030: db26 a4bc 2895 0f3f c4f3 0f3e e116 85be
00000040: 8d7b 1cbf 4935 4c3e 08db 94be 2ced 04be
00000050: ff00 e5be 94ad d43e d45c e2bd 61c1 fc3e
00000060: b680 8e3e 4965 473e 6b5a 733d 32d0 1e3f
00000070: f3f2 243d e705 cc3e b215 0ebd a83c c23e
00000080: 030f 35be 07fe a43e 5744 a9be 95ef 8e3e
00000090: ff67 f03e 7cd3 b63e bb89 01bf 9ad3 e43e
000000a0: f8a0 fe3e 769d 1fbf a9b5 0fbf ae4f 573e
000000b0: 443d 363f c1ce 7d3b d662 09be ea14 a33e
000000c0: 270b 163f 66f1 893e 0bc2 073f 02f1 853e
000000d0: 3c14 05bf 0817 03bf a0f4 e03e 383e 9dbd
000000e0: ee0c 11bf fde3 88be 4087 00bf 6157 ef3d
000000f0: 2b3b ebbe 231a 0cbf 2549 45be 7e35 c0be

critic.2.weight f4 [64, 64]
0.15333204 0.07429372 -0.0021204187 -0.08347772 -0.13352893 -0.08973712 -0.19391967 0.17882459
0.13379845 -0.17836474 -0.07620822 0.07979439 -0.095252305 0.14693356 -0.08915087 -0.018008625
-0.016863625 0.21494648 0.08605004 -0.047961075 -0.20125924 -0.13862783 -0.23814216 -0.06578416
-0.19830287 0.04914293 -0.2978694 0.35238186 -0.02391877 0.14797308 0.023759674 0.28811938
0.05252351 -0.41266105 -0.009713167 0.18274531 0.029102646 -0.13507268 -0.35746878 -0.22985622
-0.13857313 0.085591845 -0.279278 -0.4775707 0.29718286 -0.0075214067 -0.36166036 0.14125232
0.013666042 0.058517024 0.121566296 0.05775253 -0.10270372 -0.3780394 0.10744954 -0.10546466
0.052510105 0.022992693 0.03727907 0.2107123 -0.13685444 -0.13062799 0.19138606 0.06885843
0.059440255 -0.090558484 0.003928817 -0.3387699 0.31887496 -0.6625306 0.021303326 -0.08222594
0.13568315 0.0023661419 -0.059707448 0.4013567 0.002421088 -0.13448939 -0.09233984 -0.11045094
0.24006087 0.07851937 0.0010364057 0.16227315 0.26479542 0.24741675 0.19846316 0.18616608
0.036068294 0.14126125 0.1070272 -0.5469227 -0.036453873 0.029766915 -0.24799837 -0.12883246
-0.2172247 0.10880114 -0.2152044 -0.19203797 -0.12849112 -0.04338288 0.11826862 -0.1641677
0.14698257 0.34590644 0.4748685 0.1578723 0.102647685 0.048021708 -0.17196922 -0.064012274
0.23194563 0.019950284 -0.05520256 0.19836894 -0.030197928 0.36412358 0.0499954 -0.05163921
0.2004295 0.14324191 0.18524714 -0.06730363 -0.032998256 0.28389582 -0.0054138876 0.15609834
0.20823978 0.28443745 0.0613093 -0.14138559 0.16384967 -0.33409113 -0.19895524 -0.40851218
-0.09811223 -0.009236832 -0.25386384 0.19174682 -0.007602889 -0.31586853 -0.23269945 0.12369034
0.36372772 -0.21666874 0.15295675 -0.14242953 0.18414904 -0.08725793 -0.278649 -0.20426978
-0.2668002 0.020759353 0.06835563 -0.045183655 -0.054340553 -0.28098077 -0.057937272 -0.13936992
0.31924573 -0.35683247 0.18749954 0.016596101 0.05873079 -0.102866754 0.29634434 0.081680916
0.0995044 0.15202026 0.4882815 -0.04484104 0.02322842 -0.4624089 0.10584798 -0.12888913
0.102387 0.23119792 0.016897568 -0.06414453 0.26118344 0.26036885 0.00277597 0.24206194
0.0056595006 0.013216611 -0.17231296 -0.057379607 0.104496546 0.6137423 0.05681751 0.41210866
-0.09437027 -0.34675744 0.19092655 -0.02677473 -0.03224694 0.41934198 0.16027157 -0.08534105
0.02299973 -0.28042585 0.04821797 0.23304582 0.17641191 0.3730149 0.24266718 0.09861237
0.18660916 0.062392112 -0.28526828 0.20195433 0.19079074 0.053866502 -0.15756823 0.35661814
-0.12998757 -0.2761978 0.101345904 -0.038160007 0.18867896 -0.2577227 0.037852526 -0.05434764
-0.08296441 -0.28870466 0.0037331756 0.19944745 -0.08756339 -0.2109079 -0.23590057 0.15900324
0.110168636 -0.21939462 -0.33449122 -0.22813264 0.2371266 -0.051866505 0.032113858 0.03152848
-0.3261476 0.048722703 0.12625048 -0.098639205 -0.0645269 -0.09886652 0.038162053 -0.025307938
0.007852672 0.3975322 0.13602555 -0.26628006 -0.13897783 -0.18173163 0.14148657 -0.27418992
00000000: 1303 1d3e 4e27 983d b9f6 0abb 5ef6 aabd
00000010: cfbb 08be 18c8 b7bd e192 46be cb1d 373e
00000020: 7602 093e 3fa5 36be 0e13 9cbd 3e6b a33d
00000030: a413 c3bd c075 163e bb94 b6bd d386 93bc
00000040: 9625 8abc ee1a 5c3e 013b b03d d572 44bd
00000050: e716 4ebe 74f4 0dbe 8adb 73be d8b9 86bd
00000060: e80f 4bbe 194a 493d 5782 98be 656b b43e
00000070: 4cf1 c3bc 4186 173e a6a3 c23c 6284 933e
00000080: e422 573d 4f48 d3be fa23 1fbc 9621 3b3e
00000090: ac68 ee3c 7e50 0abe 2606 b7be 6e5f 6bbe
000000a0: 1de6 0dbe c74a af3d 87fd 8ebe 2684 f4be
000000b0: 5a28 983e 2276 f6bb 8c2b b9be 73a4 103e
000000c0: 89e7 5f3c 8caf 6f3d c0f7 f83d eb8d 6c3d
000000d0: 5456 d2bd 618e c1be 810e dc3d dbfd d7bd
000000e0: d614 573d 2c5b bc3c f0b1 183d f7c4 573e
000000f0: 9223 0cbe 58c3 05be b5fa 433e a605 8d3d
00000100: a077 733d ba76 b9bd 4ebd 803b 4073 adbe
00000110: 9443 a33e 9b9b 29bf 5084 ae3c 1366 a8bd
00000120: 86f0 0a3e 4611 1b3b cc8f 74bd a07e cd3e
00000130: 1eab 1e3b 96b7 09be ac1c bdbd 1a34 e2bd
00000140: 84d2 753e c3ce a03d 01d8 873a ef2a 263e
00000150: 4493 873e d15a 7d3e ed39 4b3e 52a2 3e3e
00000160: 59bc 133d caa6 103e 1431 db3d 2003 0cbf
00000170: a850 15bd bfd9 f33c 49f3 7dbe a8ec 03be
00000180: 2770 5ebe 22d3 de3d 8b5e 5cbe 9aa5 44be
00000190: 2d93 03be 3fb2 31bd d136 f23d 941b 28be
000001a0: 9982 163e a61a b13e f721 f33e 47a9 213e
000001b0: f338 d23d 69b2 443d b318 30be de18 83bd
000001c0: 2883 6d3e c76e a33c 141c 62bd 3a21 4b3e
000001d0: a561 f7bc 686e ba3e fac7 4c3d a383 53bd
000001e0: 643d 4d3e 02ae 123e 6db1 3d3e 7cd6 89bd
000001f0: 2e29 07bd cb5a 913e fb66 b1bb 3ed8 1f3e
00000200: cf3c 553e c9a1 913e 761f 7b3d 62c7 10be
00000210: 35c8 273e fe0d abbe ecba 4bbe 8228 d1be
00000220: 11ef c8bd 1556 17bc 71fa 81be 4759 443e
00000230: a821 f9bb 85b9 a1be c448 6ebe 5c51 fd3d
00000240: 853a ba3e 69de 5dbe b2a0 1c3e 0cd9 11be
00000250: 9191 3c3e 49b4 b2bd 15ab 8ebe 192c 51be
00000260: 099a 88be 850f aa3c 09fe 8b3d 7f12 39bd
00000270: 3394 5ebd b6dc 8fbe a24f 6dbd fdb6 0ebe
00000280: 2d74 a33e bfb2 b6be e1ff 3f3e 8cf4 873c
00000290: b28f 703d ceab d2bd 72ba 973e 5348 a73d
000002a0: f6c8 cb3d 33ab 1b3e 0800 fa3e 3dab 37bd
000002b0: 8749 be3c dcc0 ecbe d3c6 d83d 83fb 03be
000002c0: 47b0 d13d 26bf 6c3e c56c 8a3c 355e 83bd
000002d0: d6b9 853e 114f 853e 0ced 353b 16df 773e
000002e0: 5573 b93b 7c8a 583c cf72 30be e106 6bbd
000002f0: 4902 d63d 371e 1d3f 7ab9 683d e8ff d23e
00000300: 3345 c1bd 318a b1be 4082 433e ae56 dbbc
00000310: 5e15 04bd feb3 d63e 3b1e 243e 4ac7 aebd
00000320: ee69 bc3c fa93 8fbe 3580 453d 90a3 6e3e
00000330: 53a5 343e cffb be3e bf7d 783e 48f5 c93d
00000340: 7916 3f3e df8e 7f3d af0e 92be 1ecd 4e3e
00000350: a65e 433e 1fa3 5c3d 9159 21be a796 b63e
00000360: 761b 05be cc69 8dbe 718e cf3d ab4d 1cbd
00000370: 0f35 413e 3bf4 83be 400b 1b3d a29b 5ebd
00000380: 3fe9 a9bd 19d1 93be 4ba8 743b f43b 4c3e
00000390: 6f54 b3bd 3ef8 57be eb8f 71be bfd1 223e
000003a0: 18a0 e13d fca8 60be 6f42 abbe 9a9b 69be
000003b0: 51d1 723e f971 54bd d289 033d 0224 013d
000003c0: d1fc a6be 7591 473d ce47 013e 5a03 cabd
000003d0: ae26 84bd 887a cabd d04f 1c3d 9852 cfbc
000003e0: 7ea8 003c 5789 cb3e 484a 0b3e dc55 88be
000003f0: 3450 0ebe db17 3abe dbe1 103e 9f62 8cbe

critic.2.bias f4 [64]
0.24907987 -0.41216862 -0.27033976 0.38909695 -0.48178226 0.3345264 -0.34029308 -0.33755803
-0.22999921 -0.3146455 0.24915592 -0.41662928 0.40886673 0.1796589 0.15756315 0.3106455
-0.4120043 -0.3612228 0.48329043 -0.29032195 -0.3856415 -0.4239809 -0.111772835 0.21475923
-0.42833036 0.3254112 -0.48738018 0.39675215 0.32319978 0.27464035 0.47208002 0.34794515
-0.2507834 0.27641958 -0.24126679 -0.31032607 0.5120789 0.47261524 0.30183724 -0.5052167
0.31674767 0.29891217 -0.2918383 0.23000497 -0.28166872 0.46080396 -0.3011479 -0.29438582
-0.3386454 0.37077633 0.44355637 0.26917347 0.21867457 0.37575918 -0.31810668 -0.1600286
0.26316 0.3556204 -0.43734443 0.5861189 0.47139624 0.42639363 -0.010132263 0.5273484
00000000: cb0e 7f3e c407 d3be f969 8abe b737 c73e
00000010: 2aac f6be 0b47 ab3e e53a aebe 68d4 acbe
00000020: ea84 6bbe 3719 a1be bb22 7f3e 6f50 d5be
00000030: fb56 d13e 81f8 373e 3c58 213e ed0c 9f3e
00000040: 3af2 d2be 32f2 b8be d871 f73e 14a5 94be
00000050: cd72 c5be 0614 d9be 28e9 e4bd d8e9 5b3e
00000060: 1e4e dbbe 4c9c a63e e589 f9be 1923 cb3e
00000070: 717a a53e a99d 8c3e 79b4 f13e de25 b23e
00000080: af66 80be de86 8d3e a40e 77be 0fe3 9ebe
00000090: 9a17 033f a0fa f13e 698a 9a3e e255 01bf
000000a0: c02c a23e 040b 993e d46b 95be 6c86 6b3e
000000b0: e236 90be 7fee eb3e 0f30 9abe bdb9 96be
000000c0: ee62 adbe 65d6 bd3e d219 e33e 1bd1 893e
000000d0: 3aec 5f3e 8263 c03e e1de a2be 8ade 23be
000000e0: e8bc 863e e113 b63e 9ceb dfbe e30b 163f
000000f0: d95a f13e 4450 da3e cb01 26bc 4e00 073f

critic.4.weight f4 [2, 64]
0.123695515 0.011085814 -0.054201253 0.07194434 -0.030969756 0.045817107 -0.17237857 -0.057990335
-0.17841904 -0.12063628 0.058061622 -0.055251602 0.14926837 0.15497354 0.081400394 0.09815089
-0.21269517 -0.11320096 0.057402585 -0.30101934 0.011999297 -0.047278192 0.08025428 0.002980855
-0.02229478 0.17628585 0.15161352 0.120279886 0.1174202 0.028624946 0.05019254 0.06325377
-0.124196984 0.22426409 -0.08583385 -0.08714167 -0.052881394 0.08348516 0.016680513 -0.09044379
0.08511043 0.09971851 0.012935447 0.086726345 -0.11585254 0.0642941 -0.11690101 -0.10397095
0.10016619 0.061010554 -0.007933616 -0.06397872 0.07713997 0.117818676 -0.06202972 -0.08815108
0.1129146 0.1581029 -0.07564904 0.05182887 -0.0018699962 0.055578336 -0.082461305 -0.007896416
0.2275334 -0.6454114 -0.6617208 0.60362095 -0.54622906 0.54878765 -0.37558344 -0.6710725
-0.6401071 -0.5885649 0.13195683 -0.7255922 0.53375155 0.70545703 0.9068698 0.52494437
-0.68129903 -0.47022772 0.4045365 -0.6219016 -0.61989367 -0.5521632 -0.297442 0.8528203
-0.6411644 0.5801086 -0.5395836 0.41305605 0.56510603 0.6273848 0.55436575 0.56908816
-0.71439195 0.76246214 -0.73992604 -0.5375943 0.57147574 0.55662704 0.19307429 -0.6274267
0.43422392 0.38981247 -0.7277034 0.6624187 -0.7207096 0.36290023 -0.7966223 -0.5916476
-0.6454607 0.54660416 0.44836462 0.7512722 0.79602087 0.56766224 -0.623945 -0.85684466
0.7244686 0.5762204 -0.52059925 0.56883174 0.487608 0.5464254 -0.15699297 0.6617205
00000000: 1354 fd3d 46a1 353c 2202 5ebd 8e57 933d
00000010: 49b4 fdbc b8aa 3b3d 0284 30be 4687 6dbd
00000020: 7bb3 36be 2710 f7bd 06d2 6d3d 814f 62bd
00000030: cfd9 183e 62b1 1e3e 40b5 a63d 5503 c93d
00000040: c3cc 59be e8d5 e7bd f91e 6b3d 351f 9abe
00000050: b398 443c c7a6 41bd 5b5c a43d 735a 433b
00000060: 8ba3 b6bc 4784 343e 9340 1b3e 4d55 f63d
00000070: 007a f03d dd7e ea3c b196 4d3d 318b 813d
00000080: fd5a febd 7ca5 653e a8c9 afbd 5577 b2bd
00000090: 299a 58bd 44fa aa3d 92a5 883c 983a b9bd
000000a0: 614e ae3d 3839 cc3d 32ef 533c 959d b13d
000000b0: 1944 edbd a0ac 833d cc69 efbd b9ee d4bd
000000c0: ee23 cd3d 34e6 793d fffb 01bc 4607 83bd
000000d0: 90fb 9d3d eb4a f13d e012 7ebd 8e88 b4bd
000000e0: c53f e73d bae5 213e e2ed 9abd 824a 543d
000000f0: a91a f5ba 1ca6 633d 79e1 a8bd f85f 01bc
00000100: 84fe 683e ae39 25bf 8966 29bf e786 1a3f
00000110: abd5 0bbf 597d 0c3f 794c c0be 68cb 2bbf
00000120: 0fde 23bf 30ac 16bf b11f 073e 69c0 39bf
00000130: f1a3 083f d598 343f 9f28 683f c162 063f
00000140: 9d69 2ebf b0c1 f0be 681f cf3e f134 1fbf
00000150: 5ab1 1ebf 915a 0dbf 514a 98be 6e52 5a3f
00000160: 5a23 24bf ff81 143f 2722 0abf 157c d33e
00000170: caaa 103f 4a9c 203f eaea 0d3f c3af 113f
00000180: 64e2 36bf b830 433f cb6b 3dbf c89f 09bf
00000190: 3c4c 123f 1c7f 0e3f 44b5 453e 099f 20bf
000001a0: 9952 de3e 8095 c73e c54a 3abf 4694 293f
000001b0: 6d80 38bf 0fce b93e 70ef 4bbf 3876 17bf
000001c0: ea3c 25bf 40ee 0b3f 0c90 e53e 6053 403f
000001d0: 06c8 4b3f 5052 113f dcba 1fbf 2c5a 5bbf
000001e0: c676 393f 2e83 133f fe45 05bf f59e 113f
000001f0: c1a7 f93e 89e2 0b3f c4c2 20be 8466 293f

critic.4.bias f4 [2]
0.10091467 0.52739716
00000000: 5aac ce3d 8003 073f

actor_mean.0.weight f4 [64, 69]
0.11484504 0.030854266 0.05920666 -0.34183496 0.029867655 -0.14604719 0.3919822 -0.25616813
-0.030455558 -0.05198057 0.045646805 -0.14555675 0.005915709 -0.018475175 0.42818454 0.039069805
-0.3044352 0.2181491 0.2715932 0.010995558 -0.067085825 0.3637389 -0.08754688 -0.1659446
-0.2271804 0.14416073 0.20169115 0.07872968 0.23968269 0.17919792 0.06842829 0.11932618
0.35612878 0.26417017 0.13127172 0.12753953 0.15830056 -0.028693747 0.14034429 0.048398882
-0.14830965 0.034099054 0.030104842 0.12141592 0.1261053 0.0024625638 0.24521594 0.05073311
-0.16166404 0.20415267 0.18720107 0.0088074235 0.09348034 -0.18846886 -0.12021937 0.1859387
-0.04154342 -0.36185616 -0.06892431 0.23096463 0.18758881 0.105422676 0.13637586 0.055905692
0.061929107 0.30568936 -0.11426148 -0.10395136 -0.2716022 0.15770951 -0.033315416 -0.080290504
-0.2489932 -0.19182515 0.15686797 -0.06638098 0.09509869 0.055624597 0.19237992 -0.32572445
-0.067699045 -0.33618066 -0.008868967 0.10312409 0.05290399 -0.24502501 0.30852166 0.007325475
-0.08901259 0.24656247 0.18006359 -0.19031544 -0.38217133 0.51613563 -0.22821543 -0.009501151
-0.027173866 0.03282785 -0.13779046 0.064413846 -0.053127803 -0.29663488 0.068802126 -0.14284901
-0.2971979 -0.033189945 -0.34169355 0.11263316 -0.052136328 0.28366804 0.23224613 0.098803885
0.16988714 0.14660591 -0.20761304 -0.11297766 0.008280952 0.30024198 -0.1215219 0.09757204
0.3085014 0.0783426 0.33503672 0.040994156 0.078089684 -0.106335305 -0.025648292 0.19603963
0.12720582 0.018822417 -0.08333178 0.08532178 0.24526158 0.084102795 -0.1609933 -0.19652805
-0.04822381 0.0022756548 -0.17870933 0.10998369 0.029218525 -0.16606252 -0.07618599 -0.24536192
-0.060490716 0.3099593 0.13842568 0.038143482 -0.3988577 0.12981771 -0.017292773 0.15912326
0.027358187 0.012757641 0.20760804 0.026350373 0.007218687 -0.010461678 -0.09244172 0.0942363
0.10160524 0.1121737 0.02902994 -0.0582598 0.17492606 0.06894661 -0.13383779 -0.29836085
0.07257777 0.17869654 0.0094909575 0.24753089 0.11910484 0.2715242 0.11578904 -0.14359558
0.27985296 -0.07470291 -0.13619657 0.19820258 -0.06455862 0.004725012 -0.314576 -0.09555801
0.0072268946 0.13344099 0.24320292 -0.19438131 0.14932136 -0.14316474 0.2432333 0.01720883
0.23405503 -0.3180943 -0.06714399 0.07677292 -0.17136341 0.37783223 0.0037670485 -0.34135413
-0.023102889 -0.22857223 -0.27507305 -0.078115076 -0.19751094 0.027080663 0.104551 0.1986331
-0.14970207 0.21078981 -0.23291585 -0.15153359 -0.20083748 0.23477414 0.042698078 -0.018281732
0.22320355 0.2734574 0.24454227 -0.070888154 0.06764059 0.24402268 0.125882 -0.19662832
-0.117472865 -0.31379214 -0.27404937 0.2865887 -0.21924505 -0.07046574 -0.22604987 0.058373455
-0.27456498 -0.2205558 -0.22082844 -0.10380269 0.16065967 -0.15845497 -0.08170862 -0.059499945
0.007004719 -0.2722519 0.28516954 0.20705266 -0.27545017 -0.08667464 -0.3619998 -0.092778265
-0.28152543 0.04315739 0.16652633 -0.28670812 0.17686401 -0.070566215 0.029386967 -0.21320917
00000000: e033 eb3d 16c2 fc3c af82 723d fe04 afbe
00000010: 03ad f43c 658d 15be e4b1 c83e 7828 83be
00000020: ef7d f9bc 94e9 54bd 25f8 3a3d d40c 15be
00000030: 90d8 c13b 4059 97bc 013b db3e a907 203d
00000040: eede 9bbe 7a62 5f3e 440e 8b3e b726 343c
00000050: 4b64 89bd fc3b ba3e c74b b3bd 62ed 29be
00000060: fba1 68be df9e 133e 2088 4e3e 073d a13d
00000070: 616f 753e a97f 373e 2224 8c3d 4961 f43d
00000080: 8356 b63e 5041 873e 186c 063e b999 023e
00000090: 8b19 223e 260f ebbc 6ab6 0f3e e83d 463d
000000a0: 7cde 17be 73ab 0b3d 6e9e f63c e9a8 f83d
000000b0: bf21 013e f762 213b e319 7b3e 86cd 4f3d
000000c0: 428b 25be 660d 513e a3b1 3f3e 034d 103c
000000d0: 9f72 bf3d fbfd 40be 9335 f6bd b766 3e3e
000000e0: 6f29 2abd 3645 b9be 3028 8dbd fe81 6c3e
000000f0: 4817 403e d8e7 d73d 1da6 0b3e 5efd 643d
00000100: 60a9 7d3d 5183 9c3e ec01 eabd 73e4 d4bd
00000110: 720f 8bbe 9a7e 213e bf75 08bd 596f a4bd
00000120: 13f8 7ebe d06d 44be ffa1 203e c0f2 87bd
00000130: 1ac3 c23d 9ed6 633d 3eff 443e 5bc5 a6be
00000140: cca5 8abd df1f acbe 254f 11bc b932 d33d
00000150: dbb1 583d d6e7 7abe 8df6 9d3e 8a0a f03b
00000160: 3c4c b6bd df7a 7c3e 9762 383e 0de2 42be
00000170: f6ab c3be 7721 043f 4eb1 69be b7aa 1bbc
00000180: ba9b debc 7f76 063d f118 0dbe 68eb 833d
00000190: 8a9c 59bd 87e0 97be 21e8 8c3d 0347 12be
000001a0: 532a 98be 2ef2 07bd 75f2 aebe 37ac e63d
000001b0: e78c 55bd f03c 913e eed1 6d3e b159 ca3d
000001c0: e5f6 2d3e dc1f 163e 8398 54be d560 e7bd
000001d0: d5ac 073c 51b9 993e 79e0 f8bd dad3 c73d
000001e0: e5f3 9d3e 1672 a03d ef89 ab3e 7de9 273d
000001f0: 7ced 9f3d 53c6 d9bd 5e1c d2bc 9dbe 483e
00000200: 3e42 023e 7831 9a3c daa9 aabd 2fbd ae3d
00000210: da25 7b3e 163e ac3d 6ddb 24be a63e 49be
00000220: 5486 45bd 2723 153b 94ff 36be 213f e13d
00000230: b05b ef3c 4b0c 2abe 6607 9cbd 2840 7bbe
00000240: 1dc5 77bd fcb2 9e3e 76bf 0d3e 573c 1c3d
00000250: 1437 ccbe efee 043e 93a9 8dbc 35f1 223e
00000260: 471e e03c 6d05 513c 3497 543e bddc d73c
00000270: bc8a ec3b 7567 2bbc 1652 bdbd f6fe c03d
00000280: 6816 d03d 53bb e53d 32d0 ed3c d4a1 6ebd
00000290: d11f 333e e133 8d3d c60c 09be c1c2 98be
000002a0: a7a3 943d 3afc 363e f67f 1b3c bd78 7d3e
000002b0: 3ded f33d 3805 8b3e ce22 ed3d b80a 13be
000002c0: e348 8f3e d7fd 98bd 1d77 0bbe 9ef5 4a3e
000002d0: 4f37 84bd 46d4 9a3b 1b10 a1be ebb3 c3bd
000002e0: 96cf ec3b c1a4 083e 300a 793e e50b 47be
000002f0: b3e7 183e c799 12be 2612 793e 88f9 8c3c
00000300: 1fac 6f3e 42dd a2be ca82 89bd 1f3b 9d3d
00000310: e479 2fbe 3a73 c13e 96e0 763b f8c5 aebe
00000320: 4542 bdbc d70e 6abe 60d6 8cbe ccfa 9fbd
00000330: 4f40 4abe 44d8 dd3c d61e d63d 7a66 4b3e
00000340: 804b 19be 49d9 573e 7e81 6ebe 9f2b 1bbe
00000350: 57a8 4dbe a268 703e 2ee4 2e3d 92c3 95bc
00000360: 798f 643e 9c02 8c3e 4a69 7a3e cf2d 91bd
00000370: 2687 8a3d 15e1 793e 36e7 003e ef58 49be
00000380: 9d95 f0bd 5da9 a0be 3350 8cbe c1bb 923e
00000390: c681 60be 5850 90bd 9e79 67be 0119 6f3d
000003a0: c893 8cbe 61d9 61be da20 62be 8196 d4bd
000003b0: f883 243e 0542 22be d956 a7bd 37b6 73bd
000003c0: d887 e53b 9a64 8bbe be01 923e 9d05 543e
000003d0: ce07 8dbe 7982 b1bd 0a58 b9be 8802 bebd
000003e0: 1a24 90be cec5 303d e185 2a3e 68cb 92be
000003f0: d71b 353e 0585 90bd f0bc f03c 8153 5abe

actor_mean.0.bias f4 [64]
-0.031031089 0.08371505 0.041973844 0.037782915 0.053519234 0.08116278 0.04505327 -0.0073047406
-0.03947858 0.057671998 -0.036274005 -0.032734115 0.051360227 0.027591057 -0.06397049 -0.043277316
-0.051541768 -0.048302148 0.010452356 -0.10055023 0.027847147 -0.0042629302 0.033007465 0.061410587
0.045223475 -0.016407609 0.05551258 0.0012090121 -0.0591962 -0.10184428 0.0061007175 0.03776301
0.040385485 0.011028361 -0.07411309 -0.01894419 0.06881778 0.026555268 -0.019758906 -0.037907183
-0.103699885 0.030402046 0.0468821 0.042603202 -0.05785716 0.03950561 0.035722908 -0.11768178
-0.071865164 0.015531351 -0.020990262 0.029294658 -0.04799294 -0.12733786 0.017125873 -0.011861071
-0.0744532 0.025374074 -0.01327962 -0.03392898 0.014349872 0.12095832 -0.02628765 0.0124118235
00000000: e934 febc cc72 ab3d c4ec 2b3d 42c2 1a3d
00000010: fc36 5b3d ac38 a63d c789 383d 9b5c efbb
00000020: 4bb4 21bd 7939 6c3d 0d94 14bd 3514 06bd
00000030: 1a5f 523d a406 e23c f602 83bd 8e43 31bd
00000040: 761d 53bd 79d8 45bd 5c40 2b3c 47ed cdbd
00000050: b31f e43c 0db0 8bbb d632 073d ab89 7b3d
00000060: 403c 393d 4069 86bc 2961 633d b777 9e3a
00000070: b777 72bd bc93 d0bd 87e8 c73b 63ad 1a3d
00000080: 406b 253d 4cb0 343c 9bc8 97bd d930 9bbc
00000090: 56f0 8c3d 6f8a d93c 6edd a1bc 9044 1bbd
000000a0: 9b60 d4bd b60d f93c 7207 403d b280 2e3d
000000b0: a1fb 6cbd a2d0 213d 2f52 123d 2503 f1bd
000000c0: 0b2e 93bd 3577 7e3c c5f3 abbc 5afb ef3c
000000d0: 3f94 44bd db64 02be 8f4b 8c3c f054 42bc
000000e0: eb7a 98bd 4add cf3c c392 59bc 1df9 0abd
000000f0: ba1b 6b3c ffb8 f73d 3359 d7bc f65a 4b3c

actor_mean.2.weight f4 [64, 64]
-0.0483024 -0.07913237 -0.13790926 -0.06434059 -0.057893466 0.3971469 0.26844376 0.02500779
0.043468405 -0.27991378 0.34962487 -0.16103274 0.037726432 -0.38377336 0.036246385 0.118893236
0.13430627 0.01320236 -0.2515352 0.19253989 -0.22297408 0.22033197 -0.074271165 -0.022468446
0.15683417 -0.3208293 -0.27746797 0.064683445 0.19951686 -0.19270714 -0.23390979 -0.07204283
0.22150536 0.23206623 0.15847346 0.07262434 0.0959729 0.019684667 -0.107323945 -0.3221851
0.25143376 -0.23135144 0.111961804 -0.10781557 0.36054903 -0.058231294 -0.026166089 -0.11716387
0.10127817 -0.13680696 0.045533054 0.04942674 0.11026918 -0.07942744 0.02773318 0.13549691
0.10406439 -0.34928793 -0.028500952 0.0041889655 -0.24377126 -0.21403205 -0.15803131 -0.41131207
-0.25822303 -0.05659844 -0.052404728 0.05228924 0.0759846 0.2187051 0.020767935 0.12501995
0.37652913 0.33936566 0.05920908 -0.41838083 0.055778135 -0.080899194 -0.17701511 -0.29764444
0.10903521 0.06594123 -0.07838032 -0.12677717 -0.2113967 -0.18741608 0.11499898 0.048936505
0.08484301 0.043311156 0.081409484 -0.22680867 -0.045632716 0.08641434 0.08602328 0.015887069
-0.19614992 0.056513913 -0.38017333 0.4098141 0.10114881 0.08554112 -0.012449119 0.19197159
-0.043840874 0.11318561 0.15224786 0.059736744 -0.21173705 -0.033372886 -0.18326066 -0.32710257
0.0021797067 0.27822316 -0.3061513 0.19488557 0.073975295 -0.20516033 -0.09974782 0.42153952
0.09011411 0.07708386 0.12442823 -0.09405982 -0.2961226 0.079968065 -0.28165948 -0.2293893
-0.24197859 0.18642974 -0.30305502 -0.29710957 0.21165444 0.06548392 -0.32708383 0.12850538
-0.20659322 -0.30236876 0.4146912 -0.13855304 0.012265284 0.040020682 0.12913975 -0.15776391
-0.17869088 0.09829055 -0.19365153 -0.009996323 0.14434724 0.021910634 0.17257793 0.23201351
-0.06731926 0.13029248 -0.21504562 -0.010749919 0.013339325 0.28843245 0.3935578 -0.008072354
-0.20016782 -0.08660317 0.09780109 -0.17000069 -0.33773357 0.27285627 -0.14942013 0.2352392
-0.06943764 -0.04629033 -0.23133016 -0.1137637 0.10203637 0.18788338 0.33383664 0.122895114
-0.13299772 0.0887857 0.13491905 -0.004410455 0.38975486 -0.12900685 -0.02892758 -0.037972797
0.21577342 -0.07773169 0.071548335 -0.0064859297 -0.10022076 -0.18322961 0.09790835 -0.054890096
-0.23230886 -0.11636098 0.1208237 -0.12191847 -0.029834732 -0.084981635 -0.31230295 0.13164257
-0.061453383 -0.119245864 0.09076134 -0.07832721 -0.18286379 0.11512337 -0.15687187 -0.030299816
-0.047032088 0.104629636 0.2952923 0.08304747 -0.06219893 -0.041432668 -0.10916741 -0.04208771
-0.065879494 -0.38587475 0.19226736 0.042325437 -0.22963394 -0.04768025 0.17132735 0.38960874
-0.091637515 0.0282338 0.32993403 0.3023629 0.048869375 -0.0044340505 -0.056633685 -0.03633713
0.22576217 -0.1533353 0.11162773 -0.28548333 -0.06171525 0.012022053 0.15371053 0.20110048
0.15576538 0.31866312 -0.19330657 0.18138395 -0.21067871 -0.21706368 0.57546467 0.004850932
-0.090567835 0.05986455 -0.14800762 -0.18653601 0.28302777 -0.323576 -0.062099345 -0.2809602
00000000: bdd8 45bd 2710 a2bd 1638 0dbe 00c5 83bd
00000010: b321 6dbd d756 cb3e 7671 893e 23dd cc3c
00000020: ed0b 323d dc50 8fbe 0802 b33e c4e5 24be
00000030: 0887 1a3d f17d c4be 1777 143d 4c7e f33d
00000040: 9587 093e b64e 583c 39c9 80be 2d29 453e
00000050: 5153 64be b49e 613e 7b1b 98bd bf0f b8bc
00000060: 2399 203e bd43 a4be 4810 8ebe c178 843d
00000070: 264e 4c3e 0555 45be 0c86 6fbe 318b 93bd
00000080: 4dd2 623e c5a2 6d3e de46 223e 12bc 943d
00000090: 718d c43d bd41 a13c a8cc dbbd 72f5 a4be
000000a0: edbb 803e 64e7 6cbe 3b4c e53d 69ce dcbd
000000b0: e299 b83e f083 6ebd 445a d6bc 9cf3 efbd
000000c0: ee6a cf3d 2017 0cbe de80 3a3d b173 4a3d
000000d0: cfd4 e13d dbaa a2bd b230 e33c b4bf 0a3e
000000e0: b61f d53d ded5 b2be d47a e9bc 9743 893b
000000f0: 2c9f 79be 382b 5bbe f6d2 21be 7f97 d2be
00000100: cf35 84be c4d3 67bd 57a6 56bd 3e2d 563d
00000110: d09d 9b3d 3bf4 5f3e 8421 aa3c 3b05 003e
00000120: 6dc8 c03e 56c1 ad3e 3885 723d 0336 d6be
00000130: 9d77 643d 7aae a5bd 7343 35be da64 98be
00000140: da4d df3d 320c 873d dc85 a0bd e0d1 01be
00000150: 6078 58be 00ea 3fbe 9684 eb3d a571 483d
00000160: 2cc2 ad3d 0a67 313d 04ba a63d 8840 68be
00000170: 5fe9 3abd 00fa b03d f92c b03d 9925 823c
00000180: 86db 48be 227b 673d 14a6 c2be 27d3 d13e
00000190: 1b27 cf3d 2f30 af3d 64f7 4bbc 3394 443e
000001a0: 7d92 33bd dbcd e73d dde6 1b3e 84ae 743d
000001b0: 99d1 58be 02b2 08bd afa8 3bbe fd79 a7be
000001c0: 69d9 0e3b 4473 8e3e ddbf 9cbe 1590 473e
000001d0: 5c80 973d 8d15 52be 9648 ccbd 07d4 d73e
000001e0: bf8d b83d 25de 9d3d 3ad4 fe3d 6fa2 c0bd
000001f0: 629d 97be 4cc6 a33d ac35 90be 07e5 6abe
00000200: 3cc9 77be 70e7 3e3e 072a 9bbe bf1e 98be
00000210: f1bb 583e 6f1c 863d 8877 a7be ea96 033e
00000220: 2c8d 53be 14d0 9abe 6852 d43e d9e0 0dbe
00000230: 54f4 483c baec 233d 363d 043e dd8c 21be
00000240: befa 36be 8e4c c93d 964c 46be 9ec7 23bc
00000250: c3cf 133e ee7d b33c 45b8 303e f394 6d3e
00000260: aede 89bd 646b 053e eb34 5cbe 6e20 30bc
00000270: 2f8d 5a3c 6bad 933e 6880 c93e e841 04bc
00000280: cbf8 4cbe 015d b1bd f04b c83d a914 2ebe
00000290: 6aeb acbe d1b3 8b3e 9701 19be 8be2 703e
000002a0: 5235 8ebd ee9a 3dbd d0e1 6cbe f1fc e8bd
000002b0: 72f8 d03d 8064 403e a3ec aa3e 6fb0 fb3d
000002c0: 8e30 08be 47d5 b53d 3828 0a3e 9485 90bb
000002d0: f38d c73e 5f1a 04be 88f9 ecbc 5d89 1bbd
000002e0: b5f3 5c3e cb31 9fbd ef87 923d ec87 d4bb
000002f0: 8b40 cdbd 8ba0 3bbe 2c84 c83d 70d4 60bd
00000300: 60e2 6dbe aa4e eebd 6b72 f73d 64b0 f9bd
00000310: f867 f4bc da0a aebd 2ce6 9fbe 4fcd 063e
00000320: 8bb6 7bbd 2d37 f4bd 15e1 b93d 046a a0bd
00000330: a540 3bbe cdc5 eb3d 05a3 20be 5237 f8bc
00000340: b8a4 40bd 1048 d63d 8d30 973e cb14 aa3d
00000350: 4ec4 7ebd 4db5 29bd 2a93 dfbd 2a64 2cbd
00000360: d4eb 86bd 6091 c5be bce1 443e 705d 2d3d
00000370: 2925 6bbe 5e4c 43bd 7070 2f3e cc7a c73e
00000380: 73ac bbbd 924a e73c 1ded a83e 4fcf 9a3e
00000390: 412b 483d 834b 91bb b9f8 67bd 3ed6 14bd
000003a0: 332e 673e ee03 1dbe 149d e43d df2a 92be
000003b0: 21c9 7cbd 25f8 443c 4b66 1d3e 49ed 4d3e
000003c0: f680 1f3e d027 a33e 28f2 45be b7bc 393e
000003d0: 29bc 57be f145 5ebe a751 133f 91f4 9e3b
000003e0: a17b b9bd 8834 753d 4f8f 17be 4c03 3fbe
000003f0: 04e9 903e c1ab a5be e25b 7ebd 04da 8fbe

actor_mean.2.bias f4 [64]
-0.035209496 -0.0064296434 -0.03580622 0.01831583 0.02910778 -0.040272422 -0.06194401 -0.025383567
0.053690348 -0.019372538 0.13986494 0.009833139 0.024578799 -0.038488813 -0.02860055 -0.07477995
0.05735729 -0.0006965606 0.0468689 0.06478634 -0.031047354 0.050200306 -0.0098078335 -0.03956887
0.07548488 0.02857068 -0.08810811 0.0009386096 0.114589676 -0.035404027 0.004499871 0.045305952
0.030288836 0.04730711 0.020728678 -0.05073776 0.008346284 -0.017784799 -0.111443736 -0.0053100996
0.0033411207 0.08180083 0.02174667 -0.073733024 0.009579886 0.041770313 0.0014441843 0.030724345
-0.019642903 -0.0430105 0.03647803 -0.013678266 0.004869041 -0.034448583 -0.043343067 0.016595608
-0.04741402 -0.05293158 0.027896952 0.05989412 -0.036015004 -0.059206367 0.05710846 0.11466256
00000000: d537 10bd c2af d2bb 8ba9 12bd 140b 963c
00000010: 7073 ee3c b2f4 24bd 01b9 7dbd 33f1 cfbc
00000020: 69ea 5b3d 28b3 9ebc c138 0f3e 2d1b 213c
00000030: 7a59 c93c 72a6 1dbd b34b eabc 3b26 99bd
00000040: 7aef 6a3d 6499 36ba 9bf9 3f3d b3ae 843d
00000050: 0557 febc d69e 4d3d 09b1 20bc f812 22bd
00000060: d197 9a3d 0f0d ea3c 0672 b4bd 060d 763a
00000070: fead ea3d d003 11bd a773 933b bc92 393d
00000080: 4b20 f83c 1ac5 413d 30cf a93c 66d2 4fbd
00000090: dabe 083c 6db1 91bc 9d3c e4bd 5800 aebb
000000a0: b4f6 5a3b 3287 a73d 1326 b23c 5701 97bd
000000b0: f4f4 1c3c 5917 2b3d c94a bd3a 9fb1 fb3c
000000c0: 27ea a0bc c72b 30bd fd69 153d ce1a 60bc
000000d0: 7a8c 9f3b f519 0dbd 8088 31bd 83f3 873c
000000e0: 3435 42bd c9ce 58bd 2688 e43c 8953 753d
000000f0: 7884 13bd 6082 72bd 90ea 693d 34d4 ea3d

actor_mean.4.weight f4 [21, 64]
0.1154401 0.026086394 0.077610075 0.046514377 -0.17681727 -0.022067057 0.004718252 -0.029996386
-0.02445963 0.041057784 0.063153155 0.026373897 0.059162598 0.049163893 0.029014524 0.028332828
-0.035689123 -0.03512287 -0.042902377 0.02964946 -0.03939851 -0.03095057 -0.045805924 -0.009825414
0.009946533 -0.026689827 -0.009658194 -0.037572734 -0.07669066 0.067436755 0.020046815 -0.018484991
0.064732924 0.015048518 0.023969835 0.024161024 0.02828681 0.010324359 -0.06699048 -0.0041679195
0.012360464 -0.050941374 -0.004793022 0.021258298 -0.0058501353 0.06996975 -0.033509113 -0.002446261
-0.11306565 0.011315303 -0.028199997 -0.0017023294 -0.014082553 0.043392546 0.008205378 -0.022098096
0.025508223 -0.043419793 -0.07762042 -0.0027160677 0.027605927 0.058940627 -0.02507077 -0.054734144
0.009392127 -0.022244576 0.026038306 -0.022748932 0.007949456 0.040402118 -0.032056216 -0.018066378
0.020745518 0.018872835 0.09278099 0.017352503 0.04998788 0.08083444 0.055766862 -0.012684895
0.0041651553 0.02943299 -0.0014525915 -0.011807676 0.032937814 -0.04551796 0.009649132 0.014169143
0.03713268 -0.01984893 0.046196584 -0.011663225 0.025620865 0.0058776313 -0.04568751 -0.007772921
-0.05976883 0.055945076 0.09996066 0.02316404 -0.050464597 -0.013800832 0.0030374622 -0.020247346
-0.06118791 -0.015306234 0.012204887 0.005173008 0.020719213 0.022413159 0.07119709 -0.008040178
-0.034132957 -0.031429157 0.002052013 0.0014194966 0.0013773239 0.006621964 0.053383127 0.015376657
-0.05100314 -0.06297601 0.027965693 0.031863574 -0.014034142 -0.024057256 0.060268957 -0.030282352
0.0026525382 -0.04113742 -0.027036889 -0.028628122 -0.012152184 0.07041701 0.03883372 0.0536098
-0.015977439 0.0073546283 0.014013619 0.029665072 -0.035030495 0.05866833 0.02191775 0.0025704606
-0.020293672 -0.0026912962 0.019094922 -0.027710335 0.08606615 -0.031987824 0.025095334 -0.044688173
0.06964544 0.022459827 0.048056144 0.043560423 -0.04467773 -0.037635747 -0.022483824 -0.0142172035
0.0033303283 -0.047808163 0.017142545 0.0021098084 0.00602267 0.006632879 0.04599525 0.02707213
-0.013434581 -0.05145509 -0.0014646746 0.06115209 -0.018025806 0.049174905 -0.01049599 0.073675066
0.014489065 0.01707903 0.026564453 0.008767758 -0.01570761 -0.0043658474 0.048496235 0.015084335
-0.040389918 0.008487186 0.043369584 -0.04340694 0.04151962 -0.013477627 0.010765808 0.008689531
-0.02602992 -0.049457684 0.013014296 0.0018028541 -0.012677462 0.007950572 -0.025321102 0.014513003
-0.03105302 0.03773351 -0.013192898 0.02543928 -0.046254665 0.03316733 0.013540429 0.012603701
-0.02844037 0.031628653 -0.071387775 -0.014539744 0.04599163 0.052656326 -0.05369028 0.049489744
0.007843961 0.0137399975 0.009896118 0.07346793 -0.041090973 0.012030219 -0.04202055 0.062090352
0.0038147178 0.055088185 0.047346298 0.026470589 -0.0040038903 0.037680697 -0.025010595 -0.06378138
-0.073279634 -0.011854635 -0.017982604 0.0756509 -0.023154035 0.009796484 0.007077265 -0.025457118
-0.05773245 0.04531174 0.00014330435 0.0125563815 0.009549763 -0.038733702 0.024085324 -0.0050652977
0.014325537 0.03587916 -0.044036854 -0.03311776 -0.0060185967 0.015463432 -0.03288997 0.043581463
00000000: dc6b ec3d 22b3 d53c 08f2 9e3d dc85 3e3d
00000010: 960f 35be f9c5 b4bc 919b 9a3b fbba f5bc
00000020: 905f c8bc 352c 283d 7156 813d 120e d83c
00000030: 7b54 723d 1460 493d deaf ed3c 3f1a e83c
00000040: c22e 12bd 00dd 0fbd 67ba 2fbd 6de3 f23c
00000050: 5560 21bd 0d8c fdbc fe9e 3bbd c6fa 20bc
00000060: c8f6 223c a0a4 dabc 673d 1ebc dee5 19bd
00000070: fe0f 9dbd 481c 8a3d 3839 a43c d66d 97bc
00000080: b292 843d 0f8e 763c 635c c43c 57ed c53c
00000090: bdb9 e73c 8027 293c 4e32 89bd 0b93 88bb
000000a0: 8b83 4a3c e7a7 50bd c80e 9dbb e225 ae3c
000000b0: 7eb2 bfbb 4d4c 8f3d da40 09bd 7351 20bb
000000c0: f78e e7bd d263 393c ae03 e7bc b220 dfba
000000d0: 82ba 66bc 62bc 313d da6f 063c 1107 b5bc
000000e0: 9ff6 d03c f4d8 31bd 74f7 9ebd 0e00 32bb
000000f0: d325 e23c ba6b 713d 3761 cdbc e930 60bd
00000100: 70e1 193c 423a b6bc 494e d53c f85b babc
00000110: 6f3e 023c b17c 253d 614d 03bd f1ff 93bc
00000120: 81f2 a93c 349b 9a3c f603 be3d d626 8e3c
00000130: 17c0 4c3d 878c a53d cb6b 643d 4ed4 4fbc
00000140: db7b 883b 741d f13c e264 beba fc74 41bc
00000150: cde9 063d 0a71 3abd 6517 1e3c b125 683c
00000160: 7018 183d 399a a2bc a138 3d3d 1c17 3fbc
00000170: d9e2 d13c 2599 c03b d422 3bbd fdb3 febb
00000180: 29d0 74bd aa26 653d 2db8 cc3d 83c2 bd3c
00000190: f7b3 4ebd e31c 62bc 2910 473b c3dd a5bc
000001a0: 2da0 7abd 00c7 7abc 02f7 473c 5682 a93b
000001b0: 57bb a93c cd9b b73c c8cf 913d f3ba 03bc
000001c0: 00cf 0bbd dcbb 00bd 117b 063b 670e ba3a
000001d0: 5287 b43a 0ffd d83b 44a8 5a3d 60ee 7b3c
000001e0: abe8 50bd 91f9 80bd 4f18 e53c 6183 023d
000001f0: 75ef 65bc b913 c5bc 95dc 763d b212 f8bc
00000200: 35d6 2d3b b67f 28bd 777c ddbc 8685 eabc
00000210: f419 47bc cb36 903d 1b10 1f3d f395 5b3d
00000220: 1ee3 82bc 18ff f03b 6199 653c 2a04 f33c
00000230: 237c 0fbd 344e 703d da8c b33c 2c75 283b
00000240: ea3e a6bc 7560 30bb f46c 9c3c c900 e3bc
00000250: 7343 b03d aa05 03bd bb94 cd3c f20a 37bd
00000260: 45a2 8e3d acfd b73c 85d6 443d 6a6c 323d
00000270: ffff 36bd f127 1abd ff2f b8bc 46ef 68bc
00000280: a341 5a3b 7ed2 43bd 866e 8c3c b644 0a3b
00000290: d159 c53b 9f58 d93b 8465 3c3d 5fc6 dd3c
000002a0: b81c 5cbc 93c2 52bd 53fa bfba 9d7a 7a3d
000002b0: dbaa 93bc a06b 493d 5ff7 2bbc f4e2 963d
000002c0: 8b63 6d3c 52e9 8b3c b29d d93c a4a6 0f3c
000002d0: 3fad 80bc 620f 8fbb fda3 463d 4924 773c
000002e0: e66f 25bd d70d 0b3c 4ea4 313d 7acb 31bd
000002f0: 7a10 2a3d 44d1 5cbc 1263 303c 895e 0e3c
00000300: b33c d5bc 2494 4abd ea39 553c bf4d ec3a
00000310: 21b5 4fbc 1e43 023c 336e cfbc f2c7 6d3c
00000320: e762 febc 748e 1a3d 0627 58bc 0966 d03c
00000330: 8875 3dbd 77da 073d add8 5d3c c17f 4e3c
00000340: c7fb e8bc 0c8d 013d c133 92bd 1b38 6ebc
00000350: b861 3c3d 29ae 573d 57ea 5bbd c2b5 4a3d
00000360: f583 003c ba1d 613c 5423 223c 5b76 963d
00000370: 024f 28bd 651a 453c be1d 2cbd 7452 7e3d
00000380: 5800 7a3b 26a4 613d 31ee 413d d9d8 d83c
00000390: 1133 83bb 1357 1a3d 05e3 ccbc d09f 82bd
000003a0: a213 96bd f139 42bc 4150 93bc dcee 9a3d
000003b0: 88ad bdbc 6f81 203c 67e8 e73b 728b d0bc
000003c0: dd78 6cbd ce98 393d f843 1639 48b9 4d3c
000003d0: 9c76 1c3c 3ba7 1ebd 964e c53c ccfa a5bb
000003e0: a8b5 6a3c 07f6 123d fd5f 34bd 7da6 07bd
000003f0: a637 c5bb 565a 7d3c a2b7 06bd 7a82 323d

actor_mean.4.bias f4 [21]
-0.024542842 0.02414678 -0.030824283 -0.05602165 -0.029364891 0.04077824 -0.055991627 0.0038448146
-0.02142511 -0.048216715 -0.0132968435 -0.009334936 -0.06348757 0.002270765 0.022188412 -0.015253904
-0.026173042 -0.010713528 -0.0034523143 0.052129976 -0.029414633
00000000: 120e c9bc 78cf c53c 3583 fcbc f576 65bd
00000010: a48e f0bc 1507 273d 7a57 65bd 49f9 7b3b
00000020: b683 afbc e47e 45bd 01db 59bc 8ff1 18bc
00000030: c505 82bd 1dd1 143b 79c4 b53c 83eb 79bc
00000040: d968 d6bc cb87 2fbc 3940 62bb 3e86 553d
00000050: f5f6 f0bc

codebook f4 [100, 2]
0.9358135 0.055641368 0.1568894 0.810836 0.5041548 0.47766498 0.59302765 0.4112605
0.5014708 0.50255793 0.55845815 0.43710852 0.28433913 0.7027125 0.22315562 0.765653
0.80074173 0.18011324 0.69011176 0.30826482 0.11330017 0.86480397 0.41444817 0.5799231
0.065723605 0.9102126 0.044397593 0.9477527 0.096871115 0.88704747 0.98419887 -0.060796853
0.26369736 0.7172898 0.06369141 0.9325786 0.91980135 0.044591397 0.30709305 0.68191576
0.563992 0.42883277 0.25446364 0.733276 0.40143627 0.58790773 0.44655666 0.5411944
0.6300684 0.365263 -0.7080334 0.020586198 0.565995 0.4226669 0.5177375 0.47320333
0.27761337 0.7094031 0.7658114 0.22771448 0.5854654 0.40545133 0.5541405 0.4342092
0.784778 0.23941128 0.74668473 0.24332757 0.8905238 0.061416116 0.8178575 -0.28578547
0.24434455 0.7390146 -0.08035717 1.0180507 0.045514066 0.9235726 0.8495524 0.13295293
0.776135 0.21160579 0.7209562 0.26451176 0.5499922 0.4422687 0.96875 0.0015725199
0.31470287 0.6660518 0.13128959 0.84905237 0.5583745 0.43142173 0.33070898 0.6615217
0.65458316 0.3370809 0.42071104 0.566556 0.18589686 0.79840255 0.48018268 0.5064558
0.4220501 0.5625543 0.13727313 0.8424821 0.4528569 0.5320376 0.90765953 0.077526264
0.64619374 0.34701586 0.532423 0.46399632 0.13918139 0.8484464 0.7921298 0.1838373
0.84412444 0.13338387 0.26962787 0.7092225 0.57789516 0.421037 0.59208256 0.39516973
0.5361865 0.45432615 0.16440739 0.81641746 0.4915746 0.49985707 0.1589684 0.8157478
0.5622573 0.4265315 0.06426837 0.91242415 0.27655235 0.6982178 0.8292174 0.15300566
0.2359944 0.7520708 0.44875473 0.5402964 0.8130537 0.18314703 0.5115324 0.48101306
0.6125736 0.3799125 0.6578034 0.33189252 0.43520305 0.5485995 0.366307 0.62379354
0.8019724 0.18989626 0.60579896 0.38633734 0.5640922 0.4226393 0.52064717 0.46923268
0.46840185 0.5164912 0.17170683 0.8234587 0.8771576 0.11115188 0.34218067 0.63118184
0.8336314 0.15884162 0.6018406 0.38709006 0.3156981 0.6696994 0.26130974 0.72300017
0.70412093 0.28860706 0.77136606 0.21695952 0.5541556 0.43601376 0.34488043 0.6443057
0.61680245 0.37920138 0.5023572 0.48353052 0.4755986 0.5113368 0.57589644 0.41374347
00000000: 7991 6f3f 34e8 633d 9da7 203e f392 4f3f
00000010: 4a10 013f 8190 f43e a9d0 173f bc90 d23e
00000020: 6460 003f a3a7 003f 1df7 0e3f b0cc df3e
00000030: e694 913e f7e4 333f e882 643e d601 443f
00000040: 69fd 4c3f 9b6f 383e 2aab 303f e3d4 9d3e
00000050: eb09 e83d cb63 5d3f 8d32 d43e d775 143f
00000060: 199a 863d b103 693f 40da 353d ec9f 723f
00000070: 5d64 c63d 8b15 633f 75f4 7b3f 1f06 79bd
00000080: 5703 873e 4ea0 373f a470 823d 79bd 6e3f
00000090: 1a78 6b3f 78a5 363d 4d3b 9d3e 0892 2e3f
000000a0: c861 103f f88f db3e 0f49 823e fab7 3b3f
000000b0: 0e89 cd3e 1f81 163f 13a3 e43e b78b 0a3f
000000c0: 2a4c 213f c003 bb3e ad41 35bf 63a4 a83c
000000d0: 0ce5 103f cc67 d83e 728a 043f b547 f23e
000000e0: 5723 8e3e 719b 353f 370c 443f fc2d 693e
000000f0: 0fe1 153f 5197 cf3e 27dc 0d3f ab50 de3e
00000100: 36e7 483f 3b28 753e bb26 3f3f dd2a 793e
00000110: 5ef9 633f 778f 7b3d 1c5f 513f 7952 92be
00000120: 7535 7a3e 1030 3d3f 4d92 a4bd 7c4f 823f
00000130: f56c 3a3d 416f 6c3f 447c 593f d024 083e
00000140: c9b0 463f 30af 583e 9690 383f 166e 873e
00000150: 4acc 0c3f 0b71 e23e 0000 783f 031d ce3a
00000160: bc20 a13e 5f82 2a3f c770 063e 7f5b 593f
00000170: a2f1 0e3f 4fe3 dc3e b052 a93e 7c59 293f
00000180: c392 273f de95 ac3e 7067 d73e d009 113f
00000190: bf5b 3e3e 1c64 4c3f 81da f53e 16a7 013f
000001a0: f316 d83e 8f03 103f 5491 0c3e e8ac 573f
000001b0: dcdc e73e 9e33 083f 605c 683f 17c6 9e3d
000001c0: f46c 253f 10ac b13e e04c 083f ed90 ed3e
000001d0: 9185 0e3e c933 593f 05c9 4a3f d83f 3c3e
000001e0: 8a18 583f c895 083e aa0c 8a3e 9b8f 353f
000001f0: f0f0 133f 2992 d73e b992 173f b053 ca3e
00000200: 8543 093f 709d e83e 695a 283e bc00 513f
00000210: aaaf fb3e 44ed ff3e 9dc8 223e d9d4 503f
00000220: 18f0 0f3f 5662 da3e 239f 833d a194 693f
00000230: 4598 8d3e 67be 323f 9747 543f 84ad 1c3e
00000240: 84a8 713e b687 403f 2ec3 e53e dd50 0a3f
00000250: 4a24 503f e58a 3b3e caf3 023f 5847 f63e
00000260: a0d1 1c3f e483 c23e ce65 283f d1ed a93e
00000270: efd2 de3e 0471 0c3f 978c bb3e efb0 1f3f
00000280: 104e 4d3f 2a74 423e a415 1b3f 02ce c53e
00000290: 5968 103f 2e64 d83e 2249 053f 443f f03e
000002a0: 5ed2 ef3e c438 043f ead3 2f3e 30ce 523f
000002b0: 678d 603f 99a3 e33d 4e32 af3e 2295 213f
000002c0: de68 553f 61a7 223e 3a12 1a3f ab30 c63e
000002d0: 2ea3 a13e 6b71 2b3f 64ca 853e 8a16 393f
000002e0: 4541 343f 4ec4 933e 3f78 453f a32a 5e3e
000002f0: 24dd 0d3f 323d df3e 2b94 b03e 38f1 243f
00000300: c4e6 1d3f af26 c23e 7b9a 003f 5091 f73e
00000310: a981 f33e f8e6 023f f36d 133f 2fd6 d33e
