saved_agents/dm_walker_d.pth (torch, 119765 bytes, 26 tensors)

actor_logstd f4 [1, 6]
-1.0323836 -1.0008249 -1.0488145 -0.9945311 -1.038044 -0.9916315
00000000: 2525 84bf 081b 80bf 8e3f 86bf 9799 7ebf
00000010: a0de 84bf 90db 7dbf

critic.0.weight f4 [64, 26]
0.64123493 -0.18088247 -0.121554814 0.45584264 -0.20132694 0.112816036 0.3517846 0.00022966016
0.03856992 0.5016314 -0.31824157 0.24406628 0.39250502 -0.007994326 0.03200225 0.27257624
0.13177934 0.2322159 -0.093295105 -0.040205974 -0.0027078583 -0.09073748 -0.034221373 -0.013456686
-0.3000831 0.39493662 0.015478164 0.19579206 0.26945788 -0.057278533 -0.30784404 0.15376982
0.2225354 -0.11693244 0.37486637 0.2127399 0.40021646 -0.0062210695 0.07158441 0.05347152
-0.10309372 0.21402334 0.33435673 0.21243958 0.068879075 -0.1300978 0.008094647 -0.12043733
-0.10123674 0.014591549 -0.5006883 -0.33855698 0.84136504 -0.5687478 0.009182343 0.25230268
0.08001738 -0.024208987 -0.34534943 -0.024921358 0.031932198 0.15849371 -0.14603221 0.317987
0.15353024 0.1740953 0.19226739 0.06904662 -0.030205846 -0.10788639 -0.1050776 -0.043480903
-0.013089259 0.0831944 0.07353356 0.00965217 0.33965552 0.14037545 0.9352485 0.029369073
-0.36409295 -0.17040978 -0.5830552 0.3104363 0.45256528 0.09036976 -0.14681208 0.09728779
-0.30190617 0.4598488 0.18932967 0.24226263 0.08686761 -0.054718237 -0.0738851 0.15918769
0.026396297 -0.014132554 -0.0023550752 -0.07643149 -0.004391781 -0.006208237 0.19997412 0.42616516
-0.08868995 0.07532966 0.011712226 -0.40567395 -0.073693246 0.1878804 -0.22015506 0.19456688
0.048611652 0.29567862 -0.13877591 -0.1873191 0.11701371 -0.23626643 -0.00399456 -0.4672086
-0.23724823 -0.080335975 -0.07437191 0.12970841 0.03369638 0.012733064 -0.10101223 -0.0025442857
-0.80447525 -0.50473624 -0.45043778 0.04877619 -0.10310546 0.110790275 0.5538605 -0.14463088
-0.2875536 -0.17742579 0.25835416 -0.10303416 0.21968302 -0.34062195 0.15648548 -0.05996545
0.094477974 -0.08785062 -0.5591869 0.09365886 -0.007980988 0.33750838 0.014792529 0.1835922
0.092694625 0.09894597 0.13958284 0.15202713 -0.20251389 -0.028253539 -0.13706645 -0.41860893
-0.03634254 0.3081003 0.23019607 -0.27577335 -0.0067201983 -0.2252739 -0.1271268 0.38777953
-0.034207486 -0.09746022 0.024354752 -0.038912192 0.17242447 0.08433153 -0.20279913 -0.085585
-0.010560015 0.11132074 0.035340134 0.007845142 -0.6263028 -0.48377356 -0.274086 0.4724676
-0.1994651 -0.2895683 -0.046339195 0.05402933 -0.0153856315 -0.115737975 0.24018429 -0.55972075
0.025107916 0.41590083 -0.13184315 -0.22840996 0.013420387 -0.24996457 0.06403533 0.04910777
0.19814575 0.108927146 0.026832758 -0.33920875 -0.14143349 -0.02667939 -0.8130296 -0.6575953
-0.06487827 -0.3267873 -0.13448963 -0.5744201 -0.2737631 -0.060261432 0.31786275 -0.26286295
0.2340085 -0.46379685 0.17941408 0.10241267 0.19775514 0.35192764 0.08615595 0.16617747
-0.40448797 -0.1467409 -0.14217548 0.06340744 -0.0049625793 0.17126812 -0.0648123 0.034058083
-0.11781548 0.3243274 0.17632872 -0.27447176 -0.049853366 0.031277277 -0.0022053774 0.17287657
0.30905306 -0.2544527 0.40567353 0.03276252 -0.058817133 -0.071047105 0.13938779 0.1033118
-0.037166227 -0.19250199 -0.13815235 -0.09980939 -0.060210414 0.16031744 -0.010557128 -0.32381767
00000000: f927 243f 4139 39be bbf1 f8bd 3564 e93e
00000010: a628 4ebe 180c e73d 1c1d b43e eed0 7039
00000020: 7efb 1d3d ea6a 003f 8ff0 a2be 83ec 793e
00000030: 6bf6 c83e a2fa 02bc cb14 033d 1d8f 8b3e
00000040: 2af1 063e 01ca 6d3e 8111 bfbd 05af 24bd
00000050: 5376 31bb 92d4 b9bd b62b 0cbd 6f79 5cbc
00000060: 7ea4 99be 2235 ca3e 2098 7d3c b77d 483e
00000070: 62f6 893e e59c 6abd bc9d 9dbe d675 1d3e
00000080: 52e0 633e 467a efbd 7cee bf3e 7dd8 593e
00000090: 2ce9 cc3e 1dda cbbb d99a 923d f404 5b3d
000000a0: cd22 d3bd ef28 5b3e ce30 ab3e c389 593e
000000b0: 7910 8d3d 5c38 05be 699f 043c d9a7 f6bd
000000c0: 3555 cfbd 6411 6f3c 1c2d 00bf 5757 adbe
000000d0: b363 573f 7599 11bf 8a71 163c d12d 813e
000000e0: 27e0 a33d ed51 c6bc a4d1 b0be e027 ccbc
000000f0: 56cb 023d 2d4c 223e 7889 15be 31cf a23e
00000100: 0837 1d3e 0a46 323e bee1 443e 5068 8d3d
00000110: 4072 f7bc 8af3 dcbd ed32 d7bd 0819 32bd
00000120: 5574 56bc d361 aa3d c398 963d 2324 1e3c
00000130: 54e7 ad3e 95be 0f3e 726c 6f3f 6997 f03c
00000140: 646a babe e77f 2ebe 1b43 15bf 82f1 9e3e
00000150: a3b6 e73e c813 b93d e855 16be d23e c73d
00000160: 7293 9abe 4d71 eb3e a3df 413e b213 783e
00000170: a5e7 b13d 3b20 60bd 1251 97bd 1902 233e
00000180: 0c3d d83c 3a8c 67bc 9b57 1abb 1d88 9cbd
00000190: eee8 8fbb 776e cbbb 04c6 4c3e 5232 da3e
000001a0: 14a3 b5bd 7046 9a3d a3e4 3f3c 7fb4 cfbe
000001b0: 7cec 96bd b863 403e 5470 61be 8a3c 473e
000001c0: 031d 473d 3063 973e 461b 0ebe 94d0 3fbe
000001d0: e2a4 ef3d d4ef 71be cce4 82bb f735 efbe
000001e0: 33f1 72be 3087 a4bd 4d50 98bd 48d2 043e
000001f0: 3705 0a3d 579e 503c 80df cebd 08be 26bb
00000200: 17f2 4dbf 6536 01bf c89f e6be 8bc9 473d
00000210: f528 d3bd 03e6 e23d cdc9 0d3f 1e1a 14be
00000220: 3a3a 93be 1baf 35be ff46 843e 9303 d3bd
00000230: 96f4 603e 0066 aebe bb3d 203e 559e 75bd
00000240: ab7d c13d 07eb b3bd df26 0fbf 37d0 bf3d
00000250: b1c2 02bc e6cd ac3e 5d5c 723c 98ff 3b3e
00000260: aed6 bd3d 2fa4 ca3d ceee 0e3e 00ad 1b3e
00000270: cd5f 4fbe f773 e7bc 265b 0cbe e953 d6be
00000280: eadb 14bd 53bf 9d3e 85b8 6b3e 2a32 8dbe
00000290: 1c35 dcbb 34ae 66be 872d 02be 0a8b c63e
000002a0: 261d 0cbd 3999 c7bd 9e83 c73c 6462 1fbd
000002b0: 0a90 303e 02b6 ac3d 93aa 4fbe 3047 afbd
000002c0: ea03 2dbc 21fc e33d d1c0 103d e988 003c
000002d0: 6155 20bf 2bb1 f7be 0055 8cbe 46e7 f13e
000002e0: 9440 4cbe 4c42 94be 2bce 3dbd dc4d 5d3d
000002f0: 0414 7cbc 0808 edbd dff2 753e dc49 0fbf
00000300: 1eaf cd3c f4f0 d43e e401 07be 4de4 69be
00000310: 2fe1 5b3c b6f6 7fbe f524 833d 3b25 493d
00000320: b8e6 4a3e 3215 df3d 5fd0 db3c c5ac adbe
00000330: f1d3 10be bc8e dabc b522 50bf 2a58 28bf
00000340: e6de 84bd aa50 a7be a6b7 09be 320d 13bf
00000350: ad2a 8cbe b1d4 76bd e8be a23e f995 86be
00000360: ed9f 6f3e c876 edbe 53b8 373e bcbd d13d
00000370: 5380 4a3e dc2f b43e 8872 b03d 6d2a 2a3e
00000380: 0c19 cfbe 3f43 16be 7396 11be c3db 813d
00000390: 229d a2bb e960 2f3e 50bc 84bd 7d80 0b3d
000003a0: 3e49 f1bd 3e0e a63e 848f 343e 9087 8cbe
000003b0: 0b33 4cbd 9a1c 003d 1888 10bb 8e06 313e
000003c0: 343c 9e3e a047 82be 71b4 cf3e fe31 063d
000003d0: 3cea 70bd 2581 91bd acbb 0e3e 2395 d33d
000003e0: 9d3b 18bd 3e1f 45be cf77 0dbe de68 ccbd
000003f0: 329f 76bd 412a 243e cef7 2cbc 6ecb a5be

critic.0.bias f4 [64]
-0.098236665 -0.2999582 0.3374855 0.20286393 -0.40152082 0.26892707 -0.53465325 -0.63150686
0.2114746 0.2233129 0.29703265 0.28412622 0.26260647 -0.44429854 0.4713922 0.28383464
-0.46463266 -0.003495106 0.09522503 -0.31333256 0.120527215 -0.108533934 -0.11078029 0.35961378
-0.56764585 0.39919955 -0.42162448 0.117909074 -0.2821194 -0.13407391 -0.5974459 0.27651894
-0.58226216 -0.1878978 -0.21794869 -0.40036994 -0.17558655 0.15491939 -0.2092215 -0.10703492
0.50395375 -0.29300198 0.07296032 0.16519623 -0.6559452 -0.09662336 0.50881845 -0.4635918
-0.16629753 0.24894714 -0.60904944 0.16222328 -0.31044707 0.015459702 0.055950407 0.25039327
0.007507204 -0.39714727 -0.18386105 0.22636762 0.5383411 0.18481599 -0.24018496 -0.005593829
00000000: 4e30 c9bd 1f94 99be e6ca ac3e 90bb 4f3e
00000010: 2394 cdbe cfb0 893e 09df 08bf 6faa 21bf
00000020: cc8c 583e 23ac 643e aa14 983e fe78 913e
00000030: 5b74 863e 197b e3be 525a f13e c652 913e
00000040: 55e4 edbe 260e 65bb 5705 c33d 206d a0be
00000050: f9d6 f63d 0a47 debd c7e0 e2bd 4c1f b83e
00000060: 3d51 11bf e263 cc3e 2adf d7be 507a f13d
00000070: f471 90be ac4a 09be 37f2 18bf e493 8d3e
00000080: 220f 15bf 4868 40be f12d 5fbe 4afd ccbe
00000090: f6cc 33be 30a3 1e3e 293e 56be 2035 dbbd
000000a0: 1d03 013f 5b04 96be 386c 953d 3329 293e
000000b0: 06ec 27bf 78e2 c5bd ed41 023f e85b edbe
000000c0: e649 2abe 00ec 7e3e aaea 1bbf dc1d 263e
000000d0: ebf2 9ebe b14a 7d3c 412c 653d 8c33 803e
000000e0: fefe f53b e356 cbbe 1246 3cbe eacc 673e
000000f0: b9d0 093f 6740 3d3e 0cf3 75be 704c b7bb

critic.2.weight f4 [64, 64]
0.031183008 0.05534955 -0.2711058 -0.06437319 0.16589321 -0.15654011 0.31033304 0.45702586
0.05751264 -0.04521549 -0.12969558 -0.09561963 -0.15931682 0.31088552 -0.5660278 -0.35559726
0.35171893 0.03505969 0.2734544 -0.024564557 0.06426505 0.06752947 -0.025366705 -0.38997856
0.5649399 -0.2357898 0.17665936 -0.08359301 0.20912601 -0.044310365 0.27797827 0.052390393
0.6733916 0.08293317 0.35780528 0.21718985 0.18803746 0.024747632 -0.0030608375 0.29884273
-0.29783985 0.036641374 -0.26293913 -0.09312291 0.41436043 -0.07470753 -0.83813 0.60669494
0.20367098 -0.090605095 0.07197334 -0.0348487 0.031497825 -0.39416072 0.08419843 -0.21283306
0.004003585 0.15523142 0.08158034 -0.12597743 -0.2825881 -0.0910101 0.0029375677 0.08901006
0.15343489 -0.21952748 0.35965276 0.46285787 -0.19351292 0.034075383 -0.8581654 -0.21408387
-0.12580717 0.07698957 -0.034183346 0.17547195 0.21794412 -0.45844248 0.18945543 0.3804084
-0.38383898 0.002427466 -0.023355909 -0.09416615 -0.10529296 -0.22221924 0.04950742 0.12463028
-0.52691424 -0.13502105 -0.09745462 0.022737715 -0.2819815 -0.30056304 -0.62859786 0.056191478
-0.5889043 -0.026371699 -0.40173683 -0.26168513 -0.16571487 0.1963583 0.15728682 -0.13063233
0.38816106 -0.09760689 -0.12469885 0.22940311 -0.184514 -0.12885036 0.51773715 -0.39741385
-0.16014203 -0.046915334 -0.23882498 -0.16349281 -0.24267459 -0.052375652 -0.018105628 0.13602078
-0.05337166 -0.11865255 -0.014794706 0.381997 0.3384616 0.21190734 -0.077662095 0.03196375
0.050046932 -0.16271609 0.17456836 0.45800272 -0.16918762 -0.053810466 -0.27567366 -0.42819342
0.10204042 -0.028796345 0.20222202 -0.16645363 0.47831506 -0.2476483 0.2691635 0.27164245
-0.6173331 -0.08155501 0.199143 -0.026241304 0.058365144 -0.0044882675 0.1243086 0.020176776
-0.5371806 0.06412433 -0.3457669 0.42817238 -0.13049936 0.22226502 -0.57695574 0.35770094
-0.5433053 -0.18464147 -0.55070335 -0.46579683 -0.3704002 -0.027657641 -0.080426075 -0.08829972
0.25918928 0.11772198 0.16817038 0.22387081 -0.27002478 -0.23635456 0.38989955 -0.72976977
-0.2867801 -0.05871947 -0.39804628 -0.19627815 0.0029653697 -0.09134552 0.0004596333 0.20817158
0.018364111 -0.074280314 0.030429551 0.2775294 0.23085381 -0.011868187 -0.0527166 -0.124551654
0.013091205 -0.2475925 0.17067398 0.20845552 -0.03318619 0.079838865 -0.18524796 -0.3157584
0.08435265 0.0036392075 0.16282976 -0.013471926 -0.2723765 0.0016356219 0.21105307 0.018968241
-0.5914542 -0.22053672 0.13887602 -0.19839828 0.0005601531 -0.32312387 0.08892337 0.17140523
-0.7510167 0.13939323 -0.120418355 -0.27531597 -0.022676537 0.17946525 -0.2312104 -0.017252335
-0.5746856 0.008559077 0.08563918 0.14810605 0.29907086 0.39736742 -0.1678078 -0.08003417
0.36723226 -0.14685251 -0.11833824 -0.06982376 -0.250307 -0.083749056 0.22867617 -0.3371563
-0.04525519 0.009090976 -0.6312611 0.3071626 0.28356478 -0.14323448 -0.08676909 0.048168622
-0.2639298 0.07473935 0.2797324 0.22685269 0.2298103 -0.042437986 0.29582703 0.17453587
00000000: 8273 ff3c 36b6 623d 61ce 8abe 17d6 83bd
00000010: e9df 293e 0d4c 20be f9e3 9e3e 4bff e93e
00000020: 6092 6b3d e133 39bd ebce 04be 39d4 c3bd
00000030: f323 23be 632c 9f3e 33e7 10bf d810 b6be
00000040: 8114 b43e c09a 0f3d 3702 8c3e 9c3b c9bc
00000050: 659d 833d e44c 8a3d d6cd cfbc 45ab c7be
00000060: e79f 103f e272 71be 31e6 343e d032 abbd
00000070: 2125 563e c97e 35bd 2b53 8e3e 4f97 563d
00000080: 6463 2c3f ded8 a93d 4132 b73e 0467 5e3e
00000090: e48c 403e 8cbb ca3c 5598 48bb ea01 993e
000000a0: 777e 98be 4415 163d f59f 86be 39b7 bebd
000000b0: 0d27 d43e 4300 99bd b08f 56bf 5c50 1b3f
000000c0: 208f 503e 2a8f b9bd c266 933d 83bd 0ebd
000000d0: dd03 013d 6fcf c9be 3a70 ac3d e9f0 59be
000000e0: 8130 833b fcf4 1e3e 9813 a73d 3a00 01be
000000f0: 63af 90be 8163 babd 3584 403b e84a b63d
00000100: 091e 1d3e d0cb 60be 6824 b83e b5fb ec3e
00000110: 4028 46be a192 0b3d bab0 5bbf cd38 5bbe
00000120: 98d3 00be b5ac 9d3d d603 0cbd ebae 333e
00000130: be2c 5f3e f9b8 eabe 9b00 423e e4c4 c23e
00000140: 8b86 c4be 1f16 1f3b e454 bfbc 2fda c0bd
00000150: d6a3 d7bd 718d 63be 4bc8 4a3d 293e ff3d
00000160: dae3 06bf f542 0abe 4a96 c7bd 7244 ba3c
00000170: e15f 90be 66e3 99be caeb 20bf 0929 663d
00000180: 6fc2 16bf 7609 d8bc 73b0 cdbe 98fb 85be
00000190: 29b1 29be 2612 493e cc0f 213e 7bc4 05be
000001a0: 0cbd c63e 1fe6 c7bd 1c62 ffbd a6e8 6a3e
000001b0: 3df1 3cbe 59f1 03be 6c8a 043f d479 cbbe
000001c0: 46fc 23be 4b2a 40bd 898e 74be a96a 27be
000001d0: b07f 78be da87 56bd 4152 94bc 0849 0b3e
000001e0: 3e9c 5abd 1c00 f3bd 7f65 72bc 1c95 c33e
000001f0: d74a ad3e 3dfe 583e 4e0d 9fbd 6cec 023d
00000200: 03fe 4c3d 0c9f 26be 0cc2 323e 557f ea3e
00000210: 853f 2dbe 5d68 5cbd 1925 8dbe 2b3c dbbe
00000220: 91fa d03d 50e6 ebbc 4a13 4f3e d272 2abe
00000230: b6e5 f43e 8497 7dbe cccf 893e b814 8b3e
00000240: 8b09 1ebf 5006 a7bd 25ec 4b3e 01f8 d6bc
00000250: 4a10 6f3d 5112 93bb 8295 fe3d c449 a53c
00000260: ab84 09bf 9e53 833d 5c08 b1be 6939 db3e
00000270: a0a1 05be 7199 633e 5fb3 13bf 9424 b73e
00000280: 0e16 0bbf a712 3dbe e5fa 0cbf ec7c eebe
00000290: 18a5 bdbe 4792 e2bc 6db6 a4bd 7cd6 b4bd
000002a0: 75b4 843e 3918 f13d db34 2c3e 643e 653e
000002b0: b040 8abe ee06 72be eaa0 c73e 31d2 3abf
000002c0: d7d4 92be d483 70bd b9cc cbbe 24fd 48be
000002d0: a656 423b 5c13 bbbd f0fa f039 ee2a 553e
000002e0: 5570 963c 4720 98bd 6547 f93c 5518 8e3e
000002f0: f164 6c3e c972 42bc 5ded 57bd f014 ffbd
00000300: 7e7c 563c e388 7dbe 29c5 2e3e 5d75 553e
00000310: 3eee 07bd 8f82 a33d a4b1 3dbe 16ab a1be
00000320: 15c1 ac3d c57f 6e3b d8bc 263e 5ab9 5cbc
00000330: ef74 8bbe 5d62 d63a 4c1e 583e 4963 9b3c
00000340: 8b69 17bf 61d4 61be 8435 0e3e eb28 4bbe
00000350: 3dd7 123a 7e70 a5be 751d b63d da84 2f3e
00000360: a142 40bf 19bd 0e3e e69d f6bd 37f6 8cbe
00000370: 25c4 b9bc bdc5 373e 6bc2 6cbe c554 8dbc
00000380: 981e 13bf 5f3b 0c3c 9863 af3d 1da9 173e
00000390: d11f 993e be73 cb3e cfd5 2bbe f4e8 a3bd
000003a0: de05 bc3e 8160 16be 525b f2bd c2ff 8ebd
000003b0: 3d28 80be a084 abbd 162a 6a3e c09f acbe
000003c0: 825d 39bd 51f2 143c 549a 21bf 6b44 9d3e
000003d0: 672f 913e 0fac 12be feb3 b1bd 764c 453d
000003e0: cf21 87be f210 993d 1639 8f3e 124c 683e
000003f0: 6453 6b3e 74d3 2dbd a476 973e 88b9 323e

critic.2.bias f4 [64]
-0.37778136 0.33175358 0.2654941 0.2834855 0.40314558 0.35834253 0.07571508 -0.42130715
-0.42782658 0.29953557 -0.37231946 -0.50304496 0.56876963 -0.40200457 0.5349477 -0.43924353
-0.38836947 0.00066037715 0.42290977 0.27474427 0.29651025 -0.41601896 0.40102538 0.41041562
-0.33783546 -0.3922467 -0.46220416 0.43188703 -0.4312686 0.43953758 0.45231143 -0.41761598
-0.16507006 -0.18397634 -0.401882 -0.29037386 0.42074826 0.32200882 0.32649922 0.43041074
-0.55390847 0.3015556 0.42175594 -0.0554469 0.33153805 0.31101272 -0.3970312 0.3888999
0.2581728 0.08665611 0.3883524 -0.43236837 -0.054983206 0.3493058 0.40129787 -0.41485447
-0.4017443 0.33932945 -0.4911706 -0.409624 0.5115101 -0.32723382 0.41031355 0.019581141
00000000: 8f6c c1be 9bdb a93e d8ee 873e 0325 913e
00000010: 1969 ce3e ac78 b73e 8210 9b3d 92b5 d7be
00000020: 160c dbbe ba5c 993e a8a0 bebe 8ec7 00bf
00000030: e39a 113f 8bd3 cdbe 55f2 083f 87e4 e0be
00000040: 5dd8 c6be 291d 2d3a a187 d83e 48ab 8c3e
00000050: 31d0 973e 7000 d5be 3353 cd3e ff21 d23e
00000060: c5f8 acbe 8fd4 c8be 06a6 ecbe 4c20 dd3e
00000070: 3dcf dcbe 120b e13e 5d95 e73e c3d1 d5be
00000080: 2008 29be 4b64 3cbe 7ac3 cdbe e2ab 94be
00000090: 516c d73e 57de a43e e82a a73e cc5e dc3e
000000a0: f2cc 0dbf 7f65 9a3e 65f0 d73e 4a1c 63bd
000000b0: 5bbf a93e 0f3d 9f3e ac47 cbbe e31d c73e
000000c0: 3a2f 843e c278 b13d 20d6 c63e 635f ddbe
000000d0: 1236 61bd 36d8 b23e ea76 cd3e ce67 d4be
000000e0: 6eb1 cdbe 97bc ad3e b67a fbbe 3dba d1be
000000f0: 53f2 023f 318b a7be 9e14 d23e a168 a03c

critic.4.weight f4 [2, 64]
-0.12367458 0.23658535 0.26490298 -0.8580317 0.31589627 0.38484842 1.138868 -0.008666234
0.6396318 0.3262425 -0.68260014 -0.43291 0.1774719 -0.19126657 0.13256371 -0.35242355
-0.36534443 -1.0629804 0.13285947 0.23403773 0.18828666 -0.20297483 0.37236813 -0.52385324
-0.2328103 -0.45183828 -0.38375947 0.27927107 -0.37069237 0.3585327 0.5138445 -0.44154978
-1.0328815 -0.93089235 -0.31031877 -0.4110845 0.24605425 0.55352145 0.28771996 0.3189001
-0.2358979 -0.9458068 0.29901993 -0.88566816 0.35338828 0.30250755 -0.038524516 0.30017966
0.8340244 1.1746018 0.25751814 -0.41297343 -1.2116523 0.3444478 0.37525147 -0.557972
-0.48584154 0.39783272 -0.3645996 -0.50031805 0.17421131 -0.30023202 0.20686743 1.1359553
-1.5687016 1.5741214 1.7183385 0.9991148 1.4163551 1.4833629 -0.115186535 -1.5589622
-1.2753161 1.5746019 -1.0822878 -1.2578977 1.3559052 -1.5065789 1.3964998 -1.4579272
-1.4436722 0.48243347 1.4655174 1.625473 1.6412922 -1.4741359 1.4084512 1.3307567
-1.334936 -1.35139 -1.3944988 1.4210137 -1.4316001 1.3930225 1.3307986 -1.427122
-0.14227119 -0.3223893 -1.43862 -1.5194783 1.4511387 1.5464153 1.5467126 1.3813951
-1.3043594 1.0166548 1.4158052 -0.036833502 1.506389 1.641455 -1.3843735 1.5502208
0.70507604 -0.14436348 1.4324106 -1.3739154 0.36352134 1.482853 1.4471334 -1.3723502
-1.417812 1.3738084 -1.2451842 -1.3790742 1.4666139 -1.5323715 1.5155345 0.015377391
00000000: 1949 fdbd 6e43 723e 5da1 873e f7a7 5bbf
00000010: 28bd a13e da0a c53e 6dc6 913f d2fc 0dbc
00000020: e9be 233f 4209 a73e e2be 2ebf 61a6 ddbe
00000030: 32bb 353e 62db 43be c8be 073e dc70 b4be
00000040: 6d0e bbbe be0f 88bf 500c 083e 96a7 6f3e
00000050: 38ce 403e a2d8 4fbe 09a7 be3e 3f1b 06bf
00000060: d365 6ebe 5957 e7be 1f7c c4be 9efc 8e3e
00000070: 64cb bdbe 9991 b73e 508b 033f d012 e2be
00000080: 7635 84bf f64e 6ebf 1ae2 9ebe ab79 d2be
00000090: a5f5 7b3e 95b3 0d3f 0850 933e e046 a33e
000000a0: 388f 71be 6520 72bf 2419 993e 26bb 62bf
000000b0: 4fef b43e 45e2 9a3e e2cb 1dbd 26b1 993e
000000c0: a082 553f 5a59 963f 6bd9 833e 4171 d3be
000000d0: 6c17 9bbf 765b b03e f620 c03e 41d7 0ebf
000000e0: 39c0 f8be bbb0 cb3e ccac babe d814 00bf
000000f0: 7364 323e 03b8 99be 0ed5 533e fc66 913f
00000100: 37cb c8bf cf7c c93f 84f2 db3f fdc5 7f3f
00000110: 204b b53f d6de bd3f ebe6 ebbd 138c c7bf
00000120: 8f3d a3bf 8e8c c93f 6888 8abf cb02 a1bf
00000130: 4d8e ad3f 94d7 c0bf 81c0 b23f 5c9d babf
00000140: 40ca b8bf 8501 f73e 1396 bb3f 800f d03f
00000150: dd15 d23f 7cb0 bcbf 2148 b43f 3c56 aa3f
00000160: 2fdf aabf 59fa acbf f07e b2bf c7e3 b53f
00000170: ac3e b7bf 904e b23f 9c57 aa3f efab b6bf
00000180: 8aaf 11be 3610 a5be b324 b8bf 447e c2bf
00000190: eabe b93f f0f0 c53f aefa c53f 8ed1 b03f
000001a0: 40f5 a6bf bf21 823f 1b39 b53f bade 16bd
000001b0: 5bd1 c03f 331b d23f 2733 b1bf a36d c63f
000001c0: dd7f 343f 05d4 13be 3b59 b73f 76dc afbf
000001d0: 781f ba3e 21ce bd3f ab3b b93f 2ca9 afbf
000001e0: dd7a b5bf f4d8 af3f 3262 9fbf 8185 b0bf
000001f0: 01ba bb3f c024 c4bf 09fd c13f 74f1 7b3c

critic.4.bias f4 [2]
0.21055312 1.2304147
00000000: 3d9b 573e 3b7e 9d3f

actor_mean.0.weight f4 [64, 26]
-0.36122635 0.05948938 0.0953516 0.33848524 -0.37845853 0.06702695 -0.028996618 -0.32144037
0.009931248 0.14069623 -0.16630064 0.18555851 -0.034951337 -0.0654221 0.13777511 -0.16723467
0.098416775 -0.48096403 -0.1702876 -0.20598266 -0.08147229 -0.020595895 -0.15932085 -0.2956132
0.017236669 -0.21400662 0.035793412 -0.0932154 0.40753534 -0.14258206 0.03358346 -0.25876147
0.069288984 -0.11003646 0.23730446 -0.21130252 0.0925198 -0.08083987 -0.10307958 0.13351253
-0.08309097 -0.026346784 -0.26910585 -0.088697635 0.19164154 0.01019942 -0.07984489 -0.23967278
-0.113146946 -0.28638634 -0.35099372 -0.29739627 0.010531182 -0.1429543 -0.11301222 0.2480131
-0.26964268 0.4256879 -0.10216028 0.10891587 -0.14540888 -0.055005122 0.2166743 0.050990086
-0.008109385 0.15496016 0.115682624 -0.0624703 0.24573347 -0.23476782 -0.18125816 -0.05190084
0.27344033 -0.12473247 -0.1203775 -0.025445763 0.45152888 -0.0037366056 0.01557198 -0.1595831
0.15361239 0.07747358 0.35810626 -0.16194548 -0.18169595 0.0927044 -0.08265024 -0.08938806
-0.17969894 -0.034312475 0.067308895 -0.17612304 -0.43248543 0.03324187 0.13713261 -0.26220536
-0.0040072678 0.2207337 -0.0038705785 0.05785114 0.36034295 -0.40925437 0.18053544 -0.3057855
-0.14670195 -0.1635344 -0.008072731 -0.44256562 0.17387067 -0.09458257 -0.026184157 -0.027674925
0.34451538 -0.1085334 0.31552565 0.08811552 0.23455004 0.2965587 0.11131078 -0.17117475
0.0052388613 -0.0982959 -0.35715204 -0.052229427 0.0050832345 -0.052184436 0.18873458 0.18970229
0.23008016 0.019129168 -0.058941662 0.04330925 0.2880812 0.25774872 0.27874395 -0.016194135
0.34902686 0.14909755 0.11049491 0.029131087 0.34549177 0.117318004 0.19374017 -0.24517125
0.25819147 -0.15394546 -0.06751465 -0.14886607 -0.30391598 0.14537907 -0.09117761 0.02570886
0.33043236 0.19837761 -0.079908416 0.08565014 0.25867444 -0.028501185 -0.6065063 0.14615273
-0.030928748 0.12341871 0.21795721 0.3913379 -0.09969515 -0.0008634628 -0.3346213 0.22247468
0.16322063 -0.10867393 -0.20489402 -0.009554903 0.109334506 -0.33059266 0.10981545 0.17706628
-0.02602989 -0.22854643 -0.07278312 0.06594552 0.027736641 0.14921902 -0.49076596 -0.031343345
-0.24309832 0.12002562 0.12333759 -0.23058562 -0.20013477 0.07854205 -0.04644269 -0.21497025
0.20528762 -0.0865808 -0.36726853 -0.23049463 -0.04909728 0.08159089 -0.55624294 -0.34038064
0.20946385 0.052337725 0.027229762 0.16932814 0.087890625 -0.022120472 -0.20761728 -0.2665505
0.13914944 0.16828181 -0.12001317 -0.08271839 -0.45599294 -0.27132043 -0.13853404 -0.040789273
0.08719683 0.23589808 -0.012920493 -0.19303872 -0.026865873 0.13640976 -0.18073179 -0.21527512
0.16987401 -0.003810947 0.3470694 0.24496976 0.044976447 -0.07573843 0.12218655 -0.082250096
-0.28664988 -0.007062493 0.28077832 0.15411082 -0.01835054 -0.030554608 0.1592807 -0.09001148
0.50921077 0.081753656 -0.13709784 0.20655617 0.0810884 0.058736145 0.050423827 -0.30376777
0.06656613 -0.12297398 -0.15210433 0.12778008 -0.14372064 -0.034428824 -0.30616486 -0.09647685
00000000: a9f2 b8be 23ab 733d b347 c33d f04d ad3e
00000010: 51c5 c1be 6d45 893d 518a edbc d593 a4be
00000020: acb6 223c ac12 103e b74a 2abe 0d03 3e3e
00000030: 2229 0fbd 06fc 85bd eb14 0d3e 913f 2bbe
00000040: bc8e c93d eb40 f6be df5f 2ebe 1eed 52be
00000050: f2da a6bd b9b8 a8bc 0125 23be 9d5a 97be
00000060: ea33 8d3c 8d24 5bbe 1d9c 123d b7e7 bebd
00000070: 79a8 d03e 0801 12be cf8e 093d 627c 84be
00000080: 62e7 8d3d cc5a e1bd f1ff 723e b05f 58be
00000090: 057b bd3d 608f a5bd 631b d3bd 82b7 083e
000000a0: 992b aabd 36d5 d7bc 3ec8 89be 1ba7 b5bd
000000b0: ae3d 443e 781b 273c b885 a3bd c86c 75be
000000c0: 96b9 e7bd 3ba1 92be 73b5 b3be 5344 98be
000000d0: fb8a 2c3c 9d62 12be f372 e7bd 25f7 7d3e
000000e0: 9b0e 8abe c4f3 d93e 6939 d1bd 490f df3d
000000f0: 11e6 14be 0d4d 61bd dedf 5d3e fbda 503d
00000100: 3add 04bc e0ad 1e3e 03eb ec3d dbe0 7fbd
00000110: 8ea1 7b3e fa66 70be bd9b 39be fa95 54bd
00000120: 5f00 8c3e bd73 ffbd 7b88 f6bd a273 d0bc
00000130: cb2e e73e d7e1 74bb 9e21 7f3c c169 23be
00000140: 914c 1d3e 78aa 9e3d b459 b73e 09d5 25be
00000150: 810e 3abe cedb bd3d 8744 a9bd 1611 b7bd
00000160: 0003 38be 3d8b 0cbd 3fd9 893d 9959 34be
00000170: bb6e ddbe a128 083d 7e6c 0c3e c83f 86be
00000180: 664f 83bb 0408 623e 88a9 7dbb 51f5 6c3d
00000190: df7e b83e ca89 d1be 48de 383e eb8f 9cbe
000001a0: 0939 16be 9075 27be 7d43 04bc f697 e2be
000001b0: 270b 323e 82b4 c1bd 2880 d6bc 86b6 e2bc
000001c0: 5264 b03e c246 debd 948c a13e e975 b43d
000001d0: e32d 703e 8bd6 973e e8f6 e33d 6f48 2fbe
000001e0: c1aa ab3b 5c4f c9bd a2dc b6be 86ee 55bd
000001f0: 4391 a63b 59bf 55bd a343 413e 5141 423e
00000200: 229a 6b3e c6b4 9c3c d06c 71bd 0a65 313d
00000210: 617f 933e a4f7 833e 87b7 8e3e 90a9 84bc
00000220: a6b3 b23e 07ad 183e 284b e23d 51a4 ee3c
00000230: 4ce4 b03e 6c44 f03d d363 463e 2c0e 7bbe
00000240: ac31 843e e1a3 1dbe 1f45 8abd 5970 18be
00000250: e09a 9bbe 40de 143e 54bb babd 639b d23c
00000260: 6e2e a93e 8023 4b3e 06a7 a3bd 5769 af3d
00000270: fa70 843e 517b e9bc ff43 1bbf 10a9 153e
00000280: 495e fdbc f3c2 fc3d 2d30 5f3e 715d c83e
00000290: f92c ccbd 025a 62ba 7c53 abbe 67d0 633e
000002a0: 4f23 273e 7090 debd bdcf 51be 2b8c 1cbc
000002b0: c5ea df3d 7143 a9be ece6 e03d dd50 353e
000002c0: a33c d5bc 1308 6abe 510f 95bd 720e 873d
000002d0: f437 e33c dfcc 183e ad45 fbbe e161 00bd
000002e0: c4ee 78be fecf f53d 6b98 fc3d a31e 6cbe
000002f0: 21f0 4cbe a8da a03d b13a 3ebd 2921 5cbe
00000300: eb36 523e 4651 b1bd 9f0a bcbe c906 6cbe
00000310: 3b1a 49bd 2019 a73d f065 0ebf 5f46 aebe
00000320: b17d 563e 1560 563d f310 df3c 5b64 2d3e
00000330: 0000 b43d fe35 b5bc a099 54be 4f79 88be
00000340: 317d 0e3e 1152 2c3e 77c9 f5bd 4268 a9bd
00000350: e877 e9be 83ea 8abe dedb 0dbe a712 27bd
00000360: 4094 b23d 448f 713e 7ab0 53bc f1ab 45be
00000370: d215 dcbc 00af 0b3e c111 39be 1571 5cbe
00000380: 74f3 2d3e 15c1 79bb 15b3 b13e 5ad9 7a3e
00000390: 3939 383d c01c 9bbd f13c fa3d bd72 a8bd
000003a0: c6c3 92be 7c6c e7bb 2dc2 8f3e 3acf 1d3e
000003b0: df53 96bc a84d fabc 7b1a 233e f057 b8bd
000003c0: a35b 023f 766e a73d 6063 0cbe 7683 533e
000003d0: ad11 a63d 5095 703d 3789 4e3d 7387 9bbe
000003e0: d353 883d c8d9 fbbd 3dc1 1bbe c8d8 023e
000003f0: 812b 13be 3d05 0dbd a4c1 9cbe a895 c5bd

actor_mean.0.bias f4 [64]
-0.09950837 -0.021253893 0.078359075 -0.011016857 -0.0133213885 0.017358445 0.1809461 -0.093054146
-0.07989998 -0.06535275 0.116144694 0.05529326 -0.08514637 0.044278767 0.021508869 -0.0102423495
0.12389177 -0.020826621 0.008480623 -0.025062554 -0.030521985 0.008884857 -0.13030209 -0.0006732959
-0.07548377 0.051616814 0.0030238754 0.07187922 -0.0072539635 0.05104354 0.031432033 9.500787e-05
0.15071565 0.009238831 -0.081607655 -0.057124656 -0.02328893 -0.15158984 0.071804754 -0.11536768
0.05414667 0.04436975 0.06848281 0.065793395 0.019889975 0.025325976 -0.05790024 -0.08576728
0.013572465 -0.069534115 0.11763269 0.035565797 0.03568016 -0.0263565 0.037246425 0.034288384
0.0033349132 0.08368631 0.043517396 0.02665569 -0.029338054 0.047607828 -0.0031520636 -0.00063945906
00000000: 0bcb cbbd a51c aebc b97a a03d 0c80 34bc
00000010: f441 5abc 4c33 8e3c ef49 393e 2c93 bebd
00000020: 9aa2 a3bd aad7 85bd 45dd ed3d 2f7b 623d
00000030: 3861 aebd a75d 353d 5e33 b03c 87cf 27bc
00000040: f8ba fd3d 979c aabc 50f2 0a3c fc4f cdbc
00000050: 3e09 fabc cb91 113c e96d 05be 1f80 30ba
00000060: 3c97 9abd 276c 533d 362c 463b 6a35 933d
00000070: a8b2 edbb 0813 513d e0be 003d f63e c738
00000080: 3455 1a3e 775e 173c ea21 a7bd 8bfb 69bd
00000090: 6dc8 bebc 5e3a 1bbe 5f0e 933d e445 ecbd
000000a0: e6c8 5d3d 0ebd 353d b740 8c3d b0be 863d
000000b0: 4df0 a23c 6c78 cf3c cd28 6dbd c1a6 afbd
000000c0: 0b5f 5e3c e767 8ebd 68e9 f03d 71ad 113d
000000d0: 5c25 123d 96e9 d7bc b58f 183d fa71 0c3d
000000e0: 8f8e 5a3b ba63 ab3d 4c3f 323d 095d da3c
000000f0: 5c56 f0bc 6d00 433d da92 4ebb 5fa1 27ba

actor_mean.2.weight f4 [64, 64]
-0.20949 0.280257 -0.22089696 -0.07528601 -0.041357376 0.45040104 -0.072263554 0.3520282
0.24774538 -0.070616595 -0.26548243 0.15255089 0.3510543 0.0030594987 -0.14512862 0.28155592
0.15795445 -0.017450878 -0.067256264 -0.13728866 0.22547507 0.28683263 -0.15395077 0.10276103
-0.038868364 -0.22667715 -0.18424986 0.2961445 -0.06322295 -0.24959399 -0.08265142 0.18304849
-0.12464479 0.08871136 -0.032880362 0.18985072 -0.06470996 0.014762686 0.17785981 -0.035303764
0.0060184323 -0.26123488 0.11751594 0.34651005 -0.1983366 0.10076592 0.29991716 0.08947132
-0.052731525 -0.11471112 -0.05072897 0.059857063 0.079411834 0.041150503 -0.31844133 -0.011658896
-0.054963913 0.42437723 0.15679306 -0.11457813 0.10784908 -0.31548333 -0.04497364 0.10394287
-0.4157859 -0.27257597 -0.04045011 -0.05657625 0.22570126 0.26990458 0.32839313 0.29970032
0.20882869 0.28103304 -0.094363414 0.23579584 -0.3247534 -0.1739656 0.041242935 -0.18786785
0.08952283 0.024902038 0.12029748 0.015085305 -0.022510683 0.06562929 0.07853524 -0.057750262
-0.0052964655 0.0063844626 -0.04154765 -0.031476133 0.24938998 0.036777493 0.14285935 0.08731032
-0.22994797 -0.21175636 0.24682422 0.19405563 -0.20017591 -0.05275859 -0.058126763 0.011892892
0.0779587 0.33753523 -0.060745347 -0.016937405 -0.04037242 -0.3181277 0.2801414 -0.025235735
-0.26414984 0.12873636 -0.110232785 -0.11063555 0.21086445 -0.38199806 0.047303878 0.3360504
0.10057523 -0.09361804 0.061196826 0.21383537 0.124169044 0.3527061 0.08161413 0.20895623
-0.04320221 0.04167239 0.23992229 0.05641748 0.085360095 -0.116982184 -0.03764251 0.17554258
0.13805984 0.0169907 -0.06682425 0.243826 -0.21411382 0.20537035 0.17256388 -0.13652177
0.10374375 -0.1605422 0.42528147 -0.24392158 -0.29149035 -0.2987507 -0.048364203 -0.17463374
-0.31597653 -0.10364237 0.22093414 0.05236456 -0.0074319737 0.31592813 0.21717113 -0.113025434
0.06336989 -0.1043954 -0.13574639 0.30830714 -0.2292839 -0.17196125 0.3308106 0.2962416
-0.15415402 -0.2892005 -0.099867515 0.08633542 -0.058137212 0.2847796 -0.21229322 -0.078110196
0.031129057 0.070387974 -0.15678096 0.03731415 0.05227925 0.35648438 -0.05090758 0.09198008
-0.16315533 0.21714929 -0.122151315 -0.27569675 0.07982485 0.17399928 -0.16688679 0.25424963
-0.023132378 0.040061183 0.03022652 -0.3074291 0.34547058 0.022208424 -0.22421353 0.17608064
-0.14575873 0.023511775 -0.19878112 0.045815278 -0.08349278 -0.17454517 0.07341349 -0.06927537
-0.17853932 0.0026733414 -0.13259849 -0.1263112 0.1041046 0.15175311 0.089393 0.22331354
0.23053004 -0.1281985 0.299411 0.24376471 -0.3285754 0.17492576 0.16496831 -0.46369419
0.18021946 -0.02171846 0.073230974 -0.2496107 -0.23238021 -0.048255224 0.009534725 0.18670748
-0.059481733 0.19685034 -0.1653876 -0.036479525 -0.17630303 0.009045775 0.11659783 -0.13199517
-0.34788698 -0.020441322 0.27495432 0.40286452 -0.16621938 0.29691094 0.14331205 -0.12017131
0.15470782 -0.06712349 0.12089704 0.17173754 0.16189672 -0.35284552 -0.32707363 0.08118281
00000000: 8c84 56be d87d 8f3e d032 62be 8d2f 9abd
00000010: 5a66 29bd f79a e63e eafe 93bd 0a3d b43e
00000020: f7b0 7d3e 6f9f 90bd 50ed 87be 4d36 1c3e
00000030: 64bd b33e df81 483b 999c 14be 1928 903e
00000040: d0be 213e 25f5 8ebc a7bd 89bd 6695 0cbe
00000050: f0e2 663e badb 923e 45a5 1dbe 6074 d23d
00000060: 6f34 1fbd 0e1e 68be ffab 3cbe 40a0 973e
00000070: 097b 81bd 9195 7fbe 2645 a9bd 1071 3b3e
00000080: c545 ffbd 4dae b53d 8fad 06bd 3a68 423e
00000090: a886 84bd 31df 713c e220 363e ae9a 10bd
000000a0: 4536 c53b 94c0 85be 32ac f03d c469 b13e
000000b0: c018 4bbe 5d5e ce3d be8e 993e bd3c b73d
000000c0: 03fd 57bd aaed eabd 2ec9 4fbd ae2c 753d
000000d0: aca2 a23d 6e8d 283d be0a a3be f404 3fbc
000000e0: d721 61bd f947 d93e 5c8e 203e f0a7 eabd
000000f0: fadf dc3d 0887 a1be 4836 38bd 00e0 d43d
00000100: e4e1 d4be 148f 8bbe 04af 25bd 7fbc 67bd
00000110: 3b1e 673e ef30 8a3e 2523 a83e 5272 993e
00000120: 30d7 553e 90e3 8f3e 9b41 c1bd 7774 713e
00000130: 1446 a6be 0a24 32be 5aee 283d 6e60 40be
00000140: bf57 b73d 5cff cb3c 865e f63d 5b28 773c
00000150: 5368 b8bc a668 863d 15d7 a03d 8a8b 6cbd
00000160: f98d adbb c134 d13b de2d 2abd 1eed 00bd
00000170: 1660 7f3e ffa3 163d b949 123e c1cf b23d
00000180: 7b77 6bbe a9d6 58be 7dbf 7c3e 85b6 463e
00000190: eafa 4cbe 6419 58bd 5416 6ebd 68da 423c
000001a0: d0a8 9f3d 6bd1 ac3e 1dd0 78bd 50c0 8abc
000001b0: 8d5d 25bd a2e1 a2be b26e 8f3e 2cbb cebc
000001c0: a63e 87be 77d3 033e bac1 e1bd e494 e2bd
000001d0: daec 573e 4095 c3be b6c1 413d cc0e ac3e
000001e0: 63fa cd3d d1ba bfbd 86a9 7a3d a9f7 5a3e
000001f0: 574c fe3d e595 b43e 4f25 a73d 9ff8 553e
00000200: cdf4 30bd abb0 2a3d 30ae 753e 0416 673d
00000210: 46d1 ae3d 5b94 efbd 082f 1abd 6fc1 333e
00000220: 8f5f 0d3e 1530 8b3c 27db 88bd 86ad 793e
00000230: a740 5bbe 9b4c 523e 96b4 303e 5dcc 0bbe
00000240: 9a77 d43d 2d65 24be 7ebe d93e 94c6 79be
00000250: 393e 95be daf5 98be 8b19 46bd 30d3 32be
00000260: adc7 a1be 7342 d4bd 8f3c 623e 397c 563d
00000270: ea87 f3bb 55c1 a13e 1c62 5e3e e179 e7bd
00000280: 13c8 813d 41cd d5bd 1a01 0bbe 6fda 9d3e
00000290: 66c9 6abe 9c16 30be 0260 a93e fbac 973e
000002a0: 8dda 1dbe 1712 94be 5787 ccbd a0d0 b03d
000002b0: 4921 6ebd a2ce 913e 6563 59be 3df8 9fbd
000002c0: 5d02 ff3c 9227 903d 308b 20be b9d6 183d
000002d0: c422 563d 1f85 b63e 7784 50bd 0d60 bc3d
000002e0: 3112 27be 625c 5e3e 782a fabd 2028 8dbe
000002f0: 367b a33d de2c 323e 5fe4 2abe 022d 823e
00000300: 1d80 bdbc 3217 243d 9b9d f73c 5967 9dbe
00000310: 85e1 b03e 71ee b53c 3b98 65be 7c4e 343e
00000320: c741 15be c49b c03c 478d 4bbe cda8 3b3d
00000330: 43fe aabd f8bb 32be d059 963d 3fe0 8dbd
00000340: 03d3 36be 3a33 2f3b e6c7 07be b957 01be
00000350: cb34 d53d 2b65 1b3e ad13 b73d 4eac 643e
00000360: 1110 6c3e 7846 03be 664c 993e 759d 793e
00000370: 093b a8be bd1f 333e 74ed 283e 5369 edbe
00000380: 738b 383e e9ea b1bc 1ffa 953d f399 7fbe
00000390: 14f5 6dbe 45a7 45bd 8937 1c3c 3f30 3f3e
000003a0: 1ea3 73bd 2393 493e 5e5b 29be 8e6b 15bd
000003b0: c888 34be bb34 143c d8ca ee3d be29 07be
000003c0: 3e1e b2be 8f74 a7bc d0c6 8c3e 4244 ce3e
000003d0: 6a35 2abe b604 983e 65c0 123e 601c f6bd
000003e0: ba6b 1e3e 0a78 89bd de98 f73d f7db 2f3e
000003f0: 41c8 253e 2ba8 b4be 3276 a7be 2c43 a63d

actor_mean.2.bias f4 [64]
-0.082308166 0.0044716964 -0.021693591 -0.0859101 0.06168496 0.016308032 -0.008657219 -0.034449574
-0.06080219 0.065671675 -0.028050203 -0.025570566 0.041415624 -0.029540533 0.03643989 -0.0085292915
-0.022510916 0.0660645 -0.033382855 0.008202968 -0.018456453 0.037447363 -0.00053107506 -0.053329322
0.049253065 -0.029655633 -0.09426785 0.0035182931 0.08654835 0.021939687 0.0340705 0.018630479
-0.041491453 0.049592245 0.060212824 -0.0076736603 0.001941939 0.005503952 -0.026579738 -0.042960025
0.019580465 0.06709186 0.051822376 0.034534074 -0.024338065 -0.07641832 0.02285778 0.029453946
0.009311701 0.0010264046 0.036986563 0.044612497 -0.009440474 0.082508065 0.019321295 -0.07977447
-0.0024142 -0.011483722 -0.05598456 0.032903682 0.041148666 -0.10445231 0.04765517 -0.024413394
00000000: 2f91 a8bd 4f87 923b c2b6 b1bc a2f1 afbd
00000010: 5ea9 7c3d 6c98 853c 02d7 0dbc ff1a 0dbd
00000020: b80b 79bd df7e 863d 8ac9 e5bc 5d79 d1bc
00000030: 6ea3 293d fdfe f1bc fe41 153d 71be 0bbc
00000040: d068 b8bc d34c 873d 76bc 08bd be65 063c
00000050: fd31 97bc 6862 193d d837 0bba d96f 5abd
00000060: 95bd 493d 5ff0 f2bc 810f c1bd 2a93 663b
00000070: 4340 b13d dcba b33c 828d 0b3d f29e 983c
00000080: f1f2 29bd 3d21 4b3d b9a1 763d 5473 fbbb
00000090: a988 fe3a 7f5a b43b c0bd d9bc daf6 2fbd
000000a0: 3667 a03c 7567 893d b343 543d 9a73 0d3d
000000b0: 9f60 c7bc 3581 9cbd 3d40 bb3c 6749 f13c
000000c0: 1b90 183c 6c88 863a 397f 173d 98bb 363d
000000d0: 38ac 1abc fdf9 a83d b147 9e3c cc60 a3bd
000000e0: 8e37 1ebb 3926 3cbc 1150 65bd 03c6 063d
000000f0: 818b 283d 18eb d5bd 1132 433d 99fe c7bc

actor_mean.4.weight f4 [6, 64]
0.06241751 -0.023700891 0.029996462 0.035067268 -0.026638044 0.0142726805 -0.04230411 0.041460995
-0.00254773 -0.013315919 -0.039864916 -0.033891033 -0.021947563 -0.0061194985 -0.036419705 0.005256739
-0.0023113228 -0.008466492 0.027943218 -0.05319855 0.010288908 0.03588555 0.01965092 -0.022627285
-0.026828462 -0.0073287613 0.018640423 0.0050786454 0.02663086 -0.054286804 -0.020308062 0.03410098
-0.024211202 -0.018695176 -0.051533986 -0.038147107 0.0045893607 0.017326288 0.016895022 -0.019505989
-0.02034517 -0.033498093 0.0048524 0.010668537 0.0048824437 -0.022880211 0.039431207 0.065248124
-0.002583082 -0.05156982 -0.020145841 -0.02528012 -0.048810944 -0.048005234 -0.014329641 0.019005535
0.060490478 -0.014468493 -0.008031424 -0.020319933 0.0024809458 0.013196076 -0.010489246 0.045371525
0.024143515 0.004083599 -0.029272214 0.045969643 0.01673068 0.029179098 0.017684218 0.04274292
0.045903593 -0.019757124 0.008741804 -0.00035936324 0.020387562 0.012821236 0.018291581 -0.029436238
-0.044931293 0.016266396 0.039583426 0.0036378647 -0.038838632 -0.03192964 -0.00378315 0.03273643
0.0113186035 0.017288895 -0.056091122 -0.051301096 0.016090633 -0.014328138 0.03300817 0.025723921
-0.031344112 0.013375053 0.01324328 0.0051364666 -0.037218437 0.015850917 -0.015558332 0.0024943184
0.0066558984 0.016749717 -0.010235904 -0.012076659 0.04590278 0.016542269 0.018637214 0.021101255
0.04592939 -0.02173313 -0.052458905 -0.00907139 -0.07462452 0.050063826 0.014838302 0.02528151
0.0016444693 -0.024600018 0.017632375 -0.0005368673 -0.010740807 0.024315553 -0.057194807 0.013349317
-0.035911802 0.014243416 0.010713036 -0.013656474 -0.029954989 0.0075489706 0.0058892625 -0.0124218175
-0.0018868594 -0.004211899 0.020069934 0.02770268 0.051556498 -0.015793791 0.007353744 -0.043110747
0.032418218 -0.026789661 0.04063273 0.007099846 0.025421012 0.027239813 0.012718027 0.028075913
-0.023302332 0.015303579 -0.009321336 0.008570335 -0.011209898 -0.058083486 0.022910202 -0.0064636483
0.020052323 0.013925039 0.04586269 0.013720209 -0.025406586 0.055263042 -0.027712582 -0.008652538
0.022531494 0.02586158 -0.018890418 -0.016133504 -0.03664403 0.0005585185 -0.023977911 -0.008988686
-0.005949939 0.014518394 -0.008647855 -0.036249742 -0.0025273825 0.023747614 0.0347225 0.008993288
-0.030659255 0.01926292 -0.0021455986 0.054905143 0.00953696 -0.06688935 -0.012091473 0.02068865
0.03983665 0.009406582 -0.02175653 0.0400156 -0.020124532 0.008582144 -0.016980255 0.031158043
-0.03890583 -0.0070595955 -0.013825999 -0.0057049454 -0.019688895 -0.004840917 0.0035012544 -0.0035032982
0.02331462 -0.009396389 0.043116312 -0.0047473395 -0.05342799 0.069303066 -0.038275592 0.011947821
-0.0017343876 -0.03881317 0.013520745 0.036380332 0.020424431 0.02014485 -0.03266347 0.021327063
0.01660432 0.020365318 -0.00077303324 -0.020793583 -0.0119546605 0.037312623 -0.04993627 -0.031590797
0.017346274 -0.035296388 -0.027990988 0.034814343 0.003812639 -0.014072069 -0.019803667 -0.01959277
0.013067762 0.006622491 -0.06755763 -0.004740013 -0.02043301 -0.012183309 -0.026989602 -0.0026763524
-0.045808624 -0.011387971 0.042842 -0.0067889495 -0.020682827 -0.029530076 -0.060040373 -0.051922433
00000000: 81a9 7f3d 5f28 c2bc 24bb f53c b2a2 0f3d
00000010: 0738 dabc f6d7 693c 1347 2dbd 01d3 293d
00000020: d1f7 26bb 032b 5abc 6549 23bd 53d1 0abd
00000030: 60cb b3bc 1386 c8bb d42c 15bd b940 ac3b
00000040: 9079 17bb 0bb7 0abc 2de9 e43c b9e6 59bd
00000050: cf92 283c bafc 123d f7fa a03c db5c b9bc
00000060: 5dc7 dbbc 1b26 f0bb cdb3 983c c46a a63b
00000070: f628 da3c d75b 5ebd 185d a6bc 78ad 0b3d
00000080: 9256 c6bc a026 99bc 4d15 53bd 2440 1cbd
00000090: 5962 963b dcef 8d3c 6e67 8a3c 06cb 9fbc
000000a0: eaaa a6bc 4c35 09bd e200 9f3b 16cb 2e3c
000000b0: e8fc 9f3b 486f bbbc 9e82 213d cfa0 853d
000000c0: ed48 29bb e03a 53bd e408 a5bc 4118 cfbc
000000d0: fced 47bd 23a1 44bd dfc6 6abc 7fb1 9b3c
000000e0: ddc4 773d 420d 6dbc 3c96 03bc fd75 a6bc
000000f0: 5d97 223b 5b34 583c 16db 2bbc 7ed7 393d
00000100: 9fc8 c53c b6cf 853b 48cc efbc aa4a 3c3d
00000110: c70e 893c 0109 ef3c 7ede 903c 3313 2f3d
00000120: 6805 3c3d b1d9 a1bc c939 0f3c eb68 bcb9
00000130: d103 a73c 2910 523c 3ad8 953c 4424 f1bc
00000140: e009 38bd 1b41 853c 3b22 223d 3e69 6e3b
00000150: 4215 1fbd a7c8 02bd baee 77bb a316 063d
00000160: aa71 393c 71a1 8d3c cebf 65bd 1921 52bd
00000170: 81d0 833c 91c0 6abc 9333 073d f9ba d23c
00000180: af62 00bd 0a23 5b3c 58fa 583c ce4f a83b
00000190: 5c72 18bd c8d9 813c 60e8 7ebc b877 233b
000001a0: b919 da3b b436 893c 7eb4 27bc 2edd 45bc
000001b0: 8e04 3c3d a783 873c 12ad 983c 8adc ac3c
000001c0: 7520 3c3d ad09 b2bc 26df 56bd 2ba0 14bc
000001d0: bed4 98bd ba0f 4d3d 591c 733c 2b1b cf3c
000001e0: 3c8b d73a fa85 c9bc c571 903c 8ebc 0cba
000001f0: 36fa 2fbc 6931 c73c 1a45 6abd 18b7 5a3c
00000200: 4118 13bd 375d 693c bb85 2f3c 67bf 5fbc
00000210: 2a64 f5bc 5b5d f73b b7fa c03b e184 4bbc
00000220: 7f50 f7ba f803 8abb b469 a43c bbf0 e23c
00000230: e82c 533d fb61 81bc adf7 f03b e594 30bd
00000240: f7c8 043d fe75 dbbc 816e 263d d3a5 e83b
00000250: ba3f d03c 0726 df3c 465f 503c 75ff e53c
00000260: 88e4 bebc ddbb 7a3c 84b8 18bc 976a 0c3c
00000270: b8a9 37bc f3e8 6dbd 2dae bb3c 03cd d3bb
00000280: c544 a43c d925 643c 84da 3b3d baca 603c
00000290: 7921 d0bc 805b 623d 7f05 e3bc 60c3 0dbc
000002a0: f893 b83c aadb d33c 14c0 9abc 692a 84bc
000002b0: 0d18 16bd 8b69 123a 536d c4bc 4845 13bc
000002c0: b5f7 c2bb 8fde 6d3c bcaf 0dbc 9c7a 14bd
000002d0: 71a2 25bb 5b8a c23c 2e39 0e3d 9558 133c
000002e0: 1e29 fbbc 45cd 9d3c 2c9d 0cbb 37e4 603d
000002f0: e940 1c3c 49fd 88bd 501b 46bc 3e7b a93c
00000300: c12b 233d 111e 1a3c c03a b2bc 66e7 233d
00000310: 34dc a4bc 1f9c 0c3c 2d1a 8bbc 273f ff3c
00000320: b85b 1fbd 2e54 e7bb 7186 62bc 8df0 babb
00000330: 9b4a a1bc 8ea0 9ebb 4d75 653b 9797 65bb
00000340: 4dfe be3c 50f3 19bc bb9a 303d 928f 9bbb
00000350: 4fd7 5abd c4ee 8d3d dec6 1cbd cbc0 433c
00000360: 6454 e3ba 8ffa 1ebd 1d86 5d3c 8b03 153d
00000370: 2351 a73c d006 a53c 21ca 05bd 18b6 ae3c
00000380: c805 883c 2bd5 a63c 62a5 4aba 4e57 aabc
00000390: 7bdd 43bc 1fd5 183d f989 4cbd 5a65 01bd
000003a0: c619 8e3c f292 10bd 5b4d e5bc 7c99 0e3d
000003b0: 78dd 793b 898e 66bc 4d3b a2bc 0481 a0bc
000003c0: 2b1a 563c 7b01 d93b a85b 8abd 1c52 9bbb
000003d0: 2163 a7bc 809c 47bc 4c19 ddbc be65 2fbb
000003e0: d3a1 3bbd 9d94 3abc 187b 2f3d d675 debb
000003f0: 086f a9bc 0fe9 f1bc e5ec 75bd 9eac 54bd

actor_mean.4.bias f4 [6]
-0.03914586 -0.039150316 0.009274924 0.013393003 -0.047518857 -0.016169127
00000000: 6957 20bd 155c 20bd daf5 173c 536e 5b3c
00000010: 22a3 42bd 1e75 84bc

codebook f4 [100, 2]
0.50530654 0.48217368 0.19131476 0.7872913 0.36148736 0.61411804 0.83516014 0.15631358
0.96263045 0.014377619 0.5136912 0.47033066 0.24489143 0.7152431 0.47407797 0.5098366
0.84611577 0.13941592 0.5160971 0.46721974 0.2388543 0.73197234 0.72711617 0.26331103
0.21340765 0.76438683 0.46476167 0.518023 0.28354555 0.69361436 0.49270603 0.4920766
0.787442 0.20308791 0.5666475 0.416709 0.82776815 0.16440228 0.31483373 0.6555719
0.47571078 0.50798726 0.67259806 0.31831908 0.5190233 0.464269 0.41305164 0.57091105
0.70391756 0.2871144 0.066382155 0.8891652 0.5854161 0.4059511 0.53070235 0.4556734
0.5330564 0.45893312 0.8988168 0.08552596 0.826141 0.16134542 0.29079208 0.6831755
0.425146 0.5591716 0.03992972 0.912265 0.47666848 0.5103621 0.1252496 0.8295566
0.47933292 0.5054422 0.5558034 0.43505874 0.38443586 0.5972754 0.20135257 0.7627496
0.4609311 0.5192659 0.059965458 0.8761363 0.47001997 0.51541936 0.7579441 0.23207551
0.34265643 0.63184077 0.09625454 0.87171006 0.24056718 0.72125596 0.43376493 0.5520497
0.31887516 0.65120435 0.39272892 0.5811839 0.026692241 0.9179747 0.7381085 0.2541004
0.5978345 0.39632598 0.49093544 0.49319094 0.07726573 0.8729471 0.3448044 0.6206816
0.7247374 0.26972586 0.5692282 0.41477755 0.38848844 0.5898604 0.53786683 0.44893745
0.31057268 0.674639 0.38075513 0.5912391 0.36565682 0.60235226 0.97104627 0.014742395
0.46441653 0.5213678 1.0090106 -0.022837253 0.44702458 0.5357875 0.24239133 0.7214786
0.8440894 0.14888056 0.50159836 0.48277295 0.106776044 0.8618884 0.5815092 0.40218428
0.7656582 0.2223738 0.1867056 0.7857156 0.52973044 0.45620492 0.38682193 0.5896817
0.36004877 0.6139893 0.9849616 0.0045486004 0.47427502 0.5075428 0.49324 0.49063385
0.53471226 0.45068434 0.47504833 0.5098775 0.61747706 0.37070405 0.2791867 0.6982976
0.16232973 0.8127133 0.18081771 0.78465307 0.83344644 0.1524408 0.93552244 0.045181874
0.9314544 0.060224112 0.75112176 0.24394605 0.9320326 0.053307485 0.61117214 0.3774215
0.17965566 0.7809546 0.66712236 0.32374692 0.57742345 0.40860412 0.73321843 0.2562667
0.7845466 0.18932651 0.81178933 0.17366683 0.5106347 0.47343594 0.69206136 0.29895318
00000000: c55b 013f 78df f63e 04e8 433e ec8b 493f
00000010: df14 b93e d736 1d3f 0ecd 553f ab10 203e
00000020: f36e 763f 1b90 6b3c 4481 033f 2ecf f03e
00000030: d2c4 7a3e 2c1a 373f 59ba f23e a784 023f
00000040: 0b9b 583f 0cc3 0e3e f11e 043f 6d37 ef3e
00000050: 3996 743e 8a62 3b3f 4924 3a3f b4d0 863e
00000060: 8987 5a3e dbae 433f 3ef5 ed3e 289d 043f
00000070: e22c 913e b690 313f f743 fc3e 77f1 fb3e
00000080: cd95 493f 47f6 4f3e d00f 113f e25a d53e
00000090: 9de8 533f 1259 283e e331 a13e 8fd3 273f
000000a0: 5d90 f33e 740b 023f 632f 2c3f b8fa a23e
000000b0: b6de 043f abb4 ed3e 817b d33e 3a27 123f
000000c0: f133 343f a900 933e 5ef3 873d 55a0 633f
000000d0: d4dd 153f d3d8 cf3e 1cdc 073f 064e e93e
000000e0: 6276 083f 48f9 ea3e dc18 663f 3c28 af3d
000000f0: fa7d 533f bc37 253e b3e2 943e 97e4 2e3f
00000100: bdac d93e df25 0f3f 598d 233d 338a 693f
00000110: e40d f43e 17a7 023f 6e41 003e d25d 543f
00000120: 206b f53e a964 013f 2249 0e3f 05c0 de3e
00000130: c7d4 c43e 0ae7 183f 5e2f 4e3e 8f43 433f
00000140: 29ff eb3e 9cee 043f 579e 753d 784a 603f
00000150: 75a6 f03e 86f2 033f a008 423f 34a5 6d3e
00000160: aa70 af3e 51c0 213f 1a21 c53d 6428 5f3f
00000170: 3e57 763e 3ba4 383f 7016 de3e 2153 0d3f
00000180: 9b43 a33e 54b5 263f c413 c93e 78c8 143f
00000190: b0a9 da3c 6400 6b3f aef4 3c3f 7319 823e
000001a0: af0b 193f 3deb ca3e e45b fb3e 8683 fc3e
000001b0: 7f3d 9e3d 7679 5f3f 348a b03e fde4 1e3f
000001c0: 6488 393f 8219 8a3e f0b8 113f b95d d43e
000001d0: f5e7 c63e 1701 173f a4b1 093f 21db e53e
000001e0: 6203 9f3e 24b5 2c3f 56f2 c23e 725b 173f
000001f0: 5f37 bb3e c233 1a3f 7d96 783f 168a 713c
00000200: 01c8 ed3e 5c78 053f 4227 813f 3115 bbbc
00000210: 68e0 e43e 5f29 093f 6f35 783e d2b2 383f
00000220: 3e16 583f 2574 183e c068 003f 042e f73e
00000230: 66ad da3d b8a4 5c3f c9dd 143f 19eb cd3e
00000240: 2d02 443f f5b5 633e c12f 3f3e a824 493f
00000250: 6a9c 073f b193 e93e 860d c63e 61f5 163f
00000260: 5058 b83e 672e 1d3f 7226 7c3f 6d0c 953b
00000270: 2dd4 f23e 53ee 013f f489 fc3e 5c34 fb3e
00000280: e7e2 083f 19c0 e63e 8939 f33e 5587 023f
00000290: fa12 1e3f eccc bd3e 8ff1 8e3e a2c3 323f
000002a0: c439 263e fb0d 503f 4728 393e 06df 483f
000002b0: bf5c 553f 7119 1c3e 667e 6f3f a110 393d
000002c0: cc73 6e3f 8fad 763d 8449 403f fecc 793e
000002d0: b099 6e3f f358 5a3d c775 1c3f 643d c13e
000002e0: a7f7 373e a4ec 473f 88c8 2a3f 28c2 a53e
000002f0: 06d2 133f 8f34 d13e 34b4 3b3f 6435 833e
00000300: 0cd8 483f cfde 413e 6dd1 4f3f b8d5 313e
00000310: f5b8 023f 3266 f23e ef2a 313f 6410 993e
