saved_agents/dm_walker_b.pth (torch, 610520 bytes, 28 tensors)

actor_logstd f4 [1, 6]
-0.7013527 -0.6492869 -0.6795007 -0.7453118 -0.61972487 -0.715399
00000000: da8b 33bf ab37 26bf c2f3 2dbf c1cc 3ebf
00000010: 4aa6 1ebf 6424 37bf

critic.0.weight f4 [64, 26]
-0.48666888 -0.32360035 0.21215889 0.27748516 -0.20281096 -0.45810446 -0.19314063 0.02947103
0.11694329 0.11640216 -0.07896972 -0.31775826 0.1886962 0.0718572 0.25344396 0.020364773
0.030328352 -0.11046838 0.052954067 -0.030561993 0.021929327 0.030609436 0.02601258 0.01241531
-0.58872867 -0.67993146 -0.18269862 -0.073474 -0.43560508 0.06298251 0.08400231 -0.13614517
-0.05985105 0.08889845 -0.07223649 0.368386 -0.15433858 0.37487695 -0.18061996 0.08915395
-0.3764873 -0.14596748 -0.4923723 0.09122013 -0.12478672 -0.057321053 -0.14813446 0.020246776
0.065325245 -0.085583314 -0.578296 -0.44909206 -0.38736007 -0.369945 -0.36265132 0.041074473
-0.25852537 0.120039225 -0.04875265 0.010265328 -0.0023789322 0.16675341 -0.1288993 0.1802971
0.11451192 -0.21366493 -0.20111178 0.06697919 -0.09935733 -0.04799243 0.0019660564 -0.071979426
0.021527518 0.002243488 -0.0012120218 -0.018001532 -0.93771386 -0.5711196 -0.5466252 -0.5793057
0.1658546 -0.023364473 0.39871362 -0.025269616 -0.016348025 -0.32406396 0.08227353 0.17655827
0.2764851 -0.19669932 0.06680758 0.08524114 0.14891112 -0.42445213 0.050251983 -0.01089937
-0.13014925 0.26434293 -0.0064193616 0.09759571 0.17172529 0.021979917 -0.1914001 -0.2153566
0.6231101 -0.7377072 -0.09967238 0.21302702 0.045152266 -0.023375101 0.019293925 0.10969543
0.12301163 0.258158 -0.11746388 0.26022023 0.33710787 0.08539652 -0.14811054 -0.22351962
-0.06700005 0.09122235 -0.04842585 -0.026027156 -0.023784572 -0.057889655 -0.019547056 0.0025420615
0.9319179 0.37730634 -0.45571932 0.21544623 -0.3075987 0.021669421 -0.23775314 0.04667165
-0.34969363 0.0714222 -0.1957838 -0.7058692 -0.70458686 0.022489449 -0.18806869 0.15046573
-0.12563062 -0.033484146 -0.18130834 0.044786345 -0.009756643 0.043159723 -0.0023171362 0.04676491
0.07327934 0.032477047 -0.2199038 0.049208205 -0.6419302 0.4950247 -0.3863546 -0.024257304
-0.6080056 0.51375246 -0.25281093 0.22449549 -0.11529316 0.021437012 -0.5340147 0.43701267
-0.22773227 0.31085625 -0.25345844 -0.13191542 -0.18877591 -0.3139553 0.14264826 0.08006873
-0.015150288 0.058734298 0.017657937 -0.010364145 -0.31702417 -0.2772518 -0.470927 -0.27351704
-0.2518063 -0.4737433 -0.08090089 0.12722246 0.08318909 -0.054915704 0.05212626 -0.29652584
-0.40307298 0.11187742 0.09953989 0.14307329 -0.2565736 0.24914548 -0.15690407 0.07353785
0.041032076 -0.11490682 0.032167036 -0.06654546 -0.17140114 -0.03762948 -0.39692777 -0.6546773
-0.43400916 0.082747184 0.19300127 0.15257046 -0.16379595 -0.10585818 -0.037844766 0.017999517
-0.08037432 0.3210681 0.08095668 -0.2257525 0.051158894 -0.37380275 0.16731039 0.40017265
-0.28273302 0.0072382414 0.28194728 -0.15276894 -0.087884374 0.12938444 0.12074622 0.42239952
-0.22320996 0.017800648 0.37534457 0.37181985 0.409553 -0.0012057858 0.07039696 0.066467695
0.048179265 0.05090762 0.22476001 0.014764138 0.1776684 -0.22910094 -0.039257027 -0.02098651
0.09759186 -0.3209645 0.3567203 0.22103481 0.05288124 -0.0018142208 -0.00414877 -0.02497992
00000000: aa2c f9be f2ae a5be 2e40 593e 8912 8e3e
00000010: adad 4fbe ab8c eabe a8c6 45be 3b6d f13c
00000020: f77f ef3d 4164 ee3d e0ba a1bd 36b1 a2be
00000030: 9439 413e de29 933d 68c3 813e 06d4 a63c
00000040: 2a73 f83c 3f3d e2bd 5de6 583d 255d fabc
00000050: 22a5 b33c a4c0 fa3c 5618 d53c 9669 4b3c
00000060: ecb6 16bf fd0f 2ebf 5915 3bbe 8979 96bd
00000070: a107 dfbe f9fc 803d 6709 ac3d a469 0bbe
00000080: 6026 75bd 6410 b63d baf0 93bd 179d bc3e
00000090: ef0a 1ebe dfef bf3e 70f4 38be 5996 b63d
000000a0: f2c2 c0be 8078 15be 3918 fcbe 9fd1 ba3d
000000b0: 2e90 ffbd 7bc9 6abd 8fb0 17be 91dc a53c
000000c0: 3ec9 853d 4e46 afbd 350b 14bf 65ef e5be
000000d0: 0f54 c6be 6e69 bdbe 6fad b9be b53d 283d
000000e0: 705d 84be 20d7 f53d dcb0 47bd e82f 283c
000000f0: dce7 1bbb 68c1 2a3e 2efe 03be ce9f 383e
00000100: 3a85 ea3d fbca 5abe 3ff0 4dbe 632c 893d
00000110: db7b cbbd b693 44bd f4d8 003b f369 93bd
00000120: 7a5a b03c 7c07 133b b4dc 9eba f377 93bc
00000130: 040e 70bf e534 12bf a1ef 0bbf 614d 14bf
00000140: cad5 293e da66 bfbc 3124 cc3e 3a02 cfbc
00000150: 4bec 85bc b6eb a5be 067f a83d b1cb 343e
00000160: 748f 8d3e 8c6b 49be 6ad2 883d e892 ae3d
00000170: 287c 183e ca51 d9be 06d5 4d3d 4593 32bc
00000180: d845 05be f557 873e 8259 d2bb 42e0 c73d
00000190: c1d8 2f3e 3a0f b43c 63fe 43be 7186 5cbe
000001a0: 2584 1f3f 61da 3cbf 0821 ccbd c123 5a3e
000001b0: 95f1 383d 247d bfbc 4b0e 9e3c ffa7 e03d
000001c0: 85ed fb3d 492d 843e e790 f0bd 963b 853e
000001d0: 6799 ac3e 5fe4 ae3d 4aaa 17be 54e2 64be
000001e0: 5237 89bd c9d2 ba3d 2f5a 46bd e736 d5bc
000001f0: ddd7 c2bc b41d 6dbd 2621 a0bc b798 263b
00000200: 2c92 6e3f 4c2e c13e 0b54 e9be f09d 5c3e
00000210: 947d 9dbe 1284 b13c 8f75 73be c62a 3f3d
00000220: 0b0b b3be cd45 923d 8c7b 48be d8b3 34bf
00000230: ce5f 34bf cb3b b83c 1495 40be b013 1a3e
00000240: 50a5 00be ac26 09bd e5a8 39be e371 373d
00000250: 54da 1fbc 40c8 303d 18db 17bb 908c 3f3d
00000260: 7b13 963d a706 053d 762e 61be 8b8e 493d
00000270: 8a55 24bf e173 fd3e 45d0 c5be 41b7 c6bc
00000280: 41a6 1bbf 4885 033f 6f70 81be 25e2 653e
00000290: d21e ecbd ac9c af3c 30b5 08bf 20c0 df3e
000002a0: a632 69be 8d28 9f3e 4ec5 81be d614 07be
000002b0: 794e 41be c0be a0be 6312 123e 13fb a33d
000002c0: ea38 78bc 6093 703d 61a7 903c 60ce 29bc
000002d0: fe50 a2be f3f3 8dbe 581d f1be 6d0a 8cbe
000002e0: c1ec 80be 7b8e f2be 5eaf a5bd 9b46 023e
000002f0: 0b5f aa3d 4aef 60bd 5882 553d 3cd2 97be
00000300: 955f cebe fd1f e53d 92db cb3d ce81 123e
00000310: 9d5d 83be fe1f 7f3e 76ab 20be 039b 963d
00000320: 4011 283d 4454 ebbd 95c1 033d fc48 88bd
00000330: c883 2fbe 5f21 1abd 1e3a cbbe ee98 27bf
00000340: 7336 debe 5b77 a93d 20a2 453e 6e3b 1c3e
00000350: 20ba 27be 2ccc d8bd 1d03 1bbd b973 933c
00000360: 4b9b a4bd 0a63 a43e 9ecc a53d aa2b 67be
00000370: fd8b 513d 1363 bfbe 6a53 2b3e 6ee3 cc3e
00000380: 62c2 90be c52e ed3b 655b 903e 766f 1cbe
00000390: b9fc b3bd 5b7d 043e cb49 f73d c044 d83e
000003a0: 2791 64be aad2 913c 2a2d c03e 2c5f be3e
000003b0: eeb0 d13e 750b 9eba 482c 903d 3720 883d
000003c0: 9f57 453d 8284 503d 7d27 663e 48e5 713c
000003d0: b4ee 353e 7099 6abe facb 20bd e7eb abbc
000003e0: 3ede c73d 7555 a4be 0ba4 b63e f356 623e
000003f0: 009a 583d 26cb edba 68f2 87bb b0a2 ccbc

critic.0.bias f4 [64]
-0.46995375 -0.2980379 -0.4894107 -0.1744536 0.386457 -0.02723337 -0.26445398 -0.28682378
-0.18693179 0.15496464 -0.19779158 -0.10893973 -0.0036512588 -0.29828218 0.4583228 0.08043343
-0.42331523 -0.48500234 0.5055002 0.06573953 0.091705255 -0.15052354 0.24127449 -0.36436844
-0.36351958 0.14059898 -0.23355138 -0.5066159 -0.2920462 -0.31018487 -0.106786326 0.48343116
0.16985919 -0.2016153 -0.5186427 -0.107046396 -0.2857096 -0.4752568 0.17699313 -0.18942009
0.036659285 0.44851893 0.3406286 0.17491926 -0.35830018 0.11353075 -0.34949303 0.5187897
-0.13122386 0.27248505 -0.116803005 0.5367836 -0.10401138 -0.3262076 0.14265597 0.119435124
-0.23874544 0.083080195 -0.14385568 0.27498022 0.40776762 0.36656982 -0.14006595 0.3335653
00000000: c79d f0be 6c98 98be 0a94 fabe f7a3 32be
00000010: b1dd c53e 8418 dfbc 8366 87be 91da 92be
00000020: 0c6b 3fbe 0daf 1e3e e089 4abe cb1b dfbd
00000030: f549 6fbb 71b8 98be 49a9 ea3e 48ba a43d
00000040: c6bc d8be 3a52 f8be 7668 013f 72a2 863d
00000050: f7cf bb3d d822 1abe a910 773e 808e babe
00000060: 3d1f babe 2ef9 0f3e 1828 6fbe 94b1 01bf
00000070: 1487 95be 8dd0 9ebe cab2 dabd 4a84 f73e
00000080: 91ef 2d3e 3e74 4ebe c5c5 04bf 243b dbbd
00000090: 8748 92be dc54 f3be b03d 353e 57f7 41be
000000a0: 0c28 163d 46a4 e53e df66 ae3e 091e 333e
000000b0: 1f73 b7be cf82 e83d c0f0 b2be 67cf 043f
000000c0: 8c5f 06be 2983 8b3e 6a36 efbd a66a 093f
000000d0: eb03 d5bd af04 a7be 6814 123e 679a f43d
000000e0: af79 74be f325 aa3d e74e 13be 35ca 8c3e
000000f0: ebc6 d03e 0aaf bb3e 736d 0fbe 12c9 aa3e

critic.2.weight f4 [64, 64]
-0.3269549 0.20631766 0.1059034 -0.22617675 0.1312555 0.28266525 0.34733337 0.06100602
-0.023452193 -0.33292982 -0.11237674 -0.17471021 -0.02238644 -0.34578758 0.12677754 -0.16384512
0.08244054 0.26567143 0.46961966 -0.24868065 0.07870895 0.04720398 -0.34533107 0.20100707
-0.44279224 -0.2708924 0.31338122 0.008490415 0.16096182 -0.21587835 0.20686808 0.13985536
-0.07221571 0.07843194 -0.14064005 0.09956298 0.33230746 0.05099131 0.15453547 -0.15506764
-0.27967522 0.20745434 -0.057912298 0.062024944 -0.14910413 -0.3286595 0.094076514 0.35928488
-0.24058875 -0.21635783 -0.022264678 0.19439955 0.043550562 0.01983273 0.0072594234 0.40073213
0.32554612 -0.27380085 -0.7206246 -0.37474632 0.13254975 0.008680912 0.051094197 0.17486279
-0.050873872 -0.052785087 -0.3811919 0.21118395 0.21140473 -0.058102995 -0.4520912 -0.16408443
-0.11318694 -0.09347028 0.007827177 0.004934 0.06935449 0.22946778 -0.0034605025 -0.049477246
0.23410782 -0.019156802 0.09447612 0.30215898 -0.10072439 -0.3174419 0.17695148 -0.18511964
0.06342077 0.27768597 -0.09585766 -0.1063907 -0.19791108 0.35539374 -0.0071423184 -0.34829584
-0.051496558 -0.016686736 -0.18747552 0.112626255 -0.8111521 -0.024176085 -0.019420076 0.2823297
-0.34010923 -0.05118919 -0.033451702 0.16749221 0.02676348 0.18183738 -0.27815688 -0.38951853
-0.05663697 0.12721485 0.16547099 -0.2826103 0.11761913 -0.107904814 -0.053709347 -0.28000122
0.20364232 -0.1165154 0.21689665 0.11171826 -0.039913107 0.004897191 0.12354759 -0.41788864
-0.36276633 0.23601125 0.072769515 -0.086759895 0.07578935 0.2704512 0.81114984 -0.028902175
0.026411867 0.02488027 -0.039475292 -0.1076545 0.014622112 -0.16667973 0.09235747 -0.084085874
0.34844354 -0.05266542 0.17431115 0.08172107 -0.2441999 0.06921629 0.14651455 -0.08248203
-0.012925818 -0.34302586 0.4346181 -0.11664565 -0.22229996 -0.501565 0.13062483 0.061454177
0.07650373 0.12358474 -0.05810111 0.10061535 0.53496546 0.12423616 -0.042437762 -0.2917994
0.07750462 0.13739415 -0.28228268 -0.2418709 -0.40113336 -0.33074236 0.10133104 0.22460929
0.014608463 0.044246357 0.0029429342 0.17517273 -0.08645252 -0.2877423 0.083083905 0.14835317
0.12294629 0.028913401 -0.7804442 -0.53241646 -0.2204617 0.14838706 0.061751064 0.107064836
-0.61923283 0.19958037 -0.5613297 -0.05287385 -0.10504815 0.11936015 -0.15892947 0.022822645
-0.07871943 0.1371797 -0.07191218 -0.010344154 0.25970837 -0.5887858 -0.09092259 -0.022217242
-0.008388528 -0.56678224 0.58603543 -0.068475336 -0.043034866 -0.013086621 -0.037603427 0.003979306
-0.63876075 -0.08914254 -0.25821587 -0.566871 0.20771979 -0.09718619 -0.21172489 0.20954409
0.12074195 0.025436444 -0.32740465 0.062701285 0.22871709 -0.13869202 -0.081835896 0.09765768
0.06957327 0.31760466 -0.093416065 0.044932175 -0.39343077 -0.013527249 -0.20738769 0.4548787
-0.07924864 0.081391044 0.11063063 0.12843834 0.19857277 -0.22647671 0.079013385 -0.099688254
0.09608271 0.023514004 -0.32955015 0.111533746 0.042414624 -0.015684858 0.070818774 0.03295568
00000000: a266 a7be f044 533e e2e3 d83d e19a 67be
00000010: d767 063e 80b9 903e aed5 b13e 73e1 793d
00000020: d01e c0bc c775 aabe c725 e6bd 3ce7 32be
00000030: c463 b7bc 120b b1be f9d1 013e 04c7 27be
00000040: 96d6 a83d 1606 883e fd71 f03e 24a6 7ebe
00000050: 2832 a13d f658 413d 3ccf b0be ccd4 4d3e
00000060: aab5 e2be 69b2 8abe 8173 a03e 621b 0b3c
00000070: 2dd3 243e 370f 5dbe 3ad5 533e 3e36 0f3e
00000080: d5e5 93bd eda0 a03d f203 10be ade7 cb3d
00000090: 3424 aa3e 44dc 503d 8c3e 1e3e 0dca 1ebe
000000a0: 9731 8fbe e96e 543e 7235 6dbd de0d 7e3d
000000b0: c1ae 18be 0f46 a8be 30ab c03d 30f4 b73e
000000c0: e65c 76be e88c 5dbe 6a64 b6bc ad10 473e
000000d0: 1362 323d 4078 a23c 75e0 ed3b c32c cd3e
000000e0: fbad a63e a02f 8cbe db7a 38bf c0de bfbe
000000f0: 1fbb 073e 623a 0e3c 2648 513d 3b0f 333e
00000100: 1f61 50bd 2d35 58bd 962b c3be 9b40 583e
00000110: 7b7a 583e 68fd 6dbd 7f78 e7be c005 28be
00000120: 8ece e7bd 596d bfbd 8f3d 003c 64ad a13b
00000130: ba09 8e3d 9af9 6a3e 99c9 62bb a7a8 4abd
00000140: f6b9 6f3e baee 9cbc b27c c13d 95b4 9a3e
00000150: 9748 cebd bf87 a2be c532 353e 0190 3dbe
00000160: c0e2 813d db2c 8e3e 0551 c4bd 5ee3 d9bd
00000170: 34a9 4abe 2bf6 b53e 1c0a eabb d553 b2be
00000180: 0eee 52bd 9fb2 88bc 95f9 3fbe 98a8 e63d
00000190: aaa7 4fbf ed0c c6bc da16 9fbc 858d 903e
000001a0: cc22 aebe c2ab 51bd a704 09bd 1483 2b3e
000001b0: 163f db3c 9433 3a3e 946a 8ebe f96e c7be
000001c0: 2bfc 67bd 9c44 023e 3a71 293e 4cb2 90be
000001d0: 4ce2 f03d 33fd dcbd 55fe 5bbd 525c 8fbe
000001e0: 9d87 503e a09f eebd 281a 5e3e 8bcc e43d
000001f0: ed7b 23bd 9e78 a03b 8506 fd3d 80f5 d5be
00000200: 82bc b9be efac 713e 2f08 953d 2caf b1bd
00000210: 7237 9b3d 9478 8a3e 84a7 4f3f 41c4 ecbc
00000220: b35d d83c b5d1 cb3c d8b0 21bd f679 dcbd
00000230: 9591 6f3c 17ae 2abe ea25 bd3d 3735 acbd
00000240: 3167 b23e b2b7 57bd 9f7e 323e 605d a73d
00000250: 8a0f 7abe 45c1 8d3d e907 163e 57ec a8bd
00000260: cfc6 53bc 16a1 afbe 4386 de3e eae3 eebd
00000270: 9aa2 63be 9066 00bf 84c2 053e 60b7 7b3d
00000280: fdad 9c3d ff19 fd3d 6efb 6dbd 6c0f ce3d
00000290: 7ff3 083f 876f fe3d 38d3 2dbd bb66 95be
000002a0: beba 9e3d 0db1 0c3e 5b87 90be 01ad 77be
000002b0: 5a61 cdbe 1057 a9be a686 cf3d faff 653e
000002c0: 5658 6f3c ab3b 353d 3ede 403b 7b60 333e
000002d0: 050e b1bd f552 93be e527 aa3d e5e9 173e
000002e0: 44cb fb3d ccdb ec3c 31cb 47bf 724c 08bf
000002f0: b6c0 61be c7f2 173e afee 7c3d cf44 db3d
00000300: 0b86 1ebf cc5e 4c3e 4eb3 0fbf 4092 58bd
00000310: 7c23 d7bd 1873 f43d 68be 22be 8ef6 ba3c
00000320: a737 a1bd d678 0c3e b146 93bd 877a 29bc
00000330: 7ff8 843e abba 16bf 9f35 babd ef00 b6bc
00000340: 0970 09bc a418 11bf 6b06 163f cc3c 8cbd
00000350: 5445 30bd 4469 56bc 0d06 1abd d764 823b
00000360: d385 23bf 5d90 b6bd df34 84be 751e 11bf
00000370: 7fb4 543e 8e09 c7bd 69ce 58be ba92 563e
00000380: 8e47 f73d 1760 d03c 95a1 a7be 8869 803d
00000390: d034 6a3e 4805 0ebe 9499 a7bd c000 c83d
000003a0: 6e7c 8e3d 149d a23e ec50 bfbd cd0a 383d
000003b0: c26f c9be 65a1 5dbc 705d 54be dce5 e83e
000003c0: 1c4d a2bd 59b0 a63d 5092 e23d 5785 033e
000003d0: a956 4b3e 83e9 67be c5d1 a13d 5b29 ccbd
000003e0: 03c7 c43d 71a0 c03c ccba a8be ce6b e43d
000003f0: f5ba 2d3d 887d 80bc 6f09 913d 89fc 063d

critic.2.bias f4 [64]
0.13921288 0.1519997 -0.09219937 0.43358335 -0.39900285 0.4434024 -0.3184576 0.29397616
0.32548288 -0.39007035 0.3405278 0.3512463 0.42488793 0.0685755 -0.05159194 0.29397863
0.5054958 0.3816366 -0.5266041 -0.30313024 0.38850826 0.31529057 0.31304565 0.28404066
-0.25232738 -0.39980978 0.45426154 0.100649916 -0.32574832 0.3645577 0.31963098 -0.42489392
-0.27888718 -0.36152303 0.4434204 0.323353 0.34926957 -0.5037747 -0.35448426 -0.10817736
0.43837446 -0.31700644 -0.32460257 0.15151802 0.30510846 -0.27169058 0.3526565 0.3583693
0.14965482 -0.3195159 -0.26796225 -0.2901434 -0.35283783 0.17576683 -0.11515109 0.36559615
0.3024029 -0.3241129 0.24163935 -0.36113793 0.38025668 0.20866835 0.36519143 0.3346977
00000000: d28d 0e3e cfa5 1b3e 06d3 bcbd a3fe dd3e
00000010: 1a4a ccbe a405 e33e e00c a3be 0b84 963e
00000020: b1a5 a63e 4db7 c7be a959 ae3e 8ed6 b33e
00000030: e98a d93e 5071 8c3d 1252 53bd 5e84 963e
00000040: 2c68 013f df65 c33e 87cf 06bf e333 9bbe
00000050: 8eea c63e c46d a13e 8547 a03e c76d 913e
00000060: 0e31 81be deb3 ccbe f894 e83e 8b21 ce3d
00000070: 7cc8 a6be 4fa7 ba3e aca6 a33e b28b d9be
00000080: 4dca 8ebe 8c19 b9be 0008 e33e 868e a53e
00000090: 76d3 b23e 61f7 00bf f67e b5be 178c ddbd
000000a0: 9e72 e03e ab4e a2be 4f32 a6be 8a27 1b3e
000000b0: 2d37 9c3e 071b 8bbe 658f b43e 2e7c b73e
000000c0: 1d3f 193e 9797 a3be 5932 89be ad8d 94be
000000d0: 29a7 b4be 38fc 333e 56d4 ebbd 6b2f bb3e
000000e0: 8ed4 9a3e 20f2 a5be 4e70 773e 12e7 b8be
000000f0: 01b1 c23e 28ad 553e 5ffa ba3e 7f5d ab3e

critic.4.weight f4 [2, 64]
-0.8023582 1.430611 -1.4807988 -0.0851294 -0.60651207 0.5043135 -0.67719626 0.82713
0.85850835 -0.48918235 0.56171465 0.67443436 0.60832065 1.6087785 1.8293103 0.6673883
0.57901067 0.6548415 -0.44268045 -0.47385195 0.38526785 0.8873697 0.42314962 0.62095326
-0.83590716 -0.66711086 0.6009034 1.4810443 -0.72286505 0.63151175 0.65704244 -0.43613347
-0.71901196 -0.6329772 0.30368954 0.60919523 0.4393237 -0.7435208 -0.53726655 -1.7249247
0.40687135 -0.77508867 -0.7607618 1.6883767 0.51882064 -0.77938956 0.70772487 0.43512356
1.8203996 -0.54836714 -0.97477543 -0.6104811 -0.63622075 1.2685735 -1.8035669 0.9167514
0.9490623 -0.8529804 0.6999733 -0.65909857 0.5222595 -1.8277379 0.6366835 0.63586193
0.8570653 0.4004373 0.25695118 0.96051794 -1.0828981 1.1006999 -1.0073899 1.1560334
1.1363481 -1.1257932 1.0477631 1.1698833 1.0464033 0.32985324 -0.12506439 1.1834445
1.0459358 1.0449793 -1.0283164 -1.2159927 1.2287685 1.2292968 1.234602 1.1447862
-1.1333027 -1.0488122 1.0573791 -0.19322605 -1.0617676 1.0984863 1.072833 -0.9448852
-1.0898626 -1.1117357 1.0872108 1.2331306 1.2513386 -0.91639084 -1.1710825 0.07418378
1.1932755 -0.9873264 -1.0524018 0.0073902397 1.3588257 -1.0444812 1.040277 1.16317
-0.2263864 -1.1777952 -1.1076754 -1.113501 -1.1314969 0.6545562 0.0848547 0.92317927
1.1396847 -1.0310104 1.4932606 -1.0903955 1.133073 0.46395314 1.0907859 0.95370877
00000000: 5967 4dbf 431e b73f d18a bdbf 5358 aebd
00000010: 6044 1bbf b11a 013f bc5c 2dbf cbbe 533f
00000020: 34c7 5b3f 1c76 fabe 88cc 0f3f bba7 2c3f
00000030: e7ba 1b3f 74ec cd3f d726 ea3f f6d9 2a3f
00000040: 0b3a 143f b1a3 273f 03a7 e2be b99c f2be
00000050: d441 c53e a92a 633f 11a7 d83e cbf6 1e3f
00000060: 03fe 55bf c7c7 2abf ced4 193f dc92 bd3f
00000070: af0d 39bf c1aa 213f ef33 283f e34c dfbe
00000080: 2b11 38bf cb0a 22bf 327d 9b3e 38f4 1b3f
00000090: 09ef e03e 6157 3ebf 4d8a 09bf 55ca dcbf
000000a0: 7151 d03e 366c 46bf 49c1 42bf ba1c d83f
000000b0: 6ed1 043f 1386 47bf 752d 353f 84c8 de3e
000000c0: db02 e93f ca61 0cbf e28a 79bf 7d48 1cbf
000000d0: 5ddf 22bf 9e60 a23f 48db e6bf 38b0 6a3f
000000e0: bff5 723f ec5c 5abf 7331 333f afba 28bf
000000f0: ccb2 053f 51f3 e9bf b1fd 223f d9c7 223f
00000100: a268 5b3f 1e06 cd3e 1b8f 833e 81e4 753f
00000110: 689c 8abf bce3 8c3f 27f2 80bf e7f8 933f
00000120: db73 913f fe19 90bf 1a1d 863f bcbe 953f
00000130: 8bf0 853f 86e2 a83e e110 00be 1c7b 973f
00000140: 39e1 853f e2c1 853f df9f 83bf a6a5 9bbf
00000150: 4948 9d3f 9959 9d3f 7007 9e3f 5b88 923f
00000160: 1010 91bf 7a3f 86bf 3358 873f 0ddd 45be
00000170: 00e8 87bf 339b 8c3f 9752 893f ffe3 71bf
00000180: 9e80 8bbf 5b4d 8ebf b929 8b3f 39d7 9d3f
00000190: dd2b a03f 9798 6abf 08e6 95bf aaed 973d
000001a0: 40bd 983f 6cc1 7cbf 1ab5 86bf d329 f23b
000001b0: 00ee ad3f 8fb1 85bf cc27 853f c1e2 943f
000001c0: d6d1 67be fec1 96bf 4fc8 8dbf 3387 8ebf
000001d0: e4d4 90bf ff90 273f 4dc8 ad3d 7a55 6c3f
000001e0: 30e1 913f 26f8 83bf 2a23 bf3f 1492 8bbf
000001f0: 8908 913f 448b ed3e df9e 8b3f 4226 743f

critic.4.bias f4 [2]
0.56179166 0.82785887
00000000: 94d1 0f3f 8fee 533f

actor_mean.0.weight f4 [64, 26]
-0.284921 -0.1635406 -0.1369156 -0.2096419 -0.4964255 -0.14488761 0.011505273 0.079186864
0.18912451 0.008703626 -0.13210805 -0.01716172 -0.05883882 0.19171876 0.23955266 -0.013430147
0.018149015 0.10259403 0.058028817 -0.0981103 0.022518223 -0.21256982 -0.0818968 0.262079
0.17267512 -0.06010526 0.002463738 0.27105683 0.18909568 0.1354907 -0.15804493 0.17139047
0.23233554 -0.018829253 -0.09428996 0.14585826 0.11333487 -0.054084845 0.022714896 0.09920997
-0.2191277 -0.1827087 0.018412067 -0.50232077 0.20766641 -0.09027888 0.17201033 0.10012697
0.48877388 0.10249577 -0.05629542 -0.06034446 0.24000576 0.010928205 -0.1195902 0.1580271
-0.049473293 -0.04744325 0.29250866 -0.13256484 -0.054816242 -0.027724208 0.09405977 -0.17547086
0.07655241 0.5087808 0.055548616 -0.13638118 -0.5142904 0.10955302 0.113598466 -0.05775694
-0.28139308 -0.0818703 0.029234765 -0.49847203 0.15660492 0.583273 -0.1555279 0.17244218
-0.1360837 0.25312805 0.0918691 -0.14629497 -0.39008808 0.050854083 -0.34953725 -0.2495758
-0.111689106 0.1892177 -0.12780252 0.010450987 -0.106018916 0.40475976 -0.25853878 -0.10542686
0.100436546 0.12305519 0.008257836 -0.20945285 0.114826046 -0.18138723 -0.16014753 0.10644868
-0.20339838 0.048185047 0.30780977 0.09580312 0.026372332 -0.036341332 0.06232282 -0.23890465
0.07746081 0.24336077 0.07322052 0.31410426 0.07789539 -0.21495734 0.089992926 -0.12764908
0.051043868 0.25364017 -0.23812386 -0.34443927 -0.16613549 -0.032395847 -0.02477325 0.062059358
-0.0035135716 0.31618568 0.2514305 0.004179907 -0.22538954 -0.24471618 -0.002670601 0.05112511
-0.34256896 0.4658296 -0.017792081 0.010125871 0.20431599 -0.078724876 0.058448672 -0.03523918
-0.14122328 -0.14062741 0.17312253 0.2379398 0.097869724 -0.26775828 0.16898303 0.23574705
-0.21138921 -0.04854327 -0.031788103 -0.050171953 0.042685583 0.019396398 0.008333233 0.05123965
0.06105909 -0.12269461 -0.08172277 -0.021962387 0.2090826 -0.028413394 -0.1334118 0.24372388
-0.067227274 0.17484449 0.044513687 -0.60669285 0.2817519 -0.007976136 0.08429998 -0.0781672
-0.06117595 0.35603577 -0.3896343 0.09818139 -0.14592773 -0.20593096 0.46083525 0.038351603
-0.094307594 0.23862368 -0.029138258 0.23791084 -0.19306561 0.092071064 -0.2447953 0.3117525
-0.22373194 -0.104688995 -0.09075485 -0.30177408 -0.1819455 -0.09775319 -0.108261816 0.14960302
-0.14918602 0.08130735 0.10030981 0.08660144 -0.049206536 0.101714745 0.14044666 0.1368521
-0.030432032 -0.14203697 -0.027009439 0.26593888 0.12058307 0.09973826 0.091941856 -0.23784988
0.43598658 0.03840016 -0.09709161 -0.38047385 0.06774021 -0.10342458 0.044442195 -0.0012998469
0.21151303 -0.16839431 0.0066182837 0.16771625 0.10802903 -0.3664973 0.14855695 0.043478347
0.111895 0.037375268 -0.09175686 0.2406766 -0.022206767 -0.12385062 0.11926956 0.27789804
0.04042433 -0.24230902 -0.1181064 -0.17351435 -0.23940131 -0.07890932 0.057969008 -0.115871556
-0.1244798 0.15840404 -0.018347362 -0.030533 -0.24803655 0.06881535 0.6058577 0.02888498
00000000: 2ae1 91be 3077 27be 9a33 0cbe 5eac 56be
00000010: 7c2b febe 6b5d 14be 9d80 3c3c b92c a23d
00000020: dba9 413e a799 0e3c 5547 07be bc96 8cbc
00000030: f900 71bd ec51 443e 4b4d 753e 1f0a 5cbc
00000040: 3ead 943c d21c d23d a0af 6d3d 0eee c8bd
00000050: 2378 b83c e7ab 59be 82b9 a7bd 382f 863e
00000060: bfd1 303e ef30 76bd aa76 213b f6c7 8a3e
00000070: 4ca2 413e 13be 0a3e 88d6 21be fc80 2f3e
00000080: 5ee9 6d3e ce3f 9abc 181b c1bd de5b 153e
00000090: 1d1c e83d 1288 5dbd 9714 ba3c 992e cb3d
000000a0: 0363 60be fd17 3bbe e7d4 963c 1898 00bf
000000b0: 81a6 543e 22e4 b8bd 7a23 303e 5e0f cd3d
000000c0: 9240 fa3e 4de9 d13d 0796 66bd c12b 77bd
000000d0: 12c4 753e 370c 333c b5eb f4bd dbd1 213e
000000e0: 82a4 4abd da53 42bd b2c3 953e 14bf 07be
000000f0: ff86 60bd e11d e3bc 69a2 c03d a2ae 33be
00000100: 83c7 9c3d 753f 023f f286 633d 82a7 0bbe
00000110: 89a8 03bf 555d e03d 50a6 e83d 8b92 6cbd
00000120: c112 90be 9eab a7bd bf7d ef3c ba37 ffbe
00000130: 0a5d 203e 6151 153f b542 1fbe af94 303e
00000140: 8759 0bbe 009a 813e de25 bc3d 59ce 15be
00000150: a0b9 c7be 5f4c 503d 8cf6 b2be cc90 7fbe
00000160: 42bd e4bd 49c2 413e aade 02be 9e3a 2b3c
00000170: 7220 d9bd ac3c cf3e 325f 84be 0aea d7bd
00000180: adb1 cd3d 5c04 fc3d e04b 073c cf7a 56be
00000190: eb29 eb3d 93bd 39be b7fd 23be c401 da3d
000001a0: aa47 50be af5d 453d 3e99 9d3e 6d34 c43d
000001b0: ca0a d83c a6da 14bd 3746 7f3d 6ca3 74be
000001c0: c6a3 9e3d 9133 793e a4f4 953d 46d2 a03e
000001d0: 9e87 9f3d c71d 5cbe 364e b83d 71b6 02be
000001e0: 6013 513d 20dd 813e bed6 73be 585a b0be
000001f0: 6c1f 2abe 82b1 04bd 45f1 cabc f431 7e3d
00000200: f343 66bb 17e3 a13e 80bb 803e 9af7 883b
00000210: 84cc 66be e196 7abe 4005 2fbb 9068 513d
00000220: 3365 afbe 3881 ee3e b3c0 91bc fbe6 253c
00000230: 3638 513e 823a a1bd e067 6f3d f556 10bd
00000240: d69c 10be a200 10be 0847 313e 7ea6 733e
00000250: ec6f c83d 9d17 89be e309 2d3e ad67 713e
00000260: 6a76 58be 4fd5 46bd 3e34 02bd 1b81 4dbd
00000270: 14d7 2e3d 32e5 9e3c 1d88 083c abe0 513d
00000280: 1919 7a3d 5047 fbbd 455e a7bd 77ea b3bc
00000290: c019 563e 35c3 e8bc 1a9d 08be c192 793e
000002a0: 74ae 89bd 6f0a 333e fc53 363d 3950 1bbf
000002b0: c941 903e 57ae 02bc 78a5 ac3d 2016 a0bd
000002c0: a293 7abd 524a b63e 267e c7be 5313 c93d
000002d0: 146e 15be 91df 52be 99f2 eb3e 9216 1d3d
000002e0: 5724 c1bd c459 743e 5bb3 eebc e69e 733e
000002f0: feb2 45be c18f bc3d 9eab 7abe 069e 9f3e
00000300: fc19 65be 2f67 d6bd aedd b9bd 2282 9abe
00000310: ec4f 3abe d332 c8bd 5fb8 ddbd 8931 193e
00000320: 38c4 18be 7884 a63d 3b6f cd3d 195c b13d
00000330: cb8c 49bd d24f d03d 40d1 0f3e f522 0c3e
00000340: 994c f9bc 2472 11be e642 ddbc 2429 883e
00000350: 42f4 f63d 9343 cc3d 034c bc3d eb8e 73be
00000360: a239 df3e 7c49 1d3d f7d7 c6bd 78cd c2be
00000370: 61bb 8a3d 44d0 d3bd 0509 363d a05f aaba
00000380: df96 583e 8f6f 2cbe 30de d83b cfbd 2b3e
00000390: 533e dd3d 89a5 bbbe 501f 183e 5a16 323d
000003a0: 3529 e53d cf16 193d 05eb bbbd ed73 763e
000003b0: f7ea b5bc 65a5 fdbd 9943 f43d a748 8e3e
000003c0: fb93 253d db1f 78be c5e1 f1bd bfad 31be
000003d0: 9e25 75be 369b a1bd e970 6d3d 114e edbd
000003e0: 44ef febd ab34 223e 354d 96bc 5820 fabc
000003f0: 4bfd 7dbe 10ef 8c3d 7d19 1b3f 32a0 ec3c

actor_mean.0.bias f4 [64]
-0.1328155 -0.08941399 0.15465608 -0.092999935 0.005016841 0.06856069 -0.05579048 0.026663817
-0.12990876 -0.013425204 0.012500619 -0.20056626 -0.09685502 0.0144574875 -0.025575705 0.046365622
-0.025513835 0.03444531 0.03201835 0.13897593 0.05798594 0.013874081 -0.0841491 0.08349863
-0.037198126 -0.087798804 0.001164951 -0.13778095 -0.19175202 0.116856955 -0.0077618207 0.03359517
0.098507345 -0.015435551 -0.07719144 0.063514754 -0.12772907 0.067102574 0.04202761 -0.09670533
-0.05624916 0.06314013 -0.0022683404 0.052665673 -0.084823646 0.14908798 -0.06530347 0.08254413
-0.015142992 -0.026565349 -0.048105676 0.017071495 -0.07447372 -0.042960048 0.06903091 0.019818965
0.1574639 -0.013951731 -0.12006467 0.09036387 0.079465605 0.03579151 0.09095208 0.13972853
00000000: c900 08be af1e b7bd 2a5e 1e3e c076 bebd
00000010: 5064 a43b 8c69 8c3d 8f84 64bd 146e da3c
00000020: cd06 05be 63f5 5bbc 65cf 4c3c 3e61 4dbe
00000030: ed5b c6bd 19df 6c3c 2484 d1bc e1e9 3d3d
00000040: 6402 d1bc 8616 0d3d ac25 033d b54f 0e3e
00000050: aa82 6d3d 1d50 633c 5d56 acbd 5401 ab3d
00000060: 105d 18bd dccf b3bd 45b1 983a 7316 0dbe
00000070: a45a 44be b352 ef3d df56 febb 179b 093d
00000080: 38be c93d 65e5 7cbc 8c16 9ebd 0614 823d
00000090: 69cb 02be 136d 893d 2525 2c3d 720d c6bd
000000a0: 8565 66bd 9d4f 813d 70a8 14bb f6b7 573d
000000b0: 05b8 adbd 85aa 183e d3bd 85bd e60c a93d
000000c0: 501a 78bc 939f d9bc 750a 45bd 85d9 8b3c
000000d0: ad85 98bd e0f6 2fbd 1460 8d3d 625b a23c
000000e0: 373e 213e cd95 64bc 77e4 f5bd b110 b93d
000000f0: ddbe a23d 1e9a 123d 1645 ba3d ff14 0f3e

actor_mean.2.weight f4 [64, 64]
-0.2350096 -0.00815424 -0.23607957 -0.17045784 -0.23043795 0.039574485 -0.049625546 0.15819213
-0.05461189 0.120567344 0.13701944 -0.20026003 0.40385142 0.13325639 -0.017439919 0.20823343
0.02591176 0.19123729 0.06426529 -0.0450789 -0.17556205 0.20810165 -0.34007928 0.2538018
-0.10575202 -0.2687889 0.13349162 0.11595992 -0.16210079 -0.24443625 -0.2312173 0.19373654
-0.040066995 -0.14238992 -0.3363866 0.0011112216 0.053649276 -0.22428487 -0.26312736 -0.16308582
-0.09788198 0.20833693 0.08333705 -0.08916084 -0.10853407 0.43094984 -0.06881665 -0.27992868
0.10137251 0.04929745 0.066442125 -0.12664004 -0.304219 -0.07319689 0.16732422 0.12687512
-0.3891815 -0.08587587 -0.0026385998 -0.062050667 -0.34352815 -0.33602765 0.06600511 0.113037854
0.12182781 -0.33081716 0.3885618 0.09587829 -0.10231664 -0.16011631 -0.16869602 -0.22577666
-0.3846184 0.25856897 -0.3355669 -0.116913565 -0.24225992 0.3569921 0.087718636 0.14973857
-0.002661548 -0.124817885 0.010490147 -0.22740342 0.16249493 -0.34105563 -0.018229939 0.15855242
0.023516959 0.08213204 0.25654253 0.262157 -0.012449993 -0.040588353 0.0897696 -0.1464475
0.12491354 0.015542769 -0.18863893 -0.039352212 -0.16861303 -3.2382883e-05 0.042126488 -0.10847428
-0.38386318 0.41091543 0.15219223 -0.09392816 -0.044655018 -0.23402667 0.116428606 -0.048886932
-0.13229613 -0.06252808 0.15776438 -0.34529257 0.00054542447 -0.21502098 0.18223244 0.17314619
-0.024088623 0.13946888 -0.34957293 -0.24668995 0.07404159 -0.117595315 -0.15880857 -0.042620108
-0.013447851 0.20764315 0.19376273 0.041904405 -0.1326541 0.27559897 0.34261507 -0.09825255
-0.034436043 0.077803716 -0.3871249 0.2307392 -0.018833842 -0.002068791 0.092080966 -0.040369235
0.1936726 0.07866666 0.17092006 -0.06967238 0.08357085 0.0382983 0.18750021 0.19320264
-0.5374887 0.0509748 0.34287316 -0.21441464 -0.009584516 0.16380484 -0.12599066 -0.17268804
-0.13913745 -0.12968232 0.022802897 -0.26251146 0.0010672658 0.068403184 0.22852913 0.21875733
0.09617388 0.2499741 0.06989691 -0.16655724 0.031258523 -0.13943629 0.17295338 -0.41859126
0.12115739 0.054733973 0.17119974 0.29094768 0.22827668 0.18549855 -0.089550115 -0.25777224
-0.17443302 -0.14123282 -0.058332693 0.24406298 -0.02112743 0.11445056 0.3826878 0.14262062
0.23269476 0.125819 -0.10348253 -0.0067609143 -0.10908905 -0.15506864 0.15107165 -0.08567424
0.24600418 -0.3263933 0.17415875 0.062199254 0.14904751 -0.12599708 0.07914861 0.030448856
0.08508972 0.09124406 -0.2883135 0.101965 0.12466574 -0.27472314 -0.11495415 -0.1624401
0.15477459 0.19266757 0.07590563 0.18622148 0.20544562 -0.08071461 -0.19540767 0.11485714
0.19142418 -0.49864697 0.0128624765 0.023662524 0.1391967 0.0103979 -0.05350577 0.108873636
0.1225731 -0.0692727 -0.22309843 -0.07186152 -0.3015416 -0.41146916 -0.012118223 0.19528115
-0.24120101 -0.1789981 0.15754507 0.19961223 -0.15437894 0.07055255 0.27172783 0.06099888
0.0035073725 -0.4101749 -0.48929182 0.07434674 -0.27335453 -0.08173147 0.14299627 0.05531584
00000000: 5ba6 70be 5d99 05bc d8be 71be 808c 2ebe
00000010: edf7 6bbe db18 223d 2844 4bbd 1efd 213e
00000020: b8b0 5fbd 03ec f63d d34e 0c3e f710 4dbe
00000030: 9dc5 ce3e 5d74 083e 29de 8ebc 253b 553e
00000040: e644 d43c b5d3 433e 859d 833d a7a4 38bd
00000050: 8ac6 33be 9918 553e df1e aebe 4ff2 813e
00000060: 8494 d8bd b39e 89be 07b2 083e 657c ed3d
00000070: c0fd 25be 7f4d 7abe 3ac4 6cbe df62 463e
00000080: 4a1d 24bd aace 11be dd3a acbe 69a6 913a
00000090: 58bf 5b3d efaa 65be a1b8 86be f8ff 26be
000000a0: 5976 c8bd 4756 553e 9eac aa3d f599 b6bd
000000b0: 1c47 debd 75a5 dc3e beef 8cbd d052 8fbe
000000c0: 649c cf3d 1fec 493d cf12 883d edad 01be
000000d0: 98c2 9bbe 40e8 95bd 0a57 2b3e 8deb 013e
000000e0: cc42 c7be b0df afbd 5cec 2cbb d728 7ebd
000000f0: ece2 afbe d10b acbe b02d 873d 6480 e73d
00000100: dc80 f93d de60 a9be 92f1 c63e d65b c43d
00000110: 638b d1bd 88f5 23be a6be 2cbe ff31 67be
00000120: b4ec c4be 2763 843e 6dcf abbe 6170 efbd
00000130: fc12 78be abc7 b63e d4a5 b33d 1155 193e
00000140: 5e6d 2ebb 85a0 ffbd dede 2b3c 71dc 68be
00000150: 1265 263e d89e aebe f456 95bc 915b 223e
00000160: a3a6 c03c d834 a83d 8b59 833e 7139 863e
00000170: 0efb 4bbc f93f 26bd 20d9 b73d 55f6 15be
00000180: acd2 ff3d 19a7 7e3c 902a 41be c92f 21bd
00000190: e5a8 2cbe dbd2 07b8 d38c 2c3d c327 debd
000001a0: b789 c4be 8263 d23e 48d8 1b3e 685d c0bd
000001b0: 2ee8 36bd b0a4 6fbe 1f72 ee3d aa3d 48bd
000001c0: a378 07be b90e 80bd fc8c 213e 30ca b0be
000001d0: d1fa 0e3a 762e 5cbe 249b 3a3e 3c4d 313e
000001e0: 8155 c5bc eed0 0e3e 39fb b2be 4a9c 7cbe
000001f0: 1ea3 973d d0d5 f0bd b79e 22be 6c92 2ebd
00000200: 6054 5cbc 68a0 543e bd69 463e f4a3 2b3d
00000210: 7ad6 07be 4f1b 8d3e 3e6b af3e a238 c9bd
00000220: cf0c 0dbd 8e57 9f3d 3c35 c6be e646 6c3e
00000230: 6e49 9abc 8e94 07bb f294 bc3d 365a 25bd
00000240: 1c52 463e fc1b a13d ab05 2f3e 65b0 8ebd
00000250: 3227 ab3d aede 1c3d 0e00 403e ead6 453e
00000260: dc98 09bf f4ca 503d 128d af3e 838f 5bbe
00000270: 6008 1dbc 75bc 273e b203 01be 22d5 30be
00000280: 0c7a 0ebe 71cb 04be 24cd ba3c e767 86be
00000290: 7fe3 8b3a f816 8c3d 8a03 6a3e ec01 603e
000002a0: d0f6 c43d 36f9 7f3e 1c26 8f3d fb8d 2abe
000002b0: f008 003d 63c8 0ebe b11a 313e 9851 d6be
000002c0: 5e21 f83d bb30 603d fc4e 2f3e 18f7 943e
000002d0: 5dc1 693e 55f3 3d3e 0d66 b7bd b9fa 83be
000002e0: 929e 32be 569f 10be 43ee 6ebd a5eb 793e
000002f0: 6f13 adbc 0e65 ea3d a8ef c33e 240b 123e
00000300: 8947 6e3e b2d6 003e a6ee d3bd a98a ddbb
00000310: 146a dfbd 50ca 1ebe 87b2 1a3e fa75 afbd
00000320: 85e8 7b3e 061d a7be ac56 323e a5c4 7e3d
00000330: e99f 183e 6105 01be ab18 a23d e16f f93c
00000340: 8543 ae3d 2ade ba3d d49d 93be 07d3 d03d
00000350: c050 ff3d 83a8 8cbe 156d ebbd b356 26be
00000360: 3b7d 1e3e a64a 453e 6974 9b3d d8b0 3e3e
00000370: 5660 523e b44d a5bd f318 48be 383a eb3d
00000380: b304 443e a84e ffbe 23bd 523c e9d7 c13c
00000390: 9489 0e3e f45b 2a3c de28 5bbd 24f9 de3d
000003a0: 9b07 fb3d d8de 8dbd ea73 64be 222c 93bd
000003b0: a963 9abe 16ac d2be 838b 46bc c8f7 473e
000003c0: 66fd 76be 474b 37be 7f53 213e 2667 4c3e
000003d0: 8315 1ebe db7d 903d e91f 8b3e f6d9 793d
000003e0: f2db 653b 7202 d2be 7584 fabe 1b43 983d
000003f0: 20f5 8bbe d462 a7bd 9d6d 123e dd92 623d

actor_mean.2.bias f4 [64]
-0.013822061 -0.07213381 0.017551677 -0.010389136 -0.020487348 0.056216106 0.014906446 0.007428929
-0.0015901128 -0.034447894 0.070314966 0.05428646 -0.086524025 -0.06453183 0.062127646 -0.039366163
0.044472743 -0.08496631 -0.019551277 -0.028548775 0.038480464 -0.10331576 -0.033947635 -0.018164111
0.039720044 -0.028583737 -0.049647883 0.022971742 -0.060267102 -0.051662173 0.06770699 0.01252838
-0.060632788 0.026096351 -0.019255955 0.069729984 0.08122227 0.05543495 0.017313562 0.079964794
-0.061665967 -0.027720913 0.023742478 0.0139332265 0.06798143 -0.04134642 -0.055415284 0.04835172
-0.050567232 -0.020315016 0.066356935 0.00064500223 -0.04291668 0.0049288296 -0.048800692 0.13415729
0.035028573 0.08313786 0.03419173 0.051439054 0.039408598 0.013673262 0.069350414 0.06279266
00000000: ed75 62bc e4ba 93bd 89c8 8f3c 3237 2abc
00000010: 15d5 a7bc dc42 663d 2b3a 743c 606e f33b
00000020: 556b d0ba 3c19 0dbd 4b01 903d 7b5b 5e3d
00000030: 8233 b1bd 4429 84bd 8f79 7e3d 6a3e 21bd
00000040: 0d29 363d d102 aebd 002a a0bc 1fdf e9bc
00000050: b19d 1d3d 3797 d3bd ad0c 0bbd e7cc 94bc
00000060: 7cb1 223d 7128 eabc 945b 4bbd 3c2f bc3c
00000070: a3da 76bd b79b 53bd f6a9 8a3d d643 4d3c
00000080: 165a 78bd 04c8 d53c aabe 9dbc 98ce 8e3d
00000090: dd57 a63d c20f 633d 2cd5 8d3c 95c4 a33d
000000a0: 7495 7cbd f816 e3bc 967f c23c 3048 643c
000000b0: d939 8b3d dd5a 29bd 23fb 62bd 740c 463d
000000c0: 961f 4fbd ad6b a6bc 25e6 873d 5e15 293a
000000d0: 67c9 2fbd 0582 a13b 3ce3 47bd 8760 093e
000000e0: 1f7a 0f3d 2f44 aa3d a10c 0c3d c2b1 523d
000000f0: e96a 213d d105 603c 9707 8e3d 7099 803d

actor_mean.4.weight f4 [6, 64]
-0.015578502 0.14781302 0.01960329 -0.05269896 0.017666364 -0.0017779563 0.043901972 -0.008746095
-0.053945687 -0.010063128 0.003010705 0.11851298 0.029298754 0.053392284 -0.045780517 0.036017388
-0.075914696 -0.0321199 0.053770825 -0.08243001 -0.045224644 0.033624258 -0.01702407 -0.034178574
-0.00460919 0.021675372 0.0901698 -0.0012654003 -0.068538345 -0.018936044 -0.0035227076 -0.018003097
0.0042204414 0.031715393 0.08274837 0.029616049 0.06778786 0.071718775 -0.0031010637 -0.13676573
-0.042531 -0.029457537 -0.05621827 -0.04289957 0.06869604 -0.075165994 0.014020836 0.059908688
0.025357774 0.05628443 0.020004828 -0.12855072 0.000683541 0.044958297 0.04252993 -0.1075808
-0.03404135 -0.020423187 0.05754177 0.028949203 0.020760875 0.00028880057 -0.11089544 -0.0059607313
-0.0038869646 0.0049981736 0.023592904 0.035198275 0.036602587 -0.018770143 -0.049277406 -0.013650045
-0.06946423 -0.0317965 0.04324234 -0.02278273 -0.00043830703 -0.008635135 -0.0925732 -0.008299741
-0.016735993 0.0174327 -0.009335318 -0.031993534 -0.037780456 0.014948972 -0.07029202 -0.0097329
-0.0015672924 0.012421733 -0.027406162 0.005623961 -0.0034804866 0.018708022 -0.018037347 -0.025207775
-0.010645613 0.009087954 0.11095062 -0.111779094 -0.0946106 -0.07556122 0.007519016 0.056082062
-0.049137946 0.022768792 0.105760835 -0.021336524 0.10835349 0.07844166 -0.027083388 -0.085133
-0.027212288 0.006092226 -0.06913222 -0.014354842 0.1002505 0.065816626 -0.0086403545 -0.040689744
-0.022652982 0.057782594 -0.0499656 -0.028169703 0.028714728 0.076945566 0.03884127 -0.027018784
0.019771714 0.05830931 -0.061167423 -0.0018168689 -0.045640014 0.00085328607 0.06584531 0.07042794
-0.0055546877 -0.019547418 0.0059425035 -0.034731563 0.060597114 -0.013093633 -0.004923286 -0.02895488
0.0606013 0.057057697 0.06322847 -0.13819803 -0.008650911 0.067615986 -0.060185477 -0.0031168712
0.012687693 -0.031127581 -0.011722335 0.008328062 0.05264632 0.09745661 -0.05608742 -0.0612948
0.038067427 -0.013677383 -0.013638433 0.071751535 -0.06295945 -0.013798879 0.0032486846 -0.061144788
-0.03429041 -0.029436368 0.0041732304 -0.021238001 0.009905443 -0.048429746 0.044023655 -0.0100858705
-0.012678418 -0.04564039 0.057786684 -0.004725307 -0.029035132 0.036863513 -0.04969181 0.016255168
0.06696174 0.024649952 -0.041749034 -0.03320748 -0.057131488 0.0015522083 0.038771737 -0.022425184
0.08243507 0.020038221 -0.08362052 0.003556954 0.055973522 -0.061921533 0.02698314 0.0733998
0.029135069 0.002157126 0.056621395 0.09293079 -0.061505508 0.06097868 0.09811097 -0.02840303
-0.13253663 0.021991348 -0.09157934 -0.03204773 0.02279071 0.030190777 -0.040286448 -0.048035037
0.041363176 0.14002702 0.019167034 0.012941482 -0.012172362 0.011607909 0.00063871435 0.01384118
-0.05369768 0.06820969 -0.09066001 -0.08494534 -0.055525042 -0.009624772 0.078198485 -0.043405198
0.038296282 0.017091792 -0.013023927 0.10763207 0.09344096 0.017555045 0.10566495 0.05381503
-0.010800355 0.06164203 -0.022861235 -0.10424948 0.00076077 0.051936865 0.05302499 -0.104846634
0.030464835 -0.015546255 0.030983139 -0.007774848 0.08757522 0.008096138 -0.039520238 -0.020409966
00000000: f93c 7fbc 4c5c 173e 1497 a03c ddda 57bd
00000010: 0db9 903c 500a e9ba 8ed2 333d c84b 0fbc
00000020: 27f6 5cbd d1df 24bc 404f 453b efb6 f23d
00000030: f103 f03c deb1 5a3d 5a84 3bbd f886 133d
00000040: 2a79 9bbd 2890 03bd cc3e 5c3d 11d1 a8bd
00000050: 7a3d 39bd 97b9 093d 1076 8bbc d5fe 0bbd
00000060: b008 97bb 8d90 b13c f2aa b83d cadb a5ba
00000070: d55d 8cbd c31f 9bbc 3add 66bb 3b7b 93bc
00000080: a14b 8a3b 00e8 013d fa77 a93d 5b9d f23c
00000090: 5dd4 8a3d 4be1 923d 373b 4bbb 510c 0cbe
000000a0: fc34 2ebd ef50 f1bc 2145 66bd 76b7 2fbd
000000b0: 82b0 8c3d a1f0 99bd a6b7 653c d062 753d
000000c0: 1bbb cf3c 818a 663d 2ae1 a33c cda2 03be
000000d0: a92f 333a 3126 383d dd33 2e3d 5353 dcbd
000000e0: f16e 0bbd 874e a7bc ebb0 6b3d e126 ed3c
000000f0: b612 aa3c 286a 9739 261d e3bd 3d52 c3bb
00000100: 72bc 7ebb b8c7 a33b e845 c13c 112c 103d
00000110: 98ec 153d d8c3 99bc 1bd7 49bd 70a4 5fbc
00000120: 4343 8ebd 0c3d 02bd e11e 313d d9a2 babc
00000130: 93cc e5b9 627a 0dbc 0597 bdbd a3fb 07bc
00000140: ec19 89bc 06cf 8e3c 29f3 18bc a70b 03bd
00000150: aebf 1abd 88ec 743c 43f5 8fbd be76 1fbc
00000160: 9b6d cdba 8684 4b3c e382 e0bc 3449 b83b
00000170: e018 64bb 9141 993c 0fc3 93bc 8980 cebc
00000180: f06a 2ebc a4e5 143c 143a e33d 70ec e4bd
00000190: 34c3 c1bd d7bf 9abd 1462 f63b 4eb6 653d
000001a0: df44 49bd 9e85 ba3c 2399 d83d efc9 aebc
000001b0: 6fe8 dd3d 05a6 a03d fbdd ddbc 365a aebd
000001c0: 4eec debc 4ca1 c73b 3195 8dbd 9230 6bbc
000001d0: 2250 cd3d deca 863d 4690 0dbc 4aaa 26bd
000001e0: bf92 b9bc 71ad 6c3d bba8 4cbd 26c4 e6bc
000001f0: 263b eb3c a395 9d3d 0618 1f3d 7f56 ddbc
00000200: 4af8 a13c bed5 6e3d b18a 7abd 0124 eeba
00000210: 06f1 3abd 0faf 5f3a e8d9 863d 863c 903d
00000220: 1904 b6bb e821 a0bc 55b9 c23b af42 0ebd
00000230: ae34 783d ad86 56bc 8453 a1bb c932 edbc
00000240: 1239 783d 55b5 693d ee7d 813d c983 0dbe
00000250: 8dbc 0dbc 407a 8a3d 0c85 76bd 6c44 4cbb
00000260: 0be0 4f3c 45ff febc 090f 40bc 6c72 083c
00000270: aba3 573d 5597 c73d ecbb 65bd 4210 7bbd
00000280: 97ec 1b3d 1a17 60bc bc73 5fbc 78f2 923d
00000290: e2f0 80bd b214 62bc e2e7 543b f572 7abd
000002a0: 1a74 0cbd 8a24 f1bc 98bf 883b 51fb adbc
000002b0: 704a 223c 455e 46bd 2652 343d 353f 25bc
000002c0: 24b9 4fbc 6bf1 3abd bbb1 6c3d c0d6 9abb
000002d0: 16db edbc 32fe 163d a489 4bbd 8f29 853c
000002e0: 3d23 893d b2ee c93c 0901 2bbd 9104 08bd
000002f0: b502 6abd 7873 cb3a 1dcf 1e3d 05b5 b7bc
00000300: b8d3 a83d 3227 a43c 3c41 abbd c91b 693b
00000310: 7e44 653d 6fa1 7dbd bf0b dd3c a252 963d
00000320: abac ee3c 925e 0d3b d6eb 673d 7f52 be3d
00000330: 33ed 7bbd c8c4 793d 67ee c83d 79ad e8bc
00000340: afb7 07be 3327 b43c f38d bbbd 7b44 03bd
00000350: 95b3 ba3c a652 f73c 6703 25bd 63c0 44bd
00000360: 6f6c 293d 3e63 0f3e 2f04 9d3c 8208 543c
00000370: 966e 47bc 192f 3e3c 656f 273a 1ec6 623c
00000380: 19f2 5bbd 86b1 8b3d f5ab b9bd d3f7 adbd
00000390: 3a6e 63bd 38b1 1dbc 8726 a03d a6c9 31bd
000003a0: 90dc 1c3d 1604 8c3c 4f62 55bc 346e dc3d
000003b0: f95d bf3d 99cf 8f3c de66 d83d 266d 5c3d
000003c0: f9f3 30bc 5a7c 7c3d 7c47 bbbc c080 d5bd
000003d0: 696e 473a c0bb 543d bb30 593d d5b9 d6bd
000003e0: 6491 f93c b8b5 7ebc 5ad0 fd3c 27c4 febb
000003f0: a35a b33d aaa5 043c f9df 21bd cd32 a7bc

actor_mean.4.bias f4 [6]
0.011860984 -0.048593 -0.011302677 -0.024093203 -0.03389476 -0.013217479
00000000: 9354 423c 7409 47bd dd2e 39bc 1c5f c5bc
00000010: 3bd5 0abd 208e 58bc

in_proj.weight f4 [32, 2]
0.48162246 0.3561934 0.5030756 -0.38517383 0.48892513 -0.30852678 -0.32532418 -0.4317084
-0.58627725 -0.20947292 -0.10961281 0.45525745 -0.36321446 -0.49463087 -0.51851267 -0.55652237
0.49540576 0.19467384 0.24563196 -0.35971758 -0.09776207 0.57801026 0.1256534 -0.5802604
0.44770527 0.33515838 0.330669 0.5632446 -0.13413225 -0.0051571084 0.2161563 -0.44110402
0.63014257 0.6954048 -0.3080016 -0.45683268 0.24511854 0.35535604 0.6696106 0.48877728
-0.3537311 0.6457857 0.25744852 0.02844694 -0.25795907 0.5042292 0.43453023 0.29297438
0.30596855 -0.42614847 -0.6256706 0.52358603 0.4499579 0.27669248 0.36981723 -0.09899646
0.5584494 0.5471044 0.275972 -0.48467898 -0.18013218 -0.13078083 -0.6971007 0.10054583
00000000: 3897 f63e fb5e b63e 90c9 003f 8135 c5be
00000010: 6554 fa3e 39f7 9dbe e490 a6be e208 ddbe
00000020: 4416 16bf 1280 56be ae7c e0bd 8117 e93e
00000030: 3ff7 b9be 4240 fdbe 3fbd 04bf 4078 0ebf
00000040: d3a5 fd3e 9458 473e f286 7b3e e72c b8be
00000050: 7b37 c8bd 7bf8 133f 49ab 003e f28b 14bf
00000060: a039 e53e e199 ab3e 724d a93e cc30 103f
00000070: f759 09be f6fc a8bb 1458 5d3e 63d8 e1be
00000080: 0651 213f 0d06 323f 63b2 9dbe f9e5 e9be
00000090: 5b00 7b3e 3af1 b53e 9a6b 2b3f 0441 fa3e
000000a0: 3e1c b5be 3652 253f 4bd0 833e 8f09 e93c
000000b0: 3613 84be 2a15 013f bf7a de3e bd00 963e
000000c0: e9a7 9c3e 2230 dabe f32b 20bf bc09 063f
000000d0: e260 e63e a3aa 8d3e af58 bd3e a8be cabd
000000e0: 8af6 0e3f 090f 0c3f 344c 8d3e d827 f8be
000000f0: 9274 38be 69eb 05be 3175 32bf f9ea cd3d

in_proj.bias f4 [32]
0.25440824 -0.5654685 -0.056130905 -0.46898922 0.65011007 0.4748518 -0.5671966 -0.6063546
-0.65639305 -0.5035354 0.07883289 0.030893678 -0.3460416 0.56535345 -0.6802809 0.007247535
-0.13002096 0.35360223 -0.41022757 0.41361296 -0.55821204 0.4861169 -0.47306126 -0.5233093
0.2043411 0.1508639 0.58536726 0.59299934 -0.69434553 0.20915529 0.0041526323 -0.029479614
00000000: cc41 823e 8bc2 10bf 85e9 65bd 5b1f f0be
00000010: 9d6d 263f c61f f33e cc33 11bf 0e3a 1bbf
00000020: 6009 28bf b2e7 00bf 2373 a13d bd14 fd3c
00000030: 5d2c b1be 01bb 103f e426 2ebf bb7c ed3b
00000040: 3724 05be 5a0b b53e 5909 d2be 14c5 d33e
00000050: fce6 0ebf 50e4 f83e 1635 f2be 99f7 05bf
00000060: cb3e 513e 117c 1a3e a1da 153f cece 173f
00000070: a1c0 31bf ce2c 563e ce12 883b 3b7f f1bc

encoder.layers.0.self_attn.in_proj_weight f4 [96, 32]
0.012791531 0.009548957 0.1930094 0.1042608 0.004464751 -0.012039753 0.101343036 -0.0026539813
0.052147195 0.099613324 -0.21777363 0.2025473 -0.0038543323 -0.11351122 0.19687599 0.047158882
0.1810617 0.13335638 0.17511523 0.21392235 0.15351072 -0.10785596 0.083042495 -0.071197115
0.14618617 -0.11085974 -0.050241828 0.18571185 -0.17747177 0.019657966 0.10305548 0.17535375
-0.18718804 0.08464071 0.007160802 -0.20422356 0.22039878 -0.14394592 -0.19999698 -0.098750226
0.0846758 0.070618 0.2268097 -0.18483658 0.20354183 -0.03311891 0.15955299 0.050980367
0.16748868 0.16642696 0.0077784006 -0.21413122 -0.09976775 -0.21258456 0.17603178 -0.15146875
0.11294846 -0.055080976 0.20945652 -0.09656317 0.10347742 0.03672855 0.015671495 0.11265581
0.1616928 0.01837801 0.196123 -0.011078411 0.09323578 0.08939246 -0.20993012 -0.19128832
-0.12394854 0.13347319 0.10982797 0.058746547 -0.052005872 0.094431445 -0.19128439 0.06626649
0.023450946 0.21624842 0.05861543 -0.217463 -0.016088959 0.039526135 -0.060749773 -0.18479162
0.01547428 0.061338715 0.004390487 0.13707215 0.1022271 -0.10823914 0.11181348 -0.13098621
-0.018810062 0.04121699 0.1271495 0.02382945 0.17621078 0.14505808 0.031146972 0.059218604
0.20224725 0.058137227 0.19249652 0.0075463965 -0.052372802 0.19702017 0.22270367 -0.11257381
-0.10740152 0.07358942 -0.03132126 -0.069199406 0.16514231 -0.2147046 0.023490615 0.20949149
0.074902885 -0.19806123 0.1430449 -0.1572608 0.18524204 -0.1458909 0.05803977 0.053420816
0.14135385 -0.18611403 0.004731022 0.12582524 0.022170108 0.20368016 0.21537013 -0.01371681
-0.041332904 -0.101228826 -0.19834873 -0.15420538 0.18664764 -0.06418615 -0.1880311 0.16549353
0.13433771 0.04968014 -0.053790998 0.07976938 0.1882704 0.14183941 -0.018019376 -0.0889336
0.011631759 -0.08149677 -0.11460197 0.17642365 0.08983132 0.082943104 0.17161101 0.124229416
0.117172815 0.0010054018 -0.09384993 -0.13418679 -0.14887683 0.05452919 0.21031542 -0.12766625
0.19422148 -0.199543 0.033419378 -0.053503036 -0.20515208 0.081503615 -0.013202523 -0.14020087
0.12416251 -0.14877188 -0.2121607 0.05897789 -0.09368313 -0.017547186 0.11231694 0.03787739
-0.17755194 0.06532026 -0.07556437 -0.1994302 0.08734177 -0.17692332 0.044667825 0.06962501
-0.0898493 0.13562064 0.16173539 -0.11934831 -0.08020668 0.02978096 0.009387281 0.031084869
0.09218564 0.12376489 -0.22839808 0.2154255 -0.07240343 0.20913374 -0.1333299 0.19515423
-0.06303063 0.12855844 -0.13084064 -0.07079322 0.055805895 0.040107936 -0.17560655 -0.06425075
-0.18301336 -0.050144322 -0.11997139 0.18363327 -0.004455966 0.14340585 -0.008347307 -0.041734643
-0.10273502 0.00413801 -0.17754929 0.15968187 0.03949607 -0.16043578 0.11254639 -0.13147652
0.067274384 0.0075607174 -0.004034535 0.20597532 -0.011088289 0.09260723 -0.055598572 0.10827785
0.18626022 0.12271979 0.035853766 0.21283223 0.058044337 0.19835852 0.1345977 -0.13947305
-0.025521656 0.093817055 -0.013681029 0.03954778 -0.06881544 -0.11043194 -0.14636144 0.018998006
00000000: 9293 513c 3b73 1c3c 42a4 453e b086 d53d
00000010: 0c4d 923b 6242 45bc f08c cf3d 6bee 2dbb
00000020: 4c98 553d 1202 cc3d 0d00 5fbe 8f68 4f3e
00000030: f798 7cbb 9278 e8bd dc99 493e ac29 413d
00000040: 3d68 393e 938e 083e 6851 333e 760e 5b3e
00000050: ea31 1d3e 96e3 dcbd 2f12 aa3d cbcf 91bd
00000060: d4b1 153e 6e0a e3bd 60ca 4dbd 3f2b 3e3e
00000070: 29bb 35be be09 a13c c00e d33d ef8f 333e
00000080: 39ae 3fbe 1c58 ad3d 29a5 ea3b fb1f 51be
00000090: 38b0 613e 8f66 13be 02cc 4cbe 8f3d cabd
000000a0: 816a ad3d 2ca0 903d cd40 683e cd45 3dbe
000000b0: 456d 503e b2a7 07bd dc61 233e cad0 503d
000000c0: 2782 2b3e d46b 2a3e f4e1 fe3b 3745 5bbe
000000d0: 0953 ccbd c4af 59be ad41 343e a01a 1bbe
000000e0: 8651 e73d 979c 61bd c57b 563e e9c2 c5bd
000000f0: f8eb d33d ad70 163d 8261 803c 17b8 e63d
00000100: cc92 253e 7b8d 963c 78d4 483e 3982 35bc
00000110: 67f2 be3d 6513 b73d ecf7 56be 16e1 43be
00000120: bbd8 fdbd 32ad 083e 7ded e03d 38a0 703d
00000130: 1c04 55bd 4665 c13d 0ee0 43be bab6 873d
00000140: 331c c03c 3a70 5d3e bc16 703d 9fae 5ebe
00000150: fecc 83bc 28e6 213d c1d4 78bd 043a 3dbe
00000160: d687 7d3c 4e3e 7b3d 13de 8f3b a45c 0c3e
00000170: 715c d13d 7bac ddbd 77fe e43d 4021 06be
00000180: 8f17 9abc 26d3 283d 7b33 023e fb35 c33c
00000190: 9970 343e 1b8a 143e ef27 ff3c 358f 723d
000001a0: e719 4f3e 4d21 6e3d cf1d 453e c347 f73b
000001b0: dd84 56bd a8bf 493e 6e0c 643e 198d e6bd
000001c0: 54f5 dbbd 0db6 963d b94a 00bd 6bb8 8dbd
000001d0: 111b 293e 86db 5bbe 646f c03c f084 563e
000001e0: af66 993d 90d0 4abe 5d7a 123e fa08 21be
000001f0: 17b0 3d3e 6d64 15be 1cbb 6d3d c9cf 5a3d
00000200: 10bf 103e ad94 3ebe b006 9b3b 55d8 003e
00000210: 169e b53c 8891 503e fd89 5c3e 79bc 60bc
00000220: b14c 29bd 0f51 cfbd ee1b 4bbe 04e8 1dbe
00000230: 8f20 3f3e 0774 83bd 3a8b 40be 2377 293e
00000240: d38f 093e 677d 4b3d f353 5cbd 215e a33d
00000250: f5c9 403e 5a3e 113e 5f9d 93bc d222 b6bd
00000260: 2293 3e3c c7e7 a6bd 70b4 eabd 67a8 343e
00000270: 7cf9 b73d 13de a93d ccba 2f3e fe6b fe3d
00000280: 4df8 ef3d b0c7 833a 6434 c0bd 4368 09be
00000290: 2b73 18be 005a 5f3d ed5c 573e f1ba 02be
000002a0: ffe1 463e 0055 4cbe c2e2 083d 0026 5bbd
000002b0: 6313 52be 5eeb a63d 654f 58bc d190 0fbe
000002c0: ea48 fe3d a857 18be a840 59be cd92 713d
000002d0: f1dc bfbd 1ebf 8fbc 6d06 e63d 5225 1b3d
000002e0: 2dd0 35be a1c6 853d 7ec1 9abd 6e37 4cbe
000002f0: 3ee0 b23d 632b 35be 9cf5 363d 8f97 8e3d
00000300: e902 b8bd 23e0 0a3e f69d 253e e36c f4bd
00000310: 6643 a4bd 33f7 f33c 1ccd 193c b2a5 fe3c
00000320: d3cb bc3d 7278 fd3d 30e1 69be 8198 5c3e
00000330: 4048 94bd 2827 563e a287 08be 83d6 473e
00000340: 3416 81bd d3a4 033e 17fb 05be 09fc 90bd
00000350: b994 643d 3848 243d 34d2 33be e695 83bd
00000360: db67 3bbe 2264 4dbd 8fb3 f5bd 5c0a 3c3e
00000370: 5a03 92bb fcd8 123e 25c3 08bc f2f1 2abd
00000380: bd66 d2bd 2598 873b 7bcf 35be a583 233e
00000390: a2c6 213d 4749 24be b97e e63d c8a1 06be
000003a0: 27c7 893d e5bf f73b 2234 84bb 32eb 523e
000003b0: a8ab 35bc dca8 bd3d 54bb 63bd c7c0 dd3d
000003c0: 00bb 3e3e 8354 fb3d 66db 123d b1f0 593e
000003d0: e6bf 6d3d 7f1e 4b3e fbd3 093e 06d2 0ebe
000003e0: cb12 d1bc 2823 c03d 6526 60bc dafc 213d
000003f0: 1cef 8cbd 242a e2bd c6df 15be b5a1 9b3c
