saved_agents/dm_walker_d_50k.pth (torch, 119893 bytes, 26 tensors)

actor_logstd f4 [1, 6]
00000000: d888 21bf d10e 26bf bccf 21bf 4ed6 25bf
00000010: bdb5 1fbf ad97 28bf
-0.6309943 -0.6486636 -0.632076 -0.6478013 -0.62386686 -0.6585644

critic.0.weight f4 [64, 26]
00000000: 2644 e7bc d45a 323d dcb5 943d 61b8 8b3b
00000010: 8c68 b43e a25a 00be 3012 813d c710 473d
00000020: f27c 9dbc b45a af3d e272 b63e 4d7e 2dbd
00000030: 78f1 6e3e d2e5 64be 9209 a03e 8668 aa3d
00000040: ec3c f63d 6e58 713e 3382 773e b521 10be
00000050: 6d5f f6be f9f8 933c 97a9 15be 112d 293d
00000060: bba1 803e aa27 923e 06fb 173e c733 bdbc
00000070: 8657 b03d 6a95 7bbe d868 7fbd 1ecf d43d
00000080: 7150 e2bd ec8b 7fbd 4d53 873c 24ff 913e
00000090: 4c97 71be 0e51 80be 2171 933e 013e 813d
000000a0: 02ff 9a3d 78e8 06be 08e1 053f f4e7 823e
000000b0: 8f71 61be 5911 3ebd 12dd 52bd d5b3 9bbe
000000c0: 43ca e0bd 92bb b83d 2fe9 f83e e4dd 183d
000000d0: 9828 d03e c07d c1be f8a3 ee3e 3ff8 753b
000000e0: f7e4 223f a0ee a8be ed91 be3e 1a44 0cbf
000000f0: 10af 323e 64e4 26be 178f 543f 49a6 4abe
00000100: 1993 c03e d761 e2be 165d 9fbd 0679 03be
00000110: dbb1 b43e 0ce7 773e d5b4 e6bd a121 0cbd
00000120: ff77 71bc 3e5d 77bd d6e1 a5bc 4c9a 92b9
00000130: e1d8 403e 0c01 1a3f ae2f dd3e 91d5 31bb
00000140: 3bce b73e 7477 3bbe 776d ad3e f2af 92bc
00000150: 29d4 0a3e a30d 033f dbca e53d 45ab 02be
00000160: 3c33 1bbe d0f7 903e ca30 6f3e 2b4d 2bbe
00000170: a583 4bbe ae05 94bd 84f8 233f beba b53e
00000180: 0e2e a4bc 1cd7 0abe f1bf 23bd 7627 543c
00000190: ffc1 debc e2a1 2cbe 3bc6 ad3d 2f9d 28be
000001a0: 41cf 143e 7ef2 10bf 2591 e33e 277d 30be
000001b0: 3bc5 fabd f64c fabc 6a93 143e 6af2 093e
000001c0: 1582 063e a2f2 8f3d 939e 843e 20cf 7fbe
000001d0: a983 23be 417a 95be 8ee1 3f3c c5c3 3abe
000001e0: ad51 9a3e c9eb debd 86d0 233e 48de 6f3e
000001f0: c67a 34bc ab3a 053e 4d80 16bd 6336 40bb
00000200: 38ad bf3d 7b5a 8b3e 5242 e1be c448 843e
00000210: ad6d d23d cbd0 2d3e ec2f 9d3d 09b0 3c3d
00000220: 9308 3a3e 5750 ce3d 64d6 d53d 4a5e 81be
00000230: 57ea 38be 2ad2 9ebc c1a6 7abe 2e4f 79bd
00000240: ee8d 1b3e 86ac 44be 09ad 193e 9413 0d3d
00000250: 2f7d 2dbc 7fa7 7bbd b3af 4e3c 5280 8dbb
00000260: 52d3 753d e165 a73c 7a0a ffbe 19de 08bf
00000270: d2be 82be dc1a 873e 1cd2 a43d d1ca ae3d
00000280: 90dd 2d3e 749c afbe fada a33b 1f4f a73d
00000290: 1ced 98bd f93c dfbd 6ea4 873c 064f ec3d
000002a0: 5a0f 0d3e 56f7 aa3e d463 0abe 93b9 31bc
000002b0: b840 5b3e e422 1f3d e0db e0bc ccd5 46bd
000002c0: 93b5 e23b 07cf 1bbd fe9c 673c 7735 403c
000002d0: 3143 7dbe 857f 40bf 0e27 87be 95f0 3a3e
000002e0: 17c5 0a3d f8d7 233d 9455 dcbd b22c 903e
000002f0: 03c0 d93d 7893 3fbe 8f39 5ebe 5bbe 5fbd
00000300: 4a2a 54be 2bf7 b4bd 88bc 5abd f00d 28be
00000310: 3b1e 9cbd cca7 a7bd 87aa 81be 5bef b23c
00000320: ce38 e039 5dde db3c 361c 9e3c 41f8 993c
00000330: 060a b33d 274c c73b 0894 5cbe 4afe e7be
00000340: b8ff ccbe 2a9a a43e 1d2f 14be 6f3c 8cbe
00000350: bcb3 1dbe e725 e6be fef3 3b3c 7441 f63c
00000360: e7b0 2b3e a545 133e acf3 f3bd 290e 3fbe
00000370: fcc9 aa3d 7726 4cbd 6187 7c3e 3f6b 7f3d
00000380: d56a 6ebd 8bf1 ed3d 97a9 2fbe 2db6 c1bd
00000390: 672e 35bc 55c4 183d e38b 6d3d 6303 7a3b
000003a0: 532a 28bf 97d5 84be 1505 09be de08 1dbd
000003b0: b564 86bc 172f 253d 3c27 94be f15d 6abe
000003c0: 2bbe 95bd c591 43be be5c 9b3c 1116 d7be
000003d0: 6b99 033e df61 4e3d 8f14 c3be dde7 10be
000003e0: bc49 423d 453f c2be 66dc 31bf 1e0a 853c
000003f0: e88c 143d 6809 1abc 2c73 63bc 6ce9 08be
-0.028230738 0.04354365 0.072612494 0.004263923 0.35236013 -0.12534574 0.06302297 0.048599984
-0.019224618 0.08562222 0.35634524 -0.042356778 0.233343 -0.22353294 0.31257302 0.083207175
0.12023339 0.2356889 0.24170761 -0.14075358 -0.4811968 0.018063055 -0.14615475 0.041302744
0.2512339 0.28545886 0.14841852 -0.023095978 0.08610444 -0.24568716 -0.062355846 0.10391067
-0.11050499 -0.0623893 0.016519213 0.2851497 -0.23592871 -0.2506184 0.28797248 0.063106544
0.0756817 -0.13174617 0.52296495 0.2556759 -0.22015975 -0.046403263 -0.05148036 -0.30410638
-0.10976078 0.09020151 0.48615405 0.037320986 0.4065597 -0.37791252 0.46609473 0.0037532
0.6363062 -0.32994556 0.37220708 -0.54791415 0.17449594 -0.16298062 0.8303084 -0.19789995
0.37612227 -0.4421527 -0.077814266 -0.12839136 0.35291943 0.24209231 -0.1126496 -0.03421176
-0.014738082 -0.060391657 -0.020249289 -0.0002796225 0.18832733 0.6015785 0.4320044 -0.0027135352
0.3589953 -0.18307287 0.33872578 -0.017906163 0.13557495 0.51192683 0.11220332 -0.12760647
-0.15156263 0.28314066 0.23358455 -0.16728656 -0.19874437 -0.07227646 0.6405108 0.35494035
-0.020041492 -0.1355862 -0.03997797 0.012948861 -0.027192114 -0.16858628 0.08485075 -0.16466211
0.14532186 -0.56620014 0.44446674 -0.17235242 -0.1224465 -0.030554276 0.14509359 0.1347138
0.1313556 0.070287004 0.25902233 -0.24981356 -0.15968193 -0.29194835 0.011711491 -0.18238743
0.3014044 -0.10884816 0.15997514 0.23424637 -0.0110156 0.13010661 -0.03674345 -0.0029329292
0.09359211 0.2721747 -0.4399591 0.25836766 0.10274825 0.1697418 0.07675156 0.046066318
0.18167333 0.10073917 0.104412824 -0.2526725 -0.18058144 -0.019387323 -0.24477674 -0.060866527
0.1519086 -0.19206437 0.15007414 0.0344425 -0.010588928 -0.061439034 0.012615132 -0.0043182755
0.060015984 0.020434322 -0.4981268 -0.53463894 -0.2553621 0.2638768 0.08047888 0.08534778
0.1697905 -0.34299052 0.0050004693 0.08169388 -0.074671 -0.109003015 0.016557898 0.1153851
0.13775387 0.33391827 -0.13514644 -0.010847467 0.21411407 0.038851634 -0.027448595 -0.048543736
0.006918618 -0.038039234 0.014136551 0.011731497 -0.24732663 -0.7519458 -0.26396984 0.18255837
0.033879366 0.040000886 -0.1075851 0.281591 0.106323265 -0.18708599 -0.21701644 -0.054624896
-0.20719257 -0.08836206 -0.053402454 -0.16411567 -0.076229535 -0.081863016 -0.25325415 0.02184265
0.00042766932 0.02683943 0.019300561 0.018795134 0.08742146 0.006082076 -0.21540844 -0.45311195
-0.40038848 0.32148868 -0.14471097 -0.27389857 -0.15400594 -0.44950792 0.0114717465 0.030060507
0.16766702 0.14382036 -0.11911711 -0.18657745 0.08339307 -0.04984137 0.24661018 0.062358137
-0.05820735 0.11618336 -0.17154537 -0.094585754 -0.011058426 0.03729661 0.057994734 0.0038148991
-0.6568958 -0.25944206 -0.13380845 -0.038338535 -0.016405443 0.04032811 -0.28936183 -0.22887398
-0.07311662 -0.19098575 0.018965121 -0.42009023 0.12851493 0.050386306 -0.38101622 -0.14150949
0.0474336 -0.37938896 -0.69476926 0.016240176 0.03626719 -0.009401657 -0.01388244 -0.13370293

critic.0.bias f4 [64]
00000000: e544 323e 9c5e 973d e769 093e 0dbf 8b3d
00000010: 452b 833e 20ca 02bf d723 debe 26b4 a5be
00000020: ffbb dcbe 8b4a 933e a344 863e 4659 e0bd
00000030: 71e6 c6be c663 81be fbed ae3e 14fd 95be
00000040: 619a 343d 0828 843e a57d 723e bec3 61bd
00000050: 0aae 503c e72e be3e 8a54 cebd 662f f43e
00000060: d07f 5bbe d169 6e3e eaea e6be 88e0 dc3e
00000070: d9c1 e73e 33a8 0f3e ee4f a1be 7ca2 d13d
00000080: 46ef fc3e 6548 963e b947 97be a14f 813e
00000090: 5184 f03e 24b2 c9bd ccdf 683d 4df0 95be
000000a0: af63 36be bb75 4b3e 3d1c f8be e533 b63e
000000b0: aba5 8dbd 46e4 a43e f459 3d3e 5318 f1be
000000c0: c1dd c7be c8ed 1d3e d7f5 923c b5b2 b1be
000000d0: 6c38 e8be cd5a e03e bd8a 8c3e 6a61 f63e
000000e0: b4c6 eabe 9814 85be 58ab 393d 0332 12be
000000f0: 8f04 e0be e8e3 b93e 09d7 453e 4cea a23e
0.17409094 0.07391092 0.13419305 0.068235494 0.2561895 -0.5108967 -0.4338672 -0.32364005
-0.4311218 0.2876781 0.2622424 -0.109545276 -0.38847688 -0.25271434 0.3416594 -0.29294646
0.04409254 0.2581179 0.23680742 -0.055118315 0.012736807 0.3714516 -0.10074718 0.47692412
-0.21435475 0.23282553 -0.451011 0.43140054 0.45265082 0.14029007 -0.31506294 0.102360696
0.494013 0.29352108 -0.29546908 0.25256065 0.4697595 -0.09848431 0.056854054 -0.29284897
-0.17811464 0.1986913 -0.48459044 0.35586467 -0.06916364 0.3220541 0.18491346 -0.4708887
-0.39036372 0.15422738 0.017939491 -0.34706655 -0.45355546 0.43819275 0.274496 0.48121196
-0.45854723 -0.25992274 0.04532942 -0.1427689 -0.43753478 0.3630669 0.1932031 0.3181938

critic.2.weight f4 [64, 64]
00000000: 1b13 1dbd 4cad b6bd e7ae 1bbf de21 dcbd
00000010: 0e92 a0bb 3a57 05be 2a94 90bd b43f 963e
00000020: c4aa d7bd 5c0b b03e 5bdf bdbe 9963 1b3e
00000030: 7542 1cbe aa39 943e 0389 093d 3faf 013d
00000040: a418 e33d f6a4 213d a601 2a3e ff9f 79be
00000050: 13ef f33b 0eac 9b3e 42a5 723e b807 373d
00000060: 36e6 633c 4005 22be 998c ccbe 73e6 dd3e
00000070: a4b1 0f3e b59e aabd 2c0f 92be 4bf1 07be
00000080: e229 0b3f 748e 9cbe 70e8 d2bd 1e13 37bd
00000090: 2579 e23e 84cb 4c3d 0b9d f33d 9953 2fbe
000000a0: b699 b2bc 4f95 663e 380d dd3d c573 ffbe
000000b0: b1fa 023e b7d4 4d3d 0ead 85bd af4f e2be
000000c0: 99a6 1d3e 2a62 41bd 86be fa3d 13a0 b93c
000000d0: 301d 26be 4c43 fe3e 081d 14bf 806b 093f
000000e0: e22f 9abd eaa9 d33d de83 aabd fcbc 08be
000000f0: 75ac 683e b249 833e b968 053e 2819 a63d
00000100: 4f0c 34bc 4841 983d b29b 273f 241e 71be
00000110: 2295 b3bc 7766 8c3e 52a0 133e 62de 273d
00000120: 28ff ec3d d88a 623e e564 b43e 2685 1f3d
00000130: 7b39 69bd 3682 96bc d33e a2bd bac7 093e
00000140: a496 22be 1af1 f03e 6eeb debd 3cf2 953c
00000150: c4df 5bbe 30b1 babe 5e2c 873c 2848 8dbe
00000160: 2cce 903e 8f47 003e 389b b93e 9950 6e3c
00000170: 63ae f8bd c10e c2bd 8a0b 4dba 74a0 0d3e
00000180: 955c 3e3d dae9 4f3e a224 d53c 73f1 b53d
00000190: 6e1b 2bbf 553e 86bc f682 d3bd c783 f73d
000001a0: 90a3 33be ccb9 97bd 2039 6a3e 200d d13e
000001b0: dd4d 2e3d 4ff0 643d 3082 19be 1b93 6b3d
000001c0: 8c86 dabe bf9e 06bd 9feb 993d 63b1 2d3e
000001d0: 54d6 e73e cb94 60be d69c 873e 454d 02bf
000001e0: f12f 55be b98f 62bd f166 e3bd 6265 213e
000001f0: 5a37 81be 0284 c3bc 5f40 e53e 801b 73be
00000200: 1540 da3a 9636 19be 513f 87bd aae0 2d3e
00000210: 2df4 34bd 17a9 62be 20fd 39be d961 53be
00000220: a997 75bd c8da 91be e1a2 a53e 90e2 34be
00000230: 405a 99be 1df1 83be cc42 ff3d a892 713d
00000240: 4422 17be 94c1 f73d 588f 2f3e bd2c 9a3c
00000250: 09c0 f4bd 4fe9 883e 76d7 85be 1348 a73e
00000260: f20d 8abd eb12 81bd b619 86be c8a4 213e
00000270: 31a1 aa3e 22f5 5e3e c08b b1be ed66 d93a
00000280: c64b 123f 1d90 da3d 34f1 07bc 6000 393e
00000290: ac86 e33c 3444 f83d 49d7 67bd 4a53 6abe
000002a0: b79b acbe f76a a8bd 6a1c d9bd e36a 4d3e
000002b0: 757f f1bd 4cdb 273e e5c1 153e 616b 00bf
000002c0: 4330 56be 682c 9dbc 8aae 373e 870b 3c3d
000002d0: 9a39 b5be a715 d43d 1ef5 d43d 46f7 5cbd
000002e0: bb48 f0be 495f 543c 62d6 823e ce84 1f3d
000002f0: 1b2e 9cbe dbf7 4cbe dc4c 0a3e 0d87 f23d
00000300: 5fa6 853d c5d9 263d ed62 1cbd 56b0 563e
00000310: 7eaa 13bd f1b0 b2be 1244 1abf 9893 16be
00000320: 4fab 8dbe cd5d 2fbc 9fe3 60bd aeaf 5abd
00000330: b570 a5be 805f f13d f310 393e 0496 37be
00000340: 9046 fcbc 492d cb3d 8baa b03d e59c 393e
00000350: ce68 383e 20fc 8c3d 390f a93d ecda 8a3e
00000360: ce96 6abe 5d8d 05be 2f49 01bf 10cd 963e
00000370: 5aee 3f3d b3a2 343e 4ff2 663c 46b8 263d
00000380: fb90 293f 1951 2d3a 07a0 df3a bb01 a3bd
00000390: 8611 9a3d 4029 b33d b2f9 a93d 53ac e63d
000003a0: 3ff3 81be 8533 6e3d 3e44 afbe be7c b73e
000003b0: 9993 1f3e 47a7 b83e c801 aebd c23b 4bbe
000003c0: b9a8 d6be 6b15 103e 0113 3f3e 01e3 33bb
000003d0: 640d 4bbe 52b6 243e e3de 143f 9744 c13e
000003e0: 75bf cebe 5604 6b3d b6a6 703c beec 0b3e
000003f0: 807c f9be 6aa0 2cbe 875b ea3c 5250 163e
-0.0383483 -0.089197725 -0.60813755 -0.10748647 -0.0049002236 -0.13021556 -0.0705951 0.29345477
-0.10530618 0.34383667 -0.3708447 0.15174712 -0.15259726 0.28950244 0.03357793 0.03166127
0.11088684 0.03946396 0.16602191 -0.2437744 0.0074442714 0.30404705 0.23695853 0.044685096
0.013909867 -0.15822315 -0.39951017 0.4333988 0.14032608 -0.08331052 -0.285272 -0.1327564
0.54360783 -0.30577433 -0.1029824 -0.044695966 0.4423305 0.049998775 0.11895188 -0.17121734
-0.02180181 0.22517894 0.10793537 -0.49893013 0.12790944 0.05025169 -0.06527148 -0.4420142
0.15395583 -0.047212757 0.12243371 0.022659337 -0.16222072 0.49660718 -0.578568 0.53679657
-0.07528664 0.10335143 -0.08325933 -0.13353342 0.22722037 0.25642163 0.1302823 0.08110267
-0.010989263 0.074343264 0.6547195 -0.23546654 -0.021921698 0.27421924 0.14416626 0.040983565
0.11572105 0.22123277 0.35233226 0.03894534 -0.056939583 -0.018372636 -0.07922139 0.13455096
-0.15877777 0.47058946 -0.108847484 0.018303983 -0.21472079 -0.36463308 0.016500648 -0.27594113
0.28282297 0.12527297 0.36251235 0.014545583 -0.121426366 -0.0947547 -0.0007821849 0.1383074
0.04647501 0.20304051 0.026018444 0.088839434 -0.6683873 -0.016387144 -0.10327713 0.120856814
-0.17542863 -0.07408485 0.22873354 0.40830326 0.042554725 0.05589324 -0.14991069 0.057513338
-0.42680776 -0.032866236 0.07515644 0.16962199 0.45280707 -0.2193176 0.26486844 -0.50899154
-0.2081907 -0.055312846 -0.11103619 0.1576133 -0.25237542 -0.023866657 0.44775674 -0.23740959
0.0016651178 -0.14962229 -0.066038735 0.16980234 -0.044178177 -0.22134815 -0.18162966 -0.20642795
-0.059959088 -0.2848723 0.3235083 -0.17664552 -0.29951668 -0.25769892 0.12463912 0.058977753
-0.14759165 0.12097469 0.17144525 0.018820161 -0.1195069 0.267405 -0.26140946 0.32672176
-0.06740941 -0.063024364 -0.2619149 0.15785515 0.33326104 0.21773198 -0.34676933 0.001658646
0.5714687 0.10672019 -0.008297253 0.1806655 0.027774177 0.12122384 -0.056601796 -0.22883335
-0.3371255 -0.08223527 -0.10601123 0.20060305 -0.117918886 0.16392249 0.14624746 -0.5016385
-0.20916848 -0.019186214 0.17937675 0.04590943 -0.3539551 0.10355692 0.10398315 -0.053946756
-0.4693049 0.012962171 0.25554186 0.03894501 -0.30503926 -0.20016424 0.13505882 0.11842165
0.065258734 0.040735025 -0.03818028 0.20965704 -0.036051266 -0.3490062 -0.6026012 -0.1470474
-0.2766976 -0.010703516 -0.054904576 -0.053390197 -0.3231255 0.11785793 0.18072872 -0.1792832
-0.030795366 0.09920747 0.086262785 0.18126257 0.1800873 0.068840265 0.082548566 0.2712015
-0.2290909 -0.13042207 -0.50502294 0.29453325 0.04685817 0.1764019 0.014095857 0.04070308
0.6623685 0.0006611511 0.0017061242 -0.079593144 0.075228736 0.08748102 0.08299579 0.11263337
-0.25380895 0.0581546 -0.34231752 0.35837358 0.15583648 0.36065122 -0.084964335 -0.19847015
-0.419256 0.1407067 0.18659593 -0.0027448537 -0.19829327 0.16085175 0.581526 0.37747642
-0.40380445 0.057377182 0.0146881845 0.13664529 -0.48727798 -0.16858068 0.028608097 0.14679077

critic.2.bias f4 [64]
00000000: 88b4 73bc d07f 55bd 624b 813e 66b8 3d3e
00000010: c808 8e3e 6fa7 943e 83f7 773e 759f 5d3c
00000020: 8663 5a3e 6f10 8c3e 8739 3a3e 27f3 c3be
00000030: 1d06 123e 964c 7f3e 3e69 87be 801d 97be
00000040: 239e 6b3e d174 6b3e 6790 bc3e 523d a8be
00000050: 3283 963e d05c bebe 3165 68be 9036 723e
00000060: 8c08 8cbe 7f1d 963c e8e3 7abe 3554 b0be
00000070: ffa2 86be d202 6d3e 5a1c a03e b211 9fbe
00000080: bc49 6fbe 3fa7 90be 15ae 3abe 71b0 9abe
00000090: 1323 803e 3865 9abe 4689 8dbe 990e 82be
000000a0: 469e 59be 6fb0 9bbe cbd5 73be 661f 80be
000000b0: f802 973e fa9e 86be 7ced 843e ccc6 bfbe
000000c0: 2928 213e 42b6 7c3e 1429 a5be 3e14 67be
000000d0: a9b0 9ebe 43b3 893e f433 67be fd07 d63d
000000e0: ad26 703e 4538 863e 7fbf 683e 18ed d0be
000000f0: 8d62 75be c923 7b3e 1ce4 3b3e b611 553e
-0.014874585 -0.052123845 0.25252825 0.18527374 0.27741075 0.29033992 0.24215512 0.013526787
0.21327028 0.27356288 0.18186007 -0.38271448 0.14260145 0.24931559 -0.2644748 -0.29514694
0.23009543 0.2299378 0.3682892 -0.32859284 0.2939697 -0.37180185 -0.22694851 0.23653626
-0.2735027 0.018324612 -0.24501002 -0.34439245 -0.2629623 0.23145607 0.3127163 -0.31068188
-0.23367971 -0.282526 -0.1823047 -0.3021274 0.2502676 -0.3015535 -0.27643794 -0.25401762
-0.21251783 -0.30408046 -0.23812024 -0.25023955 0.29494452 -0.26293164 0.25962436 -0.37456357
0.15737976 0.24678901 -0.32257903 -0.22566316 -0.30994156 0.26894578 -0.22578412 0.104507424
0.23452254 0.26214805 0.227293 -0.40805888 -0.23963375 0.2452537 0.18348736 0.20807537

critic.4.weight f4 [2, 64]
00000000: 06be 7abf b385 803f 8031 913e 16e2 343e
00000010: 826d 023d d193 a0bd 0181 b23e 7a4e 9a3f
00000020: 2cfa f53e cbdd 9d3e c490 b33e 7fd1 fbbe
00000030: e664 8f3f 9b65 7f3e 81e5 35bf d815 80be
00000040: e8b5 7fbf 4f34 3e3f 21f6 c53e 43a8 0d3e
00000050: 37df 9c3e 15a9 a0bd 0ce0 0dbf 523b bf3e
00000060: 9775 cfbe b081 783f ba0b 10bf bbee 233e
00000070: a1b9 ddbe c2e3 813e db6f 15be 2491 91be
00000080: eac2 88be 2264 48be ea23 afbe b40f 56be
00000090: ceff 8c3e 052b 263f fc0b c5be 6043 34bf
000000a0: 6f7d ecbe de8b 98be 7ff1 9cbe 6455 e1be
000000b0: 7bd4 943e b1e2 99be dc0f 853e 24ca 08be
000000c0: 20b2 f13e 96f3 c43e 0129 c2be 5be9 96be
000000d0: 960d 41be 277a b53e 3d5d 7abe 111f 883f
000000e0: 5f30 b73e 7f9e 9d3e dc57 f33e 008a 253e
000000f0: 0670 ebbe 463c a53e d9d4 e43e 4de4 4a3f
00000100: aa51 ec3e 4e7b 00be 77c2 6d3f 2f40 743f
00000110: f29b 8f3f d9fe 843f 6822 803f e39f 14be
00000120: 2955 853f 7ca9 6f3f faa7 9b3f 9c8e 57bf
00000130: 1ddc 283d 9f6a 743f 348e 34bf fd65 76bf
00000140: 6769 2d3f afc5 5c3f 6679 4d3f f6ac 85bf
00000150: b41c 743f 99ba 82bf 66ed 78bf 06f0 823f
00000160: f311 6bbf 2703 efbe b6c7 73bf cb1a 89bf
00000170: 5dd7 6dbf c907 913f 09bb 813f efe9 72bf
00000180: e1d8 90bf 8845 85bf b12e 9cbf 2074 82bf
00000190: 1098 863f 0f13 74bf 3507 7fbf 904c 69bf
000001a0: c7a7 86bf 489b 81bf fd2c 82bf c9a2 84bf
000001b0: 5861 753f aa19 80bf 6bd5 863f 4868 64bf
000001c0: abc6 9c3f b07c 803f cf75 6bbf 1411 8abf
000001d0: 46ca 81bf 4f45 813f cc94 89bf 725a 5b3e
000001e0: 20d1 803f 2378 7f3f 3323 793f a034 73bf
000001f0: 9259 84bf ef6a 8a3f 4d5c 933f 4c9a 3f3f
-0.979462 1.0040802 0.28358078 0.1766437 0.031842716 -0.07840694 0.34864047 1.2055199
0.48042428 0.30833277 0.35071385 -0.4918327 1.1202667 0.24941103 -0.7105332 -0.25016665
-0.9988694 0.74298567 0.38664344 0.13833718 0.3063905 -0.0784475 -0.55419993 0.37349945
-0.405194 0.9707289 -0.56267893 0.16009037 -0.43305686 0.25369078 -0.1459345 -0.28431046
-0.26711208 -0.19569448 -0.34207088 -0.20904428 0.27538913 0.6490939 -0.38485706 -0.70415306
-0.46189448 -0.2979421 -0.30652997 -0.4401046 0.2906836 -0.30055764 0.25988662 -0.1335836
0.4720621 0.3846709 -0.37921908 -0.2947491 -0.18852839 0.35444757 -0.2444963 1.0634481
0.35779092 0.30784985 0.4752797 0.16165924 -0.45983905 0.32272547 0.4469364 0.7925461
0.46156055 -0.12547037 0.92874855 0.95410436 1.1219466 1.0390273 1.00105 -0.14514117
1.0416614 0.9361799 1.2160637 -0.8420198 0.04122554 0.9547519 -0.70529485 -0.9624937
0.67738956 0.8623914 0.80263364 -1.0443408 0.953563 -1.0213195 -0.9723724 1.0229499
-0.91824263 -0.46682093 -0.9522661 -1.0711302 -0.92906743 1.1330501 1.0135204 -0.94888204
-1.1316186 -1.0411844 -1.2201749 -1.0191689 1.0515156 -0.9534158 -0.9962037 -0.9113245
-1.0519952 -1.0125513 -1.0169979 -1.0362178 0.9585166 -1.0007832 1.053388 -0.8922162
1.2248129 1.0038052 -0.91976637 -1.0786462 -1.0139854 1.0099276 -1.0748534 0.21421221
1.006382 0.9979269 0.97319335 -0.95002174 -1.0339835 1.0813884 1.1512543 0.74844813

critic.4.bias f4 [2]
00000000: 579a 5a3e 1325 413f
0.21347938 0.75447196

actor_mean.0.weight f4 [64, 26]
00000000: aa6d 1d3d 9be6 493c 6454 643e 9b3b ee3e
00000010: 32ed 64be fca1 fdbd 5fb6 fabc 5bf1 62be
00000020: bd5e 943e 6b34 183e 3640 aa3d 85a3 43be
00000030: 930f 0a3e a6a4 8bbe 1ec6 fc3d bb50 b03e
00000040: 4bfe 2bbe cc57 bf3e 698c 513d cc47 4fbe
00000050: 103a 9dbc 4f2f aa3d 6eea 473e 6de1 b83d
00000060: a5fa fc3d 1703 c1bc ad4d 8f3d 0583 32be
00000070: ed34 18be c671 933e be53 86be 9776 c8bd
00000080: 6ff3 98be 4001 2e3d 4431 b0be f058 99be
00000090: a957 e8bb a460 ad3e 59ee 98bd 03cc c5bc
000000a0: 3142 b43b 2b75 2a3d 99c4 883d 4c8d fe3e
000000b0: d830 7b3e 206e 263e 816c 1c3e 8764 503e
000000c0: 9a46 d13d c044 5fbe c44d bbbd c2c2 0fbd
000000d0: f720 cabd b968 db3c af1e 383c 0565 0bbd
000000e0: bb51 523d cf7a 23bd cbc2 94be dc48 89bb
000000f0: 8a78 9d3e 30e5 1dbc 6566 073e b32a f5bd
00000100: 5aa0 65be 1e1a ef3d 74cc 733e aff9 ff3d
00000110: 868c 13be 6bcc 13be 03e8 52be 4ca6 abbd
00000120: 875e 1dbd 9b9d 94be 17f1 56bd 096e 06bf
00000130: 419e f13d ea1e 67be a7c6 5ebe a524 31be
00000140: e9b2 2abe ce8d 103e 71dd 25bd 3d3b 013d
00000150: fd4b 503e a2f9 e73d 6b4e 09be 00ef b13d
00000160: 4537 33be 0fd0 cd3e 4c51 5fbe 560c 63bd
00000170: 7c74 02be 4874 863e c6a4 063e e710 00be
00000180: f70f c33d 4760 e2be 7309 09be e06a 82be
00000190: 601b 2c3d ffde 983d c537 093e 073a 99bd
000001a0: b9ef ccbc 9b51 0cbe cb6a 54bc 2a25 45bd
000001b0: b081 cabd 0f50 58be 6564 813d e156 473d
000001c0: d69b 6e3e 9745 8a3e 27ef e8bd 1e51 ab3e
000001d0: 0e38 f23e a9e7 4d3e 0dc0 903c 20f1 383e
000001e0: faea 12bd aa8e 493e 32db fe3c 0e18 c73d
000001f0: b345 de3d 5beb a3bd c0c9 c93c 0fd7 6b3d
00000200: 0da7 34be 2984 d43c 4f3a 2fbc 9784 6a3e
00000210: 5480 18bd 6253 3f3e d051 773e 085b 2ebc
00000220: c754 b33d 288b 14bd 43c0 7bbd ed4e df3d
00000230: e0f5 15be 318a adbd 0aaa 0b3e 3981 82be
00000240: f6b4 833e f4f1 0d3c 12a9 eebd 7c14 0abe
00000250: d18d 5ebe e488 a33d 3a2d 4abc cfdb b93d
00000260: 124b 843e caca 4c3e 9ad8 2c3d 25de f53d
00000270: 809c 01be 406d 9b3e e850 4b3d 8cf1 90bd
00000280: 9d4e 91be 099c bf3e 898d 2cbe f980 963c
00000290: 4e14 41be f21f 783e bc2a 84be 42e9 7a3d
000002a0: dc54 41be 75c4 7a3d 3487 d2bd 0ece 153e
000002b0: c98c 6cbc ee43 2ebe 8f11 75bd 3399 c33d
000002c0: b497 773c af4e aa3b 206e 053e 7568 873c
000002d0: 52bb 10be 0e7f 673d fe05 d13e c3bf 0e3e
000002e0: c0ed f2bd 20b2 e23e 544e 9c3d 096a 38be
000002f0: 3401 55be 589a 81be 073a 9b3e f7cb ef3d
00000300: bb37 663d 0eae d1bd b170 8c3d 51d4 923d
00000310: e676 f6be 3426 213e 2cb2 333e 2e96 18bd
00000320: 55f0 7cbc 30e6 173e 67b9 aabd 7605 333e
00000330: 84fa f2bd dd93 2e3e 1a90 5d3e 1c8a 81be
00000340: 3704 f43d 35b3 4bbe a83d 81bd d8a2 8ebe
00000350: a438 47be 48fc 4fbe 506e 2abd d873 623e
00000360: 0e82 f6bc c4c4 2cbe 8560 343e 8a79 343e
00000370: c9a7 7ebe fec4 5cbe 2d23 58be c0ed 32be
00000380: 440d f03d d4f5 e8bd 5bdc 62bd 3d43 8fbe
00000390: c3c6 493e bbbf 4ebe 85c6 99be e9e9 c63e
000003a0: d9bd 3dbe e774 a9bc 9322 683e c360 d13d
000003b0: 23ea 8a3e 6e91 d3bd b490 67bc 6a4f 023e
000003c0: d512 81be 6302 293e c0c1 0dbd a452 aabd
000003d0: feab cebc 2044 29be 4fc1 e7bd d1bc c8bd
000003e0: 4781 803c 5397 723c aad2 c03d 06f0 533e
000003f0: 9301 c23e 9ddf 2d3e 69d8 b2be f872 54be
0.038434662 0.012323047 0.22297817 0.4652985 -0.22356108 -0.12384412 -0.03060454 -0.22162382
0.2897853 0.14863746 0.083130285 -0.19105347 0.13482504 -0.27274054 0.12342475 0.34436592
-0.16796224 0.3737167 0.051159296 -0.20242232 -0.019192725 0.08309805 0.19523022 0.090273716
0.12352494 -0.023561044 0.06997237 -0.17432792 -0.1486394 0.2879774 -0.26235765 -0.09788244
-0.29873225 0.04248166 -0.34412587 -0.29950666 -0.007090528 0.33862793 -0.07467336 -0.024145132
0.0055010547 0.041615646 0.06678123 0.49717176 0.24530351 0.16252947 0.15275766 0.20350848
0.10218544 -0.2180357 -0.09145692 -0.035097845 -0.09869569 0.026783334 0.011237784 -0.034031887
0.051347475 -0.03991204 -0.29054865 -0.0041895937 0.30756027 -0.009637162 0.13222654 -0.11971035
-0.2242445 0.11674903 0.23808461 0.12498795 -0.14409074 -0.14433448 -0.20596318 -0.08381328
-0.038420226 -0.29026493 -0.052476015 -0.5251165 0.11797763 -0.22570387 -0.21755467 -0.17299135
-0.16669811 0.14116594 -0.040494386 0.031550635 0.20341487 0.113269106 -0.1340882 0.08688164
-0.17501552 0.401978 -0.21808356 -0.055431686 -0.12739748 0.2626059 0.13148794 -0.12506448
0.095245294 -0.4421408 -0.13382511 -0.25472164 0.042018294 0.07464408 0.1340018 -0.07481771
-0.025016652 -0.13703005 -0.012964915 -0.048131146 -0.09888017 -0.2112429 0.06317977 0.04866684
0.23301634 0.27006218 -0.1137374 0.33460325 0.4730839 0.20107903 0.017669702 0.18060732
-0.035868622 0.19683328 0.03111038 0.09721385 0.10853138 -0.08003875 0.024632335 0.057578143
-0.1764185 0.025941925 -0.010695054 0.22902142 -0.03723176 0.18684152 0.24152303 -0.010641821
0.08756404 -0.036265522 -0.061462652 0.10903726 -0.14644575 -0.084736235 0.13639084 -0.25489214
0.25724 0.008663643 -0.11653341 -0.13484377 -0.21733786 0.07985094 -0.012339884 0.09075128
0.25838524 0.19999233 0.042198755 0.12005261 -0.12657356 0.3035679 0.049637705 -0.070773214
-0.2838029 0.37423733 -0.16850866 0.018372046 -0.18855402 0.24230936 -0.25813854 0.06125761
-0.18880028 0.061222512 -0.10279694 0.14629385 -0.014437863 -0.170181 -0.0598312 0.09550705
0.015111852 0.005197368 0.1303029 0.016529301 -0.14133957 0.056517653 0.40824884 0.13940339
-0.118617535 0.44276524 0.076321274 -0.18009199 -0.2080124 -0.25313067 0.3031771 0.11708825
0.056205492 -0.102382764 0.06857432 0.071694024 -0.48137587 0.1573723 0.17548436 -0.037252598
-0.015438159 0.14833903 -0.08336144 0.17482552 -0.11864188 0.17048593 0.21637002 -0.25300682
0.119148664 -0.19892581 -0.06310588 -0.27858615 -0.194552 -0.20311081 -0.04160911 0.22114503
-0.030091312 -0.16871935 0.17614944 0.17624488 -0.24868692 -0.21559522 -0.21107168 -0.17473507
0.1172128 -0.11375013 -0.05538593 -0.27980986 0.19704728 -0.20190327 -0.3003427 0.38850334
-0.18529452 -0.020685626 0.22669439 0.10223534 0.27131757 -0.10330473 -0.014133621 0.12725607
-0.2520968 0.16504817 -0.034608603 -0.08316544 -0.025228497 -0.16529894 -0.113161676 -0.09801639
0.015686644 0.014806586 0.09415181 0.2069703 0.37891826 0.16979833 -0.34930733 -0.20746982

actor_mean.0.bias f4 [64]
00000000: c493 55bc 0f4e aebc 06f5 b9bc 3f4c 44bd
00000010: 8601 3b3d f211 c2bc b3a0 02bd 7901 553b
00000020: 4fa5 e93c 6fe7 26bd de3e aabc a4bf 07bd
00000030: 694f 2cbd 998d bbbd 81d7 0fbd 27ca df3b
00000040: 583a babc 2bc8 9aba 80f7 7f3c 54a2 b83d
00000050: ca31 ddbc 50d4 31bd 2456 40bb a457 87bd
00000060: 0961 733d d7ed 423c 6530 133d c50a fbbc
00000070: 9e6a d33c f4fd 3fbd 9772 7dbd dbec fbbc
00000080: cda3 efbc 9920 bfbd 5f89 b23c 94aa c03b
00000090: 0c3c c5bc 05e2 f1bb 6e1d 28bd 9dc2 ad3d
000000a0: d6b4 1cbd 5294 a73c 8cd3 b13d 2d83 12bd
000000b0: a989 af3d 10fe 153e d127 3cbc 043f e5bc
000000c0: bff7 153d 986b c6bd 90b4 e73c 8632 d33c
000000d0: e04f cc3b b05f 203d 9fbd c2bd 6b34 123d
000000e0: 7300 c2bc ff74 d83c a778 32bd d2cc 5c3d
000000f0: 8aa5 ffba a4b9 303d fc66 8c3d f2d2 8abb
-0.013035718 -0.021277456 -0.022699844 -0.047924276 0.04565575 -0.023690198 -0.031891536 0.0032502098
0.028521208 -0.040748056 -0.02078193 -0.033141747 -0.04206792 -0.09157867 -0.03511763 0.0068295184
-0.022732899 -0.0011808922 0.015622973 0.09015337 -0.02700128 -0.043415368 -0.0029348219 -0.06608513
0.05941871 0.011897526 0.035934824 -0.030644784 0.025807675 -0.046873048 -0.06187686 -0.03075259
-0.029252911 -0.093323894 0.02179402 0.0058797095 -0.024076484 -0.00738168 -0.04104369 0.08484385
-0.038258396 0.020456467 0.086829275 -0.03576963 0.085711785 0.14647698 -0.011484102 -0.02798415
0.036613222 -0.09688491 0.028284341 0.025780927 0.006235108 0.039153755 -0.095088236 0.03569452
-0.023681855 0.026422976 -0.043572094 0.05390627 -0.001950429 0.04314579 0.0685558 -0.0042365724

actor_mean.2.weight f4 [64, 64]
00000000: 3421 d23d 1d48 abbe 6cd9 2a3e d17d 5c3e
00000010: c59d 0cbe a06e ee3d 00be 31be a2be 073b
00000020: 4c4b 0ebd 4db3 4f3e 4410 45ba db85 b33e
00000030: 93c6 13be 75c6 d73b 4e14 403d b77b 9d3c
00000040: 0c19 b43c 19d4 b0bd 5c2a e73c 301d 253e
00000050: 5b67 e33d b849 a03b 7c05 78be 1d8c 68be
00000060: 2685 833e 6d98 09be 7f90 92be 91e4 5bbe
00000070: d471 2e3d b925 cd3e b197 8f3e 5b6a 04bd
00000080: 80bf 8bbe 98ee 373e 3a92 d2bd 5523 2fbe
00000090: a112 513e c8c7 d53c ba6f c8bc 5d20 debd
000000a0: 97ff 1dbe 8b88 94be 7097 d13e 1117 a53c
000000b0: 8ecd 8c3d cb6c 92be ce2f a3bc a0a0 053e
000000c0: 6f04 de3d b81a 7d3e 4014 7d3e dc10 ce3d
000000d0: e3f5 29be d433 313e 6426 3c3e d114 a3bd
000000e0: 4cc8 d03d a2aa 993e eb41 d43d 74c1 d83d
000000f0: f34c eabd adf1 f63d 74cc d73e 3594 093e
00000100: e80f 1b3e c26d eebc 22d9 813e 1f2c c0be
00000110: 7ac1 e9be 843d d0bd 5864 843d 2342 acbe
00000120: 77b9 8abe 8a7a a8be 8e78 853c 50a8 753e
00000130: e14a a43e fc8d 373e bb82 313e 54a0 a7bd
00000140: c148 14bd a079 053e 704e 2a3e 0c08 6c3d
00000150: 9b96 1d3e a8e1 45bd 1de6 d83d 03e5 633d
00000160: b5b0 993c 97e0 64bd 2da5 66be 6574 473e
00000170: aa2b fbbd 3f29 793e 56e5 b43d 785f 1c3e
00000180: 844f 8cbc bf8d 89be 0a1d c5be c312 f5bd
00000190: 18c7 bcbc 02a2 52be 024d a43e 462a 83bc
000001a0: 43ef 13bc 9562 febd 53bc 03be 6ac1 28be
000001b0: 0d20 c43d d5db 2a3e ef37 103e e395 81bb
000001c0: 3fbe 1cbe 30d6 4a3e ad62 c5be 33c1 9ebd
000001d0: 029e 0e3d a3bf 0abc b735 bbbd 30ba 333e
000001e0: b1c0 853b c7d2 d03d f26a 5ebe db55 1ebb
000001f0: 0b65 ff3b 474d cabe 1988 133e 87d2 c13d
00000200: 1554 e2bd e829 413c 3915 893e ebfa e0bd
00000210: ccc6 b7bc 67bf 7bbe ef34 873c 756b bcbe
00000220: 5e5c d53d 9e4d 53bd 29a2 02bd 9cb4 253e
00000230: 7994 c9bc 7e16 743d 8e65 3b3c 6ee6 5bbe
00000240: 092e 683d 16fa 90bd 5e87 8d3e fd8b 3bbe
00000250: 56a1 ab3e e11c 273e 53b1 333d fa6a a0ba
00000260: f4fa 2ebe dad4 03be 229e 63bd 20e1 86be
00000270: 6630 3a3e 22c9 85be 5d5c 0dbd ba51 2dbc
00000280: 56ec 5b3e 4457 1abe 9661 4e3d 53f9 a23e
00000290: cb29 64bd ac1c 273e ca57 2c3c f049 3fbd
000002a0: dc3c 49bd 3cb5 e43c 1832 ccbd 7a83 a33d
000002b0: aa8e 9fbe 0d20 a6bb 3f3d 453d 2cbe 8b3e
000002c0: 47eb 653e 7306 583e a994 c23e ca38 4dbe
000002d0: 1b97 843e a7ae d13e c1cf b63d 2612 af3e
000002e0: 7e0c 2a3e 4d8a 22bb 16b5 94be afa9 a2bd
000002f0: f6ee 2bbe 04a9 56be ba7d 123e 3b99 b9be
00000300: 4a70 e73d 8782 a33c d7ec 6fbd a2a5 54bd
00000310: c409 1d3e 7c5e f03d 0b74 183e 2caa d63d
00000320: 5076 0ebe 8b56 68be e03b 3e3d 2a50 f93c
00000330: f5e2 9e3d 8791 81be e96a ec3d 8651 1abe
00000340: 2b8b 4e3d 8793 1a3c 74be 053d 9f8a 33bd
00000350: 79a2 94be 6e98 b53e 2e99 34bd c2a9 753b
00000360: aedf 8c3e 27e0 903b f140 5fbe 27a2 a83e
00000370: 1964 173e 02c6 f83d ea24 be3e 451c 55bd
00000380: e787 1dbe 5ef1 f8bd db86 6fbd 4cd8 693d
00000390: 1b97 9fbe 1c2a 363e aac5 a1bd 3c48 a53e
000003a0: 960a 4c3d 1128 82be 0611 bcbd 9232 2e3e
000003b0: 4c5f 693e 86c6 e7bd 81c8 823e ef48 483c
000003c0: 099d 66bc fb59 da3e 8f56 2f3e 9eb4 6c3e
000003d0: 09f9 d53e 5a9a 303e 4860 21bd d106 863e
000003e0: d4b3 103c 38ca 74be 96d5 0f3d 39fd ec3c
000003f0: b8c3 80bd 6cf4 a13d a61b b6be 4bd9 9c3d
0.10260239 -0.33453456 0.16684502 0.2153237 -0.1373206 0.11642194 -0.17357635 0.0020712991
-0.034739777 0.20283242 -0.00075173774 0.3506306 -0.14431219 0.006584937 0.046894364 0.01922403
0.0219846 -0.086342044 0.02821844 0.16124415 0.11103698 0.0048916005 -0.24220842 -0.22709699
0.25687522 -0.13437052 -0.28625867 -0.2147391 0.042589024 0.40067843 0.2804542 -0.03232799
-0.2729454 0.1796211 -0.10281797 -0.17103322 0.20417263 0.02609624 -0.024467338 -0.108460166
-0.15429531 -0.29010424 0.4093585 0.0201526 0.06875144 -0.28598627 -0.019920256 0.13049555
0.108406894 0.24717224 0.24714756 0.100618094 -0.16597705 0.17304927 0.1837402 -0.07962955
0.101944536 0.30012995 0.10364135 0.10583773 -0.11440458 0.12057815 0.42148173 0.13435443
0.15142787 -0.029105071 0.25360972 -0.37533662 -0.45655423 -0.10167983 0.064644516 -0.33644208
-0.27094623 -0.3290599 0.016292837 0.23989987 0.32088378 0.17925256 0.17335026 -0.08184877
-0.036202196 0.13034678 0.16631484 0.05762486 0.15389483 -0.048310906 0.105907656 0.055638324
0.018761018 -0.055878248 -0.22523947 0.19477995 -0.12264188 0.2433214 0.08832805 0.15270793
-0.01712776 -0.26865956 -0.38498718 -0.11966469 -0.023044154 -0.20569614 0.32090002 -0.016011368
-0.009029212 -0.12421147 -0.12864809 -0.16480032 0.09576426 0.16685422 0.14083837 -0.0039546355
-0.15306948 0.19808269 -0.38551846 -0.077516936 0.034818657 -0.008468541 -0.09141105 0.17551494
0.0040818085 0.101964526 -0.21720484 -0.002416006 0.0077940277 -0.39512083 0.14407386 0.09463983
-0.110511936 0.011789776 0.26774004 -0.10985359 -0.02243366 -0.24584733 0.016504733 -0.36800733
0.10418008 -0.051587693 -0.03189293 0.16182178 -0.02460693 0.059591763 0.011437787 -0.2147462
0.056684528 -0.0707895 0.2764234 -0.1831512 0.33521527 0.1631961 0.04387028 -0.0012238913
-0.17087919 -0.12874165 -0.05557073 -0.26343632 0.18182525 -0.26130015 -0.034511913 -0.010578567
0.21476874 -0.15072352 0.050386034 0.31830844 -0.05570392 0.16319531 0.010518977 -0.04670137
-0.049130306 0.02791845 -0.09970492 0.079840615 -0.31163532 -0.0050697387 0.048154112 0.27293527
0.22453032 0.2109621 0.38004044 -0.20041195 0.25896534 0.40953562 0.08926345 0.34193534
0.16606328 -0.0024801672 -0.29044408 -0.07942521 -0.16790375 -0.20962912 0.14305773 -0.36249718
0.11300714 0.019959701 -0.058575477 -0.051915772 0.15335757 0.117367715 0.14888017 0.104816765
-0.1391232 -0.22689264 0.04644382 0.030433733 0.07758132 -0.2530634 0.11543829 -0.15070161
0.05042569 0.009434587 0.032652333 -0.04383337 -0.29030207 0.35467857 -0.044091396 0.0037485217
0.27514404 0.0044212523 -0.21802117 0.32936212 0.14784278 0.12147142 0.37137538 -0.052028913
-0.15383874 -0.12155412 -0.058478218 0.057091042 -0.31169972 0.17789501 -0.078990296 0.32281673
0.049814783 -0.25421193 -0.091829345 0.17011479 0.22790259 -0.11317162 0.25543597 0.01222442
-0.014075526 0.42646775 0.17122863 0.23115775 0.4179156 0.1724638 -0.03939846 0.26177076
0.008831937 -0.23905265 0.0351158 0.02892934 -0.062873304 0.07907948 -0.3556797 0.07658633

actor_mean.2.bias f4 [64]
00000000: 92a4 5c3c 4e83 37bd b7bb 193c 27c2 b63c
00000010: f748 2d3c fba5 ce3c 7aba d2bc 52a2 bcbc
00000020: e472 cbbb 09a7 6ebd 9d50 dfbc 38c7 1a3c
00000030: 3f9e 9cbd 1309 0f3c 85a9 223d 4d46 51bc
00000040: 215c d5bd 958f c2bc 7170 04bc 4275 353d
00000050: 2f73 e8bc 89cd 66ba ecb0 81bc 37ea 513d
00000060: 0201 64bc 6023 2f3d e8b6 debc b278 8f3c
00000070: 1a6e febb 5d87 2f3b 1397 32bc 9a93 37bc
00000080: 9020 973d 4a2c 063d ec42 d03b 317d 1c3d
00000090: f671 95bc baa7 27bc cffa b4bc b035 acbd
000000a0: 900f d2bc 950b a33d ced5 b9bc b693 fcbc
000000b0: 0621 7fbd 1997 863d 2513 ccbb bb84 4fbc
000000c0: bbfa 6dbd acaa 163c bd2d 0a3d 692b 023c
000000d0: 630f 2bbc ac32 a33c ee4e cc3c 0601 2e38
000000e0: 25bb 1abc 0191 ccbc 1317 88bd 3704 90bb
000000f0: af59 1fbb 16dd dcbc a74f 73bc d03e 6dbd
0.013466971 -0.044802956 0.009383134 0.022309376 0.010576478 0.02522563 -0.025723685 -0.02302662
-0.0062087644 -0.058264766 -0.02726012 0.0094469115 -0.076473705 0.008730191 0.039712448 -0.012773109
-0.10417963 -0.023750106 -0.008083449 0.04430128 -0.028375236 -0.0008804431 -0.015831433 0.051248755
-0.013916256 0.042758346 -0.027186826 0.017513607 -0.00776459 0.0026783564 -0.010900277 -0.011204625
0.07379258 0.03275708 0.006355634 0.03820533 -0.018242817 -0.01023286 -0.022092251 -0.084086776
-0.025642186 0.079611935 -0.022684958 -0.030832153 -0.062287353 0.06571788 -0.006227868 -0.012665923
-0.058100443 0.009195965 0.033735026 0.00794492 -0.01044068 0.019921623 0.02493998 4.1485786e-05
-0.009444033 -0.024971487 -0.06645026 -0.0043950337 -0.002431493 -0.02696089 -0.014850534 -0.05792123

actor_mean.4.weight f4 [6, 64]
00000000: 6707 d4bc 49b8 6e3c 004c 70bb 9897 f9ba
00000010: 42a3 e2bc ca88 cbbc 6e9c 92bc 4e48 b8bb
00000020: f309 1039 812a 8fbd 96a5 203b 8ae4 dfbc
00000030: 215d 9b3c 78bf 963c 55b2 4dbd 8828 09bd
00000040: b5b8 753b 9f30 453c 18cd afbd f561 973b
00000050: 4ef4 9ebc d736 83bc ce38 f3bc d591 e53c
00000060: 614e 95bd 07cd 4ebc 5436 053d 4f45 7738
00000070: 48cf e33c c1ed 3e3b edad 6cbc 2d8c a2bb
00000080: 5fe5 ecbc e91b 55bc 425b b23c fc82 49bd
00000090: 105a 90bb 874c 18bd 6839 cbbc 8318 313c
000000a0: 6f28 8abd d83d e3bc ea7e 943c 2f31 a63c
000000b0: 9e5a a4bb c35a 0cbc 6bb6 c03c 4798 c03c
000000c0: ef46 2dbd 1abc 93bc 8db1 5d3c a1f9 f2bb
000000d0: 4399 b33b 1c51 71bc fb12 353c 2d1b e93c
000000e0: cf59 273b 37c8 3dbd 0abf 983b fc79 3cbd
000000f0: 7e8e e63c e1b9 8cbc a6bc d83c 4d01 2cbd
00000100: dd44 64bd 2ad8 153d 9179 343d 8727 e7bc
00000110: ad7f d63c cf39 34bd c12a 6cbd bd08 53bc
00000120: ac14 73bc 8014 893d 9055 053b c3c7 9fbc
00000130: 5cbb 9fbb 7658 ac3c 27a4 babb b7cb 42bd
00000140: df1f 36bd d595 3c3c 6542 103d e6b9 47bc
00000150: b068 ebbc 4693 193d 1167 143d 939a 293d
00000160: 6182 88bb df8e a73c a14d bbbc 2e66 2bbc
00000170: 4f6e d6bb f6d0 d2bc 2283 92bc d9d2 163c
00000180: ddaa 443d 4b58 dcbc b1c3 50bc 102f cdbc
00000190: bcb8 af3a 303e 043d 9316 96bc deb7 1d3d
000001a0: 57b5 cdbc b773 093c 249f 1dbb 7eea 3a3c
000001b0: f21e ab3c 11a2 943d 0167 2f3c c5e1 6e3d
000001c0: 5917 aebc b9dc ffbb db1c c23b dc79 183c
000001d0: 2666 1b3b 7428 453c 5cf6 103c 0c8d 0dbd
000001e0: 8cf9 fdbc b103 5d3b e762 5abc 2b45 88bc
000001f0: 09ea 95bb 7a42 8fbb 1ac1 483c 8949 d0bc
00000200: 57af b2bc fd47 903c d2f2 733a f4ad ea3c
00000210: 7bff d23c e664 ff3c 73d9 383d bd7d b73c
00000220: bb90 25bc 227d 02bd ead4 53bb f544 eebc
00000230: 648d 4b3b 98d0 283d d8fe 903d 43c0 c23c
00000240: 0c49 33bc 3be5 bfb9 1362 cf3c ba84 b4bc
00000250: 1763 ce3b 54ab a73a a932 aa3c 128e 2f3c
00000260: 0c62 bbbc c462 fbbc 5cfa 1a3c b6ae 49bc
00000270: e9ea 6f3c df57 0fbd 290c 17bc 6a1e 833b
00000280: 6da1 b93c 19fc 8f3c 38cb a13b c25b 603c
00000290: ec43 fa3c 8b56 d0bc cca7 ea3c 47b8 95bb
000002a0: ee7a c1bc fea3 b23a 1349 c3bc 58dd 30bd
000002b0: d3aa d13c 39bd 0c3c 3e44 473d ffb0 86bd
000002c0: 3a2c 97bc a423 99bb 5ddc fbbb 38a9 553d
000002d0: bea2 0e3c bfeb 2ebc 7bff 19bb 03bb 64bb
000002e0: 4cb4 ee3c 27c3 433c 0a61 05bd 4c6a 643c
000002f0: c200 f23c 3f95 d1bb 5473 dabc f90f f2bc
00000300: 62fc 31bc 9752 89b8 79b1 7fbd 2e57 e8bc
00000310: a317 5c3b 07a2 94bb 6384 c13b edae 513c
00000320: 9b27 ce3c e702 7bbc bdcf cbbb 6656 70bc
00000330: a640 02bc 4d71 853c 695e 1f3d 58b5 203c
00000340: a737 fabc 899f bc3b ace5 593c 7833 c93c
00000350: af51 f7bc a736 fc3b 001c febb bbc4 4fbc
00000360: 18fe 04bd 9bb6 cbbb 7ca0 09bd 9b92 5cbd
00000370: bbf0 173d 7f57 a93c ca19 9dbb dd18 cabc
00000380: c9fc 0abd 946c 0b3d 9805 8ebc 6908 bbbc
00000390: fe1e ca3b 9073 4dbc fcdc 2fbc 382e b9bc
000003a0: 306b b23c 0061 cb3b 3959 403c 0e8e 07bb
000003b0: 474e 6fbd 65be 1dbd 2ce6 9b3d c276 e0bc
000003c0: e149 e9ba ff98 023c d7b8 e93b 983b 013d
000003d0: 8c9c d3bc 90b1 e13c 8fe5 11bd e193 fa3c
000003e0: ab4c 4bbc 582e ec3c 99e3 613d 590c 9a3b
000003f0: c5ae 1f3c 65f9 02bb d974 fdbc 0266 2abd
-0.025882436 0.014570304 -0.0036666393 -0.0019042371 -0.027665738 -0.0248455 -0.017896857 -0.0056238538
0.00013736617 -0.06990529 0.002451276 -0.027330656 0.018965306 0.018401846 -0.0502189 -0.03348592
0.0037494127 0.012035518 -0.085840404 0.0046198317 -0.019403603 -0.01601736 -0.029690173 0.02802364
-0.0729034 -0.0126221245 0.032522514 5.8953938e-05 0.0278088 0.0029133412 -0.014445764 -0.004960558
-0.028917966 -0.013007143 0.02177203 -0.049197182 -0.0044052675 -0.037182357 -0.024807647 0.010809067
-0.06745993 -0.02773945 0.018126924 0.020287124 -0.005015685 -0.008566561 0.023524484 0.023510111
-0.042303976 -0.01803403 0.013531101 -0.007415012 0.0054809167 -0.014728811 0.011051889 0.028455341
0.0025535708 -0.046333518 0.0046614455 -0.04601477 0.028144117 -0.017178478 0.026457142 -0.041993428
-0.055729736 0.036583103 0.044061247 -0.02821709 0.026183927 -0.044000443 -0.05765796 -0.012880501
-0.0148364715 0.06693363 0.0020345189 -0.019504433 -0.00487463 0.021038275 -0.005695838 -0.04755756
-0.04446399 0.011510332 0.03521957 -0.012190318 -0.028736442 0.037493967 0.036231104 0.04140718
-0.004165933 0.020453868 -0.022864165 -0.010461373 -0.0065439115 -0.025734406 -0.017884795 0.009205543
0.04801451 -0.02689757 -0.012741969 -0.025046855 0.0013406496 0.03228587 -0.018321311 0.038505428
-0.025110884 0.008389405 -0.0024051154 0.011408446 0.02088878 0.07257474 0.01070571 0.05832078
-0.021251367 -0.0078082946 0.00592385 0.009306397 0.0023712008 0.012033571 0.008847799 -0.03455834
-0.031002782 0.0033724124 -0.013329244 -0.016634544 -0.0045750183 -0.0043719383 0.01225307 -0.02542569
-0.021812124 0.017612452 0.00093058974 0.0286474 0.025756588 0.031176042 0.04512925 0.022398824
-0.010105307 -0.031857617 -0.0032322952 -0.029085616 0.0031059617 0.041214556 0.070798576 0.023773318
-0.010942709 -0.0003660115 0.02531532 -0.022035945 0.0062984335 0.0012792149 0.02077611 0.010715025
-0.0228739 -0.030686744 0.009459104 -0.012309721 0.014643409 -0.03499591 -0.009219208 0.0040014284
0.022659982 0.017576264 0.0049375556 0.013693752 0.030549966 -0.025431892 0.028644465 -0.0045690867
-0.023618188 0.0013629196 -0.023838555 -0.04317984 0.02559415 0.008590036 0.048649065 -0.06576728
-0.018453706 -0.004673438 -0.0076861815 0.052163333 0.008705793 -0.010676323 -0.0023498225 -0.0034901507
0.029138707 0.011948383 -0.032563247 0.013941359 0.029541377 -0.0063959653 -0.02666632 -0.029548632
-0.010863395 -6.5480526e-05 -0.06242511 -0.028361883 0.0033583425 -0.0045359167 0.0059056743 0.012798053
0.02516537 -0.015320516 -0.0062198327 -0.0146690365 -0.007949984 0.016289378 0.038908396 0.009808861
-0.030544115 0.0057563228 0.013299387 0.024560675 -0.030190317 0.0076969448 -0.0077548027 -0.012681182
-0.032468885 -0.0062168366 -0.033600315 -0.05385075 0.037094813 0.020671604 -0.004794334 -0.024670059
-0.03393248 0.034039095 -0.017336652 -0.022831159 0.0061682453 -0.012539759 -0.010733839 -0.022605047
0.021779627 0.0062066317 0.011740022 -0.0020684036 -0.05842426 -0.038511652 0.07612261 -0.027400378
-0.0017798507 0.007971047 0.0071326303 0.031550974 -0.025831483 0.027550489 -0.035619315 0.030588092
-0.012408416 0.028830692 0.055148695 0.004701179 0.009746258 -0.0019985077 -0.030939506 -0.04160119

actor_mean.4.bias f4 [6]
00000000: 4ddb 0d3c 8981 32bc b21f eabb ca1c ceba
00000010: 7486 8ebd d6f2 b8bb
0.008658242 -0.010895141 -0.0071448917 -0.0015725133 -0.06959239 -0.0056441827

codebook f4 [100, 2]
00000000: ec1d f33e 94dc 023f 963a f53d fc13 5d3f
00000010: b2e7 383f 51a3 743e 1c33 c43e a88d 1b3f
00000020: 0a93 d93e 39f5 0f3f a419 973d c26e 6a3f
00000030: 69f8 0c3f eee1 db3e 0e3b 063f e23f eb3e
00000040: 2e2a 2c3f fe9f 963e d84b 3c3f 4972 6d3e
00000050: 4019 193e 22eb 553f d574 133e 4654 583f
00000060: 7646 013f cd91 f53e 5575 873e 958b 393f
00000070: 54a4 bb3e 1932 1f3f c291 f93e 6954 ff3e
00000080: deef e73e 97d0 073f 5ec7 523d 8747 6e3f
00000090: 6e0a 8e3e e44d 353f 1f42 c23e 381f 1b3f
000000a0: b638 1d3f 2321 ba3e 9b59 ce3e 099d 163f
000000b0: 2aa2 003e 301b 5b3f 8ce8 a13e f5b6 2c3f
000000c0: c6cf 5d3d f73b 6f3f e20a 423f 689b 543e
000000d0: 8190 5d3f 50e5 c03d 1ac6 693f 12bf 5d3d
000000e0: 31b2 f03e 9b9d 033f 964b cf3d 78b8 623f
000000f0: b837 373f 2c56 803e b433 fd3c 17e8 733f
00000100: f201 2b3f 3a36 973e 96b9 d53e f05d 123f
00000110: 14b5 fe3e 1ff4 f93e c422 3d3f fe9a 633e
00000120: 17c6 5c3e b441 453f b491 903e bf4d 353f
00000130: 02ba 2b3f 76ab 993e fab8 ac3e e843 253f
00000140: b807 103f c0a0 d63e afb1 c83e c8e6 183f
00000150: e45e 583f 9e58 e43d 3931 e63e dcf7 093f
00000160: 4eab 153f 921e c73e 0b79 d93e e365 103f
00000170: 7b67 0e3f 1e92 d63e 8d9e febc b95e 813f
00000180: 6523 bd3e a59f 1c3f 68d4 f83e b751 003f
00000190: 3683 263f 063c a73e e425 483f a99d 303e
000001a0: f313 af3e fb80 253f fd3a d03e 7d73 143f
000001b0: dda2 ee3e 625d 053f 9313 263f cef8 a43e
000001c0: c8f2 103f 49e7 ce3e f02e fc3d b362 5b3f
000001d0: 6ebe 0b3f 0121 df3e c94a 433f 0c84 4b3e
000001e0: e397 e53e 3c7f 0a3f fee4 503f 70f2 213e
000001f0: b5e3 3f3f bad4 543e 00fe 0e3f af5c d43e
00000200: b9be 7d3d 0528 6c3f 102c 753f 5f2e 02bc
00000210: 930b 683f a170 503d 77a1 ef3e 7d4d 053f
00000220: 74a2 5f3f 4d86 ca3d be8b a33e e4ca 2b3f
00000230: d01e 603f a09b 9f3d 4222 553f 1990 ee3d
00000240: 3154 8b3e 2cea 373f eb5d ffbc 3243 823f
00000250: 25e8 273e ae4c 533f 89dd 183f 4c84 c23e
00000260: e1d2 3d3e b007 4d3f 256d 013f 9c55 f53e
00000270: d508 ce3e 4a6b 163f b074 7a3f f561 bdbc
00000280: f28e 673e 3228 423f bd20 673f 9419 4d3d
00000290: de8a 333e 3373 4f3f 1a92 3d3f dcb2 623e
000002a0: 2b61 cf3e dcb9 153f ed02 663e bd61 423f
000002b0: 391b 813e 377d 3c3f b4bd 193f 198b c13e
000002c0: f492 f63e 506f 013f 1a77 6f3f 9da0 9e3c
000002d0: 340b c63e e71b 1a3f c71c 503b f5c8 7b3f
000002e0: 5884 903d 7546 6a3f 6b10 103f cdb6 d33e
000002f0: e785 8e3c b659 773f 4b82 143f 7505 ca3e
00000300: f108 d93e 9947 103f 824d 313f d31e 8d3e
00000310: bfe1 023e 4d4b 5b3f 1a27 4c3f e8ae 223e
0.47483766 0.51117826 0.11974065 0.8635862 0.7222854 0.23890425 0.38320243 0.60763025
0.42494994 0.56233555 0.073779374 0.91575253 0.55066544 0.42945808 0.5243386 0.45947176
0.6725186 0.2941894 0.7355323 0.23188128 0.14951038 0.8356191 0.14400037 0.8450359
0.5049814 0.479628 0.26456705 0.7247861 0.3664881 0.6218582 0.48744017 0.49869087
0.45300192 0.5305266 0.051459663 0.9307789 0.27742332 0.70821977 0.3794107 0.6059451
0.6141466 0.36353406 0.4030274 0.58833367 0.1256186 0.8558836 0.31622732 0.6746667
0.054153226 0.93450874 0.75797856 0.20762408 0.8654862 0.09418738 0.91317904 0.054137297
0.4701095 0.5141236 0.10121839 0.88562727 0.71569395 0.25065744 0.030908443 0.95276016
0.66799843 0.2953356 0.41743153 0.5717459 0.49747527 0.48819062 0.73881173 0.22227094
0.2155994 0.7705338 0.28236163 0.70821756 0.670807 0.30013627 0.33734876 0.6455674
0.5626178 0.41919518 0.39198062 0.59727144 0.8451979 0.11149715 0.4495943 0.5389383
0.58464515 0.3889051 0.4247516 0.56405467 0.5562665 0.41908354 -0.031081462 1.0107032
0.36941066 0.611811 0.48599553 0.50124687 0.6504396 0.32662982 0.78182817 0.17247643
0.34194908 0.64649934 0.40670004 0.5798872 0.4660863 0.52095616 0.6487362 0.32221073
0.56620455 0.40410832 0.1231364 0.8569748 0.5458745 0.43579867 0.7628599 0.1987459
0.44842443 0.54100394 0.81599414 0.15815139 0.7495683 0.20784274 0.55856323 0.41476962
0.061949465 0.92248565 0.9577036 -0.007945626 0.9064266 0.05088866 0.46802875 0.5207136
0.8735726 0.09888897 0.31942552 0.6710646 0.87547016 0.07793355 0.832554 0.11648578
0.2721267 0.7184169 -0.031172713 1.0176756 0.1639715 0.8253888 0.59713036 0.3799156
0.18537475 0.80089855 0.50557166 0.47916877 0.40241113 0.5875746 0.978343 -0.023117999
0.22613123 0.75842583 0.9028433 0.05007322 0.17533442 0.81035155 0.7405106 0.22138542
0.4050382 0.58486724 0.22462054 0.75930387 0.25216082 0.7362856 0.6005509 0.37801436
0.4815899 0.50560474 0.9354111 0.019363696 0.38680422 0.60198826 0.0031755434 0.9835351
0.070564926 0.9151376 0.5627505 0.41350403 0.017397834 0.96621263 0.5801131 0.39457288
0.42389634 0.5635925 0.6925889 0.2756258 0.12781428 0.85661775 0.79747164 0.15887034
