saved_agents/dm_walker_b.pth (torch, 614618 bytes, 30 tensors)

actor_logstd f4 [1, 6]
00000000: 3475 b0be 4dc3 f8be 7326 dfbe 6a2c d5be
00000010: e245 e5be f728 03bf
-0.3446442 -0.48586503 -0.43584022 -0.41635448 -0.4477988 -0.5123438

critic.0.weight f4 [64, 26]
00000000: 77b7 1e3f b2e4 333e f1ba 0fbe bd72 013e
00000010: 4209 d1bd d2c5 acbd 9135 76bd c6d4 553e
00000020: 730e 8a3e 9308 4abe 4ea6 963e 3a27 5b3e
00000030: c622 00be 6e3b 393e 945b e0bd 43f9 903c
00000040: 039b 6fbd cd45 973e f56c 51bd 0e19 01be
00000050: 9610 883d c37b fdbd f84b da3d b79e c23c
00000060: 309d 6d3b a8e8 c93e 2483 99be 4863 163c
00000070: 4491 873e 7ce6 c73d c7c8 3dbe 13a7 83be
00000080: 73f5 7fbe 2206 a8be ce98 963d 3e44 72be
00000090: 3d4e 0c3e a74e 8cbe b8b2 593b 65d7 10be
000000a0: 54f1 3abe e749 a33e 4197 ddbe 63aa 80be
000000b0: b91d 42be 7501 c93c 677e f5bd cba1 7c3d
000000c0: ce8e aabe 4f44 a83d ae36 0dbf b0a8 87be
000000d0: 7600 e7be 3c21 1abf a1a0 b0bd 981c aabd
000000e0: 8f81 f8bd f317 a0be 905e 843e 55ac c5bd
000000f0: 99ab 873e 7d0a 5a3e d0a4 06bf 8e18 eb3e
00000100: 441d 8fbd 2b69 5cbe e927 0cbd 642a f4bd
00000110: b0a7 1c3e a49f 113d 63a1 5fbd 8364 51bd
00000120: 1ff2 f43a 9b4b 9abc 9ba4 5b3b d463 99bc
00000130: de89 f9be 1ae4 61bf 7986 fa3e 54bc 403e
00000140: 927b e63d ff4a 0b3f 2dd1 2fbd 2d5a 9f3c
00000150: eaee 5c3d 6bb9 adbc dc65 3f3e a632 d33e
00000160: 9edd 33be 0de8 e0bd e960 f03d b42b de3d
00000170: 0eae 33be 82b9 6c3c 951f a8be d769 b4be
00000180: c430 423e de2a 6ebb 709a 16bc 0233 22bd
00000190: 52a4 ffbd b35d a3bd afad 573e c058 fe3e
000001a0: 62e1 3abd e84c 17be a78a 49be 1e01 4e3e
000001b0: f411 97be 2789 7ebe 1901 9dbb 4a57 883d
000001c0: f957 1abe bafb 9d3c c5d8 b7be 2785 563e
000001d0: 3a1c bfbe b9e2 723d 5cac 203e d529 59bd
000001e0: d7a2 d8be 1af4 8e3d afdb b33d 8c76 fe3b
000001f0: 2c51 923e 3ea7 9fbd be08 21be 722c 773e
00000200: 094f 87be 90a7 80be 56b1 b83d b6c0 8c3e
00000210: 3e73 cbbe 7889 153e b146 953e addd ad3d
00000220: e4da 8bbe 2e1a 35bd 027f c03e b58d 4ebe
00000230: a557 8f3e 3450 41bb dd88 cebd 9a81 53be
00000240: ac25 bd3e 5e98 60bd aec0 d2be eacc 76be
00000250: 3401 f13d 3d6a 06be 02fa 73bd 9a4a 99bc
00000260: 3679 eebd 3d48 003d 47a6 b7bd 9cd8 00bf
00000270: c782 8e3e 5d46 cbbc facd 9f3d 81ed b6be
00000280: 71c4 263e a771 3cbd f2a1 15bf 60eb 82bd
00000290: fab9 ddbe 982b d6bd d394 9e3e fc05 813e
000002a0: ab7f 57be 435e 843e 4fc9 a8bb 6334 b0bc
000002b0: 9991 a63e c8c9 9a3e 141f 893e 90df 1fbd
000002c0: e0b5 2f3d a3b7 d0bc 03b6 833d 96e0 513e
000002d0: a3a6 183f 529c 5c3e cb12 0dbf df9e f3be
000002e0: 131f 0f3d c065 263e 9ef7 af3c 1e53 a8be
000002f0: 7f99 2d3b 5c7c ee3b 97cd 62be ba1d bd3e
00000300: c057 eabd 7b10 553d 7367 c93e aba2 283d
00000310: a4aa 0a3e 713f 5dbd 9762 18be 114e 3e3d
00000320: 44e8 11bd 110a efbc d41a 92bc 149c cb3c
00000330: b940 11bc ae03 263c 3417 5cbf 643c b9be
00000340: 41c8 283d cdba 95be 7ca9 193f 4434 f8bd
00000350: c651 053d 1adb 5cbe 83b8 903d dcdb b0be
00000360: 01fb d13e c08e 9bbe 776a 103e 55ec 133f
00000370: 2f18 8fbd f091 db3d afbb a7bd d003 2abe
00000380: c06d b03e b40f 193e 230e 17bc 747d 483e
00000390: 971e b53c f53b 1cbe c28f cd3c be30 4dbd
000003a0: 4121 2e3e 6777 823e 5ebc 4cbe 52a7 d4bc
000003b0: 42d7 8cbb 8b77 c0bd c31c 0cbe d49f 213e
000003c0: bc0d 673e aba7 c03d 564a 283f 4515 0f3e
000003d0: 5de7 bbbe ddaf 75bd f971 7fbe 96e9 843e
000003e0: ae6e 47be 8829 46be d0ec c4be 245a 913c
000003f0: 4cae 37bd 7de2 89be b94f 873e 7ff7 b1bd
0.61998695 0.17567709 -0.14036156 0.12641425 -0.10206844 -0.08436169 -0.06010968 0.20881948
0.2696415 -0.19729833 0.29423755 0.21401682 -0.12513265 0.18089077 -0.10954967 0.017696982
-0.05849744 0.2954544 -0.0511293 -0.12607214 0.066437885 -0.12377121 0.10659021 0.023757322
0.003625702 0.39435315 -0.29982865 0.009178944 0.26478016 0.09760758 -0.18533622 -0.25713405
-0.24995975 -0.3281718 0.07353364 -0.23658845 0.1370172 -0.27403757 0.0033218097 -0.14144666
-0.18256122 0.3189232 -0.4327946 -0.25129995 -0.18956651 0.024536828 -0.11987 0.061677735
-0.33312076 0.08216154 -0.5516156 -0.26495886 -0.4511754 -0.6020696 -0.086243875 -0.08306235
-0.12134086 -0.31268272 0.25853395 -0.0965201 0.26498106 0.21293063 -0.52595234 0.4591717
-0.06988004 -0.21524493 -0.03421775 -0.11922148 0.15298343 0.035552636 -0.05459727 -0.051121246
0.001868788 -0.01883488 0.003351486 -0.01872436 -0.48737997 -0.8823868 0.4893072 0.18821841
0.11254038 0.5441131 -0.042924095 0.019452179 0.053938784 -0.021206578 0.186912 0.4124958
-0.17565009 -0.1098176 0.11737234 0.108481795 -0.17546865 0.014448525 -0.32836595 -0.35237
0.18963915 -0.0036341469 -0.009192094 -0.039599426 -0.124825135 -0.07976856 0.21062349 0.49677086
-0.045625098 -0.14775431 -0.19681798 0.20117614 -0.29505885 -0.24857007 -0.0047913906 0.06657274
-0.15072621 0.019285072 -0.3590757 0.20949231 -0.37326223 0.05929825 0.1569075 -0.05301841
-0.42311737 0.069801524 0.08782136 0.0077655967 0.28577554 -0.07795571 -0.15725991 0.24138048
-0.26427487 -0.2512784 0.09018199 0.27490777 -0.3973636 0.14603221 0.29155496 0.08489547
-0.27315438 -0.04421442 0.375969 -0.20171244 0.27996555 -0.0029497268 -0.10084698 -0.20654908
0.36942804 -0.05483281 -0.41162628 -0.24101606 0.117678076 -0.13126464 -0.059564598 -0.01871233
-0.11644213 0.03131889 -0.08967262 -0.5033052 0.2783415 -0.024813825 0.07802959 -0.35728076
0.16285874 -0.046006825 -0.58450234 -0.063925505 -0.4330595 -0.104575336 0.3097292 0.25199878
-0.21044795 0.25853166 -0.005150951 -0.021509355 0.32532957 0.30232072 0.26781523 -0.039031565
0.04289806 -0.02547819 0.064312 0.20495829 0.5962927 0.21544006 -0.551068 -0.47582147
0.034941744 0.16249752 0.021480378 -0.32875913 0.0026489196 0.0072780084 -0.22148739 0.36936742
-0.11442518 0.05201767 0.39336738 0.041170757 0.13541657 -0.05401558 -0.14881359 0.04646117
-0.035621896 -0.029179605 -0.017835058 0.024854697 -0.008865529 0.010132713 -0.85972905 -0.36178887
0.041206602 -0.2924408 0.6002424 -0.12119344 0.03254869 -0.21567956 0.07066443 -0.3454274
0.41011813 -0.30382347 0.14103113 0.5778249 -0.069870345 0.10721195 -0.08190095 -0.16603017
0.34458733 0.14947397 -0.009219679 0.19579107 0.022109313 -0.15257247 0.025092963 -0.050095312
0.17004873 0.25481722 -0.19993731 -0.02595869 -0.0042981217 -0.09397801 -0.13682847 0.15783626
0.22563833 0.0940698 0.6573843 0.13972957 -0.36699954 -0.05998217 -0.24945821 0.25959462
-0.19475815 -0.1935178 -0.38461924 0.017743178 -0.044843957 -0.2693061 0.2642801 -0.08689784

critic.0.bias f4 [64]
00000000: 8d89 a93e 6218 92be 27af 01bf 41a2 a83e
00000010: 637f 68be 5a4b a6bd 7efc a33e da83 f9be
00000020: 734b 613e 6cff 51be 0f09 02be a0d2 6fbe
00000030: 1792 39be 081c 673e 81f1 833d 8d66 1b3f
00000040: b514 f13e 1481 503e 9ebc a5be 5d4b febe
00000050: 77da 333e 84ba 66bc 7a63 713e 5902 35be
00000060: 66d4 77be 1064 9abd 2363 143f 3cf0 39be
00000070: c36d 25be 38d1 d4be 6f1d 0e3f 3ab5 82be
00000080: b400 0e3d 2028 aabe 74e8 273d 13be 1a3e
00000090: b7c6 a6be 298d e43e 0770 0f3f c55c 10bf
000000a0: b58e 353e 003f f03b d56d ce3e 7ea2 45be
000000b0: 046a aebe 3498 f73d 01c5 163e e6b2 27be
000000c0: 81e9 d2be 2794 e53e 0a2c debe 9962 3ebe
000000d0: 08fa 11bf 8f98 0abf ee32 94bd 3668 58be
000000e0: ef63 2b3e 0847 9cbe 666e 0dbf 281c 4d3e
000000f0: 7a36 39be 1fe1 ae3e d322 883e 7490 03bd
0.33112755 -0.28534228 -0.50657886 0.3293629 -0.22704844 -0.08119841 0.32028574 -0.48733407
0.22001438 -0.20507592 -0.12698768 -0.23420191 -0.18122135 0.22569287 0.064425476 0.60703355
0.4708611 0.2036174 -0.32370466 -0.49666873 0.17563806 -0.014082555 0.23573104 -0.17676677
-0.24202117 -0.07538617 0.5796377 -0.18158048 -0.16155152 -0.4156587 0.5551366 -0.2552889
0.03466864 -0.33233738 0.04099317 0.1511157 -0.32573482 0.44638947 0.56030315 -0.56391555
0.1773022 0.007331729 0.4031817 -0.19300267 -0.34065259 0.12089577 0.14723589 -0.16376838
-0.41193774 0.44839594 -0.43392974 -0.185923 -0.5702214 -0.54139036 -0.072362766 -0.21133503
0.1673734 -0.30522943 -0.5524658 0.20030272 -0.18087187 0.3415613 0.2658907 -0.032120183

critic.2.weight f4 [64, 64]
00000000: 49e2 50be 6062 ea3d f770 c73e 93b1 44bd
00000010: 3318 143e 7ba3 e93d ac55 bebc 82e5 ba3e
00000020: 5db4 323e cbd3 d13e 47ff abbd b3e1 80bd
00000030: 0c0a 3f3e fd3c 94bc 6f84 263d f930 91be
00000040: 19d4 c7be f827 febe d4a0 16be d5d8 143f
00000050: 134a d7bd 03ae a03d a4f0 05be 8a13 03be
00000060: 175b 153d b31a 8e3e 59d9 6abe 9682 c23d
00000070: 7878 393e 4e3b 823e 280e 98be 67aa 1bbe
00000080: fc10 85bc 61f6 9f3d eee2 e1bd 7837 233d
00000090: e9b0 f03e 133f 163d e221 0abf c913 673e
000000a0: de7b 51bd 25ff 813d 2535 e5be 021e 003e
000000b0: 6299 233e c973 813d 392c e5bd 201e 28be
000000c0: 0151 183e e0c9 bebe 1870 1a3e 1bf3 0fbe
000000d0: 82c7 083f 44f8 ff3e 6f28 53bc a049 21be
000000e0: ecbd 5fbe d35e 773e b00f 113f e86c 1cbd
000000f0: 6cf5 03bd af0e 3abe 5ea8 693d 2bc5 8f3d
00000100: a2a0 153e f045 23be 9e43 3a3e edfc 7fbd
00000110: 0d5b 69be 02d7 6c3e e5ed dc3d d93b 45be
00000120: 28a1 963c 5caa c1bc 23dd d53d cf2e 723e
00000130: 2423 3d3e 858b 65be bbde 433e 2001 3b3f
00000140: 5f8c 813e 0f2f 0cbf a067 93be 4120 003f
00000150: bdac b03e 3410 29bd e037 093e 96f1 b3be
00000160: 6cef 03bd e9eb e0be 279a bd3e 077f 86bd
00000170: c63a 8c3e df02 1c3c 5da2 ff3e 9fdc c23d
00000180: 719b 2fbe 5b70 883e 26f7 66be 5c4d a63e
00000190: 411f 963e f6a6 16be 91be da3d 2e47 c7be
000001a0: 0de9 c4bd de25 3f3e c084 723e e27b 763e
000001b0: 1f3a 673d d003 a5bd 66ba acbe e796 40be
000001c0: e67c 03bc 6f2c 4e3e 5973 7ebe 1dc1 7bbe
000001d0: 68ad dc3d 9cc8 60bd 4899 b83e 73de 1d3d
000001e0: 2284 863e c198 bdbd f9a7 39bf eff7 9e3c
000001f0: 4c1a 18be 300f a13d 0868 24be 9a05 803d
00000200: 3507 42bc e170 b93d fb30 b8be b47e d23d
00000210: b00b a1be 6b90 1cbe 796c f9bd d872 09bf
00000220: 7f09 a73a 101d 863e 88c5 653d 250b 66be
00000230: 1f3c fb3d 0d4c 953d 9f8b b7be c049 fc3d
00000240: 7e16 1e3f e293 1a3e fb75 f23d 1488 bfbe
00000250: a0fb 9cbd 7a51 45be 50ea 48be 1b82 4abe
00000260: 0711 a4bd 6ba4 ecbc 62c6 1e3e d1de 36be
00000270: 90d4 7bbe df1a 84bd e10c 793d 55ab b43e
00000280: 1dc5 8fbd 8ec8 69be ae96 ef3c 5cc0 503d
00000290: d6b3 3bbe a88b 8bbd 0e5b 013f 836c 28bf
000002a0: 7a62 e0bb 38a2 f33d 9dc6 933e 1cca 8fbd
000002b0: de9b 1fbe 68f8 b63d 50af b43d 2c21 b53d
000002c0: c440 12be f135 4d3c d4d8 9c3c 7f5a f3bd
000002d0: 2f8d e2be 82c4 3bbf fdc8 59be 60a3 9fbd
000002e0: fc0b f73d 00b4 643d 66bf bbbe 79ef be3e
000002f0: 98fa 82be 15ff 593e 1483 653e 1892 a4be
00000300: 9280 903e 6448 8bbd c538 64be c488 833c
00000310: 6967 203b 6fd0 58bd f893 41be 92c6 9ebd
00000320: 60cb b23e baa9 2e3e 9455 a6bd 8489 9cbd
00000330: 43f1 86bd af34 563e c945 d13d f066 ac3e
00000340: 14a4 213f 96ea 81bc 76e9 25be cf0a 3fbf
00000350: ea0c 983e e446 28bd 6c70 cd3d 1586 59bd
00000360: 14dc 713d 59c3 a7bb 7d87 213f 79ba 97be
00000370: 4709 08bd 4be3 27bd e727 3dbd b349 333e
00000380: 0077 c73c 8607 d2bd fd5d 873e cb79 83be
00000390: a50d 8dbe 5d0a f7bc 7ca1 cc3e 4040 8abe
000003a0: 284d ad3d 8d0a 44be 28c5 03bc 69fb bd3b
000003b0: 030b 8bbe 467c f53d ed67 473d d4cd 9b3d
000003c0: b8f5 363e a110 6bbc 9a2c 983d 9568 cd3d
000003d0: c690 2cbf 74d7 e5be fe8b 5bbe 418c c0bd
000003e0: b095 9c3d 446a 11be b5e3 86be a25b 443e
000003f0: 5a69 74bc ca83 ec3e b73a 8dbb 07db 10be
-0.20398821 0.11444545 0.38953373 -0.04802091 0.14462356 0.114081345 -0.02323421 0.36503226
0.17451616 0.40981898 -0.083983 -0.06293049 0.18656176 -0.018095488 0.040653642 -0.28357676
-0.39029005 -0.4963987 -0.14709789 0.5814336 -0.105121754 0.0784569 -0.13080078 -0.12800422
0.036463823 0.27754745 -0.22934474 0.094975635 0.18112361 0.2543587 -0.296983 -0.15201722
-0.01624345 0.07810665 -0.110296115 0.03984782 0.47009972 0.036681246 -0.5395795 0.22566141
-0.05114352 0.06347493 -0.4476711 0.12511447 0.1597648 0.063209124 -0.111900754 -0.16417742
0.1487465 -0.37263393 0.15081823 -0.14057581 0.53429425 0.499941 -0.012888058 -0.15750742
-0.21849793 0.24157266 0.5666456 -0.0381898 -0.032216474 -0.18169664 0.057045333 0.07020029
0.14612058 -0.15944648 0.18189856 -0.06249707 -0.2278864 0.23128894 0.10787562 -0.19261111
0.018387392 -0.023640804 0.10442569 0.23650669 0.18470436 -0.22416504 0.19127934 0.7304859
0.25302407 -0.54759306 -0.28789997 0.50049216 0.3450679 -0.041275218 0.13400221 -0.35145253
-0.032210752 -0.43929985 0.3703167 -0.06567197 0.2738859 0.009522169 0.4992856 0.095147364
-0.1714914 0.2664822 -0.22555217 0.32480896 0.2932072 -0.14712128 0.10680879 -0.38921493
-0.096147634 0.18666789 0.23683453 0.24070695 0.056451913 -0.08057368 -0.3373596 -0.18807565
-0.008025384 0.20134138 -0.24848689 -0.24585386 0.10775262 -0.054878816 0.36054444 0.038542222
0.26272684 -0.09257651 -0.7252193 0.019405333 -0.14853781 0.07864225 -0.1605531 0.062510684
-0.011842539 0.09054733 -0.3597487 0.10278073 -0.3145423 -0.15289466 -0.12178893 -0.5369086
0.0012743919 0.26194048 0.056096584 -0.22465189 0.122673266 0.07289896 -0.3584871 0.12318754
0.6175307 0.15095475 0.11838909 -0.37408507 -0.07665181 -0.19269362 -0.19620633 -0.19776194
-0.0801106 -0.028886994 0.15505365 -0.17858435 -0.24592805 -0.06450438 0.060803298 0.35286966
-0.07020018 -0.22830412 0.029246654 0.0509647 -0.1833032 -0.06813747 0.50529563 -0.65790576
-0.006847677 0.11896175 0.28862467 -0.07020971 -0.15586802 0.089340985 0.08822501 0.08844218
-0.14282519 0.012525068 0.01914636 -0.11882495 -0.4424834 -0.7334672 -0.21268077 -0.07794833
0.12062833 0.055835724 -0.36669463 0.37292078 -0.25581813 0.21288712 0.22413284 -0.3214271
0.2822309 -0.06800917 -0.22287281 0.016056426 0.00244757 -0.052933153 -0.18904102 -0.07752718
0.34920788 0.17056933 -0.081217915 -0.076434165 -0.06588986 0.20918535 0.102183886 0.33672285
0.6314099 -0.01585893 -0.1620234 -0.7462587 0.29697353 -0.04108323 0.100312084 -0.053106386
0.059047773 -0.005119723 0.63097364 -0.29634455 -0.033211973 -0.040988248 -0.046180632 0.17508583
0.024348736 -0.10255341 0.26438895 -0.25678858 -0.27549472 -0.030156309 0.39966953 -0.27002144
0.08461982 -0.1914465 -0.008042611 0.0057977927 -0.2715684 0.11986594 0.048683096 0.07607618
0.17867172 -0.014347226 0.07430382 0.10029713 -0.67408407 -0.4489094 -0.21440122 -0.09401751
0.07645738 -0.14200693 -0.26345602 0.1917558 -0.014917696 0.46194297 -0.004309978 -0.14146052

critic.2.bias f4 [64]
00000000: 2828 bebe e04c 873e b9b1 e53e 5d76 a13e
00000010: bf20 38be c2ae 02bf 2b69 ba3e dedc 023e
00000020: 7812 b0be 542f 15bf 3bb0 c7be e6d1 0e3e
00000030: 8207 8e3e beb5 c0be 4891 db3e 454f 74bc
00000040: 2fd0 c9bc 363f ccbd b79d cebe ab5c b33e
00000050: 0527 d0be ad8e eabb 7917 96be 8409 ef3e
00000060: a311 943e 4cf4 b1be 0070 c4be fb4a ccbe
00000070: 9527 74bd 93bc d03e 8de7 d53e 7ca9 ac3e
00000080: 919d a5be c73f d73e a42e b1be 64b8 c9be
00000090: 4e7e b3bd 1ec6 d7be aefb cebe 7fbd f03e
000000a0: 140f d5be 70a8 f03e e5e6 cabe 9054 e8be
000000b0: 0dbc c33e 8339 a1be 5ac5 523d aaf3 33be
000000c0: 6143 d4be 6fd1 babe b979 d7be 65e9 be3d
000000d0: a2df b7be 5ab6 d73d faed b43e 5c3e 703d
000000e0: 039c fbbd 2132 c63e 59a1 bf3e cb73 cf3e
000000f0: 85e0 523d e5df cdbe bb2f 15bf d403 d33e
-0.37140012 0.26425838 0.44862154 0.31535617 -0.17981242 -0.5104791 0.36408362 0.12779567
-0.3438909 -0.5827534 -0.3900164 0.13947257 0.27740103 -0.37638658 0.42884278 -0.014911477
-0.024635402 -0.09972994 -0.40354702 0.35031638 -0.4065477 -0.0071581216 -0.29314783 0.46686947
0.28919706 -0.34756696 -0.383667 -0.39900956 -0.05960806 0.4076887 0.41778222 0.33723056
-0.32346776 0.42040846 -0.34605896 -0.3939849 -0.08764325 -0.4214334 -0.4042639 0.47019574
-0.41613066 0.47003508 -0.39629284 -0.45377016 0.3822941 -0.3148919 0.05145774 -0.17573419
-0.41457656 -0.3648791 -0.42085055 0.0932186 -0.35912806 0.10532828 0.35337812 0.05865322
-0.12285616 0.3871012 0.37427786 0.4051803 0.05148365 -0.4020988 -0.58275956 0.41213858

critic.4.weight f4 [2, 64]
00000000: 2b53 3cbf 30f5 c8bf dd13 423f 4013 5c3f
00000010: e662 b33f a022 03bf 279d 7d3f 94ec 773f
00000020: 08fc 71bf 32fd 0ebf 6345 2ebf 1382 b23f
00000030: 3af8 c7bf 9434 5abf 316b 573f 8183 9dbf
00000040: c4d1 a4bf 687a 8a3f 855a 30bf ebb2 5b3f
00000050: 76dd 45bf 39a4 a4bf 68a9 72bf 2d56 383f
00000060: 51fb 8f3f 44ec 41bf 9933 25bf ff3a 46bf
00000070: 436c a5bf b600 3d3f bd5b 363f ca22 483f
00000080: 2443 68bf f4b5 4e3f f0da 53bf 6ec9 29bf
00000090: 0ffd 91bf 8882 36bf 2dc4 74bf 740b 463f
000000a0: f16a 5abf 4071 443f 2baa 42bf 521c 51bf
000000b0: 77a7 4e3f b113 65bf 6a51 853f 64f1 af3f
000000c0: 0e57 22bf 7936 51bf ce84 6fbf cce4 a03f
000000d0: 2494 66bf 46b0 ae3f 1de2 5d3f 4f91 723f
000000e0: d64b 9ebf baa9 5b3f d786 853f 3920 4a3f
000000f0: 0308 923f 8d00 4fbf 6595 29bf a370 553f
00000100: 6008 76bf 27a2 91bc 5847 633f 9671 733f
00000110: 8d5e 0bbe 3cb5 84bf 08b3 423f bef2 40bd
00000120: e212 38bf 044d 57bf b8ba 83bf d9ca 903e
00000130: 0dc4 cc3d c812 72bf d3f2 793f d9fd 2f3e
00000140: dc1e 403e da84 babe 309b 67bf 3a99 793f
00000150: 0696 56bf b3fc ed3d 43d7 23bf 52bf 683f
00000160: 96a9 3c3f ca05 72bf 61b2 77bf 4069 69bf
00000170: 02d2 3abd 8069 4c3f 06a1 6d3f bae6 843f
00000180: be8b 4abf 5ba7 843f 5384 84bf 0ca6 7fbf
00000190: 2ab2 f1bd 6a52 63bf d4a8 6bbf 7338 623f
000001a0: 6be4 42bf e8a0 523f ce71 7bbf 2db2 4bbf
000001b0: fe16 683f 93fb e5be 38d4 b0bd 87e7 1d3d
000001c0: 7972 68bf a3ef 6ebf f7bf 3fbf f1c6 893e
000001d0: 4f24 3cbf d97d 7c3e 1357 5d3f 917c 8d3e
000001e0: ce47 e5bd 9e52 563f 3c6a 433f 48c8 553f
000001f0: 0bc7 193d 833b 5bbf 2847 63bf 1a79 3c3f
-0.73564404 -1.5699825 0.7581156 0.85966873 1.4014556 -0.5122471 0.9906792 0.96845365
-0.94525194 -0.55855095 -0.68074626 1.3945946 -1.5622628 -0.8523648 0.84147936 -1.2305757
-1.2876515 1.0818605 -0.6888812 0.8581988 -0.7729105 -1.2862617 -0.94789743 0.72006494
1.1248571 -0.7575114 -0.64531857 -0.7743377 -1.2923664 0.7382921 0.7123373 0.78178084
-0.9072745 0.8074639 -0.8275595 -0.6632298 -1.1405352 -0.71292925 -0.9561184 0.77361226
-0.8531943 0.76735306 -0.76040906 -0.8168384 0.8072428 -0.8948317 1.0415471 1.3745542
-0.63414085 -0.81723744 -0.9356202 1.2569823 -0.90069795 1.3647544 0.86673146 0.94752973
-1.2366893 0.8580586 1.0431775 0.7895542 1.1408695 -0.80860215 -0.6624358 0.83374995
-0.9610653 -0.017777516 0.88780737 0.95095193 -0.13610287 -1.0367808 0.7605443 -0.047106497
-0.7190381 -0.8410189 -1.0291357 0.2827976 0.09998331 -0.9455991 0.97636145 0.17186679
0.18761772 -0.36429483 -0.9047117 0.9749943 -0.8382267 0.11620464 -0.6400034 0.9091693
0.7369627 -0.94540083 -0.9675656 -0.91176224 -0.045610435 0.7984848 0.9282383 1.0382912
-0.7911948 1.0363573 -1.0352882 -0.9986274 -0.1180156 -0.8879763 -0.92054486 0.88367385
-0.7612979 0.82276773 -0.9822053 -0.7956875 0.90660083 -0.44918498 -0.086342275 0.03855088
-0.9079967 -0.93334407 -0.7490229 0.26909593 -0.734929 0.24657382 0.8646099 0.276341
-0.11195336 0.83719814 0.76333976 0.8350873 0.037543338 -0.8563768 -0.8878045 0.73622286

critic.4.bias f4 [2]
00000000: b4b7 1b3f 2177 163f
0.60827184 0.58775526

actor_mean.0.weight f4 [64, 26]
00000000: ff65 16bd 1259 96bd 985a 11be f410 3a3e
00000010: ce05 86be 0496 a33e 999c 983c be25 2dbe
00000020: ee7c 163e 1511 ccbd 0e14 64bd 6b8d 063d
00000030: 7f73 04be fb4d 5bbe 086c 0c3e f941 2dbe
00000040: d77e 29be 6aca 4b3e 339a 5a3e 7bae 0dbe
00000050: 390f 603e c844 dc3c 51ce e03d 3d4f 18be
00000060: 1672 03bd d0e2 e1bd 2d30 003e ac51 b8be
00000070: 9e8e 16be a448 243e f15e 7abe 96a2 463c
00000080: 8d25 fcbd ac1d 8cbe cfe4 d93a da90 fa3d
00000090: 9a5e 00be 1951 b23d 83eb 87bd 6c38 fdbd
000000a0: b31c a6bc f523 c3bd 8657 66be 6c50 833c
000000b0: e647 dc3d a4b6 983e ef41 a4be 4cce 193e
000000c0: 2752 b4be 21b1 84bd 0b87 dc3d dd10 833d
000000d0: 04b0 d7be 548c cdbd a767 0ebd ce72 d3bc
000000e0: e5fb 8bbe b16b 68be ba75 a4be 548a 253e
000000f0: c528 79bd 4099 c5bc 3e77 05bd 1011 a33e
00000100: fe8b f93d fa5a 07be 8910 0c3e d9bc 1d3f
00000110: 9498 9c3d 7a01 51be df9e debc 512b 58be
00000120: 1b87 803d 979b 173e e3f5 58bd bf93 0cbe
00000130: 26b1 0fbf c648 eebb 770e 633b 7147 3ebe
00000140: 4f9c d2be 1174 b3be 382f 5ebe 1f08 523d
00000150: 0aac 03be 0455 883e 47a3 15bd c005 c0bd
00000160: d441 f2bd 07b2 20be 2ba5 523d f5e9 2dbd
00000170: 503b 9fbe 086b da3d db15 99be b704 593d
00000180: 709c 2a3e b2e7 24be 3cdd 9fbc 6fb2 30be
00000190: 8863 003e a556 cd3d 1546 f9bc 55be e73d
000001a0: b62a 92be c18f dcbd 232a 843e 3f75 913d
000001b0: 5cb9 a5bb 2543 fdbd 079e adbe da59 c73d
000001c0: aa2c 1d3e a994 95be f876 603c e65f 043e
000001d0: d4ff 94be 8cd3 a9be b21e 13be 61c9 5cbe
000001e0: 3b1e debd 9545 803e 17e8 143e 368d 893e
000001f0: 8948 babd 47ff 213f 0c2e 353c 89d0 37bd
00000200: 6732 323e d997 aa3e 041c 79bd db5e 68be
00000210: c60f 69bd 561d f33e f13c 8dbe 7e23 0e3e
00000220: 6019 22be 5274 b03c 17a7 8fbd 072c a83b
00000230: d2ad 913d 071b 9ebe 1558 4bbe 2f84 bbbd
00000240: 7e39 1a3e 453b e4bc 59d6 0a3f e3f5 4dbe
00000250: d12e 86be b22d 363e 2964 303e c49c e13c
00000260: 7032 2bbe 2e39 2d3e 971d b4be f851 123d
00000270: 0af4 773d ec7f bc3e d108 96bd 9b61 56be
00000280: 94aa af3e e2da 6f3e a07b 063f 852a fd3e
00000290: 1047 77bd d267 a4be fb24 7fbe 2cc1 34bd
000002a0: 7ae4 b13d 85db b53e 5bfb 1a3e 7e36 e7bc
000002b0: 8c28 bd3d 66b2 a63d 7076 f9bd 27a2 a03e
000002c0: b251 30be 5795 d83d a950 c33d 523f 3dbe
000002d0: 968a b83d 273b c4bd 66fe 89be c596 493e
000002e0: 545c 0bbe 2f9c b33d 19ce b93d 24da 6fbc
000002f0: 34f8 173e 4db2 a1bd 3f98 d7bd 8564 85bd
00000300: a75c 97bd 12ee 04be 22c8 983e 27d3 4a3e
00000310: 04b3 123e e229 11be c2f2 4f3e 897e b63d
00000320: e5a8 e03e 7f55 503b 0dfb 823d 16d3 a23e
00000330: f1a8 65be d76d 5abd 77cc a2bd 14db e1bd
00000340: 91a7 793e ef87 01be 1f87 c63c 55b7 8abe
00000350: a8d1 bdbd af86 56be 2e06 b23d 185b efba
00000360: 1efc 49be bc4e dbbc 2fe4 3a3d 6af0 42be
00000370: fc52 eabd d122 5a3e 289f 20be c42a 923d
00000380: dea9 4abe 5c83 3a3d a1ab 473e cc68 97bc
00000390: db55 87bc 3f2d b23e bced c2be dbab 683e
000003a0: 2f24 20bd 6e17 7a3e dea4 81bd 7bd7 8bbd
000003b0: 75b3 8ebe 713d fe3d 2f70 0d3e 3129 df3d
000003c0: 277b 95bb 43b2 7e3e 056a 51be 853f a13c
000003d0: bc14 7b3e 298e eabd da4d a9be b12a 833c
000003e0: 4efd 203e fe66 103d 7d27 1ebe 6570 dcbd
000003f0: da41 8cbe 6400 aa3d 6986 d3be 3e5c 9cbd
-0.036718365 -0.073412076 -0.14194715 0.1817053 -0.26176304 0.3195039 0.01862936 -0.16908929
0.14696094 -0.09964196 -0.05568319 0.03284971 -0.12934683 -0.21416466 0.13713086 -0.16919698
-0.16552292 0.19901434 0.21347885 -0.1383609 0.21880807 0.026888266 0.10976852 -0.14873977
-0.032091223 -0.11029589 0.12518378 -0.3599981 -0.14702842 0.16043335 -0.2445028 0.012123724
-0.1231185 -0.27366388 0.0016623976 0.122346595 -0.12536088 0.087068744 -0.06636717 -0.12364277
-0.020277357 -0.09528343 -0.22494325 0.01602956 0.10755901 0.29826844 -0.32081553 0.15020102
-0.35218927 -0.06479097 0.10767945 0.06399701 -0.42126477 -0.10036531 -0.03476682 -0.02581158
-0.27340618 -0.22697331 -0.32121068 0.16166049 -0.060829896 -0.024120927 -0.03258442 0.31848955
0.121849045 -0.13218299 0.13678183 0.61616284 0.076462895 -0.2041072 -0.027175365 -0.21110274
0.06275769 0.14805447 -0.05296887 -0.13728236 -0.5612968 -0.007271859 0.0034646073 -0.1858194
-0.4113488 -0.3504949 -0.216977 0.051277276 -0.12858596 0.26627362 -0.036532667 -0.09376097
-0.11828962 -0.15692912 0.051427048 -0.042459447 -0.3109994 0.10664946 -0.29899487 0.052983012
0.16661239 -0.1610401 -0.019514672 -0.17255567 0.12537968 0.10026292 -0.030428926 0.113156
-0.2854821 -0.107696064 0.25813398 0.07102441 -0.005057497 -0.123663224 -0.33909628 0.09733935
0.15349069 -0.2921498 0.013700239 0.12927207 -0.2910143 -0.3316921 -0.14367178 -0.21561195
-0.1084561 0.25053087 0.1454166 0.26865548 -0.09095866 0.6328015 0.011058342 -0.04487661
0.1740204 0.33318976 -0.060817733 -0.22692434 -0.05689981 0.4748332 -0.27585557 0.13880727
-0.15829992 0.02153984 -0.07014292 0.0051322016 0.07113232 -0.30879995 -0.1985782 -0.091560714
0.15060994 -0.027860293 0.5423332 -0.2011333 -0.26207593 0.17790869 0.17225708 0.027540572
-0.16718459 0.16916344 -0.35178825 0.035722703 0.06053547 0.36816347 -0.073259 -0.20935671
0.34309828 0.23423341 0.52532387 0.49446502 -0.060370505 -0.3211046 -0.2491645 -0.044129536
0.086861566 0.35519043 0.15134947 -0.028224226 0.09236249 0.081394956 -0.12180793 0.31373712
-0.17218664 0.10575359 0.09536869 -0.18481186 0.09010808 -0.09581595 -0.26951903 0.1968642
-0.13609439 0.08770024 0.09072513 -0.014639411 0.14840776 -0.07895336 -0.105270855 -0.06513313
-0.07390719 -0.12981442 0.2984019 0.1980711 0.14326102 -0.14176133 0.20307449 0.089108534
0.43878856 0.003178924 0.063955404 0.3180167 -0.22427727 -0.053327408 -0.07949155 -0.11028114
0.24380328 -0.12649511 0.024234353 -0.27092996 -0.092685044 -0.20949815 0.08692585 -0.0018261401
-0.19725081 -0.026770942 0.04562777 -0.19037023 -0.11441609 0.21302344 -0.15685713 0.07137063
-0.19791362 0.04553543 0.19499065 -0.018482588 -0.016520431 0.34800145 -0.38072002 0.22721808
-0.039097007 0.24423 -0.06330274 -0.06828209 -0.2787129 0.12414063 0.13812326 0.108965285
-0.0045618 0.24872689 -0.204506 0.019683609 0.24519628 -0.11452896 -0.3306721 0.016011568
0.15721628 0.03525447 -0.15444751 -0.10763625 -0.2739399 0.08300856 -0.41313484 -0.07634781

actor_mean.0.bias f4 [64]
00000000: 5521 f5bd 5874 6d3d c890 50be fda3 6c3d
00000010: b581 b03c 4b1b ebbd 7a6d fbbb 342a 12be
00000020: 3c8b 923d 8e9e 5ebd a1d2 dfbc ceae b8bd
00000030: b448 223d 7079 633d b5e0 123e 7141 b9bc
00000040: a48a 33bd 55fc 0f3e 9a62 f1bd 8167 99bd
00000050: 9186 793d 2153 28bd acb0 ce3d 3cc7 dbbc
00000060: 36fa b43d 139c aa3d 3460 11bd 9dfe 493d
00000070: f0d5 ecbd 4eec 523d 41b5 393d 4afe 1cbe
00000080: 1dde 343d fd0f afbd 702e b83d 7bf6 b93c
00000090: 1aa8 ebbb eed5 963c 7bd1 11be a8aa a93d
000000a0: ad13 1c3c 5c19 5e3d 650c 28bd f79f 413d
000000b0: 0f60 f73d 8930 ac3d 4d37 8e3b df25 e6bc
000000c0: 360c 83bc b07c ff3d 4d2d 83bd fe13 4e3d
000000d0: 7458 0c3d 61f8 f93c 8805 0fbe f0fd 04be
000000e0: cc81 8a3d 11c5 37be f67e eebc 0c4b 1fbc
000000f0: 2aa1 8f3d 84cf c1bd 23a9 fd3a f488 8c3d
-0.11969248 0.057972282 -0.2036773 0.05777358 0.021546224 -0.11479815 -0.0076729627 -0.14273912
0.07155463 -0.05435043 -0.027322115 -0.09017716 0.039620116 0.055535734 0.14343531 -0.022614213
-0.04383339 0.14061101 -0.11786385 -0.07490445 0.06091935 -0.041094903 0.10092291 -0.0268284
0.088367864 0.0833055 -0.035492137 0.049315084 -0.11564243 0.05149489 0.045338873 -0.15331379
0.044157136 -0.085479714 0.08993232 0.022700539 -0.00719167 0.018412556 -0.14240067 0.08284503
0.009526175 0.054223403 -0.041027445 0.047271695 0.120788686 0.08407695 0.0043400885 -0.02809423
-0.015997034 0.12474954 -0.06405125 0.050312035 0.034264043 0.030513944 -0.13966954 -0.12987494
0.06763038 -0.17946269 -0.029113274 -0.009722482 0.070131615 -0.094634086 0.0019352775 0.06862059

actor_mean.2.weight f4 [64, 64]
00000000: b46f 03bd bc92 a63d da26 31be bcd5 74be
00000010: cd88 26ba 8e5a 1abe c51b 363d 792d b1be
00000020: f64c 4cbe b892 ce3e 6a14 fd3e 93e9 09bc
00000030: 5691 c8be 1835 e1bc b72f abbe 344b 33be
00000040: ab16 0c3e e532 06bf 31dd 6a3e d1aa a1bc
00000050: c699 963b 82aa 7bbe af7e a9bd eb85 053d
00000060: d3f5 50be 6db9 41be d275 283e 7201 be3d
00000070: 1a00 d93d e189 2e3d 119d 393e 9a7e 98be
00000080: 00dd 3b3e 9388 883e 244e 1b3e d9c7 853d
00000090: ad1d 933d 1f6b 9d3d 8cfb 783e 2e85 c9bd
000000a0: d899 3bbc f23a 58bd 5858 fa3d bf1a ba3d
000000b0: 6a94 b1bc 96f1 ecbd aae1 22be 63b1 41be
000000c0: a03d 323e 2f7b a23c 56ca 45bd 8315 4dbd
000000d0: 426e 42be a8c8 4d3e 6b37 703c 80ab 893c
000000e0: 91e6 903e 52f9 b7be ca83 cabd 4db3 81bd
000000f0: c23c 63be 7e51 a4be 1808 dc3d 2775 d2bd
00000100: 6756 493d 5ab9 5ebe cf0f 73bd 9fd3 293e
00000110: 1efb 6fbe 06a1 3a3e d057 1c3e f5cd b73e
00000120: 18f2 9b3e aa9e 463e e55a ea3d 3f8f 413e
00000130: edcf b3be 00da 19be cf6b e0bd d1f2 f03d
00000140: b20f 913e a6b5 70be 9cc0 ce3e a294 183b
00000150: 9879 a0be 63aa 7a3e eee4 9cbd f1cb bdbd
00000160: 69ec 573e 8b70 0c3b c8b1 62be b974 d8bd
00000170: 3c97 2d3e 44eb 853d 599d 6fbd 9575 dd3a
00000180: c211 d3bd c813 f4bd 82a4 e0be 3484 bdba
00000190: d2a9 b03e 62a3 05bb 576a bcbc 89a7 09bd
000001a0: 4bea f73d e414 2c3b b035 523c 27b6 16be
000001b0: 74b9 073d aece 6cbb 8dd1 75be cce1 b5bc
000001c0: d812 49be 299e 0a3b 095b 5bbd 4170 2fbd
000001d0: 9bb1 823e 1142 98bd 0027 9abe 5a8c 04be
000001e0: 606b fbbd de1d 53be 45d9 423e 8256 873e
000001f0: 3e0c 773e fe21 60be 3e9a 00be 6808 653d
00000200: 1d01 84be 6a29 e1bb bbb7 8a3e 4b62 193d
00000210: aa0f c83d ea07 e23e 4505 f13d 3942 333e
00000220: 4a56 933d 6a3c 45be 31b8 f13d 63b1 a63e
00000230: a4f8 33be 9ba7 cebb 6dd5 1fbe c06e 85bd
00000240: 38f1 a53d 0ed3 83be b8d6 643d 81b5 13be
00000250: 5264 40be 0ab3 dbbd 3fec d9be 1b5e 833e
00000260: 21fa 00be eaf6 2fbd 8c79 47be 9189 fbbd
00000270: 0110 453d 1eac 60be 32ec 513d 8f53 8ebe
00000280: bd51 a2bd 14cc 90be a7c4 7cbc daf2 203e
00000290: 0182 8abe 8c74 64be 757c 92bd bfd8 4fbe
000002a0: fe44 cd3d 43da acbd d0dd 883e 547a 203e
000002b0: 29de ba3e 4e12 dfbb ba8a a43e 8083 683e
000002c0: 5ed8 893e ae31 25be db74 e13d 6dfb 09be
000002d0: d65e 853e 1b4d 66be a32d b43d f246 f0bd
000002e0: 0cf1 8bbe 490f 0b3d aca4 f43d 42f5 60bd
000002f0: d93d 9cbe 12f4 f53c e10b 703e 5ac3 39be
00000300: d90f 54bd 5c9f d33d c3b0 f03d 4736 e43d
00000310: 6f2b 7d3e cda7 aebd 1ed0 c2bb ec2a 493b
00000320: 5899 193e 85f6 40be 09ff 96be 18c7 58be
00000330: 1dce 0dbe a94b 16be 8f3c f5be 93d5 283e
00000340: 243a ffbd 9be4 d6bd 3831 4f3e d754 d1be
00000350: 1d4b f8bc d56b 063d 6960 3d3e 2e9f d6bc
00000360: 7825 36bd 69f3 833e df9a c2bd 3a05 69bd
00000370: 7151 9cbd 36c7 eabd fe66 8e3e f32d 863e
00000380: 5c10 f83d 14e1 ba3c 2831 5abe dc92 153e
00000390: 3b95 e63d 7dd2 be3d 16e2 eb3e 5eb3 7c3d
000003a0: 0fca acbc 8d79 053e 19ca 70be e5ca 3b3e
000003b0: c5a9 f6be 26dc e8bc 9878 29be 3337 e2bd
000003c0: ddfd be3e 4793 843d 21f3 60be 136c 4abd
000003d0: 04c1 06be c837 e43d 9d39 3f3e dcf9 213d
000003e0: 8ded f9bd c37d 553e 5297 023e 685e 89bd
000003f0: 9f7c f93d b5fa 363e 15c2 823e 98e7 453e
-0.03208895 0.08133456 -0.17299977 -0.23909658 -0.00063527824 -0.15073606 0.044460077 -0.34605005
-0.19951233 0.40346313 0.49429637 -0.008417505 -0.39173383 -0.027491137 -0.3343484 -0.17509156
0.13680522 -0.5242141 0.2293594 -0.019734772 0.004595968 -0.24576762 -0.08276116 0.032598417
-0.20406274 -0.1891839 0.16451195 0.092776194 0.105957225 0.04261196 0.18126322 -0.2978409
0.18346024 0.26666698 0.15166527 0.065322585 0.071833946 0.07686447 0.24314708 -0.09839855
-0.011450253 -0.05279059 0.122238815 0.09087133 -0.021677215 -0.11569516 -0.15906397 -0.18915324
0.1740632 0.01983413 -0.048288666 -0.050069343 -0.18987373 0.20096076 0.01466165 0.01680541
0.28300908 -0.35932404 -0.09888418 -0.06333027 -0.22191146 -0.32093424 0.10743731 -0.10276251
0.049154665 -0.21750394 -0.059341248 0.16584633 -0.23435637 0.18225488 0.15267873 0.3589932
0.3045814 0.19396463 0.11443118 0.189023 -0.35119572 -0.15024567 -0.10958063 0.117650636
0.28332287 -0.23506793 0.40381324 0.0023281951 -0.3134277 0.2447906 -0.076608524 -0.09267414
0.21086277 0.0021429386 -0.2213813 -0.10569138 0.16952223 0.06539014 -0.058499668 0.0016896004
-0.103061214 -0.119178355 -0.4387551 -0.0014458955 0.34504563 -0.0020391573 -0.022999926 -0.03360704
0.12105235 0.002625757 0.012830183 -0.14717923 0.033135846 -0.0036133933 -0.24005719 -0.022202395
-0.19636095 0.00211514 -0.053553615 -0.042831663 0.25526127 -0.07434476 -0.3010788 -0.12944165
-0.122763395 -0.20616862 0.19028194 0.26433188 0.24125764 -0.21887967 -0.12558839 0.05591622
-0.257821 -0.006871392 0.270933 0.037447255 0.09768613 0.44146663 0.11768583 0.1750573
0.07194193 -0.19261327 0.1180271 0.3255721 -0.17575318 -0.006306601 -0.15608759 -0.065152645
0.081026495 -0.2574696 0.055868834 -0.14424707 -0.18788269 -0.10727508 -0.42563054 0.25657734
-0.12595417 -0.042960085 -0.1947996 -0.12282098 0.048110966 -0.21940657 0.051250644 -0.27798125
-0.079257466 -0.282807 -0.015427745 0.1571764 -0.2705231 -0.22310084 -0.071526445 -0.20297526
0.10022925 -0.084400676 0.2673173 0.15671664 0.3649762 -0.006807602 0.3213709 0.22706413
0.26922888 -0.16132233 0.110086165 -0.13474818 0.26048917 -0.22490351 0.08797767 -0.11732282
-0.27332342 0.033950124 0.11945471 -0.054921396 -0.30515936 0.030023608 0.23442031 -0.18140927
-0.051772926 0.1033313 0.117524646 0.11143165 0.247236 -0.08528099 -0.0059452197 0.003069575
0.14999902 -0.1884404 -0.2949145 -0.21169698 -0.13848157 -0.146773 -0.47897765 0.16487722
-0.12462261 -0.10492822 0.20233619 -0.4088504 -0.030309254 0.03281768 0.18493809 -0.02619895
-0.044469327 0.25771645 -0.095021956 -0.05688975 -0.07632721 -0.11463778 0.27812952 0.2620693
0.12112495 0.022812404 -0.21307814 0.14606804 0.11258932 0.09317491 0.46070927 0.061694495
-0.021092443 0.13034649 -0.23514594 0.18339117 -0.481764 -0.028425287 -0.16549909 -0.11045685
0.37303057 0.064734034 -0.21967746 -0.049419474 -0.13159567 0.11143452 0.18674321 0.039544925
-0.12203512 0.20848756 0.12753037 -0.0670746 0.12181973 0.17869075 0.25538698 0.19326627

actor_mean.2.bias f4 [64]
00000000: 6a3e 1fbc 353d 19bd 442f 86bd 15c2 7cbd
00000010: 4d9e 593d 078b a9bd 5b7f a4bd c5ba 323c
00000020: 226b f23a 3b2b 38be 953d 223d 83b0 43bc
00000030: 6dc9 cd3c fbe5 05be d52f a7bd 3fb4 79bc
00000040: 3284 9fbd deca e7bd c1f9 183d 9dba c0bc
00000050: 411f cbbc 5700 c73c a7b3 af3b 6147 033d
00000060: db11 ab3c da66 85bc 54e2 d9bd 6b3a 073e
00000070: 54e0 b23c 19aa 1f3d 8f81 1cbd 1375 53bd
00000080: 8b7d 6a3d 56f8 983d 56c5 8c3d 6a19 863d
00000090: 1912 b8bb 7437 683b 10da f43d d14e 933c
000000a0: 2e9a 75bc bdbb 7fbd d45d 68bd f5de c2bb
000000b0: a631 463c 9de9 1f39 b689 e63b 817c 36bd
000000c0: 05aa 583b 5d16 d5bc 9735 d8bd 46af 873d
000000d0: f4c1 0a3e c9d3 a13c dd31 0cbd 2f53 cb3b
000000e0: 37f4 ac3d 595b c73d 53bd 96bc ee04 5e3d
000000f0: aece 243d 92c2 d73d f2a8 f43c 1d1b ed3b
-0.0097194705 -0.037411887 -0.06551984 -0.06170853 0.053129483 -0.082784705 -0.08032104 0.010908787
0.0018495063 -0.17985241 0.03960951 -0.011943939 0.025120461 -0.13076012 -0.0816342 -0.015240728
-0.07788886 -0.11317991 0.03734756 -0.023526484 -0.024795176 0.024292154 0.0053619924 0.032050494
0.020882538 -0.016284395 -0.10638872 0.13205878 0.021835484 0.038980577 -0.038209494 -0.051625323
0.057248633 0.07469241 0.06873576 0.06547816 -0.005617392 0.0035433443 0.119556546 0.017981919
-0.014990373 -0.0624349 -0.056730106 -0.0059469887 0.012096798 0.0001525045 0.0070354594 -0.04455233
0.0033060324 -0.02601164 -0.105570965 0.06625228 0.1355055 0.019754307 -0.03422724 0.0062049846
0.08445018 0.0973422 -0.018400824 0.05420392 0.040236168 0.10535158 0.029865716 0.007235898

actor_mean.4.weight f4 [6, 64]
00000000: 08db d7bd 488d cabd 344e 05be 836c 1a3d
00000010: dbd4 d93d 7391 3fbd bee3 3fbb 753a 573d
00000020: 6b8c b6bd b259 91bd 1cc6 67ba ed65 91bc
00000030: 9c03 0b3d 0803 bbbc 89e2 95ba 94fc 753d
00000040: f992 d0bb a8ee adbd 05f0 6d3d edaf 813c
00000050: e898 fdbb 2d69 ac3b e8e9 b1bd d236 a83d
00000060: c3b6 1e3c 0c91 763d 417e a9bd ec71 8bbd
00000070: 543d 8bbd e0c3 27bc 62b3 3cbd fc6a 14bd
00000080: 3fdd f2bd c8f4 3c3c 364e b53c 810b 36bb
00000090: cd54 1abd 7e86 7f3c e191 d23c b890 343d
000000a0: eacf b9bc 05c2 8e3d 4082 0c3d fe20 723d
000000b0: c802 0d3b 89f6 bdbd 97d9 1dbd 43c8 8a3b
000000c0: 4065 2fbc 1cea b0bc 822d 553b c992 3b3d
000000d0: 3f49 99bd 6921 04bd 1efd 0dbd a319 463d
000000e0: 05e7 4c3b 754c fb3d ce15 7cbd b7a9 1abc
000000f0: 396a eb3c 62a9 3d3d fcc0 e13d 68ed 4dbd
00000100: 4131 e1ba 4470 1f3c 647b bcbd 4680 1c3d
00000110: 1a48 7f3b 6e72 b53d c677 503d 0264 17bb
00000120: 17b2 12bd 1fbb 833a 3caa d0bc 0748 733c
00000130: 7fa3 adbd d30e d03b e0f1 51bc d17d f6bc
00000140: 0229 233c e2eb 203d a096 cdbd 801c de3c
00000150: 1cd5 6d3d ec90 39bd c4be 51bc af1d 40bc
00000160: 7c05 7fbd e51a 31bd af46 053d e40a 4fbd
00000170: 7db8 68bd 5497 60bd 5794 813d da1e 413d
00000180: 1c96 163d 1172 63bd 6284 aabd cd2c 13bd
00000190: cee4 90bd 64e8 52bb 9f41 3bbe 7a26 b2bc
000001a0: 4f3f a8bd f793 033d e207 443d dd56 a83d
000001b0: ed5e 44bc 399d aebd e56d 41bd d261 72bc
000001c0: 0676 763d 0f69 19bd b920 00bb 551f a43b
000001d0: 76e0 b63c 3ef1 153d 04cc 9a3d 5c1b 8d3d
000001e0: 0b51 c3bc 271c 083d af35 313d f2ba 69bd
000001f0: 2a8b 04bd ced0 34bd ab2d eb3b 4de0 883c
00000200: 687b b1bc 555d 92bb 7e4f 04bd 95ac abbb
00000210: 7f02 91bd 75e9 8b3d 3d50 ad3c 9b65 9dbc
00000220: 28dd c3bc 7f7b 8d3d a408 ec3b 2912 a73d
00000230: 7d63 d63d 17c6 233c 41db ff3d b63c 15bd
00000240: 9791 a8bd 231b 793c 95ab 8e3d 8ad8 38bd
00000250: bb50 b73d fb30 d53c 9629 6c3c b190 283d
00000260: 3f3c e83c f586 a03d 07d2 3f3d 453f e2bc
00000270: c484 7fbc 018a 26bd 01e0 41bd d6e9 743c
00000280: 6399 2e3d b2f0 3d38 51b6 b4bc 9556 29bc
00000290: c72e 1f3c fa35 cf3d ebff 09be 5aa1 a23b
000002a0: 71d5 d2bc ebd7 993c a2a7 6bbc 8155 4a3d
000002b0: afd4 be3d 0bf7 1bbd 1eea 8dbd f4c2 843c
000002c0: cb96 0f3d a6ea 39bc 460d e73b 094a 55bd
000002d0: 3eca 4dbc 51de 1cbb 96ab 613d 643d afbc
000002e0: b86a 973c c958 41bb 8b09 69bd d798 48bd
000002f0: afd5 a93d 063a 6f3d c937 423c bf2a 15bd
00000300: 1f4e bbbc bca2 173d 8223 8e3c f884 223d
00000310: 45a2 6e3c 8c91 8d3c c4c0 953c b22f efbc
00000320: 06e0 d8bd 83dc 40bd 26f1 463c b716 f63a
00000330: c52b d9bc 5774 80bd 212f c43c 8dfc 25bd
00000340: 8c28 f83b c84b 3fbd 96f9 bebd 5e39 943d
00000350: 60b7 d03d fc0b 403c f066 c53c 5105 86bd
00000360: 88b3 f53c 26a6 2f3e adaa 8bbd d28a 1bbd
00000370: 5292 81bd b655 2fbe 7f00 3e3c 4eea bebd
00000380: 9c48 9ebd 570a 40bd f70f a43c 1483 a7bd
00000390: 8d6d adbd 1ebc 32bc aa74 a13d 17d2 e73c
000003a0: 102d 3f3d 370a 56bd 64b0 03bd a170 7d3d
000003b0: 6c41 c4bd 868d 05be 1f1f 66bd cdd8 993c
000003c0: 2a1b a7bd d328 bbbd 106a f53d 6ea9 b2bc
000003d0: ca87 26be 5ec6 563d f9be 923d 0bab 8ebd
000003e0: 4c2c b43d 999f 0fbc 7875 7bbd 71bc b5bd
000003f0: af61 72bd a348 f0bb a557 c03d f987 893c
-0.10539824 -0.098902285 -0.13018113 0.03770114 0.10636302 -0.04676957 -0.0029280032 0.052545983
-0.08913501 -0.07097186 -0.0008841471 -0.017748797 0.03393899 -0.022828594 -0.0011435311 0.06005533
-0.0063651768 -0.08492786 0.05809023 0.015830958 -0.007739175 0.0052615614 -0.08687192 0.08213581
0.0096871285 0.06019692 -0.08276034 -0.06808838 -0.06798807 -0.010239571 -0.04606951 -0.03623484
-0.118586056 0.01153297 0.02213202 -0.0027777853 -0.03767853 0.01559603 0.025704326 0.044083327
-0.022682149 0.069706 0.034303904 0.059113495 0.002151655 -0.092755385 -0.038537588 0.004235299
-0.010705292 -0.021596007 0.0032528345 0.045794282 -0.07484674 -0.032258425 -0.03466522 0.048364293
0.0031265628 0.122704424 -0.061544232 -0.009439877 0.028737174 0.046304114 0.11023137 -0.050275236
-0.0017180817 0.009731356 -0.092032224 0.03820827 0.0038952888 0.08859716 0.050895475 -0.002310038
-0.03581437 0.0010050273 -0.0254718 0.014848716 -0.0847845 0.0063494234 -0.012814015 -0.03008929
0.0099585075 0.039287455 -0.10038495 0.0271132 0.058064565 -0.045304224 -0.01280183 -0.011725827
-0.06226109 -0.04323854 0.032538112 -0.050547495 -0.056816567 -0.054831818 0.06327122 0.047148563
0.03676425 -0.055528704 -0.08326031 -0.035931397 -0.07074891 -0.0032181973 -0.18286751 -0.021746863
-0.082152 0.032123532 0.04785908 0.08219693 -0.011985523 -0.085260816 -0.047223944 -0.01479383
0.06017115 -0.037453707 -0.0019550754 0.005008618 0.022323828 0.03660702 0.07558444 0.06889984
-0.023842355 0.033229973 0.043264087 -0.05706305 -0.03235928 -0.044144444 0.007177075 0.016708517
-0.02166529 -0.0044666925 -0.032302372 -0.0052390792 -0.07080554 0.06831638 0.021156425 -0.019213488
-0.023909166 0.06908321 0.0072031785 0.08157761 0.10468195 0.009995959 0.12492991 -0.03643485
-0.08230894 0.015204224 0.069663204 -0.045128383 0.08950945 0.026024332 0.014414212 0.041153613
0.02834904 0.07838241 0.046831157 -0.02761806 -0.015595619 -0.040658955 -0.047332767 0.014948329
0.04262675 4.5285276e-05 -0.022059591 -0.010335584 0.009715742 0.10117717 -0.13476531 0.0049630823
-0.025736542 0.018779716 -0.0143832285 0.04939795 0.0931791 -0.038077395 -0.0692942 0.016206242
0.035055917 -0.011347448 0.007051143 -0.05207256 -0.012560425 -0.0023936222 0.055095278 -0.021391578
0.018483505 -0.0029502383 -0.056893867 -0.048973884 0.0829271 0.058404945 0.0118541205 -0.03641772
-0.0228644 0.03702043 0.017350916 0.03967759 0.014565055 0.017281316 0.018280394 -0.029197548
-0.10589604 -0.047085296 0.012142455 0.001877508 -0.026510129 -0.0627219 0.023948254 -0.040524054
0.007573193 -0.04670313 -0.093249485 0.072375044 0.10191226 0.011721607 0.024096936 -0.06543983
0.029992834 0.17153224 -0.06819663 -0.037974186 -0.063267365 -0.1712254 0.011596798 -0.09322034
-0.07728693 -0.04688486 0.020027144 -0.08179298 -0.08468161 -0.010909108 0.0788358 0.02829842
0.046673834 -0.052255835 -0.03215064 0.06187499 -0.09582791 -0.13042268 -0.056182023 0.018780136
-0.08159478 -0.09138646 0.119831204 -0.021809306 -0.16262737 0.05243527 0.071653314 -0.069662176
0.087975115 -0.008766078 -0.061391324 -0.08873833 -0.05917519 -0.0073328777 0.09391717 0.01678847

actor_mean.4.bias f4 [6]
00000000: b5a6 e03c 04dd adbd ded1 03bd 8480 80bb
00000010: 46d3 bcbc 8315 4a3b
0.027423242 -0.08489421 -0.032182567 -0.0039215703 -0.023049962 0.0030835576

in_proj.weight f4 [32, 2]
00000000: 1cb0 3cbc 2896 5b3b 0b47 05be ab42 c33d
00000010: 0703 82bc cbe8 193f e3b6 edbe 2946 3abe
00000020: 87dd 31bf 5f6c 28be dcd3 1f3f 8246 2ebf
00000030: aec4 443d 7b34 993e e8a1 9abd e51f aa3d
00000040: d3ab a4be e7df d93e 1e98 323f 0ed3 153e
00000050: 870b 8fbe 0e08 13bf 173c 933d 3978 1f3f
00000060: 6a21 43be be20 9d3d ebd7 3e3f 5730 103f
00000070: 1bad fcbe 9750 d83e 27b5 fb3e 4efe 0abf
00000080: 50cd f53e 7841 26be ba10 eabe fc83 fe3d
00000090: 7550 2dbf c76e 223f fae2 b3bd c759 4d3e
000000a0: 5513 33bf c009 073f 5e6f 3abf acb8 3f3d
000000b0: 20f5 d0bd f34a b33e 5b78 283f 1e58 b83e
000000c0: 3498 c63e af7b 9ebd b41b cfbd f4ee 00be
000000d0: 5e95 1f3f e9ef 383f f2e0 1b3f c91c 153d
000000e0: eeb2 963e e1af 033f 94d3 28bf 0e0b 323f
000000f0: aac2 253f ce2f 053f 4991 313f 0fc2 d3bd
-0.011516597 0.0033506248 -0.13015382 0.095342 -0.015870584 0.6012084 -0.46428594 -0.18190826
-0.6947865 -0.1644759 0.62432647 -0.68076336 0.04803913 0.29922852 -0.075504124 0.08306865
-0.3216234 0.42553636 0.6976336 0.14631292 -0.27938482 -0.57434165 0.071891956 0.6229282
-0.19055715 0.07672261 0.74548215 0.5632376 -0.4935082 0.42248985 0.49161646 -0.5429429
0.48008204 -0.16235912 -0.45715886 0.12427518 -0.6770089 0.6345028 -0.08783527 0.20053779
-0.69951373 0.5274925 -0.7282618 0.046806976 -0.10203004 0.3501812 0.6580865 0.36004728
0.38787997 -0.077384345 -0.10112706 -0.12591153 0.6233729 0.72241074 0.60890114 0.036404405
0.29433388 0.51440245 -0.6594784 0.6954812 0.6475016 0.5202607 0.6936231 -0.10339748

in_proj.bias f4 [32]
00000000: f277 6f3e 5791 733e 075a de3d 625f f83e
00000010: 5eed 133f 8470 793b e45d f93e 619e 15bf
00000020: 407e 993e c29c 263f 23d5 f3be 0df4 13bf
00000030: 6bc8 e93e cb6c 8d3e 5f88 233f b914 85bd
00000040: 3580 8e3e 9c9f dc3e bc1a 893d 743e 8e3e
00000050: 4612 153f 8cb4 373f c5e5 213e 5eff 20bf
00000060: 06f0 fa3c d2f9 25bf 9751 07bf 7128 8abe
00000070: 331a e93e 2dd9 753d f84c 07bf 2496 4bbe
0.233856 0.23785912 0.10857015 0.4851027 0.5778407 0.003806145 0.48704445 -0.5844479
0.29979134 0.65082943 -0.47623548 -0.57794267 0.4566072 0.27622065 0.6387996 -0.06498093
0.2783219 0.43090522 0.06694552 0.27782023 0.5823101 0.7175987 0.15810306 -0.6288966
0.03063203 -0.6483432 -0.5285887 -0.2698398 0.455278 0.060021568 -0.5285182 -0.19881493

state_proj.weight f4 [32, 26]
00000000: 3a12 d43d 8b05 fe3d 95cc 53bd 650d 633e
00000010: 766a 59bd d453 febc e3c9 493e 5dbf e5bc
00000020: 9bd5 5f3e 454a 193e 4bc1 213e f371 b3bd
00000030: 671b 083e 431f 56be df4f ed3c a27c f53d
00000040: 873b 113e 60be 2e3d dc64 2f3e 08e5 c0bc
00000050: 773b 593d 3d56 10bd febe 03be 2da2 a93d
00000060: 08a0 f5bd 2500 2a3d a773 fc3d c4b8 203e
00000070: b4d4 cfbc f8fb 38be 7c1d 07bc 51d0 29bd
00000080: 7650 03ba a2b8 1bbe 185f b03d 7bad 15bc
00000090: 8716 373e 411e c63d 00ae debd bd42 0ebe
000000a0: e564 d53d 7da4 bbbd 3faf 8bbd c53a 113e
000000b0: 0881 1ebe 998e 36bd 4bdf b4bc 9da4 b0bd
000000c0: c247 3dbe 6da4 07bd 28a7 20be 5b3e 033e
000000d0: 4e1c 15be 608b 863d 67e2 f03b 76b0 6c3d
000000e0: a724 2abc f124 9bbd 6652 fd3d 3c8f 033e
000000f0: af31 ee3d a260 143e fb03 453b 0f5a fabd
00000100: 6628 913d e3e8 0fbe 272e ad3d c982 07bd
00000110: b69e cbbd 5722 b5bc dfc9 223d f05f 11bd
00000120: 97fd 23be a15f 27bc e96b 8cbd d6fb 6bbd
00000130: debf 2a3e b191 173d 6ab9 49bc 6f18 7e3d
00000140: 6001 19bd bf8b 42bd fbca 99bd 5329 543d
00000150: ae48 603e 92a0 3a3e 20c5 28bd 1c81 123e
00000160: 68ec c23d 5e8d 0fbe a616 143e 6cd1 013d
00000170: 746a 37bd 2651 33be 3684 36be cb48 d13c
00000180: 40c6 013d 259e d7b9 6f92 633d c7e2 f3bc
00000190: 9d00 e33d 3b35 ab3d 034f 093e 5909 c7bd
000001a0: 86f5 1d3e 171b 9c3c 8c49 e2bd 08f8 88bd
000001b0: 528f 01be 6b0e a7bd 5d67 74bd 9f68 193e
000001c0: 118b 05bd 2642 d8bd c7be 233e f519 a13d
000001d0: ae1c 4fbd 5fe2 813d fc7e 22be ab43 95bd
000001e0: a0bd 0ebc 4ac4 50be 85bc 2a3d 63a6 d03d
000001f0: 177a f93c 55f5 633d 7995 ecbc 5e7a 313b
00000200: 0f61 d6bd 413e 12be 671f 20be 1215 a13d
00000210: b68b bc3d 46d6 25bd 27d4 c2bd 0416 fd3d
00000220: eeca 13be 91fd 60bd 9f54 08be b693 88bb
00000230: b163 823c 519d d1bd c949 8b3d 1943 a6bd
00000240: dce6 b8bc 1261 27be 920c 07be 2165 00be
00000250: 15c0 bd3d 9fd6 7bbd 4d98 b2bd fa0c fbb9
00000260: ec29 03be d9e7 92bd 9cff 113d 4afb 1abe
00000270: b0e8 193d 9a9e a33d cf87 f63d 7ff7 84bd
00000280: 9af0 153e 3e7d 6cbe aeef 01bc 53ba d5bd
00000290: 23c3 663e 2ade 05bb d5f1 98bd 63fb 89bd
000002a0: 87ea 043e 984d c0bb 4558 153e 2d7c af3d
000002b0: 0a6e 51be f150 443e e79b edbc f6f2 373e
000002c0: 1c1f 973d 8700 40bd 184b 403e 681c 083d
000002d0: c02e 80bc 7566 8cbd 09f6 2dbe 8809 dcbd
000002e0: 265e ac3d 6436 babd 60bf 57be 071b fb3d
000002f0: 6e8f 9b3d b4ac 943d 7309 d1bc de44 d23d
00000300: dd30 1ebe 53eb 9f3d 17db 16be adc1 2a3e
00000310: 1b0f 64be d86b eabd 4859 0d3d 32e4 3e3e
00000320: 9af4 40be d7f3 67bd b595 06be 1938 103e
00000330: 6e6a a83d e293 f8bd 8cc3 90bd 6abc 61be
00000340: 9a08 513e 3f80 de3d a98c 263b fe31 b93d
00000350: 88bd a8bd d94c 85bd 29eb 393e f9a5 3ebe
00000360: 73f6 bdbc f309 7b3b 20a4 a3bc da19 03bd
00000370: 73fb acbd f82e cf3d 9c29 c6bc 05d6 54be
00000380: c0ca f53d 28aa 37be 04dc d83d 2c33 ea3d
00000390: 1a75 2f3e d722 d73d 1dae 8ebc 37da 29bc
000003a0: 43d9 363e 1d80 2e3e f157 1ebe 0bfe 4c3e
000003b0: 47c3 123e b5ea f6bd 427f 19be 91a5 123e
000003c0: d834 1e3d 74d6 dfbd 8458 26be cb34 a5bd
000003d0: 54ed 283b 67aa 69bd 7a0d ab3d c444 23be
000003e0: 106a 0b3d 566a 243e 9a4d 43be e5cc 0c3e
000003f0: ff93 003e 1e9c f2bc dcf0 603d 2ca9 1b3e
0.10355039 0.12403401 -0.051708777 0.22173078 -0.053080045 -0.031045832 0.1970592 -0.02804535
0.21858828 0.14969738 0.15796392 -0.087619685 0.13291703 -0.20910363 0.02896875 0.119866624
0.14182864 0.042662024 0.17128319 -0.02354671 0.053035226 -0.035238493 -0.12865826 0.08282886
-0.11993414 0.041504044 0.123267464 0.15695482 -0.02536998 -0.18064868 -0.008246776 -0.04145843
-0.0005009243 -0.1520715 0.08611888 -0.009135599 0.17879687 0.09673739 -0.108730316 -0.13892646
0.10419635 -0.09162233 -0.06820535 0.14182575 -0.15478909 -0.044569585 -0.02207913 -0.086251475
-0.18484405 -0.033115793 -0.15688765 0.12816755 -0.14561579 0.065695524 0.007351208 0.057785474
-0.010384715 -0.075754054 0.12369232 0.12847608 0.1163057 0.14489987 0.0030062187 -0.122242086
0.070877835 -0.14053683 0.084560685 -0.03308371 -0.09942381 -0.022111101 0.0397433 -0.035491884
-0.16014706 -0.010215671 -0.0685652 -0.057613216 0.16674754 0.037004177 -0.012312273 0.06203502
-0.037354827 -0.047496554 -0.075094186 0.051797222 0.21902725 0.18225315 -0.041203618 0.14307064
0.09517747 -0.14018771 0.14461765 0.03169386 -0.044779256 -0.17511424 -0.17823872 0.025547406
0.031683207 -0.00041125822 0.05555957 -0.029771222 0.11084101 0.08359762 0.13409047 -0.0971858
0.15425691 0.019055886 -0.11049184 -0.06687933 -0.12652329 -0.08157047 -0.059668887 0.14981316
-0.032603327 -0.10559492 0.15990745 0.07866279 -0.05056446 0.06342005 -0.15868753 -0.07288297
-0.008712202 -0.20387378 0.041683692 0.10187986 0.030453725 0.05565389 -0.028879868 0.0027080993
-0.10467731 -0.1428156 -0.15636979 0.07865347 0.09206335 -0.04048755 -0.09513121 0.12357715
-0.1443288 -0.05492932 -0.1331353 -0.004167999 0.015916677 -0.10235084 0.06801183 -0.081182666
-0.02257102 -0.16345623 -0.13188389 -0.12538578 0.09265152 -0.061483975 -0.08720455 -0.0004788412
-0.1280896 -0.07173128 0.03564416 -0.15134922 0.037575424 0.07989235 0.12037622 -0.06492519
0.14642563 -0.23094651 -0.007930679 -0.10435929 0.22535376 -0.002042661 -0.07468001 -0.06737401
0.1298009 -0.005868625 0.14584453 0.085686065 -0.20452133 0.19171502 -0.029005004 0.17963776
0.073789805 -0.046875503 0.18778646 0.033230215 -0.015647292 -0.0685548 -0.16988386 -0.107440054
0.08416395 -0.090924054 -0.21069098 0.122610144 0.075957164 0.07259503 -0.025517201 0.102670416
-0.15448327 0.078085564 -0.14732014 0.16675444 -0.22271387 -0.11446351 0.034508973 0.18641737
-0.18843308 -0.05662903 -0.13143046 0.140839 0.08223425 -0.121375814 -0.070685476 -0.2204453
0.20413437 0.10864305 0.002541343 0.090427384 -0.08239275 -0.06508798 0.18156113 -0.18618001
-0.023188805 0.003830549 -0.019975722 -0.032007076 -0.08446398 0.101163805 -0.024189763 -0.20784767
0.12001562 -0.17936003 0.1058884 0.114355415 0.17134514 0.10504692 -0.017417008 -0.010366968
0.17856316 0.17041059 -0.15463234 0.20018785 0.14332305 -0.120564856 -0.14989951 0.14320971
0.038624614 -0.109295756 -0.16244704 -0.0806671 0.0025776224 -0.057047274 0.0835218 -0.15944201
0.034036696 0.16056189 -0.19072571 0.13750036 0.12556456 -0.029615458 0.0549172 0.15201253

state_proj.bias f4 [32]
00000000: 4685 ce3d fc72 00be 2820 f1bc f51d df3d
00000010: af49 fb3d c800 96bc 515e 2d3e cfca 973d
00000020: 97a0 1e3e 5e99 88bd 6787 c93d 145c 0d3e
00000030: b06a 263e 56d3 f33d 6cc1 433e 62c9 1f3e
00000040: 1b43 dabd 00a0 01be 5588 47bd 42f8 4abe
00000050: 8516 eb3d 165e a4bd bc59 debd 8be7 d6bd
00000060: 5b05 af3c eea4 48bd 4454 3cbe edbd 2cbe
00000070: 65de 02be 740b 4a3e aa58 3dbe 73d1 cb3d
0.10084014 -0.12543863 -0.029434279 0.10894386 0.122699134 -0.01831092 0.1693051 0.074117295
0.15490948 -0.066698775 0.09840279 0.13804656 0.16251636 0.119055435 0.19116753 0.15604165
-0.106573306 -0.12658691 -0.048714 -0.19821265 0.11478905 -0.08025758 -0.10856959 -0.10493382
0.021364858 -0.048985414 -0.1839152 -0.16869326 -0.1278015 0.19730932 -0.18490854 0.09952059
