saved_agents/dm_walker_c.pth (torch, 119765 bytes, 26 tensors)

actor_logstd f4 [1, 6]
-0.58063066 -0.6876592 -0.61168844 -0.6057373 -0.6158915 -0.62633175
00000000: 36a4 14bf 6f0a 30bf 9d97 1cbf 9a11 1bbf
00000010: 11ab 1dbf 4757 20bf

critic.0.weight f4 [64, 26]
0.016710224 0.08884045 0.3154521 0.042864885 0.0777339 0.34356898 0.07608609 -0.030867469
0.022562224 -0.35456285 0.11426531 -0.084976465 -0.010304219 -0.061044455 -0.30160594 0.1266255
0.011002984 -0.0599953 0.21513048 0.12774602 -0.12775546 0.19462566 -0.036133457 0.34873077
0.28830674 -0.010533834 0.65418226 -0.58831733 0.20964044 -0.14632149 0.3535497 -0.083089344
0.19943477 -0.05739706 0.09887975 -0.24621184 0.734289 -0.16260971 0.30133015 -0.22565296
-0.19059937 -0.26387078 0.64676905 0.079458654 -0.0131815905 0.039298233 -0.009403952 -0.094566
-0.1280186 0.021713655 0.30531156 0.5799052 0.5915483 -0.36215055 -0.33431298 -0.025697066
0.18622686 -0.05922335 -0.088964745 -0.039581403 -0.039139595 -0.013929067 -0.11179549 -0.054222
0.17798036 -0.06416908 0.098377734 0.083096914 0.002090235 -0.11037823 0.041219182 0.011621722
0.010774544 0.024257366 0.013167295 -0.01174298 0.84073627 0.77330655 -0.080994606 0.41607895
0.34077048 -0.13977125 0.43660825 -0.41278583 -0.4088074 -0.09221194 0.07734483 -0.29760864
0.4810134 -0.5559945 -0.34083834 -0.09752768 0.0031259903 -0.33747903 0.10050829 -0.10447932
-0.15664263 -0.17667435 -0.030731868 0.18446735 0.0066803396 0.030512558 -0.0630855 -0.24159515
-0.24895597 0.18629834 -0.654497 0.17280897 -0.7324812 -0.11878504 -0.29687402 0.12772904
-0.06776658 0.120177574 -0.5714396 0.38518754 0.15007856 0.00091215526 0.10675928 0.48649502
-0.3346252 -0.04153707 -0.067401536 -0.061222974 0.010871592 0.08416924 0.08083518 0.0097559355
-0.24967586 -0.010416288 0.8387716 -0.16382468 0.20096079 0.09178566 -0.15645428 0.21149577
0.21297278 0.34537384 -0.092660725 0.12978898 -0.31407896 0.27150613 0.50499886 0.34289914
-0.19524711 0.020001972 0.6634165 -0.104586855 -0.00019688405 -0.22793862 0.024913164 0.21462001
-0.099721216 0.0377614 0.2639096 0.06776826 0.056784138 -0.2557624 0.08660975 0.056109942
-0.14152177 0.31237245 -0.08578696 -0.19890249 -0.33788928 -0.011829577 -0.22594997 -0.011725955
-0.22344847 0.11397489 0.08593663 0.09803486 0.16080664 -0.19275643 -0.06386607 -0.15313049
-0.29430014 0.25085095 0.04052174 0.20773791 -0.2107154 0.110502385 -0.082920395 0.2134156
-0.019143919 0.58027273 0.1638327 -0.24534677 0.24225189 -0.10992773 -0.018390063 0.27840996
-0.2396723 0.14548194 -0.01317282 0.0989202 -0.09648832 0.04710986 0.028702961 -0.14034475
0.06470545 -0.0058445646 -0.028442582 -0.01562609 -0.014896963 -0.02317602 -0.70259297 -0.55271035
0.09397054 -0.08602537 -0.15444303 -0.16789411 0.23707095 -0.29155096 0.08107502 -0.075360805
-0.24674189 -0.2395415 0.5150573 -0.051361807 0.09975381 0.20634153 0.1374989 -0.03966208
-0.34374857 -0.059609096 -0.20240547 -0.06808772 -0.017874552 -0.10334893 -0.08405665 0.1254334
0.068705626 0.049281597 -0.04145157 0.15504307 -0.14275369 0.24637412 0.119026 -0.037424903
0.056318868 -0.03581701 -0.11404943 -0.07013439 -0.1586105 0.07536429 -0.21306461 0.14938885
0.19745387 0.075881355 -0.22440515 -0.17767692 0.0822034 0.09067656 0.23083638 0.011572774
00000000: e1e3 883c fbf1 b53d f082 a13e 1793 2f3d
00000010: f332 9f3d 46e8 af3e 06d3 9b3d c6dd fcbc
00000020: 6ad4 b83c 4389 b5be ee03 ea3d 2408 aebd
00000030: 07d3 28bc c009 7abd 186c 9abe 1daa 013e
00000040: dc45 343c a2bd 75bd 2a4b 5c3e dacf 023e
00000050: 54d2 02be f34b 473e ad00 14bd d78c b23e
00000060: f19c 933e 1a96 2cbc 7d78 273f f79b 16bf
00000070: fcab 563e 4dd5 15be 7704 b53e bf2a aabd
00000080: a138 4c3e 2e19 6bbd 7781 ca3d f51e 7cbe
00000090: 5dfa 3b3f 2983 26be f247 9a3e 9211 67be
000000a0: 7b2c 43be 121a 87be a892 253f 38bb a23d
000000b0: 99f7 57bc 2ff7 203d 0913 1abc d2ab c1bd
000000c0: 4f17 03be d6e0 b13c cc51 9c3e ab74 143f
000000d0: b66f 173f cc6b b9be 122b abbe a782 d2bc
000000e0: 41b2 3e3e 2f94 72bd 2633 b6bd 1c20 22bd
000000f0: d750 20bd be36 64bc 09f5 e4bd e317 5ebd
00000100: 7c40 363e 146b 83bd 447a c93d b72e aa3d
00000110: 53fc 083b fb0d e2bd 72d5 283d 0969 3e3c
00000120: b787 303c 62b7 c63c a3bb 573c a165 40bc
00000130: 7e3a 573f 6bf7 453f 80e0 a5bd 4d08 d53e
00000140: 7879 ae3e 3220 0fbe 1e8b df3e aa58 d3be
00000150: 344f d1be 9dd9 bcbd f766 9e3d 2960 98be
00000160: 6347 f63e a855 0ebf 5d82 aebe 98bc c7bd
00000170: 6add 4c3b 0dca acbe 4ad7 cd3d 41f9 d5bd
00000180: ed66 20be 1fea 34be 66c1 fbbc 02e5 3c3e
00000190: c0e6 da3b 79f5 f93c f832 81bd b864 77be
000001a0: 50ee 7ebe fec4 3e3e 1e8d 27bf d6f4 303e
000001b0: e383 3bbf 9245 f3bd dfff 97be 67cb 023e
000001c0: 34c9 8abd a91f f63d de49 12bf 4d37 c53e
000001d0: 32ae 193e b41d 6f3a 9ca4 da3d e015 f93e
000001e0: ff53 abbe c622 2abd d109 8abd f1c4 7abd
000001f0: c31e 323c ec60 ac3d ea8c a53d 5cd7 1f3c
00000200: 07ab 7fbe 14a9 2abc bcb9 563f a8c1 27be
00000210: aac8 4d3e 1ffa bb3d 8d35 20be 5992 583e
00000220: 8915 5a3e d7d4 b03e e8c4 bdbd 67e7 043e
00000230: f5ce a0be da02 8b3e 9b47 013f 7a90 af3e
00000240: dcee 47be 2ddb a33c aad5 293f a231 d6bd
00000250: a972 4eb9 be68 69be b116 cc3c 59c5 5b3e
00000260: a33a ccbd b3ab 1a3d 291f 873e 16ca 8a3d
00000270: 7c96 683d 4af3 82be 7460 b13d 8ad3 653d
00000280: 15eb 10be 48ef 9f3e 13b1 afbd 18ad 4bbe
00000290: d3ff acbe d8d0 41bc 6e5f 67be 381e 40bc
000002a0: adcf 64be ab6b e93d 8bff af3d 80c6 c83d
000002b0: 7faa 243e f161 45be 37cc 82bd 3dce 1cbe
000002c0: 82ae 96be 896f 803e 20fa 253d 3fb9 543e
000002d0: c7c5 57be 134f e23d 2bd2 a9bd 9e89 5a3e
000002e0: b5d3 9cbc c18c 143f c2c3 273e 2f3c 7bbe
000002f0: e110 783e ca21 e1bd c2a6 96bc c08b 8e3e
00000300: a86c 75be 38f9 143e d0d2 57bc ac96 ca3d
00000310: ab9b c5bd 45f6 403d 7922 eb3c 89b6 0fbe
00000320: 4a84 843d c383 bfbb 6b00 e9bc 4902 80bc
00000330: 6412 74bc a3db bdbc 22dd 33bf 6d7e 0dbf
00000340: a073 c03d 122e b0bd 5026 1ebe 6fec 2bbe
00000350: bac2 723e 2b46 95be a90a a63d c456 9abd
00000360: e8a9 7cbe 5e4a 75be ccda 033f c260 52bd
00000370: ba4b cc3d 324b 533e 83cc 0c3e b574 22bd
00000380: d0ff afbe ab28 74bd 6143 4fbe 9371 8bbd
00000390: a76d 92bc 9ba8 d3bd e525 acbd 9d71 003e
000003a0: 89b5 8c3d 80db 493d 1fc9 29bd 9cc3 1e3e
000003b0: 062e 12be 7f49 7c3e e7c3 f33d db4a 19bd
000003c0: 9dae 663d dbb4 12bd bf92 e9bd 9ea2 8fbd
000003d0: ca6a 22be 9858 9a3d 9c2d 5abe 64f9 183e
000003e0: 5931 4a3e af67 9b3d 77ca 65be f0f0 35be
000003f0: 425a a83d a2b4 b93d 5f60 6c3e bb9b 3d3c

critic.0.bias f4 [64]
-0.051656455 0.3095704 0.69122934 -0.20700093 -0.25426668 0.38822025 0.14576147 -0.5403628
0.24124864 -0.28113067 -0.30761 0.4492151 0.53055984 -0.60288507 -0.3374899 0.5282715
-0.1291894 -0.51233345 -0.5151879 0.2175465 -0.1136734 -0.4258639 0.29495662 0.04079879
-0.34203222 0.20994388 0.15032098 0.36900425 0.35196295 -0.20915093 -0.45039412 -0.4477034
-0.003303893 0.35883698 0.15310152 0.41457823 -0.007934326 0.39181483 0.52330333 0.03822396
-0.18577433 -0.30972376 -0.46993423 -0.21419439 -0.19461668 -0.077225104 -0.47589028 -0.24998017
-0.26671955 0.4198696 -0.2646405 0.12521018 -0.3254593 -0.41689724 -0.25408262 0.08195051
0.46211657 -0.3204015 -0.20518638 -0.24581884 0.2392467 0.34493405 -0.46014893 0.28058478
00000000: b895 53bd 0380 9e3e 68f4 303f 0df8 53be
00000010: 3e2f 82be cec4 c63e 7f42 153e 3755 0abf
00000020: e209 773e 5cf0 8fbe 0f7f 9dbe 86ff e53e
00000030: c5d2 073f ad56 1abf 7acb acbe cd3c 073f
00000040: 3a4a 04be 4928 03bf 5be3 03bf 82c4 5e3e
00000050: 99cd e8bd d50a dabe 8e04 973e a21c 273d
00000060: d91e afbe 87fb 563e beed 193e 20ee bc3e
00000070: 7d34 b43e a92b 56be 0f9a e6be 6139 e5be
00000080: 2086 58bb 7bb9 b73e a5c6 1c3e 9943 d43e
00000090: fafe 01bc f49b c83e 35f7 053f ba90 1c3d
000000a0: a03b 3ebe 1d94 9ebe 389b f0be c655 5bbe
000000b0: 9849 47be 3228 9ebd e4a7 f3be cdfa 7fbe
000000c0: 778f 88be 26f9 d63e f67e 87be 1937 003e
000000d0: 9aa2 a6be 8e73 d5be 1e17 82be abd5 a73d
000000e0: 8b9a ec3e aa0b a4be 611c 52be efb7 7bbe
000000f0: 16fd 743e 329b b03e a498 ebbe cfa8 8f3e

critic.2.weight f4 [64, 64]
-0.15026803 -0.20529144 -0.121677235 0.41474912 0.3900131 -0.10882592 0.018719366 -0.21782522
-0.0056725517 0.21667038 0.02386888 -0.4768394 0.19526958 0.24841148 0.06930472 -0.1547354
0.14144969 -0.22844982 -0.19933619 -0.04939809 0.3347115 0.13544439 -0.058030702 -0.046790306
0.0027658974 0.0046115424 -0.50923115 0.3076368 0.07083901 0.2765318 -0.004852669 0.076714866
0.026244657 0.064251006 -0.39960983 0.06709153 0.4479367 0.6962864 0.16855955 0.12166841
0.021820556 -0.1679507 -0.060582664 0.27682513 0.54201835 0.20159774 -0.12787752 0.058592647
-0.526218 -0.045630448 -0.14452547 0.22715873 0.13487598 0.3248622 -0.06800129 0.037928686
0.040542603 0.19775328 -0.03939116 0.03705376 -0.12508069 0.06300618 -0.24523976 0.22550415
-0.121727526 0.17929839 0.4136603 -0.06674108 -0.0027843087 0.028009512 -0.28294578 -0.33731475
-0.097499155 -0.39249393 0.076999 0.1256582 0.5112844 -0.8340912 -0.2677742 0.51680434
-0.08888926 -0.21049887 -0.0880908 -0.42198044 -0.119180545 -0.2109071 -0.021574 0.12918854
0.038384024 0.16686551 0.029209327 0.15298311 -0.35441265 -0.117903605 -0.3239431 -0.013357125
-0.21151668 -0.08054449 0.10038588 0.09268244 0.23837498 0.11346647 0.15082595 0.046444736
-0.11026268 -0.08486618 -0.3964485 -0.3240603 0.033449095 0.15641285 -0.27637354 -0.11133192
-0.14555356 0.34659284 -0.012048029 0.263421 -0.50133616 -0.28364995 -0.08115821 0.103494145
0.2603003 0.06967652 -0.075542465 0.099776104 0.03975075 0.108954154 -0.16475636 0.060937528
-0.35690546 0.26271272 0.49530345 -0.34174785 0.22399184 0.19036256 0.2550512 0.035164215
-0.20096602 0.04300395 0.026229896 0.34725022 0.047406394 -0.22852051 0.025027776 0.3622009
-0.356599 -0.28688028 -0.0033132762 0.30461192 0.099819526 -0.20530172 0.2828514 0.10018928
0.07506196 0.02447934 -0.3208091 -0.16064432 -0.04568859 -0.17341006 -0.20902582 0.043571237
-0.021369787 -0.07659935 -0.01995889 0.08952641 0.18387526 -0.11312216 -0.0062982324 -0.13494602
0.13138986 0.053237922 -0.5056096 -0.013107187 0.08886734 0.005894283 -0.07110925 -0.22459035
0.22814593 0.2919105 -0.06539473 -0.019173712 -0.1695399 -0.331418 0.17921983 0.09443739
0.6957161 -0.08713003 -0.15094236 -0.025411777 -0.012850139 -0.077420965 -0.36415866 0.28003734
-0.05910806 -0.45980722 -0.41983357 0.010294695 -0.11176507 -0.364282 -0.017339082 0.39891866
-0.15910494 -0.120961465 0.09183275 -0.15948465 -0.39162782 0.3568753 0.12478836 -0.38736567
-0.056137167 0.0906256 0.30721104 -0.04794328 0.37569764 -0.055760205 0.10391399 0.26008734
-0.30149266 0.054824963 -0.47213852 0.0026537152 -0.11602013 0.38995242 0.3743873 0.1877336
-0.07718569 0.06827134 -0.20154189 -0.15733434 0.20274238 -0.17385626 -0.37234715 -0.32512966
0.1134262 -0.112732835 0.426264 0.17174245 0.060030993 0.0011736061 0.49030164 -0.045451686
-0.14285918 -0.24674374 0.019980263 -0.17479485 0.32007197 0.14819795 -0.11467984 -0.27163216
0.049952153 0.018275872 -0.05784878 0.25986862 0.18813762 -0.41161525 0.3035153 -0.1950202
00000000: dddf 19be eb37 52be ea31 f9bd ff59 d43e
00000010: ccaf c73e 20e0 debd 5b59 993c 930d 5fbe
00000020: d0e0 b9bb d7de 5d3e ab88 c33c 4b24 f4be
00000030: c0f4 473e 945f 7e3e a2ef 8d3d f572 1ebe
00000040: 30d8 103e c0ee 69be c91e 4cbe a755 4abd
00000050: 4e5f ab3e efb1 0a3e 9ab1 6dbd 31a7 3fbd
00000060: 0f44 353b 6c1c 973b f95c 02bf 9282 9d3e
00000070: 0b14 913d 9395 8d3e 2303 9fbb af1c 9d3d
00000080: 09ff d63c 0896 833d a999 ccbe 4967 893d
00000090: f657 e53e d33f 323f e09a 2c3e 4a2d f93d
000000a0: 06c1 b23c 45fb 2bbe 8725 78bd 06bc 8d3e
000000b0: b7c1 0a3f a36f 4e3e 53f2 02be d8fe 6f3d
000000c0: 39b6 06bf fee6 3abd 7cfe 13be 4c9c 683e
000000d0: ee1c 0a3e 5754 a63e 4344 8bbd 1c5b 1b3d
000000e0: 0010 263d d67f 4a3e a058 21bd afc5 173d
000000f0: 2715 00be 6209 813d 2220 7bbe 8fea 663e
00000100: 484c f9bd ff99 373e 48cb d33e 8caf 88bd
00000110: f378 36bb 3474 e53c 45de 90be 85b4 acbe
00000120: a3ad c7bd f7f4 c8be a7b1 9d3d 8bac 003e
00000130: 89e3 023f 0087 55bf b319 89be 4a4d 043f
00000140: 930b b6bd 048d 57be f368 b4bd d20d d8be
00000150: ee14 f4bd 08f8 57be f5bb b0bc 004a 043e
00000160: 9138 1d3d cbde 2a3e 6648 ef3c 9ba7 1c3e
00000170: 9375 b5be 7277 f1bd dfdb a5be d8d7 5abc
00000180: d497 58be 82f4 a4bd 1d97 cd3d 4bd0 bd3d
00000190: 9218 743e 1c61 e83d 1e72 1a3e d63c 3e3d
000001a0: 66d1 e1bd 52ce adbd 4cfb cabe 3beb a5be
000001b0: eb01 093d b12a 203e d580 8dbe fd01 e4bd
000001c0: fe0b 15be 9e74 b13e 1965 45bc 1edf 863e
000001d0: 9157 00bf 913a 91be 4736 a6bd bdf4 d33d
000001e0: 1546 853e 90b2 8e3d 02b6 9abd 6a57 cc3d
000001f0: afd1 223d 5b23 df3d e4b5 28be a199 793d
00000200: 50bc b6be 4882 863e 6a98 fd3e 93f9 aebe
00000210: 1e5e 653e 67ee 423e 1296 823e 5a08 103d
00000220: 09ca 4dbe e924 303d 14e0 d63c c8ca b13e
00000230: 352d 423d 4801 6abe 0d07 cd3c 6572 b93e
00000240: 2594 b6be f9e1 92be 8d23 59bb 18f6 9b3e
00000250: 2e6e cc3d 9d3a 52be e6d1 903e 0a30 cd3d
00000260: 16ba 993d e688 c83c 1741 a4be f27f 24be
00000270: f523 3bbd 6892 31be dd0a 56be c177 323d
00000280: b10f afbc 1fe0 9cbd d380 a3bc 9f59 b73d
00000290: cc49 3c3e 97ac e7bd 6761 cebb 4a2f 0abe
000002a0: 108b 063e 0210 5a3d a16f 01bf 87bf 56bc
000002b0: 1400 b63d d424 c13b baa1 91bd 03fb 65be
000002c0: 169f 693e 4b75 953e aced 85bd 3012 9dbc
000002d0: de9b 2dbe 9faf a9be 6785 373e 6468 c13d
000002e0: 731a 323f 3b71 b2bd a290 1abe 5c2c d0bc
000002f0: 6489 52bc e28e 9ebd 0173 babe 0e61 8f3e
00000300: 4b1b 72bd da6b ebbe 6df4 d6be 15ab 283c
00000310: 16e5 e4bd 2c83 babe b10a 8ebc 113f cc3e
00000320: 68ec 22be a5ba f7bd cf12 bc3d f24f 23be
00000330: 7183 c8be 5cb8 b63e 0a91 ff3d cb54 c6be
00000340: 16f0 65bd ea99 b93d c44a 9d3e 2c60 44bd
00000350: 715b c03e d064 64bd dcd0 d43d 2b2a 853e
00000360: 3f5d 9abe 2490 603d 24bc f1be f4e9 2d3b
00000370: f69b edbd d8a7 c73e b1af bf3e 3d3d 403e
00000380: 8813 9ebd d8d1 8b3d ff60 4ebe 411c 21be
00000390: b39b 4f3e 6007 32be 49a4 bebe 6577 a6be
000003a0: ff4b e83d 79e0 e6bd 463f da3e 41dd 2f3e
000003b0: 0fe3 753d b0d3 993a d108 fb3e 8c2b 3abd
000003c0: ad49 12be 64aa 7cbe a6ad a33c 6cfd 32be
000003d0: 79e0 a33e 34c1 173e 44dd eabd 5f13 8bbe
000003e0: a19a 4c3d 48b7 953c d8f2 6cbd 800d 853e
000003f0: 26a7 403e 3cbf d2be 5b66 9b3e 60b3 47be

critic.2.bias f4 [64]
0.0669125 0.33248124 0.33753997 -0.36224386 -0.34943745 -0.37363157 0.4052612 -0.39038903
-0.34347802 -0.35763502 -0.38918227 0.301504 -0.29747915 0.34270164 0.29177952 0.2394174
0.35702464 0.36384276 -0.3748304 -0.35536993 -0.28324085 0.44364995 0.36271325 -0.46906
-0.4009734 -0.30787617 0.48673353 0.34380698 0.31679255 0.31544256 0.40802473 -0.29761064
0.33818537 -0.2896633 0.2800863 0.031990603 -0.32363504 -0.14620753 0.324931 0.080148205
0.39805815 -0.3956254 0.45279357 -0.28464004 -0.1303516 -0.38592836 -0.30291265 -0.37097228
-0.07293366 0.3317445 0.42680043 0.33954427 -0.3622877 0.3758863 -0.4005111 -0.26158273
-0.46979254 -0.3364662 0.31758818 -0.35393998 -0.2986949 0.14591953 -0.38483152 -0.05959356
00000000: 6c09 893d fb3a aa3e 0ad2 ac3e 0778 b9be
00000010: 77e9 b2be a34c bfbe 657e cf3e 12e1 c7be
00000020: 5adc afbe f01b b7be e642 c7be bb5e 9a3e
00000030: 304f 98be 9776 af3e 2064 953e d629 753e
00000040: efcb b63e 9949 ba3e c5e9 bfbe 0cf3 b5be
00000050: f204 91be 1626 e33e 8db5 b93e a228 f0be
00000060: 634c cdbe f2a1 9dbe 2335 f93e 7807 b03e
00000070: a232 a23e b081 a13e 9ee8 d03e 6c60 98be
00000080: a226 ad3e c04e 94be 7967 8f3e 9408 033d
00000090: 7eb3 a5be 6db7 15be 5b5d a63e be24 a43d
000000a0: 47ce cb3e 6a8f cabe 8fd4 e73e 57bc 91be
000000b0: e47a 05be 6798 c5be 5e17 9bbe 14f0 bdbe
000000c0: 3e5e 95bd 6ada a93e 9685 da3e bfd8 ad3e
000000d0: c67d b9be 2b74 c03e ca0f cdbe 2cee 85be
000000e0: a688 f0be 4c45 acbe eb9a a23e 9f37 b5be
000000f0: 8aee 98be ee6b 153e a308 c5be 6018 74bd

critic.4.weight f4 [2, 64]
-1.1616808 0.15028349 0.44228712 -0.3239774 -0.33464837 -0.3942542 0.4886224 -0.31476098
-0.38644472 -0.45113653 -0.5806941 0.5288753 -0.44506878 0.6974689 -0.8456004 0.5462814
0.635138 0.5576701 -0.7920592 -0.3591597 -0.35634616 0.18285377 0.5587293 -0.44217125
-0.7251758 -0.69658905 0.4642976 0.7274533 0.72814333 0.4918004 0.48283646 -0.6135886
0.572649 -0.70728743 0.4742629 1.5190556 -0.6134299 1.3083689 0.4198585 -1.6835043
0.5896806 0.21734548 0.41761655 -0.3291351 1.6121806 -0.4394873 -0.50748926 -0.42491877
1.4518334 0.34398958 0.46990758 0.5130678 -0.42424443 0.4781764 -0.45320788 -1.0608871
-0.5153284 -0.58442134 0.49730903 -0.48349154 -0.54843974 1.5841008 -0.78521967 1.5014881
0.41886523 1.0850756 0.97581863 -1.0199137 -0.9276591 -0.8818645 0.97748893 -0.96269035
-0.9146881 -1.1760913 -0.9021317 1.0793601 -1.2475502 1.0670571 0.61140734 1.1341373
1.0589589 0.8266083 -0.8188506 -0.94932306 -1.0773526 0.8685016 0.9538179 -0.89756715
-0.91385454 -0.897303 0.8786038 0.9720395 1.0354707 1.1606897 0.9514758 -1.101729
0.935568 -0.906262 1.0356019 0.49551985 -0.95826626 -0.13416262 1.1243536 -0.44902635
0.9625336 -0.7102675 0.97692424 -1.0399066 0.38047197 -0.9557764 -0.9817324 -0.99284714
0.30247623 0.9516598 0.9298505 0.98029923 -0.9876396 1.0086588 -0.9023452 -0.7485407
-1.0012431 -1.0266916 0.96613204 -1.0692288 -1.0311165 0.20750305 -0.86505806 0.0007094999
00000000: f5b1 94bf eae3 193e 7573 e23e 5ee0 a5be
00000010: 0857 abbe b0db c9be b72c fa3e 5a28 a1be
00000020: 15dc c5be 5efb e6be 5ea8 14bf 5f64 073f
00000030: 0ee0 e3be 528d 323f 4579 58bf 19d9 0b3f
00000040: 6798 223f 78c3 0e3f 64c4 4abf c8e3 b7be
00000050: 0173 b6be 053e 3b3e e208 0f3f 4564 e2be
00000060: 1fa5 39bf a953 32bf 6ab8 ed3e 613a 3a3f
00000070: 9a67 3a3f 43cd fb3e 5736 f73e 2414 1dbf
00000080: 2099 123f ca10 35bf 96d2 f23e 6a70 c23f
00000090: be09 1dbf a278 a73f b1f7 d63e 127d d7bf
000000a0: 4ff5 163f d08f 5e3e d6d1 d53e 6584 a8be
000000b0: ef5b ce3f 7b04 e1be d1ea 01bf f48e d9be
000000c0: add5 b93f 671f b03e ba97 f03e 6958 033f
000000d0: 9136 d9be 89d3 f43e dd0a e8be 26cb 87bf
000000e0: 90ec 03bf a39c 15bf 4a9f fe3e 348c f7be
000000f0: 8c66 0cbf d1c3 ca3f 2804 49bf c330 c03f
00000100: 8175 d63e c2e3 8a3f 40cf 793f 888c 82bf
00000110: 117b 6dbf dfc1 61bf b73c 7a3f e072 76bf
00000120: 0029 6abf 298a 96bf 1af2 66bf 7928 8a3f
00000130: baaf 9fbf 5495 883f 3185 1c3f 692b 913f
00000140: f78b 873f 9a9c 533f 31a0 51bf d606 73bf
00000150: b1e6 89bf 1f56 5e3f 692d 743f f6c6 65bf
00000160: 5ff2 69bf a6b5 65bf 2eec 603f 95d7 783f
00000170: 4e8a 843f 7b91 943f eb93 733f 7505 8dbf
00000180: 6281 6f3f c900 68bf 9a8e 843f c7b4 fd3e
00000190: f050 75bf ed61 09be d2ea 8f3f c8e6 e5be
000001a0: 9a68 763f 17d4 35bf b517 7a3f a91b 85bf
000001b0: 39cd c23e c3ad 74bf d152 7bbf 3b2b 7ebf
000001c0: 2ade 9a3e fa9f 733f af0a 6e3f e4f4 7a3f
000001d0: f3d5 7cbf bb1b 813f 1800 67bf 5da0 3fbf
000001e0: bc28 80bf a16a 83bf 6e54 773f 7ddc 88bf
000001f0: a0fb 83bf ae7b 543e 7274 5dbf bbfd 393a

critic.4.bias f4 [2]
0.48127437 0.79251516
00000000: 9869 f63e 46e2 4a3f

actor_mean.0.weight f4 [64, 26]
0.001380648 0.039044075 -0.0037802237 -0.098582506 0.21013805 0.06646988 -0.19601011 -0.08933644
-0.32576656 0.13540918 0.23577052 -0.31502295 0.24533878 -0.031698298 0.3689347 0.05639709
0.0012622378 0.04319525 -0.07056175 0.3086959 -0.13652793 -0.12755659 0.035384547 0.13319972
0.18269351 0.20407958 0.016337076 0.13529497 -0.36683324 -0.14800444 0.197354 0.08763059
0.0007977985 0.1158232 0.099794805 0.35184866 0.20839499 0.13535686 0.4095727 0.18026493
-0.0507687 -0.17177863 -0.07643816 -0.035127304 0.030021107 0.018686911 0.2351366 -0.35863337
-0.036380492 -0.0025881226 0.111980595 0.034025293 0.44965342 -0.1066272 -0.27274385 -0.11796373
-0.12099426 0.31777123 0.081548214 0.121224806 -0.004287725 -0.19806854 -0.030661156 0.23322171
0.18304412 -0.12311268 0.15695862 0.3735761 0.17530277 0.11080929 -0.11484557 0.16378085
0.17638116 0.23747659 -0.17936303 0.4113843 -0.2300595 0.040943448 -0.09947096 0.044997714
0.10874412 -0.0057088956 0.13016057 0.032066725 0.16049437 -0.12504308 0.16903467 0.43763623
-0.21558905 0.26823092 -0.017291231 -0.02411498 -0.015246341 -0.17076114 -0.17581485 0.13551389
0.020425823 -0.05051376 -0.35664508 0.27227938 0.0015663872 -0.0038452407 -0.26991314 0.2871133
-0.08468744 0.24794751 0.08995522 -0.31308663 0.2125123 0.18270302 -0.07743555 -0.11876547
-0.32363498 0.09937525 -0.1673773 0.06766396 -0.20589158 0.057347775 -0.035762735 0.030740833
0.28054154 0.17903903 0.2998478 0.040091366 -0.029707622 -0.026238412 -0.0017412074 0.26280805
-0.39449638 -0.26554638 0.26093876 -0.4430766 0.045781672 0.16722926 0.14542168 0.014351328
-0.1466415 -0.0124066025 -0.057852093 0.18150192 -0.33671543 -0.086407445 -0.021402132 0.035530835
0.19454104 0.02057823 0.55459285 0.028988967 -0.025409492 -0.21253413 -0.20047061 -0.21509095
0.26633263 -0.08367924 0.4020562 0.097078696 -0.28847525 0.29772487 -0.062290404 0.08227777
0.1959199 0.12072466 0.045155186 0.06416056 -0.43479767 -0.20346817 -0.058307666 -0.021538254
0.026438627 0.03771149 -0.068189435 -0.03851007 -0.1509119 0.2545092 -0.31851813 -0.28212032
0.3012623 -0.0999462 -0.27810878 0.104381785 -0.0055508637 0.18028168 0.17432599 -0.00038816518
0.2543873 0.24716872 0.09350588 -0.45301294 0.36404532 0.057726722 0.27006936 0.03813757
0.28718856 0.21377851 -0.2259367 0.34088853 -0.07545095 -0.12925191 0.12159819 -0.07959071
-0.07667552 -0.004205952 -0.24691516 0.11197379 0.23590092 -0.05901988 0.046900865 -0.046991114
0.088178396 0.24136342 0.24555774 0.13220789 -0.22180565 -0.23778413 -0.3491199 0.086339734
-0.09713915 0.119383566 0.02628956 -0.010733582 0.01896003 -0.054406155 0.30515286 -0.19714315
0.035950005 -0.00650144 0.046586458 0.080525644 0.31776515 -0.09168586 0.107103914 -0.35471824
-0.12841937 -0.18892148 -0.23698491 0.07528602 -0.013350043 -0.047193825 -0.19930293 0.018367404
-0.1140407 -0.06163434 0.3819391 0.18153982 0.15805364 -0.1093173 0.09891111 0.07001742
0.12128141 -0.09313673 0.6432808 0.1629128 -0.38626546 -0.3747174 0.20986377 0.09623964
00000000: dcf6 b43a aeec 1f3d a1bd 77bb a0e5 c9bd
00000010: 6e2e 573e 5c21 883d e0b6 48be 06f6 b6bd
00000020: e0ca a6be b4a8 0a3e d46d 713e b04a a1be
00000030: 173a 7b3e 13d6 01bd 02e5 bc3e a300 673d
00000040: ac71 a53a 81ed 303d ae82 90bd 640d 9e3e
00000050: facd 0bbe 329e 02be 63ef 103d 8265 083e
00000060: 0214 3b3e 3dfa 503e 55d5 853c c48a 0a3e
00000070: 91d1 bbbe 7a8e 17be 2b17 4a3e ab77 b33d
00000080: 5a23 513a b734 ed3d 3861 cc3d 8225 b43e
00000090: 7f65 553e fd9a 0a3e 83b3 d13e 5f97 383e
000000a0: d7f2 4fbd bde6 2fbe 9c8b 9cbd a6e1 0fbd
000000b0: d3ee f53c 4b15 993c a6c7 703e cb9e b7be
000000c0: b603 15bd 7e9d 29bb 1556 e53d 1b5e 0b3d
000000d0: f938 e63e 5d5f dabd 15a5 8bbe f896 f1bd
000000e0: d7cb f7bd e9b2 a23e c002 a73d b644 f83d
000000f0: 0b80 8cbb 7bd2 4abe 1b2d fbbc acd1 6e3e
00000100: eb6f 3b3e 8022 fcbd c3b9 203e 5e45 bf3e
00000110: 9282 333e fbef e23d 2734 ebbd 2bb6 273e
00000120: 439d 343e 102d 733e f1aa 37be f7a0 d23e
00000130: b894 6bbe 51b4 273d 6eb7 cbbd 864f 383d
00000140: 3db5 de3d b011 bbbb d048 053e 6658 033d
00000150: a358 243e 4b0b 00be 6d17 2d3e db11 e03e
00000160: 60c3 5cbe 9055 893e 57a6 8dbc c78c c5bc
00000170: cacb 79bc 02dc 2ebe cf08 34be 27c4 0a3e
00000180: 0e54 a73c 84e7 4ebd 2f9a b6be 3468 8b3e
00000190: 3c4f cd3a 6f00 7cbb 0e32 8abe 8400 933e
000001a0: 9c70 adbd f4e5 7d3e 713a b83d e44c a0be
000001b0: d39c 593e 8016 3b3e 8896 9ebd 503b f3bd
000001c0: 7cb3 a5be 4085 cb3d f464 2bbe 6793 8a3d
000001d0: 3ed5 52be 80e5 6a3d f27b 12bd 33d4 fb3c
000001e0: 24a3 8f3e 0256 373e a785 993e d836 243d
000001f0: 665d f3bc f0f1 d6bc 3a39 e4ba c78e 863e
00000200: 6efb c9be b2f5 87be c499 853e f0da e2be
00000210: 9085 3b3d 263e 2b3e 6ce9 143e d521 6b3c
00000220: 3029 16be 1045 4bbc 51f6 6cbd a4db 393e
00000230: f765 acbe 63f6 b0bd 8653 afbc c888 113d
00000240: c435 473e ad93 a83c ccf9 0d3f 457a ed3c
00000250: 9127 d0bc 8ca2 59be 2b48 4dbe cd40 5cbe
00000260: c05c 883e 0560 abbd 4fda cd3e 32d1 c63d
00000270: 07b3 93be 656f 983e 3924 7fbd 3f81 a83d
00000280: 3a9f 483e 7e3e f73d a5f4 383d 9d66 833d
00000290: cd9d debe f659 50be 05d4 6ebd fe70 b0bc
000002a0: d295 d83c 5d77 1a3d e7a6 8bbd bcbc 1dbd
000002b0: a688 1abe 084f 823e cf14 a3be 1372 90be
000002c0: 0d3f 9a3e 98b0 ccbd 4664 8ebe 1ec6 d53d
000002d0: 05e4 b5bb c39b 383e 8382 323e a682 cbb9
000002e0: 0d3f 823e cc19 7d3e 0380 bf3d 50f1 e7be
000002f0: 2664 ba3e db72 6c3d 8846 8a3e 2436 1c3d
00000300: 610a 933e c1e8 5a3e f35b 67be f188 ae3e
00000310: 0786 9abd 9d5a 04be 7908 f93d 7400 a3bd
00000320: 0e08 9dbd 15d2 89bb 54d7 7cbe 8452 e53d
00000330: 0390 713e d4be 71bd 1f1b 403d c179 40bd
00000340: e096 b43d f927 773e 7d73 7b3e 8161 073e
00000350: 0521 63be af7d 73be d8bf b2be e3d2 b03d
00000360: e4f0 c6bd 5f7f f43d 345d d73c e8db 2fbc
00000370: 1152 9b3c fdd8 5ebd ff3c 9c3e e5df 49be
00000380: 5040 133d 080a d5bb 71d1 3e3d a1ea a43d
00000390: 1db2 a23e ccc5 bbbd 4c59 db3d a19d b5be
000003a0: 5e80 03be a274 41be 2cac 72be 8f2f 9a3d
000003b0: 24ba 5abc 504e 41bd 1116 4cbe 3d77 963c
000003c0: 2c8e e9bd 4a74 7cbd 868d c33e 93e5 393e
000003d0: d0d8 213e c0e1 dfbd e891 ca3d 4b65 8f3d
000003e0: 6362 f83d 78be bebd 0dae 243f 9dd2 263e
000003f0: 96c4 c5be f6da bfbe 87e6 563e 4a19 c53d

actor_mean.0.bias f4 [64]
0.039839096 0.04834154 0.05069092 0.019555246 0.006657328 0.13595983 -0.120546505 0.08138302
0.048508838 -0.12608539 -0.09946275 0.10057513 -0.043356426 0.04562408 0.004421876 0.0015838938
0.035120092 0.061479516 -0.050237287 -0.06989655 -0.0928108 0.09164925 0.18052408 0.057494894
0.04801187 0.047180098 -0.15393993 0.081356384 0.022461416 -0.0025899203 -0.06594601 0.035482097
0.031894315 -0.0065152715 0.07489576 0.03755013 -0.11994737 0.003839907 0.04009292 0.11937694
-0.13861729 -0.03482015 0.06651123 -0.050224587 -0.09400296 -0.0026081302 0.029800147 -0.061575267
0.007456078 -0.026985986 0.16283804 -0.10536904 0.04069448 0.03186625 0.012890054 -0.008797021
-0.061035305 0.19362894 0.089097306 0.02867566 -0.011910047 -0.05088786 0.0481258 -0.042348213
00000000: 522e 233d c701 463d 48a1 4f3d 5332 a03c
00000010: b725 da3b 0e39 0b3e 16e1 f6bd 24ac a63d
00000020: 34b1 463d 871c 01be 20b3 cbbd 55fa cd3d
00000030: 8296 31bd 51e0 3a3d 62e5 903b a89a cf3a
00000040: 16da 0f3d f2d1 7b3d 9dc5 4dbd ec25 8fbd
00000050: 9713 bebd 9ab2 bb3d 4edb 383e c47f 6b3d
00000060: 18a8 443d eb3f 413d 6ea2 1dbe 2d9e a63d
00000070: 0101 b83c a7bb 29bb b40e 87bd ad55 113d
00000080: 9da3 023d 0f7e d5bb f362 993d 2ace 193d
00000090: f7a6 f5bd f3a6 7b3b 7938 243d e67b f43d
000000a0: b1f1 0dbe 939f 0ebd 0a37 883d 4cb8 4dbd
000000b0: a084 c0bd 2aed 2abb 701f f43c 5936 7cbd
000000c0: 1e52 f43b b711 ddbc 04bf 263e b9cb d7bd
000000d0: 41af 263d 2f86 023d ce30 533c 6121 10bc
000000e0: 2800 7abd aa46 463e a678 b63d 38e9 ea3c
000000f0: 5c22 43bc ca6f 50bd 8f1f 453d 5275 2dbd

actor_mean.2.weight f4 [64, 64]
-0.013750459 -0.050642535 0.07158326 -0.04113806 -0.038087066 0.25490952 0.19897391 0.40968245
-0.4419653 -0.0011026296 0.09723075 -0.11394942 0.14538872 0.07765322 0.1459782 -0.10935369
-0.192092 0.18194269 -0.4100172 0.04342393 -0.07399007 0.19271658 -0.2579588 -0.18913142
0.29753435 0.27872825 0.009822151 -0.12056219 -0.06950938 0.29025668 0.038757194 -0.108196236
0.030134387 -0.2609922 -0.23559651 -0.04122366 0.28002894 0.10707486 -0.4485876 -0.036533874
0.15287492 0.24144825 0.14100902 0.07845291 0.2498303 0.0077739516 -0.09772331 0.086183496
0.34159538 -0.13605863 -0.09615528 -0.017333934 0.13183743 0.009913526 -0.035021827 -0.01538019
-0.040559594 0.37714127 0.3837012 0.12393625 0.02059198 -0.037454713 -0.0205369 0.0037884759
-0.2243363 -0.5008536 -0.17590834 -0.12061391 -0.107640795 -0.15578109 -0.045012437 -0.22049272
0.22861245 -0.108286075 0.19780494 0.014036352 0.07636912 -0.023385637 0.0535486 -0.4177821
-0.020868422 0.033596125 0.19239035 0.10613431 0.14471237 0.05666824 0.07673843 -0.01014352
-0.0047311154 -0.07796853 0.043492652 -0.09675084 0.2333061 0.22832997 0.0050242734 -0.118951134
0.0052511143 0.1630957 0.11523729 -0.04552935 0.12438368 0.1404943 -0.4089578 -0.08025687
0.4384262 -0.07798684 0.2379634 -0.17152412 0.017351164 -0.21731691 0.011891545 -0.124745384
-0.14599305 -0.23259886 -0.13769978 0.12694101 -0.35328925 -0.010728228 -0.11102189 -0.27542466
-0.3753083 -0.33994946 0.008591487 -0.085883215 0.36126578 -0.06704041 0.062624216 0.056461196
-0.102728546 -0.07407202 -0.23331276 0.13628213 0.13751365 -0.36994186 -0.021657337 0.21205458
-0.0978991 -0.034597576 -0.0013819222 -0.23944415 0.25982547 -0.41016942 -0.07232505 0.14734258
0.06452447 0.02641574 0.06170679 0.40382555 -0.20951028 0.070726186 -0.025604742 -0.07245056
-0.12406543 0.2683514 -0.3958688 -0.19853674 -0.029671703 0.0317448 -0.04541995 0.20162602
-0.21383315 -0.09975408 0.0033137247 -0.11600496 -0.33186334 -0.07158359 0.068420954 0.18600245
0.06050366 -0.021772742 -0.023017243 -0.13653955 0.05161015 0.3839661 0.018500285 -0.09577375
-0.3352272 0.026130188 -0.2552569 0.31046543 -0.059280783 -0.02000692 -0.002856646 -0.20857966
-0.13872942 0.27790144 0.24759693 0.315193 -0.07491539 0.12768745 -0.021576725 0.14171718
0.013357589 0.06764801 -0.058638178 0.1678897 0.07291889 0.1666854 0.037816234 0.32254082
0.18148483 0.14637871 0.040896285 0.2805988 0.28041056 0.11244522 0.05067522 0.04096385
0.06531929 0.11962463 0.1980295 0.03523349 -0.24804892 -0.21778594 -0.24247225 -0.33045387
0.09122561 -0.1570675 -0.43658695 -0.05427856 -0.21989487 -0.05453488 -0.1903977 -0.32181782
0.007784243 0.4144732 0.28893322 -0.12340293 0.007634044 -0.062540516 -0.15144281 -0.1759643
-0.03353855 -0.026148742 0.1408827 0.026817594 -0.5351135 -0.06886861 -0.42415926 -0.1606864
-0.14620176 -0.13480033 -0.11648985 -0.15685023 0.10875249 0.066044815 0.12160968 -0.09870799
0.20534532 0.03639429 0.10707842 -0.32072797 -0.08491426 -0.13261662 -0.18090744 0.12002605
00000000: 9b49 61bc 8c6e 4fbd 3f9a 923d 6280 28bd
00000010: 2f01 1cbd 8083 823e d1bf 4b3e e6c1 d13e
00000020: 4749 e2be 1c86 90ba ea20 c73d 505e e9bd
00000030: c8e0 143e a708 9f3d 4f7b 153e d4f4 dfbd
00000040: c4b3 44be 2f4f 3a3e c6ed d1be 4add 313d
00000050: 1b88 97bd 7f57 453e 2d13 84be abab 41be
00000060: 6c56 983e 78b5 8e3e 16ed 203c 4fe9 f6bd
00000070: ef5a 8ebd 869c 943e ddbf 1e3d fd95 ddbd
00000080: 64dc f63c c5a0 85be 3640 71be 24da 28bd
00000090: f45f 8f3e 104a db3d 46ad e5be 8ba4 15bd
000000a0: 3e8b 1c3e 363e 773e ab64 103e ebab a03d
000000b0: 84d3 7f3e a2bc fe3b 2923 c8bd f980 b03d
000000c0: 97e5 ae3e f452 0bbe 0fed c4bd e5ff 8dbc
000000d0: 6400 073e 576c 223c 0c73 0fbd 31fd 7bbc
000000e0: d121 26bd a918 c13e 7c74 c43e 4ad2 fd3d
000000f0: 83b0 a83c 1d6a 19bd 003d a8bc 1448 783b
00000100: 6ab8 65be f137 00bf 5121 34be 6d04 f7bd
00000110: c772 dcbd 1485 1fbe f65e 38bd d8c8 61be
00000120: 6219 6a3e 17c5 ddbd 618d 4a3e baf8 653c
00000130: 6a67 9c3d 3c93 bfbc c755 5b3d 89e7 d5be
00000140: 41f4 aabc 179c 093d fa01 453e f25c d93d
00000150: 7b2f 143e f51c 683d 0a29 9d3d 0231 26bc
00000160: 7907 9bbb f7ad 9fbd 5a25 323d 4e25 c6bd
00000170: cbe7 6e3e 55cf 693e a9a2 a43b a79c f3bd
00000180: 8a11 ac3b 8f02 273e 8701 ec3d fc7c 3abd
00000190: dfbc fe3d bddd 0f3e eb62 d1be b75d a4bd
000001a0: 6679 e03e 90b7 9fbd adac 733e 05a4 2fbe
000001b0: 0724 8e3c 5388 5ebe c1d4 423c 827a ffbd
000001c0: 347f 15be 652e 6ebe 2c01 0dbe d3fc 013e
000001d0: 54e2 b4be 73c5 2fbc 725f e3bd 7604 8dbe
000001e0: 6928 c0be db0d aebe 4fc3 0c3c 8ae3 afbd
000001f0: d4f7 b83e 7c4c 89bd 2041 803d db43 673d
00000200: 5863 d2bd 12b3 97bd 8ae9 6ebe 8b8d 0b3e
00000210: 61d0 0c3e 0569 bdbe ba6a b1bc d624 593e
00000220: 537f c8bd 30b6 0dbd 9d21 b5ba d930 75be
00000230: d807 853e ba01 d2be 281f 94bd f9e0 163e
00000240: 6825 843d d265 d83c 42c0 7c3d 39c2 ce3e
00000250: dd89 56be e4d8 903d 09c1 d1bc f660 94bd
00000260: 0416 febd 5b65 893e 51af cabe 374d 4bbe
00000270: 1212 f3bc d606 023d 450a 3abd 0d77 4e3e
00000280: 14f7 5abe de4b ccbd 132b 593b 0294 edbd
00000290: fee9 a9be 6b9a 92bd 4920 8c3d 6d77 3e3e
000002a0: b0d2 773d c05c b2bc a88e bcbc 06d1 0bbe
000002b0: 2a65 533d 3497 c43e e98d 973c 0725 c4bd
000002c0: e6a2 abbe fa0e d63c 08b1 82be 53f5 9e3e
000002d0: 68d0 72bd 8de5 a3bc 9136 3bbb e895 55be
000002e0: 160f 0ebe 1949 8e3e 0d8a 7d3e fa60 a13e
000002f0: 3d6d 99bd 80c0 023e acc1 b0bc 4f1e 113e
00000300: cad9 5a3c 0a8b 8a3d 962e 70bd 47eb 2b3e
00000310: 8056 953d 94af 2a3e 32e5 1a3d 1224 a53e
00000320: 29d7 393e 4de4 153e dd82 273d a5aa 8f3e
00000330: f991 8f3e ae49 e63d d290 4f3d b6c9 273d
00000340: 1fc6 853d c2fd f43d 3fc8 4a3e fe50 103d
00000350: 8900 7ebe 4703 5fbe a54a 78be 4031 a9be
00000360: 7ed4 ba3d 4dd6 20be 5388 dfbe 3253 5ebd
00000370: 1f2c 61be f75f 5fbd 9df7 42be 4ec5 a4be
00000380: f712 ff3b d535 d43e 0eef 933e adba fcbd
00000390: 0127 fa3b 3e15 80bd d313 1bbe fc2f 34be
000003a0: b85f 09bd e335 d6bc 8e43 103e 92b0 db3c
000003b0: 33fd 08bf fc0a 8dbd 672b d9be fa8a 24be
000003c0: eab5 15be 1909 0abe 3b92 eebd 599d 20be
000003d0: a0b9 de3d 8142 873d 7f0e f93d 6a27 cabd
000003e0: 0b46 523e 2e12 153d ee4b db3d 7536 a4be
000003f0: 87e7 adbd a7cc 07be cd3f 39be 38d0 f53d

actor_mean.2.bias f4 [64]
0.14354977 -0.13014008 0.12364757 -0.048139155 -0.119152814 0.023347378 0.024770513 0.036934737
-0.018356664 -0.07299631 0.008133076 -0.039956026 0.09413229 0.01095594 0.112861745 0.026597984
0.027983803 0.0055564395 -0.0447995 -0.03234993 0.05584318 -0.035221286 0.01772342 0.04841594
-0.09289136 0.053832337 0.03312081 0.03539074 -0.07744071 -0.041841857 -0.14360079 -0.048810907
0.06630279 0.1267772 -0.008592043 -0.07402127 -0.19870065 0.060483314 0.17147347 -0.014532854
0.04633841 -0.035294805 -0.09558237 0.11856788 0.04207976 0.0025097209 0.09728699 -0.0048136115
0.046967667 0.0808162 0.05630165 0.05791245 0.0811625 0.07679019 -0.09282868 -0.013212203
0.027650723 -0.14379996 -0.059483692 -0.052202534 -0.03508567 -0.04602085 -0.04208424 -0.020104501
00000000: b6fe 123e 7143 05be f03a fd3d 902d 45bd
00000010: 6406 f4bd 0043 bf3c 88eb ca3c e148 173d
00000020: b760 96bc 177f 95bd 9840 053c eea8 23bd
00000030: 6ec8 c03d 8b80 333c 0f24 e73d 04e4 d93c
00000040: 4a3e e53c cb12 b63b ae7f 37bd 5c81 04bd
00000050: d1bb 643d 3244 10bd b530 913c cb4f 463d
00000060: d33d bebd 4c7f 5c3d b0a9 073d e1f5 103d
00000070: 3c99 9ebd 5e62 2bbd 160c 13be f2ed 47bd
00000080: c2c9 873d e2d1 013e a4c5 0cbc 7798 97bd
00000090: 2f78 4bbe 5abd 773d be96 2f3e 351b 6ebc
000000a0: 58cd 3d3d 4991 10bd b1c0 c3bd b7d3 f23d
000000b0: d45b 2c3d 217a 243b 673e c73d 80bb 9dbb
000000c0: 2b61 403d f782 a53d 8f9c 663d 9b35 6d3d
000000d0: 8638 a63d 2d44 9d3d f71c bebd ff77 58bc
000000e0: c583 e23c 4c40 13be 2ca5 73bd 53d2 55bd
000000f0: feb5 0fbd 5c80 3cbd 8660 2cbd 32b2 a4bc

actor_mean.4.weight f4 [6, 64]
0.021295076 0.011417091 -0.019974198 0.078313634 -0.04918617 -0.07983238 -0.03608627 0.015407038
0.08386457 -0.017755603 -0.004362274 -0.034402926 0.032644723 -0.043490764 -0.023848549 0.018328017
-0.057103675 -0.037335362 -0.012086019 0.008951068 -0.037331477 -0.03175246 0.09197675 -0.011412075
-0.0077719125 0.012040722 0.006039663 -0.04189883 0.04064506 0.048352752 0.06597906 -0.026124908
-0.02355128 0.004195292 -0.026754627 -0.034677163 0.008715881 0.04060077 0.06381102 -0.07891636
-0.03874565 -0.020338997 -0.040607277 -0.03807208 -0.045682076 0.014345272 -0.055511013 0.0036189004
-0.07362995 0.0015714193 -0.021333119 -0.040935673 -0.056568287 0.074572206 -0.006009945 0.011215744
0.0045721927 0.008624671 -0.02238968 -0.036200203 -0.012947654 -0.0320367 0.055516366 -0.0016988405
-0.06388529 0.08100058 -0.0043945312 0.03836851 0.049887024 0.02636138 -0.015990017 -0.085867114
-0.04841258 0.0304186 -0.09506624 -0.012352045 -0.033107623 -0.04810857 -0.022170579 -0.033745192
0.015989982 -0.05083551 0.0036102762 -0.013493109 0.007125951 -0.0075443587 0.061284415 0.034813132
0.071626246 -0.05945995 -0.002585511 0.008124239 0.035692025 -0.008362719 0.11199375 0.08772879
-0.0034409068 -0.012238393 -0.046686657 0.06512491 0.0155783165 0.02976456 -0.03930068 0.032696992
-0.07168582 -0.005625498 -0.033574626 -0.05771692 -0.03953465 0.007858211 -0.011143206 0.018270068
-0.014289802 0.0026432625 0.037732862 -0.05920054 -0.00967653 0.0078552915 -0.012659708 -0.0031597167
0.0027229644 -0.024938205 0.019425834 -0.041303117 0.006923786 -0.025010535 -0.00060409826 0.03215567
-0.07864391 -0.0054065534 -0.024727201 0.0002625637 -0.01488671 0.04274372 -0.009886484 0.021413147
0.01492441 0.018044306 0.0031697282 0.0043956786 0.046192423 0.020989122 0.009363197 0.01819211
0.053353384 -0.029036533 -0.021507187 -0.097386986 0.014665285 -0.003089622 -0.048078936 -0.026867244
-0.008313758 0.06107384 -0.005598266 -0.056679882 0.009114303 -0.064611785 -0.08766431 0.029191032
-0.026147159 -0.007012472 -0.0035285451 0.009558157 0.053749703 -0.05527669 -0.07269427 0.0043888786
-0.04178974 0.0306954 0.025765777 -0.019948702 -0.065621555 -0.040643804 -0.034365073 0.039673615
-0.031125987 0.02140938 0.016189108 0.0031978837 -0.06718376 -0.043635648 -0.0070269303 -0.04659203
-0.008121429 -0.0123983435 0.04805573 -0.021447152 0.02673378 0.045312237 0.0032833228 -0.07294477
0.07813399 -0.009530793 0.06794056 0.035703957 -0.04287427 0.010066664 -0.109967716 -0.031216182
-0.008842602 -0.05825901 0.0893542 -0.024046566 -0.020751754 -0.1331857 0.02973879 -0.038741186
0.022641793 -0.021834172 -0.033888794 0.11134118 0.0035117108 -0.02485527 -0.031765405 0.023697479
0.0159557 -0.0008145813 -0.0044999216 -0.044780165 0.01484657 0.0051149386 0.048046183 0.025945412
0.023430225 -0.019743782 -0.0492265 -0.08765569 -0.007429555 0.065008074 0.030889824 -0.029175868
-0.059359234 0.048424218 -0.02404217 0.066638306 0.052662645 -0.00044895854 -0.0076293354 0.036124967
-0.018836766 0.10087846 -0.013228118 -0.051598 -0.08280047 -0.03899878 -0.012671397 -0.03848112
-0.043396883 -0.036379103 0.06389685 0.08525952 -0.00047096243 0.07357408 -0.06792622 0.04867042
00000000: 0373 ae3c c00e 3b3c eea0 a3bc e662 a03d
00000010: 7077 49bd 297f a3bd 32cf 13bd cd6d 7c3c
00000020: 30c1 ab3d 3374 91bc 68f1 8ebb 15ea 0cbd
00000030: 79b6 053d 5f23 32bd 085e c3bc a324 963c
00000040: 8be5 69bd f7ec 18bd 7004 46bc 80a7 123c
00000050: e4e8 18bd de0e 02bd 4e5e bc3d b6f9 3abc
00000060: 87ab febb 7346 453c 5ee8 c53b 1c9e 2bbd
00000070: 6f7b 263d 890d 463d 0820 873d e703 d6bc
00000080: 9dee c0bc a978 893b 852c dbbc a409 0ebd
00000090: 0ecd 0e3c fe4c 263d 5aaf 823d e79e a1bd
000000a0: c2b3 1ebd f89d a6bc d153 26bd 78f1 1bbd
000000b0: 211d 3bbd 6f08 6b3c 845f 63bd 132b 6d3b
000000c0: 4dcb 96bd 15f8 cd3a cbc2 aebc 2aac 27bd
000000d0: 26b4 67bd 50b9 983d 13ef c4bb 3dc2 373c
000000e0: 55d2 953b 7e4e 0d3c 906a b7bc aa46 14bd
000000f0: 6622 54bc ea38 03bd 2165 633d a1ab deba
00000100: 4ad6 82bd a2e3 a53d 0000 90bb 4c28 1d3d
00000110: 5656 4c3d d2f3 d73c 7ffd 82bc 19db afbd
00000120: 454c 46bd 6e30 f93c 17b2 c2bd 3b60 4abc
00000130: dc9b 07bd 7e0d 45bd 139f b5bc 6638 0abd
00000140: 6cfd 823c e538 50bd 629a 6c3b 3312 5dbc
00000150: cf80 e93b ab36 f7bb 5e05 7b3d 3798 0e3d
00000160: c8b0 923d 478c 73bd ad71 29bb 871b 053c
00000170: cd31 123d c903 09bc fb5c e53d 27ab b33d
00000180: d680 61bb 8a83 48bc 823a 3fbd 3560 853d
00000190: 323c 7f3c ced4 f33c c0f9 20bd 48ed 053d
000001a0: 04d0 92bd 1956 b8bb 8c85 09bd 9468 6cbd
000001b0: 16ef 21bd babf 003c fe91 36bc 1cab 953c
000001c0: c61f 6abc 963a 2d3b c68d 1a3d 447c 72bd
000001d0: 4f8a 1ebc 7bb3 003c aa6a 4fbc 4013 4fbb
000001e0: c373 323b 354b ccbc ed22 9f3c 752d 29bd
000001f0: ede0 e23b e5e2 ccbc 595c 1eba aab5 033d
00000200: 0f10 a1bd 7529 b1bb b390 cabc b4a8 8939
00000210: 63e7 73bc 0a14 2f3d ebfa 21bc a06a af3c
00000220: 8385 743c a7d1 933c 37bb 4f3b a009 903b
00000230: 4434 3d3d 61f1 ab3c 1868 193c 9f07 953c
00000240: 1489 5a3d 06de edbc d72f b0bc d472 c7bd
00000250: aa46 703c 417b 4abb 6bee 44bd b218 dcbc
00000260: 6e36 08bc 9028 7a3d a971 b7bb 2a29 68bd
00000270: 2854 153c 2f53 84bd 5989 b3bd 0822 ef3c
00000280: 9132 d6bc e1c8 e5bb 2a3f 67bb d199 1c3c
00000290: a628 5c3d cf69 62bd bce0 94bd 95d0 8f3b
000002a0: b82b 2bbd eb74 fb3c c012 d33c 766b a3bc
000002b0: 9864 86bd 1e7a 26bd 64c2 0cbd cd80 223d
000002c0: edfb febc b962 af3c 059f 843c 9693 513b
000002d0: a497 89bd 4bbb 32bd 2a42 e6bb 49d7 3ebd
000002e0: be0f 05bc 6c22 4bbc 16d6 443d f0b1 afbc
000002f0: cd00 db3c 5399 393d 042d 573b 1164 95bd
00000300: b704 a03d 0b27 1cbc 6c24 8b3d 503e 123d
00000310: ee9c 2fbd a6ee 243c c136 e1bd 14b9 ffbc
00000320: 90e0 10bc 00a1 6ebd 56ff b63d 4efd c4bc
00000330: 95ff a9bc d561 08be c39e f33c 14af 1ebd
00000340: 487b b93c 94dd b2bc face 0abd d806 e43d
00000350: bb24 663b 479d cbbc 711c 02bd 3721 c23c
00000360: 87b5 823c a089 55ba 1474 93bb 686b 37bd
00000370: 073f 733c 379b a73b 13cc 443d 798b d43c
00000380: bef0 bf3c b6bd a1bc baa1 49bd d484 b3bd
00000390: a073 f3bb f422 853d a80c fd3c 3b02 efbc
000003a0: ab22 73bd 7958 463d 16f4 c4bc aa79 883d
000003b0: c9b4 573d 3262 ebb9 81ff f9bb c6f7 133d
000003c0: 904f 9abc 5e99 ce3d c0ba 58bc 6d58 53bd
000003d0: 4b93 a9bd 2fbd 1fbd b19b 4fbc 619e 1dbd
000003e0: eec0 31bd 4102 15bd 5adc 823d 8b9c ae3d
000003f0: 82eb f6b9 02ae 963d e71c 8bbd a25a 473d

actor_mean.4.bias f4 [6]
0.044907358 -0.087243594 -0.083349615 -0.010843497 -0.10355849 -0.023596765
00000000: c7f0 373d c5ac b2bd 34b3 aabd eca8 31bc
00000010: 7916 d4bd 014e c1bc

codebook f4 [100, 2]
0.96666163 -0.0714611 0.5084584 0.48061684 0.43170804 0.5623081 0.91124296 0.062333215
0.05276036 0.9380322 0.3178386 0.69619316 0.33182237 0.6822794 0.4544029 0.5489146
0.11015876 0.8673907 0.55249566 0.4284119 0.2889566 0.70906776 0.12341558 0.88336784
0.59274495 0.39297268 0.93804336 0.011232621 0.1284249 0.8585645 0.5835906 0.40479496
0.6442353 0.34645808 0.44995564 0.54050744 0.342936 0.650075 0.58575183 0.40042886
0.48106188 0.5154949 0.5193829 0.47071227 0.5131077 0.48444772 0.40506387 0.59785014
0.40505475 0.6009679 0.27271196 0.7216611 0.59345996 0.38973424 0.7160133 0.2685865
0.731298 0.23288086 0.30105746 0.70228046 0.33634973 0.6568387 0.53329825 0.44986343
0.4088747 0.5997919 0.5712759 0.4169505 0.7597916 0.20954238 0.9237091 0.021005541
0.69580156 0.28706107 0.18298756 0.8653697 0.65849316 0.32225487 0.5127271 0.4913629
0.852906 0.11998424 0.53213745 0.45704156 0.8308656 0.13192563 0.39826638 0.62082416
0.7478906 0.21045947 0.3694384 0.6293763 0.6128882 0.37277088 0.43278804 0.57736295
0.7344442 0.24202098 0.48073217 0.5130351 0.4940181 0.49244523 0.24967048 0.75459826
-0.011804293 1.0200369 0.72499377 0.2644148 0.79512906 0.1674337 0.43607178 0.5599961
0.4268646 0.56905085 0.3151062 0.6839169 0.7169589 0.26405442 0.5893576 0.40269154
0.88242024 0.09480948 0.77972126 0.19031616 0.9346659 0.022323348 0.66908705 0.32153326
0.45721373 0.5428158 0.13800581 0.8633712 0.7390594 0.2411737 0.46420586 0.5322586
0.027349502 0.9733798 0.51394033 0.47082937 0.654897 0.3336937 0.5835684 0.402466
0.40286463 0.6169494 0.7550386 0.22873902 0.59377104 0.3920327 0.01609752 0.9755521
0.5493289 0.43733174 0.33577892 0.67398876 0.14138527 0.88250655 0.58424217 0.40949732
0.3779557 0.61264503 0.52944165 0.47182092 0.80130076 0.17008606 0.41479555 0.5849076
0.39999738 0.59830815 0.47442576 0.51090276 0.6699389 0.32087812 0.170376 0.8263666
0.28609002 0.72312564 0.46157748 0.5353269 -0.6540308 0.04608481 0.46415776 0.53517157
0.42488238 0.5905048 0.7261491 0.2637535 0.6710041 0.31336242 0.7582609 0.21150102
0.09196816 0.9283599 0.8916826 -0.17834833 0.43925002 0.56455636 0.30578518 0.6906314
00000000: 2377 773f 325a 92bd 542a 023f 6913 f63e
00000010: d608 dd3e 6cf3 0f3f 3847 693f 1d51 7f3d
00000020: 3f1b 583d e122 703f bebb a23e b739 323f
00000030: 9fe4 a93e dda9 2e3f 7fa7 e83e ab85 0c3f
00000040: ea9a e13d 510d 5e3f 5b70 0d3f ce58 db3e
00000050: 1ff2 933e 7785 353f 4fc1 fc3d 6524 623f
00000060: 22be 173f b733 c93e 9c23 703f 0709 383c
00000070: d181 033e e2ca 5b3f 3266 153f 4941 cf3e
00000080: 9bec 243f f462 b13e 9660 e63e b25e 0a3f
00000090: 4f95 af3e 516b 263f d5f3 153f 0305 cd3e
000000a0: be4d f63e 79f7 033f 47f6 043f 3301 f13e
000000b0: 075b 033f 8809 f83e 8864 cf3e b50c 193f
000000c0: 5663 cf3e 08d9 193f e7a0 8b3e c8be 383f
000000d0: feec 173f 3f8b c73e a64c 373f 2b84 893e
000000e0: 5936 3b3f 5278 6e3e 3424 9a3e a7c8 333f
000000f0: 0836 ac3e 9526 283f 3c86 083f 8054 e63e
00000100: 0658 d13e f68b 193f 233f 123f 897a d53e
00000110: b481 423f 4792 563e 3378 6c3f d013 ac3c
00000120: 0d20 323f abf9 923e 1761 3b3e de88 5d3f
00000130: 0293 283f 97fe a43e 1542 033f eb93 fb3e
00000140: 0c58 5a3f 4cba f53d 293a 083f 5a01 ea3e
00000150: 9cb3 543f 8317 073e 92e9 cb3e 55ee 1e3f
00000160: c275 3f3f b082 573e 0827 bd3e ce1e 213f
00000170: 3ee6 1c3f d3db be3e 6596 dd3e 0fce 133f
00000180: 8904 3c3f 59d4 773e 8722 f63e 4556 033f
00000190: f1ef fc3e c821 fc3e 9ea9 7f3e 5a2d 413f
000001a0: cb66 41bc 9290 823f 3199 393f 6061 873e
000001b0: 948d 4b3f bd73 2b3e cd44 df3e e85b 0f3f
000001c0: ff8d da3e 51ad 113f 9a55 a13e 2e15 2f3f
000001d0: 9e8a 373f 2432 873e 24e0 163f 962d ce3e
000001e0: 4be6 613f 792b c23d d09b 473f 3de2 423e
000001f0: 4446 6f3f 74df b63c 4a49 2b3f 02a0 a43e
00000200: eb17 ea3e faf5 0a3f 6551 0d3e e505 5d3f
00000210: ff32 3d3f 3df6 763e 64ac ed3e 1a42 083f
00000220: 100c e03c 6b2f 793f 9891 033f 8c10 f13e
00000230: 54a7 273f e7d9 aa3e bd64 153f 0610 ce3e
00000240: 4644 ce3e 65f0 1d3f 364a 413f 903a 6a3e
00000250: 6101 183f 83b8 c83e f2de 833c c8bd 793f
00000260: d2a0 0c3f f2e9 df3e 37eb ab3e 878a 2c3f
00000270: 4dc7 103e f3eb 613f e590 153f a2a9 d13e
00000280: 6983 c13e 4ed6 1c3f 7d89 073f 8392 f13e
00000290: 0c22 4d3f 0a2b 2e3e 1560 d43e 81bc 153f
000002a0: 75cc cc3e b92a 193f efe7 f23e 86ca 023f
000002b0: 1e81 2b3f 234a a43e 0c77 2e3e c38c 533f
000002c0: 647a 923e c31e 393f e253 ec3e 2f0b 093f
000002d0: 906e 27bf 6dc3 3c3d 16a6 ed3e 0101 093f
000002e0: 2f8a d93e 532b 173f e8e4 393f b30a 873e
000002f0: edc6 2b3f 0a71 a03e 631d 423f b993 583e
00000300: cd59 bc3d ffa8 6d3f 5045 643f f2a0 36be
00000310: 61e5 e03e c486 103f e08f 9c3e 38cd 303f
