saved_agents/dm_walker_a.pth (torch, 54344 bytes, 12 tensors)

actor_logstd f4 [1, 6]
-0.5435705 -0.5607033 -0.6040703 -0.55478483 -0.57946044 -0.5958677
00000000: 7027 0bbf 408a 0fbf 5aa4 1abf 6106 0ebf
00000010: 8557 14bf c98a 18bf

critic.0.weight f4 [64, 26]
0.22708774 0.4002117 0.14971276 -0.41042832 -0.09007141 -0.033106215 -0.3396034 0.053061586
-0.27251294 -0.47256696 0.082878314 0.092904806 -0.09652009 0.38733786 -0.10428259 -0.037166845
0.03940534 -0.19701648 0.041666266 0.023402974 -0.16542087 -0.043539584 -0.061988663 0.122484826
0.14488988 -0.064721465 -0.37138647 0.24589665 0.0679688 -0.054720208 0.16897598 -0.17301722
-0.58173585 0.21910718 -0.22928722 0.3190749 -0.08215532 0.044333816 0.290901 0.056564946
0.034803946 0.25317648 0.24168867 0.302664 0.1303462 -0.15013619 0.24088256 -0.007574377
0.21177295 0.042425927 -0.32247522 0.3283008 -0.24193509 -0.06279102 -0.39439625 -0.038420018
-0.0044839806 0.107439265 0.060242318 -0.19345038 0.042394973 -0.038587943 -0.006484616 0.05528696
-0.117390335 0.20188518 -0.12696782 -0.41776758 0.35144922 -0.022281049 0.07174669 0.2861918
-0.14250419 -0.22877353 -0.042594694 -0.20329915 0.5371152 -0.23644023 0.0008369857 -0.09764377
0.15210098 0.22586228 -0.24769637 -0.28711537 0.2118029 0.35327983 0.34054142 -0.046107247
-0.20610419 -0.12314965 0.10252049 -0.16421455 -0.037950493 -0.090737 0.017776456 0.1543152
0.46591255 -0.07949958 0.0447921 -0.021761691 0.08986163 0.35068655 0.05808635 -0.098356895
-0.15845191 0.16101249 0.1822801 0.089016 -0.094660096 -0.05952289 0.14246729 -0.09185068
0.41806307 0.19489767 -0.26532823 0.21352892 0.4539818 0.13975586 0.061298557 0.08745879
-0.2413551 -0.043058693 -0.10993846 0.05370533 -0.05028433 -0.20766227 0.17557517 -0.045631755
-0.33439934 0.11111349 -0.087207556 -0.17447257 0.08391581 0.30956444 0.0597694 -0.4314259
0.07474197 -0.21979983 0.092377536 0.39172053 0.34534788 0.08152014 0.26101643 0.08716927
0.29641354 -0.41408452 0.22060539 0.053160537 -0.022925515 -0.24519771 -0.053465158 0.039102424
0.04372049 0.28863478 -0.28484815 -0.31572542 -0.088675395 -0.30827913 -0.28471506 0.35629484
-0.27181354 0.13263777 -0.43323612 0.09980366 0.018730484 0.14067566 0.34566572 -0.07151596
-0.13328108 0.11840788 -0.05807663 -0.13113692 0.040723387 0.16669813 -0.14323945 -0.0214975
-0.055289913 0.049662802 -0.062953115 0.061141286 0.23937112 -0.39490455 -0.012350226 0.33001065
-0.048291806 -0.06322215 0.070728935 -0.02268084 0.1562595 0.1592875 0.068256974 0.5397604
-0.09347408 0.06807161 0.0026235757 0.19235875 -0.021069497 -0.046976797 -0.09567689 -0.011350877
0.0026532589 -0.15658133 0.013054363 0.022302378 -0.026700277 0.055175617 0.5009904 -0.5501545
0.16787603 0.47633582 0.14540102 -0.19048701 -0.19764183 -0.26135433 -0.022122117 0.14904274
0.21195696 0.058679532 -0.27886915 0.018990457 -0.19744879 -0.27075964 -0.39462557 -0.018475132
0.13905422 0.03785704 0.046768583 0.21368796 -0.11597744 0.1373882 -0.01998609 -0.0853506
0.12805282 0.307616 0.014235309 -0.02050956 0.19654 -0.096016996 0.06931306 -0.26533952
-0.20929675 -0.28645006 -0.103085175 -0.17158242 -0.04952505 -0.12708789 -0.13173223 0.11774775
0.37540507 -0.012082205 -0.18213129 0.023605073 -0.08177768 -0.25363207 0.03502792 0.13383915
00000000: b089 683e 8ce8 cc3e 4d4e 193e a923 d2be
00000010: 5c77 b8bd 629a 07bd 7fe0 adbe 1b57 593d
00000020: d186 8bbe 4cf4 f1be 1bbc a93d e044 be3d
00000030: 53ac c5bd 2651 c63e 1c92 d5bd 433c 18bd
00000040: 7e67 213d b0be 49be 3faa 2a3d 98b7 bf3c
00000050: 1764 29be 9056 32bd d3e7 7dbd 53d9 fa3d
00000060: 035e 143e b08c 84bd 5e26 bebe 55cc 7b3e
00000070: 3a33 8b3d 4c22 60bd 0a08 2d3e 6d2b 31be
00000080: a4ec 14bf a25d 603e 45ca 6abe c95d a33e
00000090: 0c41 a8bd 6097 353d faf0 943e a5b0 673d
000000a0: 958e 0e3d 59a0 813e 3c7d 773e c7f6 9a3e
000000b0: 7979 053e 4dbd 19be eba9 763e 7b32 f8bb
000000c0: 02db 583e cfc6 2d3d 791b a5be 0b17 a83e
000000d0: d5bd 77be 9498 80bd 4eee c9be 4f5e 1dbd
000000e0: 5bee 92bb 1e09 dc3d a6c0 763d db17 46be
000000f0: 5aa6 2d3d 640e 1ebd e77c d4bb 9474 623d
00000100: 586a f0bd fdba 4e3e da03 02be a2e5 d5be
00000110: 27f1 b33e bf86 b6bc eeef 923d bb87 923e
00000120: 9eec 11be 9c43 6abe c677 2ebd a72d 50be
00000130: 6280 093f 631d 72be 2969 5b3a 75f9 c7bd
00000140: 5cc0 1b3e 7148 673e 1ea4 7dbe c900 93be
00000150: dce2 583e 18e1 b43e 725b ae3e f4da 3cbd
00000160: fa0c 53be e235 fcbd 43f6 d13d dc27 28be
00000170: fa71 1bbd 52d4 b9bd ee9f 913c ce04 1e3e
00000180: 178c ee3e add0 a2bd ec77 373d 9345 b2bc
00000190: 6009 b83d 308d b33e f4eb 6d3d 576f c9bd
000001a0: 3841 22be 75e0 243e a2a7 3a3e 054e b63d
000001b0: 27dd c1bd 46ce 73bd f2e2 113e 361c bcbd
000001c0: 5d0c d63e 4193 473e 1ad9 87be 53a7 5a3e
000001d0: 4d70 e83e 291c 0f3e 3214 7b3d 981d b33d
000001e0: cb25 77be 505e 30bd 6a27 e1bd 1ffa 5b3d
000001f0: f1f6 4dbd 6ba5 54be fac9 333e 5de8 3abd
00000200: 6436 abbe 788f e33d e099 b2bd f0a8 32be
00000210: 0ddc ab3d 3b7f 9e3e c2d0 743d dbe3 dcbe
00000220: 5112 993d 3513 61be 6f30 bd3d 988f c83e
00000230: 70d1 b03e 08f4 a63d f2a3 853e cd85 b23d
00000240: 84c3 973e e302 d4be 61e6 613e ddbe 593d
00000250: 4ace bbbc 1c15 7bbe 48fe 5abd dd29 203d
00000260: 4214 333d f0c7 933e 9ed7 91be c3a6 a1be
00000270: 729b b5bd c3d6 9dbe 2cc6 91be 476c b63e
00000280: 252b 8bbe 32d2 073e 20d1 ddbe dc65 cc3d
00000290: ac70 993c 480d 103e 19fb b03e f676 92bd
000002a0: d67a 08be d57f f23d c3e1 6dbd c248 06be
000002b0: 91cd 263d eab2 2a3e 5dad 12be 861b b0bc
000002c0: ad77 62bd 396b 4b3d 90ed 80bd 496f 7a3d
000002d0: b41d 753e ee30 cabe 9a58 4abc 28f7 a83e
000002e0: a1cd 45bd 9d7a 81bd 55da 903d 2bcd b9bc
000002f0: 7e02 203e 431c 233e 50ca 8b3d bd2d 0a3f
00000300: 576f bfbd 2169 8b3d 4cf0 2b3b b1f9 443e
00000310: f099 acbc be6a 40bd 3ff2 c3bd 07f9 39bc
00000320: 4ce2 2d3b db56 20be f8e1 553c 7ab3 b63c
00000330: 8aba dabc d4ff 613d e840 003f edd6 0cbf
00000340: b2e7 2b3e 4ae2 f33e 01e4 143e 070f 43be
00000350: 9f62 4abe 3cd0 85be 7139 b5bc a99e 183e
00000360: 3f0b 593e f359 703d f0c7 8ebe e091 9b3c
00000370: 0430 4abe 02a1 8abe 5d0c cabe 2959 97bc
00000380: 3b64 0e3e fc0f 1b3d 6a90 3f3d 04d1 5a3e
00000390: 9485 edbd 7eaf 0c3e deb9 a3bc 4ccc aebd
000003a0: 4720 033e d87f 9d3e 373b 693c aa03 a8bc
000003b0: c841 493e 8fa4 c4bd 01f4 8d3d 95da 87be
000003c0: e351 56be 95a9 92be 521e d3bd 4db3 2fbe
000003d0: c7da 4abd 5423 02be d0e4 06be bb25 f13d
000003e0: 1835 c03e 71f4 45bc a080 3abe 6d5f c13c
000003f0: 0e7b a7bd 10dc 81be 7079 0f3d 210d 093e

critic.0.bias f4 [64]
-0.054294027 -0.15067182 0.07306337 0.034065884 -0.14178409 -0.036259267 -0.075426765 -0.0659219
0.17110531 0.2822536 0.19166008 0.40763003 -0.1065054 0.07518801 0.16027914 0.12849288
-0.22309324 0.36126626 -0.28127408 0.378549 -0.3170865 0.19391827 0.18575577 -0.25223124
0.055668198 -0.31427428 -0.28016266 -0.3122442 0.001995574 -0.024274452 -0.15294915 0.169634
-0.15306284 -0.36056507 0.19950874 -0.21577115 0.072625436 -0.2401887 -0.24795106 -0.23646678
0.27465332 -0.03275747 0.40622172 0.25383455 0.24414241 -0.2692103 0.05726042 -0.13308294
0.11008032 0.28596932 -0.008871344 -0.20967673 0.10336764 0.23642042 0.0890572 -0.27604598
-0.19782224 0.13623178 0.16789933 -0.44035894 0.32011658 0.2748673 0.26029834 -0.44954053
00000000: 6a63 5ebd b749 1abe 40a2 953d ab88 0b3d
00000010: d92f 11be 9984 14bd 5979 9abd 1002 87bd
00000020: 3b36 2f3e 8b83 903e 8a42 443e e2b4 d03e
00000030: 811f dabd 2cfc 993d 3720 243e a393 033e
00000040: 8e72 64be e4f7 b83e 2803 90be 2dd1 c13e
00000050: 2959 a2be 8392 463e c336 3e3e 7424 81be
00000060: 5604 643d 8fe8 a0be 7b71 8fbe 79de 9fbe
00000070: 2dc8 023b 37db c6bc b49e 1cbe 89b4 2d3e
00000080: 81bc 1cbe fc9b b8be 054c 4c3e 1df3 5cbe
00000090: a5bc 943d 07f4 75be e2e6 7dbe 5924 72be
000000a0: 5c9f 8c3e b22c 06bd 4bfc cf3e 9af6 813e
000000b0: 7800 7a3e efd5 89be e789 6a3d e546 08be
000000c0: ca71 e13d 926a 923e 1d59 11bc 7fb5 56be
000000d0: 6ab2 d33d 3218 723e 9f63 b63d e655 8dbe
000000e0: ea91 4abe 5880 0b3e cded 2b3e ba76 e1be
000000f0: 52e6 a33e 68bb 8c3e d345 853e 2d2a e6be

critic.2.weight f4 [64, 64]
0.05149154 0.18528512 -0.037516046 0.08810563 -0.083570234 -0.11368344 -0.003220035 0.16992834
0.2701904 0.009161955 -0.3797072 -0.07659411 0.040656883 -0.1240207 -0.21622072 -0.14146093
0.012723629 -0.47016177 0.032820232 -0.05789977 0.10099727 -0.18892671 0.10966782 0.13825464
0.109534666 -0.021453463 0.02473526 0.107780255 0.014697576 -0.28050834 -0.27850267 -0.3946617
0.015671412 -0.07261141 -0.22473596 -0.31795704 -0.05597093 0.23016672 -0.1792894 0.13872184
0.19528128 0.3391567 -0.668198 -0.33241078 -0.051729444 0.30294573 0.02490014 0.31556067
-0.039055686 0.027193896 0.12162978 0.17396575 -0.037028965 0.24336404 -0.22105625 0.13372926
0.27110532 -0.007802411 -0.21030504 0.26562846 -0.2377381 -0.26240376 -0.29429045 0.11877873
0.07714289 -0.14761062 0.20555313 0.36933511 0.060153216 0.31599167 0.032734174 0.37678334
-0.010827511 0.045262855 -0.5489647 -0.08175531 0.009667118 0.04008489 0.07462504 0.3282134
-0.000607951 -0.44549412 0.12070269 0.0971007 0.36418635 0.05285902 0.003351653 0.3987067
0.11328231 -0.111475006 0.1622082 0.25640526 -0.3882973 -0.013893053 0.08399776 0.028670926
-0.033530038 0.17840004 -0.021909922 -0.081407405 -0.09177635 0.18474457 0.148012 0.038209315
0.10437726 -0.32792467 -0.27609384 -0.111854285 -0.011145218 0.14491601 0.15162131 -0.16583477
0.25559437 0.059970584 -0.11794887 0.29929447 0.15450801 -0.24029057 0.20387903 0.049645998
0.13897824 0.17604975 0.03752644 0.40420598 0.10918201 -0.20933864 -0.22577657 0.406097
0.22630149 0.15003146 0.0123148 0.13290338 0.29183787 -0.18418 0.11401597 -0.29414034
-0.08569982 0.08774915 0.7225333 0.19364376 0.1385459 0.105231315 0.2496814 0.20804326
-0.29096326 0.07699391 -0.18671693 0.034792695 -0.17758077 0.15231818 0.2644581 -0.042887177
-0.0480739 0.008014985 -0.18325526 0.11788285 0.4130935 -0.10627804 0.09273181 -0.121177204
-0.14057864 0.009460863 -0.15791863 0.17095785 0.056247886 0.017405812 -0.06402675 0.116523154
0.08712711 -0.04955835 0.38041377 0.4303416 0.2275197 -0.44041815 0.41356546 0.053735666
0.13113448 -0.2067499 0.035711125 0.05110606 -0.31908864 -0.15941742 0.16080566 0.041893385
0.18500897 -0.044901513 -0.19112673 -0.04813939 -0.18736303 0.054523457 0.032694522 -0.018899236
0.13614006 0.09098434 -0.12753442 0.23770863 -0.09700008 0.08383089 -0.03130566 -0.05073545
-0.23453756 -0.0036211212 -0.18320389 0.30446273 -0.025305413 0.33655214 0.055614397 0.13612975
0.3443257 -0.25010926 0.3021607 -0.16864264 0.36384675 -0.084247455 -0.17495114 0.62317306
0.17325316 0.29853544 0.10940539 -0.037867878 -0.035986356 -0.23852092 -0.02709144 -0.098133996
0.042939503 -0.16949636 -0.0058411406 -0.011710427 -0.2745654 0.23177569 0.061092533 0.26743925
-0.22238582 0.05155566 -0.56630886 0.17619033 -0.03273905 0.4220356 -0.20264307 0.3355965
0.32268825 -0.41275686 0.21300046 -0.087383606 0.18847099 0.111878924 -0.09560976 0.036625467
0.25400728 -0.28127578 -0.031198135 0.08737826 -0.08984607 -0.017758964 -0.14537704 0.32248074
00000000: cbe8 523d 62bb 3d3e 6daa 19bd b970 b43d
00000010: df26 abbd ddd2 e8bd 3907 53bb b201 2e3e
00000020: 6556 8a3e 061c 163c fb68 c2be 5fdd 9cbd
00000030: d587 263d 91fe fdbd f768 5dbe 22db 10be
00000040: c576 503c 0bb9 f0be 826e 063d 4f28 6dbd
00000050: a8d7 ce3d 0176 41be 8699 e03d a092 0d3e
00000060: b653 e03d 2cbf afbc 9aa1 ca3c e5bb dc3d
00000070: 1ace 703c ca9e 8fbe e797 8ebe 1911 cabe
00000080: 5561 803c 4ab5 94bd 2f21 66be 44cb a2be
00000090: c641 65bd d3b0 6b3e a497 37be 190d 0e3e
000000a0: d1f7 473e f2a5 ad3e 060f 2bbf bf31 aabe
000000b0: 41e2 53bd b41b 9b3e 61fb cb3c 2b91 a13e
000000c0: dbf8 1fbd bcc5 de3c 0919 f93d 1424 323e
000000d0: afab 17bd 6c34 793e 925c 62be 53f0 083e
000000e0: 51ce 8a3e 5eab ffbb 345a 57be 7400 883e
000000f0: 9e71 73be c959 86be 3dad 96be 4342 f33d
00000100: 17fd 9d3d 3d27 17be 857c 523e 7e19 bd3e
00000110: 3863 763d a9c9 a13e 4514 063d bfe9 c03e
00000120: df65 31bc 8b65 393d f388 0cbf 546f a7bd
00000130: d562 1e3c 0e30 243d 03d5 983d 960b a83e
00000140: e75e 1fba ce17 e4be f932 f73d bbdc c63d
00000150: a276 ba3e b382 583d 68a7 5b3b 4923 cc3e
00000160: 8e00 e83d 024d e4bd e819 263e 8d47 833e
00000170: e7ce c6be b09f 63bc 0507 ac3d 4adf ea3c
00000180: cb56 09bd 80ae 363e 707c b3bc edb8 a6bd
00000190: 3df5 bbbd ae2d 3d3e 7590 173e 5f81 1c3d
000001a0: bfc3 d53d bee5 a7be 2c5c 8dbe dc13 e5bd
000001b0: 6f9a 36bc dd64 143e 9e42 1b3e 97d0 29be
000001c0: 44dd 823e b7a3 753d 2d8f f1bd 203d 993e
000001d0: 5937 1e3e bb0e 76be aac5 503e 9a59 4b3d
000001e0: 5050 0e3e 6346 343e 53b5 193d 16f4 ce3e
000001f0: d19a df3d de5c 56be f931 67be f2eb cf3e
00000200: 94bb 673e d9a1 193e 04c4 493c d317 083e
00000210: c66b 953e af99 3cbe 3481 e93d 9099 96be
00000220: 6383 afbd d4b5 b33d f1f7 383f 8d4a 463e
00000230: fade 0d3e 8483 d73d 7bac 7f3e 4b09 553e
00000240: 23f9 94be fcae 9d3d b932 3fbe c982 0e3d
00000250: bcd7 35be 4cf9 1b3e 0d67 873e 77aa 2fbd
00000260: 23e9 44bd 4951 033c 44a7 3bbe 906c f13d
00000270: fe80 d33e 4da8 d9bd 2dea bd3d c12b f8bd
00000280: d9f3 0fbe bc01 1b3c 6cb5 21be 930f 2f3e
00000290: 2f64 663d a296 8e3c 7520 83bd b1a3 ee3d
000002a0: b36f b23d b2fd 4abd 98c5 c23e bc55 dc3e
000002b0: edfa 683e 7d7e e1be dabe d33e ee19 5c3d
000002c0: 1e48 063e 3fb6 53be d445 123d 9754 513d
000002d0: 965f a3be 523e 23be 3daa 243e 6698 2b3d
000002e0: fe72 3d3e a6ea 37bd bab6 43be cf2d 45bd
000002f0: 18dc 3fbe fd53 5f3d b1ea 053d 92d2 9abc
00000300: 4d68 0b3e ff55 ba3d 6298 02be e469 733e
00000310: faa7 c6bd 88af ab3d 5d3a 00bd facf 4fbd
00000320: 9d2a 70be 5550 6dbb cd99 3bbe 8ae2 9b3e
00000330: 4c4d cfbc 9050 ac3e eccb 633d 9965 0b3e
00000340: 754b b03e 520e 80be cfb4 9a3e a8b0 2cbe
00000350: 1f4a ba3e ee89 acbd 6426 33be 4588 1f3f
00000360: 4769 313e a3d9 983e ef0f e03d 591b 1bbd
00000370: 6e66 13bd d43e 74be deee ddbc 7afa c8bd
00000380: 55e1 2f3d 7490 2dbe 0a67 bfbb 17dd 3fbc
00000390: d693 8cbe 9b56 6d3e 2a3c 7a3d cced 883e
000003a0: 1cb9 63be 072c 533d 9ef9 10bf 3d6b 343e
000003b0: 6219 06bd 0d15 d83e aa81 4fbe 4ed3 ab3e
000003c0: 6537 a53e de54 d3be cb1c 5a3e 2df6 b2bd
000003d0: 8afe 403e c720 e53d 0dcf c3bd 9604 163d
000003e0: 3e0d 823e 6103 90be 3b93 ffbc 60f3 b23d
000003f0: 3701 b8bd 3f7b 91bc b8dd 14be 321c a53e

critic.2.bias f4 [64]
-0.30402696 -0.35946655 0.22268434 -0.27187067 -0.38770807 0.17011222 -0.2499579 -0.2761132
-0.19589609 -0.29013035 0.068326965 -0.22862288 -0.25378516 -0.37189686 0.20350151 -0.33513078
0.31874123 -0.28096622 -0.2858845 -0.26622376 0.23770574 -0.29587126 -0.16442834 -0.30824783
-0.31848505 0.022985727 -0.22590417 0.27429372 0.2245847 0.28422475 0.348629 -0.26055458
0.26869297 -0.2533325 -0.32437742 -0.20760328 -0.30047724 -0.19467543 -0.29167145 0.29924402
-0.16515818 -0.37863427 0.26970273 0.21689495 -0.2669518 -0.28514597 0.1992724 0.26960415
-0.1430328 0.28477153 -0.2033156 -0.2799316 0.29589763 0.23043306 -0.32544437 0.26673266
0.258603 0.13659589 -0.3476698 0.3076304 0.28071648 -0.25123036 0.34395808 -0.3564643
00000000: 6ca9 9bbe 000c b8be 5d07 643e a232 8bbe
00000010: ac81 c6be e631 2e3e f7f4 7fbe b65e 8dbe
00000020: fc98 48be f78b 94be 02ef 8b3d 1e1c 6abe
00000030: 21f0 81be 4469 bebe b362 503e 4396 abbe
00000040: 0d32 a33e ceda 8fbe 745f 92be 7b4e 88be
00000050: 2269 733e 707c 97be e75f 28be a9d2 9dbe
00000060: 7910 a3be 904c bc3c 6c53 67be 3a70 8c3e
00000070: 88f9 653e e885 913e 807f b23e 6967 85be
00000080: 2092 893e ccb4 81be cc14 a6be f495 54be
00000090: 27d8 99be ff58 47be f655 95be 8336 993e
000000a0: 3a1f 29be 5adc c1be 7a16 8a3e b619 5e3e
000000b0: e8ad 88be a7fe 91be 100e 4c3e 8e09 8a3e
000000c0: 3177 12be 93cd 913e f731 50be 3253 8fbe
000000d0: e57f 973e a5f6 6b3e a5a0 a6be 2f91 883e
000000e0: 9d67 843e cbdf 0b3e c701 b2be bb81 9d3e
000000f0: 12ba 8f3e 44a1 80be 461b b03e 7d82 b6be

critic.4.weight f4 [1, 64]
-0.78686494 -0.6524106 0.73347205 -0.7235663 -0.6464364 0.7044574 -0.692801 -0.7058513
-0.98011726 -0.85409254 -0.6148655 -0.898801 -0.88064235 -0.7191377 0.8286389 -0.77176577
0.60443014 -0.8120156 -0.7632597 -0.7728545 0.79658055 -0.67226976 -0.680446 -0.86316264
-0.8215899 -0.67394537 -0.8330859 0.7961583 0.74946505 0.80990344 0.68415505 -0.6747675
0.6337081 -0.70833904 -0.7239453 -0.6671055 -0.77424765 -0.74870706 -0.7572121 0.87365955
-0.746921 -0.68497217 0.7097603 0.74100566 -0.6048347 -0.7040393 0.7183993 0.6624674
-0.7790362 0.9290634 -0.7430792 -0.83065987 0.784544 0.86809367 -0.63102394 0.953513
0.6455424 0.74731094 -0.70846695 0.7502634 0.88494974 -0.67989886 0.7408393 -0.72442293
00000000: fb6f 49bf 6204 27bf d3c4 3b3f a43b 39bf
00000010: db7c 25bf 5257 343f 685b 31bf acb2 34bf
00000020: f7e8 7abf cfa5 5abf d367 1dbf d317 66bf
00000030: c771 61bf 6919 38bf ae21 543f 7192 45bf
00000040: efbb 1a3f 41e0 4fbf fd64 43bf cbd9 45bf
00000050: b4ec 4b3f df19 2cbf b631 2ebf 3af8 5cbf
00000060: b753 52bf af87 2cbf 1e45 55bf 08d1 4b3f
00000070: f1dc 3f3f d555 4f3f c924 2f3f 90bd 2cbf
00000080: b23a 223f b555 35bf 7b54 39bf 6dc7 2abf
00000090: 1835 46bf 44ab 3fbf a7d8 41bf 27a8 5f3f
000000a0: 3736 3fbf 565a 2fbf dab2 353f 8cb2 3d3f
000000b0: 72d6 1abf eb3b 34bf 04e9 373f 7797 293f
000000c0: eb6e 47bf 19d7 6d3f 703a 3ebf 20a6 54bf
000000d0: e0d7 483f 633b 5e3f c98a 21bf 6e19 743f
000000e0: 4442 253f c54f 3f3f 175e 35bf 4311 403f
000000f0: 118c 623f da0d 2ebf a5a7 3d3f c873 39bf

actor_mean.0.weight f4 [64, 26]
0.15605055 -0.08955191 0.060677554 -0.14218307 0.0023536058 0.06802538 -0.17280363 0.014166347
-0.6695826 0.05899743 -0.25469086 0.22705063 0.023425588 0.09660742 -0.13664317 0.11408403
-0.22200125 -0.39595053 -0.2290018 0.024102401 -0.18705702 0.06323378 -0.13746467 -0.16536184
0.064738125 0.39938292 -0.27598748 -0.13910842 0.027731577 -0.08974582 0.19857992 -0.04112289
0.006421232 0.122186914 0.19609997 -0.356765 0.1658922 0.018487621 0.052804787 0.076168284
-0.11572889 0.25665346 0.12344565 -0.039595034 -0.015389885 0.26253173 0.087571345 -0.00014491932
-0.4250793 0.026115935 -0.20564345 0.34901205 -0.14495695 -0.1647173 -0.21748157 -0.17124134
-0.32392457 0.05910938 -0.15858625 -0.06516855 -0.24606228 0.087417416 -0.25885832 0.08634582
0.027168587 -0.25976974 -0.3624461 -0.039260034 -0.03059155 0.19555378 0.03598946 0.27080774
-0.058362827 -0.21719693 -0.35094318 -0.29375535 0.023095073 -0.15237665 -0.17199393 0.2680416
-0.18520106 -0.34077373 -0.16453016 0.15196106 -0.13390835 0.079757884 0.23516664 -0.06631569
-0.019447094 -0.0058546225 -0.61727 -0.27333865 -0.16643749 -0.33798084 -0.2346549 -0.3087927
-0.14887396 0.04034395 -0.12867491 0.13712011 0.20670706 -0.011365179 -0.10381333 0.13060412
-0.2571602 0.09682407 -0.2888073 -0.0072244634 0.38366595 -0.289911 -0.023703443 -0.2479685
0.14381078 0.11188531 0.4610129 0.024379456 -0.04916032 0.26394442 0.25859824 0.46933076
-0.24721661 0.03705852 0.342873 0.03833126 -0.38048583 -0.12023871 -0.09236358 -0.17384426
-0.48464495 -0.26610836 0.10417767 0.13456894 0.08113772 -0.16917674 0.023749784 0.3698665
0.3589529 -0.20652713 -0.030246934 -0.085816674 0.30826747 0.21225543 -0.06244193 -0.111141466
-0.10286704 0.13608886 0.11785732 0.16524883 -0.13216856 0.1537258 0.14959827 -0.24666716
0.22120118 0.0853158 -0.006999859 0.4582046 -0.37642646 0.06852396 0.067443736 -0.18371467
-0.110170566 -0.13819328 -0.25793144 0.050043594 0.10523288 0.20748913 0.23408827 0.102995254
0.05009908 -0.27794296 -0.0577785 0.09437625 -0.042801347 0.34513304 0.25927553 0.37607688
-0.012439642 0.56794375 0.16817956 0.09872627 0.25405088 -0.18462291 0.073628806 -0.30896747
-0.23965417 0.102080785 -0.11468627 0.21684282 -0.08989851 -0.26786843 -0.16429344 -0.22662215
0.026708044 -0.057727322 -0.13421923 0.30378526 -0.17892842 0.06397696 -0.4136567 -0.2638605
-0.30333933 0.42422256 -0.21225345 0.22469161 0.042264633 -0.22519621 -0.06965919 -0.12889777
0.0717088 -0.46292475 -0.1814427 -0.33246684 -0.09317952 -0.23525421 -0.0015646745 -0.19750473
0.15590283 0.12868915 0.09304899 -0.10172723 0.17088002 -0.013043465 0.05420876 -0.08181108
-0.6690268 -0.19657545 -0.27455205 -0.24024248 0.09818822 -0.43400246 0.14612259 0.22471036
0.043216076 0.072256885 0.11920598 -0.10198768 0.013854708 -0.013085165 0.096414745 -0.16248395
0.17233704 0.0017985019 0.22753935 0.017660188 0.17136526 -0.33530542 -0.092128195 -0.052645776
-0.27808076 -0.01766156 0.27036983 0.20836493 -0.10667965 -0.21754123 -0.11947737 -0.099192135
00000000: b7cb 1f3e fe66 b7bd 0789 783d 7098 11be
00000010: f43e 1a3b e450 8b3d 6ff3 30be f719 683c
00000020: c469 2bbf 4aa7 713d d766 82be f67f 683e
00000030: 05e7 bf3c 1cda c53d 30ec 0bbe e3a4 e93d
00000040: 4c54 63be 07ba cabe 737f 6abe 6672 c53c
00000050: e08b 3fbe b680 813d 8ac3 0cbe 9d54 29be
00000060: 6c95 843d eb7b cc3e 3b4e 8dbe 7072 0ebe
00000070: 552d e33c a8cc b7bd 8958 4b3e 7a70 28bd
00000080: 3369 d23b 223d fa3d 6ece 483e e7a9 b6be
00000090: a5df 293e 5a73 973c d549 583d 1efe 9b3d
000000a0: 4503 edbd 1568 833e 13d1 fc3d 672e 22bd
000000b0: db25 7cbc 8f6a 863e 9b58 b33d 7cf5 17b9
000000c0: fea3 d9be 16f1 d53c 3294 52be b5b1 b23e
000000d0: 986f 14be a7ab 28be 7db3 5ebe e459 2fbe
000000e0: 71d9 a5be ad1c 723d 6f64 22be 1777 85bd
000000f0: c0f7 7bbe e707 b33d 1489 84be 14d6 b03d
00000100: a890 de3c 8a00 85be 8992 b9be 21cf 20bd
00000110: 219b fabc 403f 483e af69 133d 50a7 8a3e
00000120: dc0d 6fbd df68 5ebe d3ae b3be 1a67 96be
00000130: e131 bd3c a008 1cbe 2d1f 30be c03c 893e
00000140: 59a5 3dbe e579 aebe 987a 28be ae9b 1b3e
00000150: 451f 09be 1a58 a33d 86cf 703e 85d0 87bd
00000160: 834f 9fbc 22d8 bfbb 6805 1ebf 0bf3 8bbe
00000170: 976e 2abe d30b adbe 6049 70be 141a 9ebe
00000180: 6a72 18be b33f 253d 5bc3 03be 3769 0c3e
00000190: 04ab 533e 0435 3abc 159c d4bd 16bd 053e
000001a0: 80aa 83be b34b c63d 8dde 93be 31bb ecbb
000001b0: dd6f c43e 376f 94be b92d c2bc 74eb 7dbe
000001c0: 2243 133e 2024 e53d e209 ec3e 6db7 c73c
000001d0: 555c 49bd b923 873e fd66 843e 1f4c f03e
000001e0: 5a26 7dbe adca 173d 0d8d af3e 3d01 1d3d
000001f0: 0acf c2be b63f f6bd 1e29 bdbd 3b04 32be
00000200: 6223 f8be 5b3f 88be 1a5b d53d 71cc 093e
00000210: 882b a63d ab3c 2dbe e88e c23c 245f bd3e
00000220: adc8 b73e d97b 53be 6bc8 f7bc a7c0 afbd
00000230: 3cd5 9d3e 7d59 593e 1cc3 7fbd 239e e3bd
00000240: f4ab d2bd e15a 0b3e 2e5f f13d fd36 293e
00000250: 3257 07be 4c6a 1d3e 4a30 193e 5196 7cbe
00000260: 9082 623e 0dba ae3d 135f e5bb cb99 ea3e
00000270: f8ba c0be 4a56 8c3d f11f 8a3d b31f 3cbe
00000280: 1ba1 e1bd 8a82 0dbe 970f 84be 83fa 4c3d
00000290: 5684 d73d 0878 543e d6b4 6f3e 2def d23d
000002a0: b134 4d3d 8a4e 8ebe 26a9 6cbd 5648 c13d
000002b0: 7750 2fbd 47b5 b03e c3bf 843e 268d c03e
000002c0: a4cf 4bbc c364 113f 4337 2c3e 0031 ca3d
000002d0: f512 823e ca0d 3dbe b3ca 963d fc30 9ebe
000002e0: e767 75be bb0f d13d a3e0 eabd 0b0c 5e3e
000002f0: b61c b8bd 0d26 89be 8a3c 28be a30f 68be
00000300: d4ca da3c 7c73 6cbd c470 09be be89 9b3e
00000310: 0339 37be 5a06 833d d0ca d3be b918 87be
00000320: 4b4f 9bbe b333 d93e f858 59be 8f15 663e
00000330: ae1d 2d3d d699 66be 7aa9 8ebd c7fd 03be
00000340: 10dc 923d 7904 edbe 1dcc 39be 1839 aabe
00000350: e7d4 bebd 7be6 70be c415 cdba ae3e 4abe
00000360: fea4 1f3e 17c7 033e 7890 be3d 5e56 d0bd
00000370: 2cfb 2e3e 42b4 55bc 010a 5e3d 918c a7bd
00000380: 5745 2bbf 134b 49be 1692 8cbe 2002 76be
00000390: e816 c93d 9235 debe 29a1 153e 791a 663e
000003a0: 5703 313d 6bfb 933d 4422 f43d ebde d0bd
000003b0: dbfe 623c 2963 56bc 1875 c53d 3162 26be
000003c0: 1f79 303e b6bb eb3a 1300 693e 19ac 903c
000003d0: 607a 2f3e 27ad abbe b5ad bcbd 19a3 57bd
000003e0: 9a60 8ebe faae 90bc ea6d 8a3e 9e5d 553e
000003f0: dc7a dabd 21c3 5ebe 8db0 f4bd 3f25 cbbd

actor_mean.0.bias f4 [64]
-0.019582838 0.0043641655 -0.054353636 -0.02364889 -0.13739271 0.15528582 -0.030626342 -0.0050844788
0.051227424 0.105132975 -0.025830545 0.01028167 -0.023339037 0.05155039 -0.039364267 0.04163155
0.066040486 0.11737903 0.063667126 0.10578169 -0.07623088 -0.08882865 0.093615994 0.08439444
0.07305858 -0.021130221 -0.05823647 -0.114855774 0.028006801 0.037418056 -0.122072674 -0.07134915
-0.13123527 0.05933396 0.0027030278 0.01639916 -0.045829214 -0.003851636 0.082613446 0.09607489
-0.060207445 0.06484657 0.07972713 -0.064830996 -0.102496736 -0.1282835 -0.03438767 -0.022782378
0.097230084 0.0413936 0.0024345093 -0.09145597 -0.008511425 0.058390047 -0.05511347 -0.13351516
0.07343458 -0.006804151 0.028068084 -0.010955143 -0.08373362 -0.06443352 -0.06387336 -0.04458503
00000000: 306c a0bc 4601 8f3b eba1 5ebd 51bb c1bc
00000010: adb0 0cbe 3f03 1f3e 18e4 fabc b39b a6bb
00000020: d9d3 513d f54f d73d 949a d3bc 7374 283c
00000030: 8231 bfbc 8026 533d 6d3c 21bd d885 2a3d
00000040: 3c40 873d 6b64 f03d e963 823d 12a4 d83d
00000050: f01e 9cbd cceb b5bd beb9 bf3d fed6 ac3d
00000060: bd9f 953d 4919 adbc 5d89 6ebd 8139 ebbd
00000070: 856e e53c ad43 193d 3d01 fabd 811f 92bd
00000080: 8a62 06be 2b08 733d 4825 313b 8857 863c
00000090: 6ab7 3bbd bb6b 7cbb 3d31 a93d e9c2 c43d
000000a0: 159c 76bd 47ce 843d fa47 a33d 1dc6 84bd
000000b0: cfe9 d1bd c05c 03be 16da 0cbd 1ca2 babc
000000c0: 9120 c73d 568c 293d 4a8c 1f3b 454d bbbd
000000d0: 8173 0bbc 672a 6f3d a9be 61bd 33b8 08be
000000e0: de64 963d 5bf5 debb 0aef e53c 337d 33bc
000000f0: 887c abbd b9f5 83bd 09d0 82bd cb9e 36bd

actor_mean.2.weight f4 [64, 64]
0.08157549 -0.23775609 0.057742655 0.23286144 -0.21824062 0.06691832 -0.17336218 0.13827626
-0.12162234 0.19328529 0.01911923 -0.27711836 -0.21323393 0.5041928 0.01131244 -0.0827048
0.1168345 0.01354916 -0.045083195 -0.1750761 0.2223461 0.22636466 -0.22524604 -0.012565354
0.099296 -0.06575933 -0.2374081 -0.02564318 -0.5328855 0.046331592 0.20827787 -0.112179145
-0.249536 -0.01679239 -0.126073 0.096412614 -0.12093188 0.02094565 -0.08994713 -0.12175267
-0.021572463 0.01075559 -0.2816588 -0.16379626 0.029517129 -0.22773167 -0.28617385 -0.21901661
-0.26806453 -0.039077364 -0.12229849 -0.2469078 -0.115061745 -0.08245526 0.017077642 -0.20945174
0.121199295 0.4320171 -0.11929733 0.24907576 0.26553515 -0.12681289 0.06670708 -0.028033819
-0.29687092 0.18688358 -0.1831431 -0.14434959 0.029257074 0.09580645 0.3264454 -0.20680861
-0.31747293 -0.19492768 -0.13179499 -0.0724619 0.035128135 0.16149513 0.1423806 0.13013001
-0.22135219 -0.16806367 0.25303257 -0.059092484 -0.08143086 0.018551715 -0.27464744 0.0040912097
0.028959705 -0.2349306 -0.17987569 0.076945566 -0.072232515 -0.09381234 -0.11014163 -0.43794516
0.417008 0.16517514 -0.07214018 -0.18149848 0.04829769 -0.29951602 -0.03801501 0.27134606
-0.060425755 -0.2877055 -0.2575441 0.12533848 -0.25620228 0.30320087 0.12431364 -0.19299866
-0.090781406 0.16769569 -0.07060036 -0.046198126 0.1781494 0.0047180173 0.06418086 0.009217371
-0.3262356 0.009389693 -0.05189177 -0.3735612 0.09322551 -0.053244907 0.25882417 -0.019341882
-0.06330512 -0.4248439 -0.26802576 0.028974801 -0.07979165 -0.10031852 0.07941312 -0.10961955
0.033847187 0.033677638 -0.111683846 -0.2200559 -0.04031536 -0.013194765 0.25103432 -0.043171372
0.4594056 -0.1459301 -0.22851929 0.22881566 -0.048801996 0.21534084 0.23512806 -0.21124962
-0.17653514 -0.15813941 -0.4024471 0.08391095 -0.00058040174 -0.12473458 0.116824694 0.22022814
0.09045584 0.11419151 0.2137248 0.0633788 0.08871408 -0.14231327 -0.18103011 0.19391617
-0.32546744 -0.3994207 -0.15918826 -0.11241973 0.010580451 0.3284324 0.22791043 0.112272516
0.24446519 -0.2216337 -0.1444621 0.14816934 -0.08609734 -0.090578936 0.007901615 0.059945583
0.08141626 -0.30957553 -0.2646706 0.021551488 0.008985355 0.09406547 0.046780936 0.25691625
-0.27235693 0.17231277 0.06795817 0.11770898 0.31058818 -0.18413307 -0.41803116 -0.19249539
0.042539917 -0.05397309 0.12233699 0.28166768 -0.10726007 0.27540618 0.12377558 0.317672
-0.24525414 -0.050857205 -0.3330278 0.17093903 0.013720268 0.18496978 -0.34245494 -0.20174311
-0.05980734 0.13148697 0.18602383 -0.13929926 -0.054884348 0.071153276 -0.14048816 -0.28607205
-0.13860074 0.0020059466 -0.101422355 0.108661674 0.07857044 0.1872747 0.033413213 -0.20949472
-0.29200685 -0.15778017 0.1294286 0.14768706 -0.0050320923 0.011589113 0.14734164 0.10034344
-0.078946374 -0.44201785 0.04803435 0.13598804 0.22699504 -0.15248388 0.17678908 0.14625517
-0.12138498 0.22752732 -0.31473505 -0.041072566 0.10019657 -0.1300334 0.2963141 0.026904136
00000000: 0d11 a73d 5576 73be 9083 6c3d 3b73 6e3e
00000010: 787a 5fbe 790c 893d db85 31be 4b98 0d3e
00000020: 2215 f9bd 94ec 453e ee9f 9c3c 75e2 8dbe
00000030: ff59 5abe c812 013f d057 393c 2261 a9bd
00000040: ed46 ef3d 4cfd 5d3c 28a9 38bd 2647 33be
00000050: b2ae 633e 23cc 673e e6a6 66be eade 4dbc
00000060: b45b cb3d d4ac 86bd 1c1b 73be a511 d2bc
00000070: 2f6b 08bf 32c6 3d3d cb46 553e 2ebe e5bd
00000080: 5d86 7fbe 3290 89bc 4819 01be fa73 c53d
00000090: 22ab f7bd 3696 ab3c 3336 b8bd 7759 f9bd
000000a0: bcb8 b0bc 3738 303c 9535 90be 35ba 27be
000000b0: e8cd f13c 7e32 69be 6185 92be e445 60be
000000c0: c13f 89be 960f 20bd a177 fabd 66d5 7cbe
000000d0: 7ea5 ebbd 4ede a8bd 69e6 8b3c 847a 56be
000000e0: 5637 f83d 5831 dd3e 2952 f4bd b70d 7f3e
000000f0: 39f4 873e 3ddb 01be b99d 883d 2ea7 e5bc
00000100: 77ff 97be 695e 3f3e dd89 3bbe 61d0 13be
00000110: 88ac ef3c 2c36 c43d da23 a73e a3c5 53be
00000120: d08b a2be 1f9b 47be 44f5 06be e866 94bd
00000130: 85e2 0f3d fb5e 253e 38cc 113e cd40 053e
00000140: 26aa 62be e218 2cbe 7c8d 813e f60a 72bd
00000150: 39c5 a6bd c4f9 973c 979e 8cbe 8e0f 863b
00000160: e73c ed3c a691 70be 5531 38be a395 9d3d
00000170: a4ee 93bd af20 c0bd ef91 e1bd 593a e0be
00000180: 1382 d53e ac23 293e 3bbe 93bd bdda 39be
00000190: ccd3 453d 2a5a 99be a1b5 1bbd dfed 8a3e
000001a0: ff80 77bd 234e 93be d2dc 83be bb58 003e
000001b0: f22c 83be 253d 9b3e 2698 fe3d 71a1 45be
000001c0: 9aeb b9bd 6bb8 2b3e ec96 90bd 3f3a 3dbd
000001d0: cc6c 363e 9999 9a3b 4171 833d 7504 173c
000001e0: 5a08 a7be 3ad7 193c 778c 54bd 6a43 bfbe
000001f0: 04ed be3d 5517 5abd 9a84 843e de72 9ebc
00000200: 1da6 81bd 2485 d9be ac3a 89be 905c ed3c
00000210: ce69 a3bd cc73 cdbd 59a3 a23d 3780 e0bd
00000220: 59a3 0a3d 90f1 093d 80ba e4bd 5556 61be
00000230: b821 25bd db2e 58bc 9287 803e 77d4 30bd
00000240: 3637 eb3e b36e 15be f600 6abe a74e 6a3e
00000250: 9ae4 47bd 4f82 5c3e 69c5 703e d251 58be
00000260: a1c5 34be 4cef 21be 8c0d cebe 81d9 ab3d
00000270: 1a26 18ba d874 ffbd c941 ef3d 7c83 613e
00000280: e940 b93d 3ddd e93d adda 5a3e bfcc 813d
00000290: baaf b53d 92ba 11be f55f 39be f691 463e
000002a0: aba3 a6be df80 ccbe 3f02 23be 513c e6bd
000002b0: a159 2d3c 4b28 a83e 5a61 693e 22ef e53d
000002c0: 1555 7a3e f2f3 62be dfed 13be b4b9 173e
000002d0: cd53 b0bd 7381 b9bd c775 013c 8089 753d
000002e0: 91bd a63d af80 9ebe e882 87be bf8c b03c
000002f0: 4f37 133c 66a5 c03d 5e9d 3f3d 878a 833e
00000300: 5e72 8bbe c272 303e a72d 8b3d 6811 f13d
00000310: 6a05 9f3e 618d 3cbe 2e08 d6be 831d 45be
00000320: 563e 2e3d e312 5dbd d18b fa3d bf36 903e
00000330: 2bab dbbd 0a02 8d3e 0d7e fd3d e8a5 a23e
00000340: e723 7bbe a54f 50bd 9f82 aabe a40a 2f3e
00000350: faca 603c b868 3d3e 4156 afbe bf95 4ebe
00000360: 8bf8 74bd 85a4 063e 087d 3e3e 77a4 0ebe
00000370: 69ce 60bd cfb8 913d 21dc 0fbe 0978 92be
00000380: 5aed 0dbe 3376 033b 86b6 cfbd 038a de3d
00000390: 8ae9 a03d f0c4 3f3e 4bdc 083d c985 56be
000003a0: ec81 95be 2091 21be ee88 043e 473b 173e
000003b0: 40e4 a4bb 43e0 3d3c bae0 163e dd80 cd3d
000003c0: a3ae a1bd 2a50 e2be abbf 443d 7340 0b3e
000003d0: 6371 683e bc24 1cbe 3208 353e eac3 153e
000003e0: b098 f8bd ecfc 683e f424 a1be b53b 28bd
000003f0: dc33 cd3d 7a27 05be 7bb6 973e 1066 dc3c

actor_mean.2.bias f4 [64]
0.058976565 0.02490901 0.03524018 -0.012103451 0.0043615415 0.15986216 0.025402393 -0.046017483
0.10393329 0.06689172 0.10413951 0.04755329 -0.016309813 0.042013567 -0.0506462 -0.041812103
0.0012800202 0.00013289996 -0.027963685 -0.00499951 -0.033640806 -0.1765891 -0.07600623 0.0011749447
-0.08560885 -0.09020277 0.068250574 -0.011918153 -0.04156824 0.084783286 -0.036233246 -0.06176055
-0.021107908 0.024702791 -0.025430642 0.08370705 0.0036882912 -0.053445857 0.021014577 0.0076880814
-0.06542071 -0.015751138 -0.09249548 0.10200561 0.01863417 -0.13365346 0.037176292 -0.0019731526
-0.030043442 -0.038150534 0.07986484 0.082918994 -0.07104073 -0.0076041366 0.020149542 -0.00896436
-0.036159333 0.118313625 0.0807411 0.01344958 0.034075115 -0.0016817803 -0.058582958 -0.025126005
00000000: 6991 713d fb0d cc3c 0258 103d 8e4d 46bc
00000010: 43eb 8e3b e8b2 233e ae18 d03c d47c 3cbd
00000020: fada d43d 87fe 883d 1847 d53d 3dc7 423d
00000030: 289c 85bc 6b16 2c3d 6472 4fbd 2b43 2bbd
00000040: 5ac6 a73a 105b 0b39 1914 e5bc eed2 a3bb
00000050: f1ca 09bd c6d3 34be 28a9 9bbd 9a00 9a3a
00000060: b153 afbd 3bbc b8bd f5c6 8b3d 5b44 43bc
00000070: 7543 2abd dca2 ad3d 5069 14bd a1f8 7cbd
00000080: 7eea acbc 825d ca3c ec53 d0bc 9a6e ab3d
00000090: 42b7 713b 0bea 5abd c326 ac3c 4dec fb3b
000000a0: 4bfb 85bd 8808 81bc 456e bdbd 51e8 d03d
000000b0: b0a6 983c 74dc 08be 2b46 183d 0250 01bb
000000c0: aa1d f6bc bc43 1cbd 2d90 a33d 6fd1 a93d
000000d0: cd7d 91bd 1f2c f9bb a710 a53c 40df 12bc
000000e0: cf1b 14bd 6a4e f23d 975b a53d a15b 5c3c
000000f0: 5992 0b3d 2f6f dcba aff4 6fbd 0dd5 cdbc

actor_mean.4.weight f4 [6, 64]
0.048540026 0.02880125 -0.039593566 0.044356827 0.061990865 0.04866296 0.11213983 -0.03687135
-0.0154940225 0.15377645 0.050551854 -0.014751721 -0.13665389 -0.02527242 -0.14908098 -0.02981936
0.013378115 -0.08166706 -0.0938245 0.023524567 0.046928175 0.06734484 -0.034533877 0.0073452475
-0.07532625 -0.005284382 0.095803864 -0.05594362 0.030307874 -0.07890803 -0.066530995 0.044647247
-0.020569017 -0.053015172 -0.020494472 0.009663323 -0.010796602 -0.058904905 0.07072484 -0.047576226
-0.03177569 0.098789014 -0.04182734 0.011189626 -0.00072337844 0.038345553 0.034449235 -0.015874831
-0.08582305 0.03629521 0.054974206 -0.058344994 -0.054608364 0.02267631 0.016241115 -0.039994266
0.043448713 0.011826178 0.110565856 -0.09055961 0.07839591 0.20186399 0.069855794 0.014548742
-0.040234733 0.071436666 -0.024241414 0.068221256 -0.024900274 0.008085282 0.017275084 -0.031140085
-0.11164397 -0.011749774 -0.072359286 0.04030671 0.02944232 0.12849607 0.05279451 -0.015519461
0.038142707 0.050636154 0.008598863 0.08693933 0.040533952 -0.01580334 -0.009580167 0.068436645
-0.018853005 -0.025146313 0.0042370767 0.0061422517 0.02359097 -0.033401128 -0.19817035 -0.0036214453
-0.01899589 -0.1423161 0.15371235 -0.08891793 0.066374935 0.021825712 -0.0077157244 -0.011580543
0.036710054 -0.07805781 0.0040423693 -0.00012370672 0.03338192 0.008013257 -0.05816126 -0.004189674
0.035049427 0.014951074 -0.037574768 0.053907286 -0.03743909 0.027632441 0.060157113 -0.057674892
0.021136578 0.063499905 -0.07328482 -0.02871387 0.026925916 -0.018786404 -0.0028951531 0.0007763062
-0.004596019 0.0036212539 -0.07630632 -0.020136839 0.09364606 0.080381274 0.04611309 0.002591963
0.08415738 0.04407247 0.0033244735 0.010195356 -0.010808971 0.069695726 -0.074536026 0.04082921
0.007944647 -0.05484613 -0.008525419 -0.06798402 0.026247812 0.024465902 0.07576409 -0.027019883
0.020093212 0.11180203 0.04247291 -0.03457077 0.013578886 0.0010244447 0.022142284 0.10125903
0.025086628 0.010750536 -0.052167334 -0.045100305 -0.0804691 0.059540395 0.042341087 -0.031647176
-0.10787209 0.04500625 0.0082947165 -0.08243867 0.056559037 0.031634215 -0.083614655 -0.041465554
-0.05085619 0.011916705 -0.00032364368 -0.0064887623 0.10085582 0.073167525 -0.026095454 0.0021396368
0.06385339 0.040323228 -0.0551183 -0.027890254 -0.0020716044 -0.06789083 0.022002459 -0.080421954
-0.07288782 0.058029547 0.007945428 0.022504669 0.01068987 0.00376257 -0.09499473 0.051538527
0.094886295 0.02042399 0.017941028 -0.017126359 0.040176943 0.02453148 -0.08810717 0.102755986
0.05495652 -0.0030694674 -0.005312985 -0.09161469 -0.052588135 -0.041986007 -0.09361064 0.05046702
-0.050503906 -0.02816424 0.066453196 0.06575469 -0.0157171 -0.04778995 -0.066751584 -0.037104264
-0.021905048 -0.047948517 0.07680932 0.036020264 0.1045713 -0.10856884 0.0998176 -0.016945919
0.019768504 0.09233167 -0.010761046 0.034489952 -0.08824868 0.03075623 0.036081586 -0.021932863
-0.05541141 0.052222047 -0.040912066 0.017003467 0.022443358 0.035705388 -0.01921962 -0.031632386
0.085522324 0.04075271 -0.009512152 -0.025939219 0.08942456 0.15653627 0.02124058 -0.06040273
00000000: e8d1 463d 99f0 eb3c dd2c 22bd 81af 353d
00000010: 22ea 7d3d d052 473d 91a9 e53d 6a06 17bd
00000020: a4da 7dbc 9377 1d3e 760f 4f3d 34b1 71bc
00000030: ffee 0bbe 1b08 cfbc afa8 18be bb47 f4bc
00000040: e22f 5b3c 0f41 a7bd 0f27 c0bd 98b6 c03c
00000050: c237 403d 17ec 893d 6573 0dbd 67b0 f03b
00000060: a644 9abd 9c28 adbb d134 c43d 2325 65bd
00000070: 3848 f83c 899a a1bd 6741 88bd 08e0 363d
00000080: 5b80 a8bc 7026 59bd 06e4 a7bc ea52 1e3c
00000090: 3be4 30bc 4546 71bd 2fd8 903d 4adf 42bd
000000a0: 3a27 02bd e551 ca3d 2553 2bbd b154 373c
000000b0: 1ba1 3dba 3a10 1d3d a41a 0d3d ef0b 82bc
000000c0: ffc3 afbd 49aa 143d a22c 613d 29fb 6ebd
000000d0: 05ad 5fbd abc3 b93c 160c 853c 07d1 23bd
000000e0: 47f7 313d 96c2 413c 5a70 e23d 5177 b9bd
000000f0: 098e a03d 6fb5 4e3e 8e10 8f3d d95d 6e3c
00000100: 2dcd 24bd 634d 923d ee95 c6bc 96b7 8b3d
00000110: a9fb cbbc 2178 043c 7a84 8d3c 7e19 ffbc
00000120: 98a5 e4bd 2082 40bc 1b31 94bd a618 253d
00000130: 0531 f13c 7994 033e 0e3f 583d 5645 7ebc
00000140: 873b 1c3d db67 4f3d 3fe2 0c3c 3f0d b23d
00000150: ee06 263d 0276 81bc 22f6 1cbc 8328 8c3d
00000160: 9e71 9abc a4ff cdbc 2dd7 8a3b f144 c93b
00000170: da41 c13c 9fcf 08bd 2bed 4abe c555 6dbb
00000180: 459d 9bbc 50bb 11be c566 1d3e 9b1a b6bd
00000190: 95ef 873d d6cb b23c 30d4 fcbb 51bc 3dbc
000001a0: 485d 163d c6dc 9fbd da75 843b 45b7 01b9
000001b0: 7bbb 083d 094a 033c 803a 6ebd 8849 89bb
000001c0: fd8f 0f3d 59f5 743c 00e8 19bd e3cd 5c3d
000001d0: bb59 19bd 6e5d e23c 4e67 763d 823c 6cbd
000001e0: 9e26 ad3c 3d0c 823d 5a16 96bd 5a39 ebbc
000001f0: bd93 dc3c f2e5 99bc 9cbc 3dbb 0781 4b3a
00000200: 349a 96bb 8f52 6d3b 7d46 9cbd 03f6 a4bc
00000210: 81c9 bf3d f09e a43d 14e1 3c3d ecdd 293b
00000220: b45a ac3d 5685 343d 69df 593b 6c0a 273c
00000230: 1c18 31bc a2bc 8e3d 58a6 98bd 883c 273d
00000240: 442a 023c 56a6 60bd 33ae 0bbc 353b 8bbd
00000250: a705 d73c b76c c83c 342a 9b3d cd58 ddbc
00000260: 859a a43c 76f8 e43d 13f8 2d3d 149a 0dbd
00000270: fa79 5e3c a946 863a bc63 b53c e560 cf3d
00000280: 7982 cd3c 0423 303c 6aad 55bd 19bb 38bd
00000290: fccc a4bd a1e0 733d d96d 2d3d 78a0 01bd
000002a0: 0bec dcbd 7958 383d 90e6 073c 9bd5 a8bd
000002b0: 73aa 673d e192 013d 293e abbd c9d7 29bd
000002c0: 954e 50bd 493e 433c b8ae a9b9 af9f d4bb
000002d0: 7f8d ce3d dbd8 953d 22c6 d5bc 2639 0c3b
000002e0: 91c5 823d f829 253d bac3 61bd 1a7a e4bc
000002f0: c1c3 07bb 590a 8bbd 803e b43c 44b4 a4bd
00000300: 3646 95bd 64b0 6d3d 8a2d 023c b65b b83c
00000310: 9124 2f3c 7395 763b 998c c2bd 101a 533d
00000320: bf53 c23d 3650 a73c 10f9 923c 944c 8cbc
00000330: 9490 243d 3ef6 c83c 8871 b4bd bb71 d23d
00000340: 171a 613d 1e29 49bb 8c18 aebb 7ca0 bbbd
00000350: a866 57bd 85f9 2bbd efb6 bfbd 82b6 4e3d
00000360: 2fdd 4ebd b1b8 e6bc 9d18 883d 65aa 863d
00000370: 26c1 80bc 65bf 43bd 0eb5 88bd a4fa 17bd
00000380: 3772 b3bc aa65 44bd 344e 9d3d fc89 133d
00000390: 7a29 d63d 5759 debd 2b6d cc3d 2bd2 8abc
000003a0: 8ff1 a13c 6318 bd3d 194f 30bc 5645 0d3d
000003b0: b9bb b4bd 7df4 fb3c 49ca 133d 8cac b3bc
000003c0: 13f7 62bd c9e6 553d 6993 27bd db4a 8b3c
000003d0: 22db b73c d03f 123d 7772 9dbc f690 01bd
000003e0: 5426 af3d 50ec 263d dbd8 1bbc 7c7e d4bc
000003f0: 3924 b73d 0b4b 203e ba00 ae3c da68 77bd

actor_mean.4.bias f4 [6]
-0.002175736 -0.028435146 0.005244363 0.040336493 0.033080973 0.032699253
00000000: cb96 0ebb d3f0 e8bc e8d8 ab3b e137 253d
00000010: ea7f 073d a7ef 053d
