saved_agents/dm_walker_c.pth (torch, 119765 bytes, 26 tensors)

actor_logstd f4 [1, 6]
-0.658389 -0.69386923 -0.726659 -0.696725 -0.61451644 -0.6752939
00000000: 2e8c 28bf 6aa1 31bf 5306 3abf 925c 32bf
00000010: f350 1dbf 10e0 2cbf

critic.0.weight f4 [64, 26]
-0.20239517 -0.11684684 -0.21176666 0.123149686 -0.16766395 0.24739577 0.042987578 -0.24589694
0.13673095 0.026947826 0.11446994 0.12989482 -0.116469935 -0.064062625 0.033406854 -0.08128171
0.29314354 0.09802047 -0.52978796 0.34512296 0.27333173 0.11786731 0.019560356 0.048966486
0.09823799 -0.1815054 -0.13517644 -0.15776163 -0.047292244 0.006649744 -0.11638751 -0.30471072
-0.13161527 0.011634578 -0.012715347 -0.18161856 0.025912099 -0.27537224 -0.05953925 0.017005075
-0.111308865 -0.25346687 -0.893905 -0.0004224842 0.05213009 0.025675744 0.005605038 -0.049069703
-0.022044143 0.010045276 0.48147988 0.5707516 -0.38661757 0.53453416 -0.14536849 0.023511378
0.27848357 -0.26495063 0.33873716 -0.20154841 -0.20401621 0.18299101 -0.25707078 0.13301687
-0.099985346 -0.034591373 -0.07241452 -0.09142632 -0.10457392 0.44185573 0.1495314 -0.08549142
-0.09245023 -0.297193 -0.071899265 -0.113505036 -0.4415572 0.059942804 0.4715178 0.23993734
-0.5453982 0.14648592 -0.050584592 0.09775701 -0.007553778 0.052869733 0.07227023 -0.24707144
0.018515145 0.15452857 -0.030844469 0.0358666 0.16440073 -0.030132996 -0.17042607 0.05754823
0.04987851 -0.0977677 -0.16343823 0.1258019 -0.034471594 0.20595524 0.12347932 0.101133406
-0.27920055 -0.13952787 0.4279946 0.39313203 -0.10913061 0.15418965 0.5265678 0.03357001
-0.07853279 -0.0014702722 -0.037843645 -0.21000464 -0.011211657 0.009053747 0.0837278 0.14769593
-0.008862187 -0.018699488 0.06862036 -0.059065115 -0.10845391 -0.107824065 -0.08974401 0.02759138
-0.71463853 -0.47002116 0.48385718 0.23640566 -0.083588354 -0.087922916 -0.14767824 0.11752395
-0.16223693 -0.34861538 -0.23927796 0.17362857 -0.12208883 0.3052908 -0.009406452 -0.025483588
-0.034522016 0.25955856 0.19696356 -0.14813039 -0.046335846 -0.011574204 -0.08454138 0.06028263
-0.038518388 -0.28073204 0.3976275 0.31875256 -0.5163856 0.43380454 0.19064087 0.0015341046
-0.3733326 -0.3540532 -0.13100065 0.32513326 0.06830686 0.114065856 -0.30251256 0.1550315
-0.4323657 -0.36645263 -0.2572124 -0.080878355 -0.19997345 0.16391164 0.006338344 0.051744536
-0.05008265 0.12583734 0.028579827 -0.003943957 -0.44635162 -0.23787558 -1.0728738 0.1525844
0.19891407 0.33741558 0.28161603 -0.113477364 0.17750719 -0.14994375 -0.1140843 -0.58423173
-0.043411475 -0.33244178 0.02350609 0.0054818173 -0.23824601 0.46245977 -0.5646163 -0.35316572
0.15558884 0.084818475 -0.008315438 0.121054806 0.121008314 0.06161276 -0.29693663 -0.43802887
0.6951056 0.4819418 0.2981975 -0.10296889 0.44375843 0.041875314 -0.24154712 0.07260502
0.08867549 -0.18688984 0.27075034 0.16015598 -0.355895 0.30712998 -0.45947298 -0.13894323
0.15555945 -0.064311385 0.1201408 0.062395155 0.004522714 0.07011834 0.01801615 0.015160482
0.12475848 0.38640553 -0.04078655 0.8500188 0.44746518 -0.16426176 0.20360936 -0.13391548
0.05960048 0.013252909 -0.25388366 -0.06816428 -0.100687586 0.055295344 -0.06628655 -0.26526687
-0.027687566 0.09464717 0.067563936 0.05189028 -0.04389222 -0.03211058 -0.00394711 -0.065717705
00000000: ae40 4fbe 654d efbd 5cd9 58be e735 fc3d
00000010: 19b0 2bbe 5155 7d3e be13 303d 68cc 7bbe
00000020: 3303 0c3e b0c1 dc3c 376f ea3d 2603 053e
00000030: ca87 eebd 4433 83bd a0d5 083d 0677 a6bd
00000040: e916 963e f5be c83d 2fa0 07bf f5b3 b03e
00000050: 23f2 8b3e 6b64 f13d 0a3d a03c 1591 483d
00000060: 0031 c93d 8ddc 39be b16b 0abe 448c 21be
00000070: 83b5 41bd 19e6 d93b 935c eebd 0b03 9cbe
00000080: 27c6 06be f59e 3e3c 0854 50bc 37fa 39be
00000090: 9c45 d43c 97fd 8cbe 6edf 73bd 3a4e 8b3c
000000a0: e7f5 e3bd 69c6 81be f5d6 64bf df80 ddb9
000000b0: 5c86 553d f055 d23c 77aa b73b 50fd 48bd
000000c0: eb95 b4bc f194 243c 8884 f63e c71c 123f
000000d0: bdf2 c5be 3bd7 083f 7adb 14be ef9a c03c
000000e0: 6695 8e3e 9ca7 87be f56e ad3e b562 4ebe
000000f0: a0e9 50be ff61 3b3e c89e 83be 9335 083e
00000100: 1ec5 ccbd afaf 0dbd 104e 94bd b93d bbbd
00000110: da2a d6bd ea3a e23e c21e 193e 2016 afbd
00000120: 8c56 bdbd ae29 98be ec3f 93bd 5475 e8bd
00000130: c913 e2be 9686 753d c86a f13e 22b2 753e
00000140: 379f 0bbf 6800 163e ca31 4fbd d434 c83d
00000150: af85 f7bb ef8d 583d 6a02 943d 4c00 7dbe
00000160: 13ad 973c bd3c 1e3e 8aad fcbc dbe8 123d
00000170: aa58 283e 79d9 f6bc 2c84 2ebe b1b7 6b3d
00000180: 694d 4c3d 6f3a c8bd 5a5c 27be 37d2 003e
00000190: 1632 0dbd eee5 523e bae2 fc3d 081f cf3d
000001a0: 60f3 8ebe 65e0 0ebe 1c22 db3e 9a48 c93e
000001b0: df7f dfbd e4e3 1d3e 26cd 063f b580 093d
000001c0: cdd5 a0bd 26b6 c0ba f001 1bbd 750b 57be
000001d0: 19b1 37bc 2b56 143c 7b79 ab3d 9a3d 173e
000001e0: b532 11bc ab2f 99bc d588 8c3d 43ee 71bd
000001f0: 151d debd ddd2 dcbd b5cb b7bd 5107 e23c
00000200: 8df2 36bf 9da6 f0be 21bc f73e 5314 723e
00000210: 5f30 abbd ee10 b4bd f738 17be 66b0 f03d
00000220: 7021 26be b77d b2be 4805 75be b0cb 313e
00000230: b509 fabd 134f 9c3e 851d 1abc f5c2 d0bc
00000240: f566 0dbd dce4 843e d1b0 493e 7eaf 17be
00000250: a8ca 3dbd bba1 3dbc 0824 adbd ebea 763d
00000260: 75c5 1dbd 1cbc 8fbe d595 cb3e 8933 a33e
00000270: d931 04bf a11b de3e 5c37 433e 0214 c93a
00000280: 7325 bfbe 7646 b5be 0925 06be de77 a63e
00000290: 78e4 8b3d 5c9b e93d ede2 9abe 94c0 1e3e
000002a0: 095f ddbe ae9f bbbe 58b1 83be 8da3 a5bd
000002b0: d7c5 4cbe 74d8 273e e2b1 cf3b 14f2 533d
000002c0: 7723 4dbd 81db 003e 3e20 ea3c 4f3c 81bb
000002d0: 3388 e4be a895 73be ee53 89bf 163f 1c3e
000002e0: 21b0 4b3e bcc1 ac3e fa2f 903e d266 e8bd
000002f0: 72c4 353e db8a 19be 08a5 e9bd 3690 15bf
00000300: 3bd0 31bd cf35 aabe d88f c03c d1a0 b33b
00000310: c3f6 73be 87c7 ec3e b28a 10bf 23d2 b4be
00000320: ae52 1f3e 4fb5 ad3d 7a3d 08bc 95eb f73d
00000330: 35d3 f73d a95d 7c3d 1408 98be 5245 e0be
00000340: 71f2 313f 13c1 f63e 58ad 983e 5ae1 d2bd
00000350: 4e34 e33e 7385 2b3d 2158 77be f1b1 943d
00000360: 7f9b b53d 0d60 3fbe ca9f 8a3e eeff 233e
00000370: df37 b6be 2440 9d3e 0b40 ebbe 2247 0ebe
00000380: fa4a 1f3e b0b5 83bd 610c f63d 1092 7f3d
00000390: 4633 943b 349a 8f3d 9b96 933c ac63 783c
000003a0: 6081 ff3d f2d6 c53e cc0f 27bd d59a 593f
000003b0: 281a e53e 3c34 28be f97e 503e 2421 09be
000003c0: a21f 743d bb22 593c 0afd 81be b799 8bbd
000003d0: 4b35 cebd 5f7d 623d 3ec1 87bd 0fd1 87be
000003e0: 09d1 e2bc 60d6 c13d f65e 8a3d e78a 543d
000003f0: 54c8 33bd 6286 03bd c256 81bb 0197 86bd

critic.0.bias f4 [64]
-0.16257006 0.5710697 -0.22749545 0.16868708 -0.54630786 0.19445765 -0.30564636 -0.37107906
0.30585265 -0.46929607 0.13479413 0.11639558 -0.01619201 0.3055865 -0.05120997 0.31717154
-0.188441 -0.045431167 -0.0024564562 -0.14770424 -0.2837877 -0.2294941 -0.6035005 -0.14412291
0.5073442 -0.44795966 0.2777884 0.22097415 -0.12610255 -0.45104328 -0.5398161 -0.122174025
-0.22924113 -0.11445324 0.069053255 -0.24875548 0.15289775 0.043636285 -0.22648741 -0.3169324
0.49384835 -0.40055242 0.64059585 -0.082067646 -0.5225401 -0.069368556 -0.18430458 -0.32524797
0.2358605 0.16038069 0.46524742 0.25154412 -0.3997709 0.059261452 0.122216634 0.26045716
-0.56226885 -0.32005307 -0.18030517 -0.14838687 0.09037905 0.32498857 -0.3078412 0.29197666
00000000: c478 26be a031 123f 91f4 68be 4ebc 2c3e
00000010: d5da 0bbf e81f 473e ae7d 9cbe 13fe bdbe
00000020: b898 9c3e 9347 f0be 7907 0a3e ce60 ee3d
00000030: 1ba5 84bc d575 9c3e 8cc1 51bd 4f64 a23e
00000040: adf6 40be 0816 3abd 7ffc 20bb c83f 17be
00000050: 9f4c 91be 8000 6bbe 027f 1abf f594 13be
00000060: 4fe1 013f f85a e5be 483a 8e3e 0c47 623e
00000070: 0721 01be 25ef e6be 6331 0abf 6036 fabd
00000080: 30be 6abe 7666 eabd cb6b 8d3d c2b9 7ebe
00000090: 3a91 1c3e f6bb 323d 51ec 67be f744 a2be
000000a0: b1d9 fc3e 3515 cdbe 17fe 233f 1513 a8bd
000000b0: 30c5 05bf 1a11 8ebd 57ba 3cbe e786 a6be
000000c0: 6a85 713e d63a 243e e934 ee3e 64ca 803e
000000d0: c5ae ccbe 23bc 723d b74c fa3d a45a 853e
000000e0: daf0 0fbf ffdd a3be eba1 38be baf2 17be
000000f0: a718 b93d e764 a63e 5d9d 9dbe f77d 953e

critic.2.weight f4 [64, 64]
-0.16392167 0.017315846 -0.35383782 0.009091711 -0.1096107 0.45950755 -0.15192917 0.18745984
0.09378471 0.037834592 0.14767085 -0.059054967 0.122100376 0.06541874 0.26194593 0.5083867
-0.011862146 0.097070254 0.13495468 0.20157802 0.08604705 -0.12701361 -0.022034338 -0.14064993
0.41386238 -0.115812674 0.009469716 0.32873046 0.16190639 -0.59550846 -0.10512402 -0.26869273
-0.016895141 -0.053637505 -0.32016963 -0.203611 -0.06916167 -0.07685243 -0.06753124 -0.06587866
0.4639677 -0.29459244 0.07387554 0.20819436 -0.62247777 -0.0068861423 -0.025260838 -0.25590327
0.113081776 -0.15391856 0.7806247 -0.3801248 -0.041779954 -0.058093756 0.09008522 -0.07480027
-0.23857586 -0.33459318 -0.03321037 0.074475415 -0.0019733636 0.080015704 0.009555934 0.11021298
-0.10161597 -0.40082195 0.005201314 -0.013537691 -0.092088915 -0.014397478 -0.26255322 -0.07336719
0.279336 0.24285921 -0.04764714 0.040873617 0.09075155 0.23349003 -0.25293934 -0.28812084
-0.091380365 -0.10596542 0.3890099 0.062631026 0.03356265 0.06290471 0.11464347 0.16448125
-0.34971362 0.1670667 0.36680433 0.20405471 -0.020397462 0.116854586 0.7478383 0.2019252
0.13442025 0.023084374 -0.049543288 -0.02955694 -0.052347437 -0.21882638 0.18759586 -0.23459248
-0.40703404 -0.3654076 -0.1587535 0.09879837 0.5114055 0.10596516 -0.13779037 -0.2542738
0.36405656 0.22940314 -0.15244979 -0.1920073 0.2789637 -0.004569349 -0.049662337 -0.39579964
-0.29108745 -0.060894545 -0.14185433 -0.3257592 0.37138394 -0.14111711 0.1209887 -0.02501721
0.013444353 0.14414282 -0.011443078 0.188773 0.12935452 -0.09054857 -0.07573785 -0.30504447
0.042008206 0.21864268 0.2778619 -0.14238362 -0.041613366 0.004310601 0.10021129 0.48722652
-0.08818291 -0.4496957 0.26900044 0.12323037 -0.21424729 -0.09763416 0.020387465 0.3135185
0.45257074 0.09223109 0.11759894 -0.13153742 0.039672866 -0.5614214 0.062410153 0.26194227
-0.22152919 -0.105482645 -0.079258926 -0.19454166 -0.0020994674 -0.40327498 -0.20052095 -0.10810507
0.2669699 -0.20211703 0.0659695 0.055641796 -0.2924274 0.07655873 0.049206786 -0.44591278
-0.34143883 0.2030415 0.28148618 0.020553937 -0.11624641 -0.018375987 0.6293596 0.13883205
-0.3935551 0.14755797 -0.28555137 -0.27547848 0.22568126 -0.054393604 0.0941047 0.26261824
0.04666455 -0.4206485 -0.012774133 -0.09337197 -0.0019742218 -0.02118543 -0.04230616 -0.022901522
0.12693979 0.331355 0.11921579 -0.17925775 0.13644962 0.36045012 -0.03145689 -0.0479211
-0.07317619 0.12393566 0.27174598 0.054604206 0.05952555 -0.11854605 0.18801735 -0.19674343
-0.5301574 0.054760426 0.4195465 -0.28493172 -0.014336264 -0.35517758 0.53290373 -0.30870032
0.16715294 -0.006307998 0.32805368 0.046300285 -0.113438666 -0.03711843 0.0048855026 0.15564165
-0.22342648 0.0067014955 -0.08011311 -0.006617298 0.28561065 0.083655275 -0.0729902 -0.41377822
0.5517315 0.06370934 0.2340392 -0.100595124 -0.09832966 -0.16398779 0.18237282 0.030450938
0.27385217 0.3119784 0.2042983 -0.19163795 0.7515654 -0.021610513 -0.052430693 -0.28509766
00000000: 15db 27be f6d9 8d3c 3b2a b5be 66f5 143c
00000010: 937b e0bd 9344 eb3e 5293 1bbe 79f5 3f3e
00000020: 3312 c03d 72f8 1a3d 0737 173e 9fe3 71bd
00000030: c30f fa3d 43fa 853d c71d 863e a125 023f
00000040: 7259 42bc c5cc c63d 8f31 0a3e 786a 4e3e
00000050: 7039 b03d db0f 02be 5b81 b4bc 8906 10be
00000060: c5e5 d33e 322f edbd de26 1b3c 5c4f a83e
00000070: caca 253e 3e73 18bf 434b d7bd 1892 89be
00000080: ae67 8abc 00b3 5bbd 46ed a3be 677f 50be
00000090: a2a4 8dbd cf64 9dbd d24d 8abd 64eb 86bd
000000a0: 2d8d ed3e d2d4 96be 0f4c 973d e730 553e
000000b0: b45a 1fbf 26a5 e1bb d1ef cebc c105 83be
000000c0: 6b97 e73d d49c 1dbe 05d7 473f b89f c2be
000000d0: 7521 2bbd b8f3 6dbd 9a7e b83d e230 99bd
000000e0: 3b4d 74be cc4f abbe 9907 08bd 9186 983d
000000f0: 8c53 01bb 46df a33d 7e90 1c3c 58b7 e13d
00000100: 091c d0bd 8938 cdbe c96f aa3b 31cd 5dbc
00000110: 1d99 bcbd 66e3 6bbc 606d 86be 8a41 96bd
00000120: 2105 8f3e 16b0 783e a629 43bd 186b 273d
00000130: f3db b93d 0318 6f3e 4481 81be 9384 93be
00000140: a125 bbbd 6604 d9bd 4e2c c73e b244 803d
00000150: fd78 093d 2fd4 803d 32ca ea3d c66d 283e
00000160: aa0d b3be 8813 2b3e c7cd bb3e b8f3 503e
00000170: 9418 a7bc 7551 ef3d 5572 3f3f 7bc5 4e3e
00000180: 76a5 093e 711b bd3c e7ed 4abd 6521 f2bc
00000190: 446a 56bd 0614 60be 2119 403e 0339 70be
000001a0: c466 d0be b416 bbbe 4790 22be cd56 ca3d
000001b0: 79eb 023f 4304 d93d eb18 0dbe 2d30 82be
000001c0: 9f65 ba3e a8e8 6a3e cc1b 1cbe 909d 44be
000001d0: 55d4 8e3e 7aba 95bb bc6a 4bbd 40a6 cabe
000001e0: 6a09 95be 8f6c 79bd 4342 11be e9c9 a6be
000001f0: 0926 be3e 0181 10be ecc8 f73d e4f0 ccbc
00000200: b445 5c3c 2d9a 133e bf7b 3bbc b64d 413e
00000210: 8375 043e 8771 b9bd 721c 9bbd ca2e 9cbe
00000220: cc10 2c3d dee3 5f3e ea43 8e3e 03cd 11be
00000230: c772 2abd f13f 8d3b 943b cd3d c175 f93e
00000240: 3e99 b4bd 843e e6be 6dba 893e 3460 fc3d
00000250: a463 5bbe 6bf4 c7bd 9d03 a73c 7f85 a03e
00000260: 5ab7 e73e a7e3 bc3d b7d7 f03d bfb1 06be
00000270: 0480 223d 50b9 0fbf caa1 7f3d 4c1d 863e
00000280: 8cd8 62be 4907 d8bd 8152 a2bd ee35 47be
00000290: 3897 09bb 0f7a cebe 5d55 4dbe 3166 ddbd
000002a0: 47b0 883e c4f7 4ebe 041b 873d a7e8 633d
000002b0: 0bb9 95be d3ca 9c3d 0e8d 493d ae4e e4be
000002c0: 12d1 aebe 1cea 4f3e f51e 903e bb60 a83c
000002d0: 9912 eebd 3d89 96bc b61d 213f fd29 0e3e
000002e0: 0e80 c9be 7019 173e ca33 92be 840b 8dbe
000002f0: fd18 673e d4cb 5ebd f7b9 c03d e675 863e
00000300: 5423 3f3d 3d5f d7be 994a 51bc ce39 bfbd
00000310: f261 01bb 118d adbc 3949 2dbd f99b bbbc
00000320: 81fc 013e 5da7 a93e 6827 f43d 588f 37be
00000330: 73b9 0b3e eb8c b83e f1d8 00bd ea48 44bd
00000340: 66dd 95bd fbd1 fd3d 4a22 8b3e a9a8 5f3d
00000350: 10d1 733d 45c8 f2bd 9f87 403e 1c77 49be
00000360: 65b8 07bf 784c 603d cdce d63e 92e2 91be
00000370: a6e2 6abc d6d9 b5be 616c 083f f80d 9ebe
00000380: 242a 2b3e 53b3 cebb a7f6 a73e 5ea5 3d3d
00000390: 8852 e8bd 7f09 18bd 9116 a03b 8660 1f3e
000003a0: e9c9 64be 3898 db3b 5812 a4bd ebd5 d8bb
000003b0: 8f3b 923e 7553 ab3d e37b 95bd bdda d3be
000003c0: 473e 0d3f 0b7a 823d f9a7 6f3e d104 cebd
000003d0: 1061 c9bd 6aec 27be f1bf 3a3e 3f74 f93c
000003e0: 5a36 8c3e a2bb 9f3e 9333 513e bd3c 44be
000003f0: 9766 403f 8808 b1bc 91c1 56bd 52f8 91be

critic.2.bias f4 [64]
0.3275475 -0.24544199 0.22699177 -0.07823156 -0.3303525 0.3151966 0.205548 -0.29300258
-0.22144371 0.26806608 -0.32562107 0.28230706 -0.19951443 0.3514525 0.38056192 0.30109426
-0.16855328 -0.34109682 0.27824736 -0.293837 0.2615784 0.32200578 0.31545317 0.3831093
0.2343178 0.34318364 0.24961609 0.20254618 0.27088407 -0.36935288 0.25059634 0.32100254
0.2646242 0.39369023 -0.3685669 -0.39458543 0.29044455 0.06273593 0.36476994 -0.34890464
0.15373272 0.3606454 0.31426895 0.43750554 0.27311465 0.23715259 0.3815394 -0.31454542
-0.081793144 0.19054452 0.2470784 0.33807343 -0.23562168 0.20355725 -0.32358006 -0.35488865
0.27593768 -0.3106432 0.24618359 -0.29882976 0.23509054 -0.2915032 -0.35301086 0.25630778
00000000: 4eb4 a73e 2555 7bbe 8870 683e de37 a0bd
00000010: f623 a9be 7361 a13e 2d7b 523e 6f04 96be
00000020: 24c2 62be f53f 893e ceb7 a6be 8d8a 903e
00000030: 834d 4cbe 95f1 b33e 03d9 c23e 0729 9a3e
00000040: 3b99 2cbe 3ea4 aebe 7076 8e3e ce71 96be
00000050: 9bed 853e f1dd a43e 1483 a13e e726 c43e
00000060: 01f1 6f3e c4b5 af3e 5c9b 7f3e 4468 4f3e
00000070: 51b1 8a3e d21b bdbe 2a4e 803e 725a a43e
00000080: d37c 873e c491 c93e cdb4 bcbe 1a07 cabe
00000090: 26b5 943e b27b 803d 20c3 ba3e a1a3 b2be
000000a0: 1c6c 1d3e 84a6 b83e dce7 a03e ba00 e03e
000000b0: afd5 8b3e 21d8 723e 2259 c33e 190c a1be
000000c0: 2a83 a7bd 1a1e 433e 1f02 7d3e f617 ad3e
000000d0: cf46 71be 5071 503e 49ac a5be f7b3 b5be
000000e0: b447 8d3e a00c 9fbe 8d17 7c3e 3700 99be
000000f0: 93bb 703e e83f 95be d7bd b4be c63a 833e

critic.4.weight f4 [2, 64]
0.34185252 1.2117438 0.4103569 1.414733 -0.29161918 0.37462005 0.39803877 -0.65607584
-0.49637783 0.596236 -0.4181619 0.84466237 1.2659 0.6872857 -0.5564948 0.4278677
-0.27885953 -0.49414027 0.4743945 -0.37452638 0.40055093 0.35499778 0.10377291 0.21162267
0.40383548 0.38411805 0.48959175 1.169632 0.3447538 -0.44060248 0.42666346 0.28823978
0.57111555 0.31460115 -0.22589637 -0.22118685 0.4975064 1.4048268 0.09994813 -0.5203224
-1.1028087 0.38407674 -0.059176303 0.31971622 0.5664231 0.31463003 0.34665024 -0.62209994
-1.1295778 1.2740442 0.204383 0.4203959 -0.49288905 0.8477001 -0.39490208 0.72588444
0.26699004 -0.43673497 0.37493378 -0.6050903 0.24384898 -0.30193943 -0.123478904 0.4561219
1.0270362 -0.35560596 1.042115 -0.279575 -1.0611938 0.8879148 1.2122195 -0.964358
-1.0195862 1.1042111 -0.9557002 0.88740724 -0.21304616 1.013749 0.6619191 0.99365544
-1.3122035 -0.9110194 0.99879056 -0.98389024 1.1407954 1.0644144 1.01257 1.1238091
1.0733125 1.0831671 1.0750883 0.28430748 1.125517 -0.86650836 1.2258768 1.0660278
1.1074082 1.0524244 -1.1089722 -1.005147 1.033645 0.13280785 1.17314 -1.0011637
0.4068413 1.0552795 1.136658 0.9101769 1.0003161 1.1620855 0.9796653 -0.94644177
0.09225621 0.07161241 1.1969882 1.0182378 -0.9952624 0.62706244 -1.0737761 -0.7984213
1.1461176 -0.99597806 1.13874 -1.049342 1.251293 -1.0326657 -1.2306743 1.0226121
00000000: 4b07 af3e 6c1a 9b3f 4d1a d23e f915 b53f
00000010: 1c4f 95be 33ce bf3e bdcb cb3e 96f4 27bf
00000020: 3c25 febe eca2 183f 5119 d6be cb3b 583f
00000030: 0309 a23f f5f1 2f3f 7176 0ebf 7a11 db3e
00000040: adc6 8ebe f4ff fcbe d6e3 f23e ecc1 bfbe
00000050: 0315 cd3e 45c2 b53e e486 d43d 9db3 583e
00000060: 86c3 ce3e 1fab c43e c5ab fa3e 80b6 953f
00000070: 9283 b03e a696 e1be a273 da3e 2a94 933e
00000080: a134 123f 6713 a13e 6151 67be ce7e 62be
00000090: 29b9 fe3e 5dd1 b33f 9bb1 cc3d d933 05bf
000000a0: d628 8dbf b5a5 c43e da62 72bd d8b1 a33e
000000b0: 1b01 113f 3017 a13e 247c b13e f141 1fbf
000000c0: 0196 90bf e113 a33f c749 513e 223e d73e
000000d0: f45b fcbe e002 593f 9b30 cabe 90d3 393f
000000e0: ebb2 883e ba9b dfbe 52f7 bf3e 33e7 1abf
000000f0: 8cb3 793e ce97 9abe 82e2 fcbd cf88 e93e
00000100: ec75 833f fc11 b6be 0664 853f 7424 8fbe
00000110: 33d5 87bf 624e 633f 022a 9b3f 2ae0 76bf
00000120: cd81 82bf ca56 8d3f c5a8 74bf 1f2d 633f
00000130: c628 5abe 87c2 813f 8873 293f 3460 7e3f
00000140: 49f6 a7bf 9138 69bf bdb0 7f3f 3be0 7bbf
00000150: 9505 923f bb3e 883f e59b 813f fad8 8f3f
00000160: 4e62 893f 38a5 8a3f 7e9c 893f c090 913e
00000170: f110 903f 7ed3 5dbf 88e9 9c3f 9973 883f
00000180: 8dbf 8d3f d8b5 863f cdf2 8dbf a8a8 80bf
00000190: 7b4e 843f c8fe 073e 7429 963f 2226 80bf
000001a0: 814d d03e 6613 873f 027e 913f 5a01 693f
000001b0: 5c0a 803f 38bf 943f 58cb 7a3f 024a 72bf
000001c0: d3f0 bc3d 87a9 923d e936 993f 9e55 823f
000001d0: 84c9 7ebf 2a87 203f 7f71 89bf 5765 4cbf
000001e0: fbb3 923f 6bf8 7ebf 3bc2 913f d750 86bf
000001f0: 5e2a a03f 642e 84bf bc86 9dbf f4e4 823f

critic.4.bias f4 [2]
0.28625703 0.80646133
00000000: 4890 923e 4074 4e3f

actor_mean.0.weight f4 [64, 26]
-0.29004988 -0.22058451 -0.019430298 0.2604404 -0.019312387 0.11646533 0.004598773 -0.11887808
0.22845161 0.07032772 -0.08925372 -0.04340338 -0.078047425 -0.15945828 -0.015225909 0.17105259
-0.17703284 -0.33239642 -0.059831034 -0.28924713 -0.079171516 -0.07564531 -0.14804219 0.0020119597
0.011345692 -0.045841698 -0.16732524 0.13622287 0.5724506 -0.09590499 -0.07666339 -0.17557019
-0.04462954 -0.190262 -0.31312498 0.348746 0.035734758 -0.13698743 -0.07535147 0.080486454
0.26111636 -0.11050065 -0.43144658 0.029817348 -0.15229276 0.30285904 -0.26756275 -0.2688574
0.13637455 -0.015205855 -0.0691048 0.07569592 -0.054805625 -0.04262208 -0.18438053 0.031601857
0.15001695 0.29492596 0.18576162 0.17894433 0.012112327 0.30522496 0.20667171 0.062641636
-0.18615244 -0.07328337 0.22840832 -0.109983474 0.15564512 0.09026825 -0.012693198 -0.10625777
-0.1157284 0.32073414 -0.14596306 0.12811433 0.096369006 0.1318753 -0.010658896 -0.053822864
-0.12196253 0.03569936 -0.42129982 0.15370631 0.040057328 0.0019570184 -0.12794988 -0.17822276
-0.21178383 -0.21849518 -0.19317895 0.14129396 -0.24905804 0.0052589793 -0.15515958 0.13033317
0.14013027 -0.14455956 0.04081709 0.12869498 0.18461849 -0.2691086 0.044484127 -0.10926358
-0.08442091 -0.08805528 0.14549495 -0.18573126 -0.012421419 0.30359006 -0.021846933 0.11794253
0.07074303 -0.109215155 0.25840083 -0.050790045 -0.13156691 -0.19529769 -0.2337423 0.029225048
0.054908603 0.22966163 -0.21300101 -0.21832839 -0.35171196 -0.014780233 -0.096182644 0.6094585
-0.2554863 0.05305588 -0.44260517 -0.0009814311 -0.24831869 -0.38859534 0.18868285 -0.053630993
-0.1436507 -0.12501302 -0.0072919237 -0.20265721 -0.14461397 0.16357432 0.08849746 0.027098391
0.035700254 -0.13297215 -0.29336882 -0.2684573 -0.15974428 0.17832904 0.019145338 0.30073723
-0.22957169 -0.108651355 -0.037075795 0.48634386 -0.16373667 -0.12334105 0.09383221 0.20707119
0.09262808 -0.06445797 -0.13124296 -0.2277127 -0.62557983 -0.05578688 0.2122232 0.008495275
-0.1513391 -0.40481973 -0.060317047 0.1562469 -0.1215254 -0.05766676 -0.21193497 -0.032026876
-0.115009375 0.32455367 -0.06561706 -0.084686205 -0.33406398 0.0759532 0.0056754434 0.09322448
-0.25931257 -0.112887375 0.036836486 0.57390857 -0.36848283 -0.37133348 -0.0055532483 -0.13414189
-0.105161555 0.048700094 -0.24739404 0.2786806 0.02188969 -0.29706293 0.009393812 0.17325641
0.01069572 -0.16742355 -0.17917527 0.085459664 -0.31922397 -0.30843848 0.07783725 -0.07455234
-0.28087145 -0.15090317 -0.13570875 -0.115920156 0.043669287 -0.104104914 -0.23241436 -0.068826586
-0.40148485 0.09382671 0.021173542 -0.035766933 -0.61940277 0.16452885 -0.12723891 -0.0266608
-0.10058531 0.28185523 -0.006540184 0.23654889 -0.21460387 -0.016943699 0.41928938 0.15240674
-0.30126455 -0.16801798 -0.19867694 0.31362104 0.16469333 0.21710764 -0.069116145 0.12663022
-0.31828797 -0.038023744 0.014806679 0.08120096 0.029610839 0.24847321 -0.21906179 -0.0048786183
-0.57849216 -0.25068074 0.03188538 -0.3661382 -0.123564795 0.052638933 -0.07787992 -0.028982468
00000000: 6b81 94be e8e0 61be 4a2c 9fbc 7258 853e
00000010: 0335 9ebc 6085 ee3d 4eb1 963b 5a76 f3bd
00000020: 38ef 693e fb07 903d a8ca b6bd bec7 31bd
00000030: 54d7 9fbd 0849 23be 1776 79bc 6928 2f3e
00000040: 1948 35be dd2f aabe 6311 75bd 3318 94be
00000050: ad24 a2bd eeeb 9abd 5f98 17be 15db 033b
00000060: 48e3 393c 81c4 3bbd 4f57 2bbe 027e 0b3e
00000070: 1f8c 123f d669 c4bd b201 9dbd acc8 33be
00000080: 77cd 36bd 0bd4 42be eb51 a0be d68e b23e
00000090: 9c5e 123d 6f46 0cbe df51 9abd 15d6 a43d
000000a0: 0bb1 853e 2a4e e2bd 91e6 dcbe 8343 f43c
000000b0: a2f2 1bbe 5710 9b3e fcfd 88be ada7 89be
000000c0: c5a5 0b3e fa21 79bc d186 8dbd 7606 9b3d
000000d0: dd7b 60bd 7d94 2ebd 40ce 3cbe f370 013d
000000e0: 0b9e 193e 8900 973e 4b38 3e3e 2f3d 373e
000000f0: c872 463c 7246 9c3e c0a1 533e 424a 803d
00000100: bf9e 3ebe 9715 96bd dfe3 693e 043f e1bd
00000110: 6f61 1f3e 8fde b83d 22f7 4fbc ac9d d9bd
00000120: 0303 edbd 4437 a43e 5777 15be 6730 033e
00000130: 1d5d c53d 520a 073e a6a2 2ebc 5d75 5cbd
00000140: 7ec7 f9bd 7e39 123d 9cb4 d7be 3065 1d3e
00000150: 2713 243d 5241 003b 4b05 03be 0780 36be
00000160: dcdd 58be 33bd 5fbe b4d0 45be 5daf 103e
00000170: 1209 7fbe 8453 ac3b 27e2 1ebe 0f76 053e
00000180: 4f7e 0f3e 6c07 14be d22f 273d 9ec8 033e
00000190: a10c 3d3e 9ac8 89be fd34 363d 95c5 dfbd
000001a0: dfe4 acbd 5456 b4bd a1fc 143e 5630 3ebe
000001b0: 3583 4bbc 2870 9b3e 57f8 b2bc da8b f13d
000001c0: b9e1 903d 32ac dfbd 1d4d 843e 3909 50bd
000001d0: 7ab9 06be 1efc 47be 245a 6fbe 5e69 ef3c
000001e0: d8e7 603d 6b2c 6b3e f01c 5abe 7a91 5fbe
000001f0: 9713 b4be ca28 72bc 68fb c4bd 7905 1c3f
00000200: 1acf 82be 1f51 593d 259d e2be 5da3 80ba
00000210: 4147 7ebe f8f5 c6be 1436 413e 2cac 5bbd
00000220: 2b19 13be 6a03 00be 17f1 eebb 5f85 4fbe
00000230: af15 14be 0780 273e 283e b53d 72fd dd3c
00000240: 6e3a 123d da29 08be 7034 96be 3c73 89be
00000250: 0194 23be e39b 363e afd6 9c3c 3bfa 993e
00000260: d714 6bbe 9a84 debd cadc 17bd 1002 f93e
00000270: 96aa 27be 3c9a fcbd 1a2b c03d 780a 543e
00000280: cab3 bd3d 8a02 84bd 8e64 06be 852d 69be
00000290: 0026 20bf c980 64bd 0a51 593e c42f 0b3c
000002a0: a3f8 1abe 8844 cfbe 020f 77bd 30ff 1f3e
000002b0: 4fe2 f8bd fb33 6cbd 7b05 59be 9d2e 03bd
000002c0: 098a ebbd e62b a63e 3d62 86bd f66f adbd
000002d0: 6f0a abbe 5a8d 9b3d 12f9 b93b 7aec be3d
000002e0: 9ec4 84be 7f31 e7bd dbe1 163d aceb 123f
000002f0: c8a9 bcbe 6c1f bebe 06f8 b5bb 7e5c 09be
00000300: f15e d7bd c079 473d dd54 7dbe 39af 8e3e
00000310: 0252 b33c a218 98be 81e8 193c 216a 313e
00000320: 1a3d 2f3c 1471 2bbe b979 37be 7a05 af3d
00000330: 5371 a3be a6eb 9dbe 2369 9f3d e6ae 98bd
00000340: 62ce 8fbe 5c86 1abe 3cf7 0abe 8c67 edbd
00000350: 91de 323d f534 d5bd 08fe 6dbe f4f4 8cbd
00000360: 6c8f cdbe 3828 c03d 2374 ad3c 5980 12bd
00000370: 2e91 1ebf 407a 283e eb4a 02be c067 dabc
00000380: acff cdbd 544f 903e 0a4f d6bb df39 723e
00000390: 1ec1 5bbe 83cd 8abc 19ad d63e 8310 1c3e
000003a0: 593f 9abe e80c 2cbe f871 4bbe f092 a03e
000003b0: 5ea5 283e 7751 5e3e c48c 8dbd 5aab 013e
000003c0: a4f6 a2be c9be 1bbd b797 723c b04c a63d
000003d0: 6e92 f23c c36f 7e3e bc51 60be d1dc 9fbb
000003e0: 1018 14bf 3a59 80be 3f9a 023d 7776 bbbe
000003f0: 8a0f fdbd ec9b 573d 827f 9fbd a46c edbc

actor_mean.0.bias f4 [64]
-0.01728332 -0.12739362 0.07980557 -0.07623648 -0.088401854 0.056187015 0.07086296 -0.0017989972
-0.0974444 -0.11807424 0.19207399 0.104632385 -0.06314275 -0.0686938 -0.011786029 0.055910897
0.06867629 -0.08392404 0.102495 -0.01999292 -0.03605786 -0.1658997 0.09633253 0.011590901
-0.07834763 0.025010867 -0.11726684 -0.026348762 -0.013323583 -0.056370374 0.10864889 0.030139301
0.068185054 -0.015766704 -0.029849214 0.087160066 0.025234284 -0.12080343 -0.1140238 0.18282244
-0.009362855 0.14106674 0.015177616 0.07977022 0.10413429 0.034511704 -0.081509516 -0.080198094
-0.019375684 0.008442035 -0.037047323 -0.023128618 0.015306039 0.053914122 -0.007476848 0.029198984
-0.039506238 -0.03798367 -0.084937274 -0.0659064 0.07787277 -0.07237327 -0.15984924 0.10908336
00000000: c095 8dbc 7973 02be 1a71 a33d df21 9cbd
00000010: 080c b5bd 5b24 663d 9920 913d 54cc ebba
00000020: ee90 c7bd e8d0 f1bd 0baf 443e 8149 d63d
00000030: fc50 81bd 56af 8cbd 301a 41bc d302 653d
00000040: 28a6 8c3d 5ee0 abbd e6e8 d13d 31c8 a3bc
00000050: 68b1 13bd 9ce1 29be fd49 c53d c3e7 3d3c
00000060: b974 a0bd 97e3 cc3c 9929 f0bd 5cd9 d7bc
00000070: 284b 5abc 9fe4 66bd 4f83 de3d b2e6 f63c
00000080: 9ba4 8b3d 2d29 81bc 5786 f4bc fa80 b23d
00000090: 21b8 ce3c ca67 f7bd 4f85 e9bd ce35 3b3e
000000a0: a966 19bc cd73 103e 89ab 783c 925e a33d
000000b0: 5c44 d53d 255c 0d3d 76ee a6bd e63e a4bd
000000c0: c1b9 9ebc 7650 0a3c efbe 17bd 3a78 bdbc
000000d0: 2ec6 7a3c 0ed5 5c3d 5900 f5bb b532 ef3c
000000e0: 4bd1 21bd c494 1bbd 98f3 adbd eff9 86bd
000000f0: c27b 9f3d 7038 94bd 85af 23be 1967 df3d

actor_mean.2.weight f4 [64, 64]
-0.19616003 0.1623139 0.17725222 0.18769123 -0.21794719 0.23420738 0.03644884 0.24393499
0.2476828 -0.54512507 0.23901688 0.12529975 0.024409521 -0.18168928 -0.0024931747 0.04872567
0.095059596 -0.041153222 0.104093775 -0.118930444 0.27513245 0.010835086 0.11912632 -0.17862086
-0.12883498 0.002566833 0.014345696 0.1485169 0.14584635 0.27110767 -0.27460384 0.1387682
-0.12758373 0.09328499 -0.06423849 -0.25770357 0.09591152 -0.0240274 -0.24725763 0.1671069
-0.38536727 0.14942697 -0.13101862 -0.17064796 0.12496105 0.32695514 -0.10870276 -0.28858343
-0.021844167 0.16054097 0.2029484 0.26089716 -0.14905193 0.33609203 0.119051635 0.073965915
0.09391363 -0.23423922 0.052221112 0.121655345 -0.2430497 0.14062116 -0.02532362 0.29175216
-0.1596961 0.051834565 -0.24926755 0.18650028 -0.03974497 -0.21620765 -0.022593753 -0.10115621
-0.09306939 0.024985401 -0.29473776 0.52074444 0.21074599 -0.03141244 0.3256753 -0.18602973
-0.033949085 0.40780202 -0.18923163 -0.10210149 -0.05337559 0.16894871 0.10023898 0.042140536
-0.2368737 -0.08477315 -0.24251628 0.3497511 -0.3114463 0.17709808 0.03881385 0.10429033
0.13987623 -0.08379636 0.019525241 0.20826632 -0.19303545 -0.21051292 -0.16770835 0.1698689
0.13095021 0.33325484 -0.10992162 0.31443807 -0.18820313 0.034318775 -0.39290804 -0.0937157
-0.19762918 -0.07895029 -0.16338195 0.05448377 -0.08142059 0.060336877 0.11742158 0.09684684
-0.002927416 -0.20961232 0.025959864 0.22581555 -0.03083268 0.21819723 0.06837014 0.14695118
-0.32584885 0.029314123 -0.19208679 -0.24921536 0.3293994 -0.158264 -0.014216904 0.27433562
-0.1251044 -0.2909599 -0.39962766 -0.207043 0.1315203 0.22436482 -0.06675855 0.30981147
-0.011239954 0.06299017 -0.18377388 -0.32760254 -0.039409064 -0.17705609 0.27353263 0.06774069
-0.14398882 -0.18628715 -0.07229228 -0.014701767 0.06489917 -0.24610254 -0.27531153 -0.3421249
-0.0922388 -0.052539736 -0.06801856 -0.10260291 0.30303034 0.048724413 -0.2763354 -0.014576845
0.015685674 -0.116460785 -0.15471974 -0.1413551 0.034782425 -0.08320023 -0.014528544 0.071090154
-0.075242504 -0.0032717737 -0.1467284 0.28238478 0.46632534 -0.23540848 0.2620472 -0.089078896
0.09023361 0.14369276 -0.040401597 0.16580693 0.15522724 -0.24669805 0.16261749 0.317054
0.1180861 0.05647029 0.12892175 -0.03208796 -0.06712034 0.32392466 0.03876428 -0.17548329
-0.021236466 -0.16462672 -0.49841642 0.23611923 -0.1979493 0.19939747 0.018669492 -0.16889763
-0.26394713 0.04579583 0.2280435 -0.091134064 0.17374815 -0.12903006 0.31647626 0.21550319
-0.064209566 0.07174405 -0.30004016 0.060541578 -0.15248996 0.0727704 0.07444474 -0.35078502
-0.24989316 -0.032150064 -0.14611912 -0.24112815 0.027325777 0.17330545 0.08938636 0.0909107
-0.030418921 0.26103255 -0.030927429 -0.30493996 0.32035938 0.049369585 0.0017689723 -0.013642369
0.047459744 0.18356474 -0.1681665 -0.34438702 0.13178861 -0.3024242 -0.34603307 0.206919
0.10421284 -0.07724587 -0.17711823 -0.16361317 0.26713783 0.16180202 -0.08987554 -0.16935492
00000000: 2dde 48be 9d35 263e 9b81 353e 2132 403e
00000010: 8c2d 5fbe 0fd4 6f3e 614b 153d 18ca 793e
00000020: 8fa0 7d3e 518d 0bbf d7c0 743e 944e 003e
00000030: 7af6 c73c c10c 3abe 8864 23bb 9194 473d
00000040: 9bae c23d 4890 28bd 1e2f d53d ce91 f3bd
00000050: 29de 8c3e a585 313c 80f8 f33d 63e8 36be
00000060: 51ed 03be 5038 283b 360a 6b3c d014 183e
00000070: bf58 153e a0ce 8a3e e098 8cbe 4019 0e3e
00000080: 4fa5 02be 330c bf3d 788f 83bd b9f1 83be
00000090: 426d c43d 1cd5 c4bc 1b31 7dbe 121e 2b3e
000000a0: dc4e c5be 6203 193e bf29 06be 57be 2ebe
000000b0: 94eb ff3d aa66 a73e 8d9f debd 35c1 93be
000000c0: 8af2 b2bc da64 243e b5d1 4f3e 5094 853e
000000d0: 12a1 18be 4114 ac3e 58d1 f33d 717b 973d
000000e0: ca55 c03d 68dc 6fbe cee5 553d 7026 f93d
000000f0: 05e2 78be fefe 0f3e 7b73 cfbc 8a60 953e
00000100: 6087 23be 7b50 543d fe3f 7fbe eef9 3e3e
00000110: 9fcb 22bd 8a65 5dbe 8916 b9bc fd2a cfbd
00000120: 2a9b bebd 2fae cc3c dee7 96be 824f 053f
00000130: cccd 573e 55aa 00bd eabe a63e 947e 3ebe
00000140: 320e 0bbd 6dcb d03e f0c5 41be 961a d1bd
00000150: 5da0 5abd e400 2d3e 184a cd3d 8e9b 2c3d
00000160: 058f 72be 8c9d adbd 3056 78be 9412 b33e
00000170: e475 9fbe 3359 353e 46fb 1e3d 2b96 d53d
00000180: b73b 0f3e 6d9d abbd 66f3 9f3c c443 553e
00000190: 16ab 45be b390 57be bdbb 2bbe 1df2 2d3e
000001a0: d017 063e 61a0 aa3e 961e e1bd 07fe a03e
000001b0: 52b8 40be d891 0c3d 3e2b c9be 04ee bfbd
000001c0: 4e5f 4abe b1b0 a1bd 994d 27be 602a 5f3d
000001d0: d7bf a6bd cd23 773d ba7a f03d a357 c63d
000001e0: e4d9 3fbb 9da4 56be c8a9 d43c 313c 673e
000001f0: d194 fcbc 186f 5f3e a505 8c3d 5f7a 163e
00000200: a9d5 a6be 2c24 f03c 66b2 44be 5032 7fbe
00000210: 0aa7 a83e f50f 22be 04ee 68bc b875 8c3e
00000220: 5e1b 00be b2f8 94be ff9b ccbe 1503 54be
00000230: 42ad 063e e4bf 653e b5b8 88bd 9c9f 9e3e
00000240: c927 38bc fe00 813d 382f 3cbe 85bb a7be
00000250: 666b 21bd 314e 35be 780c 8c3e a2bb 8a3d
00000260: ce71 13be 0fc2 3ebe fa0d 94bd aedf 70bc
00000270: dbe9 843d 4e02 7cbe a2f5 8cbe ff2a afbe
00000280: b2e7 bcbd e833 57bd 514d 8bbd 7921 d2bd
00000290: cb26 9b3e 4093 473d d57b 8dbe b8d3 6ebc
000002a0: 3e7f 803c fe82 eebd da6e 1ebe 64bf 10be
000002b0: 0478 0e3d e264 aabd 2109 6ebc b797 913d
000002c0: be18 9abd 416b 56bb f83f 16be bd94 903e
000002d0: 32c2 ee3e ec0e 71be 0d2b 863e ff6e b6bd
000002e0: 66cc b83d 3224 133e 257c 25bd 4bc9 293e
000002f0: e4f3 1e3e 6a9e 7cbe 3385 263e e754 a23e
00000300: 20d7 f13d 644d 673d 1004 043e aa6e 03bd
00000310: 6476 89bd 74d9 a53e 4bc7 1e3d e4b1 33be
00000320: 19f8 adbc e893 28be 7030 ffbe 3dc9 713e
00000330: 39b3 4abe da2e 4c3e c3f0 983c 80f3 2cbe
00000340: 1424 87be 6994 3b3d 3c84 693e 7fa4 babd
00000350: 09eb 313e 7520 04be 2d09 a23e deac 5c3e
00000360: 4e80 83bd 8bee 923d dd9e 99be 72fa 773d
00000370: 5426 1cbe a608 953d 7c76 983d 189a b3be
00000380: fee3 7fbe c9af 03bd 40a0 15be 4cea 76be
00000390: 4fda df3c fc76 313e 3210 b73d 642f ba3d
000003a0: 1a31 f9bc 0fa6 853e 855b fdbc 1721 9cbe
000003b0: 2506 a43e c337 4a3d dcdc e73a 3e84 5fbc
000003c0: 2665 423d 65f8 3b3e d733 2cbe 7f53 b0be
000003d0: 98f3 063e 58d7 9abe 3f2b b1be 93e2 533e
000003e0: 8b6d d53d 1533 9ebd 7b5e 35be 368a 27be
000003f0: 4ac6 883e 6eaf 253e ab10 b8bd 606b 2dbe

actor_mean.2.bias f4 [64]
0.061959255 -0.026852867 0.036808852 -0.02566559 -0.021508615 -0.04312294 -0.02660467 -0.04091682
0.034154553 0.06256034 -0.09459327 0.03342569 0.0029951439 0.022274485 -0.026292166 -0.048634343
-0.03330917 -0.045461252 0.02210312 -0.008798355 0.09426864 -0.03297031 0.12311675 -0.016414836
0.0009768612 -0.0032540283 0.075441964 0.058077123 0.05477632 -0.033688817 -0.05934101 0.036745574
-0.018202314 -0.1043693 0.07681492 -0.0692129 0.071743675 0.0008142413 -0.006180089 -0.012153126
-0.054463144 -0.008380522 -0.08443966 0.0039521884 -0.058903646 0.030989625 -0.08029277 0.073088
-0.030386545 -0.053772293 0.054364543 0.025782665 -0.029038034 -0.003204498 -0.028710293 0.0012367103
-0.05076613 -0.00804922 -0.018269055 -0.009749663 0.033253655 -0.03325637 -0.0056067174 -0.08729248
00000000: fdc8 7d3d 8bfa dbbc e1c4 163d a540 d2bc
00000010: d632 b0bc aea1 30bd 09f2 d9bc 6598 27bd
00000020: a5e5 0b3d a31f 803d 1eba c1bd 60e9 083d
00000030: 2d4a 443b fb78 b63c ab62 d7bc ce34 47bd
00000040: 326f 08bd 9435 3abd 9a11 b53c fa26 10bc
00000050: eb0f c13d e00b 07bd a224 fc3d 6878 86bc
00000060: 060a 803a 8941 55bb 5181 9a3d 47e2 6d3d
00000070: 225d 603d 49fd 09bd 8f0f 73bd 8782 163d
00000080: 051d 95bc 92bf d5bd 2451 9d3d 7ebf 8dbd
00000090: 59ee 923d cf72 553a 5882 cabb e81d 47bc
000000a0: bf14 5fbd 754e 09bc b3ee acbd 5c81 813b
000000b0: f344 71bd f4dd fd3c 8970 a4bd 29af 953d
000000c0: 34ed f8bc 5640 5cbd 5bad 5e3d 2b36 d33c
000000d0: 2ce1 edbc 8e02 52bb d931 ebbc 1d19 a23a
000000e0: 25f0 4fbd e0e0 03bc fca8 95bc 0dbd 1fbc
000000f0: fc34 083d d537 08bd 8eb8 b7bb 66c6 b2bd

actor_mean.4.weight f4 [6, 64]
0.06379766 0.03186017 -0.016778119 -0.03061495 -0.026251916 -0.04800399 -0.09440331 -0.05936693
0.070144705 0.04576459 0.021892538 0.042299856 -0.060963094 0.05534596 0.03193063 -0.0025802841
0.10572624 -0.05818029 0.039398365 0.021915903 0.032009393 0.06800453 0.077195086 -0.021321658
0.010476877 -0.03864343 0.012718112 0.03191707 -0.12027356 -0.017634338 0.019134294 0.057423398
-0.0445674 0.09715866 0.008771348 0.013191923 0.015188777 0.08314826 0.12270402 -0.011898152
-0.037359808 0.0049551013 -0.07844465 0.05707603 -0.038458925 0.007775767 -0.09137174 0.020655591
-0.011059444 0.11193158 0.07710444 0.040660813 -0.046598505 0.03637969 0.030408368 -0.029928604
0.06904653 0.009738228 -0.06537214 0.010336659 0.022939444 0.09515902 0.025749687 0.095291756
0.020777008 -0.0331196 -0.1311823 -0.0464073 -0.046317276 0.039209787 -0.07693627 -0.00039497315
-0.055696916 -0.003308358 0.0019062451 0.029644854 -0.0015499156 -0.01983599 -0.030160079 0.009814765
-0.072009094 0.008155845 -0.05312155 0.018122878 0.018451892 0.008705161 -0.0015673132 -0.0027973973
0.068391755 0.0011773492 0.0052513992 -0.007766808 -0.008178488 0.119790815 0.012010044 -0.06227876
0.011397448 0.054976873 0.045681503 0.037919804 -0.0069169938 0.00942807 -0.028893312 -0.09828741
0.06744805 -0.04094689 0.06768678 -0.030443558 -0.07172273 -0.019779392 0.0447851 -0.0662724
0.001336827 -0.053736594 0.072694875 0.033137076 0.083591126 -0.054364152 -0.03916314 -0.040904716
0.04188235 0.02921514 0.009438583 -0.013351535 -0.058215745 0.03752872 -0.005358156 0.0066437363
-0.036652703 -0.08109081 0.021661444 0.008352878 0.04058438 0.093414225 0.0006264808 0.07241378
0.015613769 0.049854912 0.029199313 -0.022136075 -0.02317474 -0.07293079 0.0337808 0.0024359087
0.015335314 -0.0018220586 0.036764596 0.028273636 -0.036791887 0.014830719 0.04836141 -0.012922745
0.039530892 -0.0083793 0.04023379 -0.035412107 -0.08627725 -0.015961776 0.115628995 0.05054693
-0.08723425 0.03906253 -0.056660444 -0.07669038 0.0030947058 -0.11134652 -0.0007791588 0.010852762
0.012547465 -0.07305262 0.0005091439 -0.080310695 -0.013921756 0.10400936 0.026199916 0.002861368
0.01188632 0.08800166 -0.03824563 0.00656813 0.060120106 0.124652885 -0.06805462 0.048339855
-0.009442199 -0.050979603 -0.03339489 0.020114027 0.00036691607 -0.04630909 0.021066649 0.054851223
-0.046451192 -0.02446451 -0.07133654 -0.039720576 0.048678227 -0.10300687 -0.023264077 -0.06817882
0.03344458 0.034369215 -0.0078543695 -0.016263299 -0.032916594 -0.015516332 -0.023290837 -0.02699647
-0.031353027 0.05570215 0.04670633 -0.009743071 -0.03826685 0.040253133 0.05326795 0.14548407
0.025568118 0.028853599 -0.003960457 -0.03517612 0.07979809 -0.14436227 -0.019814333 -0.012629985
0.036310103 0.104404375 -0.02318625 0.029384043 -0.0439232 -0.045738727 0.036432166 -0.0412869
-0.055436693 0.043286297 -0.028328868 -0.067995936 -0.04898379 0.05031195 -0.072616324 0.00864635
-0.017060352 0.06269165 -0.03462113 0.03181165 -0.017936317 -0.077585995 -0.03272614 -0.07158599
-0.10832921 -0.058784194 -0.07214304 -0.056658246 -0.006612735 0.019440584 -0.12930864 -0.09249259
00000000: 59a8 823d cf7f 023d 4472 89bc 34cc fabc
00000010: 420e d7bc d59f 44bd 8656 c1bd bd2a 73bd
00000020: 07a8 8f3d a773 3b3d fb57 b33c 9d42 2d3d
00000030: 70b4 79bd 72b2 623d b1c9 023d fc19 29bb
00000040: 0087 d83d 754e 6ebd 2e60 213d fb88 b33c
00000050: 481c 033d f645 8b3d 7518 9e3d c2aa aebc
00000060: 35a7 2b3c 9348 1ebd a15f 503c 79bb 023d
00000070: fc51 f6bd e375 90bc 86bf 9c3c cc34 6b3d
00000080: 4e8c 36bd 1ffb c63d b3b5 0f3c ef22 583c
00000090: 59da 783c a349 aa3d 3f4c fb3d 77f0 42bc
000000a0: 9906 19bd 675e a23b 97a7 a0bd 8ec8 693d
000000b0: 1b87 1dbd dccb fe3b 1b21 bbbd ea35 a93c
000000c0: ac32 35bc 623c e53d efe8 9d3d f48b 263d
000000d0: 13de 3ebd df02 153d f81a f93c d52c f5bc
000000e0: 4468 8d3d 178d 1f3c d4e1 85bd 175b 293c
000000f0: 80eb bb3c bbe2 c23d 02f1 d23c 5328 c33d
00000100: 8b34 aa3c 6ba8 07bd a754 06be 9515 3ebd
00000110: 2fb7 3dbd 719a 203d c390 9dbd 6614 cfb9
00000120: 7322 64bd 09d1 58bb f9da f93a c4d9 f23c
00000130: 8a26 cbba 167f a2bc 4512 f7bc 1cce 203c
00000140: 8179 93bd 18a0 053c fb95 59bd 6e76 943c
00000150: 6c28 973c 17a0 0e3c 4e6e cdba 8a54 37bb
00000160: fa10 8c3d 4951 9a3a ee13 ac3b b580 febb
00000170: 11ff 05bc e354 f53d c7c5 443c 0318 7fbd
00000180: 5dbc 3a3c 6e2f 613d 871c 3b3d cc51 1b3d
00000190: f3a7 e2bb 3178 1a3c abb1 ecbc e94a c9bd
000001a0: 3422 8a3d edb7 27bd 5e9f 8a3d c564 f9bc
000001b0: 5ee3 92bd 6408 a2bc 9570 373d d3b9 87bd
000001c0: 7838 af3a e71a 5cbd 0de1 943d beba 073d
000001d0: d331 ab3d f2ac 5ebd 8769 20bd b48b 27bd
000001e0: d48c 2b3d 9754 ef3c 49a4 1a3c 66c0 5abc
000001f0: a273 6ebd b7b7 193d 7893 afbb b3b3 d93b
00000200: 2521 16bd f012 a6bd 5773 b13c 82da 083c
00000210: cf3b 263d f54f bf3d 6a3a 243a ad4d 943d
00000220: e5d0 7f3c aa34 4c3d 6633 ef3c b756 b5bc
00000230: f4d8 bdbc bd5c 95bd bc5d 0a3d c4a3 1f3b
00000240: f840 7b3c 24d2 eeba 7996 163d 1d9e e73c
00000250: 17b3 16bd 8bfc 723c 9d16 463d ecb9 53bc
00000260: 25eb 213d 5549 09bc 30cc 243d 490c 11bd
00000270: 20b2 b0bd 45c2 82bc e5ce ec3d 4c0a 4f3d
00000280: dfa7 b2bd 0800 203d c814 68bd d90f 9dbd
00000290: 8cd0 4a3b a509 e4bd 7640 4cba c8cf 313c
000002a0: e293 4d3c 9d9c 95bd 1278 053a ef79 a4bd
000002b0: 1418 64bc dc02 d53d 35a1 d63c ca85 3b3b
000002c0: d7be 423c 373a b43d 73a7 1cbd 7839 d73b
000002d0: 8040 763d 034a ff3d 3860 8bbd 0300 463d
000002e0: 74b3 1abc fdcf 50bd 15c9 08bd 2cc6 a43c
000002f0: a45e c039 9aae 3dbd f793 ac3c adab 603d
00000300: 9b43 3ebd cc69 c8bc e418 92bd 0bb2 22bd
00000310: d262 473d 44f5 d2bd 4e94 bebc 56a1 8bbd
00000320: 2ffd 083d bcc6 0c3d 9daf 00bc 9c3a 85bc
00000330: 8dd3 06bd 3738 7ebc 6dcc bebc b327 ddbc
00000340: 086c 00bd f027 643d 234f 3f3d 67a1 1fbc
00000350: b3bd 1cbd 78e0 243d 7e2f 5a3d c7f9 143e
00000360: 3b74 d13c 625e ec3c b9c6 81bb d614 10bd
00000370: 2e6d a33d b4d3 13be ab51 a2bc ffed 4ebc
00000380: e7b9 143d f6d1 d53d 17f1 bdbc ceb6 f03c
00000390: d0e8 33bd 8858 3bbd e539 153d 741c 29bd
000003a0: 9611 63bd f94c 313d f111 e8bc 7441 8bbd
000003b0: 3aa3 48bd e713 4e3d deb7 94bd 6ca9 0d3c
000003c0: 27c2 8bbc 7b64 803d e3ce 0dbd ef4c 023d
000003d0: 2fef 92bc 68e5 9ebd d80b 06bd ad9b 92bd
000003e0: b4db ddbd b2c7 70bd bbbf 93bd 7a12 68bd
000003f0: a4af d8bb dc41 9f3c 7c69 04be c16c bdbd

actor_mean.4.bias f4 [6]
0.020894721 -0.019247565 -0.012664091 0.029870363 -0.010808491 -0.0037665595
00000000: 682b ab3c 12ad 9dbc 0c7d 4fbc b1b2 f43c
00000010: 1916 31bc 62d8 76bb

codebook f4 [100, 2]
0.6203138 0.37854636 0.5564586 0.4429607 0.3658187 0.62660956 0.8666078 0.13841224
-0.07632798 0.9542946 0.3252211 0.6596768 0.094212204 0.8438987 0.16216251 0.80497825
0.8506239 0.13628665 0.4279633 0.56648386 0.4246751 0.5703859 0.44877803 0.5470315
0.7516722 0.24952252 0.020295745 1.0318812 0.5573598 0.44122502 0.17128272 0.814371
0.4949446 0.5011944 0.37808046 0.6160093 0.1421455 0.83745825 0.040699366 0.90564585
0.37288892 0.6214928 0.9519861 0.040448297 0.8000993 0.19599213 0.06560953 0.88898236
0.06708314 0.9227519 0.5793546 0.4186972 0.56356144 0.44160798 0.52377284 0.47266096
0.55573004 0.44339913 0.4008162 0.5936295 0.47803223 0.51713836 0.4819741 0.51268774
0.093314305 0.88890994 0.3794168 0.61221594 0.34713888 0.6432411 0.8660926 0.11878246
0.3669136 0.6238137 0.5625072 0.43905446 0.83815587 0.16286302 -0.10387425 0.98202294
0.5538072 0.44601503 0.26998705 0.7141514 0.5620242 0.43710703 0.59643716 0.40473852
0.4781278 0.5177291 0.17932695 0.80235887 0.59324515 0.4084148 0.50429964 0.492196
0.43368095 0.55902773 0.5479206 0.44904998 0.68222964 0.3237437 0.96350867 -0.001303236
0.7649377 0.23721461 0.8169946 0.17873907 0.9828083 0.02194372 0.28752413 0.7026288
0.4135234 0.5827797 0.5290425 0.47057807 0.87157416 0.12829663 0.779087 0.21633089
0.19872546 0.7826313 0.09380234 0.8471258 0.80741936 0.18730292 0.97793466 -0.0089965835
0.18736589 0.78696704 0.2989326 0.6849205 0.6508282 0.35271662 0.8251912 -0.1815662
0.023876635 0.90558904 0.2648383 0.71983945 0.69174594 0.31306633 0.57261056 0.42177448
0.5422386 0.45522916 0.98400277 -0.009522153 0.61350083 0.38669285 0.0927962 0.87414336
0.13579023 0.8310448 0.6455221 0.35611513 0.5180652 0.47797865 0.09935136 0.8756283
0.7365289 0.26890415 0.6507932 0.35150978 0.14473592 0.8340689 0.22236747 0.75006545
0.31773514 0.6727233 0.6552695 0.34857646 0.526132 0.46940407 0.60921246 0.39265358
0.31922266 0.6660239 0.09410562 0.8618398 0.70918787 0.29270443 0.4875279 0.5090108
0.7278042 0.27243322 0.6079696 0.3949386 0.084989086 0.8664312 0.4701548 0.5265422
1.0030074 -0.00593612 -0.05705828 0.95038813 0.23190744 0.748401 0.24121 0.7409234
00000000: e3cc 1e3f d4d0 c13e 1274 0e3f bfcb e23e
00000010: 974c bb3e 7c69 203f 02da 5d3f f0bb 0d3e
00000020: d851 9cbd a74c 743f 6183 a63e 94e0 283f
00000030: 54f2 c03d bf09 583f ee0d 263e 0e13 4e3f
00000040: 7dc2 593f ba8e 0b3e 011e db3e 1605 113f
00000050: 046f d93e cf04 123f 3cc6 e53e 420a 0c3f
00000060: 976d 403f d582 7f3e 4343 a63c af14 843f
00000070: 22af 0e3f 3fe8 e13e bd64 2f3e 9e7a 503f
00000080: 6169 fd3e 474e 003f c393 c13e c9b2 1d3f
00000090: 978e 113e aa63 563f 61b4 263d 68d8 673f
000000a0: 4ceb be3e 271a 1f3f 5cb5 733f 1dad 253d
000000b0: 4fd3 4c3f 29b2 483e 4a5e 863d 5994 633f
000000c0: e362 893d 7839 6c3f 9550 143f 7b5f d63e
000000d0: 9045 103f 711a e23e fa15 063f 9e00 f23e
000000e0: 5344 0e3f 3605 e33e c837 cd3e 1af8 173f
000000f0: a4c0 f43e 2e63 043f 4fc5 f63e 813f 033f
00000100: 921b bf3d 9a8f 633f eb42 c23e 2fba 1c3f
00000110: 30bc b13e 73ab 243f 3fb8 5d3f 3844 f33d
00000120: 19dc bb3e 41b2 1f3f 7900 103f bfcb e03e
00000130: 6291 563f 90c5 263e 06bc d4bd db65 7b3f
00000140: 4fc6 0d3f 155c e43e be3b 8a3e a0d2 363f
00000150: d1e0 0f3f 7ecc df3e 1bb0 183f e339 cf3e
00000160: 2bcd f43e e589 043f 7ca1 373e 6467 4d3f
00000170: eade 173f bf1b d13e c819 013f 1d01 fc3e
00000180: 6e0b de3e 711c 0f3f 8644 0c3f e1e9 e53e
00000190: 9aa6 2e3f bcc1 a53e 81a8 763f 58d1 aaba
000001a0: f5d2 433f 63e8 723e 8f26 513f 6007 373e
000001b0: 5399 7b3f 51c3 b33c 5d36 933e 7bdf 333f
000001c0: 57b9 d33e 0d31 153f 546f 073f 9cef f03e
000001d0: 7c1f 5f3f 3160 033e 3f72 473f d885 5d3e
000001e0: b07e 4b3e 865a 483f 711b c03d 3ddd 583f
000001f0: 09b3 4e3f 56cc 3f3e ed59 7a3f 6866 13bc
00000200: d8dc 3f3e ac76 493f b20d 993e f356 2f3f
00000210: ad9c 263f 4697 b43e bb3f 533f 7dec 39be
00000220: ef98 c33c afd4 673f e398 873e 6647 383f
00000230: 4316 313f 3b4a a03e 9b96 123f d3f2 d73e
00000240: 26d0 0a3f cc13 e93e 9be7 7b3f ce02 1cbc
00000250: 640e 1d3f 9bfc c53e ef0b be3d dcc7 5f3f
00000260: 980c 0b3e 5abf 543f f040 253f b954 b63e
00000270: ec9f 043f 9eb9 f43e ba78 cb3d 2d29 603f
00000280: 288d 3c3f cead 893e 629a 263f 17f9 b33e
00000290: a735 143e 8a85 553f 4cb4 633e 4a04 403f
000002a0: 2eae a23e 9837 2c3f bebf 273f 9d78 b23e
000002b0: 96b0 063f bb55 f03e 59f5 1b3f e409 c93e
000002c0: 2771 a33e 8b80 2a3f 73ba c03d 88a1 5c3f
000002d0: 568d 353f 5bdd 953e 429d f93e 884e 023f
000002e0: 6051 3a3f 5e7c 8b3e e5a3 1b3f 6435 ca3e
000002f0: c20e ae3d 6fce 5d3f 21b8 f03e 78cb 063f
00000300: 8c62 803f c983 c2bb f1b5 69bd a34c 733f
00000310: 2579 6d3e 3597 3f3f c1ff 763e 28ad 3d3f
