saved_agents/humanoid_c.pth (torch, 374709 bytes, 26 tensors)

actor_logstd f4 [1, 17]
0	0xbd23a224	-0.03994955
1	0xbd8700e8	-0.0659197
2	0xbd60b964	-0.054864302
3	0xbd7272db	-0.059191566
4	0xbd3b6f03	-0.045760166
5	0x3c87f510	0.016596347
6	0xbe1102a9	-0.14161171
7	0xbd87c8f4	-0.06630126
8	0xbda9c5ab	-0.08289655
9	0xbd7c6f30	-0.061629474
10	0xbe049e7a	-0.12951079
11	0xbbecf402	-0.0072312364
12	0xbd5a0cec	-0.05323498
13	0xbd772b46	-0.060344003
14	0xbd36bc41	-0.044613127
15	0xbd96ebe3	-0.073692106
16	0xbd939b7d	-0.072073914

critic.0.weight f4 [64, 351]
0	0xbe4fc92f	-0.20291589
1	0xbdd52daf	-0.10409104
2	0xbd9e4486	-0.077279136
3	0xbd084e8a	-0.033278026
4	0x3bd6e6db	0.006558282
5	0xbdef8bd3	-0.11696591
6	0x3e2a2760	0.16616583
7	0x3d6f4f3a	0.058425166
8	0xbc71bcde	-0.014754502
9	0x3bba6d37	0.005689289
10	0xbd4c2b07	-0.04984572
11	0xbd87035a	-0.06592436
12	0xbc6435e7	-0.013928867
13	0x3d7e271d	0.06204902
14	0x3e2a618d	0.16638775
15	0xbcb7118a	-0.02234723
16	0x3d58504e	0.05281096
17	0xbdccc85b	-0.09999152
18	0xbd9bea1c	-0.07613012
19	0x3d810f77	0.06301778
20	0x3d88771d	0.06663344
21	0x3b4726de	0.0030388157
22	0xbd0446be	-0.032294028
23	0xbe5e3766	-0.2170082
24	0xbd633c10	-0.055477202
25	0xbc2a7b04	-0.010405306
26	0xbd63023b	-0.05542205
27	0xbddf3dcf	-0.10900461
28	0x3d94dc4f	0.07268583
29	0xbe3ad18a	-0.18243995
30	0xbbec0fce	-0.0072040325
31	0x3d7b3dc7	0.061338212
32	0x3d022539	0.03177378
33	0x3e3351c3	0.17511658
34	0x3d117dec	0.03552048
35	0x3d03ceab	0.032179516
36	0x3dab3445	0.08359579
37	0x3d2d3f22	0.042296536
38	0x3dc63de1	0.09679771
39	0xbd87511b	-0.066072665
40	0x3d46010f	0.048340853
41	0xbd2e402c	-0.042541668
42	0x3e23f898	0.160128
43	0xbe375f3d	-0.17907424
44	0xbe37faad	-0.17966719
45	0xbe40de2e	-0.18834755
46	0xbdfc97af	-0.12333619
47	0xbd9b66ed	-0.07587991
48	0x3daa2217	0.08307283
49	0xbda5f112	-0.08102621
50	0xbd5e7d45	-0.054318685
51	0x3803c202	3.1413518e-05
52	0x3daea368	0.08527261
53	0xbd865fc9	-0.06561238
54	0x3ca92f39	0.0206524
55	0xbe1c7905	-0.1528054
56	0xbe597135	-0.21234591
57	0xbddf716e	-0.10910307
58	0xbdabd85d	-0.083908774
59	0xbe14106e	-0.14459392
60	0x3d31b582	0.04338599
61	0x3e1163a7	0.1419817
62	0x3d986b9a	0.07442398
63	0xbd9ecb07	-0.07753568
64	0xbdbbc3c4	-0.09168199
65	0xbe942c48	-0.28940034
66	0xbe8388dd	-0.25690356
67	0xbe158ee5	-0.14605291
68	0xbd9c7dc6	-0.07641177
69	0xbe515eb8	-0.20446289
70	0x3e2e3291	0.17011477
71	0x3e29cbde	0.16581675
72	0xbde16a8b	-0.110066496
73	0xbea5d8ce	-0.3239197
74	0xbe7cf8cc	-0.24704283
75	0xbe2f4b55	-0.1711858
76	0xbda17a02	-0.07884599
77	0xbe40a74b	-0.18813817
78	0x3e2e4f7a	0.17022505
79	0x3d598116	0.05310162
80	0xbaff0ea4	-0.0019459319
81	0x3dcd63ae	0.10028778
82	0x3e3e9c2c	0.18614262
83	0xbd919b7b	-0.07109734
84	0xbde5b91b	-0.11216947
85	0xbe50852b	-0.203633
86	0xbd5617b7	-0.05226871
87	0x3d1e4531	0.038640205
88	0x3d3384cb	0.043827813
89	0xbdc37742	-0.09544231
90	0x3d9197ca	0.071090296
91	0x3da40101	0.08008004
92	0x3e6f6a42	0.23380378
93	0x3eab7c67	0.3349335
94	0xbdd0144f	-0.101601236
95	0xbe82dc7e	-0.25558847
96	0xbe9e2880	-0.30890274
97	0xbd9813d5	-0.07425658
98	0x3dd002dd	0.10156796
99	0x3d4332d6	0.047655903
100	0x3e2ba83c	0.16763395
101	0x3d1b805c	0.03796421
102	0x3e254822	0.16140798
103	0x3cc91c93	0.024549758
104	0xbd946daa	-0.07247479
105	0xbd91b464	-0.07114485
106	0xbcca4b40	-0.024694085
107	0xbe6c3cb0	-0.23070025
108	0xbb0d603f	-0.002157226
109	0x3e58f1a4	0.21185929
110	0xbd1a8a6e	-0.037729673
111	0x3da3cd4e	0.07998143
112	0xbe0e43da	-0.13893071
113	0xbcbde9f2	-0.023182843
114	0xbe61b613	-0.22042112
115	0xbdb9e27b	-0.09076401
116	0xbe016cd8	-0.12639177
117	0xbe1bf44a	-0.15229908
118	0x3d1b3596	0.0378929
119	0x3c1ffb4e	0.009764506
120	0xbd886bc3	-0.06661179
121	0x3b888339	0.0041660336
122	0xbd4bdec3	-0.04977299
123	0x3d234926	0.03986468
124	0xbd991c24	-0.074760705
125	0xbe66e537	-0.22548376
126	0xbe2a5945	-0.16635616
127	0x3d95e684	0.07319358
128	0x3d9073e3	0.07053354
129	0xbcff14f2	-0.031137917
130	0xbe05754d	-0.13033028
131	0x3dc1a79e	0.094557986
132	0xbe17b161	-0.14813758
133	0x3e062e1d	0.13103528
134	0xbe574d19	-0.21025504
135	0xbe20a878	-0.15689266
136	0xbe030c57	-0.12797676
137	0xbe4ce120	-0.20007753
138	0xbdde53a3	-0.10855796
139	0x3db94e4e	0.090481386
140	0xbe10b3e7	-0.14131127
141	0xbe398869	-0.18118443
142	0x3c8609e2	0.016362134
143	0xbc8c4c2c	-0.017126165
144	0xbe33374b	-0.17501561
145	0xbe2f2bf6	-0.17106614
146	0xbd52e5ad	-0.051488567
147	0xbd34462a	-0.044012226
148	0xbe20815d	-0.15674348
149	0x3df5faea	0.12010749
150	0xbe0616e1	-0.13094665
151	0xbe0d68d8	-0.13809526
152	0x3e483fa9	0.19555534
153	0xbe2e861b	-0.17043345
154	0xbd96387e	-0.07334994
155	0xbd7275f0	-0.059194505
156	0xbd8e16fe	-0.06937979
157	0x3c2033b7	0.009777955
158	0x3e17f04f	0.14837764
159	0x3dcb20df	0.09918379
160	0x3deab35c	0.11459991
161	0xbe95745f	-0.29190347
162	0xbd4ee003	-0.050506603
163	0xbe1e6dc7	-0.15471564
164	0xbdc4f39c	-0.09616777
165	0xbdfa401c	-0.12219259
166	0xbd8ca618	-0.06867617
167	0xbe707c11	-0.23484828
168	0x3db23ed7	0.08703392
169	0x3de22c02	0.1104355
170	0x3e41b0db	0.18915121
171	0xbdc3949b	-0.095498286
172	0xbdfee063	-0.12445142
173	0xbc8a9cdd	-0.016920501
174	0xbe1dddba	-0.15416613
175	0x3d4478ba	0.047966696
176	0xbe4da452	-0.20082214
177	0x3d2f8117	0.04284772
178	0x3da8f1b5	0.08249227
179	0xbe746b08	-0.23868954
180	0x3d8c70ff	0.0685749
181	0xbe0055b8	-0.12532699
182	0xbd5a7b89	-0.05334047
183	0xbdf1aeff	-0.11800956
184	0x3d646bc7	0.055766847
185	0xbe06f441	-0.13179113
186	0x3d3f78fb	0.046746235
187	0xbcb350f4	-0.021889187
188	0xbda31a87	-0.07964044
189	0x3bb0b5f2	0.0053927833
190	0x3daff082	0.08590795
191	0xbe267ed4	-0.16259319
192	0x3d50f6b2	0.051016517
193	0x3b2b14fd	0.002610504
194	0x3d5eadd7	0.054365005
195	0x3e05dce8	0.1307255
196	0x3cb5d44d	0.02219596
197	0xbd39364b	-0.045217793
198	0x3cb4aa88	0.022053972
199	0x3cc5ea14	0.024159469
200	0xbc4d1642	-0.012517514
201	0x3db16b54	0.08663049
202	0x3d313b6a	0.043269552
203	0xbe0b29fb	-0.13590233
204	0xbe2dda7a	-0.16977873
205	0xbd36f4fd	-0.044667233
206	0xbdd104ed	-0.10206018
207	0x3d0e67d8	0.034767002
208	0x3d84dcab	0.064874016
209	0xbda86d35	-0.082239546
210	0xbe189902	-0.14902118
211	0xbd5d0221	-0.05395711
212	0x3e53d2ac	0.20685834
213	0xbdbeafd0	-0.09310877
214	0x3dbbb301	0.09165002
215	0x3cd91131	0.026497455
216	0xbd7604c8	-0.060063154
217	0x3baebe49	0.0053327424
218	0xbdb4f0f4	-0.08835021
219	0x3db7f8c6	0.08982997
220	0x3c552146	0.013008421
221	0xbdcdcd36	-0.100489065
222	0xbdb675eb	-0.0890921
223	0x3e2dadca	0.16960827
224	0xbc978bca	-0.018499274
225	0x3dada1b0	0.08478105
226	0xbd8d4e77	-0.068997316
227	0xbd7eaf82	-0.062179096
228	0x3d2f2f37	0.042769637
229	0xbd9a30af	-0.07528817
230	0xbdd484af	-0.1037687
231	0x3c7f57d4	0.015584905
232	0xbc2a1391	-0.010380642
233	0xbd46d34c	-0.048541352
234	0x3c445a94	0.011984486
235	0x3ccc85a4	0.024966069
236	0x3d4b8a24	0.049692288
237	0x3cb4bc03	0.022062307
238	0xbd8a99b8	-0.06767601
239	0x3d01153e	0.0315144
240	0x3d91b218	0.07114047
241	0x3e2d9e38	0.16954887
242	0xbe0ba7e4	-0.13638264
243	0xbc8f20ee	-0.017471757
244	0x3e164395	0.14674218
245	0x3d6b013b	0.05737422
246	0x3dced443	0.100990795
247	0xbd267b13	-0.040644716
248	0xbe346c9f	-0.1761956
249	0x3d1d06bf	0.03833651
250	0x3cf7b25c	0.030236416
251	0xbd83eb7c	-0.064413995
252	0xbcacdf45	-0.021102557
253	0xbd79aa8f	-0.060953673
254	0xbd1eeead	-0.038801838
255	0xbc22fc67	-0.009947873

critic.0.bias f4 [64]
0	0xbdd1274b	-0.10212573
1	0x3de2ad3c	0.11068198
2	0xbe0fb46d	-0.1403367
3	0xbc74cbc9	-0.014941164
4	0x3d44f408	0.04808429
5	0xbe10b5c9	-0.14131846
6	0x3d17b6a8	0.03703943
7	0x3db5bb64	0.088736326
8	0x3e175dcb	0.14781873
9	0xbd6db5be	-0.05803465
10	0x3e10c8dd	0.14139123
11	0x3d47ce13	0.048780512
12	0xbd7b397a	-0.06133411
13	0x3de40695	0.11134068
14	0xbdd770e8	-0.10519582
15	0xbd52e271	-0.051485483
16	0xbceba05b	-0.028762987
17	0x3cf1f3dd	0.029535228
18	0xbd06343e	-0.032764666
19	0xbd4a926e	-0.049456052
20	0xbde909bf	-0.11378812
21	0xbe64761f	-0.22310685
22	0x3d1b66f1	0.03793997
23	0x3dfe1cb1	0.12407816
24	0xbda4074a	-0.08009203
25	0x3dbbb9df	0.091663115
26	0x3dbbad75	0.09163944
27	0x3d9ffc01	0.07811738
28	0x3dfa2761	0.12214542
29	0x3d2853fb	0.041095715
30	0x3e0065d6	0.12538847
31	0xbdd7d2f1	-0.10538281
32	0x3dc1df6b	0.09466442
33	0x3dd5d83d	0.10441635
34	0x3c6b5cc2	0.014365377
35	0xbc764c5b	-0.015032853
36	0x3df42795	0.11921612
37	0xbd5ed730	-0.054404438
38	0x3e02d63b	0.12777035
39	0x3df27729	0.11839134
40	0xbd48ffc2	-0.049072035
41	0xbd21d26e	-0.039507322
42	0xbd940fa8	-0.07229549
43	0xbe0fb5e5	-0.14034231
44	0xbe326ecf	-0.17425083
45	0xbdda9b75	-0.10674182
46	0x3d571f20	0.052519917
47	0x3dde672c	0.10859522
48	0xbe009970	-0.12558532
49	0x3de767c3	0.11299088
50	0xbe28ac93	-0.16472082
51	0x3e031f4b	0.12804906
52	0xbe2b122a	-0.16706148
53	0x3ddc8c96	0.10769002
54	0xbdffd4ca	-0.12491758
55	0x3da154a2	0.078774706
56	0xbe25e610	-0.16201043
57	0xbd967de2	-0.07348229
58	0xbe01477a	-0.12624922
59	0xbe3558cc	-0.17709655
60	0x3dcbe8ec	0.09956536
61	0x3c919f56	0.017776173
62	0xbdd35002	-0.10317995
63	0x3ded46b9	0.11585755

critic.2.weight f4 [64, 64]
0	0x3d27b27d	0.040941704
1	0x3d81621f	0.06317543
2	0x3ecf7e77	0.40526173
3	0xbd257d01	-0.040402416
4	0x3e2e3218	0.17011297
5	0x3d6c8bd6	0.057750545
6	0x3e831116	0.25598973
7	0xbe7e38e9	-0.24826397
8	0xbca1f9d8	-0.019772455
9	0x3dacd60a	0.08439262
10	0xbe1bc754	-0.15212756
11	0x3e69bc14	0.22825652
12	0xbe2f0802	-0.17092898
13	0xbdf19cce	-0.11797486
14	0x3e600938	0.21878517
15	0x3e084341	0.13306905
16	0x3eb11520	0.3458643
17	0xbe8ad878	-0.27118278
18	0x3dfc63ae	0.123237
19	0x3d21c37e	0.039493077
20	0xbccdbe80	-0.025115252
21	0x3e933403	0.2875062
22	0x3d370054	0.044678047
23	0xbe4dea2d	-0.20108862
24	0xbd939b76	-0.07207386
25	0xbec7c3c0	-0.39016533
26	0xbd90fed1	-0.07079852
27	0xbe0d1ace	-0.13779756
28	0x3dc5ddd3	0.0966145
29	0xbd92f81d	-0.0717623
30	0xbe98743a	-0.29776174
31	0x3e181f34	0.14855653
32	0x3d90d5a5	0.070719995
33	0xbe432e4c	-0.1906063
34	0xbe9e83a5	-0.30959812
35	0x3eb4a8bd	0.35284987
36	0xbea4e639	-0.32206896
37	0x3e8b0ecd	0.2715973
38	0xbe688ee9	-0.22710766
39	0xbeac8e0b	-0.3370212
40	0x3ef781e0	0.48341274
41	0x3eb63bdc	0.35592544
42	0x3cb2f7f4	0.021846749
43	0xbd528192	-0.0513931
44	0x3eaefc3e	0.3417682
45	0x3eb87432	0.3602615
46	0xbe069fc2	-0.1314688
47	0xbd11e490	-0.035618365
48	0xbe298e8c	-0.16558284
49	0x3d0f2cb2	0.034954734
50	0x3ea84d44	0.3287145
51	0xbdb3c2ca	-0.087773874
52	0x3ed9a7be	0.4251079
53	0xbecd3686	-0.4008066
54	0x3df18784	0.11793426
55	0xbec5ad2c	-0.38608682
56	0x3ccc4c45	0.024938712
57	0x3e00da2d	0.12583227
58	0xbc9a5fc0	-0.018844485
59	0xbcdfb0cc	-0.027305983
60	0xbe6e2910	-0.23257852
61	0xbc703ee8	-0.0146634355
62	0x3ded3c18	0.115837276
63	0x3e295b7e	0.16538808
64	0x3d9cc58c	0.076548666
65	0x3dbeb870	0.093125224
66	0x3ec0e83d	0.37677184
67	0xbeca97a8	-0.3956883
68	0xbc8203c3	-0.015870934
69	0xbdf9dc84	-0.12200263
70	0x3e64c16a	0.22339407
71	0x3e8fb7b1	0.28069833
72	0x3e6cec2e	0.2313697
73	0xbe1ebd7e	-0.15501973
74	0x3e634eac	0.2219798
75	0x3f750a10	0.9571848
76	0xbf6ceca3	-0.9254858
77	0xbbede644	-0.007260116
78	0x3951bca1	0.00020002063
79	0x3e417f9b	0.18896334
80	0xbea43976	-0.3207509
81	0xbe9bda99	-0.30440214
82	0x3f1d62db	0.61478966
83	0xbcf500a6	-0.029907536
84	0xbf4c0046	-0.7968792
85	0xbe00b994	-0.12570792
86	0xbec8d689	-0.39226177
87	0xbe669bde	-0.22520396
88	0xbddec996	-0.10878293
89	0xbea021b0	-0.31275702
90	0xbe333ecf	-0.17504428
91	0xbedbb805	-0.42913833
92	0x3e0a021b	0.13477366
93	0x3eac51c8	0.33656144
94	0x3e116413	0.14198332
95	0xbe20df44	-0.15710169
96	0x3e2b83c4	0.16749483
97	0x3e079662	0.1324096
98	0xbeabc7e2	-0.33550936
99	0xbf0a9460	-0.5413265
100	0x3d3dc818	0.046333402
101	0x3edf3e3b	0.43602166
102	0xbe2b988c	-0.16757411
103	0x3e27abc9	0.16374125
104	0x3e591512	0.21199444
105	0x3e0448b4	0.12918359
106	0x3e8d9b29	0.2765744
107	0x3e210e3b	0.15728085
108	0x3da9307c	0.08261201
109	0x3e5f56fa	0.21810523
110	0xbe92951c	-0.28629386
111	0x3c56e0ac	0.013115089
112	0x3e44274b	0.19155614
113	0xbd90bb4d	-0.07066975
114	0xbd838850	-0.06422484
115	0x3dd4ffee	0.10400377
116	0x3cc0a8b8	0.023517951
117	0xbe31fe9f	-0.17382286
118	0xbe4e1e57	-0.20128761
119	0x3dce61ea	0.100772694
120	0xbe5a703c	-0.21331877
121	0xbd187cca	-0.037228383
122	0x3e27c27d	0.16382785
123	0x3d867e62	0.06567074
124	0xbe113f1b	-0.14184229
125	0x3e51ded7	0.20495163
126	0x3c3b90ad	0.011448068
127	0xbe006ac7	-0.12540732
128	0x3e2d1662	0.1690307
129	0xbe6d7f1b	-0.23193018
130	0xbd900708	-0.07032591
131	0x3ef9957e	0.48746866
132	0x3e9cccf3	0.30625114
133	0xbe4ee449	-0.20204271
134	0xbea8c749	-0.32964543
135	0xbed49c3d	-0.4152545
136	0xbd26641f	-0.040622827
137	0xbd92ceb3	-0.07168331
138	0x3c72c17f	0.014816641
139	0xbf8537b3	-1.0407623
140	0x3f7e25c0	0.9927635
141	0xbcb0e3a0	-0.021592915
142	0xbe5ce1b0	-0.21570468
143	0xbdb71852	-0.089401856
144	0x3d30fcf7	0.043209996
145	0x3ceef62b	0.029170116
146	0xbec2dde8	-0.38059926
147	0xbde6bb88	-0.112662375
148	0x3e33feac	0.17577618
149	0x3ed44966	0.4146225
150	0x3e2bc1bd	0.16773124
151	0xbe9560f2	-0.29175526
152	0x3d7fe0ce	0.06247025
153	0x3dff05e7	0.12452298
154	0x3d5a2fe2	0.05326832
155	0x3dd6818e	0.10473929
156	0xbe76feb2	-0.24120596
157	0xbf01cd76	-0.50704134
158	0xbd68dd47	-0.05685165
159	0xbea6aeed	-0.32555333
160	0xbe7a9798	-0.24471891
161	0xbebfca8c	-0.37459219
162	0x3f1a9acd	0.6039246
163	0x3f13c746	0.5772594
164	0x3d8ab24f	0.06772291
165	0xbec6a004	-0.38793957
166	0x3ccee619	0.025256203
167	0xbee1cbfb	-0.44100937
168	0xbded72c3	-0.11594155
169	0xbe4766bb	-0.19472782
170	0xbc8a3a5a	-0.016873527
171	0xbe3761c5	-0.1790839
172	0xbe23032b	-0.15919177
173	0xbc9d6dac	-0.019217335
174	0x3e5e8fa3	0.2173448
175	0x3ef32112	0.47486168
176	0x3e708220	0.23487139
177	0xbcee6e41	-0.029105308
178	0x3e426314	0.18983108
179	0x3db1d798	0.08683699
180	0x3d82d5f4	0.063884646
181	0x3e24e666	0.16103515
182	0xbdfaaa1e	-0.122394785
183	0x3e6b3fb3	0.22973518
184	0x3e7d513a	0.24738017
185	0x3e4c9ff8	0.19982898
186	0xbd559fa7	-0.05215421
187	0xbd99e070	-0.07513511
188	0x3e58307e	0.21112248
189	0xbe7f95b1	-0.24959446
190	0x3e229451	0.1587689
191	0x3e07316e	0.1320245
192	0xbe5c3ff9	-0.21508779
193	0x3ee7a3d9	0.45242193
194	0x3e1540bf	0.1457548
195	0xbf784b97	-0.9699034
196	0xbe45c345	-0.1931277
197	0xbc4d3d08	-0.012526758
198	0x3ea9fe95	0.33202043
199	0x3e7a4b95	0.24442895
200	0x3db1515a	0.08658095
201	0xbef2ca06	-0.47419757
202	0x3db23d72	0.08703126
203	0x3f7c2787	0.98497814
204	0xbf2ab572	-0.66683114
205	0xbe4e5e39	-0.2015313
206	0x3d865883	0.06559851
207	0x3de39a27	0.111133866
208	0xbe454f94	-0.19268638
209	0x3ddf582c	0.10905489
210	0x3f20ad0a	0.62764037
211	0x3e6f7b86	0.23386964
212	0x3d1f1a53	0.038843464
213	0x3e83a499	0.25711516
214	0xbe9f3f33	-0.31102905
215	0x3a813fba	0.0009860911
216	0xbe8c294b	-0.27375254
217	0xbea172ff	-0.31533048
218	0xbe71e1b8	-0.23621261
219	0xbcc74143	-0.024323111
220	0x3e7fa997	0.24967037
221	0x3e6a9661	0.22908928
222	0x3e322a1a	0.17398873
223	0x3ea80359	0.32815054
224	0x3d3e4697	0.04645404
225	0x3e38855c	0.18019623
226	0xbef62b35	-0.4807984
227	0xbf253178	-0.6452861
228	0x3df6ea4c	0.12056407
229	0x3e60c9c9	0.21951975
230	0xbdc1c0ce	-0.09460603
231	0x3e01bd87	0.12669955
232	0x3b84e78d	0.0040559233
233	0x3ed114b5	0.4083611
234	0x3ed58d86	0.41709536
235	0x3e197cac	0.14988965
236	0xbca659c2	-0.020306472
237	0x3eb66e31	0.35630944
238	0xbe11aaa8	-0.14225256
239	0x3bdc728e	0.006727523
240	0x3dd6a722	0.10481097
241	0x3ed1e83c	0.40997493
242	0x3e128f2b	0.14312427
243	0x3e6452bb	0.22297184
244	0x3e341fb4	0.17590219
245	0xbce5e996	-0.028065484
246	0xbe4831b1	-0.19550206
247	0x3d1f6ab5	0.038920123
248	0xbe836c45	-0.2566854
249	0xbde954ff	-0.11393165
250	0xb90f6c77	-0.00013677949
251	0xbe1305c7	-0.14357673
252	0xbdd68b3f	-0.10475778
253	0x3e93b0cb	0.2884582
254	0x3de12f36	0.10995333
255	0xbd8365f0	-0.064159274

critic.2.bias f4 [64]
0	0xbe29e47f	-0.1659107
1	0x3dc4f663	0.09617307
2	0xbe48a04e	-0.19592401
3	0x3e403dcd	0.18773575
4	0xbe2e40c0	-0.17016888
5	0x3e5b6da9	0.21428551
6	0xbe75174e	-0.23934671
7	0xbdf5e275	-0.12006084
8	0x3e29934a	0.16560093
9	0xbe3b20b4	-0.18274194
10	0xbe8ebcd0	-0.27878428
11	0x3df96c35	0.12178842
12	0xbdcd4d5d	-0.100245215
13	0xbe575a74	-0.21030599
14	0xbd801fbb	-0.06256052
15	0xbe8a8f20	-0.2706232
16	0xbe04afa3	-0.12957625
17	0x3e8dd3e5	0.27700725
18	0xbe07fead	-0.13280745
19	0xbdbd4c06	-0.09243016
20	0x3e455fd9	0.19274844
21	0xbe462357	-0.19349419
22	0x3e422552	0.18959549
23	0xbde6f377	-0.11276906
24	0x3de67e53	0.11254563
25	0xbe2f9f03	-0.17150502
26	0x3dc85f7c	0.09783837
27	0x3e5538b3	0.2082241
28	0xbdc4a3ae	-0.09601532
29	0x3e25eaf7	0.16202913
30	0x3d4c1968	0.049828917
31	0xbd5a766f	-0.053335603
32	0x3cd4518f	0.025917796
33	0xbe771b77	-0.24131571
34	0x3d4b0643	0.04956652
35	0xbdf8948b	-0.12137707
36	0xbc8e4e4d	-0.017371321
37	0x3df5b088	0.11996561
38	0xbe0998cd	-0.13437195
39	0x3e81dc18	0.2536323
40	0x3e186b68	0.14884722
41	0x3e7492bd	0.23884101
42	0x3e2e9c97	0.17051922
43	0xbe4975af	-0.19673799
44	0xbe9ac6ad	-0.30229703
45	0x3dd3f8ad	0.103501655
46	0xbde4d77b	-0.11173912
47	0x3e0d5595	0.13802178
48	0x3e1cf9a9	0.15329613
49	0x3e4140b0	0.18872333
50	0x3e2de200	0.16980743
51	0xbe84da12	-0.25947624
52	0xbe3c9e64	-0.18419796
53	0x3e214cb9	0.15751924
54	0xbe1af0d2	-0.15130928
55	0xbdae599b	-0.08513185
56	0x3c07e89b	0.008295204
57	0x3d87a34d	0.06622944
58	0xbdb4e193	-0.08832087
59	0xbe47742b	-0.19477908
60	0xbda71e9f	-0.081601374
61	0x3d80fb5a	0.062979415
62	0xbe0eea1b	-0.13956492
63	0x3dff4f47	0.12466293

critic.4.weight f4 [3, 64]
0	0xbce2e0b5	-0.02769504
1	0xbe5a377d	-0.2131023
2	0x3d8e1f47	0.069395594
3	0xbe191a52	-0.14951447
4	0xbe188751	-0.14895369
5	0xbe3d5d82	-0.18492702
6	0x3eb99589	0.362469
7	0xbeeda6f7	-0.46416447
8	0xbe96ca75	-0.29451337
9	0xbe549ddd	-0.20763345
10	0xbe3e764e	-0.18599817
11	0x3e85f577	0.26163837
12	0x3e74f2f0	0.23920798
13	0xbd357f2a	-0.044310726
14	0xbd4ec503	-0.050480854
15	0x3e8f70d6	0.28015774
16	0x3e5adcde	0.21373317
17	0x3e8a340e	0.2699284
18	0xbeb08269	-0.34474495
19	0x3e803f8a	0.25048476
20	0xbed45e97	-0.41478416
21	0xbe19459e	-0.14967963
22	0x3e805e91	0.25072148
23	0xbe8591df	-0.26087853
24	0x3e2aceda	0.1668047
25	0xbe5dcf81	-0.21661188
26	0x3eb4ef2c	0.35338724
27	0x3ed7570d	0.42058602
28	0x3e83aa80	0.2571602
29	0x3ec347a6	0.381406
30	0x3e5cc458	0.21559274
31	0x3dbb5c2d	0.091484405
32	0x3e75d749	0.24007906
33	0xbdd04791	-0.101699
34	0x3ead3007	0.33825704
35	0xbe0a3ffe	-0.13500974
36	0x3dfe71bc	0.12424037
37	0x3db6a56b	0.0891827
38	0x3e56a129	0.20959915
39	0xbe4160a4	-0.18884522
40	0xbea47c21	-0.32125953
41	0x3e013c72	0.12620714
42	0x3e316056	0.17321905
43	0x3e9bf027	0.3045666
44	0xbe659da0	-0.2242341
45	0x3db9d851	0.09074462
46	0x3ea42175	0.32056776
47	0xbdc642f8	-0.09680742
48	0xbe9fea0b	-0.31233248
49	0x3c98dc93	0.018659865
50	0xbe894275	-0.26808515
51	0xbcc3b03d	-0.023887748
52	0x3e2bacf4	0.16765195
53	0x3ea403d9	0.32034186
54	0xbdf95c0c	-0.1217576
55	0x3d0ce86c	0.034401342
56	0x3e55723c	0.20844358
57	0x3e8bac75	0.27280012
58	0x3ebaf4a0	0.3651476
59	0x3e20de5f	0.15709828
60	0xbddb595e	-0.10710405
61	0x3e36ac5a	0.17839184
62	0x3e84d8eb	0.25946745
63	0x3d33a9cd	0.043863107
64	0xc00cab49	-2.1979544
65	0xc018f9a0	-2.390236
66	0x402e2694	2.7211046
67	0xc0209b96	-2.5094962
68	0xc01481c9	-2.3204215
69	0xc0324dc0	-2.7859955
70	0x40265149	2.5987113
71	0xc00b9721	-2.1810992
72	0xc0276f29	-2.6161597
73	0xc023e37d	-2.5607598
74	0xc00be378	-2.1857586
75	0x4013dea8	2.3104649
76	0x401524a6	2.3303618
77	0xc014a35f	-2.3224714
78	0xc0172eb1	-2.3622248
79	0x403a65de	2.9124675
80	0x401891da	2.383902
81	0x4006e131	2.1074946
82	0xc01b2ef4	-2.4247408
83	0x4022dc2b	2.544688
84	0xc037259d	-2.8616707
85	0xc00d628a	-2.2091393
86	0x40112b11	2.2682536
87	0xc01b0073	-2.4219024
88	0x400c0b9b	2.1882083
89	0xc01a3665	-2.40957
90	0x400fe21f	2.2481763
91	0x400f0e8d	2.235263
92	0x40189c54	2.3845415
93	0x400fdbb4	2.2477846
94	0x401017ee	2.2514606
95	0x40165626	2.349008
96	0x400cd7b1	2.2006648
97	0xc00bbac8	-2.1832752
98	0x4012c3ea	2.2932076
99	0xc01cbc3c	-2.448989
100	0xc00f568f	-2.239658
101	0x401c0149	2.4375784
102	0x40208b11	2.508488
103	0xc0280562	-2.6253285
104	0xc02afb53	-2.6715896
105	0x40124c02	2.2858891
106	0x40151034	2.329114
107	0x402e9d1d	2.7283394
108	0xc0086c8a	-2.1316247
109	0x40090069	2.14065
110	0x4022c010	2.5429726
111	0xc025a2f0	-2.58807
112	0xc02171db	-2.5225742
113	0x3fffd250	1.9986057
114	0xc032dc8a	-2.7947106
115	0xc012f794	-2.296361
116	0x40331a74	2.7984896
117	0x400e4db2	2.2234921
118	0xc00f38ee	-2.2378497
119	0x40223aa8	2.53483
120	0x400e34d2	2.221974
121	0x4017b822	2.3706136
122	0x401b0fd4	2.422841
123	0x40278e7e	2.618072
124	0xc01afc08	-2.4216328
125	0x400ed258	2.2315884
126	0x401db7fb	2.4643543
127	0xc0249731	-2.571728
128	0xc0628b10	-3.5397377
129	0xc05f47cb	-3.488757
130	0x4060e1db	3.5137851
131	0xc05602c0	-3.3439178
132	0xc055a851	-3.3383982
133	0xc056b045	-3.3545086
134	0x40587c55	3.3825886
135	0xc057d91b	-3.372626
136	0xc05e5974	-3.4742098
137	0xc05e22ee	-3.470882
138	0xc05803cf	-3.3752325
139	0x40632d70	3.5496483
140	0x405b59b5	3.4273503
141	0xc0568c18	-3.3523006
142	0xc054b038	-3.3232555
143	0x40529045	3.2900555
144	0x405b1331	3.4230464
145	0x4059d2ff	3.4035032
146	0xc05b58ff	-3.427307
147	0x4059f689	3.4056723
148	0xc05b81c5	-3.4297955
149	0xc059215b	-3.3926609
150	0x405627d0	3.34618
151	0xc055c3e7	-3.340082
152	0x405e77d8	3.4760647
153	0xc061f19b	-3.5303714
154	0x4064c60e	3.5745883
155	0x4063f079	3.5615523
156	0x405e4f7f	3.473602
157	0x40585266	3.3800292
158	0x4059c38a	3.4025598
159	0x405b3c8e	3.425571
160	0x4067d3d2	3.6223035
161	0xc05cfaee	-3.4528155
162	0x405e3068	3.4717045
163	0xc0560b2d	-3.344432
164	0xc06b8cfe	-3.6804805
165	0x40567894	3.3511095
166	0x40571058	3.3603725
167	0xc0585867	-3.3803957
168	0xc056afd1	-3.354481
169	0x40575ae8	3.3649235
170	0x40558a30	3.3365593
171	0x405c2267	3.4395998
172	0xc058653c	-3.3811789
173	0x40639bbf	3.556381
174	0x4058f41c	3.3898993
175	0xc05ff534	-3.499341
176	0xc056a53f	-3.3538358
177	0x4065d6ed	3.591243
178	0xc05aeb7b	-3.4206226
179	0xc05f2527	-3.4866426
180	0x4055daa0	3.3414688
181	0x406205d3	3.5316055
182	0xc0583631	-3.3783076
183	0x405c86ea	3.4457345
184	0x40683723	3.6283653
185	0x406491c2	3.5713964
186	0x40568c76	3.352323
187	0x40543ae1	3.3160937
188	0xc061b012	-3.5263715
189	0x405ae26a	3.4200692
190	0x405bb330	3.4328117
191	0xc05a5e6d	-3.4120133

critic.4.bias f4 [3]
0	0x3e48736a	0.19575277
1	0x4007f021	2.1240313
2	0x404f7cd5	3.2419941

actor_mean.0.weight f4 [64, 351]
0	0x3e278937	0.16360937
1	0xbd5a4259	-0.05328593
2	0x3c50a4aa	0.0127345715
3	0xbd288aa6	-0.04114785
4	0xbcaf05cc	-0.021365069
5	0xbcf25c38	-0.029584989
6	0x3e06afff	0.13153075
7	0x3dea18c7	0.11430507
8	0xbb88d488	-0.0041757263
9	0xbcc32192	-0.023819719
10	0xbda784cd	-0.081796266
11	0x3de75223	0.11294963
12	0x3b815e1d	0.0039479868
13	0xbe4360d5	-0.19079907
14	0xbc8a421e	-0.01687723
15	0x3d21f007	0.03953555
16	0x3de81a34	0.11333123
17	0xbd2fa8dd	-0.04288565
18	0xbbb46e86	-0.0055063395
19	0x3daa7341	0.08322764
20	0xbc9f07d1	-0.019412907
21	0xbd9d7a1b	-0.076893054
22	0x3ded3fab	0.11584409
23	0xbcb18c21	-0.021673264
24	0x3da48fed	0.08035264
25	0x3cf8ff95	0.030395309
26	0xbe11ae89	-0.14226736
27	0x3bfa6905	0.007641914
28	0x3db02a89	0.08601863
29	0x3dbd123f	0.09231996
30	0x3c8cdaf1	0.017194243
31	0x3d7fcd52	0.062451668
32	0x3db6ac47	0.08919578
33	0x3c5e8a5f	0.013582795
34	0xbd04eac5	-0.032450456
35	0xbdaab749	-0.0833574
36	0x3e116a5c	0.14200729
37	0xbd1ecd9d	-0.038770307
38	0xbded85a6	-0.11597757
39	0xbd280c11	-0.041027132
40	0xbb932b7c	-0.0044912677
41	0x3cb8105a	0.022468735
42	0x3c994fd8	0.01871483
43	0x3cb30baf	0.021856157
44	0xbc2531dc	-0.010082688
45	0x3d11fac8	0.035639554
46	0x3a89330d	0.0010467485
47	0x3d20b013	0.039230417
48	0xbd0173b9	-0.031604502
49	0x3dd1b048	0.10238701
50	0x3d26924c	0.040666863
51	0xbb35135a	-0.0027629943
52	0x3e4902f1	0.19630028
53	0x3e184713	0.14870863
54	0xbc9d1dcf	-0.019179253
55	0x3d96cde2	0.07363488
56	0xbde0a6cc	-0.10969314
57	0xbd4bea4c	-0.04978399
58	0xbd8daab7	-0.06917327
59	0xbd86b956	-0.06578319
60	0xbcbec986	-0.023289453
61	0x3d486c90	0.04893166
62	0xbce0d1e9	-0.027443843
63	0x3d8eaae6	0.0696619
64	0xbd107592	-0.035268374
65	0x3dc0f0d2	0.09420933
66	0x3ddaaa71	0.1067704
67	0x3d8edce7	0.069757275
68	0x3b62ae5f	0.0034588797
69	0xbd700f29	-0.058608208
70	0xbdb940d3	-0.09045567
71	0x3d95285c	0.072830886
72	0x3c9964c0	0.0187248
73	0xbd424ae0	-0.047434688
74	0xbd8b498a	-0.06801136
75	0xbe1c2a7d	-0.15250583
76	0xbd66dcf5	-0.056363065
77	0x399d9fdb	0.00030064475
78	0x3dc06cf0	0.09395778
79	0xbd01bc22	-0.031673558
80	0xbdef0755	-0.1167132
81	0x3d040ef2	0.032240815
82	0x3d10e85c	0.035377845
83	0x3cf630b1	0.030052515
84	0xbd2d17ca	-0.042259015
85	0x3c3c79e8	0.011503674
86	0x3cbc081f	0.022953091
87	0xbd464ba9	-0.048412
88	0xbd033567	-0.03203335
89	0xbd7dfc10	-0.062007964
90	0xbc8edfd9	-0.017440723
91	0xbd2645df	-0.040593978
92	0x3d34fae5	0.044184584
93	0xbd13d0a1	-0.036087636
94	0x3d7beaac	0.061503097
95	0xbda5f2a3	-0.0810292
96	0xbdbda40c	-0.09259805
97	0x3b11bc35	0.0022237424
98	0x3e2c4977	0.168249
99	0x3c529546	0.012852972
100	0x3e0b47e5	0.13601644
101	0x3ddf3a42	0.10899784
102	0x3e1e7037	0.15472494
103	0x3ccc19bd	0.024914617
104	0xbdd5e90e	-0.10444842
105	0x3cbcd13e	0.023048993
106	0xbd17580b	-0.0369492
107	0xbc47923a	-0.012180859
108	0x3d8a7c1d	0.06761954
109	0x3d499f4c	0.049224183
110	0xbe082c81	-0.13298227
111	0xbdb30248	-0.087406695
112	0xbd40a4e4	-0.047032252
113	0x3e02f842	0.12790015
114	0xbde2a590	-0.11066735
115	0x3d58cec5	0.052931566
116	0x3d8d2fbb	0.068938695
117	0xbd4ccfff	-0.050003048
118	0x3e1b47de	0.15164134
119	0x3d5e382c	0.05425279
120	0xbd3affc4	-0.045654073
121	0xbdbc35d0	-0.091899514
122	0xbd3130b3	-0.043259334
123	0x3d476540	0.048680544
124	0x3d6e3ba0	0.05816233
125	0x3da15efd	0.07879446
126	0xbc0ad36a	-0.008473257
127	0xbdd2dfa9	-0.10296566
128	0x3ce9ea0a	0.028553981
129	0xbb07b657	-0.0020708048
130	0xbd821808	-0.0635224
131	0x3d4f43c7	0.050601747
132	0xbd458fc6	-0.048232816
133	0xbc75e4dc	-0.015008178
134	0xbd3f02e0	-0.0466336
135	0xbde71e44	-0.112850696
136	0xbd8dc253	-0.0692183
137	0x3d09dd3e	0.03365826
138	0x3e1e3e20	0.15453386
139	0xbd699e09	-0.05703548
140	0xbdc5527a	-0.09634872
141	0x3e1a33a4	0.15058762
142	0x3b1b457a	0.0023692534
143	0xbce5edee	-0.028067555
144	0xbd723a6c	-0.059137747
145	0x3d56e4fe	0.052464478
146	0xbdf44c22	-0.11928584
147	0xbe029fe3	-0.12756304
148	0xbbd71f8e	-0.006565041
149	0x3cf2f1ff	0.029656408
150	0xbd96ff0e	-0.073728666
151	0xbe2535e1	-0.16133834
152	0xbdb01814	-0.085983425
153	0xbde0cb8b	-0.10976323
154	0x3c4d7487	0.012539989
155	0xbde7e261	-0.11322475
156	0xbcbde025	-0.02317817
157	0xbc12b7ca	-0.008954952
158	0xbd93d7e9	-0.07218916
159	0x3e10d4e4	0.14143711
160	0xbbe73391	-0.0070557077
161	0xbb81cd5c	-0.0039612483
162	0xbddbb766	-0.1072834
163	0x3e03bcf1	0.12865044
164	0x3c618850	0.01376541
165	0x3c5e7f1c	0.01358011
166	0xbd8c848f	-0.06861221
167	0xbcf05024	-0.029335089
168	0x3ac37b51	0.001491407
169	0x3c64164d	0.013921333
170	0x3a70dc41	0.0009188094
171	0xbd6a6bcc	-0.05723171
172	0xbe191769	-0.14950337
173	0x3b3b8178	0.0028611105
174	0xbd2a0d3b	-0.041516524
175	0x3de87582	0.11350538
176	0x3cec5f12	0.028853927
177	0x3e293322	0.16523412
178	0xbdc5e4e4	-0.09662798
179	0xbd17c194	-0.037049845
180	0x3d117cb9	0.035519335
181	0xbe11ee0f	-0.14250968
182	0x3d79b10d	0.060959864
183	0xbd9ad8e3	-0.07560899
184	0xbe212f02	-0.15740588
185	0xbd80be13	-0.06286254
186	0xbe10afc1	-0.14129545
187	0xbdf7c6bb	-0.12098452
188	0xbc88c19d	-0.016693885
189	0x3dbf0e9a	0.09328957
190	0xbe8f304e	-0.2796654
191	0x3d37a947	0.04483917
192	0x3c1f2c02	0.009715082
193	0xbe09dc76	-0.13463005
194	0x3dbb033c	0.09131476
195	0x3cebd2fa	0.028787125
196	0xbd2ea036	-0.042633258
197	0xbde26aea	-0.110555485
198	0x3da6598b	0.08122548
199	0x3cb05cd0	0.021528631
200	0x3c89d276	0.016823988
201	0xbe170e75	-0.14751609
202	0xbdb13349	-0.0865236
203	0x3bb4373d	0.005499749
204	0xbd580268	-0.05273667
205	0x3d34c4af	0.044132885
206	0xbdc0bcb6	-0.09410994
207	0x3c3682e4	0.011139605
208	0xbe3b226e	-0.18274853
209	0xbe098152	-0.13428238
210	0xbd1fdc6b	-0.039028566
211	0x3e41e707	0.18935786
212	0xbd22a462	-0.03970755
213	0xbc75d5c4	-0.015004579
214	0xbe0051f3	-0.12531261
215	0xbc8d87dc	-0.017276697
216	0x3cd2eb68	0.025747016
217	0x3c4b7640	0.01241833
218	0x3e2897e5	0.16464193
219	0x3cd0c197	0.025482936
220	0xbdba4429	-0.09095032
221	0xbd381de2	-0.044950373
222	0x3d3a70c4	0.045517698
223	0xbd83e33c	-0.06439826
224	0x3d8bb8ab	0.06822332
225	0xbe4fab7b	-0.20280258
226	0x3d17f1d8	0.037095875
227	0x3c6681d2	0.0140690375
228	0x3ddd97a3	0.10819938
229	0xbd6357c3	-0.055503618
230	0xbd314004	-0.04327394
231	0xbdb8e9f5	-0.09028999
232	0xbe499431	-0.19685437
233	0x3b07f8f8	0.0020747762
234	0xbe15dfb6	-0.1463612
235	0x3d834c64	0.06411055
236	0x3d3a2807	0.04544833
237	0x3d8f1e64	0.069882184
238	0x3ce22974	0.027607657
239	0xbd8532b5	-0.06503812
240	0x3d386817	0.045021143
241	0x3d754e7a	0.059889294
242	0x3d0f8221	0.03503621
243	0xbd9e4efa	-0.07729907
244	0x3dbc3bca	0.09191091
245	0xbe147845	-0.14499004
246	0x3dde4e3a	0.10854764
247	0x3db958b9	0.09050126
248	0x3d619ffc	0.055084214
249	0x3e016968	0.12637866
250	0x3ca5a5d6	0.020220678
251	0xbc7b34d8	-0.015332423
252	0x3d24f4ac	0.0402724
253	0x3d496e5d	0.049177516
254	0xbc38b522	-0.011273654
255	0x3be1204c	0.006870305

actor_mean.0.bias f4 [64]
0	0xbc951e30	-0.018202871
1	0xbc158dfe	-0.009128092
2	0xbcaf2860	-0.021381557
3	0xbd2ca58f	-0.042150076
4	0xbcc75dd3	-0.024336731
5	0xbd0bba56	-0.03411325
6	0x3cbea950	0.023274094
7	0xbc1c028a	-0.00952209
8	0x3d6f3aa7	0.058405545
9	0x3c815f06	0.015792381
10	0x3d309214	0.04310806
11	0xbc3cf45e	-0.011532871
12	0xbd9ea7da	-0.07746859
13	0xbbb64fbc	-0.0055637043
14	0xbc445793	-0.01198377
15	0x3cc22de0	0.023703516
16	0x3cc62a28	0.024190024
17	0xbb0989e0	-0.002098672
18	0xbd1aa38b	-0.037753623
19	0xbd75a99f	-0.059976216
20	0xbc3b3755	-0.011426766
21	0x3d31163b	0.04323409
22	0xbc6999fc	-0.014257904
23	0xbc1415c6	-0.009038394
24	0xbcca53be	-0.024698135
25	0xbb83aa59	-0.0040181098
26	0x3cf0ac51	0.029379042
27	0xbd1656ed	-0.036703993
28	0x3d519285	0.051165123
29	0xbbf626e2	-0.0075119594
30	0x3c1aac52	0.009440498
31	0xbd872e45	-0.06600622
32	0xbca62fba	-0.02028643
33	0x3d384183	0.04498435
34	0xbd1a6d15	-0.037701685
35	0x3b012fb6	0.0019712276
36	0xbd284e5b	-0.04109035
37	0xbd6e8955	-0.05823644
38	0xbc87c42c	-0.016573034
39	0xbd07b760	-0.033133864
40	0xbb0e21c7	-0.0021687613
41	0xbb9bd875	-0.0047560283
42	0x3ba236dd	0.004950388
43	0xbca98f00	-0.02069807
44	0xbcd12e1f	-0.025534688
45	0xbcfe6c9f	-0.031057654
46	0xbd0165d1	-0.03159124
47	0xbc141537	-0.009038261
48	0xbcc125da	-0.02357762
49	0xbb3e017c	-0.0028992584
50	0xbd43eaf0	-0.047831476
51	0xbd094bba	-0.033519484
52	0x3c269d4c	0.010169338
53	0xbc858ea5	-0.01630337
54	0x3c056131	0.008140848
55	0xbc3e4b99	-0.011614704
56	0xbd866792	-0.06562723
57	0x3d0a2c1c	0.033733472
58	0xbd537709	-0.051627193
59	0x3b01ee92	0.0019826037
60	0xbd1dcdb1	-0.03852624
61	0xb9f53273	-0.0004676763
62	0xbd291a62	-0.041284926
63	0xbbd5cede	-0.0065249046

actor_mean.2.weight f4 [64, 64]
0	0xbe07a0db	-0.13244955
1	0x3d188f11	0.037245814
2	0xbe6a3fdf	-0.22875927
3	0xbdd5eb29	-0.10445244
4	0xbe56df42	-0.20983604
5	0x3d43463b	0.0476744
6	0x3de13de3	0.10998132
7	0xbe541578	-0.20711315
8	0xbd5370fe	-0.05162143
9	0x3dd66113	0.10467734
10	0xbe292a29	-0.16519989
11	0xbe66b2a1	-0.22529079
12	0x3decfe53	0.11571946
13	0x3e9f0965	0.31061855
14	0x3dea17f1	0.11430348
15	0xbdc7ffb9	-0.09765572
16	0x3c433001	0.0119133005
17	0xbe095084	-0.1340962
18	0xbda4d96d	-0.08049283
19	0x3e05ff4c	0.1308567
20	0x3e086465	0.13319547
21	0x3d207671	0.039175455
22	0xbdfed1e7	-0.124423794
23	0x3d662040	0.0561831
24	0x3d1655ab	0.036702793
25	0xbedd6661	-0.4324217
26	0xbd35f915	-0.044426996
27	0x3d92ae8e	0.071622
28	0x3d18e392	0.037326403
29	0xbf08fa92	-0.5350734
30	0x3e37a34b	0.17933385
31	0xbe0f7cb3	-0.14012413
32	0xbd0e2669	-0.0347046
33	0x3ebc08f1	0.36725572
34	0x3d0e2957	0.034707393
35	0x3ed22778	0.41045737
36	0xbe45de6c	-0.19323128
37	0xbcd0f78d	-0.025508666
38	0x3e0e6453	0.13905458
39	0x3e67cbae	0.22636291
40	0xbdcaf463	-0.09909894
41	0xbda14cb0	-0.07875955
42	0xbe287577	-0.1645106
43	0x3d52d4ac	0.05147235
44	0x3eacbae3	0.33736333
45	0xbce1d8ac	-0.027569138
46	0x3d9d070d	0.076673605
47	0xbe585b8a	-0.2112867
48	0xbdd032db	-0.1016595
49	0x3e082fd8	0.13299501
50	0x3e8b8e41	0.2725697
51	0x3d5cca39	0.053903792
52	0x3e04de7e	0.12975499
53	0xbe863aa4	-0.26216614
54	0xbe22bdcd	-0.15892716
55	0x3e1c3e4c	0.1525814
56	0x3d30fada	0.04320798
57	0x3eb218c0	0.34784508
58	0xbe2f518a	-0.17120948
59	0xbdeaa990	-0.11458123
60	0xbd70c2d3	-0.05877955
61	0x3cd5cb90	0.026098043
62	0xbea067dc	-0.31329238
63	0x3de9958d	0.11405478
64	0xbe747d2f	-0.23875879
65	0x3dee0674	0.116223246
66	0x3e6d4b77	0.23173319
67	0x3e45a8bf	0.19302653
68	0x3e4c874f	0.19973491
69	0xbec4bc16	-0.38424748
70	0x3e2610a1	0.16217281
71	0xbcefa6d7	-0.02925436
72	0xbc1ec880	-0.009691358
73	0x3e9bc341	0.30422404
74	0x3d4f15b3	0.050557803
75	0x3cbe4ea8	0.023230866
76	0xbceb92f1	-0.02875659
77	0x3e152932	0.14566496
78	0xbd8afca7	-0.06786471
79	0xbe2867ae	-0.164458
80	0xbda90a9b	-0.08253976
81	0x3def76ab	0.11692556
82	0x3da6abfd	0.08138273
83	0xbe1e6899	-0.15469588
84	0xbd7b431b	-0.061343294
85	0x3e15713d	0.14593978
86	0xbd9e8fd7	-0.07742279
87	0xbe87c318	-0.26516032
88	0xbea45595	-0.32096544
89	0xbdb657e0	-0.089034796
90	0xbd0a6133	-0.033784103
91	0xbe2f1934	-0.17099458
92	0x3ea7b1da	0.32752877
93	0x3d880672	0.06641854
94	0x3e27bcfe	0.16380689
95	0x3d9c800b	0.0764161
96	0xbe1ec1a4	-0.15503556
97	0x3ddf7cf7	0.10912507
98	0x3e161457	0.14656197
99	0xbe232f25	-0.15935953
100	0x3c05d9d6	0.008169612
101	0xbe1455bc	-0.1448583
102	0x3ef5ba0e	0.4799351
103	0xbebd9557	-0.37028
104	0xbda607c8	-0.08106953
105	0xbddb204c	-0.106995195
106	0xbc90f2cf	-0.017693905
107	0xbf068957	-0.52553314
108	0x3e75bce9	0.23997845
109	0xbd92a4ea	-0.07160361
110	0xbcfa43a7	-0.030549837
111	0x3dd7af59	0.10531492
112	0xbd0a3060	-0.03373754
113	0xbe291cbf	-0.16514872
114	0x3d32cfa7	0.043655064
115	0x3dc9ce2e	0.09853779
116	0x3df66329	0.12030632
117	0x3d8a7055	0.06759707
118	0x3d3a3d1a	0.045468427
119	0x3e298c34	0.1655739
120	0xbc61c56c	-0.013779979
121	0xbc10f7ea	-0.00884817
122	0xbed2e253	-0.41188297
123	0x3e8e367a	0.27775937
124	0xbe5b8d1f	-0.21440552
125	0xbe03f5c1	-0.12886716
126	0x3deb5785	0.114913024
127	0xbe028b93	-0.12748556
128	0xbd2d36be	-0.042288534
129	0x3e5b2f77	0.21404825
130	0xbe5d782e	-0.21627876
131	0xbd9b53ad	-0.07584319
132	0x3d14002a	0.03613297
133	0x3ce8f68f	0.02843788
134	0x3e9152c9	0.28383473
135	0x3e55f990	0.20895982
136	0x3e993290	0.2992139
137	0xbdda3767	-0.106550984
138	0x3df9d8e5	0.121995725
139	0xbe6274ea	-0.22114912
140	0xbe804626	-0.2505352
141	0xbe6971ed	-0.22797365
142	0x3da2ac48	0.07943016
143	0x3d7220e6	0.059113406
144	0xbccaa3c8	-0.0247363
145	0x3de7c16c	0.11316189
146	0x3c8fb210	0.017540962
147	0xbecc66da	-0.3992222
148	0x3e1cf0ef	0.15326284
149	0xbd30908b	-0.043106597
150	0xbd4b21b5	-0.049592692
151	0xbda5f1b1	-0.081027396
152	0xba2e3e52	-0.00066468597
153	0x3dc0ded0	0.09417498
154	0x3becad13	0.0072227805
155	0xbd45ab7c	-0.048259243
156	0xbe7d4f3a	-0.24737254
157	0x3e325cbb	0.17418186
158	0x3ef4f603	0.47843942
159	0xbe6212e6	-0.22077522
160	0xbd2790bc	-0.040909514
161	0xbdc11eec	-0.09429726
162	0xbe2617ff	-0.16220091
163	0x3ef4ff14	0.4785086
164	0xbac65d66	-0.0015134036
165	0x3daaab5d	0.08333466
166	0x398214df	0.00024811082
167	0x3c6930bc	0.014232811
168	0xbe4a3de2	-0.19750169
169	0xbbcf6a9a	-0.0063298466
170	0x3ce8e0ae	0.028427448
171	0x3dc4eb17	0.09615152
172	0x3df33c2c	0.11876711
173	0x3d2bccb2	0.04194326
174	0xbdaa5350	-0.08316672
175	0xbd3d2074	-0.046173528
176	0x3de19794	0.11015239
177	0x3d467562	0.04845179
178	0xbe0c1880	-0.13681221
179	0xbe297a3b	-0.16550533
180	0x3e5ea385	0.21742065
181	0x3e9889a7	0.2979252
182	0x3d51dc43	0.05123545
183	0xbee9b814	-0.45648253
184	0xbde0546e	-0.10953604
185	0x3e751b24	0.23936135
186	0xbd201b37	-0.039088454
187	0x3da14316	0.07874124
188	0xbddcf120	-0.107881784
189	0x3ed89f75	0.42309156
190	0x3e2db27e	0.1696262
191	0x3df5dce3	0.120050214
192	0x3e0cf4e2	0.1376529
193	0x3e2954a1	0.1653619
194	0x3da4c413	0.08045211
195	0x3d7df374	0.061999753
196	0x3c9ba73a	0.019000638
197	0x3dde013e	0.10840081
198	0xbc16fb5a	-0.0092152
199	0xbe86b470	-0.26309538
200	0xbd2ab511	-0.041676585
201	0x3debbeb0	0.1151098
202	0x3ebe59a7	0.37177774
203	0xbedb24c3	-0.42801484
204	0x3dbff9ea	0.09373839
205	0xbea42924	-0.32062638
206	0xbe1d3dde	-0.15355632
207	0x3e95da9a	0.29268342
208	0x3e2399ed	0.15976687
209	0x3d9a926e	0.075474605
210	0x3ea9112a	0.33020908
211	0x3e6bf763	0.2304359
212	0xbe812a8d	-0.25227776
213	0xbdf99f4c	-0.121885866
214	0xbc292edf	-0.010326116
215	0x3e324779	0.17410077
216	0x3d34ac8f	0.044109877
217	0x3db5cf52	0.08877434
218	0x3c8373ee	0.01604649
219	0xbccd535f	-0.025064168
220	0xbdcbfa32	-0.0995983
221	0xbdb3fbe7	-0.08788281
222	0x3e9cc55c	0.30619323
223	0xbe288f42	-0.16460899
224	0xbd8e8044	-0.069580585
225	0x3e1adabf	0.15122508
226	0x3e61655a	0.22011319
227	0xbcda91d7	-0.02668087
228	0x3ec90aa1	0.39265922
229	0x3e71a3c3	0.23597626
230	0xbcd96f63	-0.026542371
231	0xbec0eacc	-0.37679136
232	0xbd5cc8f8	-0.053902596
233	0x3e421b49	0.18955721
234	0x3d8339a4	0.064074785
235	0xbdf3dea2	-0.11907698
236	0x3d81cc4a	0.06337793
237	0x3dce7e11	0.10082639
238	0xbda44b04	-0.080221206
239	0x3de2ac70	0.11068046
240	0x3af6a1b8	0.0018816506
241	0x3dbdfa95	0.0927631
242	0xbce74f9c	-0.028236203
243	0x3e3e3d23	0.1857801
244	0x3e23e5be	0.16005608
245	0xbe6f1ac5	-0.23350056
246	0xbe8eadec	-0.27867067
247	0x3e4a5804	0.19760138
248	0xbd1b8088	-0.037964374
249	0x3cb62554	0.022234596
250	0x3ec9d45f	0.3941984
251	0x3e1aa59e	0.1510224
252	0x3dcd3648	0.10020119
253	0xbea1e5e6	-0.3162071
254	0xbe3f219b	-0.18665163
255	0x3dca0ddb	0.09865924

actor_mean.2.bias f4 [64]
0	0x3e298aaa	0.16556802
1	0x3e00e7c8	0.12588418
2	0xbd9f9aa8	-0.0779317
3	0xbce77116	-0.028252166
4	0x3a804143	0.0009785075
5	0xbd265eb2	-0.040617652
6	0x3dd78bbb	0.10524698
7	0xbdf6eff2	-0.12057485
8	0x3d7500e1	0.05981529
9	0xbdbfb54d	-0.09360752
10	0xbd7eff4b	-0.062255185
11	0xbcc7a6c4	-0.024371512
12	0xbdeade0e	-0.11468135
13	0xbdbd7ca0	-0.09252286
14	0xba4dd445	-0.000785176
15	0x3dfccebb	0.12344118
16	0x3c9ec3d4	0.019380488
17	0xbd6d49ec	-0.057931826
18	0x3a36d6e4	0.000697477
19	0xbd116010	-0.035492003
20	0xbd71bff0	-0.059020936
21	0xbd28de9f	-0.041227933
22	0xbde3d3be	-0.11124371
23	0x3c1e0cb2	0.0096465815
24	0xbd0e0488	-0.03467229
25	0x3d67d9fd	0.056604374
26	0x3d79b856	0.060966812
27	0xbcd2e8e6	-0.02574582
28	0xbbaddf62	-0.0053061703
29	0x3d3c366d	0.045950342
30	0xbcb28ce1	-0.021795692
31	0xbba28c49	-0.004960571
32	0xbe182563	-0.14858012
33	0xbe18eecb	-0.14934842
34	0x3d86d381	0.0658331
35	0x3dc1deea	0.094663456
36	0xbd610825	-0.054939408
37	0x3d5fbbf5	0.05462261
38	0x3ceaf602	0.028681759
39	0x3d7c5304	0.061602607
40	0xbd1ec044	-0.038757578
41	0xbc9aec05	-0.018911371
42	0xbd9c7d07	-0.076410346
43	0x3ce7d381	0.028299095
44	0x3bc99ae6	0.0061524985
45	0x3dfa1b9d	0.12212298
46	0x3e02c4de	0.12770411
47	0x3e4cea46	0.20011243
48	0x3cb13421	0.021631302
49	0xbd637b92	-0.055537768
50	0xbd85b8d2	-0.06529392
51	0x3d4352ee	0.04768651
52	0x3c4b6ceb	0.012416105
53	0xbd8a2890	-0.06746018
54	0xbd9c4031	-0.07629431
55	0xbddc5290	-0.10757935
56	0xbc1c36b3	-0.009534526
57	0xbe08752c	-0.13325948
58	0x3ccdaabb	0.025105825
59	0xb943292d	-0.00018611988
60	0x3d0a2a5d	0.033731807
61	0xba19c73c	-0.0005866175
62	0x3cba5d9b	0.022749713
63	0x3cfacdc2	0.030615691

actor_mean.4.weight f4 [17, 64]
0	0xbce494e2	-0.027903024
1	0x3d8918c1	0.066941746
2	0xbcfdfb85	-0.031003723
3	0x3d0514ee	0.032490663
4	0x3dde8a69	0.108662434
5	0xbd21e51d	-0.03952514
6	0x3d336f99	0.0438076
7	0xbd12903d	-0.035782088
8	0x3d9bd917	0.07609766
9	0x3cf09343	0.029367095
10	0xba934ad3	-0.0011237509
11	0xbd10e064	-0.035370246
12	0xbba8430b	-0.0051349453
13	0x3ced3526	0.028956007
14	0xbc962bc1	-0.01833141
15	0xbc815cab	-0.015791258
16	0xbd54305b	-0.051803928
17	0xbd22bdae	-0.039731674
18	0x3c1e8f92	0.0096777845
19	0xbcef3224	-0.029198714
20	0xbdbf61b4	-0.09344807
21	0x3cee4554	0.029085793
22	0x3c708b77	0.0146816885
23	0xbd068794	-0.03284414
24	0xbddbdc51	-0.107353814
25	0x3db579fb	0.088611566
26	0x3c1119bb	0.008856232
27	0x3bdd683d	0.006756811
28	0x3b9e2eda	0.0048273625
29	0xbcfd2a6c	-0.030904017
30	0x3cc0e91c	0.023548655
31	0x3ccbe961	0.024891557
32	0x3d318025	0.0433351
33	0xbb093935	-0.002093864
34	0x3d3f72a2	0.04674018
35	0x3c7c1861	0.015386672
36	0xbbe6e5ca	-0.007046436
37	0xbbd4426f	-0.006477646
38	0x3c29de2e	0.010367913
39	0x3d406201	0.046968464
40	0x3ccf3935	0.025295833
41	0xbcc409ed	-0.023930514
42	0xbca758f3	-0.020428156
43	0xba0da923	-0.00054039265
44	0xbcf8bc33	-0.030363178
45	0xbd11b1ff	-0.03557014
46	0xbc53dd8b	-0.012931238
47	0x3d9483ae	0.072516784
48	0xbd4cac9e	-0.049969308
49	0x3d418be3	0.047252547
50	0x3d0cefc1	0.034408335
51	0xbcdbe0f7	-0.02684067
52	0x3b6b2a93	0.003588353
53	0x3d87e345	0.06635145
54	0x3d15af6d	0.036544252
55	0xbddcae2c	-0.10775408
56	0x3c9b8eb4	0.018988945
57	0xbcbc9dcf	-0.023024468
58	0xbc9d01e7	-0.019165946
59	0xbd2c263f	-0.04202866
60	0x3d5116f4	0.05104728
61	0x3c551da5	0.013007556
62	0x3d7d609a	0.061859705
63	0xbd1d8f69	-0.038466845
64	0xbd404750	-0.04694301
65	0xbc1c5e97	-0.009544036
66	0x3d30cc36	0.0431635
67	0x3d1c8a97	0.038218107
68	0xbcba9e52	-0.022780571
69	0xbc91c546	-0.017794263
70	0x3d6d16b9	0.057883
71	0xbbae72d9	-0.0053237495
72	0xbbe50524	-0.006989138
73	0x3d89d8ab	0.06730779
74	0x3b7089fc	0.003670334
75	0xbd74dbef	-0.059780058
76	0x3cca1614	0.02466873
77	0x3d04d3b2	0.03242845
78	0xbd120749	-0.03565148
79	0xbc168fcb	-0.009189556
80	0x3b401abc	0.002931281
81	0xbdb8bd37	-0.09020465
82	0x3c194dc9	0.009356924
83	0x3d6258b7	0.055260386
84	0x3b92f03f	0.004484206
85	0x3c3c948a	0.011510024
86	0x3d61e236	0.055147372
87	0x3d16902c	0.036758587
88	0x3d892bc3	0.066978
89	0x3dc99847	0.09843498
90	0x3c7bedba	0.015376503
91	0x3ca21bd0	0.019788653
92	0x3c21823e	0.009857712
93	0xb9efb813	-0.00045722778
94	0xba39e40a	-0.00070911704
95	0x3d13370d	0.035941172
96	0xbd0aaaf8	-0.033854455
97	0x3cf41d80	0.029799223
98	0x3cdc1e75	0.026869992
99	0xbb99c7e9	-0.0046930206
100	0xbb56383d	-0.003268733
101	0xbd084d71	-0.03327698
102	0x3cca6cc9	0.024710076
103	0x3d3c8a8a	0.04603056
104	0x3cdf4269	0.027253347
105	0x3d84acdb	0.06478282
106	0xbd0ae3f8	-0.033908814
107	0xbcecb5b5	-0.028895238
108	0x3d6f07c1	0.058357004
109	0x3dacab01	0.08431054
110	0xbd8fedfb	-0.07027813
111	0x3c7dd4fd	0.015492675
112	0x3cb7ddd0	0.022444636
113	0x3d91042f	0.07080876
114	0xbd6bb5b9	-0.05754635
115	0xbc22609f	-0.009910732
116	0xbd436450	-0.047703087
117	0xbcf707e2	-0.030155126
118	0x3d8ccf90	0.06875527
119	0x3d85a1f9	0.065250345
120	0xbdad19ea	-0.08452208
121	0x3bd14ec9	0.0063875658
122	0xbaecece9	-0.0018075976
123	0x3c506098	0.012718342
124	0xbd75ab86	-0.05997803
125	0xbcafe4a3	-0.021471327
126	0xbd7a7ee9	-0.061156187
127	0xbc754972	-0.014971124
128	0xbaab7236	-0.0013080302
129	0xbc8f5116	-0.01749472
130	0x3d2596ab	0.04042689
131	0xbd269823	-0.040672433
132	0x3d1bf716	0.038077436
133	0xbd6f3db5	-0.058408458
134	0xbd1ebad6	-0.0387524
135	0x3dea4157	0.11438244
136	0x3d61379b	0.05498467
137	0xbc1cc39f	-0.009568124
138	0xbba52873	-0.0050402223
139	0x3ba87dcd	0.0051419497
140	0x3d157897	0.036491957
141	0xbbbce6fa	-0.0057648392
142	0x3cbd99b4	0.02314458
143	0xbc9b36ab	-0.018946966
144	0xbd98e453	-0.074654244
145	0xbd40d58d	-0.047078658
146	0xbd263f3a	-0.04058764
147	0xbce88c87	-0.028387321
148	0x3dbbd709	0.09171874
149	0xbc4f0c13	-0.012637156
150	0x3cd7ba5e	0.026333984
151	0x3d2693e1	0.040668372
152	0xbc09b5f4	-0.008405197
153	0x3d3ad153	0.045609783
154	0xbd33004b	-0.04370145
155	0xbd47e984	-0.048806682
156	0x3c5576cb	0.013028811
157	0x3ad4de4b	0.0016240565
158	0x3ca8d3c4	0.02060879
159	0x3d3dfc94	0.046383455
160	0x3c95b3dc	0.01827424
161	0xbcaaef8b	-0.020866176
162	0x3b883533	0.0041567325
163	0x3c3019e2	0.010748358
164	0xbd61ba46	-0.055109285
165	0xbbf5392c	-0.007483622
166	0xbdc4196e	-0.09575163
167	0x3da37d92	0.07982935
168	0xbc284c74	-0.010272134
169	0xbdf47ad0	-0.11937487
170	0xbd43f509	-0.047841106
171	0x3bfcabcd	0.00771091
172	0x3bc2b932	0.005942487
173	0x3c1f3568	0.009717323
174	0xbdbf5b30	-0.093435645
175	0x3d2de65d	0.04245602
176	0x3cb22b13	0.021749055
177	0xbcb56854	-0.022144474
178	0x3d29e439	0.041477416
179	0x3ba19260	0.0049307793
180	0x3c768e5c	0.01504859
181	0x3d6df564	0.05809535
182	0xba78945c	-0.00094825565
183	0xbc32800a	-0.010894785
184	0x3c0456ed	0.008077365
185	0xbdcc9e26	-0.09991102
186	0x3b3d95c3	0.0028928376
187	0x3d2ea4f5	0.042637784
188	0x3b096421	0.0020964222
189	0xbc979929	-0.01850565
190	0x3ca38042	0.019958619
191	0x3bdabbf5	0.0066752383
192	0x3c44c3cf	0.012009575
193	0x3c0f6beb	0.008753757
194	0x3d544802	0.051826485
195	0xbdb4b6fa	-0.088239625
196	0xbb0eb185	-0.002177329
197	0xbc982544	-0.018572457
198	0xbbafafd0	-0.0053615347
199	0x3ce4d17a	0.027931917
200	0xbd5d6563	-0.054051768
201	0x3cb3c9e8	0.021946862
202	0x3c9dcb4a	0.019261975
203	0x3caf05d1	0.021365078
204	0xbbcbe493	-0.0062223165
205	0xbd283895	-0.041069586
206	0x3c0345fe	0.008012293
207	0x3cdfe9cd	0.027333165
208	0xbcb3ef13	-0.021964585
209	0x3ccbe130	0.024887651
210	0x3d27edd3	0.04099829
211	0x3dd02bee	0.10164629
212	0xbccbd391	-0.024881156
213	0x3cd855a8	0.026408032
214	0xbc22832d	-0.00991897
215	0xbbf0745c	-0.00733809
216	0xbd19a4c5	-0.037510652
217	0x3d144516	0.036198698
218	0x3b89826c	0.0041964557
219	0x3c94d1eb	0.018166503
220	0xbce80910	-0.028324634
221	0xbcb99d3b	-0.022657981
222	0xbd900c32	-0.07033576
223	0x3d15adcd	0.036542702
224	0x3c3a29f2	0.01136254
225	0xbdb9976c	-0.090620846
226	0x3b926b55	0.0044683614
227	0x3d00505f	0.031326648
228	0xbda31d02	-0.07964517
229	0x3d424c58	0.04743609
230	0xbd24bd7c	-0.04021977
231	0xbc8edee8	-0.017440274
232	0x3cc632fb	0.024194231
233	0xbcd3c66d	-0.025851453
234	0x3db09b0b	0.08623322
235	0xbcca402b	-0.0246888
236	0xbca5492b	-0.02017649
237	0xbd32406f	-0.04351848
238	0x3cbbb521	0.022913517
239	0xbba77448	-0.0051102974
240	0x3bbd1e7b	0.005771456
241	0x3d5b14f7	0.05348679
242	0x3a550760	0.0008126404
243	0xbb8d2fde	-0.0043086847
244	0x3d37b1a3	0.044847142
245	0xbbe478a1	-0.006972388
246	0x3dac9840	0.08427477
247	0x3d0acc3d	0.033886183
248	0x3cc14ada	0.023595262
249	0xbc8ba89b	-0.01704817
250	0xbd2e5222	-0.042558797
251	0xbd499791	-0.04921681
252	0x3d0eed72	0.034894414
253	0xbc890976	-0.016728144
254	0xbcefc7b8	-0.029270038
255	0xbce6a6f7	-0.028155787

actor_mean.4.bias f4 [17]
0	0x3d8e6a9c	0.06953928
1	0xbca17838	-0.019710645
2	0xbc8d0bd2	-0.01721755
3	0xbc90834f	-0.017640738
4	0x3d2c4ee3	0.04206742
5	0x3cc31dc1	0.023817899
6	0x3e44a873	0.19204883
7	0xb8f8bf68	-0.00011861214
8	0x3cb5e721	0.022204937
9	0x3d5e1f25	0.05422892
10	0x3e55815b	0.20850126
11	0xbcce2d3d	-0.025168056
12	0xbd4ecdb6	-0.05048915
13	0x3c01e8ed	0.007929069
14	0x3c91ced7	0.017798824
15	0xbc31c90f	-0.010851159
16	0x3c22a969	0.009928086
