saved_agents/humanoid_b.pth (torch, 780085 bytes, 28 tensors)

actor_logstd f4 [1, 17]
00000000: 96c6 73bd a9e4 c53c e0e7 2dbc 834d 5ebc
00000010: 1d20 3bbd a256 80bd ee83 f4bd f856 89bd
00000020: cd6d 403b 7ba2 e3bc d380 a4bd ceb1 28bd
00000030: fadb a4bc ad66 c9bd 7685 8fbc 297b 73bd
00000040: 4f3c 0abd
-0.05951556 0.024156885 -0.010614365 -0.013568285 -0.045684922 -0.06266524 -0.11939226 -0.06706041
0.0029362321 -0.027787438 -0.08032384 -0.041185193 -0.020124424 -0.09834037 -0.017519694 -0.059443627
-0.03374892

critic.0.weight f4 [64, 351]
00000000: bc1b 4c3e e23d c73d cb6d 423c f5e1 09be
00000010: 6963 ef3d abf9 eebc bbde 703d 00f9 12be
00000020: e35b 913d c4e3 fabc 9316 273e faeb 14be
00000030: a868 963d b6f6 573d 3aa1 49bd 3b20 d9bd
00000040: ca15 13be e91d b03d bfb1 c1bd 4652 b6bc
00000050: b0f7 21be 382e 893d 856f cbbe 1315 cebd
00000060: 4301 673e 5f62 5a3d f2eb 7cbe 10f6 643d
00000070: ecf9 d2bd 4617 f13c 89dc 9fbd a9ec aabd
00000080: b226 41bd 9057 6bbd 00a4 833d c5b9 dc3c
00000090: 35c0 213d 4a40 ad3d 9ae7 eb3c fe61 bfbd
000000a0: 1fcd 90bd fd43 c4bd 5b7d 95bd 8c0f 203e
000000b0: 30f0 e0bc 095a 683e d829 363e 0e9b b1be
000000c0: 02a5 7c3d 4dc8 d73e fcc2 c63b d940 b3be
000000d0: 1ac8 053e 21a7 8e3e 275a 073e 1dbf b23e
000000e0: fdb8 5e3e 8d5d f3bd 6867 80bb d0a7 ce3e
000000f0: fae0 9cbe 580b d3be c8b4 823c fb9f 813e
00000100: f96d 3b3d 0ffb b7bc b27d 4b3e 6bc6 97bd
00000110: ce89 10be baf3 33bc 269a 003e a067 63be
00000120: ce10 453d d776 423e 2a32 1a3e 0c9f 3c3e
00000130: 224e 293d bc25 ccbd 26d6 693e 1188 9b3e
00000140: 5a1a 54be c28d ae3d e9f4 e9bd 47bd 3dbe
00000150: 0af1 373e d4b5 713e c09c 213e 1b68 67be
00000160: fc50 283e d273 233e 6cc9 8abe 0435 093e
00000170: 7711 0dbe dca9 a9be f53c 6c3e cf11 803e
00000180: 447f 4a3e 52d8 e1be 7c53 8ebd 0829 543b
00000190: 5e8e cabd dda0 023e 27d8 fcbd 0c94 9cbe
000001a0: 6595 043e 49cb f73d f08d 883e efdd 80bc
000001b0: 598f 0abe 3c7f 523e 3c08 593e c0e7 0f3d
000001c0: 3c46 593e f626 38be 1dc6 b53b 159b 9c3e
000001d0: f258 733e a554 76be 998f 71be 17e4 ce3e
000001e0: 4e87 b83d cd7a 553e 6c71 693e 8540 6cbe
000001f0: 0b6c 703e 4e3c 9e3e 7b77 9a3e 8a44 90be
00000200: d9af 53bd ee16 c5bd e70c 613e 9663 bb3d
00000210: 0685 043e 033a 98be 8c34 223e 82f0 e43d
00000220: f915 a03d 93f0 c03c f518 2ebd 6170 523d
00000230: 7e81 a43e 10af 913d 4482 0bbe f8e6 8f3e
00000240: c3d6 b63d 9e32 843e 2973 4d3e 7c43 103c
00000250: e342 aa3e b143 d6be b319 d83e b6cd 5d3e
00000260: 8658 45bd 0132 123f dc0f 7f3d 5f96 823e
00000270: 5580 cd3d 125d f33d b8b5 3c3e d6a2 82ba
00000280: 35cb dabe ea92 e3bd af8c 3a3e 3637 823e
00000290: f6e7 673d 97b4 903e a488 573e aeb5 6c3e
000002a0: 9db6 63be dcd3 00bf de74 febe 1c97 7f3e
000002b0: b589 d93d 76e2 db3e fa0b bc3d 8bcc cb3d
000002c0: 9033 4dbe e0da e43d f6c4 50be 422f d53d
000002d0: d9bb 9bbd 9b06 a53c ebbc 50be 4592 2b3e
000002e0: 29d1 0cbe b5bd 1a3c a2e5 113e 9da0 013e
000002f0: bd0a 44be 535e 963d f775 47bd b46b 92bd
00000300: cdcf 983d a32b 14be 6b7f 08ba b4e8 2cbc
00000310: ea76 14bd 700d 95bd d8c1 993d 2c43 d13d
00000320: 7834 08be 41c7 813c 7952 fbbb c2d8 75bd
00000330: a745 58bd d3bc a8bd dfd1 1d3d 483b d0bc
00000340: bdae 6abd 35e9 863d 0e69 51be 7b9d 24bb
00000350: 2054 d1bd 1e05 a73c 96ac b8bd 74bf 59bc
00000360: 4016 68bd 73f9 c73d 0dbe 0c3d a5c3 153d
00000370: 7422 15bd a678 8b3c 03cf ce3d c3b4 223e
00000380: 6140 69bc 17e9 c8bc 1a74 b7bc bf20 09bc
00000390: 0ea0 f0bd d47c 8cbd 5873 03bd cacb 0abe
000003a0: 44a3 09be 0e50 5fbe 1df0 643c f43c 20be
000003b0: a55b eebd b2ae 7f3d 355b 42be 3a68 e9bc
000003c0: ce0f 21bd c6c7 12bd 08d5 b9bc 5bab 453e
000003d0: 748b dbbd 8871 81bd 31d6 c4bc c57f e33d
000003e0: bf81 d13c 77ed 143c 049c 46be ea3c 7ebd
000003f0: 6280 0d3c f51c 913d 2e78 073d d69b 133e
0.19932455 0.097286 0.011866997 -0.13465102 0.11688883 -0.029171785 0.058806162 -0.14352798
0.07097604 -0.030626185 0.16317205 -0.14543143 0.0734418 0.052725516 -0.049226023 -0.106018506
-0.1436378 0.08599455 -0.094577305 -0.022256028 -0.15817142 0.06698269 -0.3973352 -0.10062613
0.22559075 0.05331647 -0.24699381 0.055898726 -0.10301575 0.029430043 -0.078057356 -0.083459206
-0.047156043 -0.057456553 0.06427765 0.02694405 0.039489944 0.08459528 0.02879696 -0.093448624
-0.07070374 -0.0958328 -0.072993 0.1563093 -0.02745828 0.22690596 0.177894 -0.3468861
0.0616808 0.42145005 0.0060657244 -0.35010412 0.13064614 0.27861884 0.13217984 0.34911433
0.21750255 -0.11883078 -0.003918577 0.40362406 -0.30640393 -0.41219592 0.015955344 0.25317368
0.045759175 -0.022458581 0.19872168 -0.07410892 -0.14115068 -0.010983402 0.12558803 -0.22207499
0.04811173 0.18990646 0.15058199 0.18420047 0.04133428 -0.09968135 0.22835597 0.30377248
-0.20713177 0.08523132 -0.11423666 -0.18529235 0.17963043 0.23604518 0.15782452 -0.22598307
0.16437143 0.1596215 -0.27106798 0.1339913 -0.13776194 -0.33137405 0.23070128 0.25013587
0.1977511 -0.44110352 -0.06949517 0.003237309 -0.09890436 0.12756677 -0.12345915 -0.305817
0.12947614 0.120993204 0.2667079 -0.015730826 -0.13531245 0.20556349 0.21194547 0.035133123
0.21218199 -0.17983612 0.0055472986 0.30587068 0.23764399 -0.24055727 -0.23589934 0.40408394
0.09010182 0.20847626 0.22797173 -0.23071487 0.23478715 0.30905384 0.3016928 -0.2817729
-0.051681373 -0.09623514 0.21977578 0.09149854 0.1294137 -0.2973176 0.15840358 0.11178686
0.07816691 0.023552215 -0.04250427 0.051376704 0.32130045 0.07113469 -0.13623911 0.28105903
0.08927681 0.25819868 0.20063461 0.008805152 0.33254156 -0.4184852 0.42207107 0.21660504
-0.048180126 0.5710755 0.062270984 0.2550535 0.10034243 0.11882986 0.18428695 -0.0009966742
-0.4273316 -0.11112006 0.18217729 0.25432748 0.0566177 0.2826278 0.21048218 0.2311618
-0.2223763 -0.5032327 -0.49698538 0.24959987 0.10621969 0.42946213 0.09181972 0.09951123
-0.20039201 0.111745596 -0.20387635 0.10409404 -0.076041885 0.020144751 -0.20384566 0.16755016
-0.13751663 0.009444644 0.14247754 0.12658925 -0.19144721 0.0734221 -0.048696484 -0.07149449
0.0746151 -0.14469771 -0.0005206975 -0.010553528 -0.036246218 -0.072779536 0.07507676 0.1021789
-0.13301265 0.015842082 -0.0076697436 -0.06002117 -0.0528008 -0.0823914 0.038530227 -0.025418893
-0.05729555 0.065874495 -0.20450231 -0.002511828 -0.10221124 0.020388182 -0.09017293 -0.013290275
-0.056661844 0.097643755 0.034360934 0.036563534 -0.03640981 0.017025303 0.10098078 0.15889268
-0.0142365405 -0.024525208 -0.022394229 -0.008369624 -0.11749278 -0.068597466 -0.032092422 -0.13554302
-0.13441187 -0.21807882 0.013973263 -0.15648252 -0.116385736 0.06242246 -0.18980105 -0.028492082
-0.039321713 -0.03583505 -0.022684589 0.19303648 -0.10719958 -0.063204825 -0.024027916 0.111083545
0.025574563 0.009089819 -0.19395453 -0.06206981 0.008636566 0.07085601 0.033073597 0.14414915

critic.0.bias f4 [64]
00000000: 9080 093e 6fe8 073e 1770 d3bd b6dc d7bd
00000010: 3593 c4bd 0b25 b9bd 1b1a eebd 3816 57be
00000020: 6518 24bb deb4 90bc f72f c9bd ab08 f03c
00000030: 3617 dc3d d15c bc3d 97f1 fabc af23 06be
00000040: bf44 acbd 2550 0cbe f8d8 373d 2fe1 023e
00000050: 8c92 5ebd 9fc9 eb3d e1b0 013e 3058 efbd
00000060: 835b d23d 5e8a 04bd e581 a93d e664 883d
00000070: 7fba bf3d 41bf 16be 0b2b 2d3e c859 3bbe
00000080: e1e9 27be ef50 253e 586e 30be b379 383e
00000090: 1749 93bd 8488 a43c df87 023e a773 0c3e
000000a0: 31e4 d2bd ff8b f139 8468 333e 9fdd debb
000000b0: 212e f1bd dd08 2dbe e633 88bd 0212 85bc
000000c0: c3fd eb3d 1f4c 02be c3b2 84bb 4388 003e
000000d0: 0c60 26be 813f a0bd 6fbe 1e3e 4e1f 6b3d
000000e0: 5ea8 42bd a31b 0ebe dfbb bd3d ee9c 02be
000000f0: 874f 39be e386 ddbd 0726 d13d bf46 373c
0.13427949 0.1327226 -0.10324114 -0.10540144 -0.0959839 -0.090402685 -0.11626073 -0.2100457
-0.0025038954 -0.01766437 -0.09823602 0.029301008 0.10746615 0.09197391 -0.030632777 -0.1309955
-0.0841155 -0.13702448 0.044884652 0.12781213 -0.054338977 0.115130655 0.1266513 -0.11686742
0.10271361 -0.03235852 0.082767285 0.0665987 0.09361743 -0.14721395 0.16910951 -0.18295968
-0.16397811 0.16144155 -0.17229593 0.18015175 -0.07191675 0.020084627 0.12747143 0.13715993
-0.1029743 0.00046071407 0.17520338 -0.0068013216 -0.117763765 -0.16897912 -0.06650524 -0.016243938
0.115230106 -0.1272435 -0.0040496304 0.1255198 -0.16247576 -0.078246124 0.15502332 0.0574029
-0.04752385 -0.1387773 0.09264349 -0.12755176 -0.18096744 -0.10816743 0.10212331 0.011186301

critic.2.weight f4 [64, 64]
00000000: bd03 303e 53cf af3c 7c5d 06bf f1b9 60be
00000010: fd31 2c3e 18ea f03d 2259 acbd 90c7 ca3d
00000020: 6d39 5e3f e5ba 313e 2cea 4a3e d616 133e
00000030: 8d44 8abe 2ab1 6ebd 9a92 21be 541e d3be
00000040: 48f5 353e 9484 4f3e 3cf2 a53e a1f1 37bd
00000050: 139d 163e 90fb 4bbe df51 773d c095 883a
00000060: 3ad7 cc3c eafd 0c3f 2cb6 c2be 98a8 293e
00000070: 1103 d63e 3277 5abe b705 e13d de42 f23c
00000080: d92b c23e 622e 0b3e 9faf 1dbe 96a4 b13e
00000090: 3704 efbd ce1c 7dbf 8c29 61be 8d19 8c3d
000000a0: 417e 6dbe c4f5 abbe 88ad 013e 1769 14be
000000b0: 559a 70be 5da1 14bb 09d0 1fbe 7ea0 a43c
000000c0: 9be0 53be c952 7bbc 9807 123c 05c0 f0bd
000000d0: 19b0 27b9 4e4e 4b3e a6f8 de3d 89c2 afbe
000000e0: 1fc5 62bd 0cdf 253d 7e8e 663b ec40 2b3e
000000f0: 7e00 dfbc 9cf0 b8be 433a 943d 4689 ac3e
00000100: a039 3f3d 5298 29be d18b 5cbe 011e 9e3d
00000110: 80f5 e23d 0f9f 15be 38d9 e33c 3815 a5bd
00000120: 68bd e33c 5622 833e 5682 6abe 9c7a 6c3e
00000130: 635b 72bb 8ee6 e93e 5291 3abe 3d1a 82be
00000140: 1066 e9bd 3a6c 02be e6a2 27be 2b2a ecbc
00000150: 90e2 bd3e 9fc7 ea3d d0c2 d03e ef8e f6be
00000160: 9f77 ae3d ef20 1abd bc1e bbbd 1827 233d
00000170: 9811 88bd 161e 3ebb 9849 203e d988 06bf
00000180: 45cc 203e 4a27 6a3e be23 b1be 1abf 883d
00000190: fad4 84be bbf0 75bc 1de2 a83d 537f 823e
000001a0: f07d 573e 2acd 3c3e b633 e63c 674f 993d
000001b0: b1c2 d1bd 3b66 88be eabb aebe 3aef 13be
000001c0: e423 173e 0f54 0fbc f4ed a23e acee a73e
000001d0: 0f8d ddbe 751e 16be 47db 313e e856 36be
000001e0: 0921 8fbd fc1a 8abe 9a30 923e b3a2 c1be
000001f0: bf6e 823d 936d 47be dced 533e 674a 423e
00000200: bbc4 083e 0947 23be 819f a73d 3712 53bd
00000210: 51ce 5d3e d936 103e a2df f13e 4572 483e
00000220: 0f2d 54bf b2ff 84be c878 c3be e8c4 19be
00000230: 78bf b0be eda0 96bd 4cf0 8d3d 6544 00be
00000240: 9d95 9d3e e4fd 273e 54b4 90be d9b5 c13c
00000250: 41d2 f73d 199e 99bd 718a 893e 83c8 073f
00000260: 756e aebe 150e 5fbf 5c1d 923b c5ab 433e
00000270: 87e7 f4bc c3b1 ecbd 2d50 b2bc 3d0b b43d
00000280: 983d ce3d 4760 803c 9a75 c33e d9a6 cb3d
00000290: 947b bdbd 0b50 5c3f f414 fb3d 7d98 0d3e
000002a0: 1b03 51be f045 e93d b9f5 df3d 30b5 033e
000002b0: ba7c 413e a467 c9bd c13d 8e3d afd0 c83d
000002c0: 7072 4b3e dd61 18bf d400 95be ccfa 68be
000002d0: fcdc 9bbe 0a0c 60be 482e c33c 52db 8d3e
000002e0: 1c77 b3bd 45c0 28be df19 6abe f969 0c3d
000002f0: aa9f fbbd f667 0d3e 42b7 ff3d e167 ffbe
00000300: 98df babe 5b9e 983d 7583 e23d 3e31 233e
00000310: 750c 88bc 87b8 b7bd d015 c93e 08f4 84be
00000320: 9a11 98bf e2a4 c0be 7139 c2bd 7597 1abe
00000330: bb8e 673d 2d2d 93bd db09 0b3f 7484 ea3d
00000340: 1a38 d83d d9d2 593d d5dc 1fbe 1380 033d
00000350: 30dd 58be e3c5 4fbe 77f4 cb39 1a8a 783d
00000360: 49b6 95bc e562 ecbe 781a 9bbe 3309 5abe
00000370: ef40 9ebe 7b66 22bb dfc7 153e f441 05be
00000380: 735c 053d 38ae 50be 685b aabe 7d0c 84be
00000390: b277 6bbe e19d 533e 8c5f a83d e922 903e
000003a0: 4966 f9be 06d3 b73e d20e e63e 5a9e 1a3e
000003b0: e215 afbd 83f9 393e 5c86 8fbd 2579 c03d
000003c0: 492c 85be bcfa d13d c9d2 4bbe 6cec 65be
000003d0: a487 58be 3dc8 46be d443 94bc 5018 f33c
000003e0: 37c0 713e 09a8 1e3c 5f15 15be d1fc 9d3e
000003f0: db72 0e3e 7f97 10be 96da a63d 2c2a a8be
0.17188926 0.021461165 -0.52486396 -0.21945931 0.16815944 0.117634 -0.08415438 0.09901345
0.86806375 0.17356451 0.19815892 0.1436418 -0.27005425 -0.058274426 -0.1577858 -0.41234076
0.17769349 0.20265418 0.32411373 -0.04490817 0.14708357 -0.19920182 0.060380813 0.0010420606
0.025004972 0.5507494 -0.3802961 0.1656822 0.41799214 -0.21334532 0.10987418 0.0295729
0.37924078 0.13591912 -0.15399025 0.34695882 -0.11670726 -0.9887208 -0.21988505 0.06840811
-0.23192693 -0.33585942 0.12663853 -0.14493214 -0.23496373 -0.0022679188 -0.15606703 0.02009606
-0.20691149 -0.015339562 0.008912943 -0.11755375 -0.00015991963 0.1985409 0.1088727 -0.34328106
-0.05536377 0.040495917 0.0035180147 0.16723984 -0.027221914 -0.3612107 0.07237675 0.3369848
0.046685815 -0.16562012 -0.2153771 0.077205665 0.11081982 -0.14611457 0.027813539 -0.08060688
0.027800277 0.25612134 -0.22901282 0.23093647 -0.003698074 0.45683712 -0.18219498 -0.25410643
-0.1139642 -0.12736598 -0.16370735 -0.028828701 0.37086916 0.11463856 0.4077363 -0.48155925
0.0851891 -0.037629064 -0.091367215 0.039832205 -0.06643981 -0.0029009632 0.15653074 -0.5255256
0.15702923 0.2286655 -0.34597582 0.06677075 -0.25943738 -0.015011008 0.08246253 0.25487766
0.21044135 0.18437639 0.02810083 0.07485848 -0.102422126 -0.26640496 -0.34127742 -0.14446726
0.14759785 -0.0087480685 0.3182217 0.3279928 -0.43271682 -0.14660056 0.17368804 -0.1780659
-0.06988723 -0.26973712 0.28552705 -0.37819442 0.063687794 -0.19475393 0.20696205 0.18973695
0.13356297 -0.15945067 0.0818472 -0.051531043 0.21660735 0.14083423 0.4724093 0.1957484
-0.82881254 -0.2597633 -0.38178086 -0.1501652 -0.3452108 -0.07354913 0.069305986 -0.1252609
0.30778208 0.16405445 -0.2826258 0.023646282 0.121006496 -0.07500858 0.26863435 0.5304033
-0.34068647 -0.8713086 0.0044590663 0.19108494 -0.029895557 -0.11557343 -0.021766746 0.08791206
0.10070342 0.015670909 0.3817566 0.09943933 -0.09252086 0.86059636 0.12259856 0.13827701
-0.20411341 0.11390293 0.1093554 0.12862086 0.18895236 -0.09834221 0.069453724 0.09805428
0.19867873 -0.5952433 -0.29102194 -0.22751921 -0.30442035 -0.21879593 0.02382578 0.2770639
-0.08762953 -0.16479595 -0.22861432 0.03428075 -0.12286313 0.13809189 0.124861255 -0.4988394
-0.36498713 0.07452079 0.1106023 0.15936753 -0.016607502 -0.08970743 0.39274454 -0.2596743
-1.1880372 -0.37625796 -0.09483612 -0.15096839 0.056532603 -0.07186351 0.54311913 0.11451045
0.105575755 0.053179596 -0.15611584 0.032104563 -0.21178126 -0.20290332 0.00038901318 0.06067858
-0.018275397 -0.461692 -0.30293632 -0.21292572 -0.30908915 -0.0024780321 0.14627026 -0.1301344
0.03255887 -0.20378959 -0.33272862 -0.25790778 -0.22994879 0.20665695 0.08221349 0.28151634
-0.4871085 0.35903186 0.44933182 0.15099469 -0.08549096 0.18161587 -0.07008049 0.093981065
-0.2601035 0.10252902 -0.19904627 -0.22453469 -0.21145493 -0.19412322 -0.01809875 0.029674679
0.2360848 0.009683617 -0.14558934 0.30856946 0.13911001 -0.14120291 0.08147161 -0.32844675

critic.2.bias f4 [64]
00000000: e6ae 433d 5873 2c3e 0c30 813e 2103 763d
00000010: a203 a23d d47f aebd a4f3 ee3d 60fd bcbd
00000020: e723 68bd 505c 2d3c 2c24 693d 6fbc 653c
00000030: 97b7 46bc c4bb 3c3e 439f 30be 7555 c0bd
00000040: b5f4 8c3b 4cae 97bc 2864 e13c a74a 26be
00000050: d833 033d d96f 473e 1679 44bd bef5 a73c
00000060: cc69 4fbe ad96 a2bd 4f99 4e3e 15ce 80bd
00000070: 8d43 513e f2fa e33d 9e01 0fbe 80b5 023e
00000080: e398 fa3d a6a3 aa3d 9b91 d03d 5242 073d
00000090: b88e 953d 36ef c6bc 0b58 3bbe 30bd 27be
000000a0: 1e40 41bd 5c11 ce3c 939a a7bb 15e4 a53c
000000b0: dd7b 5cbe 6767 74bd 3119 b7bd bdd0 153e
000000c0: e74a bc3a 17c2 333e 08c1 8a3c ca4f 9dbb
000000d0: cc9b 21be df1f e73c e984 073e 5f44 54bd
000000e0: 5c51 7dbe 87f0 02be a0fe fabd 056b d4bc
000000f0: 165d 12bd 8926 bc3d 8abc a4bd 8724 823d
0.047774218 0.16840875 0.2523197 0.060061578 0.07910849 -0.08520475 0.116675645 -0.09228015
-0.056674864 0.010581091 0.05691926 0.014021977 -0.012128732 0.18431002 -0.17248254 -0.093913
0.0043016323 -0.018515728 0.027513579 -0.16239415 0.032031864 0.1947626 -0.04796704 0.020502921
-0.20255202 -0.079388954 0.2017567 -0.06289307 0.20435925 0.111318484 -0.1396546 0.1276455
0.12236192 0.08331995 0.10184022 0.033022232 0.07302612 -0.024283987 -0.18295304 -0.16380763
-0.047180288 0.025154762 -0.005114862 0.02025036 -0.21531625 -0.059668925 -0.08940352 0.14630409
0.0014365584 0.17554508 0.016937748 -0.0048007714 -0.15782088 0.02821344 0.13234295 -0.051823016
-0.24738067 -0.12787066 -0.12255597 -0.025929937 -0.035733305 0.091870375 -0.080437735 0.06354623

critic.4.weight f4 [3, 64]
00000000: 71d3 123d 76dd 0d3e 451e c2bc cf98 c6bd
00000010: 16ee 21be 2141 d73d cab6 dd3c 74bb 113e
00000020: 5eb4 023e 1440 cfbd 7572 15be 7063 bbbe
00000030: f8f0 87bd 5216 4b3e 611e c8bd 2bb9 603e
00000040: 144e 4b3e a22c fbbd 694a 473c 8c01 3dbe
00000050: ea42 51bd d001 a33d 3564 3b3e efcc 0dbe
00000060: 5da2 babe 383a 1ebe 87d3 4cbe c554 8ebc
00000070: 56b6 25be 0c2b 253d cdf0 afbc f976 edbd
00000080: ea2d 2ebd b460 e53c 1661 95bd 3864 233e
00000090: 0b3e 1cbe 2fb8 b63e d923 84be 168a d43d
000000a0: e8da a1be 7b0a 893e 8557 313e 8cc6 a03d
000000b0: d5eb 3c3e 22ec 58be 404b 98be f179 a8bd
000000c0: d2f0 acbd a253 a5be cf45 c9bc 4912 443d
000000d0: f9cf 8d3e 3a91 da3d e71e 07be ffbc 303e
000000e0: 73b5 893e 5bac ee3d a847 9e3d 9a89 f13a
000000f0: 77f0 d13d 31d8 afbd 5506 093e 6ba3 423b
00000100: d644 1240 73ce 1740 2763 2cc0 59dc 22c0
00000110: be6c 1cc0 9ef9 2940 cf87 1540 83ad 2140
00000120: 9c2c 1f40 4380 1cc0 5565 23c0 da2f 22c0
00000130: a6d8 15c0 c3a4 0e40 6d31 11c0 90cb 1940
00000140: 97fb 1b40 3899 12c0 5bb8 1240 0e9d 13c0
00000150: 884b 16c0 76d8 0d40 5c1f 1e40 2a05 15c0
00000160: 5647 f9bf a619 0ec0 8341 30c0 9afe 1b40
00000170: e1f6 20c0 974d 0740 7821 08c0 f11e 1cc0
00000180: 6127 19c0 eace 0440 2b5c 21c0 e97c 21c0
00000190: 0579 17c0 9ed5 1e40 4d2f 13c0 3ad8 2040
000001a0: 0148 1ac0 23a4 1d40 729b 1140 9f19 1540
000001b0: 6924 1c40 9382 1340 48e0 13c0 1e5b 26c0
000001c0: 98fc 1ac0 2d7f 1ec0 1984 21c0 3539 0dc0
000001d0: 6e0d 2640 b6dc 2340 1d69 13c0 f7cb 1540
000001e0: 92ad 2440 c1e5 2140 c165 2040 f650 1dc0
000001f0: 2ec5 2640 9875 16c0 7223 1a40 80b5 1440
00000200: 4854 7840 c381 8040 ae63 6ec0 d01e 7ec0
00000210: 9c95 80c0 2d43 7c40 d096 7440 ac64 7740
00000220: c0de 6f40 e989 75c0 90bc 75c0 300a 71c0
00000230: 1040 71c0 9808 8040 63ee 74c0 f4f2 7940
00000240: 11e4 7540 0fd9 7ac0 e6eb 7740 9f54 82c0
00000250: 3556 78c0 0736 7440 7d42 7040 40aa 73c0
00000260: 1052 77c0 2939 73c0 8b15 79c0 a456 7640
00000270: cfa2 70c0 d3c5 7640 7c7b 78c0 67c1 79c0
00000280: f330 76c0 411c 8140 7588 79c0 7a50 72c0
00000290: 2110 76c0 a1ea 7c40 a551 7cc0 ff7b 8040
000002a0: cb7f 71c0 760c 7140 ff7b 7840 aca1 7740
000002b0: 909b 7540 9cff 7340 52a5 78c0 08a1 7dc0
000002c0: c6bd 6fc0 7bfd 74c0 3490 70c0 d02f 77c0
000002d0: 3739 7440 5cac 7540 2cc6 75c0 c586 7640
000002e0: a2e9 7c40 cfcc 7b40 922e 8240 8252 74c0
000002f0: b2c8 6c40 98cc 78c0 e685 7240 526d 7a40
0.035846177 0.13854012 -0.023696074 -0.09697115 -0.15813479 0.10510469 0.0270647 0.14231664
0.12764117 -0.10119644 -0.14594443 -0.36599302 -0.06637758 0.19832733 -0.09771419 0.21945636
0.19854003 -0.122643724 0.012163737 -0.18457621 -0.051089205 0.0795933 0.18299945 -0.13847707
-0.36451998 -0.15451896 -0.20002566 -0.017374406 -0.16182837 0.040324256 -0.021477127 -0.11594958
-0.042524256 0.028000213 -0.07293908 0.15956199 -0.15258043 0.35687396 -0.258086 0.103779
-0.31612325 0.26765808 0.17318542 0.0785037 0.18449338 -0.21183828 -0.2974491 -0.082263835
-0.0844437 -0.3229037 -0.02456942 0.047869 0.27697733 0.10672231 -0.13195382 0.17259596
0.26896247 0.11653968 0.07728511 0.0018427849 0.10250943 -0.08586157 0.13381322 0.0029699455
2.2854514 2.3719757 -2.6935518 -2.544699 -2.444137 2.6558604 2.336414 2.5262153
2.4870977 -2.4453285 -2.5530598 -2.5341706 -2.3413482 2.2288063 -2.2686417 2.4030495
2.4372308 -2.2906017 2.2925022 -2.3064609 -2.34836 2.2163367 2.470664 -2.3284402
-1.9474895 -2.2203155 -2.7539985 2.4374146 -2.5150683 2.1141107 -2.1270428 -2.4393885
-2.3930285 2.075129 -2.5212505 -2.523249 -2.3667614 2.4817882 -2.299762 2.5131974
-2.4106448 2.463143 2.2751126 2.3296888 2.4397223 2.3048446 -2.310564 -2.5993114
-2.421667 -2.4765122 -2.5236876 -2.2066166 2.5945697 2.5603461 -2.3032906 2.340574
2.573094 2.529648 2.5062106 -2.4580665 2.605785 -2.3509274 2.4084134 2.323578
3.8801441 4.01584 -3.724834 -3.9706306 -4.018263 3.9416 3.8217049 3.8655195
3.7479706 -3.8365424 -3.839634 -3.7662468 -3.769535 4.001049 -3.82705 3.9054537
3.842045 -3.9194982 3.873773 -4.0728297 -3.8802617 3.8157976 3.7540581 -3.8072662
-3.8643837 -3.8003638 -3.8919399 3.8490381 -3.759937 3.8558242 -3.882537 -3.9024293
-3.8467376 4.034699 -3.8989537 -3.786162 -3.8447344 3.9518206 -3.9424832 4.0151362
-3.7734249 3.7663856 3.8825681 3.8692427 3.8376198 3.8124762 -3.8850904 -3.9629536
-3.7459579 -3.8279712 -3.7588015 -3.8622932 3.815992 3.838645 -3.8402205 3.8519757
3.9517598 3.9343755 4.068185 -3.8175359 3.6997495 -3.8874874 3.7894225 3.9129224

critic.4.bias f4 [3]
00000000: d342 183e ba8a 0840 6ef0 6940
0.14869241 2.1334672 3.6552997

actor_mean.0.weight f4 [64, 351]
00000000: ebb6 90bd 751a 3bbd f94e 0a3d 80c6 053e
00000010: f289 403e a7bb cdbd 1535 183d d54f f4bc
00000020: 7bac f33a 99cc fe3c 0e61 d43c 8a59 eb3a
00000030: e9d9 6a3c de72 dd3c e2bb b6bd d56d 94bd
00000040: 6362 97bd f634 0ebd 60d4 bd3d c2b6 553d
00000050: 0a1c 5a3d f5fb 63bd e532 d93d 737a 623b
00000060: 8de4 41bd c486 16bc d733 20bc 8815 8ebd
00000070: d00e 3a3b 69aa 61bb 3e5b aa3d 36c1 3bbd
00000080: f049 a13c 6f68 5cbd 4973 2cbd e83d 953d
00000090: 89c5 363d 51ab 463e 984b 8cbd 430e aebd
000000a0: 7778 093e 9824 ad3d 8612 a83c 538c 043e
000000b0: e13c 903d 1de8 10bd b5b7 a0bd 091f 003d
000000c0: e5b4 dcbd c907 99bd e391 133d 3926 bf3d
000000d0: 1d5e 9abe b738 8c3d 77e0 b93a 0b85 943d
000000e0: c3cc 2f3d a2e5 a6bd 116a aa3d 61b4 1fbc
000000f0: 8a5d 633e bad1 063d 943e cfbc e11d 2abe
00000100: 0283 163c f01b 6bbe 74a1 40bc a526 fe3d
00000110: 1e66 343d 0948 24bd f6ec 48bb 4305 a7bd
00000120: 0e9c 22be aeca d5bd 2f7d 1bbd 937b 0d3b
00000130: 5958 6bbb ad21 ce3d d0c9 c6bc 9269 f23d
00000140: 55b8 9d3c 7481 013e 4006 953d c769 c13b
00000150: b747 2e3e 0766 89bc 4810 8f3d 28e1 e0bd
00000160: c66a 48be ee0a cfbd bbc1 71bc d440 febb
00000170: 4e30 bc3c 6e1b db3c 30c8 db3d af42 8fbc
00000180: 927f 553d 3eab 453c 685f 443e 9d9e 95bd
00000190: f370 2d3e b472 60bd e1aa 333d bdc7 4d3d
000001a0: 3e8e cfbd fdac 0abd 46b6 4b3d dcc2 acbc
000001b0: 2ef6 813d d076 5dbd c7af 173e 3a07 09be
000001c0: 2919 153d 7b69 b03b df99 1fbe 3150 e5bd
000001d0: 9d2c f3bd aeda 1fbd 0121 0b3e 64a3 64be
000001e0: 457c 4a3c 1cb4 d6bd cdf3 19bd 5fa3 723d
000001f0: ecac 703d 9da8 2abd 1760 29bd 31a4 893c
00000200: 88b9 bb3d adb4 f3bd 7293 013e 152a 7abe
00000210: e333 c9bc ffe1 39bd d0fa 57be 4fdb d4bc
00000220: 0435 75bd f66d f13d a353 c03d 55aa 8bbd
00000230: a0e6 873d 29aa ae3d 3ee7 fcbd 35c8 8f3d
00000240: 1ca9 593d 92bb 223d 9f0c ee3d 4728 103c
00000250: 9d0a f63c 369e d1bd 5bb0 0b3e 1567 f2bb
00000260: fb99 043e f99b c13d f7be 87bc 26fd 2839
00000270: 964f 8ebd f9a5 42bd cc54 883c 3dd5 01be
00000280: 235c f03d ec95 e8bd 790c 26bd 23bf d03b
00000290: 2eb7 953d eca9 41bc 4169 c33d 6722 30bc
000002a0: dce0 a4bb 5207 d8bd 05dc 9abd cf76 30be
000002b0: a988 473d 88e3 cd3d a34b c3bd 9d72 d13d
000002c0: 7fe8 5bbc afbc 11be 05dd 22bd fb40 503e
000002d0: 9489 ddbd 7973 5d3d 20c2 7fbb 714e 7d3d
000002e0: a25b 2c3e 48a3 50bd 0a37 16be 49a9 07be
000002f0: 849d a3bd e434 80bd 7e2c 053d b1eb ad3d
00000300: def0 59be 8178 3bbe e9e9 f33d f554 aa3d
00000310: 20e8 8a3d 4aae 153e 169b 98bd c5fc e8bc
00000320: fcb3 d63d 7c9b 243e 5a15 283e 5e82 263d
00000330: 3142 a2bc 22b7 043d cee3 d33d b045 013e
00000340: aba7 263e a256 12bd 6651 acbd be2b 2d3d
00000350: b4f2 cabb 5aee cbbc 6285 483c 6e53 efbd
00000360: 603d 823c 11b0 383d 71d8 623e fc4a a0bc
00000370: 94e9 ffbc ff5d b6bd 6075 553d 502a 8dbb
00000380: 7bac ec3d 738e 1c3c e904 df3c 2058 943c
00000390: 373b 7d3d 1f12 95bd c8e6 26be 3def b6bd
000003a0: 2f59 7c3d d01e 11bd 81d7 05be 290a 4dbe
000003b0: 248b debc 5103 1b3d 94fc 923d f598 5ebb
000003c0: 3998 e6bd 1c3b 403e e2cf ef3d a03b 603d
000003d0: 9852 24bd d02d ec3d 5712 89be 3d71 e93c
000003e0: 437a 89bd 8f4f ebbc b45a 4cbd d3fd 713d
000003f0: 7678 a33d 8ad4 eb3c b33f 59bd 645c a9bd
-0.07066139 -0.04567953 0.03376672 0.13064003 0.18802622 -0.100455575 0.037159998 -0.029823223
0.0018590832 0.03110342 0.025925186 0.0017955762 0.01433418 0.027032312 -0.089225546 -0.07247511
-0.07391813 -0.034718476 0.09269023 0.052176245 0.053249396 -0.055660207 0.106054105 0.0034557849
-0.047337104 -0.009187404 -0.009777985 -0.069377005 0.0028390177 -0.0034433848 0.08318184 -0.045838557
0.019688576 -0.053810533 -0.042102132 0.07287198 0.044621978 0.1940129 -0.06850356 -0.08498814
0.1342486 0.08454245 0.020516645 0.12944154 0.07042862 -0.03537761 -0.07847539 0.031279597
-0.107766904 -0.07472188 0.0360278 0.09333462 -0.30149928 0.06846755 0.0014181276 0.072519384
0.042919885 -0.08149268 0.08321012 -0.0097475955 0.22203651 0.032914855 -0.025298394 -0.1661296
0.009186508 -0.22959876 -0.011757243 0.124097146 0.0440427 -0.04010776 -0.0030658818 -0.081553005
-0.15879843 -0.10439049 -0.03796118 0.0021588549 -0.0035910814 0.10065017 -0.024266154 0.11836542
0.019252935 0.12647039 0.07276583 0.005902502 0.17019545 -0.016772283 0.06985527 -0.10980445
-0.19571981 -0.101095065 -0.014755662 -0.007759193 0.022972252 0.026746478 0.10731542 -0.017487852
0.052123614 0.012064753 0.1917702 -0.07305644 0.16937618 -0.05479689 0.043864135 0.050239313
-0.101345524 -0.03385638 0.049734376 -0.02108901 0.06345783 -0.054068387 0.14813147 -0.13381663
0.036400948 0.005383668 -0.15586041 -0.11196936 -0.11873744 -0.03902691 0.13586809 -0.22327954
0.01235873 -0.10483572 -0.037586022 0.059237834 0.05875866 -0.04166471 -0.041351404 0.016801925
0.09166247 -0.118996955 0.12653902 -0.24430116 -0.024560874 -0.045381542 -0.21091771 -0.02598348
-0.059865013 0.117885515 0.093909524 -0.06819598 0.06635785 0.08528549 -0.123487934 0.07020608
0.05313979 0.039729662 0.11623501 0.008798665 0.030034358 -0.102352545 0.13641493 -0.0073975422
0.12949364 0.094535775 -0.016570551 0.00016116034 -0.069487736 -0.047521565 0.016641997 -0.12679
0.11736324 -0.1135672 -0.04053924 0.0063704415 0.073103294 -0.011820298 0.0954156 -0.01075039
-0.005031688 -0.10548271 -0.07561497 -0.17232822 0.048714314 0.10053164 -0.09535911 0.10226939
-0.013422131 -0.14232133 -0.039761562 0.20337288 -0.108172566 0.0540652 -0.003902562 0.061842386
0.1683183 -0.050936967 -0.14669433 -0.13248171 -0.07989028 -0.06260088 0.032513134 0.0849222
-0.2128329 -0.18307687 0.11909849 0.083169855 0.067825556 0.14617267 -0.07451455 -0.028440842
0.10483548 0.16074938 0.16414395 0.04065167 -0.019806953 0.03240121 0.10346185 0.1262424
0.16274898 -0.03572715 -0.08413963 0.042278044 -0.0061934832 -0.024893928 0.012238832 -0.11685835
0.015898407 0.045089785 0.22152878 -0.019567005 -0.031239308 -0.08904647 0.05211389 -0.0043080226
0.115563355 0.009555447 0.027224021 0.018108428 0.06182405 -0.07278847 -0.16298974 -0.0893235
0.06160849 -0.035429776 -0.1307049 -0.20023407 -0.027165957 0.03784496 0.07177082 -0.0033965681
-0.11259503 0.18772548 0.117095724 0.054744363 -0.04011783 0.115321755 -0.26771805 0.028496379
-0.06712773 -0.02872446 -0.04989119 0.059079956 0.079819605 0.02878787 -0.053039264 -0.08269575

actor_mean.0.bias f4 [64]
00000000: 7b65 72bb 1217 933c 2526 943b dbd0 77bc
00000010: 8122 e4ba 285d d03c 84b5 fa3c f6ef 0abd
00000020: 39e4 153d 3799 80bc 3c3a 62bb cf2e a2bc
00000030: ce80 d13c f028 e9bc eefe 9d3c 6162 cfbc
00000040: b2c8 103d 75d9 66bc 3746 4abb a389 c83c
00000050: 6c1a 32bd 430f 5e3c d3a0 ff3c 2f37 323c
00000060: 3990 c9bb 7be9 4e3c 9cb2 3dbd 6c72 703c
00000070: 5261 44bb 3797 3ebc e1b1 b63c 5c5a 5d3c
00000080: ab2e 65bc d13e a5bc 8d22 7abc bcc1 8fbc
00000090: adf4 19bd e1ce 8bbc 8b66 3abd e684 b63c
000000a0: b172 69bd 012f 133d eb31 8d3d 04f5 77bb
000000b0: 4481 9dbc 797f ffbc c5f5 32bd ab32 073d
000000c0: 13f7 093d e39a 933b 204f 5938 59ba 2b3c
000000d0: 4472 873c 1493 35bc 6f7f b5bc c10f 363c
000000e0: 6bb0 43bc ca56 ff3c ab8e c93c f4ea f83b
000000f0: af1b 1fbc 862f 083d 96c0 a23b 1cd7 c6bc
-0.0036986757 0.017955337 0.0045211487 -0.015125479 -0.0017405302 0.025435045 0.030604132 -0.03392025
0.036594603 -0.015698059 -0.0034519574 -0.01979771 0.025574114 -0.028461903 0.019286599 -0.025315465
0.035347648 -0.014089932 -0.0030864605 0.024479693 -0.04348223 0.013553443 0.031204617 0.010877415
-0.006151226 0.012628908 -0.046312913 0.014675718 -0.0029965234 -0.011632732 0.022301616 0.013510313
-0.013988177 -0.020171555 -0.015267027 -0.017548434 -0.037586857 -0.017066421 -0.04550795 0.022280168
-0.056994144 0.0359335 0.06894287 -0.003783525 -0.019226678 -0.031188713 -0.043691415 0.033007305
0.033682894 0.004504548 5.1810523e-05 0.01048144 0.016533978 -0.011082429 -0.022155492 0.011112154
-0.011943917 0.031169314 0.024604162 0.007596368 -0.00971119 0.033248447 0.0049668057 -0.024272494

actor_mean.2.weight f4 [64, 64]
00000000: 3ec5 3fbe b1fc 12be c82e 52bd 759f 013e
00000010: 766b ccbc 6ff8 a8be 1deb 10be 498b 93bc
00000020: f6e6 0e3e 84a2 a13e 3977 a03d ec5c 893c
00000030: fd34 12be 0ecc 313d dbb9 4bbe b254 943e
00000040: 885a d4bd 20d1 99bc 759c 5dbe e525 4f3e
00000050: 75c2 8cbd b23d f63c f63b 70bd f561 143e
00000060: 7eb1 c4be b74c 073d 7b4e 8abe 8a4b 133e
00000070: 66e1 373d 7063 79be ba85 6b3b 85c0 c93d
00000080: 34fd 203e e1dd 8ebe dd0a a93e b98e 0ebe
00000090: 4b14 923e 6713 15bf 9ad9 1bbe aad7 cabe
000000a0: a5cc f8bd 97be 7abd 8acc b1be f7fa d0bc
000000b0: 52c2 57be 2fa4 1ebe e557 fbbc bde7 4f3d
000000c0: 974d 57bc f785 18be 74b5 773e fa11 f73e
000000d0: d5d3 e03d 59ee 21be 00db 0cbe baa1 a5bd
000000e0: aa84 b43d 621e e33d a137 ba3d d3dc d43b
000000f0: 8495 bebd 3c28 54bd c4b5 4fbe a08e f4bd
00000100: f1ed b8bd 4070 cd3e 65bc fbbd 7e2b 16bd
00000110: 7af7 a93d 5d50 91bc 25dc e13d e53f b13c
00000120: 4230 253e 60fb 72bd 9d7f ca3d 29c1 9e3e
00000130: 13ce bbbe 818f a03d 7d4a 4fbe 2cd0 c1be
00000140: 9711 243f bdd7 773e 4019 fabd 857d 923d
00000150: 9e08 d03c b452 0cbe f5f8 1f3c cd3e a6be
00000160: c10c 69be 6a0f 053d 23b8 acbd 0a2d 823d
00000170: 5dad 3fbe 5586 5abd e02c 2dbd 8f6f 24be
00000180: 8840 7e3e 2849 69be 2172 113e 1c92 b23b
00000190: a501 9fbc ccac 6d3e 569e 7f3e 7c8b 193d
000001a0: ac7f 10be 23b5 d7ba 7d04 7b3c df87 ff3d
000001b0: 4f79 acbd e040 88bc 6780 073e a21e c03d
000001c0: a791 12bd 4f7c 063d b823 033d eeec 0d3d
000001d0: 859e 3e3e 7b1c ecbc d0e9 55be f66d 873d
000001e0: b70d 7dbe c78b 873e 8d8f 5f3e 4fb7 09bf
000001f0: 55dc dd3d 6347 d1be 14d2 91bd e340 24be
00000200: 3dd0 53be a548 2abe 1d42 d3bd 1d5a 0b3c
00000210: d1d2 893d b6c3 c6bd 9c89 18be 53e5 bb3e
00000220: d1b3 2e3d 795a 2b3d f397 abbe 9f03 0bbd
00000230: bc1b 9bbe 1e6d 693d c17c 06bc 6e82 c0be
00000240: e4bf bbbd 3d18 3b3d 7947 5ebe 393a ac3e
00000250: 3ab0 a1be a9a1 c13d a2b6 f63c f840 ba3e
00000260: eda1 48be e007 6cbe e848 30be 055d 55bd
00000270: 502e 2d3e 9af0 20be 7b15 9ebe 9d6b 2b3e
00000280: 0a02 f63d 90eb 2b3e d6e5 92be df92 83be
00000290: 21e7 0f3e 0830 b8bd c634 ed3c 612a b1bc
000002a0: 82aa d4be 7c99 313d 9b95 7f3e ef35 ca3e
000002b0: de8e 81bd 6dec c8bb fece 3f3d 7734 e0be
000002c0: 641e 35be e783 283e 70c3 3dbe 8fe4 a93d
000002d0: 770b 6fbe 4cd1 193e 9a1e a63d 3443 76bb
000002e0: 3c4f 0abe 733c 69be d396 273d f7e1 3dbe
000002f0: 963d a0bd d8de b0be 201a 403e 8e7f a6bd
00000300: 5715 83bd 77bd c0bd 1bdf 25be e452 a4bd
00000310: bafd a43d 26a4 063f 797c d9bd f435 7f3e
00000320: f1ae 4dbe 6bf6 8e3d e782 1fbe 0350 98be
00000330: 31f7 8c3e 4f75 88be b82c 0fbe ab5d e33b
00000340: 69de 3b3e b00d 743d 6649 01bd eae6 a7ba
00000350: 79b1 4c3e 6ee8 32be 7c42 d3bc c8c1 fcbd
00000360: d8d4 3bbe 1e5f 653e c599 59be 73b4 093e
00000370: c28a 3a3e ee18 a5be 6710 0e3e d291 80be
00000380: b132 093e 2f06 803d 65fe 57be 9966 863e
00000390: 8c15 8fbc 57f3 4abe 06a0 fd3e 0260 18bd
000003a0: 95c5 863e 4cfa 80bd f873 65bd df17 87bd
000003b0: 0f80 3d3d 4702 93be 8deb 5f3e db3e 713d
000003c0: 06ad 35be c25d a23e 4cdd 8d3d 8582 2d3e
000003d0: 9c53 41be f2e6 e33d 8b7f e6bd 24b6 e5be
000003e0: 6d3d 95bd 6141 833d 2e25 54bd a5f8 14bd
000003f0: a49a 73bd ade1 eabd 5e8b c13d 76b8 98bd
-0.18727586 -0.14354207 -0.051314145 0.12658484 -0.024953585 -0.3300204 -0.14152189 -0.018010752
0.13955292 0.31569302 0.0783524 0.016767941 -0.14278026 0.043407492 -0.19895117 0.28970867
-0.1036883 -0.018776476 -0.21641715 0.202293 -0.06873027 0.030058715 -0.058650933 0.14490493
-0.38416666 0.033032145 -0.27013 0.14384285 0.04489269 -0.24354339 0.0035937862 0.09851173
0.1572159 -0.27903655 0.330161 -0.13921632 0.28531107 -0.5823273 -0.15219727 -0.39617664
-0.12148408 -0.061216917 -0.34726363 -0.025510294 -0.21070221 -0.15492319 -0.03068156 0.050758112
-0.013141057 -0.14894854 0.24190313 0.48255903 0.10977904 -0.15813579 -0.13755417 -0.080874875
0.08814366 0.110897794 0.090926416 0.006496051 -0.093058616 -0.051796183 -0.20284182 -0.11941266
-0.09029759 0.40124702 -0.12291793 -0.03666257 0.082991555 -0.017738516 0.11028317 0.021636913
0.1613169 -0.05932176 0.098876216 0.31006745 -0.3668066 0.07839871 -0.20243259 -0.37854135
0.6408934 0.24203391 -0.12211847 0.07152847 0.025394734 -0.13703424 0.009763946 -0.32469788
-0.22758771 0.032485403 -0.08433559 0.06356247 -0.18718477 -0.053350765 -0.042279124 -0.16058181
0.24829304 -0.22781813 0.14203693 0.0054495465 -0.019409964 0.23210448 0.24962744 0.03748654
-0.14111203 -0.0016457181 0.015320894 0.12477087 -0.08421575 -0.016632497 0.13232575 0.09380843
-0.035783436 0.032833394 0.032016486 0.034649782 0.18615158 -0.028822174 -0.20889974 0.0661277
-0.24712263 0.2647383 0.21832104 -0.5379533 0.108330406 -0.40874776 -0.07120147 -0.16040377
-0.20684905 -0.16629274 -0.103153445 0.008505371 0.06729663 -0.09705298 -0.14896244 0.36698398
0.042651955 0.04183433 -0.33514366 -0.033939 -0.30294597 0.056988828 -0.008208455 -0.3759951
-0.091674596 0.045677412 -0.21706952 0.3363817 -0.31579763 0.09454662 0.030116383 0.36377692
-0.1959302 -0.23049879 -0.17215312 -0.052090663 0.16912198 -0.15716782 -0.30875763 0.1674027
0.12012108 0.16789079 -0.28690976 -0.2569799 0.14053012 -0.08993536 0.028955828 -0.021626653
-0.41536337 0.043359265 0.24959414 0.39494273 -0.06326078 -0.0061317 0.046828263 -0.43790027
-0.17687374 0.16456567 -0.18531585 0.08295547 -0.23344217 0.15021247 0.081113055 -0.0037576677
-0.13506788 -0.22776966 0.04091532 -0.1854323 -0.078242466 -0.34545016 0.18759966 -0.08129798
-0.064005546 -0.094111376 -0.16198389 -0.08023623 0.08056207 0.5259422 -0.106194444 0.24922925
-0.20086266 0.06980594 -0.15577279 -0.29748544 0.27532342 -0.26652 -0.13981903 0.0069386563
0.18346561 0.059583366 -0.03156414 -0.0012809907 0.19989575 -0.17471477 -0.025788538 -0.12341648
-0.18342912 0.22399566 -0.21250065 0.13447742 0.18216994 -0.32245582 0.13873444 -0.25111252
0.13398243 0.062511794 -0.21093138 0.2625015 -0.017466329 -0.1981939 0.4953615 -0.037200935
0.26322618 -0.0629774 -0.0560188 -0.0659635 0.046264704 -0.28712675 0.21867199 0.058897834
-0.17741784 0.31712157 0.06926975 0.1694432 -0.1887955 0.11128034 -0.11254796 -0.44865525
-0.07287107 0.064089544 -0.05179327 -0.03636994 -0.05947365 -0.114688255 0.0945041 -0.07457058

actor_mean.2.bias f4 [64]
00000000: b232 6ebe 0ebd d6bd 5bc4 f3bd 31b6 25be
00000010: 9fd6 a03d 69a2 d93c d865 363d 8753 40bd
00000020: 22f4 9fbd f5a8 fbbd 9db5 273e 1e3b 893d
00000030: 4072 863c 8798 b13c c089 cbba 592f 903d
00000040: 51f3 9f3d e3a3 e1bd aca5 e7bd 19de 93bd
00000050: 91b1 073d b3fd 21be 1555 82bd d995 a83d
00000060: 580b e23d 1b5e dabd 0e91 0e3e a188 b23d
00000070: 54e6 bbbd b8dd 633d dbca af3d a824 073e
00000080: 9b5d 173d 0c5a dc3d 26dc 0abc b2bf ff39
00000090: a072 2fbe eb51 46be b48d 093d 9cf4 363e
000000a0: 7730 9f3d 3799 cf3c 027a 203e c2fb f9bc
000000b0: 4cb6 c13b d613 21be e399 953a d34f 7bbd
000000c0: 2cc4 1dbe 83d6 fdbd 508c 9fbd 7fcb d6bc
000000d0: c42a c73d 9830 1abe 396e a2bd a13c 0d3e
000000e0: ec84 aebd a82b 8b3d 105c 323e 7592 933d
000000f0: bbb9 06bc b90a 0d3e 49fd 253d c9be cfbc
-0.23261526 -0.10485278 -0.11902686 -0.16182782 0.07853436 0.026566701 0.04453072 -0.046954658
-0.078102365 -0.12288085 0.16377874 0.06700729 0.0164119 0.021679176 -0.0015528724 0.07040281
0.07810081 -0.11017587 -0.11310896 -0.07220096 0.033128325 -0.15819435 -0.06363884 0.08231706
0.1103732 -0.106624804 0.13922521 0.08717466 -0.09174791 0.05563137 0.085836135 0.13197577
0.036954504 0.107593626 -0.008475339 0.00048780214 -0.1713357 -0.19367187 0.033582404 0.17866749
0.07772916 0.025341613 0.15671542 -0.030515555 0.005911624 -0.15730223 0.001141366 -0.061355423
-0.15406865 -0.123944305 -0.07790434 -0.026220081 0.09724954 -0.150576 -0.079311796 0.1379266
-0.085214466 0.06795436 0.17417932 0.07205669 -0.0082229925 0.13773622 0.040524755 -0.025359528

actor_mean.4.weight f4 [17, 64]
00000000: 4a1b 2fbd 1dc1 9dbd 9a02 60b8 9e87 00bd
00000010: 499a 873c 2f68 6dbd 9aa4 a9bc b831 493d
00000020: 1a98 35bd 0c8b 51bc 5836 2f3e 8683 a5ba
00000030: ddc6 053d 3119 bfbc b0ba d0bc a4c5 22bd
00000040: bec9 153d c484 9bbd c9e1 993d a07e 143d
00000050: 274e 13bd 8e1e a73c f489 a7bc 6a76 733c
00000060: 48fe 87bc 30e0 b63d 6a09 af3d 9406 51bd
00000070: c66c 1a3c ebe3 143d ba1d 1e3d c3e0 d23d
00000080: 47fa f0bd f9ff dc3c 68cf b33c 52e6 35bd
00000090: 7b83 543e 76e6 b13b 1fda b93d bba2 14bc
000000a0: 752d 103d eb5f 5dbd 4707 5f3c 3267 013e
000000b0: 18b7 37bd 163e b23c 2614 e4bd 28ac 553e
000000c0: 8398 81bd cd01 5c3d ad89 623d 904d fd3d
000000d0: 490b 10bd 3d01 83bd 1cfc f53c 40d5 db3c
000000e0: d627 833d 5c3e a13d 3179 bbbd 8b4e 5bbd
000000f0: 17d4 5bbc fa12 b23d 6be3 31bd a8f0 e33c
00000100: 5ecc 873c af5f 723a b669 0e3d 7c8b 06bd
00000110: 01c8 60bc 0c92 103d 0a92 853c 9ef5 b0bc
00000120: 7053 163e 8cb0 4f3c b35a 003d 0f48 823c
00000130: 4faf e4bd 1ef9 cfbd fa19 343c 6c24 a8bd
00000140: 0dd5 65bd 3fce f7bb c175 d93c 2c64 09bd
00000150: 0f86 08bd c91f f5bd b41c 113d ab1c 6ebc
00000160: 074a 02be ba85 683c b767 b33c 12a2 d53c
00000170: 55ae 42bd 70a8 c03d 64c6 203e 1446 9ebc
00000180: e0f8 e2bd 06f0 19bd 5e5b 19be 9115 07be
00000190: 6f59 60bd 4267 c4ba f442 61bd d28e 3a3d
000001a0: 3cbb 573c 8e40 1c3d de78 0a3d df5c 9e3d
000001b0: 34bd 84bc d5d1 b43d 86bc 4f3d 6ed5 5cbd
000001c0: 6edb a6bc 7ba6 40bb 6603 d53a ce0c 9abc
000001d0: 716b febc d594 963d 10fb 84bc 6c8c f13c
000001e0: 18b2 7ebd 1daa 2e3c fdf0 ddbd d01d f9ba
000001f0: 7add 943d 0ff1 44bd 8b2f 0b3c 5bd6 b0bc
00000200: 7164 6a3c c13f 653d f365 83bd e05f 56bd
00000210: 8f29 a83d fe16 bd3d 3000 85bd a81e 6ebd
00000220: 632c 933d f1a3 fbbc 9fa7 fabc fdf2 1a3d
00000230: dfa8 023e a78e 07bd a59b dc3c 01ed 9cbd
00000240: b8f9 8b3d 204b e4bd 100a 9a3d 264f b6bd
00000250: 15ea 2c3d b795 49bd 6c46 c03d 599e 3bbd
00000260: 4b5f 823d b366 2a3d a2e6 863d 4048 103d
00000270: bec3 78bc f4e2 a93d b4e6 3e39 ce81 6fbd
00000280: 3341 423c bcc3 9bbd b6f5 073c 4954 193d
00000290: 648a 7e3d b66c 043c 99c0 353b ed56 033d
000002a0: 0db8 2cbd bd51 543d 3f6a bebc 2000 c1bd
000002b0: 507b 213c cb1e 26bd a520 6bbb 7473 49b9
000002c0: 3120 cbbc b60b d33b d14a 7a3d 5c04 f33c
000002d0: 2a40 00bd f2dc 11bd 9cb3 c8bc cdf1 95b9
000002e0: b08c d33d 743e 21bd 5749 cb3d fcff 1d3c
000002f0: 2653 923d 5056 a1bc 0fa9 89bd e768 b13d
00000300: c2ba 35be 594d 973d 49d9 12be 979b f7ba
00000310: f3be 4c3d 6402 40bd 92ba a83d f30e 5ebc
00000320: e06c 0cbe 84e7 48bd 654a 5ebd 15b4 9c3c
00000330: 35e8 053d bb50 b83c 9fe3 ffbd 9c34 913d
00000340: 629a 0cbe f355 d93d f82c 46bd 96c6 db3c
00000350: 87e4 edbc 8683 333d 6220 ee3c 6e4c b8bd
00000360: 014d 4abd 70ad 8e3c 38e4 f13d 3b98 16bc
00000370: 9cce 753d 551a 0f3d 3277 da3c b4d3 6bbc
00000380: 9f15 0cbd eb36 0c3d 7741 893b 9820 aa3d
00000390: 40e0 3c3d 0326 9fbd ffcd d23c 94f6 943c
000003a0: 2992 68bd 5946 02be c087 ac3c 1589 7c3c
000003b0: bc76 823c 0a7c 8bbc 257e 0d3d 7365 00bd
000003c0: 5647 583d 4c9e be3a 8578 853d 32d9 9b3d
000003d0: b03a 42bd 3830 03bd 3d63 783b 424b 0fbb
000003e0: 922a b7bc f387 813d 37a8 12bd 5c80 173d
000003f0: 7600 9a3d 9bc8 d1ba cfa3 febd ced7 033d
-0.042750634 -0.07702849 -5.3408185e-05 -0.031379335 0.016553061 -0.057960685 -0.020708371 0.04911968
-0.04433451 -0.012789499 0.17110574 -0.0012627698 0.032660354 -0.023327442 -0.025479645 -0.039739266
0.03656935 -0.075936824 0.07513768 0.03625357 -0.035963204 0.020400312 -0.020451523 0.014859775
-0.016600743 0.08929479 0.085467175 -0.051031664 0.009425348 0.036350172 0.03860257 0.10296776
-0.117664866 0.026977526 0.021949485 -0.044409104 0.20753281 0.0054290844 0.090748064 -0.009072001
0.0351996 -0.054046553 0.013612575 0.12637022 -0.044852346 0.02175812 -0.111366555 0.20866454
-0.063279174 0.053712655 0.05530708 0.123683095 -0.035167012 -0.063967206 0.030027442 0.026835084
0.064040825 0.07873222 -0.09153975 -0.0535417 -0.013417265 0.08695026 -0.043429773 0.027824715
0.016576942 0.00092458253 0.034768783 -0.032847866 -0.01371956 0.03529553 0.016304988 -0.021601494
0.14680266 0.012676369 0.031336498 0.0159035 -0.1116625 -0.10154937 0.010992521 -0.08210072
-0.056111384 -0.0075624282 0.026545407 -0.033542797 -0.033330973 -0.11968953 0.035427764 -0.014533202
-0.12723552 0.014192039 0.021900041 0.026078258 -0.047529537 0.09407127 0.1570068 -0.019320525
-0.110826254 -0.03758242 -0.1497626 -0.1319182 -0.05477279 -0.0014984387 -0.054995492 0.04554636
0.013167199 0.0381475 0.033806674 0.077325575 -0.0162035 0.08829085 0.0507169 -0.05391448
-0.020368304 -0.0029396105 0.0016251623 -0.018804934 -0.031057091 0.07352606 -0.016232997 0.029485904
-0.062181562 0.010660675 -0.108369805 -0.0019006077 0.07268806 -0.048081454 0.008495222 -0.021586588
0.014306174 0.055969004 -0.0641593 -0.052337527 0.08211052 0.09232901 -0.064941764 -0.058134705
0.071862005 -0.030717822 -0.030597506 0.037829388 0.12759732 -0.03309503 0.026929686 -0.076623924
0.068347394 -0.111471415 0.075214505 -0.08901815 0.042215426 -0.049215045 0.09388432 -0.04580531
0.06365832 0.041601848 0.065869585 0.035225153 -0.015183387 0.08295241 0.00018205756 -0.0584734
0.011856365 -0.07605693 0.008298328 0.037433896 0.0621437 0.008082559 0.0027733205 0.03206532
-0.042167712 0.051835764 -0.023244021 -0.09423852 0.00985606 -0.04055671 -0.0035877612 -0.00019211863
-0.024795623 0.006440605 0.061106507 0.029665165 -0.03131119 -0.0356111 -0.024499707 -0.0002859965
0.103295684 -0.0393662 0.09926098 0.009643551 0.071447656 -0.019694477 -0.067216985 0.08662587
-0.17747024 0.073878 -0.143407 -0.0018890974 0.04998679 -0.04687728 0.082387105 -0.013553369
-0.13713408 -0.049048916 -0.054270167 0.019128839 0.032692153 0.022499433 -0.12494587 0.070901126
-0.13730767 0.10612097 -0.04838273 0.026828092 -0.029039634 0.043826602 0.029068176 -0.08998953
-0.049389843 0.017416686 0.118111074 -0.009191568 0.06001149 0.03493722 0.026668165 -0.014393736
-0.034200307 0.03423206 0.004188712 0.08306998 0.0461123 -0.07770922 0.025732992 0.018183984
-0.056780014 -0.12722148 0.021060824 0.015413542 0.015925758 -0.01702692 0.03454413 -0.03134675
0.052802406 0.0014543026 0.06517128 0.07609786 -0.04741925 -0.032028407 0.0037900948 -0.0021864926
-0.022359166 0.063247584 -0.035804953 0.036987647 0.07519619 -0.001600522 -0.12433588 0.03218823

actor_mean.4.bias f4 [17]
00000000: 2192 053d 73a5 6bbc 8964 c1bc de37 033c
00000010: a429 3cbc 3777 ae3d 5cdf 7e3e 5c95 223a
00000020: 8d8c 9d3d e095 803d ba92 873e 2164 31bd
00000030: 7bf2 cfbc f010 9d3c a5f8 e73b 7950 d43c
00000040: 53ee 8e3c
0.032610063 -0.014382708 -0.02360751 0.008008925 -0.011484537 0.08518832 0.24889892 0.0006202066
0.076928236 0.062785864 0.2647913 -0.04330838 -0.025384178 0.019173115 0.0070792013 0.025917279
0.017447626

in_proj.weight f4 [32, 2]
00000000: 85d4 b93e 27d6 f03e bd62 193f f422 b33e
00000010: bf80 c8bd fc2b ed3e 7a2b 33bf 3cc6 16be
00000020: 55e7 8fbe 7129 d43e 5725 ca3c c5aa 2f3e
00000030: 4367 0ebf 684f 90be f326 d7be 9510 3c3f
00000040: c5d9 173e e1bb c2be 0295 d4be 8a01 193f
00000050: 5ea1 31bf e411 263f e4f0 b93e ec95 a03e
00000060: bb73 b2bd 4408 673e 539e 16bf 3e38 20bf
00000070: 3705 19bf 8626 aabe 4d72 64bb 7140 66bd
00000080: 9e9f 633d 783c 363f 0e97 073f b204 ca3e
00000090: 8220 27bf a5b3 8e3e 1b6a f9be 292b 8e3e
000000a0: 009f 95be 274b 44be b081 e7be 8240 173f
000000b0: 8cae b23d 5ae0 303f 003d 04bf 20ac 9cbe
000000c0: 8891 223f 0b5a da3e 4bae f63e d1d4 49bd
000000d0: 3188 9bbe e239 313f 48ce fbbe e600 7dbe
000000e0: 994e 933e a16e 213f a8a9 ad3e 988f 38bf
000000f0: b5f9 843e 1979 c83e 20a9 05bf 70e4 d63e
0.36294952 0.47038385 0.5991629 0.34987605 -0.09790181 0.4632262 -0.69988215 -0.14724058
-0.2810618 0.41437867 0.024676008 0.17154987 -0.55626315 -0.28185582 -0.42021903 0.734628
0.14829166 -0.38033965 -0.41519934 0.59767973 -0.6938685 0.6487105 0.36316597 0.3136438
-0.0871348 0.22561747 -0.58835334 -0.6258582 -0.5977358 -0.33232516 -0.0034858168 -0.0562138
0.055572145 0.7118602 0.52964866 0.39456707 -0.6528398 0.27871433 -0.48713765 0.27767304
-0.2922287 -0.19169293 -0.4521613 0.59082806 0.087246984 0.69092333 -0.5165558 -0.3060007
0.63503313 0.42646822 0.4817985 -0.049275223 -0.30377343 0.6922895 -0.49180818 -0.24707374
0.28770903 0.6305943 0.339185 -0.72094107 0.2597176 0.3915489 -0.5221119 0.4197116

in_proj.bias f4 [32]
00000000: 900c 99be 38f9 31bf c0c2 0b3f bdaf 573d
00000010: 1cbe 24bf caff debd 79fe e0be f51e 8d3e
00000020: 7835 29bf 2f00 043f 0275 093f 63fa 50be
00000030: 9e97 afbe 359e 163f 227c bfbd f1e9 b0be
00000040: d430 433d 1350 293f 57ae 2e3f f59a fd3c
00000050: ae63 063f a72b 703e cc46 2dbf d9a1 063f
00000060: fdf5 0e3f cd86 2b3f d236 c53e 6329 2c3f
00000070: ef69 e8be fb82 37bf 60ec 4dbe 6bfe ea3c
-0.29892397 -0.695209 0.5459404 0.05265783 -0.64352584 -0.10888632 -0.43944147 0.2756268
-0.6609721 0.5156278 0.53694165 -0.20408015 -0.34295362 0.58835155 -0.09349848 -0.34553483
0.047653988 0.6613781 0.6823477 0.030957678 0.5249585 0.23454152 -0.6768615 0.5259071
0.558441 0.67002565 0.38518387 0.6725065 -0.4539332 -0.71684235 -0.20109701 0.028685769
