saved_agents/humanoid_a.pth (torch, 223605 bytes, 12 tensors)

actor_logstd f4 [1, 17]
00000000: 2f44 eebc f281 383d a645 97bd 4613 af3c
00000010: b39b 243c 117d b9bd 6ecc 7cbd 8849 75bc
00000020: 5472 05bd 1ee6 62bd e571 5fbd ff0e 79bd
00000030: d6d3 f4bc dda9 46bc 5b92 653c deb5 cdbc
00000040: 9c8c a43c
-0.029085247 0.0450458 -0.07386331 0.021371495 0.010046887 -0.09057058 -0.061718397 -0.0149711445
-0.032579735 -0.055395238 -0.054551978 -0.060805317 -0.029886167 -0.0121254595 0.014011945 -0.025111135
0.020086579

critic.0.weight f4 [64, 351]
00000000: 090f 633e ca5c 883d 08d5 c7bd ad55 1abe
00000010: c700 b5bd 73bf c63a f59c fc3d d703 2d3d
00000020: 656e bc3c d65a fbbc b151 403e fefc 4e3e
00000030: 8fb7 b93d 9c9d 703d 7074 f63b 5ec5 863e
00000040: b204 48bd f96b bb3d 773c 8c3d 490c 83bc
00000050: 07bd 3cbe 8d79 203e 4fa4 12be f0cd 1b3d
00000060: 6ac1 9e3e 0c16 edbd fe15 e5bd b039 18be
00000070: 0ab7 1b3c 6295 943c 3a6a d63d 18ba 67bc
00000080: cee1 28bc f101 f4bc 2637 86bd 0df2 393d
00000090: f023 463d 3cfd f9bd e11c c03c 17dd 283e
000000a0: b9fe f03d 4d90 d2bd 6b5c 6f3c 6217 833d
000000b0: 3d2e b7bd 749b 313e 3cc7 323d d175 2dbf
000000c0: 76fa f4bd bc24 063e d39a aebe 9f96 08be
000000d0: a89c 9abb 5247 e33d fb92 4f3d 9bca f23d
000000e0: 8589 ab3d db18 c9be 42a7 6dbe 29b9 253e
000000f0: 3a2a 533c 4862 ed3c c2ba 1fba e159 123d
00000100: 9af5 44bd 784f 05bc 7f7d 6cbe e675 47be
00000110: d950 a9bd b937 21be 7562 9cbb 6b3d 8d3c
00000120: b2be aebc 3c46 8f3e e60d 4f3d dbdd 1bbd
00000130: e0e9 bb3d 7646 2dbe 959e 7dbe 69f8 38be
00000140: b859 8fbe 30f7 c0bd 1e87 0fbe 9471 98bd
00000150: 9e1d bf3d 51ed 673e 1157 b93d 3728 8abe
00000160: 7d1a 37be 6a7b 2dbc b9eb 1dbe 85b7 b1bd
00000170: 9ef7 c1bd 7fc8 d2bc e768 c7bd 1df9 a13e
00000180: 2cbd 013e 266b e5be a679 9d3c eb86 32bd
00000190: 74fc 39be f021 91bd 6c08 043d e787 24be
000001a0: 75d1 843c 2cf8 7e3c bced 863d ca07 d6bd
000001b0: ea64 a1bd a8d4 93bc 1f7f 623d 092b 5fbc
000001c0: c649 fcbc 5ddb b2bd 6256 7c3c 0bae a33e
000001d0: 9a4c f53d dc3b d9be 3116 c43d a4ec 153c
000001e0: 6a43 9e3d cdf3 3fbd a3b9 e13d 5938 1dbe
000001f0: 8c34 b6bc e7e8 743e 2034 ba3e 3e69 99be
00000200: 833e 2bbe 0e7f 8dbd 7221 103e 3adb 273c
00000210: 6aaa 263e 887b 94be 5fd0 aa3d 3274 be3d
00000220: 7cbb cb3d 2b94 e6bd 65aa ccbc 9aa5 a7bd
00000230: 7620 b43e 0a4d 6e3d 5ecf b5bd cb91 873e
00000240: 9dd4 fabc 7275 453e deb1 133d 392e 8fbc
00000250: 826a fa3d a3c7 b8be 6757 643e 296c 183d
00000260: 27e7 113c e745 5f3e c206 f83c af44 363e
00000270: 96e9 913d 96ae 6f3d e3ff 54bc e8a6 62bd
00000280: 0268 74be 1bf7 8e3e bb63 ad3d 39bb 383e
00000290: 1f9e f3bd ddd4 033e 7210 853e 83f4 f7bc
000002a0: cf30 9bbe 8087 f6be 5f70 8abe bee2 c93e
000002b0: 5092 b23d 6f19 813e 0142 28bd b66f 383d
000002c0: 5d86 22be 3fad f6bd c82b ed3d 6e27 74bc
000002d0: b70f 4f3e 1bbb 40be 6844 b73d b483 52be
000002e0: 626c c9bd 0fbe 84bd 21ba 323e a5e3 33be
000002f0: e4ec 09be 577b 6d3b e6d3 b3bd 9409 0bbe
00000300: e049 7f3e df97 e93b 64cb 1e3c 4064 59bd
00000310: 66ce 86ba d647 fabd bb53 74bd 41c7 f33d
00000320: e344 a63c 3036 033e 097b f13d 9a5b 643d
00000330: f690 d63d 0d92 20bc 329b cb3d 43d1 0ebc
00000340: caa1 133d 82e5 443e 7c7b 8ebb 3a6d dabd
00000350: b7e5 363d ca50 26bd 753d 43bd f23b a3bd
00000360: 09e7 363c a9c7 afbd a439 b63a 59d5 75bc
00000370: 540c 1abb b9ba 843c a964 883d fe4f f23c
00000380: d273 c4bd f28a 5abe 7381 f73c 0c27 febd
00000390: 8ccd 56bd 3e26 12bc cfcc 28be 33fa 053e
000003a0: 31ab a0bd cc40 2f3e ad81 203e dd77 28bd
000003b0: 565f 82bc 29a5 15be f7f7 9e3b ecfc e03d
000003c0: 77dd 0b3d 2edc bfbd 6c94 96bd 4b19 a0bd
000003d0: 9111 5c3d 1dc6 96bd 1de3 9c3c da6a e7bc
000003e0: 19f0 61bd 2897 4fbc 61de 94bd faa2 fb3c
000003f0: 5416 f73c 95ed 6b3d ae39 a63d 1adc 03bd
0.22173704 0.06658323 -0.09757429 -0.15071745 -0.08838039 0.0015163257 0.12334625 0.04223999
0.023001859 -0.030682962 0.18781163 0.20213696 0.09068214 0.058744058 0.0075212047 0.26322454
-0.048832603 0.091514535 0.0684747 -0.015997069 -0.18431483 0.15671368 -0.14320491 0.038038194
0.31006938 -0.11576471 -0.11185835 -0.14865756 0.009504089 0.018137638 0.1046948 -0.014143489
-0.010307742 -0.029786082 -0.065534875 0.045396853 0.048374116 -0.12206504 0.02345127 0.16490589
0.117673345 -0.102814294 0.0146094365 0.06400944 -0.08944366 0.17344457 0.043647036 -0.677579
-0.11961834 0.1309995 -0.34102497 -0.13338707 -0.004718382 0.11097588 0.05067728 0.1185505
0.08375839 -0.39276776 -0.23208335 0.16183914 0.012888486 0.028977528 -0.0006093198 0.035730246
-0.048085786 -0.008136623 -0.23094748 -0.19478568 -0.082673736 -0.15743913 -0.004772479 0.0172412
-0.021331165 0.27983272 0.050550364 -0.038053375 0.091754675 -0.1692141 -0.24767525 -0.18063511
-0.27998137 -0.09422147 -0.14016387 -0.07443538 0.09331821 0.22649123 0.0904981 -0.26983806
-0.17881198 -0.010588506 -0.15421952 -0.08677582 -0.09471057 -0.02573037 -0.097368054 0.3163537
0.1266982 -0.4480831 0.019223046 -0.0435857 -0.1816271 -0.07086551 0.032234594 -0.16067468
0.016213158 0.0155620985 0.06588313 -0.104507044 -0.07880576 -0.018045738 0.055297013 -0.0136211
-0.030796897 -0.087332465 0.015401455 0.31968722 0.11977501 -0.42428482 0.09574545 0.009150658
0.07727702 -0.046863366 0.110217355 -0.15353526 -0.022241853 0.2391697 0.36367893 -0.29963106
-0.16723065 -0.069089994 0.14075258 0.010245139 0.16275945 -0.29000497 0.08340525 0.09299506
0.09947869 -0.112587295 -0.024983594 -0.08185883 0.35181016 0.05817894 -0.08877443 0.2647842
-0.03061896 0.19283083 0.0360583 -0.017478095 0.12227346 -0.3608981 0.22298966 0.037212525
0.008905209 0.2180401 0.03027666 0.17799638 0.07124631 0.058516107 -0.013000461 -0.055334955
-0.23867801 0.27922902 0.08466288 0.1804017 -0.118953936 0.1287417 0.2598911 -0.03026796
-0.30310676 -0.48150253 -0.27038857 0.39430803 0.08719313 0.25214717 -0.04107857 0.04502841
-0.15871568 -0.12044763 0.11580616 -0.014901979 0.20220838 -0.18821375 0.08948594 -0.20558053
-0.098351255 -0.06481563 0.17453815 -0.17567308 -0.13469273 0.0036236846 -0.08780651 -0.13577873
0.24930525 0.0071287 0.009692047 -0.05307412 -0.00102849 -0.12220733 -0.059650164 0.11903239
0.02029652 0.1281364 0.11791045 0.05575142 0.10476868 -0.009800446 0.099417105 -0.008716884
0.036042966 0.19228175 -0.0043482166 -0.106653646 0.044652667 -0.04060439 -0.047666032 -0.07970418
0.0111634815 -0.08583004 0.0013902676 -0.015004479 -0.0023505883 0.016202318 0.066598244 0.029579159
-0.095924035 -0.21342066 0.030213093 -0.12409791 -0.05244212 -0.00892025 -0.16484378 0.13083725
-0.07845152 0.17114562 0.15674467 -0.041129936 -0.0159146 -0.14613785 0.004851337 0.10985741
0.034146752 -0.09368168 -0.07352528 -0.07817324 0.05372769 -0.07362006 0.019151265 -0.028249193
-0.055160616 -0.012670316 -0.07268978 0.030717362 0.030162014 0.057599623 0.0811647 -0.032192327

critic.0.bias f4 [64]
00000000: e1df 033d 53a9 f8bc 0641 6fbd f792 923c
00000010: 907c 203d 4ac2 f53c 4aed 8abd 2f6a 10be
00000020: 7ded cd3d 2873 82bd 3a16 00bd 92ea 6cbd
00000030: 8227 24bd 9410 073e c79e a6bd a99e 423c
00000040: dd8f c03d 737e 11bd 8d70 07bd af50 eb3c
00000050: 999c 0fbe 60af 9dbd ef0d c1bd f7e2 cc3d
00000060: 044d 2e3e e538 0cbe 4977 573d d027 ea3c
00000070: 9373 cbbd 43ad c73b 5835 733d 229f 11be
00000080: 3867 193d 245b e3bb a394 1abe 7c55 a33d
00000090: 9ee8 ed3d 16d3 c83d 303d f4bd 0968 84bd
000000a0: 451f 8c3d 3c26 abbc bc98 8b3d 12a6 27be
000000b0: e48a 61bc bd46 00be 4678 c1bc b7a8 8a3d
000000c0: 104f b23d fb99 8bbd a879 16bd ebee 9dbd
000000d0: 1a23 423d e3e7 61bd 86e4 efbc 9b36 87bd
000000e0: 7dec 05be a6ff 043d 912e b23d bf07 993c
000000f0: 645c d03d 075b 063d 4c86 793c 9325 8abc
0.03219593 -0.030354178 -0.05841162 0.017892344 0.039181292 0.02999987 -0.067835405 -0.14103006
0.10055063 -0.063696206 -0.031271197 -0.05784089 -0.04007674 0.13189918 -0.08135753 0.011878648
0.0940244 -0.035520982 -0.03306632 0.028724996 -0.14024581 -0.07699466 -0.09426486 0.100042276
0.17021567 -0.13693579 0.052603994 0.028583437 -0.099341534 0.0060936525 0.059377044 -0.1422086
0.037451953 -0.006938355 -0.15095763 0.07975289 0.11616634 0.098058864 -0.11925733 -0.06465156
0.06841902 -0.020892255 0.06816241 -0.16371945 -0.013766024 -0.12526985 -0.023616921 0.06770461
0.08706486 -0.06816479 -0.036737114 -0.077115856 0.047396757 -0.055152785 -0.029283773 -0.06602212
-0.13078494 0.032470368 0.08700288 0.018680451 0.10173872 0.032801654 0.015229773 -0.01686362

critic.2.weight f4 [64, 64]
00000000: 701d 223d 7a18 8d3e e21e fbbd 4ef4 9f3e
00000010: 0683 0bbd 6633 d6be 042d 8dbe f97a cfbe
00000020: eaf6 d03e ced1 1d3d 709e 4bbe 1dc7 75be
00000030: 6fce babe db54 21bc 93a0 76be b2a7 f4be
00000040: 04d1 45be 499a 91be 01c9 8aba 715c 39be
00000050: acc9 7dbe f41d e33c fd56 5cbd ffb3 e2bd
00000060: f8ae 05be 8def e6bd ce3d 71bd 8bb9 363e
00000070: 3d57 52bd cdbf 9e3e 0c1d cabe 8d2c 703e
00000080: 7447 aa3d df98 41be 9347 eebd 31b8 e13e
00000090: e290 953d f014 89bf 997b b23e 3533 98be
000000a0: 4012 0d3e 79d3 bcbe e353 9e3e 5ac5 733d
000000b0: 57e3 71be 89ce 2c3e e3cf 19be ff10 e23e
000000c0: bbb6 403e 2bf3 1ebe 1257 84bd 2d5b 4bbe
000000d0: a575 7f3e 9a47 ff3e 207c b5bd 898b 98be
000000e0: b8b0 9b3d 1991 633e aee8 563e 1193 e6be
000000f0: bcd9 d23b a06e 86bc 0b11 3f3c 962f 263e
00000100: 538c 903e eec8 b23e 38ae 293d 6aaf e73d
00000110: b832 b03e 93c3 c8bd db09 1e3e e644 12be
00000120: 8274 f83d 5615 c4be 80a7 6abe 89ea e3bd
00000130: beef 9ebe d42c 8b3e 5569 dcbd d591 b83d
00000140: 06f8 a1be 3180 75bc 60d5 90be b1fd 10be
00000150: ff6a 1c3e 720f 043e 600e c33d 5f2e 81be
00000160: dcbb 813e 455f 2bbe b529 a73e 3d53 13bf
00000170: 7597 2fbe c447 a5bd 7018 d7be dc46 903e
00000180: 0203 553e 41cd 403e ac61 a93e 76d7 6b3e
00000190: 6077 3a3d 6ae3 29bf 3342 123e 2f81 12bd
000001a0: bfde 92bf 915f e4bc a110 053e 5145 823e
000001b0: 9f35 81bd 8a5c b53e fe66 bdbe a058 503d
000001c0: a9a5 1f3e 5724 3bbe 5c83 f0bd 4cb2 89bd
000001d0: a09d 69bd 4054 043f a836 8fbd c767 febd
000001e0: 9954 933d 42f7 37be 3846 f33c 7b59 a9bd
000001f0: 2ec0 4a3e 0c6c 0a3e 3892 9a3d fc1c 893e
00000200: d97b 25bd 82d1 acbe 0bdb 5e3e 06d7 1a3d
00000210: 4362 403e 163d c13e eda0 1b3e 2ce7 2fbc
00000220: 8ec9 3d3d 07d4 433e c79f cb3e 19b8 9d3e
00000230: 2703 af3e f17b 833e 6e43 0d3d 8224 2d3e
00000240: 7694 cd3d 942c 853e 68d8 d33e aac4 363e
00000250: e72b 4a3e fb02 d43e 5eb6 c83d 3149 4d3d
00000260: 9f3d f8bd d726 c2bc 0a1e 6abd fb21 2c3e
00000270: 11a6 923e b62f 5fbe 4cb0 133f 4816 b4bd
00000280: e7ad 9c3d c58f b7be 4d24 74be ea0b bcb9
00000290: b51b 82bc 452b 203f 08a8 1fbd 309a b0bd
000002a0: 9a68 4a3f 739c 35be 82f3 30be 2084 ecbd
000002b0: 3557 973e 4fc4 5cbe a673 753d 6ed5 72be
000002c0: aaa0 7abd b531 2bbe 0395 983e 9186 163d
000002d0: a031 cfbc c876 13bf a42f 6c3e 88c9 f6bd
000002e0: 6875 7a3d 2974 ccbd 8c02 77be 7833 c73d
000002f0: 4a76 403d 615d f03d ef1d 08be 4eab 81be
00000300: 6856 2f3e b6f6 fb3e 1780 d6bd 255d 813e
00000310: 08c4 2e3e 503a 07be 1290 c0be 99f8 72bd
00000320: f2ed 863e c1bf ab3c 591b 06be a449 8ebe
00000330: 7c51 a6be 03ab baba 9ad7 67be bee2 14bd
00000340: ead6 09be 78da 7dbe ddb6 263e 97c5 30be
00000350: b5cb 38be e60e 6fbd 7c31 0ebd 0e08 8ebd
00000360: a877 90be e2c7 eabd 5c5f 123e 6df8 00bf
00000370: 460e 253e 0af0 783e ab70 fabe 2160 563e
00000380: 5c5b 353e 64f6 fc3d 1427 793d 3ba7 613e
00000390: eece 97bc 4f24 9bbf 8a61 eb3e 260e 313e
000003a0: 2fea 3dbf ce23 b1be a839 453e d0dd 383d
000003b0: f24a 70be a4d7 e43e 0f40 96be 205f b93e
000003c0: 5af8 583e e4ba b2be 6a34 b5bc 500a 4cbe
000003d0: ea19 97bd f1d6 a13e b813 00be 9c48 56bd
000003e0: 40e4 e53e 0426 4c3e f97e afbe 9771 32bd
000003f0: ba06 86bd fc98 bc3e 4ec0 a83e eaa7 093f
0.039578855 0.27557737 -0.1226175 0.31241077 -0.0340605 -0.4183609 -0.27573407 -0.40523508
0.4081338 0.038530163 -0.19884658 -0.24001737 -0.3648562 -0.009846891 -0.24084692 -0.4778419
-0.19318014 -0.28438023 -0.0010588468 -0.1810167 -0.24783963 0.027724244 -0.053793896 -0.11069488
-0.13055027 -0.112761594 -0.058896832 0.17844217 -0.05135273 0.31005707 -0.39475286 0.23454495
0.0831441 -0.18905972 -0.116347454 0.4408584 0.07303025 -1.0709515 0.34859923 -0.29726568
0.13776493 -0.3688009 0.30923375 0.05951438 -0.2362188 0.16875662 -0.15020709 0.44153592
0.18819706 -0.15522449 -0.0646192 -0.19859 0.24947222 0.49859315 -0.088615656 -0.29793957
0.07602066 0.22223319 0.20987198 -0.45034078 0.0064346474 -0.016410172 0.011661778 0.1622909
0.2823206 0.34918922 0.041425914 0.113127545 0.34413695 -0.09802928 0.15433447 -0.14284095
0.12131597 -0.38297528 -0.22915459 -0.111287184 -0.31042284 0.2718264 -0.10762278 0.0901219
-0.3163454 -0.0149841765 -0.28287792 -0.14159276 0.15275191 0.12896517 0.09524226 -0.2523069
0.25338638 -0.16735561 0.32649007 -0.57548887 -0.1714762 -0.08070329 -0.42010832 0.2817906
0.20801929 0.18828298 0.3308233 0.2303141 0.045524 -0.6636263 0.14283065 -0.03576773
-1.1474227 -0.0278776 0.12994625 0.2544351 -0.063090555 0.35422164 -0.3699264 0.05086577
0.15590538 -0.18275581 -0.11743805 -0.067234606 -0.05703509 0.51691055 -0.06992847 -0.12422138
0.0719387 -0.17965415 0.029696569 -0.0826902 0.19799873 0.13517779 0.0754742 0.26779926
-0.040401313 -0.33753592 0.21763246 0.03780272 0.18787484 0.37741917 0.15198107 -0.010736268
0.046334796 0.19123851 0.39770338 0.30804518 0.34182093 0.25680497 0.034488134 0.16908458
0.10038082 0.26010573 0.41376042 0.17848459 0.1974331 0.41408524 0.09800409 0.05011863
-0.12121128 -0.02370016 -0.057157554 0.16809838 0.28642324 -0.21795544 0.5769088 -0.08793312
0.07650357 -0.35851875 -0.23841973 -0.0003586703 -0.015882352 0.62566024 -0.038978606 -0.08623159
0.7906586 -0.17735462 -0.17280391 -0.11548638 0.2955872 -0.21559261 0.059924744 -0.2371423
-0.061188377 -0.1671818 0.29801187 0.036749426 -0.025292218 -0.5760312 0.23065048 -0.12050158
0.061147124 -0.09983093 -0.24122065 0.09726614 0.04698781 0.117365606 -0.13292669 -0.25326008
0.17122805 0.49211663 -0.1047365 0.25266376 0.17066967 -0.13205838 -0.37609917 -0.059319112
0.26353413 0.020965459 -0.1309637 -0.27790558 -0.32484043 -0.0014241639 -0.22640839 -0.03634905
-0.1346089 -0.2479037 0.16280694 -0.17262875 -0.18046458 -0.058363818 -0.03471516 -0.0693513
-0.2821629 -0.11463906 0.14294189 -0.5037907 0.16118726 0.24310318 -0.48914084 0.20935108
0.17710632 0.12351683 0.060828283 0.2203645 -0.018531289 -1.2120456 0.45972854 0.17290553
-0.7418546 -0.3459763 0.19260275 0.045133412 -0.2346609 0.4469577 -0.29345748 0.36205387
0.21188489 -0.3490821 -0.02211972 -0.19925809 -0.073779896 0.316093 -0.12507522 -0.05231534
0.44900703 0.19936377 -0.3427656 -0.04356536 -0.06544252 0.36835468 0.32959217 0.5377184

critic.2.bias f4 [64]
00000000: b63b d93d 9392 16bd 9e78 a1bc 0eac 1bbe
00000010: 7298 9a3c 5fa7 11be d636 0ebe 84ce 453e
00000020: aee4 223e 166a 89be 413f 5c3e a6b5 073e
00000030: ad34 213e 5a86 3c3c 02c1 673e 98ba a2bc
00000040: ed9d 07be 649b 853e e6ae 003e 1f69 45be
00000050: 3ae7 06bd 217d 7f3e 7f94 f9bd 69af f7bd
00000060: 318e c33d f11f 073e b694 e6bd ad3f a63d
00000070: 5969 f33d 4eb5 17be cdcc 3a3e 2aa9 fdbd
00000080: cf34 253d bf62 183b 2f02 4d3e 3903 26be
00000090: dafb 8fb9 520a 983e 6b35 333e a2ce f6bd
000000a0: 3f1c 0bbe d1c3 a4bc 0e47 3fbe c5d5 d03d
000000b0: b94f 85bd c799 83be e31e ef3d 12f1 0dbd
000000c0: 11ba 02be 5637 1fbe 5514 97be 887d cabd
000000d0: acbf 88bd 4128 013e 57b8 dd3d 9551 ddbd
000000e0: 7216 163d ca67 66bc 91cd 40bd 5d52 febd
000000f0: 90bf 513e e8ff 15be 43c1 b63d 7c33 333e
0.10607092 -0.036760878 -0.019710835 -0.15202352 0.01887152 -0.14224003 -0.13888106 0.1931706
0.15907547 -0.2683875 0.21508504 0.13252887 0.1574275 0.011506641 0.2263222 -0.019864365
-0.13243838 0.26095116 0.12566718 -0.19278382 -0.03293536 0.24950077 -0.121865265 -0.12094004
0.09548605 0.13195778 -0.11258833 0.08117614 0.11885328 -0.14815256 0.18242188 -0.12385781
0.040333565 0.0023252217 0.20020364 -0.16212167 -0.0002746273 0.29695374 0.17500846 -0.12051131
-0.13584994 -0.020112904 -0.18679449 0.10197023 -0.065093465 -0.2570326 0.11675813 -0.03465373
-0.12766291 -0.15548453 -0.295077 -0.098872244 -0.066771835 0.12613012 0.10826176 -0.10806576
0.0366425 -0.014062831 -0.047071043 -0.12418053 0.20483232 -0.14648402 0.089235805 0.17500108

critic.4.weight f4 [1, 64]
00000000: 8fc4 3640 fa96 3c40 a7fc 36c0 8bb7 4240
00000010: 081b 37c0 34c0 3ac0 1922 38c0 10bc 3740
00000020: 315f 34c0 e6e0 34c0 6d31 3a40 cbe1 3cc0
00000030: a02d 40c0 19c4 39c0 ecdf 4040 46c1 3740
00000040: b188 3c40 a143 3940 21a3 3740 c78b 40c0
00000050: 1b80 3bc0 f779 3c40 b117 4140 6446 3c40
00000060: 6f4a 3940 b91d 3640 938b 3940 094c 3540
00000070: 2c47 36c0 331a 4040 e711 3840 6148 4140
00000080: 60e9 49c0 ff49 3740 dad7 3840 1b3f 35c0
00000090: 046e 43c0 a3d6 3e40 608a 3b40 d04e 38c0
000000a0: 0fe2 3440 05c4 39c0 fbe0 3ec0 7aef 3540
000000b0: 0879 3cc0 9888 3ac0 4504 35c0 ed31 33c0
000000c0: 17a7 3a40 b361 3bc0 0045 36c0 019b 44c0
000000d0: 1425 3ec0 0853 4840 b1ff 38c0 1a4f 36c0
000000e0: f767 38c0 1c1d 38c0 adb4 35c0 0656 4540
000000f0: 5c09 3940 a02f 37c0 9dd9 3a40 1a3d 39c0
2.855747 2.9467149 -2.8591707 3.0424526 -2.8610249 -2.9179811 -2.8770812 2.8708534
-2.81831 -2.8262267 2.9092667 -2.9512813 -3.0027847 -2.9025939 3.013667 2.8711715
2.945843 2.8947527 2.8693316 -3.0085313 -2.929694 2.9449441 3.017071 2.9417963
2.895168 2.8455641 2.899144 2.8327658 -2.848094 3.001599 2.8760927 3.0200427
-3.154869 2.8638914 2.8881745 -2.8319767 -3.0535898 2.9818504 2.9303207 -2.8798103
2.8262975 -2.902589 -2.9824817 2.8427415 -2.9448872 -2.914587 -2.8283856 -2.7999222
2.9164484 -2.927838 -2.8479614 -3.0719607 -2.971013 3.1300678 -2.8906062 -2.848578
-2.8813455 -2.8767767 -2.8391526 3.0833755 2.8911963 -2.8622818 2.919532 -2.8943543

actor_mean.0.weight f4 [64, 351]
00000000: 9705 953c 8cd9 1abe b997 5d3d 1840 813d
00000010: 1d28 00be 934e 693d 235a 353e abc8 4a3e
00000020: 4d14 2b3d 2613 73bc 83f4 a6bd 1d0d eb3c
00000030: 7ddc 2b3e 1903 35bd e421 953d 158b 2f3d
00000040: a761 0f3d 1879 07bd 8fe7 d53d 2d1b 953c
00000050: d79a 02be 6cb4 35bd 6a86 b73c 1d0f 8dbb
00000060: e6f9 143e c64c 0ebe 1d62 8abd 5c88 233e
00000070: 846d a5bd 4d42 4d3d eaf2 503c f265 64bd
00000080: 7804 183d 1b7b 40be 61b2 e43d c209 0c3e
00000090: dba4 8ebd 469d b7bb 3c50 493e 1972 3d3b
000000a0: 8db1 6e3d 2147 40be 14b4 98bd 1cde a53d
000000b0: f6a6 c53c 521d 74bd fc19 1bbc 6883 6e3d
000000c0: dcd5 893d a514 98bd 833e 81bd ba06 9b3c
000000d0: 7343 4ebd 8d85 c93d 996f bb3c 8097 6c3d
000000e0: ed4a e4ba 94aa a93d 0925 ecbb a62c 713c
000000f0: d446 f93d eb16 c7bc ba5f ba3d 9cb5 093e
00000100: e079 4c3d aebf 31bd 8830 653d 911b 32bd
00000110: b348 1b3d f5df 603c f3a9 a3bc 025b 09be
00000120: 7a49 273c 8942 9fbd 9928 eb3c 969c 013e
00000130: 205a 123e 4c1d 2cbe 9bea 41be b857 2fbe
00000140: 5e90 373d 1d19 d53d 92de 853d 90e9 0f3e
00000150: 19d1 95bd d4cc ddbd ed82 fa3d 7613 1fbe
00000160: 4721 71be b63b 6a3c ce3b 743c 8329 b0bd
00000170: 1950 f0bc d54a 86bd 3f22 0bbe 6a3e a9bd
00000180: ab8e 903d cc86 0ebd ff4c 9cbd 569e 7e3d
00000190: a999 02be 038a 403d 316a 833d 7322 a73a
000001a0: e12e 43bd b044 67bc de0b 9d3d 7cc3 e0bd
000001b0: 3743 c53d b122 23be a9bd dd3d 4466 0dbd
000001c0: a801 87bd 7ec6 b9bc 6946 933d 4bf7 efbd
000001d0: f107 693d cdf8 f53d edaa 0e3d 4cf4 fab8
000001e0: dcba 1abc 0023 9e3d ead5 f53b 79fb 8c3d
000001f0: dad6 003d 61e0 663d e4c8 9a3d a426 cf3b
00000200: c926 483d 1a9c c63d 5eb9 98bd 15e0 323c
00000210: c33e e7bc fbbc 143b 0add 7c3b 5f74 d33d
00000220: e615 393e 4e04 29bd 785c 203d 2965 f8bc
00000230: 5ba7 87bd 2efe b5b9 89cb a93d a5ab 8cbd
00000240: e201 8fb8 5a86 163d 951d 313c 1a3b bf3d
00000250: 8507 fcbc 3561 4cbe d528 233d dd60 e8bc
00000260: 89c5 ab3c 7e8b 06be 8467 62bd 64a5 43bd
00000270: cffa bebb 3bee 8e3b 1828 513c 6801 4cbc
00000280: ba9d 0b3e d8d8 883d df8c 023d 336e 15bd
00000290: 3799 11be 1d24 113d 270e 42bd 33e3 de3d
000002a0: 1188 aebd 366f 3e3d e728 db3a b386 da3c
000002b0: 7e0b f1bc 730d b3bd 8195 17bc 78a9 9e3d
000002c0: 4d85 ca3c 12b3 04bc a8a2 b6bd f831 cdbd
000002d0: f3bb 1abd 738c 9d3d 11fe 673c 1b81 1a3d
000002e0: 1c2a 37bc 44b8 0d3e 49ad d0bd c4dd 423e
000002f0: f249 bf3d 5736 79bd fce7 a3bc 699c 723d
00000300: 80e0 ad3d de98 07bc 857c 5d3c eaa6 e1bd
00000310: b6bb 5e3d 9571 ddbd 8cee 1bbd 28b1 b83c
00000320: 1f1f b03c 6ded 5d3d 0a48 abbd 102b cfbc
00000330: ef65 113e ae7e afbd 4a33 8d3d 9139 8d3c
00000340: 70d7 d53d 594c 6f3d 2a56 9abd 3232 2dbe
00000350: 763a b53d 7e8e 543d c558 84bb 68f3 88bd
00000360: 6221 bdbc 14a8 fabc 4ec0 d4bd 5400 fb3c
00000370: 25cf db3d dc92 0f3d 57d1 0f3c 1b25 9bbd
00000380: cbef 463c 8fc2 1d3d 1c2d a23d 8570 103e
00000390: a7f4 953d e3a9 cdbd 18f9 85bd c1d6 953d
000003a0: 1947 d83b e8a4 10bc eb5e c8bd 52ac 093c
000003b0: 1178 a1bd 28bf 9f3c 25cd 8a3d bf8d a0bc
000003c0: f38b 253e d6ff 083d 5426 38bc 4647 053d
000003d0: c96d 853d 20fe b1bd 7b6f e4bc 9632 3c3b
000003e0: e243 8bbd 0ab6 e1bb 6efd ac3d a44f 25bc
000003f0: 117e e9bc 3f33 61bd 82bd 933d 7214 dc3d
0.018191142 -0.1512205 0.054099772 0.06311053 -0.12515302 0.0569597 0.17710166 0.19803111
0.041767407 -0.014836108 -0.08152106 0.028692776 0.16783328 -0.044192407 0.07281855 0.04285725
0.035005238 -0.03307447 0.10444557 0.018201435 -0.12754379 -0.044361517 0.02240296 -0.00430478
0.14548454 -0.13896474 -0.06756995 0.15969986 -0.08077529 0.050112057 0.012753228 -0.055761285
0.037113637 -0.18796961 0.111668356 0.13675597 -0.069650374 -0.0056034653 0.19659513 0.0028907119
0.058274794 -0.18777134 -0.07456222 0.080990046 0.024127465 -0.059598275 -0.009466644 0.058230788
0.067302436 -0.07425813 -0.06310751 0.018924106 -0.050357293 0.09839926 0.022880362 0.05776167
-0.0017417349 0.08284488 -0.0072065634 0.014720118 0.121717125 -0.02430292 0.0910029 0.13448185
0.049920917 -0.04339569 0.055954486 -0.04348332 0.03791113 0.0137252705 -0.019978499 -0.13413623
0.010210389 -0.077763624 0.028705882 0.12657389 0.14292192 -0.16808051 -0.18937151 -0.17123306
0.044815414 0.104051806 0.065365925 0.14053941 -0.07315273 -0.108300835 0.12232003 -0.15534768
-0.2354785 0.014296463 0.014906837 -0.08601668 -0.029335069 -0.06557242 -0.13587283 -0.08263858
0.07058462 -0.03479652 -0.07631873 0.06216272 -0.12753929 0.04700662 0.06416739 0.0012751356
-0.04765213 -0.0141154975 0.07668279 -0.10974786 0.09631961 -0.15931202 0.108271904 -0.034521356
-0.06592113 -0.022677656 0.07191164 -0.11717089 0.05689234 0.120103456 0.034830976 -0.00011966433
-0.009443965 0.077215195 0.007502307 0.06883902 0.0314549 0.05636633 0.07557848 0.006321745
0.048865113 0.09697743 -0.07457231 0.010917683 -0.02822817 0.002269565 0.0038583898 0.103249304
0.1807476 -0.04126387 0.039150685 -0.030321674 -0.066237174 -0.0003471239 0.082907744 -0.06868676
-6.819122e-05 0.03674922 0.010810276 0.093374446 -0.030765304 -0.19958957 0.039833862 -0.0283665
0.020968216 -0.1313915 -0.0552745 -0.04776515 -0.0058282386 0.0043618954 0.012765907 -0.012451507
0.13634387 0.06681985 0.031872626 -0.036482047 -0.14218603 0.03543483 -0.047376778 0.108831786
-0.08522046 0.046492778 0.0016720564 0.026675558 -0.029424425 -0.087427996 -0.009251953 0.07747167
0.024721766 -0.008099334 -0.08917743 -0.100192964 -0.0377769 0.07692804 0.014159695 0.03772078
-0.011179473 0.13839823 -0.101893015 0.1902991 0.09340276 -0.06084284 -0.02000808 0.059231196
0.084900856 -0.0082761925 0.013518457 -0.110181645 0.054378234 -0.1081268 -0.038069293 0.022545412
0.021499215 0.054181505 -0.0836335 -0.025289088 0.14199041 -0.08569084 0.06894548 0.017239364
0.10441482 0.05842242 -0.07535966 -0.16913679 0.08849041 0.051893704 -0.0040389025 -0.06687051
-0.023087207 -0.030597724 -0.10388242 0.030639805 0.10732869 0.035052165 0.008777938 -0.07575437
0.012142132 0.038515624 0.0791876 0.14105423 0.07322054 -0.10042169 -0.065416515 0.07316352
0.0066002724 -0.008828379 -0.09783729 0.008402901 -0.07884229 0.01950033 0.067774095 -0.01959884
0.16166668 0.03344711 -0.011239607 0.032538675 0.065150805 -0.086910486 -0.02788519 0.0028716675
-0.06800057 -0.006888156 0.084467754 -0.010089789 -0.028502496 -0.054980513 0.0721388 0.10746087

actor_mean.0.bias f4 [64]
00000000: 649d 22bb 20f2 c73c 337e 6c3c cf41 57bc
00000010: b955 aabc b309 a43c 3a1f edbb c1e6 ae3c
00000020: df55 973c aba2 f53c d778 ec39 25a7 d43c
00000030: 9893 8cbc 492e 0cbc 2e64 583c c1c0 8d3c
00000040: 0fdf 753b d35c c7bc e49d fb3c a7cc d8bb
00000050: a447 01bd 5dd3 6f3b b224 a0bc 2ace d03c
00000060: 04dd fe3b bbee 293c 9340 f73c 9f74 66bc
00000070: 0df3 90bc 8384 123d 8434 b039 3199 1ebc
00000080: a0bb e63c 8701 cf3c 2855 443c 9d1a 4e3d
00000090: 9883 f4bb 4a5d 803c 55ce f2bb 2887 c53b
000000a0: bbf5 b13c 5416 d1bc d718 04ba 0ca7 abbb
000000b0: 6a12 4a3c e294 1fbc c278 a4bc e1de a03c
000000c0: a497 72bd 0cd6 263b 6835 9cbc b72c 70bc
000000d0: 1107 c3bc 9b7b 83bb 2edc 3e3a c46f 9d3b
000000e0: 79a4 6abd 4c25 313d ff31 8dbc d151 163c
000000f0: ecdd 6d3d 3069 1ebd e00c d53c db23 38bc
-0.002481305 0.024407446 0.014434385 -0.013138249 -0.020792829 0.020024156 -0.0072363885 0.021350266
0.018473564 0.029984793 0.0004510346 0.025958607 -0.017160222 -0.008555957 0.013207478 0.017303826
0.0037516986 -0.024336254 0.030714937 -0.0066161933 -0.031562462 0.0036594488 -0.019548748 0.025488932
0.007777812 0.010371859 0.030182159 -0.014065891 -0.01769402 0.035770904 0.00033608463 -0.009680078
0.028165638 0.025269283 0.011983193 0.05031835 -0.0074619763 0.015669484 -0.0074098506 0.006028075
0.021723619 -0.025523342 -0.0005039102 -0.0052384194 0.012333492 -0.009740086 -0.020077113 0.019637527
-0.059226647 0.0025457172 -0.019068435 -0.014659098 -0.02380708 -0.0040125377 0.0007280734 0.0048045833
-0.05728576 0.04324846 -0.017235754 0.00917478 0.05807297 -0.038674533 0.026007116 -0.011239017

actor_mean.2.weight f4 [64, 64]
00000000: 1665 5e3c 0aa4 333e 3dc3 dcbb 5a25 48bd
00000010: 0d36 55be 5d16 9bbe df51 01bc 6e16 25be
00000020: 8be0 99bc 6a2c 5f3e cd14 ab3e db22 203e
00000030: c34a 3ebe 8d9c a9bd 32c7 cabe 2292 b53e
00000040: e1ac 9dbd 727f 673c 82b8 093e 6c46 4ebe
00000050: 3d8a 8c3e c977 213e 801d 44bd 3b2e b1bd
00000060: b3cb 083e 5dc8 893d ae51 5f3e 048d ad3e
00000070: a450 133e 15e1 32bd acda 62be 3169 163e
00000080: 6b21 f73d f0e9 6f3e 9cf0 013e 168c 0f3e
00000090: 34a2 6abe dcd7 c7bc fe15 9f3a 6c42 edbc
000000a0: 0097 78be ffb3 28bd 2deb 853e 26e5 b9be
000000b0: 464d b4be 1709 57be eb0d 373e 1ee7 72be
000000c0: 5ef9 843e 1da3 4bbd 40cc adbd c8af 2a3d
000000d0: 326e 923e c46d 683e fe86 08be 2b01 3abc
000000e0: 2d59 73bc 53bd 06be 7d02 923e 77e8 273e
000000f0: 8287 b53d be15 11be f123 013e 5a41 db3e
00000100: f3ae b23e e148 fab9 abb7 80be 9602 38bd
00000110: 0139 06bd 7a0e fc3c ee4f efbd 826c 7cbe
00000120: ff12 c4be 1f29 ee3e 12ea 6d3d 97a7 d03a
00000130: 5b43 a03e 20ca 013e 909f 81bd 8f8d c93e
00000140: 2242 d43d 51a0 bdbe a59e b8bd be64 253e
00000150: 7ce6 b8be bcbc 013e 22ca fb3d 824d 5abc
00000160: d755 263d 6509 49be b467 42bd 16b7 6bbd
00000170: 5852 37bd 41bd 953e a672 18bc a7e4 65bd
00000180: 302c 093e 6546 1abe 230f 31be 76d9 8e3d
00000190: 0a2b b83d 9a30 eebd 1df8 263e 15fb d2bd
000001a0: b224 d43c 5e2e 30bd 2fa0 a43d 7e84 4f3d
000001b0: 534f 0dbe 96a1 11be 11cc abbe 9e2a e63d
000001c0: ed14 ad3d 5731 b53d cd6a c2bc 6089 243e
000001d0: d478 c73d 0885 653e d449 d1be 22cc 0bbe
000001e0: e7b5 c7be deea 1b3e 9238 10be 71c9 aabe
000001f0: e934 613e 0d92 613d 8ce8 6e3e b418 dd3b
00000200: a0cc ccbd 6a54 d6bd 2002 ff3d 44ae af3e
00000210: b754 c0bd 21a0 db3e 30e4 783d 48e5 ce3d
00000220: 5f44 453e dfd6 afbd 4375 cf3d d9a9 b5be
00000230: 0fa1 1bbd 3f8f 803e d8b6 28be 0d57 693e
00000240: 2296 9bbd b055 c9be 8c64 903e d4f3 a1be
00000250: edc3 a6be acf2 003e bd89 f03d cd30 0bbd
00000260: 6965 113d 8464 34be ab51 4fbe 7a90 26bd
00000270: 218a ebbd 6946 a13d 0eef 823e c376 46be
00000280: 0c84 5cbe 0038 973e 0d39 563e c357 afbc
00000290: 3045 a33e 31a1 4c3e f9ec f8bd 32c5 7cbe
000002a0: a3eb c7bc 79b0 ce3d 62d5 883d c9e4 1d3e
000002b0: 7a28 a4bd c12d a8be 7a96 513d b718 24be
000002c0: e7e2 853b 961b 6d3e ae8e 9bbe 4c55 843d
000002d0: 5270 43be ebea afbd ac9a 043e d41a 65bc
000002e0: 5b9a 91bd da84 c33d f3da 81bb 85b8 5d3e
000002f0: 29dc 6fbd ccb8 fdbd d4bb aabe 0f00 603d
00000300: 58f9 1ebe 81fa 613d 9d63 8a3d c12c 953e
00000310: 9623 dbbd e2c9 c8bd 0dc9 863e 9ccc 37be
00000320: e5c3 f53e 8c8a aa3d 2053 febc cffa 453e
00000330: 38b8 933e d6b8 5cbe fdfb 7c3e 33ab 453e
00000340: ac3b cd3d ce54 6fbe 7a46 afbe a36f 87bd
00000350: 00f7 d6bc 7bbe e43e 4447 103e efd3 51bd
00000360: a649 df3d f154 ae3d f9ca 393e 5bab e23e
00000370: 9f20 9bbc 7ee5 3a3d d296 7f3d 545f 36bd
00000380: 9621 963e 5d75 6e3d e7fb d9bd 4073 9f3e
00000390: 6cee 943d ce45 493e fead 9dbd 66fe e1bc
000003a0: 5397 163e 851e 35be a2e4 57be e784 ae3e
000003b0: a103 0b3e c49d 7b3e 07b6 4b3e f17e 36be
000003c0: f126 61be 8e9d 9b3d 9d39 89bd c8f8 33be
000003d0: 113f 3b3b 3035 a53d 578d a0bd 275b f23d
000003e0: 04cd 3abe f55f 48be ea68 0abe a682 4b3e
000003f0: 381f f2ba 3f7b 68be 2486 1b3e 7e0f f6bc
0.013573905 0.17543045 -0.0067371414 -0.048863746 -0.208214 -0.302905 -0.007893055 -0.16121837
-0.018783828 0.21794286 0.33414307 0.15638296 -0.18583207 -0.08281813 -0.396051 0.35463053
-0.0769899 0.014129506 0.1344929 -0.20144051 0.27449217 0.1576835 -0.047879696 -0.08651396
0.13358955 0.067276694 0.21808502 0.3389665 0.1438623 -0.043671686 -0.22153729 0.14688565
0.12066921 0.23429084 0.12689441 0.14018282 -0.22913438 -0.024394922 0.0012137291 -0.028962336
-0.24276352 -0.041187283 0.26155987 -0.3630764 -0.35215205 -0.20999561 0.17876403 -0.23720977
0.25971502 -0.049716104 -0.08486223 0.041671544 0.28599697 0.22698122 -0.13332745 -0.0113528175
-0.014852804 -0.13158159 0.28517523 0.16397272 0.08863737 -0.1416845 0.12611367 0.42823297
0.348991 -0.00047738015 -0.25140128 -0.04492434 -0.032769207 0.030768622 -0.11685167 -0.24650767
-0.38295743 0.46515748 0.058084555 0.0015919086 0.31301388 0.12674761 -0.06329262 0.39365813
0.10364176 -0.37036374 -0.09014634 0.16151711 -0.36113346 0.12669653 0.12294413 -0.013324143
0.040609207 -0.1963249 -0.04746218 -0.05754765 -0.044756263 0.29245952 -0.009304678 -0.056126263
0.13395762 -0.15065916 -0.1729093 0.06975071 0.08992584 -0.11630364 0.16305585 -0.10301796
0.025896404 -0.04301297 0.08038365 0.050663464 -0.13799791 -0.14221796 -0.33554128 0.11238597
0.08451257 0.088473015 -0.023732567 0.1606803 0.09739843 0.22414029 -0.4087664 -0.13652089
-0.39005968 0.15226313 -0.1408408 -0.33356813 0.2199284 0.055070926 0.23330897 0.0067473296
-0.099999666 -0.104653195 0.12451577 0.34312642 -0.09391158 0.42895606 0.06076449 0.10102326
0.19264363 -0.08585905 0.10129788 -0.35481146 -0.037995394 0.25109288 -0.16476 0.22787113
-0.07596995 -0.39323187 0.2820171 -0.3163134 -0.32571355 0.12592572 0.117450215 -0.033982087
0.035497103 -0.17616469 -0.20245998 -0.040665127 -0.115009554 0.07874758 0.2557301 -0.19381242
-0.21534747 0.29534912 0.209202 -0.021404153 0.31888723 0.19983365 -0.12154574 -0.24684599
-0.024404353 0.10092253 0.066813245 0.15419306 -0.08015533 -0.32847407 0.051168896 -0.16025053
0.0040858868 0.23155054 -0.30382293 0.064615816 -0.19085816 -0.08589729 0.12949628 -0.013983447
-0.07109519 0.09546824 -0.0039628684 0.2165242 -0.05855957 -0.12388763 -0.33346426 0.054687556
-0.15524805 0.05517054 0.06757281 0.29135707 -0.10700147 -0.09804131 0.26325265 -0.17949146
0.48001018 0.08327207 -0.031045496 0.19333957 0.28851485 -0.21554884 0.24705501 0.19303589
0.10021147 -0.23372194 -0.34233457 -0.0661309 -0.026240826 0.44676575 0.14089686 -0.051227506
0.10902719 0.08512295 0.18143834 0.4427136 -0.018936453 0.045629017 0.062399693 -0.044524506
0.293225 0.058217395 -0.1064375 0.31142616 0.07272038 0.19655535 -0.07699202 -0.027587127
0.14706163 -0.17687424 -0.2108331 0.3408577 0.13575603 0.24571902 0.19893657 -0.17821862
-0.21987511 0.075984105 -0.06700442 -0.17575371 0.0028571526 0.08066785 -0.078394584 0.11833792
-0.1824227 -0.19567855 -0.13516584 0.19874057 -0.0018472439 -0.22703265 0.1518789 -0.030036684

actor_mean.2.bias f4 [64]
00000000: 02b0 9cbd 9f0c 003d fa68 adbc b530 ccbd
00000010: 13b5 703d 576b 6b3c 2d42 aabd 1e93 cf3c
00000020: 2d6a 113e 280e d43c a0a9 85bd 66cc c6bc
00000030: 4652 503c 60f4 29bd f4cf 11be b2fb c3bd
00000040: 2d65 34be 06bc 0a3d dbc5 893c 6810 e8bd
00000050: 4cb6 843d 778b c93d a298 2aba 94d5 f23d
00000060: 8479 de3c 4fa2 853d ec6e bfbc 6d8c 933d
00000070: 349b e5bc c910 f5bc 4258 173c fdf6 74bc
00000080: 2c1a 3d3d 809d 6e3d d61c 913d 555f 823d
00000090: e309 143d ffd4 d83d 908e 133c 8a7d a43d
000000a0: c9ab cabd ea5d ed3c 18a4 943d f420 223d
000000b0: 696f 08be 23b1 5a3d 52e2 b83d d537 303d
000000c0: c5bd 5dbc ffb5 0c3e d004 89bb d7db dfbc
000000d0: 00af 76bd 39ef 0f3d 1df5 483d 5d5e 04be
000000e0: 913e 953d 52ca 2f3d 9923 5b3c b4a3 983c
000000f0: ad71 afbd 1570 503d b0af 803c 6102 f73d
-0.07650758 0.031262036 -0.02116822 -0.09970228 0.058766436 0.0143688535 -0.08313403 0.025338706
0.14200659 0.025885656 -0.06526494 -0.024267387 0.012714928 -0.04149282 -0.14239484 -0.095694914
-0.1761672 0.03387072 0.016817978 -0.11331254 0.06480083 0.09841054 -0.00065077294 0.11857143
0.027157553 0.065250985 -0.023368321 0.072045185 -0.028028108 -0.02991523 0.009237351 -0.014951465
0.046167538 0.058255672 0.07085578 0.063658394 0.03614224 0.10587501 0.0090061575 0.08031757
-0.09896047 0.028975446 0.07257861 0.039582208 -0.1332375 0.053391587 0.09027542 0.043021996
-0.013534014 0.13741301 -0.004181482 -0.027326507 -0.060225487 0.03514025 0.049061883 -0.12926622
0.07287324 0.042917557 0.013375186 0.018632747 -0.08566604 0.05088814 0.015708774 0.120610006

actor_mean.4.weight f4 [17, 64]
00000000: c6f9 a33d 26f0 793c 71e9 36bd 6a18 b33d
00000010: 6699 a93d b847 7e3b 93f4 d1bd 3df6 0cbe
00000020: a93b 573d a407 b7bd b541 6c3b 025f 673a
00000030: d143 c53d 5bc9 793d fd0c fa3b 6562 52bd
00000040: 0559 86bd 63db f1bc 127b a43c f407 773b
00000050: a5cd c73d bfdc a8bd 7f65 ae3c 8524 81bd
00000060: fb3d bdbc b0ff a53d 4dce bf3d c2e7 99bc
00000070: b2d5 fa3c 3544 c23c 877a 663d 7a34 98bc
00000080: a032 1e3d af3a d13d 05eb a2bd 86df 9b3d
00000090: 4998 95bc 62fa 8a3c 3f50 523d a471 94bd
000000a0: f76c ccbc 6a1b 4e3d ec3b e6bd adcd 88bd
000000b0: ccc4 17bd 3029 033d 823d dd3c 79ad 093d
000000c0: eab3 81bc c523 41bc 73b1 8c3c e900 763b
000000d0: 48f3 f53c c2ac 85bc 1679 a43d b1b0 523d
000000e0: 1f96 003d 65f4 7cbc a43d 483c 79b4 173d
000000f0: d962 ebba 69af 2a3c cd18 e53a fc6c 69bd
00000100: 3765 043e 5858 cc3d cd73 06bd e233 ae3d
00000110: e092 b1bd 7358 a83c 2f26 233d 36f5 c03d
00000120: 4ec5 b63c ae13 98bd 79fd 12bd ad8c 3e3c
00000130: fb23 163d 3ff7 9b3d 3422 2f3d 9499 0d3d
00000140: 1007 8dbd 0362 36bd 11f1 ecbc 5c1e 9cbc
00000150: 5b20 90bb 12b8 ee3c defc 35bd 5e52 a83d
00000160: e20d 92bd f7b5 9a3b 12ab a03d 0ab0 82bc
00000170: 75d8 afbd 79e2 8f3c de61 a73b 6872 b23c
00000180: 098f 1dbc 3d6b 833c 381e e23c 5c4b 4abd
00000190: dc84 5f3d 5941 13bd 89bc 4dbc 4522 e43b
000001a0: 7f5c 84bc 16c4 2dba 2ad4 cabc 1456 ab3c
000001b0: 4cf2 47bb e4b3 c03c 5a68 0a3d b1ce 573d
000001c0: 3834 63bc 2132 613d 5927 93bd 8b97 813b
000001d0: 71d2 60bd d60b d8bc d668 873d 956d f43c
000001e0: b719 58bd 67b0 8e3c 7bac 423a a9be 7d3d
000001f0: 6699 3dbd ab30 ef3c f604 563b e757 95bc
00000200: 300f 693d 99a4 8cbc 2b54 213d af7f 9f3d
00000210: 8df0 b0bd 3ac4 813d e338 43bd e610 923d
00000220: e780 88bd a742 81bd 5925 b3bb 94f5 433c
00000230: 9885 a23d 3efe dabc 97d6 c13c f94c 693d
00000240: d0f9 19bc 4323 84bd d321 91bd 97ee 29bd
00000250: c8a4 213d 1e67 8b3d fbbb 7c3d e295 cf3d
00000260: 6a2a c2bc 09e5 46bd 261f 0abd f667 8d3c
00000270: 7ce7 6dbc 2dc0 80bc 908c 673c f635 233d
00000280: aafa c63d 1abb 413d 0154 8b3c 38ed 8cbd
00000290: d764 d2bd 9650 253d fe02 cf3d 457e af3c
000002a0: e5f4 a3bc c557 233d d1fc 1b3d eeb2 513d
000002b0: ae34 23bd 9ffb 9b3d 1fd9 b039 916b cbbc
000002c0: 5034 eebd 5378 493d c6c0 63bd 2019 1c3d
000002d0: 7f48 96bc 1617 bb3c 5b63 f8bb 6bca 4d3c
000002e0: f1b0 f3bd f8b9 ddbc 8c4e c23c 9a94 4d3d
000002f0: f7ff 993d 1d52 a6bc bb5d 103d 6167 d7bb
00000300: ca9d 02be 3f26 3d38 6e87 9a3d 3a0e c73c
00000310: e788 c8ba 7975 a8bc 7c61 c5bc d904 c23d
00000320: 1a9a e6bd 82bc 673b 12ea dd3d 7abb c3bc
00000330: 6ce4 88bd f9da 6a3d 5819 983b 4f94 513b
00000340: 7fd9 b5bc 6e35 6a3d ccfc 553c a54d 7bbd
00000350: 6347 923d d4be dd3a c566 97bd 8d6d 04bd
00000360: 3c86 6fbd fead cdbc 55ef 493d f0e6 1b3d
00000370: a5c5 61bd 7e86 8bbd 7960 8d3b 237b d93c
00000380: a2b0 9abc 5cc9 533c b87f 3cbd 3b8e b93d
00000390: c6f1 a93c 849b e83d 4f69 afbb 884c 85bd
000003a0: b8e9 243d ad99 fabb a552 99bd af83 a8bc
000003b0: f0a6 a13d 2090 9ebd d1dd 633c ff09 c23d
000003c0: 4bed 6e3d a28a 873c 7e59 32bc fa31 3a3c
000003d0: 80e5 1c3d affb c83d d983 ac3d e214 52bd
000003e0: 2eab 513d a78b 57bd ab2b e4bd 2534 7539
000003f0: ba1d 8cbc 7662 56bd 7e73 42bd 0fb1 a1bc
0.08006625 0.01525501 -0.04465622 0.08744891 0.082812116 0.0038800072 -0.10251727 -0.13765807
0.05254713 -0.08937004 0.0036049907 0.0008826108 0.096320756 0.060983043 0.007630943 -0.051363368
-0.06559948 -0.029523557 0.020078216 0.003769395 0.097560205 -0.08245229 0.021288631 -0.06305794
-0.023100844 0.08105409 0.093655206 -0.018787269 0.030619476 0.023714164 0.056269195 -0.01857971
0.0386225 0.10216271 -0.07954983 0.07610993 -0.018261092 0.016965095 0.05134606 -0.07248238
-0.024954302 0.050319113 -0.11241898 -0.066798545 -0.037052915 0.0320217 0.027006868 0.033612702
-0.01583286 -0.011788313 0.017174458 0.0037537164 0.030023232 -0.016317729 0.08030908 0.051438037
0.031393167 -0.015439128 0.0122217275 0.037037347 -0.0017958536 0.010417798 0.0017478705 -0.0569887
0.12929235 0.09977788 -0.03282528 0.085059896 -0.08670592 0.020549988 0.039831337 0.0942177
0.02231088 -0.074256286 -0.03588626 0.011630219 0.036655407 0.07615518 0.042757228 0.03457029
-0.06886113 -0.044527065 -0.028923543 -0.019057445 -0.0043983883 0.029140506 -0.044430606 0.08218835
-0.07131554 0.004721399 0.07845129 -0.015953083 -0.08586208 0.017564045 0.005108102 0.021783069
-0.009616622 0.016042346 0.0276023 -0.049388275 0.054570064 -0.035950992 -0.012557157 0.006962093
-0.016157387 -0.00066286454 -0.02475937 0.020915069 -0.003050941 0.023523279 0.033790924 0.05268735
-0.01386743 0.054979447 -0.07185239 0.003954833 -0.054888193 -0.026372831 0.06611793 0.029837409
-0.0527589 0.0174181 0.0007426214 0.061949406 -0.04628887 0.029198011 0.0032656766 -0.018230392
0.05689925 -0.01716833 0.03938691 0.077880256 -0.086396314 0.06336255 -0.047661673 0.07132129
-0.06665211 -0.06311541 -0.0054670987 0.011960406 0.07935637 -0.02673256 0.023661895 0.056958172
-0.009397939 -0.06452038 -0.070865296 -0.041487303 0.03946379 0.068067774 0.06170271 0.1013601
-0.023701865 -0.04855827 -0.03372111 0.017261487 -0.014520522 -0.015716637 0.014132634 0.039846383
0.09715779 0.047297575 0.01700783 -0.068811834 -0.1027314 0.040360056 0.101079926 0.021422515
-0.020014236 0.039878625 0.0380829 0.05119603 -0.03984516 0.07616352 0.00033731104 -0.024831565
-0.116310716 0.049187016 -0.055603765 0.0381099 -0.018345116 0.022838157 -0.0075802035 0.012560467
-0.11898983 -0.027066216 0.023719095 0.050190546 0.075195245 -0.020302827 0.03524564 -0.006573603
-0.12755504 4.509673e-05 0.075453624 0.024298776 -0.0015299589 -0.020563828 -0.024094336 0.09473581
-0.11259861 0.0035360162 0.10835661 -0.023893107 -0.06684193 0.057337735 0.004641693 0.0031979268
-0.022198437 0.05717986 0.01306076 -0.061353344 0.07142522 0.0016917833 -0.073926486 -0.03233104
-0.058477625 -0.02510738 0.04930051 0.038062036 -0.05512013 -0.06812762 0.004314479 0.026547974
-0.018883053 0.012926426 -0.04602024 0.090603314 0.02074517 0.11357787 -0.00535313 -0.06508738
0.040261954 -0.007647714 -0.07486466 -0.020570604 0.07893169 -0.077423334 0.013907866 0.09474563
0.05833177 0.016545597 -0.010885594 0.011364454 0.038304806 0.0981363 0.084235854 -0.051289447
0.05118864 -0.052623417 -0.111411415 0.00023384446 -0.017104018 -0.052339993 -0.047473423 -0.019737748

actor_mean.4.bias f4 [17]
00000000: f57a 833d ae8e 1a3d 1214 b83a 9171 573c
00000010: 46bc 93bd 097e 033d 1076 363e 7eec a03c
00000020: 033d 6e3d c6cc df3d 5018 643e fb3a 32bc
00000030: 1d66 d3bc b7da 42b9 9a6d aabc 2b05 623d
00000040: e868 62bc
0.064199366 0.037733726 0.0014044067 0.013149635 -0.07213645 0.03210262 0.17818475 0.019644018
0.058163654 0.10927729 0.222749 -0.01087832 -0.025805527 -0.0001858276 -0.020804215 0.05518071
-0.013818957
