saved_agents/humanoid_d.pth (torch, 374709 bytes, 26 tensors)

actor_logstd f4 [1, 17]
000000 c4 fd 62 3e 44 34 85 3e bf 7b 81 3e 0e 00 3b 3e
       0.22167116 0.26016438 0.25289723 0.1826174
000010 d9 77 61 3e 5e 58 86 3e e2 10 1b 3e a4 a3 ae 3e
       0.22018375 0.26239294 0.15143159 0.34109223
000020 53 55 9f 3e 38 a9 22 3e 1f ac 8f 3e 0c 16 91 3e
       0.31119785 0.15884864 0.28061005 0.28337133
000030 66 92 36 3e e1 94 81 3e 6b c8 8d 3e 6a e9 98 3e
       0.17829284 0.25308898 0.2769197 0.2986558
000040 a6 b2 6e 3e
       0.23310336

critic.0.weight f4 [64, 351]
000000 3e 69 27 3e e2 92 2f 3e e7 13 c4 3d e1 4c 1e 3d
       0.1634874 0.17145875 0.095741086 0.038647536
000010 76 04 92 3d 08 e2 fb bd 1c 5d 53 bd 57 39 8c 3d
       0.07129757 -0.122989714 -0.051602468 0.06846874
000020 53 c6 ad bc b2 c1 51 bd de 92 8e bd cb a1 3b bd
       -0.021212732 -0.051210113 -0.069616064 -0.045808595
000030 f4 12 8c bd 1e 54 f2 bd 2e 90 b8 3c 8a 4e 1e be
       -0.068395525 -0.1183245 0.022529688 -0.15459648
000040 31 03 db 3c 6a 54 9e bd 68 31 08 3d 03 6a 9e bc
       0.02673492 -0.077309445 0.033250242 -0.01933766
000050 af 30 38 3e 2b 2e 05 3c 32 57 c5 3d d6 57 b7 bc
       0.17987321 0.008128683 0.09635772 -0.02238075
000060 d0 dd 89 bd ec 2b 31 bd 21 40 64 bc b1 7e 67 3c
       -0.067317605 -0.043254778 -0.013931305 0.014129327
000070 cb 71 4f bd 03 11 81 3d 27 ca df 3c b9 2a d8 bd
       -0.05064563 0.06302073 0.027318073 -0.10555024
000080 80 13 02 be 5e 93 09 bd 68 b7 8b 3c 84 7e ab bd
       -0.12702751 -0.033587806 0.017055228 -0.0837374
000090 62 3c 4f bd 34 64 c5 3a b4 9f 37 3d 45 39 b0 3d
       -0.050594695 0.001505977 0.04483004 0.08604673
0000a0 75 7f 53 be 0b 80 cd 3d ce 47 12 bc 86 b1 01 bd
       -0.2065409 0.10034188 -0.008928252 -0.03166344
0000b0 a7 e8 b2 bd 7d 84 2e 3c 6c ce 49 3d a6 d3 c8 3d
       -0.08735781 0.010651705 0.049269125 0.09805994
0000c0 e8 df 85 3d a2 36 4b 3d 44 b1 1c bd 4f 4f 6d bd
       0.06536847 0.04961265 -0.03825499 -0.057936963
0000d0 de e2 57 bd 6f 28 f8 3d 49 4f 5b bc bf e4 33 3e
       -0.05270659 0.12117087 -0.013385602 0.17567728
0000e0 26 08 57 3d 97 6c 28 3e 37 fd 30 bd 72 b2 1d 3d
       0.052498005 0.16447674 -0.043210234 0.038500257
0000f0 bb 1c a9 bc f1 43 ba bd 0b 10 51 3d ed ec 9b 3b
       -0.020643583 -0.0909499 0.05104069 0.0047584684
000100 73 8a 18 3e eb 58 1c 3e 7d 8e de 3d 47 ca af 3d
       0.14896564 0.15268295 0.10867021 0.08583503
000110 c7 85 af 3c 46 4d 8b 3d 89 8a ac bc a0 e9 23 be
       0.021426095 0.06801848 -0.021062152 -0.1600709
000120 df 93 10 3d b8 f6 02 3e 11 a0 87 bc 25 1e db 3d
       0.03529727 0.12789428 -0.016555818 0.10699109
000130 a1 5e 18 3d 0f d1 43 3d 8b 33 4d bc d9 06 21 bd
       0.03719962 0.047806796 -0.012524496 -0.03931317
000140 57 e3 1b be 95 f0 3e bd ac 3f 1c be b4 b4 1a be
       -0.15223442 -0.046616156 -0.15258664 -0.15107995
000150 b0 f5 1a 3e 84 64 02 3e b0 ed 82 3d a6 69 fd 3d
       0.15132785 0.12733656 0.063929915 0.123736665
000160 b2 26 00 be 8a de b8 3d ce d8 94 bd 5a 5f 81 bc
       -0.12514761 0.09026821 -0.07267915 -0.015792537
000170 b2 c3 80 bd 62 d4 ff bd 20 f4 82 bb 89 a0 01 3e
       -0.06287326 -0.12491681 -0.003996387 0.12658896
000180 e7 72 e6 3c 26 8f 55 3e 8d 58 0b bc 8f 18 ad bc
       0.028130962 0.20855388 -0.008504999 -0.021129875
000190 df 85 4f 3c 23 70 a4 bd 9c c1 d1 bd 43 c5 e8 bd
       0.012666195 -0.08029201 -0.10242006 -0.1136575
0001a0 ea 31 92 3d 4d 0a c0 3d 91 f9 c6 3d dd c6 92 3d
       0.071384266 0.09376965 0.0971557 0.071668364
0001b0 f1 c6 d3 bd 85 63 07 bb 7a eb 16 3e cc 09 84 3c
       -0.103406794 -0.0020658683 0.14738265 0.016117953
0001c0 05 0c ed 3d 5a 41 e5 3a fd c8 97 3d 72 a0 0d 3e
       0.11574558 0.001749079 0.07411382 0.13830736
0001d0 a8 f9 0c 3e 08 11 84 3e a3 b5 a1 3d 7e 3c cd 3d
       0.13767111 0.25794244 0.078959726 0.100213036
0001e0 e8 91 aa 3d 39 0d 19 3e cd aa fb 3c e3 87 01 be
       0.08328611 0.1494645 0.030721093 -0.12649493
0001f0 9f 4b 3b bd a6 14 e5 3d a0 8b 63 3e 0c 24 70 3c
       -0.045726415 0.11185579 0.22221231 0.014657032
000200 07 d7 76 3d a0 a0 ca 3d 21 c5 b3 3d 39 a3 42 be
       0.06026366 0.09893918 0.08777834 -0.19007577
000210 03 13 d5 3d 05 cf 9f bd 5c a7 b3 3c 16 58 d2 bc
       0.10404017 -0.07803158 0.02193039 -0.025676768
000220 86 a6 36 3e 6e b1 8a 3d 43 97 66 3d a0 df 3a 3c
       0.17836961 0.06772123 0.0562966 0.011405855
000230 da 33 b5 3d 66 63 c2 3d 1c 51 b8 bd 64 79 d0 3d
       0.088477805 0.09491615 -0.089998454 0.101794034
000240 fe a7 fc 3d 89 ce a3 3d c4 65 46 3d c6 be 06 3e
       0.123367295 0.07998378 0.048436895 0.13158712
000250 66 e7 dd 3c 69 d6 cf bd a5 20 13 3e e3 93 95 3c
       0.027087878 -0.10148317 0.14367922 0.018258994
000260 1a 33 54 be 7f 4a 09 3e bb 81 c4 3c ef 9b 26 3e
       -0.20722619 0.13407324 0.023987642 0.16270421
000270 d0 eb 61 3e be cc 07 3d 6a 84 e1 bc 02 44 b8 3d
       0.22062612 0.03315424 -0.02752896 0.089973465
000280 8a da 60 be ec 73 db 3d 2a e1 3d 3e 4d 8d 2b bd
       -0.21958366 0.1071547 0.18542925 -0.0418828
000290 f1 d8 1f 3e 6e dc 20 3e 3f 7d 5b 3d 4f 32 22 3e
       0.156101 0.15709087 0.05358624 0.15839504
0002a0 b9 f9 c3 bd 2f 1b 12 bc 99 d8 59 be 4e 52 9a bd
       -0.09569115 -0.008917614 -0.21274032 -0.075352296
0002b0 3d e9 41 3e 2d f9 43 3e 85 bb 7b 3d 53 6c e0 3d
       0.1893663 0.19138022 0.06145813 0.10958161
0002c0 06 e1 40 3d 0b dd 23 ba 04 57 b4 3d 42 80 87 3d
       0.0470896 -0.00062508945 0.088056594 0.0661626
0002d0 bc df 50 be bc 19 44 3e 4d f1 53 bd 94 11 54 bd
       -0.20397848 0.19150442 -0.051743794 -0.051774576
0002e0 6b 58 30 bd 87 6a 47 3d 47 ca 87 bd 9c 00 89 bd
       -0.043053072 0.048685577 -0.06630378 -0.06689569
0002f0 84 6b d6 bd 81 e6 90 3d 6d 5a 07 3d fd 93 e3 3d
       -0.10469726 0.07075215 0.03304522 0.11112211
000300 84 40 c2 bc 31 92 b9 bc 7b d4 06 bd 51 ec a5 bd
       -0.023712404 -0.022652717 -0.03291748 -0.081017144
000310 ad 7e cc bd a5 c9 63 bd 2e b3 92 3d 08 7f 86 39
       -0.09985099 -0.055612225 0.07163082 0.00025653117
000320 5f b9 a5 bd 4d b7 e7 bd 82 29 4f 3d a6 f9 b0 3d
       -0.08091997 -0.11314259 0.050576694 0.08641367
000330 bf 95 07 bd e8 b7 11 bd b1 a9 00 bd 2a 0f 3a bd
       -0.033101793 -0.035575777 -0.03141183 -0.045424618
000340 40 58 83 bd 44 c3 9a 3c b2 ac 8e bc 13 2c 96 3d
       -0.06413317 0.018891938 -0.017416332 0.07332625
000350 f2 16 08 bc 13 d6 f0 bb 5d 6c 44 bd 79 89 93 bd
       -0.008306252 -0.0073497384 -0.047954906 -0.07203955
000360 f1 31 6a bd 73 52 52 bb 27 9f f8 3c 85 11 4c 3d
       -0.057176534 -0.00320926 0.030349327 0.049821395
000370 80 37 09 bd df 29 79 3d e6 ee fe bd a9 17 d9 3d
       -0.033500195 0.060830947 -0.1244791 0.10600216
000380 d9 8f 1f bd 91 88 81 bd d5 c0 2d 3e 87 b3 b0 3d
       -0.038955543 -0.06324876 0.16968091 0.08627992
000390 9b f1 ca 3a c2 40 81 3d ba ae 02 3e 72 71 4d 3a
       0.0015483381 0.0631118 0.12761965 0.0007837034
0003a0 f1 66 04 3a 79 3a d9 3b fe 2b 3e bd 57 06 03 3e
       0.000505074 0.006629285 -0.046428673 0.12795387
0003b0 27 96 00 3d a8 22 fc bd b1 81 56 bc e2 dd 39 3d
       0.031393196 -0.12311298 -0.013092444 0.04537762
0003c0 93 fb 4b bd 02 09 05 be 99 3d 1d 3e 33 ea 1d be
       -0.049800467 -0.12991717 0.15355529 -0.15421371
0003d0 64 5c 4b 3d b9 ba 91 bd b7 86 84 be b0 70 a9 3d
       0.049648657 -0.07115693 -0.2588403 0.082734466
0003e0 2c b1 80 bd 0d dd 9b bd 00 2b bc 3d f6 9e 33 bc
       -0.06283793 -0.076105215 0.09187889 -0.010963192
0003f0 e5 ac 4a be 23 c6 fc bd 12 3f d2 bd d9 0c 43 bb
       -0.19792517 -0.12342479 -0.10265936 -0.0029762296

critic.0.bias f4 [64]
000000 cc 5e e7 3d d3 5a 02 be 42 0d 12 be 61 61 3d 3e
       0.11297378 -0.12729959 -0.1426287 0.18494178
000010 aa 44 0e 3e 72 c5 11 3e b1 2a 0e 3e 00 5d 20 3e
       0.13893381 0.14235476 0.13883473 0.15660477
000020 6b d5 0a be a4 62 24 be 7a fa 40 3d 4c 1f a0 bd
       -0.13557975 -0.16053253 0.047113873 -0.078184694
000030 f6 f9 0a be dc b0 0e 3e 33 83 01 be 21 e5 21 3e
       -0.13571915 0.13934654 -0.12647705 0.15810062
000040 03 72 1c 3e 9f ad e6 3d db 4e 24 3e 40 19 00 be
       0.15277867 0.11263584 0.16045706 -0.12509632
000050 68 08 93 bd 92 bf 17 be 70 dc fa bd fb 4c 05 be
       -0.07179338 -0.14819172 -0.12249076 -0.13017647
000060 ed 24 07 3e 57 2b fa 3d b0 09 f2 3d aa bc fc 3d
       0.1319768 0.12215298 0.11818254 0.12340672
000070 cc 39 23 3e 97 73 6a 3d aa 6b 11 3e e5 61 2e be
       0.15940017 0.05723914 0.14201227 -0.17029531
000080 99 0b db bd 93 cd a7 bd 16 d4 28 be c9 84 f8 bd
       -0.106955715 -0.08193507 -0.16487154 -0.12134702
000090 b9 2f 14 be b9 1e a7 bd e7 58 14 be 1a 2f 26 be
       -0.1447133 -0.08160157 -0.14487039 -0.16228905
0000a0 73 27 36 3e 89 04 e5 3d d3 95 2a 3e 77 da 13 3e
       0.17788486 0.11182506 0.16658716 0.14438806
0000b0 4f 73 1f 3e 21 70 2b be d4 6f 06 3e 1f ec 11 be
       0.1557133 -0.16741993 0.13128597 -0.1425023
0000c0 b4 a6 12 be b7 6a 14 be 08 ee 50 be ab c3 25 3e
       -0.14321405 -0.14493833 -0.20403302 0.16187923
0000d0 b6 3b 12 3e dd 1d 08 be 06 32 09 be 67 45 2c be
       0.1428059 -0.13292642 -0.13397989 -0.1682335
0000e0 c8 e3 6c bd 5f 92 10 be 65 b8 0d 3e cc c1 f5 3d
       -0.057834417 -0.14118336 0.13839872 0.119998544
0000f0 8b 4e 43 be 64 e2 98 bd 6b 4e b1 bd 2e 5a dc 3d
       -0.1907293 -0.074650556 -0.08657535 0.10759388

critic.2.weight f4 [64, 64]
000000 da 1e 4f be fc 89 83 3e 2f 74 95 3e 2a 4c 08 be
       -0.20226613 0.2569121 0.29190204 -0.13310304
000010 78 69 3a be 37 0a cb be ec b4 aa be ed a2 1e be
       -0.18204296 -0.3965623 -0.33341157 -0.15491839
000020 33 e7 84 3e 60 57 bb bd 2d b6 97 3d 4c cd af bd
       0.2595764 -0.09147525 0.07407794 -0.08584079
000030 38 59 1c 3e e4 ec d6 bd a1 b6 b0 3d 7e d6 b3 be
       0.15268409 -0.10494402 0.08628584 -0.35124582
000040 65 c7 fd be cc f9 dc 3c 4b cb 08 3d 3a c3 44 bd
       -0.49566188 0.026974581 0.033397 -0.048037745
000050 02 98 9b 3c 3e 56 ad bd 6e 21 ae 3d 3d 46 e7 3e
       0.018993381 -0.08463715 0.0850247 0.45170775
000060 de a9 eb bd d0 22 7a bd 66 78 bf be 38 8f 06 be
       -0.11507009 -0.061068356 -0.37396544 -0.13140571
000070 b1 4c 35 be f4 66 2b bc 77 10 1c bc 71 c5 85 3d
       -0.17705037 -0.010461558 -0.00952541 0.065317996
000080 e8 8a 4b 3e a6 84 f0 3d f5 42 54 3e 54 65 84 3e
       0.19877207 0.11744051 0.20728667 0.25858557
000090 c2 ae 1a 3e 0c fc c6 3d 53 41 9e 3d 8d db ee 3c
       0.15105727 0.09716043 0.07727303 0.029157424
0000a0 cb 52 0e 3e fe f3 08 bb 5b a9 0a be 08 20 86 be
       0.1389877 -0.0020897384 -0.13541166 -0.26196313
0000b0 47 1e b0 be 8f 5a d0 3e 82 72 17 be 03 14 57 3e
       -0.343981 0.4069409 -0.14789775 0.21003728
0000c0 46 20 77 3e 53 28 dc 3d 12 d0 89 3e 6c f8 c8 be
       0.24133405 0.10749879 0.26916558 -0.3925203
0000d0 88 2e 08 bf 69 87 8a 3e b2 84 83 bb e5 c8 b7 3d
       -0.53196 0.27056435 -0.0040136212 0.089738645
0000e0 2f 1d d4 bd 62 57 01 3e 90 84 37 be 77 1e ea 3b
       -0.10357129 0.1263099 -0.17921662 0.007144745
0000f0 6f 09 17 3f 8f da 87 3e b3 f1 8b 3e 26 8f a9 be
       0.5899877 0.26533934 0.2733284 -0.33117026
000100 16 57 fe 3c 88 02 91 be d4 48 b4 be 5d ee b5 3e
       0.031047385 -0.28322244 -0.35211813 0.3553342
000110 af 25 d8 3e bc 37 33 3e 67 52 79 3e e0 48 ab 3a
       0.4221625 0.1750173 0.2434784 0.0013067983
000120 85 ed 33 be d7 94 a5 be ee f2 4e be d0 44 4a bd
       -0.17571075 -0.32340118 -0.20209858 -0.04938203
000130 8d 2e a3 3d d7 69 8a 3e cb 44 85 3d 44 bf fe 3e
       0.07967863 0.27033874 0.06507262 0.497553
000140 a2 c2 83 3e 46 2e 48 3e 0b 0a bd bd cf 76 e8 bd
       0.2573443 0.19548902 -0.09230431 -0.11350786
000150 c4 01 25 bc f2 75 a4 be 08 a3 06 be ed 77 66 be
       -0.010071222 -0.32121235 -0.13148129 -0.22506686
000160 e8 a8 99 3e f5 b7 5a 3e 2e e4 a7 3e da 48 59 3e
       0.30011678 0.21359237 0.32791275 0.21219197
000170 ad 15 bc 3e d1 66 60 3d df 45 9e 3e c9 e2 16 be
       0.36735287 0.054785553 0.30912682 -0.14734949
000180 b5 21 0f 3e 6a 2b 9e bd 13 f6 1d be 29 1a c9 be
       0.13977702 -0.07723124 -0.15425901 -0.3927777
000190 2c d2 8b be 31 34 94 bd fc 88 39 bd 9c c9 a0 bd
       -0.27308786 -0.07236517 -0.045296654 -0.07850954
0001a0 ae 1f af 3e 0b 55 b1 3e aa a1 d7 3d b4 76 1a 3e
       0.34203857 0.34635195 0.10528882 0.15084344
0001b0 f7 5c 04 3e d2 65 8f be f8 56 e6 bc 31 d9 46 be
       0.12926088 -0.2800737 -0.028117642 -0.1941879
0001c0 52 c4 d3 be ce 7c b8 be 92 c4 1d be 42 f9 8c 3e
       -0.41360718 -0.36032718 -0.15407017 0.2753392
0001d0 b0 49 14 3e 73 77 48 3e d5 d3 d1 be 7a 1c 9d bd
       0.14481235 0.19576816 -0.40981928 -0.07671447
0001e0 d3 cb a8 bd f1 b6 06 bc 5e 58 a2 3e 75 19 c0 3d
       -0.082420014 -0.008222328 0.31708044 0.093798555
0001f0 69 64 a6 bd f2 3c 23 be 83 c6 1f bd a0 31 27 3e
       -0.081246205 -0.15941218 -0.039007675 0.16327524
000200 ea 87 67 3e 9e c0 18 be 7e 07 bc be 0a e7 23 3e
       0.22610441 -0.14917228 -0.36724466 0.16006103
000210 a0 ec 38 3e 8e 76 cc 3d b1 da 38 3e f2 d5 d7 3d
       0.18059015 0.0998355 0.18052174 0.10538854
000220 62 fe c1 bc 16 01 8a be c4 86 50 3c bc b5 1e bd
       -0.02368087 -0.26953954 0.012727443 -0.038747534
000230 be 07 1c bd dd 2b c7 3e 4c e9 b4 be d4 1b 0a 3e
       -0.03809332 0.38900653 -0.3533424 0.13487178
000240 cc 55 ab 3e c6 cf 16 be 48 bf 33 3e b2 d5 80 be
       0.33463895 -0.14727697 0.17553437 -0.25163037
000250 a6 a0 10 3e 09 c5 de be 98 0d c0 be e2 cc d8 bd
       0.14123783 -0.435097 -0.3751037 -0.10585953
000260 a9 f2 7a 3e d4 0b bd 3e 45 1f a1 3e fa ab 36 3d
       0.2450663 0.36923087 0.3146917 0.044597603
000270 cd 6d 61 3e c2 af 49 3e ee a9 6e 3e 5b 23 b1 bd
       0.22014542 0.19695953 0.2330701 -0.08649322
000280 75 0d fe be b5 5e e2 3c 00 f5 35 bd 7f 6d 34 be
       -0.49619642 0.02763305 -0.044423103 -0.17619894
000290 db ba e3 be 09 c0 f8 3c 9b 2e 04 bd 01 41 85 bb
       -0.44478497 0.030365007 -0.03227101 -0.004066587
0002a0 ee 5e 4f bd dd 31 d1 bd e0 9c 0b bb 22 5c 03 3e
       -0.05062764 -0.10214589 -0.0021303222 0.12828115
0002b0 fd fa ca 3d 9a 43 c2 be d4 18 13 bd 22 12 15 be
       0.099111535 -0.379422 -0.03591235 -0.14557698
0002c0 4e c4 40 bf 78 9d 93 be c0 ac e1 bd 65 d9 12 3e
       -0.7529954 -0.28831077 -0.110192776 0.14340742
0002d0 03 93 59 3e 05 04 8a bd 51 e1 cc bd 4d fc c8 be
       0.21247487 -0.06739048 -0.10003913 -0.3925499
0002e0 36 14 9e 3b c3 43 5c be f7 b3 98 3e cc eb 95 3e
       0.0048241867 -0.21510224 0.29824802 0.2928146
0002f0 16 1a be be 37 54 a1 3d 64 7f 5e be 95 66 72 3e
       -0.37129277 0.07877391 -0.21728283 0.23671944
000300 26 36 c1 3b 97 29 89 be 7e c9 72 be d8 8b 86 3e
       0.0058963476 -0.26789543 -0.23709676 0.26278567
000310 ff 8a a9 3d 2d 42 a7 3e 10 00 98 bd d8 74 a6 3e
       0.082784645 0.32667676 -0.07421887 0.3251102
000320 ff 58 07 be 93 a1 03 ba 6c 3b 2c 3d 97 12 7c be
       -0.13217543 -0.000502133 0.042048857 -0.24616466
000330 bc ac c3 be f1 86 e0 3e e8 41 30 be 06 75 9c 3d
       -0.38217723 0.43852952 -0.17212641 0.07639508
000340 79 4f 8e 3d 1f d6 fd bd 50 1c 36 be 93 ec ee 3c
       0.06948752 -0.12394356 -0.17784238 0.029165542
000350 48 86 ff 3c 43 f8 7b be 34 bd 6b be fc fa 94 be
       0.03119196 -0.24606423 -0.23021394 -0.29097736
000360 3b de 90 3e 23 c1 a3 3e 84 ab d8 3e bc 78 98 3e
       0.28294548 0.3198329 0.42318356 0.29779613
000370 cc 58 b3 3e f3 94 90 3e 16 b5 03 3e 62 92 aa be
       0.35028684 0.2823864 0.12862048 -0.33314806
000380 e3 a7 ac be b6 13 aa bd 5f a7 92 be 8d f9 88 3c
       -0.33721837 -0.08304541 -0.2864332 0.016720558
000390 33 92 89 be 54 64 b9 bd 82 4d c7 bd ff 5a 6e be
       -0.26869354 -0.09052339 -0.0973158 -0.232769
0003a0 bf b2 53 3e c6 1e 3a bd 48 7f 91 3c e8 54 37 3e
       0.20673655 -0.045439504 0.017760888 0.17903483
0003b0 14 81 c2 3e 2a 05 b3 bd a5 ec 09 3e 84 05 a0 be
       0.37989104 -0.08741219 0.13469179 -0.31254208
0003c0 f0 38 8b be 2c 12 bc be 30 0f 95 be 9d 59 09 3d
       -0.27191877 -0.36732614 -0.2911315 0.033532728
0003d0 ee 06 ab 3e be f7 0d 3d 6b b2 9c bd fd f0 91 3d
       0.33403724 0.034660093 -0.07651218 0.07126043
0003e0 f8 85 04 3e 33 73 96 be 91 05 28 3e c6 54 f9 3d
       0.1294173 -0.29384765 0.16408373 0.121743724
0003f0 a4 cb e6 bd 88 42 98 bd 0c 79 0f 3e 4f 88 47 3e
       -0.1126931 -0.07434565 0.1401102 0.19485591

critic.2.bias f4 [64]
000000 67 be 71 be 98 a8 a7 3e ae bc a0 3e 27 8d 94 3e
       -0.23607789 0.32745814 0.3139395 0.2901394
000010 65 a5 62 3e 06 b9 93 be 8e 0b 5c 3e f6 bc b2 be
       0.22133406 -0.288521 0.21488783 -0.3490979
000020 8f 3b 6b 3e cf 6c 6f be 2d 29 86 3e 68 2f 65 3e
       0.22971939 -0.23381351 0.2620329 0.22381365
000030 0a 88 59 be 62 f2 92 3e 62 39 6a 3e b3 4b 82 3e
       -0.21243301 0.28700548 0.22873452 0.2544838
000040 cc d2 80 be 30 a1 a7 be 37 dc b5 3e 49 9b 7d be
       -0.25160825 -0.32740164 0.35519573 -0.24766268
000050 f5 af b6 3e ae c4 87 be db e2 88 3e d2 04 99 be
       0.3568112 -0.26517242 0.26735577 -0.2988649
000060 b6 71 8f be ad 96 91 be 20 f8 9b be 63 9c 8b be
       -0.28016442 -0.2843527 -0.30462742 -0.2726775
000070 39 9d 79 3e 38 c5 68 3e 34 55 49 3e 29 91 ae be
       0.24376382 0.22731483 0.19661409 -0.34095123
000080 26 4b 58 be 0b 71 71 3e 77 16 91 3e 9c 30 76 3e
       -0.21122417 0.23578279 0.28337452 0.2404198
000090 34 c6 72 be 8e 3c 97 be 5c 8a 6b be e1 43 82 3e
       -0.23708421 -0.29538387 -0.23001999 0.25442412
0000a0 e2 8e 8e 3e ce 99 8c be ff d9 9c be 6f 04 bc 3e
       0.27843386 -0.27461094 -0.30635068 0.36722133
0000b0 51 b6 84 be f6 5a 66 be 56 37 96 3e 10 0d 9d 3e
       -0.25920346 -0.22495636 0.29339093 0.30674028
0000c0 c4 6a 58 3e 63 0e 80 be a1 f7 5f be 5e 6f 81 be
       0.21134478 -0.25010976 -0.21871807 -0.2528028
0000d0 61 c7 8b 3e 04 c5 7a be ac 8a 7b 3e e7 e6 86 be
       0.27300552 -0.24489218 0.24564618 -0.2634804
0000e0 b8 28 90 be ad ce 90 3e 8d 94 b6 be c1 e7 72 be
       -0.28156066 0.2828268 -0.3566021 -0.2372122
0000f0 43 45 96 3e 69 0a a2 be e4 1f 78 be 22 32 32 3e
       0.29349717 -0.31648567 -0.24230915 0.17401937

critic.4.weight f4 [3, 64]
000000 d7 f3 52 bf 12 70 db 3e ae 5b aa 3e e4 8e c9 3e
       -0.8240332 0.4285894 0.3327307 0.3936683
000010 b4 bd e9 3e 30 ed d7 be bb 4f a4 3e d4 ad 1c bf
       0.45652544 -0.42173147 0.3209208 -0.6120274
000020 27 55 11 3f ba b6 e0 be 0b c9 09 3f c5 4e d3 3e
       0.5677056 -0.4388941 0.5382239 0.41271034
000030 ce 89 e9 be 4a 60 ed 3e 28 45 0d 3f d6 ab e5 3e
       -0.4561295 0.46362525 0.5518365 0.44857663
000040 ce 47 14 bf f1 3b ac be 0c 1d 13 3f 4b 3a d9 be
       -0.57922065 -0.33639482 0.57466197 -0.42427287
000050 40 62 25 3f e6 39 1a bf a4 d7 18 3f 48 47 07 bf
       0.6460304 -0.60244596 0.5970404 -0.5284314
000060 eb 48 de be 04 9f b7 be a4 3e 38 bf cc 58 f7 be
       -0.43415007 -0.35863507 -0.7197058 -0.48309934
000070 53 6e f5 3e ae cf 07 3f 4e 77 f4 3e 82 6e 66 be
       0.47935733 0.5305127 0.47747272 -0.22503093
000080 8f cd 0a bf 6b 99 0a 3f 79 55 a0 3e d5 42 31 3f
       -0.5421991 0.5414035 0.3131521 0.692426
000090 c4 88 ad be 3e 2c 24 bf a6 5c 07 bf 61 b8 de 3e
       -0.33893406 -0.6413001 -0.52875745 0.43500045
0000a0 c0 9f 00 3f 1f b4 00 bf 54 18 1c bf ed bc b0 3e
       0.5024376 -0.5027484 -0.6097462 0.3451914
0000b0 25 e6 23 bf e4 4e f3 be e7 58 d5 3e 07 c2 be 3e
       -0.6402305 -0.47521126 0.4166939 0.37257406
0000c0 7f d5 e6 3e 86 9a 9e be 6a ea 15 bf fc 72 f8 be
       0.4508476 -0.30977267 -0.5856081 -0.48525226
0000d0 c9 7a f7 3e 59 1b ce be 59 48 a8 3e 55 6b c3 be
       0.48335865 -0.4025524 0.32867697 -0.38167825
0000e0 a2 9b cd be 6f d3 16 3f a6 22 30 bf fa 41 08 bf
       -0.401578 0.5891637 -0.6880287 -0.5322567
0000f0 19 72 a3 3e f1 11 e7 be a5 72 f1 be b5 9c 4b 3e
       0.31922987 -0.45130876 -0.4715778 0.19883998
000100 da dc 8a c0 21 e0 85 40 49 8d 8a 40 c9 6b 90 40
       -4.3394594 4.1836095 4.3297467 4.5131574
000110 27 ac 90 40 eb 63 8a c0 6a b7 8d 40 75 0f 8f c0
       4.5210147 -4.324697 4.4286394 -4.470637
000120 84 28 8c 40 07 82 8e c0 84 ad 88 40 83 cd 86 40
       4.3799458 -4.4533725 4.271181 4.212587
000130 c8 44 83 c0 4b 72 87 40 81 4c 8e 40 40 6f 89 40
       -4.102146 4.232702 4.446839 4.2948303
000140 9d 56 89 c0 98 bd 89 c0 75 e1 8b 40 18 a3 88 c0
       -4.291823 -4.304394 4.3712716 -4.269909
000150 80 89 8a 40 9e 1f 82 c0 4d e8 8d 40 1b 46 87 c0
       4.3292847 -4.0663595 4.434607 -4.227308
000160 6a aa 8b c0 c2 6e 87 c0 29 9f 91 c0 d3 54 8a c0
       -4.3645525 -4.2322702 -4.5506787 -4.3228545
000170 0e 1b 85 40 2d 52 8e 40 fc f0 91 40 53 c9 8e c0
       4.1595526 4.447531 4.560667 -4.4620757
000180 a2 8d 88 c0 34 11 85 40 b7 1a 89 40 f7 39 93 40
       -4.267289 4.15835 4.284511 4.600826
000190 88 c7 8c c0 3b 9b 84 c0 34 15 8a c0 98 de 85 40
       -4.399357 -4.143949 -4.3150883 4.183422
0001a0 28 af 8e 40 c1 b1 86 c0 0e f7 8a c0 4e d9 89 40
       4.4588814 -4.2091985 -4.342658 4.3077765
0001b0 1e 52 87 c0 a9 8d 88 c0 47 49 88 40 08 eb 83 40
       -4.228774 -4.2672925 4.258945 4.1224403
0001c0 26 2d 8a 40 55 93 90 c0 81 e4 8a c0 6c c0 85 c0
       4.3180113 -4.517985 -4.3403935 -4.179739
0001d0 27 cc 8a 40 ec fd 8a c0 68 5c 8d 40 4b df 85 c0
       4.337421 -4.3434963 4.41753 -4.1835074
0001e0 de c5 8b c0 2d a0 8f 40 6f f9 85 c0 2d 0b 8c c0
       -4.3679037 4.4883027 -4.1866984 -4.376364
0001f0 b3 0a 8a 40 7c 93 8b c0 40 6d 86 c0 9b 4f 8a 40
       4.313806 -4.3617535 -4.200836 4.3222175
000200 9e b7 99 c0 1c 9b 99 40 aa c7 95 40 b0 8d 96 40
       -4.803664 4.8001842 4.680623 4.704796
000210 68 9c 98 40 82 9e 97 c0 94 30 97 40 22 b5 94 c0
       4.7690926 -4.738099 4.72468 -4.647111
000220 f9 31 9b 40 05 f3 99 c0 ff 48 98 40 5d 01 9a 40
       4.84985 -4.8109155 4.7589107 4.8126664
000230 da 10 9d c0 fe 72 97 40 91 c3 99 40 cd 73 97 40
       -4.908307 4.732787 4.805123 4.732886
000240 18 ef 98 c0 95 9a 96 c0 16 3d 96 40 44 ce 9a c0
       -4.7791862 -4.70637 4.694957 -4.837679
000250 a0 ac 95 40 1a 8c 98 c0 66 90 96 40 9d 2a 9c c0
       4.6773224 -4.7671022 4.705127 -4.880202
000260 8e 08 97 c0 04 26 99 c0 23 84 95 c0 fe a3 98 c0
       -4.7197943 -4.7858906 -4.67238 -4.7700186
000270 77 97 9a 40 21 97 99 40 eb b8 9f 40 82 ca 95 c0
       4.8309894 4.7996984 4.991323 -4.68097
000280 dd 89 a2 c0 2a a9 9c 40 fd 2b 99 40 6c da 97 40
       -5.079329 4.89565 4.7866197 4.745413
000290 1c 0f 98 c0 74 00 97 c0 f1 8b 9a c0 e7 d0 9a 40
       -4.7518444 -4.7188053 -4.8295827 4.838001
0002a0 70 61 96 40 ab 20 97 c0 72 ee 94 c0 a6 c8 95 40
       4.699394 -4.722738 -4.654107 4.680743
0002b0 04 45 9a c0 7b 73 9b c0 c9 76 97 40 7d 1e 98 40
       -4.8209248 -4.8578467 4.73325 4.7537217
0002c0 45 d8 9b 40 01 39 96 c0 56 8d 9b c0 b5 80 98 c0
       4.87015 -4.6944585 -4.861003 -4.7657113
0002d0 76 bc 97 40 35 34 96 c0 42 39 99 40 63 3b 99 c0
       4.7417555 -4.693873 4.7882395 -4.7884994
0002e0 d9 bf 95 c0 ec 34 96 40 cf 17 97 c0 92 dc 99 c0
       -4.679669 4.69396 -4.7216563 -4.808175
0002f0 f5 98 95 40 48 f9 95 c0 0b ac 98 c0 04 38 9f 40
       4.6749215 -4.68668 -4.7710013 4.975588

critic.4.bias f4 [3]
000000 9e 78 de 3e 23 e1 85 40 69 2c 92 40
       0.434514 4.1837325 4.567921

actor_mean.0.weight f4 [64, 351]
000000 c0 7c 96 bc dd ed d6 bc ed ac 2e 3d df 7a 02 3c
       -0.018370032 -0.026236469 0.042645384 0.007963865
000010 a6 a8 8c 3c da dc 9d 3d 1b e0 dd 3d 49 cb a0 bd
       0.017170262 0.0770814 0.1083376 -0.078512736
000020 e9 9d 1e bc 4a e9 ef bb 46 46 c9 ba e9 fa e4 bc
       -0.009681203 -0.0073215114 -0.0015356026 -0.027951675
000030 0c b7 47 3c af 2b bf bc 91 c2 85 bd 0b e4 70 3d
       0.012189638 -0.02333626 -0.06531251 0.05881123
000040 a7 3f fb 3c a1 d0 56 bd 9c 73 f2 3d 94 4a c6 3d
       0.03067 -0.052445058 0.11838457 0.096821934
000050 b5 b9 0c be 18 67 07 3e bd d1 0d 3e 12 0d c1 bc
       -0.13742717 0.13222921 0.1384954 -0.023565803
000060 02 55 05 3e 2d 6f c6 3c e7 e5 5a 3c ff 82 c5 3d
       0.13020709 0.024222935 0.013360477 0.09644126
000070 62 b4 0f 3e e1 20 9e 3d b3 a4 8b bd 4f 60 50 3d
       0.14033654 0.07721115 -0.06818523 0.050873097
000080 c0 40 33 3d 2f 41 bd 3d 25 8f e8 3d ff bc 0e 3e
       0.043762922 0.092409484 0.11355428 0.13939284
000090 91 be 0d bd 67 10 38 3d ca 42 b7 bc b0 91 e6 3d
       -0.034605566 0.044937517 -0.022370715 0.112582564
0000a0 78 01 61 3e 0f 48 49 3d dd 5a a9 3d a1 38 84 bd
       0.21973217 0.049140986 0.08269284 -0.064561136
0000b0 9f 6e 0c be 7f 6a 07 3d d3 3f 00 be 60 c8 3b bd
       -0.13714074 0.033060547 -0.12524347 -0.04584539
0000c0 eb 21 88 3d 6b 40 21 bd 18 0b 1b bc dd 93 17 3e
       0.06647094 -0.039368074 -0.009463094 0.14802499
0000d0 1b 13 4c bd 11 15 9c bc a7 ed 1c 3e d9 ea 90 3c
       -0.049822908 -0.019053014 0.15325032 0.01769011
0000e0 47 20 ab 3d 7d 5d d1 3d 87 b8 bd 3d 6e 88 3b 3d
       0.08355766 0.102229096 0.092637114 0.045784406
0000f0 35 37 1f 3d a3 aa 73 3c 39 ae 3e 3d 69 c8 9d 3d
       0.03887101 0.014872226 0.04655287 0.07704241
000100 dc 85 83 3d ea a6 ed 3c 07 d4 4c bc a4 73 d2 bd
       0.06422016 0.029010255 -0.012501723 -0.10275963
000110 47 0c 40 3d f8 9a fc 3d 83 c1 15 3d 1e 24 a3 bd
       0.04688671 0.123342454 0.0365615 -0.07965873
000120 87 95 d0 3c 88 79 a2 bd c3 f6 12 be 2b 8b ed bb
       0.025461925 -0.079333365 -0.14351945 -0.007249256
000130 1d b8 6b bd ff dc 38 3d 0e 46 7d 3d d5 59 83 3d
       -0.05754863 0.045132633 0.061834387 0.064136185
000140 a5 c6 ba 3c c3 d0 f7 bd 73 4c c6 ba ff 90 6c bd
       0.0227998 -0.12100365 -0.0015128985 -0.057755467
000150 8f dc 18 3d 0e 03 44 bd 84 b0 98 3d 99 c5 82 bd
       0.037319716 -0.047854476 0.07455543 -0.06385345
000160 09 7a 0f be ad 0f 04 be b2 9a 58 3c 2c db ba bc
       -0.14011396 -0.12896605 0.013220476 -0.022809587
000170 20 cf b3 3b c4 5c 4e bd ce c5 39 3d 01 18 19 3e
       0.0054873377 -0.050381437 0.045354657 0.14950563
000180 1c 51 ae 3a da 83 c9 bd db f2 41 bd c5 ee ba bb
       0.0013299319 -0.09839602 -0.047350746 -0.005704733
000190 1a 23 ec bc 62 29 c1 bd bf 89 ca 3c 2a bd df bd
       -0.028825331 -0.09431721 0.024723886 -0.10924752
0001a0 55 a3 15 bd 71 34 fb 3d a7 3d 4e 3d 59 e8 a6 3d
       -0.03653272 0.12265862 0.050351765 0.081497855
0001b0 d4 fb f9 3d 87 d7 9d bd 82 37 6e bd cf 5d 01 be
       0.122062355 -0.07707124 -0.058158405 -0.12633441
0001c0 53 6e 95 bc c0 da a5 3d 58 c1 30 3e d5 bf 9b 3d
       -0.018241083 0.08098364 0.17261255 0.076049484
0001d0 1a 12 c7 3d a2 a1 d3 bd da 37 97 3d d2 35 07 3d
       0.097202495 -0.103335634 0.073837 0.03301031
0001e0 95 d8 b6 3d 55 8a 00 3c 2f c2 39 3d 0e b2 ca bd
       0.089280285 0.007845481 0.045351204 -0.098972425
0001f0 a3 22 fe bd 58 db ae bb 77 50 84 3d cf 00 58 3d
       -0.1240895 -0.0053362064 0.0646066 0.052735146
000200 b1 4b c8 3b e9 e1 02 3d 7d 7d aa 3d 52 67 32 3d
       0.0061125387 0.031953726 0.08324716 0.043555565
000210 ac 51 62 3d c4 db a6 3a 5c a8 df 3b cb 2f 8f 3d
       0.05525367 0.001273029 0.00682549 0.06991538
000220 2c 2a a2 bd 2d e4 a0 bc 55 6b dd 3d 86 22 65 bd
       -0.079182 -0.019640053 0.108114876 -0.055941127
000230 e2 b5 ab 3d 67 75 21 3e 8e 11 3d be e1 34 7c 3d
       0.08384301 0.15767442 -0.18463728 0.061573867
000240 3f c8 0d bc b2 2e dd 3d 42 f8 3a 3d 94 a5 06 be
       -0.008653699 0.10799922 0.045646913 -0.131491
000250 ea a0 5e bd 8e 24 12 be 62 b8 0e 3e c8 c6 92 3b
       -0.05435268 -0.14271757 0.13937524 0.004479263
000260 50 30 8a 3c ef 40 c7 bc 09 a5 24 bd a5 13 82 3c
       0.01686874 -0.024322955 -0.040196452 0.015878508
000270 39 bf ac 3d a0 4a 52 3d df 69 63 bc 90 21 1a be
       0.0843491 0.0513407 -0.013880222 -0.15051866
000280 46 8c 65 bd c0 4e 34 3e 31 f2 df 3c 09 dd 31 bd
       -0.05604198 0.17608166 0.027337166 -0.043423686
000290 66 9c e9 3b e6 42 bf bc 45 c7 90 3d b5 9c cf 3d
       0.00712924 -0.02334733 0.07069258 0.10137311
0002a0 e6 1a df bd 7b 64 a5 bd 87 50 29 3c 2d 13 4f bd
       -0.10893802 -0.08075806 0.010334141 -0.050555397
0002b0 89 e4 8f bd 5b b8 ba 3c 0c 08 83 3d ca f9 d5 3d
       -0.070260115 0.022792986 0.06398019 0.10448034
0002c0 3b 33 ee bd 13 8c 98 bc a7 d6 11 3d 6e ce 38 bd
       -0.11630865 -0.01862148 0.0356051 -0.04511874
0002d0 4a ec ed 3c fc 38 1c 3d eb 42 8f bd 38 2d 23 be
       0.029043335 0.038140282 -0.069951855 -0.15935218
0002e0 e2 ed 6f bd 62 31 27 3d 47 e9 3f 3e a6 55 f5 3c
       -0.058576472 0.04081858 0.18741332 0.029948067
0002f0 1a 62 5b 3d 14 81 02 3e 99 9e 83 3d f2 bd b7 bd
       0.053560354 0.12744552 0.064267345 -0.08971776
000300 3f 98 5a 3d 1f 8a 0e bd 89 dd 36 bd 0c 7a 74 bc
       0.05336785 -0.03479969 -0.044644866 -0.014921676
000310 10 47 2a bd 55 a0 e8 bd f6 b9 37 bd 24 94 84 3d
       -0.041571677 -0.11358706 -0.04485508 0.06473568
000320 b6 fa 89 bd a2 a4 58 bd da f7 fd bb 23 ce 23 bc
       -0.067372724 -0.05289138 -0.0077504935 -0.009997877
000330 08 73 65 bd 95 82 fa 3d b7 82 4d bb 99 3d b9 3d
       -0.056017905 0.12231938 -0.003135843 0.09044952
000340 1a f6 6a bd ed ec b5 bc f0 09 b6 3d 02 1c cd bd
       -0.057363607 -0.022207702 0.08888614 -0.10015108
000350 47 e6 89 bc 82 a6 48 3c 10 70 4e 3b 67 c5 01 be
       -0.016833438 0.01224673 0.00314999 -0.1267296
000360 ca 60 c8 bd b1 35 47 bd aa 7d 81 bc 32 be 12 bc
       -0.09784086 -0.04863519 -0.015806992 -0.008956479
000370 0a 48 f2 bc b5 94 ce 3b e8 38 ed bc 11 d7 3d be
       -0.029575367 0.0063043484 -0.0289578 -0.18539073
000380 79 e7 6c be bc 9d f5 3d 7d 95 86 3e 23 d9 0e 3d
       -0.23135175 0.11992976 0.26285926 0.034875046
000390 7f 02 72 3d 36 04 6a 3d bc 48 e9 bd ec a6 a8 3d
       0.05908441 0.057132922 -0.11390826 0.08234963
0003a0 a1 6e be 3d 29 c8 2c 3d 65 51 f8 3c d3 76 84 bd
       0.092984445 0.042183075 0.03031225 -0.064679764
0003b0 d2 b1 d9 bd a7 70 04 3e 4a 97 f4 3d 10 40 47 3e
       -0.1062962 0.12933598 0.119429186 0.19458032
0003c0 71 b2 38 3d 87 30 02 3e 1f 80 7e 3d 13 99 a4 bd
       0.04509205 0.12713824 0.062133905 -0.08037009
0003d0 0a 19 5d 3d 83 cd 1c 3e 81 b0 4e 3d e2 0f 8b bc
       0.053978957 0.15312771 0.050461296 -0.016975347
0003e0 49 42 c1 3d a3 48 fa 3c ff 96 98 bd a2 03 e9 bb
       0.09436471 0.030552214 -0.07450675 -0.007111029
0003f0 4a 2a 32 3e 63 ab 12 3d 43 0b cf 3d 50 d0 e2 bc
       0.17398944 0.03580798 0.1010957 -0.027687222

actor_mean.0.bias f4 [64]
000000 16 2a 3f 3c d5 e4 70 bc 2a ad 6d bc bc be a1 3c
       0.011667749 -0.014702995 -0.014506618 0.01974427
000010 dd 37 54 bd a6 e9 d3 bd d4 23 ac bd d3 d3 f8 bc
       -0.051811088 -0.10347299 -0.08405271 -0.030374443
000020 7a 63 85 3d 7b 81 b9 bc 02 1c 8a bb 11 43 5a 3d
       0.06513114 -0.022644749 -0.0042147646 0.053286616
000030 18 92 51 3d de df db 3b 30 fe ba bc bb 38 3b bc
       0.051164716 0.0067100367 -0.022826284 -0.0114271
000040 a8 d2 a4 bd 32 c4 80 3c 06 7e e9 3b c1 86 60 3c
       -0.08047992 0.015718553 0.007125619 0.013704003
000050 2d b4 0d 3d 4c 00 6a 3d 78 2d b1 3c fd 63 e8 3a
       0.034595657 0.05712919 0.021628127 0.0017729994
000060 69 30 cd 3c 71 36 99 3c a7 22 74 bd 2d 09 3d 3c
       0.025047498 0.018702717 -0.05960336 0.011537832
000070 ac 40 09 bd 34 94 0d 3d 97 58 2b 3c a4 54 ee bc
       -0.03350894 0.034565166 0.010458133 -0.029093094
000080 2e 82 a2 3c e1 03 80 bd 51 09 9c bc 82 0c 41 bc
       0.019837465 -0.0625074 -0.019047411 -0.011782767
000090 4e 64 94 3d 99 cf 64 3d bd c0 e9 bc fc e4 95 bd
       0.07245694 0.055862043 -0.028534288 -0.07319066
0000a0 3c 44 42 3d 66 fd a5 bc 45 e4 2e 3c a8 09 0c bd
       0.047428355 -0.020262431 0.010674541 -0.034188896
0000b0 98 55 e0 bc 12 71 c5 b9 6a e9 05 bc 46 8d c8 bc
       -0.027384564 -0.00037659012 -0.008173326 -0.024481427
0000c0 e0 d7 cf 3c 12 fb 85 3d 09 96 93 bb d9 bd 95 3d
       0.025371492 0.065420285 -0.0045039696 0.07311601
0000d0 a6 43 b1 bb 3b 66 78 3c c3 1d 33 3d 30 40 19 bc
       -0.0054096757 0.015161092 0.043729555 -0.009353682
0000e0 98 b9 35 3c bf 28 ef 3c 8f fa 09 3c b4 cf 0f 3d
       0.011091612 0.029194234 0.008421554 0.03511019
0000f0 a0 7e a6 3c 31 07 82 3d 4e 36 0e bc 79 20 2e 3d
       0.020324051 0.06349028 -0.008679939 0.042511437

actor_mean.2.weight f4 [64, 64]
000000 e7 b4 91 3b f2 35 50 3c 38 51 39 3d 1d 4f bd bb
       0.004446614 0.012708174 0.04524347 -0.0057772533
000010 1d 7f 8a 3e 8e 8d 07 be f5 f1 2f be 0b f0 25 be
       0.27050105 -0.13237593 -0.17182143 -0.1620485
000020 cb 42 bc be 44 af 2b bd 37 10 02 bd 03 43 77 3d
       -0.3676971 -0.041915193 -0.031753745 0.06036664
000030 ac 94 00 be 84 fe 78 be 9e 89 b7 bd 48 d8 dd 3e
       -0.12556714 -0.2431584 -0.08961795 0.43329072
000040 fa 92 55 be e2 0b 52 bd aa 0d 35 bc d8 1f bb bd
       -0.20856848 -0.051280864 -0.011050621 -0.09136933
000050 f1 ca 86 3e 9e 32 12 be 3c 80 de bd 4d d9 9f 3d
       0.26326707 -0.14277121 -0.108643025 0.07805119
000060 d8 7a 9e be fe f0 45 3d 64 1c 14 3e 88 a3 2a 3e
       -0.30953097 0.04832553 0.14463955 0.16663945
000070 ae 5b 24 be a8 6e 65 3d db ca d4 bd 95 bb c6 3d
       -0.16050598 0.056013733 -0.10390254 0.09703747
000080 7a 0c 19 3e eb 61 f8 bd e5 92 8a be 79 41 1f 3e
       0.14946166 -0.12128051 -0.27065197 0.1555232
000090 d0 25 f0 bb df 29 31 be 91 6e 8c 3e cb fc d6 3b
       -0.0073287264 -0.17301129 0.27428105 0.006560897
0000a0 13 69 86 3e 98 85 23 3e f5 d9 fb 3c 13 c5 1d be
       0.2625204 0.1596893 0.030743578 -0.15407209
0000b0 78 0d 4d 3e f4 fb 2d 3e a3 9a 2b be d1 18 54 3e
       0.20024669 0.16990644 -0.16758208 0.20712592
0000c0 84 35 c5 3e 81 ad ce bd ba e8 17 bf 55 6b 6f 3e
       0.38517392 -0.10091687 -0.5933949 0.23380788
0000d0 b1 2e 9c bd 27 69 24 3e 25 62 82 bd 0e 40 c0 bb
       -0.07626093 0.16055737 -0.06366376 -0.005867011
0000e0 1e de ea bb b5 f9 8e 3e 31 03 90 3d f6 49 a0 3d
       -0.0071675917 0.27924886 0.07031859 0.07826607
0000f0 63 04 cc bd 0c d0 a4 bc e3 94 24 be 8a 16 a9 bd
       -0.09961774 -0.020118736 -0.16072421 -0.08256252
000100 2c c6 a2 be 16 a3 0f be 2b 55 95 3e 5d a0 9d bc
       -0.31791818 -0.14027056 0.2916654 -0.019241506
000110 48 a2 c0 3d 5b de 1f 3e 9a c7 ae 3e 78 6a 9c bd
       0.09405953 0.15612166 0.3413666 -0.07637495
000120 05 75 54 3d 67 34 98 3d f3 a3 26 be d7 e3 10 3d
       0.05186941 0.0743187 -0.16273479 0.035373535
000130 8e bd 2d bd c5 80 b4 3c 0e 29 ed 3d d3 d1 26 3e
       -0.0424171 0.022034058 0.11580096 0.16290979
000140 bf 47 1f be 63 15 00 3e e3 2d 95 3e b0 fb ed 3d
       -0.15554713 0.12508158 0.2913657 0.11620271
000150 06 20 12 be 6e a3 ad bd 05 2c 02 be 69 2f ba bb
       -0.14270028 -0.08478437 -0.12712105 -0.0056819213
000160 c8 37 86 3e 68 ab db 3e 0a 87 63 3e 58 6d cc be
       0.26214433 0.4290421 0.22219482 -0.39927173
000170 55 cf 1b bb 23 36 f2 3e 19 86 34 3b 62 6c 1d 3e
       -0.0023774703 0.47306928 0.0027545749 0.15373376
000180 f5 fd 82 be 91 cf 68 3e 0d 6a 4a be 86 29 63 bd
       -0.2558438 0.2273543 -0.19767018 -0.05545952
000190 a2 2c ea 3d 3d b6 cb be fc b3 1b 3e 7a 0e a3 bc
       0.11434294 -0.39787474 0.15205377 -0.019904364
0001a0 32 34 f1 3d 05 25 82 3e 29 94 1a 3c e7 b2 26 3e
       0.117775336 0.2541887 0.009434738 0.16279183
0001b0 24 23 c6 3d ae 01 a3 3c 56 2e 07 be 4b f0 9e be
       0.09674671 0.019898262 -0.1320127 -0.31042704
0001c0 60 56 22 be 60 b8 8a 3c 22 77 17 3e e2 3a ae 3c
       -0.15853262 0.01693362 0.1479154 0.021268312
0001d0 71 af ca bb 3e c2 4a 3c bb 46 81 be 6e 1d e3 bc
       -0.006185465 0.0123754125 -0.25249276 -0.027723994
0001e0 81 ea 54 3d bc d4 9d 3e 66 80 6a be d0 80 a1 bd
       0.051981453 0.30826366 -0.22900543 -0.07885897
0001f0 6c ea f2 3d e5 23 21 bd f6 c1 46 3e 7c 4d 40 ba
       0.11861119 -0.039340872 0.19409928 -0.0007335765
000200 6a 95 ee bd 25 e6 dd 3d b3 b9 76 bd a7 7f 4f be
       -0.11649592 0.10834912 -0.06023569 -0.20263539
000210 cb 1b 8f bd 07 17 dd 3d c8 70 cb be 1b 5c 1c 3d
       -0.06987723 0.10795408 -0.39734483 0.038173776
000220 af 91 d3 3d ee 9c 1b 3e a6 96 09 3d f9 dc f8 3d
       0.10330521 0.15196583 0.033590935 0.12151522
000230 10 41 83 be 0f a8 cb be a9 a5 03 3e 5c 4c 48 3d
       -0.25635576 -0.39776656 0.12856163 0.048900947
000240 c7 8d 9e 3d 0d 54 09 3e b6 2a 9c 3d b0 d9 2a be
       0.07741886 0.13410969 0.07625334 -0.16684604
000250 2b 41 f5 3d 8a 4f 31 be b5 ed 5f 3e 2a d9 83 bd
       0.119753204 -0.17315498 0.21868022 -0.06437905
000260 a2 f0 1c 3e 80 81 ad bd fb 6a 2b 3c 39 50 13 bd
       0.15326169 -0.08471966 0.010462518 -0.03596518
000270 f7 be b9 3e 87 a4 94 3e 3a 35 65 3c 17 f5 ee bd
       0.36278507 0.29031774 0.013989741 -0.11667841
000280 be 3a 3c be c4 f1 da bc 3a fc a4 bd 1d ab 01 bd
       -0.18381783 -0.026726611 -0.08055921 -0.031657327
000290 a9 b6 83 be e4 54 98 be 72 81 44 bd 61 8a a4 3d
       -0.25725296 -0.29752266 -0.04797501 0.08034206
0002a0 20 78 0f be 82 52 11 3d 39 4f d2 3e e7 75 ca be
       -0.14010668 0.035479076 0.41076067 -0.39543077
0002b0 05 1d bc be aa 73 f6 ba 80 9d 18 3e 6f 38 0c 3e
       -0.3674089 -0.0018802781 0.14903831 0.13693403
0002c0 42 5a 2a 3e 69 c4 16 be fb 88 fc 3d 7c e9 8d bd
       0.16635993 -0.14723362 0.123308145 -0.06929299
0002d0 c0 bd 8f 3e 4f 1e 31 be b7 3f f9 3d 54 95 bf bc
       0.28074455 -0.17296718 0.12170356 -0.023386635
0002e0 90 37 d0 bc 7c 36 18 3e 8d da 41 be b2 77 4d be
       -0.02541712 0.14864534 -0.18931027 -0.20065191
0002f0 48 21 8a bd dc a6 7a 3e 9b fd f6 3d e3 88 a4 be
       -0.06744629 0.24477714 0.1206009 -0.32135686
000300 23 8c 92 be 89 58 b2 bd 03 5f 44 bd 58 b5 87 3d
       -0.2862254 -0.08708293 -0.047942173 0.066263855
000310 35 df 10 be 68 13 8a 3e e2 02 82 be 4c 51 a6 3d
       -0.14147647 0.2696793 -0.25392824 0.08120975
000320 2a 7b 89 3d 2a 0c 4f be 2a 5c 2b bd 83 9c 6e 3e
       0.06712945 -0.20219484 -0.04183594 0.23301892
000330 70 84 1d 3c 69 01 36 be a3 a5 89 bd b7 4b 30 be
       0.009614095 -0.17773975 -0.06721046 -0.17216383
000340 c8 0a f3 bc 9b 9a d0 bd 82 58 a0 bc 93 68 44 be
       -0.029668227 -0.10185739 -0.019573454 -0.19180517
000350 59 28 01 bd 3b 50 0a 3e 49 b2 89 3e a4 55 63 bd
       -0.03153262 0.13507168 0.26893833 -0.055501595
000360 a5 1a 7a 3d ea 01 3b bd 32 1f 87 3d 34 7f b8 3d
       0.061060566 -0.045656122 0.06597747 0.09008637
000370 ad 00 1f bd ca 42 63 3c 4c 64 ef 3d 21 77 e9 3e
       -0.038819004 0.013870904 0.11689052 0.455987
000380 85 85 29 3e e2 96 4d be 56 bb 85 be 84 ff 5a bd
       0.1655484 -0.20077088 -0.26119488 -0.053466335
000390 5d 4f 31 3e 2f c2 1e 3d 2f f3 e4 ba 89 ed e8 3c
       0.17315431 0.038759407 -0.0017467494 0.028433578
0003a0 c9 2a 80 bd 76 4e d1 3e c8 ec f5 3e 25 77 d7 3d
       -0.062581606 0.40880173 0.48032212 0.10520772
0003b0 15 38 55 3d dc a4 2f bd 88 c4 21 3e d9 e1 42 be
       0.052055437 -0.04288183 0.15797627 -0.19031467
0003c0 0d 5a 5d 3e 96 2e 50 bd c9 f1 39 3e ec 51 27 bc
       0.21616383 -0.050825678 0.1815864 -0.010212403
0003d0 89 bc d0 be 30 e0 88 3d d6 19 43 bd 9b 57 2d bd
       -0.4076884 0.06683385 -0.04763206 -0.042319875
0003e0 92 0e c6 3d fb 23 f8 bd b8 75 7b 3e c2 59 07 be
       0.09670748 -0.12116238 0.24556625 -0.13217834
0003f0 77 43 86 3e 67 e9 d2 3c 40 2e 9e bd fc 56 0e 3f
       0.26223347 0.02574606 -0.07723665 0.5560148

actor_mean.2.bias f4 [64]
000000 f9 b6 42 bd 4c 2b a9 3b ad ba 87 3d 2e 4f 8c 3d
       -0.047537778 0.005162632 0.066274025 0.0685104
000010 e6 47 1b 3e 57 5c 8a bd 4e 4c 7d 3d 47 78 9a bc
       0.15164146 -0.06755894 0.061840348 -0.01885618
000020 24 de 88 3d 05 2f 0a bd 64 c7 bd bd 25 50 f8 3c
       0.06682995 -0.033736248 -0.09266546 0.030311653
000030 86 32 1b be b2 10 91 3c ce 3a a2 bd 05 e2 78 bd
       -0.15155992 0.017708156 -0.07921372 -0.060762424
000040 b0 b7 99 bd 54 cb 54 be 2c 82 ce bd 16 0d 43 3e
       -0.07505739 -0.20780689 -0.10083422 0.1904796
000050 f1 9a fb bd 90 7b 93 3c 4a 02 9b bc c1 e3 41 bd
       -0.12285412 0.018003255 -0.01892199 -0.047336344
000060 06 ed 83 bd 92 56 83 3d b9 14 6f bd ff 53 c9 bc
       -0.06441693 0.06412996 -0.058369372 -0.024576185
000070 3a 62 08 be a9 b9 bd bd d6 67 55 bd e2 e2 2d be
       -0.1331872 -0.092639275 -0.05210098 -0.1698108
000080 72 63 e5 bd 71 7c 02 be 6b 85 36 bd cd 9f 81 3d
       -0.11200608 -0.12742783 -0.04456083 0.06329308
000090 01 7d 9a 3d a8 84 ce 3d b8 59 8a bd cb af 38 3d
       0.07543374 0.10083896 -0.06755394 0.045089524
0000a0 41 2f a0 3d 6b 32 13 be 70 ff 26 be 10 b0 90 3d
       0.07821513 -0.14374702 -0.16308379 0.07064831
0000b0 6b 47 ef 3c 20 d0 c0 3d 51 d9 86 3d ca 92 2c be
       0.02920886 0.09414697 0.065844186 -0.1685287
0000c0 97 b4 dc bd 3a cf a3 3d 08 37 20 3d 69 29 f5 3c
       -0.10776632 0.0799851 0.039114982 0.029926972
0000d0 56 2c 53 bd 15 02 25 3d ec 25 06 bc 78 c5 de bd
       -0.051555954 0.04028519 -0.008187752 -0.10877508
0000e0 d6 b3 4e 3c 57 9e d9 3d 0d 90 3b be 29 2f 29 3e
       0.012616118 0.10625904 -0.1831667 0.16521896
0000f0 75 00 0d 3b 89 d8 0e be a3 95 46 bd a7 7f ad 3d
       0.0021515165 -0.13949789 -0.04848255 0.084716134

actor_mean.4.weight f4 [17, 64]
000000 8d 0b e4 bc 11 90 18 3d af 92 bc 3c 21 d1 a7 3d
       -0.02783754 0.037246767 0.023019163 0.08194185
000010 b7 c9 9b 3d b3 e9 b6 bc 0e a1 77 bb d9 92 b1 3c
       0.076068334 -0.022328233 -0.0037785205 0.021676468
000020 e9 8c dd bb 12 99 82 bd 77 20 24 bd a2 91 b0 3d
       -0.0067611826 -0.06376852 -0.040070023 0.08621527
000030 ab fe 21 bd 90 f9 b2 bd a1 e8 be bd fd 9d 9d bb
       -0.03954951 -0.087390065 -0.09321714 -0.0048100934
000040 81 ec 5e bc 94 63 8a 3c ba 96 cc 3b b0 50 4a 3d
       -0.013606192 0.016893186 0.006243554 0.049393356
000050 d8 a8 8f 3c 1f ea b8 3c e1 47 1d 3d 08 51 d1 bd
       0.017536566 0.022572575 0.038398627 -0.102205336
000060 12 85 a8 3d 75 21 34 3d c7 03 be bc 83 2a 16 3d
       0.08228506 0.04397722 -0.02319516 0.036661636
000070 f1 d9 b4 bd bb a3 a5 bd 69 1f f0 bc e5 a5 25 3d
       -0.088306315 -0.0808787 -0.029311853 0.040441412
000080 6c 6b ac 3b 44 c0 19 bd b4 6e 7a 3c 63 b3 01 3d
       0.005261829 -0.037536874 0.015285183 0.031665217
000090 ea f3 07 bd 9b 9a 3c 3d 20 76 23 bd 44 77 4e 3d
       -0.0331916 0.04604588 -0.039907575 0.05040671
0000a0 70 46 d1 ba 44 1f c6 3b 55 3e df bd 16 d0 14 3a
       -0.0015966427 0.0060462076 -0.10900561 0.0005676759
0000b0 0f 49 db ba f9 33 3d 3d 49 18 98 3b 9b 82 34 bd
       -0.0016730147 0.046192143 0.004641567 -0.044069868
0000c0 ee e5 ed b9 22 ef 02 3d 0d f0 e8 3b e7 7e 65 3d
       -0.00045375474 0.031966336 0.0071086944 0.056029227
0000d0 5e f0 bc 3b a9 48 93 bd 28 04 0f bc 62 54 30 3d
       0.0057659587 -0.07191593 -0.008729018 0.043049224
0000e0 ed 67 4d 3b dc 4c af 3d 71 6f 01 be 01 da 2d 3c
       0.0031342462 0.08559582 -0.12640168 0.010611058
0000f0 9d e1 ba bc 51 9a 43 3d 79 76 84 ba 01 ae 1d 3d
       -0.022812659 0.04775459 -0.0010106108 0.03849602
000100 31 51 13 3d 1a cd 03 3d 3f f3 df 3b c9 57 03 bd
       0.035966102 0.032178022 0.006834417 -0.03206614
000110 31 e7 99 bc 6e fe 0e 3d fd 3c 2b bc f4 33 07 b9
       -0.018786998 0.03491061 -0.010451552 -0.00012893957
000120 ce fb 32 bc 28 3e 7a 3c 76 81 05 3c 7d 77 d7 ba
       -0.010924293 0.015273608 0.008148542 -0.0016438809
000130 0b 2a 92 ba a9 12 20 ba 65 53 2d bc fe d0 dd bb
       -0.0011151446 -0.0006106296 -0.010578965 -0.0067692986
000140 61 b0 4a bb 73 44 a8 3d 44 71 bc 3c 50 02 8d bd
       -0.0030927884 0.08216181 0.023003228 -0.06885207
000150 47 08 e6 3c 4d 26 0a 3d a7 35 3f bd 58 62 8b 3c
       0.028080119 0.033727933 -0.046682026 0.017014667
000160 44 27 03 3d 1a f8 72 3c ec 56 56 3c a3 c3 ae ba
       0.03201987 0.01482966 0.013082247 -0.0013333451
000170 be 68 68 3c c7 e5 d8 3c 77 10 51 3d 4b 11 e3 bc
       0.014185129 0.026476754 0.051041093 -0.027718207
000180 32 75 05 3d ba 86 9d 3c 11 95 65 3d 85 2b 83 3d
       0.03258247 0.019229282 0.056050364 0.06404785
000190 f1 b8 39 3d 8c 24 fb 3c 4a dd a7 bc 43 d1 47 bd
       0.04534239 0.030657075 -0.020491261 -0.048783552
0001a0 ea 52 86 bb eb 61 6d 3d db 6f 89 ba a8 22 b6 bc
       -0.0040992396 0.05795471 -0.0010485606 -0.022233322
0001b0 7c 40 40 bd 6e cc 42 bc 13 83 69 3d 4f 55 68 3c
       -0.046936497 -0.01188956 0.057009768 0.014180495
0001c0 9c d7 28 3d 58 7c 6f bc 67 cc 5a 3c 12 2e b4 bb
       0.041221246 -0.014617048 0.013354397 -0.005498656
0001d0 39 6c b8 3b 1c fe ad 3b 1b 1d dc bc 63 a0 5c bd
       0.0056281355 0.005309833 -0.026869347 -0.053863894
0001e0 89 47 88 bc 07 5a 53 3d b2 0f d6 3c a9 5a c6 3d
       -0.016635673 0.05159953 0.026130531 0.09685261
0001f0 e5 07 45 3c d3 17 53 3d b9 9a 8d bc 3e 06 bd 3c
       0.012025808 0.051536392 -0.017285692 0.023074266
000200 7c 41 31 3d 45 61 04 bd 7f ea 6f b9 2f 74 59 bc
       0.04327534 -0.032319326 -0.00022880173 -0.013272329
000210 27 af 66 3c c7 0c 85 bd ef fd 1c 3d 62 5c 19 bd
       0.0140798455 -0.06496578 0.038328107 -0.03744162
000220 be dd 22 bd 41 bf 84 bc b6 8e b8 ba 7c 35 71 bc
       -0.03976225 -0.016204478 -0.0014080617 -0.014722224
000230 09 59 f8 bc 9a 01 46 bd 6e 5e 97 bb 4f 35 c2 3c
       -0.030315893 -0.04834137 -0.004619411 0.02370706
000240 c4 fd c2 39 22 5c 4e bd 5e 70 e7 3c ae 13 9e 3c
       0.00037191634 -0.050380833 0.028251823 0.019296493
000250 ed 69 df bc 1a 64 07 3a 77 ad d4 bc 7b 08 d2 3c
       -0.027272189 0.00051647576 -0.02596162 0.02563881
000260 20 36 23 bb 85 4b a3 bc 38 6b 2f bd 19 79 07 3d
       -0.0024904087 -0.019933471 -0.04282686 0.033074472
000270 7d 27 0d 3c 39 f8 0c bc b9 94 dc bb 80 86 80 bc
       0.008615372 -0.008604103 -0.0067315963 -0.015689135
000280 52 82 14 3d 2a 7a 97 3c 37 bd f8 3c 5f e1 82 3d
       0.036257096 0.01849087 0.030363662 0.063906424
000290 06 bb 95 3c 2a 91 7a 3c ab 96 39 3d c7 09 39 3c
       0.018277656 0.015293399 0.045309704 0.011293835
0002a0 a5 dc 1c 3d eb ee 90 3d 3e df b3 3d 79 19 27 bd
       0.03829636 0.0707682 0.087828144 -0.040795777
0002b0 a1 3b c6 3d 76 1e aa bd 11 a3 30 bc 91 7e 44 3c
       0.09679342 -0.08306591 -0.010781066 0.011993066
0002c0 2c ae d1 3c 59 cb 7a bd 34 f9 24 3d da 4c 16 3d
       0.025595747 -0.061229084 0.04027672 0.036694385
0002d0 e6 bd 54 bd 3f d4 99 3c 41 78 95 bc 3b 97 75 bb
       -0.051938914 0.018777965 -0.018245818 -0.0037474174
0002e0 36 39 96 3d a3 dd 6f bc 14 61 12 3d a6 85 0f bd
       0.07335131 -0.014640245 0.035737112 -0.035039566
0002f0 30 1a 4e 3d 3e c7 06 bd 19 e4 12 3a 56 15 0d bd
       0.050317943 -0.032904856 0.0005603447 -0.034444176
000300 6f b7 82 bc 62 81 33 3c f9 e7 db bc 5c ae e9 3d
       -0.015956609 0.01095614 -0.026844012 0.114102095
000310 3f 53 53 3c 72 2e ee bc 10 df c4 3b 40 d6 18 3d
       0.012898265 -0.029074881 0.0060080364 0.0373137
000320 4a 79 02 bc c5 a4 95 3c ba 3e 8b bd b1 83 65 bd
       -0.007963488 0.018267045 -0.067990735 -0.056033794
000330 68 95 37 3d 77 6e 4b bd 65 c9 73 bc d7 94 53 3c
       0.04482022 -0.049665894 -0.014879559 0.012913904
000340 d5 26 16 3d 5c 40 5c 3b a6 56 dc 3c e7 47 ba bc
       0.036658127 0.0033607697 0.026896786 -0.022739364
000350 a7 7d f1 b9 e4 80 b2 bc 4e 1f 83 3d 33 ef 95 3c
       -0.0004606072 -0.021789975 0.06402455 0.018302536
000360 39 26 34 3b b7 6b b3 bb 1c 27 7e 3c e0 80 6c 3d
       0.0027488603 -0.005475487 0.015512254 0.057740092
000370 41 56 a5 3c 95 5f db bc 0b e6 9e 3c 42 da 63 3c
       0.02018273 -0.026778976 0.019396802 0.013907017
000380 13 a4 36 3d 39 a8 3c bc bb f2 a9 bd 21 83 1a 3d
       0.044590067 -0.011514717 -0.0829825 0.03772271
000390 df c7 8c bd c8 64 2e 3b af af 8d 3c ca 52 3a bd
       -0.0687406 0.0026610363 0.017295687 -0.04548911
0003a0 5c 06 8e 3c 6b 58 d8 bc 59 ed 62 3c 1b c5 01 3d
       0.017337017 -0.026409348 0.013850533 0.031682115
0003b0 d0 c6 e9 3c 9c 3a 39 3b de ec 20 3d 6e 49 12 bd
       0.028537184 0.0028263694 0.039288394 -0.03571456
0003c0 6c 87 51 bd 04 6b 23 bd d7 37 2e 3d 41 71 84 bc
       -0.05115454 -0.03989698 0.04253372 -0.016167285
0003d0 65 4f 79 3d 0c eb 80 bc de 51 8f 3d b0 64 4c 3d
       0.060866732 -0.01573708 0.06998037 0.04990071
0003e0 42 04 fe bc 5a 28 f3 bc 2b d9 8c bd 00 11 86 bd
       -0.03100789 -0.029682327 -0.06877359 -0.06546211
0003f0 47 f8 58 ba d0 98 0e 3d 2f 86 eb bc 6e 68 89 3c
       -0.00082767423 0.034813702 -0.028750507 0.016773429

actor_mean.4.bias f4 [17]
000000 76 f9 97 3d 11 f9 44 bd cd 3e ce 3c 91 93 a2 3c
       0.07420628 -0.04808909 0.02517643 0.019845756
000010 9b a2 bd 3d 82 f5 a5 3d 50 38 a2 3e 2e 13 a2 3c
       0.0925953 0.081034675 0.31683588 0.019784536
000020 19 39 bc bc 56 2e ac 3c 86 54 7c 3e 0a 20 4f bb
       -0.022976445 0.021018188 0.24641618 -0.003160479
000030 b9 27 c6 bc f6 58 16 bc 41 43 3a 3d b2 76 86 bd
       -0.024188863 -0.009176483 0.045474295 -0.06565608
000040 65 a4 59 3d
       0.053135294
