saved_agents/walker2d_b.pth (torch, 607669 bytes, 28 tensors)

actor_logstd f4 [1, 6]
0	0xbe5b4405	-0.21412666
1	0xbe7c98d4	-0.24667674
2	0xbe42c1a5	-0.19019182
3	0xbd876fde	-0.06613134
4	0xbe281f39	-0.1641816
5	0x3d0c323a	0.034227587

critic.0.weight f4 [64, 20]
0	0x3f1b6406	0.606995
1	0xbe5adc79	-0.21373166
2	0x3cb0b9b3	0.021572923
3	0x3e27eb2d	0.16398306
4	0xbd88dc7d	-0.0668268
5	0x3f2ae4fc	0.6675565
6	0x3d9b2374	0.075751215
7	0xbd95f296	-0.0732166
8	0xbe930458	-0.28714252
9	0x3e4e71ea	0.20160642
10	0xbbb0b29d	-0.005392386
11	0xbe0eed20	-0.13957644
12	0xbd4cc6da	-0.049994327
13	0x3c6456c7	0.013936705
14	0x3dcb5df7	0.09930032
15	0x3d92f24d	0.071751215
16	0x3b459292	0.0030147177
17	0x3eefda09	0.46846035
18	0x3aac819a	0.0013161183
19	0x3d0ad686	0.03389599
20	0x3ef987d3	0.48736438
21	0x3eaf0575	0.3418385
22	0x3dbd9eac	0.0925878
23	0x3ebd9da6	0.3703434
24	0x3dd197b6	0.10234015
25	0xbec77f02	-0.38964087
26	0x3f1ca1c6	0.61184347
27	0x3e28baef	0.1647756
28	0x3ea8233d	0.32839385
29	0xbda70344	-0.0815492
30	0xbda16e70	-0.078823924
31	0xbd265a4c	-0.040613458
32	0xbd12e923	-0.035866868
33	0x3cf48184	0.029846914
34	0x3e07f6e8	0.13277781
35	0x3ccf4265	0.025300214
36	0x3c1590f2	0.009128796
37	0x3e3f3060	0.18670797
38	0x3f0327f1	0.5123282
39	0x3d1bba43	0.03801943
40	0x3e025f94	0.12731773
41	0x3f6461b8	0.89211607
42	0xbf10b4ce	-0.56525886
43	0xbe90b4f4	-0.28263056
44	0xbe3ff986	-0.1874753
45	0x3d8faf1b	0.070158206
46	0xbe936528	-0.28788114
47	0x3dfc5329	0.12320549
48	0x3f645afd	0.8920134
49	0x3d9e7dfc	0.07738873
50	0xbcba3e9c	-0.022734933
51	0xbea371c1	-0.31922725
52	0xbe27ddce	-0.16393206
53	0xbd2fe8e0	-0.042946696
54	0x3e937de6	0.2880699
55	0x3d96fe02	0.07372667
56	0xbbc0a738	-0.005879309
57	0xbc8c41ef	-0.017121283
58	0x3d33779d	0.043815244
59	0x3e5a265f	0.213037
60	0x3ef7dd74	0.48411143
61	0xbe23c571	-0.15993287
62	0x3d5a1f17	0.053252306
63	0xbe4469b0	-0.19180942
64	0xbe83f708	-0.25774407
65	0xbeb1b457	-0.347079
66	0xbe6797c8	-0.22616494
67	0x3e116100	0.14197159
68	0x3e98dc48	0.2985556
69	0x3e815ca0	0.2526598
70	0x3d770468	0.060306937
71	0x3d9342ed	0.071904995
72	0xbdb716ba	-0.089398816
73	0xbdadb505	-0.08481792
74	0xbe04bf91	-0.12963702
75	0xbd867afa	-0.06566425
76	0x3cc39d3b	0.023878684
77	0xbd2d0513	-0.042241167
78	0x3f127170	0.5720434
79	0xbd68955b	-0.05678306
80	0xbe1dd026	-0.15411434
81	0xbf242d59	-0.64131695
82	0x3e38e9a4	0.18057877
83	0xbe14061a	-0.14455453
84	0xbd6292d5	-0.05531581
85	0x3f28e4f3	0.6597435
86	0x3edc2b34	0.4300171
87	0x3e471878	0.19442928
88	0xbf6e0a64	-0.92984605
89	0xbec15b4b	-0.37764964
90	0x3e77e000	0.24206543
91	0xbe584c66	-0.21122894
92	0xbcaa29ca	-0.02077188
93	0x3cb86e48	0.022513524
94	0xbd0e8ab5	-0.03480025
95	0x3d3f81e7	0.046754744
96	0x3b5c16a4	0.003358283
97	0xbd0674c5	-0.032826204
98	0x3d7358b2	0.05941076
99	0xbd1e7ccd	-0.038693238
100	0x3e86db46	0.26339167
101	0xbdfc7881	-0.12327672
102	0xbd8fb935	-0.07017747
103	0x3e443152	0.19159439
104	0xbe2bcd64	-0.16777569
105	0xbe0b11dc	-0.13581032
106	0xbeba3cc0	-0.36374474
107	0xbe584b53	-0.21122484
108	0x3e012dc9	0.12615122
109	0x3e7b6d8c	0.24553508
110	0x3c5b2b8c	0.013377082
111	0x3e3f4cfa	0.18681708
112	0xba36afa6	-0.00069689227
113	0xbd118424	-0.03552641
114	0xbdd74055	-0.10510317
115	0x3d89272d	0.06696925
116	0x3d2747d4	0.040839985
117	0xbe2ff910	-0.17184854
118	0x3c543de7	0.012954212
119	0x3f0af710	0.5428324
120	0x3ce32c39	0.027731048
121	0xbe87dd19	-0.26535872
122	0xbe9c2358	-0.30495715
123	0xbe6ce7e6	-0.23135337
124	0x3dfeabae	0.12435089
125	0xbde3e5ff	-0.11127853
126	0x3e2a3e78	0.16625392
127	0x3e2cc609	0.1687242
128	0xbf1b8f98	-0.6076598
129	0xbde7a464	-0.11310652
130	0x3f32b498	0.69806814
131	0xbe9c25cb	-0.30497584
132	0xbe3a8334	-0.18214113
133	0xbb4454dd	-0.002995781
134	0xbddd25cb	-0.10798224
135	0xbdb43ffb	-0.08801266
136	0xbc843fa6	-0.016143631
137	0xbea84079	-0.3286169
138	0xbe8505f6	-0.2598111
139	0xbdd13737	-0.102156095
140	0x3eb015a2	0.34391505
141	0xbfa8f731	-1.3200437
142	0x3ea5e903	0.32404336
143	0x3e37d634	0.17952806
144	0xbe43d23e	-0.1912317
145	0xbd6fdeeb	-0.0585622
146	0x3930d827	0.00016865191
147	0xbd51d731	-0.051230613
148	0xbf26810b	-0.65040654
149	0xbf0310c7	-0.51197475
150	0x3ea7c84d	0.32770005
151	0xbe16e47d	-0.14735599
152	0xbe0bc179	-0.13648023
153	0xbadd55b8	-0.0016886508
154	0x3c4b1655	0.012395461
155	0x3bd04bcc	0.006356692
156	0xbc41b1f5	-0.011822213
157	0xbdd7440a	-0.10511024
158	0xbe5e4454	-0.21705753
159	0x3d84a415	0.06476609
160	0x3ec3403e	0.3813495
161	0xbf1651d8	-0.58718634
162	0x3eaa2cde	0.33237356
163	0xbd2f82b6	-0.042849265
164	0x3ea2747c	0.31729496
165	0x3f027dca	0.5097319
166	0xbd90981c	-0.070602626
167	0x3de6caba	0.11269136
168	0xbe9cbb94	-0.3061186
169	0x3e538f5a	0.20660153
170	0xbd8093e1	-0.06278206
171	0xbbb331f3	-0.005468601
172	0x3d021745	0.031760473
173	0x3c82a48d	0.015947605
174	0x3dd3f59b	0.1034958
175	0x3d46f3aa	0.04857222
176	0x3b77a794	0.0037789093
177	0xbd23cf88	-0.03999284
178	0x3d0dabd6	0.034587704
179	0x3f0f854c	0.5606277
180	0xbe3733a2	-0.1789079
181	0x3f5081aa	0.8144785
182	0xbdc51814	-0.09623733
183	0xbdfa1f97	-0.122130565
184	0xbe13eb73	-0.14445285
185	0x3b0517c7	0.0020308362
186	0x3e0fa1ad	0.14026518
187	0x3e2afd0b	0.1669809
188	0x3cfbad77	0.030722363
189	0x3d363654	0.044485405
190	0xbe9e0287	-0.30861303
191	0xbc65aee0	-0.014018744
192	0x3dc0d2e8	0.09415227
193	0x3cdbbdd4	0.026823916
194	0x3df17777	0.11790364
195	0x3e017267	0.12641297
196	0xbc8a5c59	-0.016889738
197	0xbd8263c2	-0.063666835
198	0xbe0619f1	-0.13095833
199	0xbdbab63c	-0.0911679
200	0x3d1318c1	0.03591228
201	0xbf3cb0a9	-0.7370706
202	0xbc5811f9	-0.013187879
203	0xbd4a53af	-0.049396213
204	0x3e37a5e6	0.17934379
205	0x3f2562c6	0.6460384
206	0x3d853d28	0.06505805
207	0xbdfc4138	-0.12317127
208	0xbf226909	-0.6344152
209	0x3e561866	0.20907745
210	0x3d98230b	0.07428559
211	0x3c9495ab	0.018137773
212	0x3cde48aa	0.027134258
213	0x3cb08502	0.021547798
214	0x3d3075b3	0.043080997
215	0x3e148bc1	0.14506437
216	0x3d8d7e9e	0.06908916
217	0x3ddac95b	0.10682937
218	0xbd0d8d57	-0.03455862
219	0xbc474753	-0.012163001
220	0x3ee92ee6	0.45543593
221	0x3f48fc83	0.785103
222	0xbe5d0735	-0.2158478
223	0xbe868922	-0.262765
224	0xbdd8c416	-0.105842754
225	0xbf1adacb	-0.604901
226	0xbe37cd76	-0.17949471
227	0xbdeb8d84	-0.11501601
228	0x3ee37ed0	0.44432688
229	0x3d8bc10b	0.068239294
230	0xbe4b70b5	-0.19867213
231	0x3d5601eb	0.052247923
232	0xbbd9f698	-0.0066517107
233	0x3b4cd675	0.0031255756
234	0x3e34d86b	0.17660682
235	0x3d121280	0.035662174
236	0xbc076e26	-0.0082660075
237	0x3d87ba14	0.066272885
238	0x3de02513	0.10944571
239	0x3e9ce12e	0.30640548
240	0xbeab503e	-0.33459657
241	0x3d454a1e	0.048166387
242	0x3d9bd1ac	0.07608351
243	0x3e393cc4	0.18089586
244	0xbe27a4cf	-0.16371463
245	0xbd953bc6	-0.072867915
246	0xbe1df814	-0.15426666
247	0xbe8c3d6e	-0.27390617
248	0x3de04e1d	0.10952399
249	0xbf0ce782	-0.5504075
250	0x3d899fba	0.067199185
251	0x3e231dd0	0.15929341
252	0x3dbc3a41	0.091907986
253	0x3e27d409	0.16389479
254	0x3d3e45ca	0.046453275
255	0x3d557130	0.052109897

critic.0.bias f4 [64]
0	0x3e0234ef	0.12715505
1	0x3e15473e	0.14577958
2	0x3ce7bfd2	0.02828971
3	0x3d865fc5	0.06561235
4	0xbcb8206f	-0.022476403
5	0x3d02f2bb	0.031969767
6	0xbc68e41c	-0.014214542
7	0xbb44ecce	-0.0030048373
8	0x3e1ca819	0.15298499
9	0xbdb5b508	-0.088724196
10	0xbd732b8c	-0.0593677
11	0x3ce7c100	0.028290272
12	0xbe21c366	-0.15797195
13	0x3e08c22c	0.1335532
14	0xbdf72cab	-0.120690666
15	0xbdea002d	-0.11425815
16	0x3e5f9bbe	0.21836755
17	0xbe2d1473	-0.16902332
18	0x3e216716	0.1576198
19	0xbdc1324c	-0.094334215
20	0xbe0d4a17	-0.13797794
21	0xbe7ef6a1	-0.24898769
22	0xbccca8e3	-0.024982875
23	0x3d54dd68	0.051968962
24	0xbd713dbf	-0.058896776
25	0x3e14481a	0.1448063
26	0xbe31155e	-0.17293307
27	0x3dae57ec	0.085128635
28	0x3d76c092	0.060242243
29	0xbc12b5e2	-0.008954497
30	0x3d17589d	0.036949743
31	0x3d280adf	0.041025992
32	0x3e40fdcf	0.1884682
33	0x3e45ff43	0.19335656
34	0x3e0e8301	0.13917162
35	0xbd83a116	-0.06427209
36	0xbdc1e578	-0.09467596
37	0xbeb5c720	-0.35503483
38	0xbcefb05b	-0.029258898
39	0x3a071f4f	0.00051545067
40	0x3bd84127	0.0065995636
41	0x3e7e432c	0.24830312
42	0x3da35044	0.07974294
43	0x3d991382	0.07474424
44	0x3d66d3f1	0.056354467
45	0xbe2aabad	-0.16667052
46	0x3e0aca5b	0.13553755
47	0xbdfc5fd6	-0.12322967
48	0xbe3e74f0	-0.18599296
49	0xbdd2bec3	-0.10290291
50	0xbe8d1dc4	-0.27561772
51	0xbe4ae31f	-0.19813202
52	0xbe9373b1	-0.28799203
53	0x3d89f5ae	0.06736313
54	0x3e2fd42e	0.17170784
55	0xbd38ff1f	-0.045165177
56	0xbe7affbb	-0.24511616
57	0xbe08230a	-0.13294616
58	0x3ddfcad2	0.10927357
59	0xbde16dd5	-0.11007277
60	0xbe242307	-0.16028987
61	0xbd714960	-0.058907866
62	0x3e239a28	0.15976775
63	0xbe1bbdda	-0.15209141

critic.2.weight f4 [64, 64]
0	0xbe0d0c50	-0.13774228
1	0x3effdb64	0.4997207
2	0x3eb3de0c	0.35130346
3	0xbddda27e	-0.108220086
4	0xbeaee09f	-0.34155747
5	0x3e2dc622	0.16970113
6	0xbf2dbaf3	-0.67863387
7	0xbdae1063	-0.08499219
8	0xbe9977c2	-0.2997418
9	0x3eb0a279	0.34498957
10	0xbe52fd53	-0.20604448
11	0x3e9861c7	0.29762098
12	0xbcead8f2	-0.0286679
13	0x3eee08fb	0.46491227
14	0xbda9dd95	-0.082942165
15	0xbca769e4	-0.020436235
16	0x3e25a9e5	0.16178091
17	0xbe5982ba	-0.21241274
18	0x3f46c74a	0.7764784
19	0xbc16df21	-0.0092084715
20	0x3e32be28	0.17455351
21	0xbdd0f14b	-0.10202273
22	0x3ef11bac	0.47091424
23	0xbb110748	-0.0022129584
24	0x3d3e503c	0.046463236
25	0x3ce9c3ec	0.028535806
26	0x3e0969df	0.13419293
27	0x3e33fa28	0.17575896
28	0x3e571610	0.2100451
29	0x3f33bbda	0.70208514
30	0xbf623656	-0.8836416
31	0xbe50a979	-0.20377149
32	0xbd716f82	-0.058944233
33	0x3de0d768	0.109785855
34	0xbe99d174	-0.30042613
35	0x3e89c9af	0.26911685
36	0xbe1efcc2	-0.15526107
37	0xbe59424f	-0.21216701
38	0xbd8196eb	-0.063276134
39	0xbe54b477	-0.20771967
40	0x3f103724	0.5633414
41	0x3e429519	0.19002189
42	0xbc62dc3e	-0.013846455
43	0x3e8328b5	0.25616995
44	0xbbd72a52	-0.0065663243
45	0xbe88c73c	-0.26714504
46	0x3c16b00f	0.009197249
47	0xbe860d0d	-0.26181832
48	0xbf39c1a1	-0.7256108
49	0x3f275bff	0.6537475
50	0xbe89e222	-0.26930338
51	0xbe959064	-0.29211724
52	0xbc603253	-0.013683873
53	0x3f2450ba	0.6418568
54	0x3e9acb86	0.302334
55	0xbf518b6d	-0.8185337
56	0xbd9dc531	-0.07703627
57	0xbee384a0	-0.44437122
58	0x3ef05f73	0.46947822
59	0xbd5316a6	-0.05153527
60	0xbe4d3f6a	-0.20043722
61	0x3e72a50b	0.23695771
62	0x3e7faf67	0.24969254
63	0x3c73efb6	0.0148886945
64	0xbf527059	-0.8220268
65	0xbe98007d	-0.29687873
66	0x3e741643	0.23836617
67	0x3cc0ec1f	0.023550091
68	0x3d70986c	0.05873911
69	0xbec2b344	-0.38027394
70	0xbe953b84	-0.2914697
71	0xbe09be8d	-0.13451596
72	0xbf1efbc8	-0.6210294
73	0x3e87f9fb	0.26557907
74	0x3e45ce34	0.19316941
75	0xbe4e1c3b	-0.20127957
76	0xbdf248bc	-0.11830279
77	0xbe61e09c	-0.22058338
78	0xbbf860f0	-0.007579915
79	0xbdead950	-0.1146723
80	0xbfa6ab25	-1.3020979
81	0xbddd02e3	-0.10791566
82	0xbe980175	-0.29688612
83	0x3dbaddb0	0.09124315
84	0x3f01329e	0.5046786
85	0x3e09f272	0.13471392
86	0x3e19afc8	0.15008461
87	0xbe1777fa	-0.14791861
88	0x3d36bbe5	0.044612784
89	0x3dd7d145	0.10537962
90	0x3f755025	0.95825416
91	0x3dc6ea4d	0.09712658
92	0xbec5d3ee	-0.38638252
93	0xba648870	-0.00087178405
94	0xbd3dc15d	-0.046326984
95	0xbe1c45d2	-0.1526101
96	0xbf4a313d	-0.7898138
97	0x3c846e16	0.016165774
98	0xbf8d443a	-1.1036446
99	0x3f122267	0.57083744
100	0x3e66fa23	0.22556357
101	0x3e3a35e7	0.18184625
102	0x3e4890f9	0.19586553
103	0xbe550f19	-0.2080654
104	0x3d97990e	0.0740224
105	0xbe5f01b7	-0.21777998
106	0xbded6b51	-0.115927346
107	0x3d99e785	0.07514862
108	0x3dbdebfd	0.09273527
109	0x3e076e0e	0.13225576
110	0xbdf6a31c	-0.120428294
111	0xbe1da487	-0.15394793
112	0xbe0a91eb	-0.13532226
113	0x3ea58979	0.32331446
114	0x3ce7d9d2	0.028302107
115	0x3f1b5732	0.60679924
116	0x3db9c195	0.09070126
117	0x3d105b82	0.03524352
118	0x3e669747	0.22518645
119	0x3b02e200	0.0019971132
120	0x3e3301b6	0.17481121
121	0xbde3b4e3	-0.11118486
122	0x3defdd61	0.117121466
123	0x3ed8c0f4	0.42334712
124	0x3e4511b1	0.1924503
125	0x3d8c1cf5	0.068414606
126	0xbf1473e9	-0.57989365
127	0x3f432569	0.7622896
128	0xbe815e16	-0.25267094
129	0xbed6339f	-0.4183626
130	0x3e03ebaa	0.12882867
131	0xbed1668a	-0.40898544
132	0xbe00d772	-0.12582186
133	0xbe0e7040	-0.13910007
134	0x3ea928b1	0.33038858
135	0xbe44b037	-0.19207846
136	0xbd8b2e24	-0.0679591
137	0x3e3c6700	0.18398666
138	0x3da8105e	0.08206247
139	0xbf3539e9	-0.7079149
140	0x3ee9fe83	0.4570199
141	0xbf13aa8d	-0.57682115
142	0x3e1120fc	0.14172739
143	0x3d41cd30	0.047314823
144	0xbf16afd7	-0.5886206
145	0xbd969296	-0.07352178
146	0xbda9702a	-0.08273347
147	0x3e341fdc	0.17590278
148	0x3e81413f	0.2524509
149	0x3e66fbf3	0.22557048
150	0x3e6ffd12	0.23436382
151	0x3e119b26	0.1421934
152	0x3e643758	0.22286737
153	0x3da1930b	0.07889374
154	0x3df4fd2c	0.11962351
155	0xbbc52ff7	-0.0060176807
156	0xb8c26f06	-9.2713206e-05
157	0xbd3984a6	-0.04529252
158	0xbdc4cb97	-0.09609144
159	0x3d89b1ad	0.06723342
160	0xbd5e6f14	-0.05430515
161	0xbe762b45	-0.24039944
162	0xbd1f9fc0	-0.03897071
163	0x3e02603b	0.12732022
164	0xbe914e67	-0.2838013
165	0x3ecc83ba	0.3994425
166	0x3bfbccce	0.0076843267
167	0xbe033e4d	-0.12816735
168	0x3e1a9149	0.15094484
169	0xbe2006ce	-0.15627596
170	0xbe023c5c	-0.12718338
171	0x3d23f1ac	0.040025398
172	0x3e22e7d2	0.15908745
173	0x3ec08316	0.3760001
174	0x3e3599a9	0.17734398
175	0x3d1434b4	0.036183074
176	0x3ebfe255	0.37477365
177	0xbd1e62de	-0.038668506
178	0x3e4d9825	0.2007757
179	0x3ee7fb0d	0.45308724
180	0x3f479fc1	0.7797814
181	0xbdbc230d	-0.09186373
182	0xbddfe680	-0.10932636
183	0x3e58c373	0.21168308
184	0x3ea36ec6	0.3192045
185	0x3debc62f	0.1151241
186	0xbe3b65ed	-0.183006
187	0x3f1714ad	0.59015924
188	0x3ed41879	0.4142492
189	0xbdd20131	-0.102541335
190	0xbe94bbe7	-0.29049608
191	0x3e9e5496	0.3092391
192	0xbf2de371	-0.67925173
193	0xbca60b2c	-0.020268999
194	0x3ca04331	0.01956329
195	0xbe185eaf	-0.14879869
196	0xbebab372	-0.3646503
197	0x3d82f491	0.063943036
198	0xbe4b9850	-0.19882321
199	0xbe3e0a55	-0.18558629
200	0xbf636f66	-0.88841856
201	0xbd4189ce	-0.04725056
202	0xbebd86d0	-0.37016916
203	0xbd0cb919	-0.03435621
204	0xbe443dad	-0.19164152
205	0xbe35d5d0	-0.17757344
206	0x3e47fccb	0.19530027
207	0xbd7f0fd0	-0.06227094
208	0xbf103179	-0.5632549
209	0xbd27c1f9	-0.04095647
210	0xbd8ea2f1	-0.06964672
211	0x3ee27ed3	0.44237384
212	0x3ee8723a	0.45399648
213	0x3e144c4d	0.14482231
214	0x3ee6418f	0.44971892
215	0xbebf3054	-0.3734156
216	0x3d9956c5	0.07487253
217	0xbd36d64f	-0.044637974
218	0x3f1b238f	0.60601133
219	0xbd86e17a	-0.06585975
220	0xbf290e03	-0.66037005
221	0x3ea1cbb2	0.3160072
222	0xbee4f478	-0.44717765
223	0xbedd0af6	-0.43172425
224	0xbf495f22	-0.78660786
225	0x3d6b4597	0.057439413
226	0xbf55aed4	-0.8346989
227	0x3f220f52	0.63304627
228	0x3cef758d	0.029230857
229	0x3db1d815	0.086837925
230	0x3e595d17	0.21226917
231	0xbeed0927	-0.46296045
232	0x3e25a272	0.16175249
233	0xbcbac954	-0.022801079
234	0xbe1ab57e	-0.15108296
235	0x3bd69aae	0.006549201
236	0x3d832bba	0.064048246
237	0x3f221d80	0.63326263
238	0xbe8a22eb	-0.26979765
239	0xbb102cea	-0.0021999427
240	0xbdce9369	-0.1008671
241	0x3eccacc4	0.3997556
242	0x3e110f51	0.14165999
243	0x3d56c40f	0.05243307
244	0x3e28b9e8	0.16477168
245	0x3dc9caf4	0.09853163
246	0x3e56877d	0.20950122
247	0xbd3cf5e5	-0.04613294
248	0x3e985761	0.29754165
249	0x3d84ed7c	0.06490609
250	0xbdbb6a71	-0.091511615
251	0x3e809186	0.25111026
252	0x3e9fd51e	0.31217283
253	0xbdc3ac52	-0.09554352
254	0xbdfad10d	-0.122469045
255	0x3f1295eb	0.57260007

critic.2.bias f4 [64]
0	0x3d94ba03	0.072620414
1	0xbe33112f	-0.17487024
2	0xbe860bb0	-0.26180792
3	0xbe6c361a	-0.23067513
4	0xbc2b6cbc	-0.010462936
5	0xbd7c3796	-0.06157645
6	0x3dd0c916	0.10194604
7	0x3e5c07aa	0.21487299
8	0x3dc9bae4	0.098501
9	0x3e6ed5b9	0.23323716
10	0x3e7425cf	0.23842548
11	0xbca3e057	-0.020004435
12	0xbe0657ac	-0.13119382
13	0x3d929166	0.07156639
14	0x3e8e3a11	0.27778676
15	0x3cd0cf5f	0.025489507
16	0x3d4f3721	0.050589684
17	0xbd6fb07b	-0.058517914
18	0xbdbb5ad2	-0.09148182
19	0x3d78d98a	0.060754336
20	0x3e43cd11	0.19121195
21	0x3df0b3e2	0.1175306
22	0x3dc5a6a6	0.09650926
23	0x3dedf56f	0.11619078
24	0x3e233f21	0.1594205
25	0xbe0f29ba	-0.13980761
26	0xbe577705	-0.21041496
27	0xbe82b5c7	-0.2552931
28	0x3da17039	0.07882733
29	0xbe00b251	-0.12568022
30	0x3ee3780f	0.44427535
31	0xbda3f2fa	-0.080053285
32	0xbdfecc9c	-0.1244137
33	0x3d835853	0.06413331
34	0x3d702d22	0.058636792
35	0xbdc0f376	-0.094214365
36	0xbcf2d1fe	-0.029641148
37	0xbdd667e0	-0.10469031
38	0xbe04e00c	-0.12976092
39	0xbe936256	-0.28785962
40	0x3cdd6457	0.027025385
41	0xbe6d6fdf	-0.23187207
42	0xbe9b683b	-0.3035296
43	0x3d51b8ac	0.051201507
44	0x3e0709e3	0.13187365
45	0xbe3788d4	-0.1792329
46	0xbdb2b872	-0.087265864
47	0xbe24f397	-0.16108547
48	0xbdbda534	-0.092600256
49	0xbe445271	-0.19172074
50	0xbc809f2c	-0.015700899
51	0xbded507d	-0.115876175
52	0xbdcb345b	-0.099220954
53	0xbe1bffe8	-0.15234339
54	0xbdccfa76	-0.10008709
55	0x3e86caf9	0.2632673
56	0x3c979eb7	0.018508298
57	0x3d926c59	0.07149572
58	0xba9616d4	-0.0011450895
59	0xbe6fcdbb	-0.23418324
60	0x3d8f102a	0.06985505
61	0x3df435ee	0.11924349
62	0xbe80ae5f	-0.25133035
63	0xbe05d784	-0.13070494

critic.4.weight f4 [3, 64]
0	0x3ff97fb5	1.9492098
1	0xbff3a876	-1.9035785
2	0x3f015120	0.5051441
3	0xbfea1552	-1.8287756
4	0x3fcb5601	1.5885621
5	0xbff15703	-1.8854679
6	0x3f4ed491	0.807931
7	0x3ffbb155	1.9663492
8	0x3efae4b4	0.49002612
9	0x3ffc8c30	1.9730282
10	0x3fefd418	1.8736601
11	0x3fbc8111	1.4726888
12	0xbc48bad7	-0.012251577
13	0xbfb6d599	-1.4283935
14	0xbf04755b	-0.5174157
15	0xbfe841db	-1.8145097
16	0xbfd97859	-1.6989852
17	0x3faf86e1	1.3713037
18	0xbf1e67df	-0.61877245
19	0x3f48a346	0.78374135
20	0xbe2317bb	-0.15927021
21	0x3f0a70c4	0.54078317
22	0x3fea7079	1.8315574
23	0x3ef76694	0.48320448
24	0xbf9b5e9e	-1.213825
25	0x3ed450f3	0.4146801
26	0xbffa34ba	-1.9547341
27	0x3e95402f	0.2915053
28	0x3fc6e2b6	1.5537937
29	0xbf4461b2	-0.7671157
30	0xbe804608	-0.2505343
31	0xbf9b00ba	-1.2109597
32	0x3f5d808d	0.8652428
33	0x3ffcb1d2	1.9741766
34	0xbff77511	-1.9332601
35	0xbfc50853	-1.5393165
36	0xbfdc7ca5	-1.7225538
37	0xbf8e36ec	-1.1110511
38	0xbda32c46	-0.07967429
39	0xbfd6eb5e	-1.6790578
40	0xbfdb86c2	-1.71505
41	0x3ef1e9a0	0.47248554
42	0x3e2263f8	0.15858448
43	0x3f3895d2	0.7210361
44	0x3fb0eba7	1.3821915
45	0xbfeb0e40	-1.8363724
46	0x3f94f154	1.1636147
47	0xbfd41ba7	-1.6570939
48	0xbfc648c5	-1.5490957
49	0x3fad82ad	1.3555504
50	0xbfd07ba6	-1.6287735
51	0xbf1b1071	-0.6057196
52	0x3f83165d	1.02412
53	0xbf633aa4	-0.88761353
54	0x3fc2fb57	1.5232953
55	0xbf111892	-0.56678116
56	0xbfe35c77	-1.7762593
57	0xbe09ad4e	-0.13445017
58	0xbfa3b341	-1.2789079
59	0xbfff461e	-1.9943273
60	0xbfae0f69	-1.3598453
61	0x3e5e51e9	0.21710934
62	0x3f419a83	0.7562639
63	0xbf113d7f	-0.5673446
64	0x3f46ef1d	0.7770861
65	0xbf85f69d	-1.0465885
66	0xbfea528a	-1.8306439
67	0xbfd3707e	-1.6518705
68	0xbf0dc79d	-0.5538271
69	0xbe40c97c	-0.1882686
70	0x400198f2	2.02496
71	0x3f7583b3	0.9590408
72	0x400591c9	2.087023
73	0x3fa0d965	1.2566344
74	0x3fa6d46d	1.3033577
75	0xbf8d1493	-1.1021904
76	0xbff9df7c	-1.9521327
77	0x3fc23ef4	1.5175462
78	0x3ffd8559	1.980632
79	0x3f480283	0.7812883
80	0x3f2cb7ec	0.6746814
81	0xbfa91384	-1.3209081
82	0xc01dbf89	-2.4648154
83	0x3ff014a3	1.8756298
84	0x3fffdcb0	1.9989223
85	0x40077620	2.1165848
86	0x3ea7d90f	0.3278279
87	0x4005569d	2.0834115
88	0x3fa972d2	1.3238165
89	0xc01361af	-2.3028371
90	0xbf922357	-1.1417035
91	0xbfff27e5	-1.993405
92	0xbf67cdfb	-0.90548676
93	0xc0075d3b	-2.1150653
94	0x3fed291e	1.8528173
95	0xbfd8a6b4	-1.6925874
96	0xbff674dc	-1.9254413
97	0x3f03c4ce	0.51472175
98	0x3ea39fad	0.3195776
99	0xbfb8d65a	-1.4440415
100	0x3eb425ca	0.3518508
101	0xbfe6f09b	-1.8042177
102	0xbff5b344	-1.9195333
103	0xbfaadec0	-1.3349228
104	0x3f10ee0d	0.56613237
105	0xbff4ac9d	-1.9115177
106	0xbff7e0ce	-1.936548
107	0x3fdcc4f8	1.724761
108	0x40147026	2.319345
109	0xbfa6a873	-1.3020157
110	0xbfc77c7d	-1.5584866
111	0xbfe0fac5	-1.7576529
112	0x3f010665	0.5040038
113	0xbfa0f703	-1.2575382
114	0x3f14e081	0.58155066
115	0xc006c857	-2.1059778
116	0xbff5cab7	-1.9202489
117	0xc01769d8	-2.3658352
118	0xbf8fd605	-1.1237189
119	0x3fff7d61	1.9960138
120	0x3e9ce306	0.30641955
121	0x4015c1aa	2.3399453
122	0xbfe9a9f9	-1.8254997
123	0xbfa49b98	-1.2859983
124	0x3f55c755	0.8350728
125	0x3fefe391	1.8741323
126	0xc0022e01	-2.0340579
127	0xbff495c6	-1.9108207
128	0x3deae8de	0.11470197
129	0xbb98f93c	-0.004668383
130	0xbd1031c1	-0.0352037
131	0xbd620ee2	-0.055189975
132	0xbc8a81d3	-0.016907608
133	0x3d646027	0.05575576
134	0x3e3b1480	0.18269539
135	0x3d925cd1	0.071466096
136	0xbd00e1eb	-0.031465452
137	0x3dcdb6f9	0.10044665
138	0x3e665b7d	0.22495838
139	0xbdd5ca94	-0.10439029
140	0xbeabdad5	-0.33565393
141	0x3e45bad2	0.19309548
142	0x3e2dc98f	0.1697142
143	0x3e38e0cd	0.18054505
144	0x3c330741	0.010927022
145	0xbd96bdc4	-0.07360414
146	0xbe22578b	-0.15853707
147	0x3dc3d785	0.095625915
148	0x3ea09ef8	0.31371284
149	0x3e8bd3a5	0.2730991
150	0xbda82827	-0.082107835
151	0x3eae24c1	0.34012416
152	0x3e3627bf	0.177886
153	0xbe88b7fe	-0.26702875
154	0x3c6c9fc6	0.01444239
155	0xbdf2df8a	-0.11859043
156	0xbd99fc2c	-0.07518801
157	0xbe6c473a	-0.23074046
158	0x3eafd2e8	0.34340596
159	0xbdbc23c8	-0.09186512
160	0xbe286e07	-0.16448222
161	0xbaf0c5f6	-0.0018369544
162	0xbd258742	-0.040412195
163	0xbdf99c48	-0.121880114
164	0x3df7fa3f	0.121082775
165	0xbdfe8376	-0.12427418
166	0xbe21d1b2	-0.15802649
167	0xbe2e8e0e	-0.17046377
168	0x3d459825	0.0482408
169	0xbe4871fc	-0.19574732
170	0xbe71842d	-0.23585577
171	0x3dc6f7d5	0.09715239
172	0x3e764abb	0.24051945
173	0x3d73620a	0.05941967
174	0xbe5e2b9e	-0.21696326
175	0xbdc7149f	-0.0972073
176	0x3e1b9ee0	0.15197325
177	0xbd44e439	-0.048069213
178	0x3d93d8a8	0.07219058
179	0xbe5a7f5a	-0.21337643
180	0xbe13ab0a	-0.14420715
181	0xbe25ee5f	-0.16204213
182	0xbe07fdf1	-0.13280465
183	0x3e6bc7a8	0.23025382
184	0x3cf06c5f	0.02934855
185	0x3e1887a2	0.1489549
186	0xbe045eb7	-0.12926756
187	0xbe35f44f	-0.17768978
188	0x3e1c993e	0.15292832
189	0x3d89c56e	0.0672711
190	0xbe2af51c	-0.16695064
191	0x3c3e3992	0.0116104055

critic.4.bias f4 [3]
0	0x3bf3d4d4	0.0074411426
1	0x3fcfe071	1.6240369
2	0x3e794a23	0.24344687

actor_mean.0.weight f4 [64, 20]
0	0x3c248b62	0.010042997
1	0x3dd8276a	0.10554393
2	0xbe60f96a	-0.21970144
3	0x3d6a3f41	0.05718923
4	0x3bc0a6dc	0.005879266
5	0xbe8139c1	-0.25239375
6	0x3b0b926b	0.0021296989
7	0xbdb9ceff	-0.090726845
8	0xbe74fdbb	-0.23924915
9	0x3e9364c4	0.28787816
10	0x3dcec018	0.10095233
11	0xbe07725f	-0.13227223
12	0x3e8c14df	0.27359673
13	0x3e62297c	0.22086138
14	0x3dd55ef2	0.104185
15	0xbe4b520b	-0.19855516
16	0xbcf9a350	-0.030473381
17	0x3c607dbe	0.013701854
18	0x3dd8d26e	0.10587011
19	0xbe1b4884	-0.15164381
20	0xbe28bf12	-0.16479138
21	0xbd405668	-0.046957403
22	0xbe9a9fb8	-0.3019998
23	0x3e3751cd	0.17902298
24	0x3ec3562b	0.38151678
25	0xbe2f0610	-0.17092156
26	0xbdd1269d	-0.10212443
27	0x3d98cc79	0.07460875
28	0x3dcd7216	0.10031526
29	0x3ebbc160	0.3667097
30	0xbe8addb1	-0.27122262
31	0xbd535b79	-0.051600907
32	0x3e891728	0.2677548
33	0x3db546f4	0.08851424
34	0x3e327728	0.17428267
35	0x3e2ee112	0.17078045
36	0xbeb53031	-0.3538833
37	0x3d2aa9c1	0.041665796
38	0x3ebc4237	0.36769268
39	0x3cd5f035	0.026115516
40	0xbcca470e	-0.024692085
41	0xbd075815	-0.033042986
42	0xbe36d5e9	-0.17855038
43	0xbdc798be	-0.0974593
44	0x3e46d4d8	0.19417131
45	0xbe6582f1	-0.22413231
46	0x3d300b48	0.04297951
47	0x3c0acc1d	0.008471516
48	0xbe39dcd7	-0.1815065
49	0xbcb327a2	-0.021869484
50	0x3eb8c6b8	0.3608911
51	0xbe116162	-0.14197305
52	0x3d5c91f8	0.053850144
53	0xbe173f40	-0.14770222
54	0xbea83b45	-0.3285772
55	0xbe298f62	-0.16558602
56	0xbda978f1	-0.08275021
57	0x3e139974	0.14414006
58	0x3e2136e3	0.15743594
59	0xbd54a665	-0.0519165
60	0x3de923af	0.11383759
61	0xbe953258	-0.29139972
62	0xbcf5f167	-0.030022336
63	0xbc955306	-0.018228065
64	0x3d9557d2	0.07292141
65	0xbd0e9666	-0.0348114
66	0x3d9da29f	0.07697033
67	0xbe77df5b	-0.24206297
68	0xbe37fae5	-0.17966802
69	0xbcdc76dd	-0.026912147
70	0xbec96198	-0.3933227
71	0xbd39ec2f	-0.045391258
72	0x3ea4561a	0.3209694
73	0xbc86467e	-0.016391035
74	0xbe25e657	-0.16201149
75	0xbdaf22fb	-0.08551594
76	0xbd29b462	-0.041431792
77	0x3e32262c	0.17397374
78	0x3dc66ac8	0.09688336
79	0x3c547ebb	0.012969668
80	0xbe00b365	-0.12568434
81	0xbd138c9d	-0.03602277
82	0xbe1c4707	-0.1526147
83	0xbebd9524	-0.37027848
84	0x3f131634	0.57455754
85	0x3e06faf5	0.1318167
86	0xbcf788f2	-0.030216668
87	0x3e9a9ee0	0.30199337
88	0x3d82fc0d	0.06395731
89	0xbe5b4bff	-0.21415709
90	0x3d873e8d	0.066037275
91	0xbe674ede	-0.22588679
92	0xbe1c0578	-0.15236461
93	0xbdfd62d0	-0.123723626
94	0xbe27aee4	-0.16375309
95	0xbf092a6b	-0.5358035
96	0x3b557540	0.0032571107
97	0x3df4b15b	0.1194789
98	0x3e995278	0.2994573
99	0x3d25540a	0.04036335
100	0x3e18518f	0.14874862
101	0xbe820d98	-0.25400996
102	0xbea2fa31	-0.31831506
103	0x3dc23c2f	0.09484135
104	0xbd3619f7	-0.044458356
105	0xbcdfb5bb	-0.027308336
106	0xbe95ac9a	-0.29233247
107	0x3de63051	0.112396844
108	0xbde15e08	-0.11004263
109	0x3e00298f	0.12515853
110	0xbe2fccb7	-0.17167936
111	0x3e0d5269	0.13800968
112	0xbd91eb29	-0.07124931
113	0xbe0b9437	-0.13630758
114	0xbe2b01e9	-0.16699947
115	0xbe37244e	-0.17884943
116	0x3de4c5c3	0.111705326
117	0x3dc8b5f5	0.098003305
118	0xbdc1f2e0	-0.09470153
119	0x3d3e142a	0.04640595
120	0xbe202519	-0.15639152
121	0xbe35ab2f	-0.17741083
122	0xbdd5bd50	-0.10436499
123	0xbdc58572	-0.09644593
124	0x3ed06d28	0.4070828
125	0x3d3bcd95	0.045850355
126	0xbe5e7db1	-0.21727635
127	0xbe052013	-0.13000517
128	0x3ea79c7f	0.32736585
129	0xbddfd241	-0.109287746
130	0x3df830f6	0.121187136
131	0xbd4d4ffd	-0.05012511
132	0x3e1c4931	0.15262295
133	0xbc83f94c	-0.016110085
134	0x3d92a419	0.071602054
135	0xbd0afdd5	-0.03393348
136	0xbd7aa14d	-0.061188985
137	0xbebbe2ef	-0.36696574
138	0x3d030569	0.03198758
139	0x3e8ec60e	0.2788548
140	0x3e8437e5	0.25823894
141	0x3d4ff57a	0.050771214
142	0xbd897a5f	-0.067127936
143	0xbdf825cf	-0.121165864
144	0xbd355327	-0.044268753
145	0xbe514562	-0.20436624
146	0xbde0af84	-0.10970977
147	0xbf0aa520	-0.5415821
148	0xbe7df02f	-0.24798654
149	0x3e615bd3	0.22007684
150	0xbe21ad7f	-0.1578884
151	0x3db4ffe5	0.088378705
152	0xbe488e2c	-0.19585484
153	0xbdad8ddd	-0.08474324
154	0xbe70be53	-0.23510103
155	0xbe32c8ea	-0.17459455
156	0x3d7b8c00	0.06141281
157	0xbdbf116b	-0.09329494
158	0x3e7035bc	0.23457998
159	0xbebf5f29	-0.3737729
160	0x3c5fb27c	0.013653394
161	0xbda778fb	-0.08177372
162	0xbe2a8ae9	-0.16654553
163	0xbe6d1dbc	-0.23155874
164	0x3d2d5bed	0.042323995
165	0x3bb01f58	0.00537483
166	0xbe555928	-0.20834792
167	0x3d9d3169	0.0767544
168	0xbd4373fc	-0.047718033
169	0x3da5e19b	0.080996715
170	0xbe0a4eb0	-0.1350658
171	0xbec1776b	-0.3778642
172	0x3d8f9532	0.070108786
173	0xbe560874	-0.20901662
174	0xbbb1a39c	-0.005421115
175	0xbe0b6444	-0.13612467
176	0x3e6353c0	0.22199917
177	0x3e825170	0.25452757
178	0x3e8657c9	0.2623885
179	0x3dff573c	0.124678105
180	0x3bfe68d4	0.0077639613
181	0x3ead417c	0.33839023
182	0x3de7fa7e	0.113270745
183	0x3dc41e28	0.09576064
184	0xbe034638	-0.12819755
185	0xbe7bb3d9	-0.24580325
186	0xbe71c933	-0.23611908
187	0xbe302fa5	-0.17205675
188	0x3e9d2ee7	0.30699846
189	0xbe590880	-0.21194649
190	0xbc6c542a	-0.014424363
191	0xbcea6401	-0.028612139
192	0xbe3bab0a	-0.18326965
193	0x3de3ef1c	0.11129591
194	0x3e1960a0	0.14978266
195	0xbe9cf9df	-0.30659387
196	0xbd5736bd	-0.052542437
197	0x3df2ff1b	0.11865064
198	0x3e58ff42	0.21191123
199	0x3d051f5d	0.032500613
200	0x3dc46ed6	0.09591453
201	0xbdf918b0	-0.12162912
202	0xbf033616	-0.51254404
203	0x3d4b2fa3	0.049605977
204	0x3e32ac38	0.17448509
205	0xbe82a679	-0.25517634
206	0x3cf30b08	0.029668346
207	0x3d7c2b1b	0.061564546
208	0x3da67bd1	0.08129085
209	0xbe719735	-0.23592837
210	0xbd076438	-0.03305456
211	0x3cd86f9d	0.026420409
212	0xbb8703ad	-0.0041203112
213	0xbddce900	-0.10786629
214	0x3d6624d9	0.056187484
215	0xbeaf8dc8	-0.34287858
216	0xbce012a9	-0.027352648
217	0x3e3a10c4	0.18170458
218	0x3eac6b06	0.33675402
219	0xbe1fd031	-0.15606762
220	0xbcceef86	-0.025260698
221	0xbcbdef4e	-0.023185398
222	0xbd9b52fe	-0.07584189
223	0x3e193b8a	0.14964119
224	0x3cf75146	0.030190121
225	0x3e736dfe	0.23772427
226	0xbd9aa40c	-0.07550821
227	0x3decb90a	0.11558731
228	0x3e4df48a	0.20112815
229	0xbe00134b	-0.1250736
230	0xbce7603d	-0.028244132
231	0xbe05d33a	-0.13068858
232	0xbea4cbd3	-0.32186756
233	0xbe588b43	-0.21146874
234	0xbebda118	-0.37036967
235	0x3e3e7170	0.1859796
236	0x3eb07799	0.34466246
237	0x3e79e7e1	0.24404861
238	0x3e0cc946	0.13748655
239	0x3dc404ee	0.09571253
240	0xbd9a892e	-0.07545696
241	0xbd46e4d4	-0.04855807
242	0xbe529daa	-0.20567957
243	0x3da72413	0.081611775
244	0xbe8ac426	-0.27102774
245	0x3e35f9c3	0.17771058
246	0x3ea1d6b6	0.31609124
247	0xbefa9632	-0.48942715
248	0xbe103e69	-0.14086308
249	0x3e61f564	0.22066265
250	0xbe69114a	-0.22760502
251	0xbdf6bbe5	-0.12047557
252	0xbe4c10ca	-0.1992828
253	0xbc708c8a	-0.014681945
254	0x3e26e616	0.16298708
255	0x3e271af4	0.16318876

actor_mean.0.bias f4 [64]
0	0x3c278620	0.010224849
1	0x3d875491	0.06607927
2	0x3b8a6212	0.0042231167
3	0x3be59350	0.0070060864
4	0x3e14a6e8	0.14516795
5	0x3d3547dd	0.044257987
6	0xbddc17e3	-0.107467435
7	0x3cb738fe	0.022366043
8	0x3d9b0ae5	0.07570437
9	0x3cf66ed6	0.030082148
10	0x3d80913d	0.06277702
11	0x3e3f30bd	0.18670936
12	0xbdff4f51	-0.124663
13	0x3dd4d9d3	0.10393109
14	0x3dc1b4e7	0.094583325
15	0xbdd88c28	-0.10573608
16	0xbd4a8f9a	-0.049453355
17	0xbd0d333c	-0.03447269
18	0xbc6bc0ba	-0.014389211
19	0x3c7692b4	0.015049625
20	0x3cc686da	0.024234224
21	0x3d939349	0.07205827
22	0xbd5bd2f3	-0.053667974
23	0x3e03c846	0.12869367
24	0x3ddbd3a8	0.107337296
25	0x3ce5a587	0.028033031
26	0x3dd384d4	0.10328069
27	0xbd8c8a92	-0.06862368
28	0xbdfbfa75	-0.1230363
29	0x3d8147bd	0.06312511
30	0xbc07fafb	-0.0082995845
31	0x3dc49541	0.095987804
32	0x3e37f839	0.17965783
33	0xbd0fef20	-0.035140157
34	0xbd6517fd	-0.05593108
35	0x3d3e5368	0.04646626
36	0xbd620132	-0.05517692
37	0x3de260fc	0.110536546
38	0x3ddb2222	0.1069987
39	0xbdb553cf	-0.08853876
40	0xbdab5e57	-0.08367603
41	0x3dc5ef45	0.09664778
42	0xbd0f56c6	-0.034994863
43	0xbdf2a6a7	-0.11848193
44	0xbd8952d8	-0.06705254
45	0x3d302daa	0.0430123
46	0xbd32a3c0	-0.043613195
47	0x3d707459	0.058704708
48	0xbdaaed52	-0.083460465
49	0x3da449ca	0.08021887
50	0x3d92b058	0.07162541
51	0x3d34d193	0.044145178
52	0x3df20455	0.118172325
53	0x3dcf1405	0.1011124
54	0xbdc0e5c5	-0.09418825
55	0x3d6193a6	0.05507245
56	0x3de2bf31	0.11071623
57	0xbce988bb	-0.028507581
58	0xbc13c14c	-0.009018254
59	0xbcec202f	-0.02882394
60	0xbdcb04e7	-0.099130444
61	0x3d253fc9	0.040344033
62	0x3df74ae8	0.12074834
63	0x3d5bc642	0.05365587

actor_mean.2.weight f4 [64, 64]
0	0x3e28e7a7	0.16494618
1	0x3cd5fd09	0.026121633
2	0xbe4ba5cd	-0.19887467
3	0x3e4aea1b	0.19815867
4	0x3e429efa	0.19005957
5	0x3e534ae9	0.20634045
6	0xbf004ad5	-0.50114185
7	0x3e65dec1	0.22448255
8	0xbe072a74	-0.13199788
9	0xbd664bd4	-0.05622466
10	0x3e0d7b60	0.13816595
11	0x3ce97244	0.028496869
12	0x3dd832f5	0.10556594
13	0x3e49809c	0.19677967
14	0x3d378c99	0.04481182
15	0xbdbc4cef	-0.091943614
16	0xbde8896a	-0.11354335
17	0x3d9a21ab	0.07525953
18	0x3de4fda4	0.111811906
19	0x3e3c8ca1	0.1841302
20	0x3af16c5e	0.0018419137
21	0xbc2e121f	-0.010624438
22	0xbd27247e	-0.040806286
23	0x3e74aee6	0.23894843
24	0xbe9b404f	-0.303225
25	0x3e28ab4f	0.16471599
26	0x3db6b14e	0.08920537
27	0xbdaf84b6	-0.085702345
28	0xbe7b5ee7	-0.24547921
29	0x3ebbbb30	0.3666625
30	0xbea2e3a8	-0.31814313
31	0xbd6b5181	-0.057450775
32	0xbe3b3167	-0.18280564
33	0x3de499d3	0.11162152
34	0x3db4acfd	0.088220574
35	0xbb832763	-0.004002498
36	0xbe31a13b	-0.17346661
37	0x3f0a29e1	0.5397015
38	0x3d2faa27	0.04288688
39	0x3c6fca49	0.014635631
40	0xbe5e681a	-0.21719399
41	0xbaad36f2	-0.0013215228
42	0x3eb23ffb	0.34814438
43	0x3e2f0588	0.17091954
44	0x3d9b5d5b	0.075861655
45	0x3e860516	0.26175755
46	0xbdde94b8	-0.108682096
47	0xbede5a2c	-0.4342817
48	0xbe86b241	-0.26307872
49	0x3e47fd38	0.19530189
50	0xbde5d805	-0.11222843
51	0xbd2ba235	-0.04190274
52	0xbda674e2	-0.081277624
53	0xbbed6ad1	-0.0072453995
54	0xbe4980fe	-0.19678113
55	0x3e5a6c9c	0.21330494
56	0x3d9075b6	0.070537016
57	0x3e06cc6a	0.13163915
58	0xbd7209b5	-0.05909129
59	0xbe9b7fea	-0.30371028
60	0xbdb81d1d	-0.08989928
61	0x3e11e9fe	0.14249417
62	0x3d249db1	0.04018945
63	0x3c90d1bd	0.017678136
64	0x3ddd059f	0.10792088
65	0x3d997639	0.07493252
66	0x3d6b3054	0.057419136
67	0x3e52597c	0.20541948
68	0xbe345bfd	-0.17613216
69	0xbe7d2ef1	-0.24724938
70	0x3e455067	0.19268952
71	0x3c381714	0.011235971
72	0xbe3488b8	-0.17630279
73	0x3d0c70c1	0.034287218
74	0x3d0f8d16	0.03504666
75	0xbd9c906c	-0.07644734
76	0xbe74dd15	-0.23912461
77	0xbece1a13	-0.40254268
78	0xbe087715	-0.13326676
79	0x3c9ed804	0.019390114
80	0xbdba1999	-0.090869136
81	0xbeae13d7	-0.33999512
82	0x3ee5c116	0.44873875
83	0xbd41cfeb	-0.047317427
84	0x3ed5b4ee	0.417396
85	0x3e9aec93	0.30258617
86	0x3d6a8f23	0.057265412
87	0x3ca8e29f	0.020615874
88	0x3e69af52	0.22820786
89	0x3bab74e6	0.0052324412
90	0x3e11e509	0.14247526
91	0xbe1c3532	-0.15254667
92	0x3e42eddd	0.1903605
93	0x3ea35c7b	0.31906494
94	0x3cd6a96a	0.02620383
95	0xbd98cec0	-0.074613094
96	0x3d5b6082	0.053558834
97	0x3d264adc	0.040598735
98	0x3dab3049	0.08358819
99	0x3b2f16a8	0.0026716385
100	0xbc8c9ba4	-0.017164059
101	0xbea89770	-0.32928038
102	0xbd9c1628	-0.076214135
103	0xbd2bfd53	-0.041989636
104	0x3e0ce23b	0.13758175
105	0xbcfcf882	-0.030880217
106	0xbe140b21	-0.1445737
107	0xbe511c9c	-0.2042107
108	0x3e49277b	0.19643967
109	0x3dc4bcc9	0.096063204
110	0xbd90e3bf	-0.07074689
111	0x3d83659a	0.06415863
112	0xbe97273c	-0.2952212
113	0x3d3b6b7a	0.045756795
114	0x3dfc744f	0.123268716
115	0xbe5c0c51	-0.21489073
116	0x3d885c8f	0.06658279
117	0x3e21839c	0.15772861
118	0xbd4b25c7	-0.049596574
119	0x3f24891c	0.6427171
120	0xbde4495f	-0.11146807
121	0x3e35a14c	0.17737311
122	0xbdadaa71	-0.08479775
123	0x3e2a9281	0.1665745
124	0x3df0c320	0.11755967
125	0xbe82818b	-0.25489458
126	0x3e648b48	0.22318757
127	0x3e391899	0.1807579
128	0x3e2154ee	0.15755054
129	0x3e2fca39	0.17166986
130	0xbe6bebed	-0.23039217
131	0xbd13f509	-0.036122356
132	0xbe5508ff	-0.20804213
133	0x3d349d60	0.044095397
134	0xbe29f14d	-0.16595955
135	0xbd8f8ab4	-0.070088774
136	0x3e981d75	0.29709974
137	0xbe975c75	-0.29562727
138	0xbe833d27	-0.25632593
139	0xbd1b5921	-0.037926797
140	0x3e3f67c6	0.1869193
141	0x3e6a4c0f	0.22880577
142	0xbd945677	-0.07243054
143	0xbe61dab1	-0.2205608
144	0xbd9624c1	-0.07331229
145	0x3dbfa9f7	0.0935859
146	0x3caf59fe	0.021405216
147	0xbe4af67e	-0.19820592
148	0x3e2a8e0b	0.16655748
149	0xbd33e32d	-0.043917824
150	0xbd4cd81f	-0.050010797
151	0x3e8d5ec5	0.27611366
152	0xbea56833	-0.3230606
153	0xbeb0c45c	-0.3452481
154	0xbe598e1d	-0.21245618
155	0xbdff1656	-0.12455432
156	0x3d8cc2ea	0.068731144
157	0x3ddb9482	0.10721685
158	0x3e124bee	0.14286777
159	0x3e286a4b	0.16446798
160	0xbe017245	-0.12641247
161	0x3e75e006	0.2401124
162	0xbe4e44aa	-0.20143381
163	0x3dddc12b	0.108278595
164	0xbd5359ab	-0.051599186
165	0xbdea7eca	-0.11449964
166	0x3bd9def2	0.0066488916
167	0xbe38a76b	-0.18032615
168	0x3f021de1	0.5082684
169	0xbeae7dbb	-0.340803
170	0xbdfadb2e	-0.122488365
171	0x3dc3fed6	0.095700905
172	0x3db33207	0.08749776
173	0xbdec8db8	-0.11550468
174	0x3e56bcc1	0.20970441
175	0x3d77347b	0.060352784
176	0xbe0e5680	-0.13900185
177	0x3d605709	0.054770503
178	0xbe009d74	-0.12560064
179	0xbe345999	-0.17612304
180	0xbee94c0b	-0.4556583
181	0xbe1c6238	-0.15271842
182	0x3dbfad46	0.09359221
183	0xbdd5689f	-0.104203455
184	0xbe181ccc	-0.14854735
185	0x3e87408e	0.2641644
186	0xbe195e8f	-0.14977477
187	0x3e8e7f55	0.27831522
188	0x3d28f534	0.04124947
189	0x3c832ff9	0.016014086
190	0xbeacdf2b	-0.33764014
191	0xbd56d7ca	-0.052451886
192	0xbbade8af	-0.005307279
193	0x3d264fa3	0.04060329
194	0x3ec8a768	0.3919022
195	0x3dbe0443	0.092781566
196	0xbeab5861	-0.33465865
197	0x3d02f546	0.031972192
198	0xbe0801c7	-0.13281928
199	0x3deba5fe	0.1150627
200	0xbd597cf8	-0.053097695
201	0xbddebf8c	-0.108763784
202	0xbe0d0c27	-0.13774167
203	0x3ec0d62f	0.3766341
204	0x3e5042c0	0.20337963
205	0x3ea7a36c	0.32741868
206	0x3e201675	0.15633567
207	0xbd477d21	-0.048703317
208	0xbe5b539c	-0.21418613
209	0xbe930465	-0.2871429
210	0x3e76f64c	0.24117392
211	0x3ddee3b7	0.10883277
212	0xbd3c6f87	-0.0460048
213	0xbdebf9fc	-0.1152229
214	0x3da4c662	0.08045651
215	0x3cb949cf	0.022618202
216	0xbe6f14d3	-0.23347788
217	0x3cf54abc	0.029942863
218	0xbe889173	-0.2667347
219	0xbd3363db	-0.0437964
220	0x3e2fb894	0.17160255
221	0xbda63e8f	-0.08117401
222	0x3c1d1777	0.009588114
223	0x3d8842be	0.06653355
224	0x3d2143b2	0.0393712
225	0xbc838928	-0.016056612
226	0xbd16ca2f	-0.03681391
227	0x3cb480d3	0.022034084
228	0x3ec8133f	0.39077184
229	0x3ebcb263	0.36854848
230	0x3c9b1902	0.018932823
231	0xbc831e24	-0.016005583
232	0xbedea17f	-0.43482587
233	0xbea8eaeb	-0.32991728
234	0xbe6cece0	-0.23137236
235	0xbd9727f6	-0.07380669
236	0xbdf29d86	-0.118464515
237	0x3d500b47	0.050792005
238	0x3d6c8f8d	0.05775409
239	0x3c77891f	0.015108376
240	0x3e68abf8	0.22721851
241	0xbe053035	-0.13006671
242	0x3db47390	0.08811104
243	0x3ebad30e	0.36489147
244	0xbd22ef9c	-0.03977929
245	0xbd72fa32	-0.059320636
246	0x3dc7d559	0.0975749
247	0x3d2ef0c4	0.04271008
248	0x3df76fd5	0.12081877
249	0xbe80748a	-0.25088912
250	0x3d971f7f	0.07379054
251	0x3e699eb6	0.2281445
252	0x3e917791	0.28411534
253	0x3e2c0b7c	0.16801256
254	0x3e6602d9	0.22462024
255	0x3e477df4	0.19481641

actor_mean.2.bias f4 [64]
0	0x3db4b4c4	0.08823541
1	0xbcbe11b3	-0.023201799
2	0xbe001a0a	-0.12509933
3	0xbe10b4f9	-0.14131536
4	0xbde70a74	-0.11281291
5	0x3c29a270	0.0103536695
6	0xbca46d42	-0.02007163
7	0xbe297d1d	-0.16551633
8	0xbd534849	-0.05158261
9	0x3dc30919	0.095232196
10	0xbe0d2680	-0.13784218
11	0x3e2dba10	0.16965508
12	0xbda44c65	-0.080223836
13	0x3c666433	0.014061975
14	0xbd23b324	-0.039965764
15	0xbdc262fc	-0.09491536
16	0xbddbdca5	-0.10735444
17	0xbe1f217b	-0.15540116
18	0xbe4643fb	-0.1936187
19	0xbd75483f	-0.059883352
20	0xbe46bb67	-0.19407426
21	0xbc91b4ac	-0.017786346
22	0xbe1fefe1	-0.1561885
23	0xbdd12ed9	-0.102140136
24	0xbdd09892	-0.101853505
25	0xbe342a98	-0.17594373
26	0xbe10c346	-0.14136991
27	0x3c70a77c	0.014688369
28	0x3c8614e7	0.016367389
29	0x3e11c45d	0.14235063
30	0xbe07fa0e	-0.13278982
31	0xbe01a074	-0.12658864
32	0xbde14689	-0.10999782
33	0x3de227d3	0.11042752
34	0xbb65d01c	-0.003506667
35	0xbc0f7ff3	-0.008758533
36	0x3e3fd86c	0.18734902
37	0x3ddecb23	0.10878589
38	0x3b693756	0.0035585961
39	0xbd43d19a	-0.047807314
40	0xbd651983	-0.055932533
41	0x3a851843	0.0010154325
42	0xbdfa4b38	-0.12221378
43	0xbda67143	-0.08127072
44	0x3d44991a	0.04799757
45	0xbde059bf	-0.10954618
46	0x3e207403	0.15669255
47	0xbd3847a3	-0.044990193
48	0x3ce6d222	0.028176371
49	0xbcf63489	-0.030054348
50	0x3e0e0788	0.1387006
51	0xbdb75aef	-0.08952891
52	0x3dc28b52	0.094992295
53	0xbd393d94	-0.04522474
54	0x3db64874	0.08900538
55	0x3d94cc8b	0.07265576
56	0xbd1efef6	-0.03881737
57	0x3d8cb8b6	0.06871168
58	0xbe4117e0	-0.18856764
59	0xbe4957f5	-0.19662459
60	0xbdb85d55	-0.09002177
61	0xbdba21cc	-0.090884775
62	0xbc9b1584	-0.018931158
63	0xbd4833e4	-0.04887761

actor_mean.4.weight f4 [6, 64]
0	0xbc5e886f	-0.013582333
1	0x3dc811ec	0.09769043
2	0xbbdd1e08	-0.006747965
3	0xbd6e9008	-0.058242828
4	0xbc5dcf54	-0.0135382
5	0x3d1f7424	0.03892912
6	0x3cf5e936	0.03001843
7	0xbdc21aea	-0.0947779
8	0x3bbe6153	0.005809942
9	0xbd9b41ee	-0.075809345
10	0x3bdd4b3d	0.006753354
11	0x3d062b05	0.03275587
12	0xbd41b975	-0.047296006
13	0xbd3b2291	-0.045687262
14	0x3d99c164	0.075075895
15	0x3c60b934	0.013716031
16	0x3c5a551c	0.013325956
17	0xbcf9ff44	-0.030517228
18	0xbd9ba5ad	-0.075999595
19	0x3c5739f2	0.013136374
20	0xbd04c7a7	-0.032416966
21	0x3d4a7fe5	0.049438376
22	0xbc559c44	-0.013037745
23	0xbc456fcc	-0.01205058
24	0xbd4c121c	-0.049821958
25	0x3d8958e4	0.06706408
26	0xba7a2758	-0.0009542606
27	0xbdc4fc30	-0.096184134
28	0x3d8da5da	0.06916399
29	0x3ce6a855	0.028156439
30	0xbd1cfb17	-0.038325395
31	0xbce538b4	-0.02798114
32	0xbad2e3da	-0.0016089634
33	0xbb69919e	-0.0035639773
34	0xbd2ecf04	-0.042677894
35	0x3d7c0edb	0.061537605
36	0x3ddbca89	0.1073199
37	0x3d9e890c	0.07740983
38	0x3daa20d6	0.08307044
39	0xbddbf1c4	-0.107394725
40	0xbd329abc	-0.043604597
41	0x3d27bafb	0.040949803
42	0xbc9e07d2	-0.019290838
43	0xbd264d08	-0.040600806
44	0xbdb7fb7a	-0.08983512
45	0xbc69c203	-0.014267447
46	0x3da04522	0.07825686
47	0xbc667de2	-0.014068099
48	0xbc9149cb	-0.017735383
49	0x3bd14bf3	0.0063872277
50	0x3d41f469	0.04735223
51	0xbd31037c	-0.043216214
52	0x3ce912ba	0.028451312
53	0xbd43e281	-0.047823433
54	0x3d93f467	0.072243504
55	0xbd3daaa0	-0.0463053
56	0x3c36f47f	0.011166691
57	0xbdd960ed	-0.1061419
58	0xbda1fb34	-0.07909241
59	0xbd117bae	-0.03551834
60	0xbb94ba19	-0.004538786
61	0x3c5fdd34	0.013663579
62	0xbd439294	-0.04774721
63	0xbdbea778	-0.09309286
64	0xbc3adac9	-0.0114047015
65	0xbbf11aac	-0.007357916
66	0x3c093494	0.008374352
67	0xbd05f683	-0.032705795
68	0xbd56b6d6	-0.05242046
69	0xbd74f4ec	-0.05980389
70	0xbd45fdf1	-0.04833788
71	0xbda17d46	-0.07885222
72	0xbce20778	-0.027591452
73	0x3dd2b194	0.102877766
74	0x3d6e179f	0.058127996
75	0x3ca01d03	0.019545084
76	0xbd8fbfec	-0.07019028
77	0xbd6d953f	-0.05800366
78	0x3d4b89ce	0.049691968
79	0xbc822b35	-0.015889743
80	0xbd8ddde3	-0.06927087
81	0xbd8999bf	-0.06718778
82	0xbd1b158d	-0.03786235
83	0xbc88cfe0	-0.016700685
84	0xbd629b34	-0.055323794
85	0xbd1d66c2	-0.038428076
86	0xbc6645c2	-0.0140547175
87	0xbc667049	-0.014064857
88	0xbcfe9968	-0.03107901
89	0xbd198118	-0.03747663
90	0xbd88a90b	-0.066728674
91	0xbc6df17c	-0.014522906
92	0xbd173f7e	-0.036925785
93	0x3d873dce	0.06603585
94	0xbd64a3a5	-0.055820126
95	0xbd36c24a	-0.044618882
96	0x3bc7008e	0.006073064
97	0x3d391085	0.04518177
98	0x3d6f6730	0.058448017
99	0xbd5fd6e3	-0.05464829
100	0x3dd2a226	0.102848336
101	0xbd4f9054	-0.05067475
102	0xbd290193	-0.041261267
103	0xbd49807f	-0.04919481
104	0xbd6f3d64	-0.058408156
105	0xbdfa9a41	-0.12236453
106	0xbd07120c	-0.032976195
107	0xbbf812be	-0.0075705936
108	0xbc9aea53	-0.018910563
109	0xbb9b5e58	-0.0047414713
110	0x3ccdbfbc	0.02511584
111	0xbb55379d	-0.0032534369
112	0xbc86edd9	-0.016470836
113	0x3c079a65	0.008276557
114	0x3be53348	0.0069946386
115	0x3d75bd43	0.059994947
116	0x3ce3e6e8	0.027820066
117	0xbde37f76	-0.111082956
118	0xbd7e4062	-0.06207312
119	0x3cf91be4	0.030408807
120	0xbd717b76	-0.058955632
121	0x3de5c5b4	0.112193495
122	0xbda19223	-0.078892015
123	0xbdebd30f	-0.115148656
124	0xbda6b77f	-0.08140468
125	0xbc1d3dda	-0.009597266
126	0xbd031fc1	-0.032012705
127	0xbc1303c7	-0.008973069
128	0x3dd9b93b	0.10631033
129	0xbd41d6c9	-0.047323976
130	0x3d1ac346	0.037783884
131	0xbcbcd8a5	-0.023052523
132	0x3aaa9041	0.0013012962
133	0x3d787509	0.06065849
134	0xbc96715d	-0.018364603
135	0xbaee9b00	-0.0018204153
136	0xbd168079	-0.036743615
137	0x3d847315	0.06467263
138	0xbc7a042f	-0.0152597865
139	0xbd332416	-0.043735586
140	0xbe18009e	-0.14843985
141	0x3de38010	0.1110841
142	0x3c9fffc8	0.019531146
143	0xbde10292	-0.109868184
144	0xbe7a8c38	-0.24467552
145	0xbd8c0f7a	-0.068388894
146	0xbb329d00	-0.0027254224
147	0xbdbbbc87	-0.09166818
148	0xbe3292c5	-0.174388
149	0x3d9335d0	0.07187998
150	0xbdb6ca7d	-0.0892534
151	0xbd8e21e0	-0.06940055
152	0xbda97762	-0.082747236
153	0xbdf716bd	-0.12064884
154	0x3d00382e	0.031303577
155	0xbcb5a3f2	-0.022172902
156	0x3d156498	0.036472887
157	0xbcca2759	-0.024676966
158	0xbdba9900	-0.09111214
159	0x3c87c363	0.01657266
160	0xbe311556	-0.17293295
161	0x3dc172f1	0.094457515
162	0xbc9e6e97	-0.019339843
163	0x3d8714f8	0.06595796
164	0x3dc78b35	0.097433485
165	0x3d29843d	0.041385878
166	0xbd583e82	-0.052793987
167	0x3d1f1ff8	0.038848847
168	0x3df2cf7b	0.1185598
169	0xbcfd118d	-0.030892158
170	0xbdb1a2d8	-0.08673638
171	0x3d794aed	0.06086247
172	0xbd8e88b2	-0.06959666
173	0xbd50cd4f	-0.050977048
174	0x3dc0a189	0.094058104
175	0x3d819c0c	0.06328592
176	0xbd3ac595	-0.045598585
177	0xbc7ca0d7	-0.015419207
178	0xbd00335e	-0.031298988
179	0xbc93452d	-0.017977322
180	0x3c433483	0.011914375
181	0xbc48e885	-0.012262468
182	0xbd0e9240	-0.034807444
183	0x3d89ce7e	0.067288384
184	0xbbbf0c62	-0.0058303336
185	0x3d5856d9	0.0528172
186	0xbd0f7348	-0.03502205
187	0xbdad61bc	-0.08465907
188	0x3d88c9ba	0.06679101
189	0xbe0eed76	-0.13957772
190	0x3d65a00e	0.056060843
191	0x3ca8f5eb	0.020625075
192	0x3d19b7c0	0.037528753
193	0xbce64f1f	-0.0281139
194	0xbd8b1bae	-0.06792389
195	0x3c7ed68e	0.0155540835
196	0xbd57bb82	-0.052669056
197	0x3d0374fe	0.032093994
198	0x3c3738c3	0.011182967
199	0x3b1070c6	0.0022039874
200	0xbd8429d1	-0.06453288
201	0x3d5636a6	0.05229821
202	0xbda82756	-0.08210628
203	0x3de70f3e	0.11282204
204	0x3dc2dbe9	0.09514601
205	0x3d078716	0.033087812
206	0x3b1a784f	0.0023570245
207	0xbbb28c29	-0.0054488373
208	0x3bc6324c	0.0060484763
209	0x3cf0b155	0.029381434
210	0xbd2d6b9a	-0.042338945
211	0xbd5422b7	-0.05179092
212	0x3d30818a	0.043092288
213	0xbdbaf57b	-0.09128853
214	0xbd4d4544	-0.050114885
215	0xbd313622	-0.043264516
216	0xbd4eb78f	-0.050468024
217	0xbc800137	-0.01562558
218	0xbd9954ad	-0.07486854
219	0x3d84b3ff	0.06479644
220	0xbcb14d73	-0.021643376
221	0x3d37636e	0.044772558
222	0xbd9a9118	-0.07547206
223	0xbd93d7d0	-0.07218897
224	0xbd8dbe9d	-0.06921122
225	0x3c26d93c	0.010183629
226	0x3d55a3f3	0.052158307
227	0x3c841fc8	0.016128436
228	0x3c98adaf	0.018637506
229	0x3cef20ac	0.029190384
230	0xbd2711cd	-0.04078846
231	0x3d15a7b0	0.036536872
232	0xbdaf8a52	-0.085713044
233	0x3dc73892	0.09727587
234	0xbc804bbb	-0.015661111
235	0xbb234886	-0.0024915054
236	0x3b7e6c93	0.003882204
237	0x3cd6e894	0.026233949
238	0x3d85c362	0.06531407
239	0x3dc2737f	0.094946854
240	0x3d92aa83	0.07161429
241	0xbdd0bedb	-0.10192653
242	0x3dbf0968	0.09327966
243	0x3d877a7e	0.066151604
244	0x3d9bad8e	0.07601462
245	0xbb5b7bd4	-0.0033490555
246	0x3d936ad2	0.07198109
247	0xbc2e9dfb	-0.010657783
248	0x3df51ddd	0.119685866
249	0xbca9cfd5	-0.020728985
250	0xbd04f68f	-0.0324617
251	0xbd6d4f3b	-0.05793689
252	0xbe16a4be	-0.14711282
253	0xbdc2fa82	-0.09520437
254	0xbd261f27	-0.040557053
255	0xbd47317c	-0.048631176

actor_mean.4.bias f4 [6]
0	0x3dd56eea	0.10421546
1	0x3dd880b1	0.10571421
2	0x3da3cbd8	0.079978645
3	0x3df0db74	0.11760607
4	0x3d7d7917	0.06188306
5	0x3ce3923d	0.027779693

in_proj.weight f4 [32, 2]
0	0xbf216af1	-0.63053805
1	0x3bb5caf3	0.005547875
2	0xbe8f32c7	-0.27968428
3	0xbde270e2	-0.11056687
4	0x3e3209f0	0.17386603
5	0x3c82865a	0.015933204
6	0x3e877c4d	0.2646202
7	0x3e6035e3	0.21895556
8	0x3ee050f4	0.43811762
9	0x3edf0527	0.43558618
10	0x3f34b959	0.7059532
11	0xbef19d00	-0.47190094
12	0xbd310cac	-0.043224975
13	0x3f3945c5	0.72372085
14	0x3e9afd02	0.30271155
15	0xbe906bc8	-0.2820723
16	0xbf0a2b36	-0.53972185
17	0x3e337e84	0.1752873
18	0x3e651bd8	0.22373903
19	0xbe37dd3b	-0.17955486
20	0x3f283c9b	0.65717477
21	0x3ea4ff30	0.32225943
22	0xbd5bf03a	-0.053695895
23	0x3e7cf4f0	0.24702811
24	0x3d9c8220	0.07642007
25	0x3e013e32	0.12621382
26	0xbeccf4c0	-0.4003048
27	0xbe92bb21	-0.28658393
28	0x3eb2b0ec	0.34900606
29	0x3d6cb599	0.057790373
30	0xbe79e032	-0.2440193
31	0xbf280479	-0.65631825
32	0xbe58dfac	-0.21179074
33	0xbe43f655	-0.19136937
34	0x3d834087	0.06408792
35	0x3f1914a4	0.5979712
36	0x3e92a07c	0.28638065
37	0x3e5e3144	0.21698481
38	0xbc1ee094	-0.009697098
39	0x3e2bc7f7	0.167755
40	0x3ecf074b	0.40435252
41	0x3f24a681	0.64316565
42	0x3f3153f1	0.6926871
43	0xbe477008	-0.1947633
44	0xbf322c47	-0.6959881
45	0x3e388b4a	0.18021885
46	0xbe89a2f5	-0.2688214
47	0x3f2be88e	0.67151725
48	0xbf1777c3	-0.59167117
49	0xbdf20aae	-0.11818443
50	0xbf0d0a49	-0.5509382
51	0xbf1236f5	-0.5711511
52	0xbf062505	-0.5240024
53	0xbed8a833	-0.42315826
54	0xbf1fa8a1	-0.6236668
55	0xbf1f5099	-0.6223236
56	0x3ebeb862	0.37250048
57	0xbf088e09	-0.5334173
58	0xbe816381	-0.25271228
59	0xbda1ecd1	-0.07906497
60	0x3e5d49b6	0.2161015
61	0xbdf0c79d	-0.11756823
62	0xbed9087c	-0.42389286
63	0xbf178f9a	-0.59203494

in_proj.bias f4 [32]
0	0x3eea04cb	0.45706782
1	0x3efa2604	0.4885713
2	0xbc724298	-0.014786385
3	0x3f037efa	0.51365626
4	0xbec2e7fa	-0.3806761
5	0xbf319a14	-0.6937573
6	0xbed96094	-0.42456496
7	0x3e4eef5b	0.20208494
8	0xbe3fbb61	-0.18723823
9	0x3f2cca57	0.67496246
10	0x3f197600	0.5994568
11	0x3ea4f5b4	0.32218707
12	0xbf05c9d5	-0.52261096
13	0xbeda3632	-0.42619473
14	0xbf0681e4	-0.5254195
15	0xbef8aa49	-0.48567417
16	0x3ed933b5	0.42422262
17	0xbf2ad3ec	-0.6672962
18	0x3efde4a8	0.49588513
19	0xbf1653b1	-0.5872145
20	0x3f158057	0.58398956
21	0xbf16c618	-0.5889602
22	0x3ee5dbcc	0.44894254
23	0x3e5c941d	0.21540876
24	0xbeb56308	-0.35427117
25	0xbf203ce8	-0.62592936
26	0xbf140e7e	-0.57834613
27	0x3ebd6858	0.3699367
28	0x3f131c67	0.57465214
29	0x3f11036a	0.56645834
30	0x3f2e7734	0.6815064
31	0x3ef88899	0.48541716
