saved_agents/walker2d_d.pth (torch, 117557 bytes, 26 tensors)

actor_logstd f4 [1, 6]
0.4689754 0.40481842 0.42041075 0.42189062 0.4011211 0.41872418
00000000: 8b1d f03e 5c44 cf3e 1440 d73e 0c02 d83e
00000010: bf5f cd3e 0463 d63e

critic.0.weight f4 [64, 20]
0.077332005 -0.46237105 0.19785859 0.32858977 -0.33469072 -0.15201575 -0.16380556 0.101492554
-0.006503186 0.28519958 -0.14594851 0.25654745 0.023324652 0.14063554 0.05837425 0.12838951
0.28271598 0.18670925 0.06035226 -0.19549654 -0.25315595 -0.3507389 -0.26886538 0.109078564
0.32671928 0.5629153 0.1715367 -0.19658858 -0.49903676 -0.09555677 0.3282926 -0.4060143
-0.2060582 -0.029517362 0.14788333 0.045105495 0.024646224 -0.19505762 -0.37899384 -0.4175429
0.32767028 0.35597515 -0.39650604 -0.60404146 0.115141325 -0.5475849 -0.27766442 0.13417064
0.09788468 -0.32495365 -0.053751428 0.2736007 0.14409558 0.00620935 -0.16670594 -0.11921569
0.03523345 0.23185015 0.1590352 0.6023238 0.096371785 -0.47930863 -0.03639418 0.23743367
-0.08824636 0.08894646 -0.12471967 -0.19744667 -0.7769991 -0.47336614 0.034810115 0.04808313
0.034241337 -0.007647796 -0.03958705 0.059354924 -0.03957244 0.057967987 0.33130303 -0.039717894
-0.22326455 -0.17373794 0.58979475 0.41176432 0.049586896 -0.3560277 -0.35018334 -0.064007394
0.49208832 0.28798777 0.026199337 -0.12713814 -0.033418987 0.0073328367 -0.042551268 0.022813853
0.030780945 -0.288438 -0.20309818 -0.069209665 0.45255172 0.2156893 -0.62648886 -0.6042522
-0.0433138 0.034656357 0.12646347 0.11105306 0.5215001 0.17808498 0.2066264 0.016820459
-0.067142 0.005007446 -0.284116 -0.16743097 -0.009952433 0.26577896 0.10114895 0.32833505
0.0072327033 0.47496063 -0.86196744 -0.44122073 0.2830401 -0.27943528 0.0039999783 0.27659693
0.754467 -0.08538306 0.054119986 -0.2682397 -0.2167565 -0.09240469 0.12509431 0.039256897
-0.007936812 -0.15325975 0.24455313 0.012203308 0.005457115 0.4550916 0.20304677 -0.23399138
-0.04581456 -0.18729205 -0.36477473 0.16680078 0.21526827 0.064780004 -0.33511564 -0.07535245
0.2137933 -0.085080855 0.19078626 0.20094635 0.179836 0.21858466 -0.047260057 0.1665082
0.19933642 0.3013993 -0.42903906 -0.3900226 0.11295325 0.028452951 -0.11075145 -0.17023002
0.31813475 0.20264938 -0.08051858 -0.00038205393 -0.05730798 0.0035614865 0.103742965 0.012365495
-0.018383965 0.2373117 0.12609774 0.34214574 -0.045957576 -0.76499856 0.040596493 0.48652324
0.07473055 0.3420675 0.1928334 0.373445 -0.8587652 0.45944402 0.16568276 0.025589425
0.054088358 0.01238128 -0.17948526 -0.029253624 -0.0149777895 -0.22105497 0.005424549 0.15758483
0.35918847 0.07911833 -0.39925882 -0.18727924 0.05066295 -0.21664631 -0.21990304 -0.073938355
0.83383226 -0.018031882 -0.16052984 -0.011434462 0.06882996 0.017789254 -0.014944143 -0.0111309
-0.008649915 -0.52164805 -0.26183525 0.010308276 0.15603139 0.10200327 -0.11304568 -0.19620326
0.39364964 -0.3107028 -0.13441107 0.014861325 0.0980497 0.04901758 -0.0388164 -0.044446807
0.11127917 -0.059872176 -0.32820714 0.25572178 0.15977141 0.15654247 -0.0028695168 0.4124221
0.21506366 -0.39844197 -0.32985902 -0.12626833 -0.066783234 0.09295232 -0.08933915 0.15001439
-0.37564597 0.4178973 0.17418268 -0.03222388 0.081046596 0.04598521 -0.18757214 -0.002815674
00000000: 3e60 9e3d e6bb ecbe 719b 4a3e eb3c a83e
00000010: 955c abbe 04aa 1bbe a5bc 27be 54db cf3d
00000020: ae18 d5bb ae05 923e 8773 15be 305a 833e
00000030: 5713 bf3c c302 103e d619 6f3d 8a78 033e
00000040: 26c0 903e b630 3f3e ee33 773d 3f30 48be
00000050: a89d 81be 0d94 b3be b9a8 89be 9564 df3d
00000060: c047 a73e 381b 103f 51a7 2f3e 844e 49be
00000070: bf81 ffbe 45b3 c3bd f815 a83e 1be1 cfbe
00000080: ec00 53be 65ce f1bc ba6e 173e 8ac0 383d
00000090: e1e6 c93c 2fbd 47be 7b0b c2be 2fc8 d5be
000000a0: 66c4 a73e 6042 b63e d702 cbbe 76a2 1abf
000000b0: 37cf eb3d 862e 0cbf 082a 8ebe 0764 093e
000000c0: c377 c83d 5360 a6be 752a 5cbd 6415 8c3e
000000d0: cb8d 133e ce77 cb3b f6b4 2abe 5b27 f4bd
000000e0: f350 103d 206a 6d3e 20da 223e e431 1a3f
000000f0: 925e c53d f167 f5be 1012 15bd d021 733e
00000100: 82ba b4bd 9029 b63d 076d ffbd 762f 4abe
00000110: 6ae9 46bf 0c5d f2be 0d95 0e3d d1f2 443d
00000120: a540 0c3d 5d9a fabb 0826 22bd 261e 733d
00000130: b616 22bd d76f 6d3d 8da0 a93e 3baf 22bd
00000140: 769f 64be 5ce8 31be cafc 163f c6d2 d23e
00000150: a11b 4b3d 4349 b6be 3b4b b3be 4f16 83bd
00000160: 00f3 fb3e 2273 933e fe9f d63c 8030 02be
00000170: 59e2 08bd 4b48 f03b 3d4a 2ebd 1ee4 ba3c
00000180: 5228 fc3c 25ae 93be f8f8 4fbe ccbd 8dbd
00000190: dcb4 e73e a8dd 5c3e 9361 20bf 46b0 1abf
000001a0: d069 31bd d3f3 0d3d a47f 013e c96f e33d
000001b0: 0881 053f e95b 363e df95 533e 0fcb 893c
000001c0: bf81 89bd 8015 a43b a777 91be 0673 2bbe
000001d0: 880f 23bc 2e14 883e 2e27 cf3d 881b a83e
000001e0: 5000 ed3b 0a2e f33e e6a9 5cbf afe7 e1be
000001f0: a2ea 903e 2412 8fbe 4012 833b 1d9e 8d3e
00000200: c024 413f 50dd aebd ebac 5d3d b756 89be
00000210: 6af5 5dbe ac3e bdbd b918 003e d7cb 203d
00000220: 6709 02bc 20f0 1cbe 236c 7a3e 62f0 473c
00000230: 99d1 b23b c401 e93e 7eeb 4f3e 709b 6fbe
00000240: 0ca8 3bbd 7dc9 3fbe c1c3 babe d3cd 2a3e
00000250: 496f 5c3e 61ab 843d 4794 abbe 6352 9abd
00000260: a1ec 5a3e df3e aebd 795d 433e e1c4 4d3e
00000270: ee26 383e a8d4 5f3e c393 41bd 2081 2a3e
00000280: d91e 4c3e 0251 9a3e 02ab dbbe 0bb1 c7be
00000290: 0954 e73d 2a16 e93c a8d1 e2bd c750 2ebe
000002a0: 8fe2 a23e 5283 4f3e ede6 a4bd 694e c8b9
000002b0: c6bb 6abd d467 693b 3177 d43d a598 4a3c
000002c0: f899 96bc d701 733e c41f 013e ba2d af3e
000002d0: 033e 3cbd f2d6 43bf 8248 263d 9319 f93e
000002e0: 550c 993d 7923 af3e 1e76 453e 2f34 bf3e
000002f0: 09d8 5bbf 3f3c eb3e bea8 293e eaa0 d13c
00000300: c18b 5d3d dada 4a3c fcca 37be 4ca5 efbc
00000310: 6765 75bc 3c5c 62be 6ac0 b13b eb5d 213e
00000320: 8de7 b73e ca08 a23d a76b ccbe 21c6 3fbe
00000330: f483 4f3d 88d8 5dbe 432e 61be fe6c 97bd
00000340: 0876 553f 99b7 93bc ef61 24be 9c57 3bbc
00000350: b9f6 8c3d c5ba 913c 47d8 74bc 615e 36bc
00000360: 60b8 0dbc ba8a 05bf 450f 86be 0be4 283c
00000370: b1c6 1f3e 17e7 d03d 7e84 e7bd 82e9 48be
00000380: 728c c93e 7014 9fbe 0ea3 09be ea7c 733c
00000390: 48ce c83d a8c6 483d f2fd 1ebd db0d 36bd
000003a0: 55e6 e33d 873c 75bd c40a a8be f7ed 823e
000003b0: 1e9b 233e ab4c 203e 810e 3cbb fd28 d33e
000003c0: a639 5c3e 9600 ccbe 48e3 a8be 7c4c 01be
000003d0: a6c5 88bd c95d be3d 72f7 b6bd 5f9d 193e
000003e0: ab54 c0be a3f6 d53e f25c 323e 30fd 03bd
000003f0: c2fb a53d fd5a 3c3d e912 40be 2c87 38bb

critic.0.bias f4 [64]
-0.018401721 -0.18258227 0.4312508 0.02780698 -0.32885063 0.31497738 0.050324216 0.036842406
0.31555924 -0.015901448 0.04025824 0.2578061 0.1433332 -0.028648643 -0.029958108 0.046189625
0.0029597022 -0.12760095 -0.100191906 -0.15735729 0.16619387 -0.0025421807 0.06121701 -0.29206178
0.18887873 0.09089136 0.37203807 -0.15281357 0.38611823 0.42246604 -0.14365032 -0.36056992
-0.05551679 -0.16280566 0.28377217 -0.02667791 0.1932177 0.092864245 0.17999384 0.2951846
-0.29231504 0.30187333 0.16907763 -0.2429147 0.30296192 0.18726528 -0.040676165 0.25684515
0.38619408 0.24396506 -0.004673758 0.10798178 0.044849344 0.13286209 -0.09696023 -0.21667656
-0.14541154 -0.37967008 -0.14683717 -0.026314437 0.14364903 -0.13066293 0.1319855 -0.42439315
00000000: 35bf 96bc d9f6 3abe e8cc dc3e 77cb e33c
00000010: 1c5f a8be b744 a13e c420 4e3d 10e8 163d
00000020: fb90 a13e c143 82bc d3e5 243d 29ff 833e
00000030: f0c5 123e 8fb0 eabc b56a f5bc 5531 3d3d
00000040: 90f7 413b d3a9 02be 6a31 cdbd 4522 21be
00000050: ba2e 2a3e b79a 26bb b0be 7a3d 1f89 95be
00000060: 6d69 413e 4025 ba3d c67b be3e 297b 1cbe
00000070: 4ab1 c53e 784d d83e 1219 13be 9f9c b8be
00000080: 9365 63bd 87b6 26be 964a 913e a28b dabc
00000090: dcda 453e 9c2f be3d 4e50 383e 7022 973e
000000a0: 51aa 95be 248f 9a3e b022 2d3e a2be 78be
000000b0: d31d 9b3e 78c2 3f3e 0d9c 26bd 3581 833e
000000c0: 3bbb c53e fad1 793e 5326 99bb 8d25 dd3d
000000d0: f2b3 373d 000d 083e 1693 c6bd 76e0 5dbe
000000e0: c3e6 14be 1e64 c2be 7c5c 16be 6091 d7bc
000000f0: bb18 133e 81cc 05be 3527 073e 0f4a d9be

critic.2.weight f4 [64, 64]
-0.09846285 -0.0070298733 -0.2862794 -0.020449355 0.0014155939 -0.3195395 0.025794549 0.060210146
-0.29456952 -0.10429454 0.08398891 -0.013654669 -0.24746692 0.30957437 0.06670035 -0.19405663
-0.23798515 0.47731286 0.20604886 0.035123214 0.20101143 0.08784573 0.050421085 0.2391649
-0.302999 -0.1124512 -0.22220632 0.3902516 -0.43426833 -0.39236724 0.23727137 0.6639326
0.53886074 0.20078178 -0.32506242 -0.026141152 -0.22087038 0.24788414 -0.5262526 -0.2760859
0.15346783 -0.32275847 -0.47943583 0.11169131 -0.2132712 -0.075557016 0.11469569 -0.3798795
-0.49422932 -0.36399946 0.092109926 0.01444975 -0.38185596 -0.35064936 0.23989801 -0.002401378
-0.11836814 0.65249693 0.041329082 0.086640574 -0.20431514 0.134075 0.2933358 -0.06790302
0.034537405 -0.3199989 0.17233099 -0.10046949 0.3388289 -0.02504745 0.24342443 0.24103929
0.3493945 -0.88043416 0.21634625 -0.061384663 0.021760922 -0.062903434 -0.108970396 -0.8308781
-0.65950066 -0.37001893 0.1324596 -0.17560491 -0.040188007 0.57823265 -0.31131807 0.007690896
-0.102029525 -0.47837308 0.10750587 0.2880347 0.19752443 0.17122379 -0.17323138 -0.32521322
0.5335071 0.2082409 -0.03817035 -0.38433775 -0.02754148 -0.13125768 0.27311128 -0.51979214
-0.20206232 -0.09259207 0.0322004 -0.06917904 -0.013848228 0.10255522 0.37576836 0.020938748
0.014503208 0.04585012 0.1931537 0.06282542 -0.2568446 0.2352106 0.36594316 0.03329954
-0.2741351 -0.0042199036 -0.46686155 0.31630793 -0.07724015 0.22952196 -0.46978796 0.0013603211
0.06416236 -0.5559128 0.6018414 0.12766232 -0.44838646 0.39860705 0.014353726 0.17725478
0.52289647 0.08263593 -0.09983664 0.21319236 0.21985146 -0.24110222 -0.20336325 0.2119591
0.10851692 -0.46881738 -0.40611765 0.16810502 0.030727575 -0.15857793 -0.13070258 -0.23943698
0.33436367 0.25656566 0.43499407 -0.19010872 0.37591264 0.17349161 0.12972465 0.06753467
-0.0922082 -0.36672395 0.053246967 0.111956365 0.3204397 -0.25133842 0.5337956 0.4497014
-0.032751992 0.14596851 0.32199016 -0.23124968 0.3021565 0.10906504 -0.008503059 -0.22395058
0.4984991 0.059413638 -0.14236975 -0.06084272 0.24281262 0.13628338 -0.4124714 -0.26294374
-0.039977513 -0.4919711 -0.3634084 0.26442778 0.2434705 -0.12074211 0.15025102 -0.2569586
0.18070298 -0.30776456 0.2222009 -0.05602789 -0.41083753 0.3178987 0.24542874 -0.14644277
0.43378115 -0.00856367 -0.08328283 0.1480636 0.3321865 -0.18098596 -0.08470658 0.060302615
-0.19241557 0.020065729 -0.27477556 -0.24581476 0.15231766 -0.45836073 0.16803028 -0.12690356
0.5809307 0.053818382 0.5418245 -0.12724532 0.244399 0.3457966 -0.20869926 -0.09245304
-0.28131709 -0.2925201 0.18777238 -0.14115787 0.12307133 0.024584046 0.26444075 0.48784348
-0.06879343 0.52159405 0.55723953 -0.17508246 0.14504828 0.28641984 -0.003981892 0.20583516
0.49448144 0.2937523 -0.2229712 0.26817468 0.24416696 0.24280903 -0.69202507 -0.104197204
0.014206812 -0.109586746 -0.03277638 -0.026192827 0.5624984 -0.32276917 -0.14509681 -0.073585935
00000000: e4a6 c9bd da5a e6bb 3793 92be 6885 a7bc
00000010: 738b b93a ae9a a3be 174f d33c ea9e 763d
00000020: d1d1 96be 6098 d5bd 6102 ac3d d5b7 5fbc
00000030: f867 7dbe 8880 9e3e 319a 883d c8b6 46be
00000040: 61b2 73be 5a62 f43e 79fe 523e 5cdd 0f3d
00000050: f1d5 4d3e 76e8 b33d 5786 4e3d a5e7 743e
00000060: af22 9bbe d14c e6bd 0e8a 63be 0fcf c73e
00000070: 6b58 debe 5ce4 c8be 44f7 723e 7df7 293f
00000080: c7f2 093f bd99 4d3e 956e a6be f825 d6bc
00000090: d82b 62be 57d5 7d3e 7eb8 06bf 225b 8dbe
000000a0: ac26 1d3e 9940 a5be 9d78 f5be 6abe e43d
000000b0: c463 5abe a3bd 9abd 93e5 ea3d 917f c2be
000000c0: a00b fdbe 235e babe 21a4 bc3d a5be 6c3c
000000d0: a082 c3be 5088 b3be d3a7 753e 7060 1dbb
000000e0: ff6a f2bd 0a0a 273f af48 293d 9d70 b13d
000000f0: fd37 51be f54a 093e 1c30 963e bd10 8bbd
00000100: 1877 0d3d e5d6 a3be 8977 303e f3c2 cdbd
00000110: fb7a ad3e 4f30 cdbc 4144 793e 01d3 763e
00000120: d6e3 b23e 2264 61bf df89 5d3e 7c6e 7bbd
00000130: f643 b23c 84d3 80bd df2b dfbd 6db4 54bf
00000140: 09d5 28bf 1f73 bdbe 7da3 073e c6d1 33be
00000150: 2e9c 24bd 0e07 143f 1565 9fbe e903 fc3b
00000160: dbf4 d0bd 51ed f4be 0a2c dc3d 4979 933e
00000170: d843 4a3e 4a55 2f3e 9163 31be 5982 a6be
00000180: ec93 083f 1a3d 553e 8358 1cbd ebc7 c4be
00000190: ab9e e1bc 6a68 06be 3ed5 8b3e 1911 05bf
000001a0: 6de9 4ebe e9a0 bdbd 91e4 033d bead 8dbd
000001b0: aee3 62bc 7908 d23d b664 c03e bd87 ab3c
000001c0: dd9e 6d3c 56cd 3b3d 15ca 453e 9daa 803d
000001d0: 2381 83be 0cdb 703e e75c bb3e 1965 083d
000001e0: 705b 8cbe 1e47 8abb 7a08 efbe 1df3 a13e
000001f0: 1530 9ebd ce07 6b3e 0c88 f0be cd4c b23a
00000200: 8e67 833d 4d50 0ebf 4712 1a3f e9b9 023e
00000210: e992 e5be 3916 cc3e e42b 6b3c 4782 353e
00000220: 8bdc 053f 073d a93d 2777 ccbd 194f 5a3e
00000230: be20 613e 80e3 76be 753e 50be ce0b 593e
00000240: 1e3e de3d d508 f0be a7ee cfbe b923 2c3e
00000250: 65b8 fb3c 4162 22be e6d6 05be f82e 75be
00000260: b731 ab3e 935c 833e 8bb7 de3e dcab 42be
00000270: 9f77 c03e c9a7 313e 8ad6 043e 9e4f 8a3d
00000280: a7d7 bcbd 3ec3 bbbe 7e19 5a3d 6149 e53d
00000290: ac10 a43e 6eaf 80be d4a6 083f 433f e63e
000002a0: f426 06bd c578 153e e5db a43e b7cc 6cbe
000002b0: 42b4 9a3e 7e5d df3d 6a50 0bbc 4d53 65be
000002c0: 463b ff3e b75b 733d 60c9 11be 3736 79bd
000002d0: dfa3 783e df8d 0b3e 742f d3be 90a0 86be
000002e0: 76bf 23bd a3e3 fbbe aa10 babe 1463 873e
000002f0: 5550 793e a447 f7bd 67db 193e 1490 83be
00000300: 340a 393e 5193 9dbe a288 633e 807d 65bd
00000310: 4c59 d2be 9ec3 a23e ac51 7b3e 18f5 15be
00000320: 9018 de3e a34e 0cbc 3090 aabd fc9d 173e
00000330: 5914 aa3e 6254 39be a57a adbd e0ff 763d
00000340: 9608 45be e260 a43c 62af 8cbe ddb6 7bbe
00000350: 29f9 1b3e 42ae eabe 2110 2c3e 02f3 01be
00000360: e0b7 143f aa70 5c3d 03b5 0a3f 994c 02be
00000370: bb43 7a3e 410c b13e 42b5 55be 0558 bdbd
00000380: cb08 90be 32c5 95be 6747 403e b08b 10be
00000390: d20c fc3d 7b64 c93c c764 873e 9fc6 f93e
000003a0: 92e3 8cbd 3087 053f 40a7 0e3f d148 33be
000003b0: 8987 143e 9fa5 923e 887a 82bb 74c6 523e
000003c0: ac2c fd3e b466 963e 9052 64be 314e 893e
000003d0: e706 7a3e eea2 783e 8e28 31bf 5865 d5bd
000003e0: b0c3 683c 046f e0bd 8740 06bd 5792 d6bc
000003f0: e5ff 0f3f 0042 a5be 4294 14be 39b4 96bd

critic.2.bias f4 [64]
-0.34079975 0.0006338286 0.23020434 0.33490232 -0.38379768 0.2283382 0.39052358 -0.3990086
-0.057152327 0.297439 -0.06828892 -0.27450573 -0.31427044 0.34358346 -0.12936594 -0.2960067
-0.008583682 -0.35693786 -0.35136956 -0.0033157433 0.31925157 0.3047278 -0.37771344 0.0143657625
-0.25942484 -0.032934226 0.3357618 -0.38966134 0.30148852 0.22870596 0.25328684 -0.025322318
0.3337273 0.0669219 0.30289513 -0.31598938 0.048569527 -0.03672935 -0.29468188 -0.22946718
-0.28199026 -0.24252404 -0.15047157 0.32979426 -0.25635958 -0.30312175 -0.03975738 -0.15837172
0.3549595 -0.28387803 0.23723143 0.007119405 -0.22120896 0.32670507 0.26490638 -0.28661656
-0.11809522 0.2771409 -0.31092307 -0.3262055 -0.30833003 -0.029432986 -0.29236963 0.3717982
00000000: 4e7d aebe 8427 263a b0ba 6b3e 5178 ab3e
00000010: 2181 c4be 7dd1 693e b5f2 c73e db4a ccbe
00000020: 8f18 6abd ed49 983e 10db 8bbd 048c 8cbe
00000030: 0ee8 a0be 2cea af3e 8178 04be 318e 97be
00000040: 92a2 0cbc 8fc0 b6be b6e6 b3be f14c 59bb
00000050: f174 a33e 4805 9c3e a863 c1be 605e 6b3c
00000060: 55d3 84be 0ae6 06bd f8e8 ab3e b181 c7be
00000070: b45c 9a3e e531 6a3e d0ae 813e c070 cfbc
00000080: 4ede aa3e 590e 893d 1215 9b3e 5cc9 a1be
00000090: d7f0 463d 8471 16bd 8be0 96be 72f9 6abe
000000a0: 0761 90be 3958 78be 3815 1abe cbda a83e
000000b0: 9041 83be c632 9bbe a2d8 22bd 322c 22be
000000c0: 40bd b53e 7658 91be ccec 723e e649 e93b
000000d0: 9a84 62be e345 a73e cfa1 873e 68bf 92be
000000e0: e8db f1bd 69e5 8d3e 4f31 9fbe 6804 a7be
000000f0: 6fdd 9dbe 721d f1bc 79b1 95be 555c be3e

critic.4.weight f4 [3, 64]
-0.47627306 2.9469552 0.4179724 0.53290343 -0.44903895 0.47701532 0.5299483 -0.3933643
3.1369927 0.35381526 2.8927925 -0.401354 -0.33559492 0.53419626 -0.631112 -0.34553632
-2.766364 -0.2953092 -0.3975526 -3.2339857 0.47997165 0.4139583 -0.3749503 -3.0870016
-0.43983454 0.6657123 0.38325724 -0.37993938 0.39063781 0.29678625 0.3418816 3.236093
0.39118013 -3.224443 0.43418607 -0.57328117 -2.7169309 3.164471 -0.32764927 -0.46994248
-0.3850436 -0.33378592 3.0163505 0.47978172 -0.4952226 -0.6654029 3.1436331 -0.49081042
0.32100865 -0.23587611 0.36303455 3.2995481 -0.26269406 0.44625536 0.46003073 -0.2816347
0.64802647 0.4487228 -0.32880026 -0.43458214 -0.47131628 3.1695328 -0.47230357 0.33678916
-1.9821413 -0.13875449 2.0013907 1.9780596 -2.0052657 2.193763 2.0520637 -1.8986648
-0.2726958 2.0917544 -0.65098673 -2.022314 -2.023506 2.0220485 -2.0659003 -1.9566474
0.95114857 -1.9707023 -1.9784155 -0.10426282 2.098542 1.9821901 -2.0104525 0.11639316
-2.0636199 1.9901896 1.873075 -1.8694638 2.0604951 2.1471865 1.985694 0.042596366
2.0348585 -0.10820062 2.2424161 -2.1190724 0.8734437 -0.11886136 -2.0536048 -2.3198721
-2.0079308 -2.0474656 -0.5057116 2.0076556 -2.1131227 -2.335042 -0.3275635 -1.873967
1.9316808 -2.0824587 2.1279109 0.11227277 -2.1783354 1.8777723 2.0837677 -1.9947459
2.1682158 1.9873309 -2.0042915 -2.0013564 -2.097295 -0.10645394 -2.025403 1.8179841
-0.5774796 -0.18144272 0.7434948 0.6703038 -0.50023305 0.5352424 0.5233892 -0.5177561
-0.09197564 0.42541477 -0.14840192 -0.5661337 -0.28115037 0.6810489 -0.21870235 -0.4341124
0.114098944 -0.5148477 -0.564751 -0.021151647 0.51741886 0.3914026 -0.48823223 0.065996416
-0.65372306 0.22319435 0.43958566 -0.6936325 0.63709134 0.51884127 0.54463166 -0.10494915
0.33631626 0.008729665 0.54327714 -0.6147032 0.32815573 -0.007325118 -0.6462276 -0.45660213
-0.488121 -0.6960603 -0.15959121 0.52217084 -0.5340767 -0.42170972 -0.070850715 -0.32454756
0.5872322 -0.42696077 0.83544403 0.015726892 -0.61615944 0.48769134 0.72891474 -0.37215656
-0.016841153 0.66976404 -0.49813858 -0.39778745 -0.7672508 0.041008256 -0.73828554 0.52019954
00000000: 10da f3be ea9a 3c40 7a00 d63e 5c6c 083f
00000010: 6fe8 e5be 5a3b f43e b1aa 073f 0c67 c9be
00000020: 7dc4 4840 4627 b53e 8323 3940 467e cdbe
00000030: 19d3 abbe 16c1 083f 8e90 21bf 23ea b0be
00000040: 1c0c 31c0 c432 97be 048c cbbe 9ff9 4ec0
00000050: d8be f53e 58f2 d33e 7cf9 bfbe 6f91 45c0
00000060: fe31 e1be 1f6c 2a3f 4b3a c43e 6a87 c2be
00000070: ae01 c83e 5ef4 973e 1b0b af3e 261c 4f40
00000080: c348 c83e 465d 4ec0 a34d de3e 8ec2 12bf
00000090: 32e2 2dc0 b186 4a40 a5c1 a7be 4d9c f0be
000000a0: 6f24 c5be fde5 aabe e30b 4140 f3a5 f53e
000000b0: d18d fdbe d857 2abf 4931 4940 814b fbbe
000000c0: 3f5b a43e 8289 71be aadf b93e cc2b 5340
000000d0: d67f 86be 957b e43e 2689 eb3e 6c32 90be
000000e0: 10e5 253f ffbe e53e 8258 a8be 8d81 debe
000000f0: 5e50 f1be a0d9 4a40 c6d1 f1be a16f ac3e
00000100: ceb6 fdbf a815 0ebe c916 0040 0f31 fd3f
00000110: 4656 00c0 9d66 0c40 0355 0340 7307 f3bf
00000120: c99e 8bbe 4edf 0540 11a7 26bf 986d 01c0
00000130: 1f81 01c0 3e69 0140 b637 04c0 6c73 fabf
00000140: 797e 733f f93f fcbf b83c fdbf bf87 d5bd
00000150: 834e 0640 68b8 fd3f 41ab 00c0 895f ee3d
00000160: 5912 04c0 88be fe3f ecc0 ef3f 974a efbf
00000170: 27df 0340 816b 0940 392b fe3f 8779 2e3d
00000180: 1f3b 0240 4998 ddbd bf83 0f40 e29e 07c0
00000190: 029a 5f3f 966d f3bd 436e 03c0 c978 14c0
000001a0: f081 00c0 ad09 03c0 5176 01bf 6e7d 0040
000001b0: 673d 07c0 5471 15c0 67b6 a7be 27de efbf
000001c0: 5141 f73f 0147 05c0 b12f 0840 44ef e53d
000001d0: d969 0bc0 d85a f03f 735c 0540 d553 ffbf
000001e0: 0cc4 0a40 dc60 fe3f 5046 00c0 3916 00c0
000001f0: 153a 06c0 8604 dabd 34a0 01c0 b4b3 e83f
00000200: b4d5 13bf 1fcc 39be ad55 3e3f 0899 2b3f
00000210: 460f 00bf a505 093f d6fc 053f aa8b 04bf
00000220: b95d bcbd f7cf d93e acf6 17be 23ee 10bf
00000230: f1f2 8fbe 3959 2e3f 82f3 5fbe fb43 debe
00000240: b5ac e93d 0fcd 03bf 8693 10bf 3846 adbc
00000250: 9075 043f ec65 c83e 93f9 f9be 2129 873d
00000260: 655a 27bf 0f8d 643e 5f11 e13e e691 31bf
00000270: 6b18 233f c8d2 043f fb6c 0b3f 94ef d6bd
00000280: a531 ac3e de06 0f3c 3614 0b3f 305d 1dbf
00000290: 0704 a83e 8b07 f0bb 2c6f 25bf c1c7 e9be
000002a0: ffea f9be 0231 32bf e16b 23be fdac 053f
000002b0: 40b9 08bf 56ea d7be 2e1a 91bd 192b a6be
000002c0: d954 163f 9a9a dabe a9df 553f afd5 803c
000002d0: a0bc 1dbf aeb2 f93e 289a 3a3f 4e8b bebe
000002e0: 75f6 89bc a875 2b3f 050c ffbe ccaa cbbe
000002f0: 8c6a 44bf 46f8 273d 4800 3dbf cc2b 053f

critic.4.bias f4 [3]
0.5928979 1.8237042 0.5327218
00000000: 28c8 173f 246f e93f 7560 083f

actor_mean.0.weight f4 [64, 20]
0.018177439 -0.1433224 0.16807687 0.0283229 -0.11110041 0.16926719 -0.04004316 -0.073764384
0.00770866 0.083836466 0.020420523 0.41256946 -0.08008989 0.29372844 -0.22355273 0.0052770614
0.32264477 0.3091316 -0.29229745 0.179341 0.0809992 -0.80936474 0.053216502 -0.03999278
0.078489445 0.14225666 -0.35765886 0.012248283 -0.22102104 -0.078595795 -0.35691783 0.19275352
-0.19557543 0.14154576 -0.050530434 -0.21472083 -0.26247826 0.15112787 0.08627634 0.1402025
0.011921597 0.030447649 -0.11506598 -0.1045837 -0.13085593 0.073075645 0.033392888 0.09941049
0.24570791 -0.04109911 0.14407085 -0.049106117 0.29599425 -0.138767 0.13008063 0.09227671
0.032869495 -0.25827014 -0.22272736 -0.016755678 -0.009018293 0.22848545 -0.059882954 0.044603936
0.027595097 -0.04988557 0.1114515 0.104314856 0.0020958441 -0.250482 0.055456154 -0.34401682
0.046264697 0.3549997 0.06763189 0.26375318 0.09477662 0.13038139 -0.28296894 -0.13002056
0.38700157 -0.028504353 -0.17515455 0.2663933 0.02151819 -0.28965804 0.06185568 -0.15739112
0.08584882 0.118423164 -0.08364902 0.06254108 -0.23094285 -0.14474733 -0.27451164 -0.02650729
-0.034584362 -0.07680224 -0.3217655 -0.061190125 -0.031082675 0.10383751 -0.03989594 0.3152954
0.29113084 -0.02600682 -0.30357155 0.15744857 -0.07983628 -0.35022518 -0.33222145 0.011137991
-0.31526667 0.0639571 -0.04094106 0.19321056 0.12359524 0.06143635 0.011341623 0.18963514
0.39053077 0.13942228 0.028726894 -0.17339106 -0.038455863 -0.0038491068 0.30395705 -0.22062084
0.045307305 0.09074973 0.3414572 0.10254123 0.25178733 -0.21258488 -0.036746882 0.1430023
0.22103819 -0.3078858 0.02818442 0.32682902 -0.25185567 -0.174547 -0.24195158 -0.19258426
0.10423112 -0.051955044 0.053613476 0.25985065 0.018011313 0.045524206 0.09290139 0.13621745
-0.201538 -0.34161505 -0.03481617 -0.13929573 -0.19816655 0.14195992 0.03287733 0.17258805
0.16938122 -0.014437449 0.0990918 0.34249324 -0.49454337 0.13766047 -0.13365154 0.2953131
-0.13855198 0.29622367 -0.10612385 -0.071420595 -0.20263194 -0.14235638 -0.09823684 0.012557934
-0.16148908 0.06776052 -0.32343662 0.10369899 -0.11029382 0.22784765 -0.069916606 0.034877013
-0.28952435 0.2334528 0.00129757 -0.13460724 -0.13040936 -0.23877916 0.050235737 0.0581086
-0.087762296 -0.04174156 0.090850584 -0.009819953 0.10950738 0.098285556 -0.01991521 -0.3957796
-0.20196116 0.16336131 0.19702601 0.045816157 -0.15281847 -0.061209068 -0.17387873 -0.18147194
0.21723786 -0.04875921 0.014540714 0.1885005 -0.03302723 0.0035665631 -0.15191996 0.041219737
-0.111568 -0.27470332 -0.10670703 -0.014157461 0.41946837 -0.060169183 -0.14777872 -0.22464377
0.108330846 0.062480632 0.102715805 0.28019783 -0.05482885 0.022088278 -0.19640696 -0.15585652
0.09842987 -0.18378483 -0.10780638 -0.4254631 -0.13352035 -0.061983787 -0.07593107 0.26094675
-0.096449345 0.11443208 0.38297132 0.26984552 -0.28113097 0.19747175 -0.031963345 -0.21577889
-0.2602749 -0.27561864 -0.121675804 0.21358766 0.09083033 0.21590592 0.09684042 0.28985214
00000000: dae8 943c 1bc3 12be 581c 2c3e 6d05 e83c
00000010: 9d88 e3bd 6154 2d3e 4c04 24bd c811 97bd
00000020: ed98 fc3b 74b2 ab3d f148 a73c 4e3c d33e
00000030: 2b06 a4bd 9363 963e 02eb 64be 33eb ac3b
00000040: b231 a53e 7f46 9e3e 03a8 95be 2ba5 373e
00000050: e9e2 a53d 8732 4fbf 8cf9 593d 78cf 23bd
00000060: 13bf a03d bbab 113e 101f b7be 06ad 483c
00000070: 5753 62be d5f6 a0bd efbd b6be 2e61 453e
00000080: ed44 48be 5ff1 103e 00f9 4ebd c7df 5bbe
00000090: 8d63 86be 44c1 1a3e a6b1 b03d 3f91 0f3e
000000a0: cd52 433c 596d f93c b6a7 ebbd fb2f d6bd
000000b0: 19ff 05be afa8 953d fbc6 083d ba97 cb3d
000000c0: db9a 7b3e 8a57 28bd 4f87 133e 7f23 49bd
000000d0: 8f8c 973e f018 0ebe db33 053e 92fb bc3d
000000e0: 2aa2 063d fc3b 84be a412 64be 3443 89bc
000000f0: 76c1 13bc 17f8 693e d447 75bd 9eb2 363d
00000100: 1d0f e23c d054 4cbd af40 e43d 07a3 d53d
00000110: 6e5a 093b 2d3f 80be fe25 633d f922 b0be
00000120: 0d80 3d3d 85c2 b53e 9782 8a3d a80a 873e
00000130: 3f1a c23d b382 053e 4ee1 90be 1c24 05be
00000140: 1225 c63e f681 e9bc b75b 33be b464 883e
00000150: ea46 b03c 0f4e 94be 625c 7d3d 232b 21be
00000160: 82d1 af3d d887 f23d 2d50 abbd 8a15 803d
00000170: 487c 6cbe a538 14be ca8c 8cbe d125 d9bc
00000180: 55a8 0dbd 7e4a 9dbd 73be a4be 7fa2 7abd
00000190: 18a1 febc c3a8 d43d ed69 23bd 666e a13e
000001a0: 1a0f 953e 410c d5bc bb6d 9bbe 333a 213e
000001b0: 3481 a3bd b750 b3be ee18 aabe 1f7c 363c
000001c0: a26a a1be f1fb 823d d0b1 27bd fdd8 453e
000001d0: 801f fd3d afa4 7b3d 37d2 393c b72f 423e
000001e0: a6f3 c73e b7c4 0e3e aa54 eb3c 6d8d 31be
000001f0: e583 1dbd 4c41 7cbb 42a0 9b3e 6eea 61be
00000200: 2794 393d ffda b93d 7ad3 ae3e 2301 d23d
00000210: 45ea 803e daaf 59be e683 16bd 326f 123e
00000220: d657 623e 35a3 9dbe 03e3 e63c 2256 a73e
00000230: 3af3 80be 73bc 32be 28c2 77be cf34 45be
00000240: 2077 d53d d0ce 54bd ce99 5b3d 250b 853e
00000250: 768c 933c 9777 3a3d 1543 be3d 967c 0b3e
00000260: fa5f 4ebe 2be8 aebe 669b 0ebd 8aa3 0ebe
00000270: 2cec 4abe f15d 113e 61aa 063d ecba 303e
00000280: 4572 2d3e 0d8b 6cbc a4f0 ca3d 465b af3e
00000290: ca34 fdbe def6 0c3e f3db 08be 4733 973e
000002a0: 92e0 0dbe a1aa 973e 7657 d9bd f644 92bd
000002b0: bf7e 4fbe dfc5 11be 6530 c9bd cbbf 4d3c
000002c0: 655d 25be 07c6 8a3d 7c99 a5be 2360 d43d
000002d0: bae1 e1bd e550 693e 7030 8fbd 33db 0e3d
000002e0: 893c 94be 400e 6f3e 3913 aa3a 7bd6 09be
000002f0: 088a 05be 8682 74be fdc3 4d3d 4903 6e3d
00000300: b8bc b3bd 33f9 2abd df0f ba3d dee3 20bc
00000310: 6845 e03d f049 c93d 3925 a3bc a0a3 cabe
00000320: e8ce 4ebe 3048 273e 30c1 493e b9a9 3b3d
00000330: 727c 1cbe 5cb6 7abd 440d 32be c8d3 39be
00000340: 9a73 5e3e bdb7 47bd 2d3c 6e3c 4606 413e
00000350: 9047 07bd 00bd 693b e890 1bbe 07d6 283d
00000360: c37d e4bd eaa5 8cbe 3789 dabd b2f4 67bc
00000370: 8fc4 d63e f673 76bd 4e53 17be 0409 66be
00000380: 90dc dd3d b1eb 7f3d aa5c d23d 1776 8f3e
00000390: 3794 60bd 7af2 b43c e81e 49be da98 1fbe
000003a0: 9a95 c93d 1732 3cbe 97c9 dcbd 4dd6 d9be
000003b0: 8fb9 08be b6e2 7dbd c081 9bbd d09a 853e
000003c0: 3c87 c5bd 5e5b ea3d d114 c43e 3129 8a3e
000003d0: 66f0 8fbe 0936 4a3e ffeb 02bd 24f5 5cbe
000003e0: c042 85be e31d 8dbe 2a31 f9bd b9b6 5a3e
000003f0: 4105 ba3d 7116 5d3e 4554 c63d 8067 943e

actor_mean.0.bias f4 [64]
0.023036879 0.073504575 -0.056461744 -0.015161475 0.10970457 0.08772207 -0.0054524974 0.008085626
0.14957032 -0.108822495 -0.076659575 0.11431333 -0.13599735 -0.086708345 -0.21055365 -0.020941034
-0.11983308 0.09260093 -0.039820857 0.13580073 0.061725765 0.04572008 -0.034145534 -0.054199025
0.1487865 0.05072335 0.10815049 0.061740655 -0.15552615 0.103758074 -0.05375247 -0.14687206
-0.1916252 -0.11169999 -0.04416405 0.00035376905 0.06749442 -0.1334441 -0.021013029 0.015885387
0.12484806 -0.038106784 -0.028245378 0.023719888 -6.8193316e-05 0.1155075 0.09592736 -0.06257245
0.07930427 -0.0005150969 -0.07310414 0.052408043 0.00041407443 0.12831901 -0.013884369 -0.029416582
-0.01583408 0.041083906 0.07571867 0.048811667 0.07157571 -0.042391904 -0.01455846 -0.05499497
00000000: d6b7 bc3c 9189 963d 6e44 67bd d667 78bc
00000010: caac e03d a1a7 b33d ddaa b2bb 9379 043c
00000020: f628 193e 54de debd b2ff 9cbd 1b1d ea3d
00000030: e442 0bbe 2594 b1bd 609b 57be 888c abbc
00000040: 0c6b f5bd 8ea5 bd3d 321b 23bd 590f 0b3e
00000050: 28d4 7c3d fb44 3b3d 30dc 0bbd ccff 5dbd
00000060: 7d5b 183e 4ac3 4f3d 017e dd3d c5e3 7c3d
00000070: 3f42 1fbe 1d7f d43d 8d2b 5cbd a165 16be
00000080: 6539 44be f7c2 e4bd 5de5 34bd 147a b939
00000090: 843a 8a3d 92a5 08be 8423 acbc 1222 823c
000000a0: 57b0 ff3d dc15 1cbd da62 e7bc 3650 c23c
000000b0: 0203 8fb8 328f ec3d 9075 c43d fc25 80bd
000000c0: 476a a23d 9107 07ba a0b7 95bd d1a9 563d
000000d0: 2118 d939 0f66 033e 447b 63bc 0bfb f0bc
000000e0: 79b6 81bc 9947 283d 6412 9b3d beee 473d
000000f0: 4996 923d 22a3 2dbd 9b86 6ebc 6842 61bd

actor_mean.2.weight f4 [64, 64]
0.18046977 -0.029611146 -0.0021853263 0.25522834 0.065756895 0.08536314 0.044365294 0.13968176
-0.2043517 -0.25030464 -0.29517236 0.10960302 -0.32671136 0.11554238 -0.67042273 -0.076673955
-0.15326548 0.40065885 -0.16130136 0.047297448 -0.41187087 -0.16036707 0.03702135 -0.4853228
0.0007237445 0.17781703 0.07239596 0.21997608 -0.258928 0.12261053 0.118848644 0.1705941
-0.20695257 0.15249272 0.24008171 0.02490188 -0.23669954 -0.49243435 -0.06416904 0.11274007
-0.032871548 0.22327855 0.04785535 0.10135723 0.18688624 0.15479663 -0.13880454 -0.25762966
0.26884475 0.20482036 0.13036741 0.14316855 0.020893095 -0.12611954 -0.01457808 -0.08216117
0.0547699 0.063364565 0.1380347 0.0782373 -0.022848489 0.17819232 -0.0611829 -0.23010859
-0.42749476 0.09008869 -0.20010777 -0.25102848 0.1126743 -0.27519652 0.08440886 -0.10172623
0.04934317 0.15099728 0.37022197 -0.0056597493 0.010835285 -0.14805742 -0.3645543 0.05620041
0.25860438 0.52672285 0.012799703 0.110695176 -0.14849763 0.14300549 -0.23535074 0.12863082
-0.1769723 -0.07222601 -0.049038205 -0.033574063 -0.21370727 -0.34369653 -0.094618596 -0.18570781
0.015809676 0.029690573 -0.1012891 0.22862804 -0.040237773 -0.010715721 -0.09337489 0.22314426
-0.13246432 0.5785809 0.0555084 0.12716773 -0.08607821 0.037607186 0.04272648 0.1370694
-0.028671063 -0.33270696 0.053723253 0.28239694 -0.119414985 -0.07481346 -0.04535518 0.45825222
-0.010201302 -0.028343927 0.06490208 -0.13269973 -0.028898772 -0.08491906 0.05669213 -0.011424446
0.1931418 0.118986055 -0.2294131 0.07340912 0.0741071 -0.030340327 -0.20405604 0.073006675
-0.20193827 0.12277243 -0.28513592 0.1491394 0.15171514 -0.08923155 0.26301086 -0.08523008
0.22735131 -0.27586046 0.3291471 0.10693921 0.12115482 0.23511003 -0.15100628 -0.29401624
0.2591893 0.3249279 0.15261605 0.096508116 0.26720402 -0.15222088 -0.047723845 -0.191057
0.27453333 0.24447994 -0.078784786 -0.25647312 -0.56588215 -0.1578449 -0.44469947 -0.072358325
0.20558736 -0.081178755 0.26953676 0.22662137 -0.13388616 -0.028914573 -0.042682976 0.038878676
0.09615083 0.0032952453 -0.094756775 0.30222315 -0.05742494 0.048010424 -0.0001145579 0.029996436
-0.05879286 0.35125884 -0.0716513 0.318274 0.027994642 -0.04495055 -0.19964463 0.066770695
0.08440866 -0.1469505 -0.022788938 -0.123974785 0.107223526 0.013593905 0.027325595 -0.37129122
0.34016263 -0.02777163 0.16183355 0.19824031 -0.2983633 0.14570677 -0.08777633 0.23944712
-0.3352409 0.43675253 -0.15502462 0.039479077 -0.17949536 0.5136911 0.19068438 0.18080406
0.11783937 0.27627128 -0.13829151 -0.3746621 -0.23840114 -0.002543184 0.043779638 -0.06712505
0.07106277 -0.16351101 0.0789905 -0.07309736 0.039486945 -0.20358968 0.09070496 0.20472562
0.14891078 -0.15771788 0.2355533 0.24077357 0.46727666 0.19074544 0.098412186 0.11924117
0.21457756 0.17636257 -0.07715133 -0.012514497 0.15424311 -0.23652191 -0.21200491 -0.16375263
-0.04359469 -0.027213432 0.12896997 -0.1158489 -0.005962271 -0.23590495 -0.45209828 0.0699448
00000000: 11cd 383e 1393 f2bc b137 0fbb 4aad 823e
00000010: 8dab 863d dfd2 ae3d 62b8 353d bc08 0f3e
00000020: 9241 51be ee27 80be d520 97be 8c77 e03d
00000030: b646 a7be 7ca1 ec3d d3a0 2bbf 3c07 9dbd
00000040: a0f1 1cbe 2823 cd3e 2f2c 25be f8ba 413d
00000050: bde0 d2be 4437 24be b3a3 173d 3b7c f8be
00000060: acb9 3d3a ab15 363e 5544 943d 6941 613e
00000070: 3692 84be 3b1b fb3d eb66 f33d 38b0 2e3e
00000080: 60eb 53be 0d27 1c3e fbd7 753e 07ff cb3c
00000090: 5d61 72be 5b20 fcbe 0f6b 83bd 44e4 e63d
000000a0: 51a4 06bd 22a3 643e f903 443d 6194 cf3d
000000b0: 1b5f 3f3e 0283 1e3e c722 0ebe 09e8 83be
000000c0: 05a6 893e 6ebc 513e 097f 053e c79a 123e
000000d0: ff27 ab3c 7b25 01be e6d8 6ebc 1e44 a8bd
000000e0: 6756 603d 48c5 813d f858 0d3e e13a a03d
000000f0: c12c bbbc 0c78 363e ec9a 7abd 96a1 6bbe
00000100: 98e0 dabe 6b80 b83d 0de9 4cbe ce86 80be
00000110: c9c1 e63d 8fe6 8cbe 8dde ac3d d755 d0bd
00000120: 101c 4a3d 089f 1a3e bc8d bd3e 6b75 b9bb
00000130: 7b86 313c 5d9c 17be dca6 babe 6732 663d
00000140: cb67 843e 4fd7 063f d8b5 513c 27b4 e23d
00000150: c30f 18be 0870 123e c9ff 70be ccb7 033e
00000160: 3a38 35be 3beb 93bd 49dc 48bd f584 09bd
00000170: 14d6 5abe fef8 afbe 65c7 c1bd 302a 3ebe
00000180: 4b83 813c a539 f33c a970 cfbd 781d 6a3e
00000190: 5dd0 24bd fe90 2fbc 563b bfbd ee7f 643e
000001a0: baa4 07be e11d 143f c75c 633d 4238 023e
000001b0: c649 b0bd fe09 1a3d f601 2f3d ec5b 0c3e
000001c0: 94df eabc 9158 aabe ea0c 5c3d 5596 903e
000001d0: d88f f4bd cd37 99bd 5ac6 39bd 09a0 ea3e
000001e0: 5d23 27bc 8631 e8bc 62eb 843d 70e2 07be
000001f0: 1ebd ecbc 0bea adbd 0236 683d 992d 3bbc
00000200: f7c6 453e f6ae f33d 45eb 6abe 8557 963d
00000210: 77c5 973d 478c f8bc 11f4 50be 8684 953d
00000220: e8c8 4ebe 1d70 fb3d 56fd 91be 00b8 183e
00000230: 375b 1b3e 08bf b6bd 5ca9 863e 1c8d aebd
00000240: c8ce 683e 953d 8dbe f885 a83e f202 db3d
00000250: 0520 f83d afc0 703e 64a1 1abe 4c89 96be
00000260: 76b4 843e f35c a63e 6247 1c3e 0ca6 c53d
00000270: f7ce 883e cadf 1bbe 147a 43bd 72a4 43be
00000280: a28f 8c3e f358 7a3e eb59 a1bd 7250 83be
00000290: a7dd 10bf 18a2 21be a6af e3be 9a30 94bd
000002a0: 7e85 523e 0c41 a6bd b900 8a3e 6f0f 683e
000002b0: 7419 09be 41de ecbc 58d4 2ebd 3f3f 1f3d
000002c0: baea c43d 0bf5 573b d70f c2bd febc 9a3e
000002d0: 6a36 6bbd 94a6 443d ce3e f0b8 16bb f53c
000002e0: c8d0 70bd 33d8 b33e ebbd 92bd cff4 a23e
000002f0: 0555 e53c 111e 38bd a46f 4cbe 13bf 883d
00000300: 73de ac3d 317a 16be deaf babc 7ee6 fdbd
00000310: 0298 db3d f8b8 5e3c edd9 df3c e219 bebe
00000320: cc29 ae3e 5481 e3bc b2b7 253e 82ff 4a3e
00000330: 13c3 98be 2834 153e 14c4 b3bd a031 753e
00000340: b2a4 abbe 079e df3e c6be 1ebe d0b4 213d
00000350: a2cd 37be 4381 033f c442 433e b324 393e
00000360: c555 f13d 6e73 8d3e 4a9c 0dbe b6d3 bfbe
00000370: 6e1f 74be 8cab 26bb 4752 333d dc78 89bd
00000380: 5c89 913d 6e6f 27be c5c5 a13d 12b4 95bd
00000390: 10bd 213d d079 50be 86c3 b93d 98a3 513e
000003a0: 117c 183e cc80 21be e234 713e 598d 763e
000003b0: e33e ef3e c652 433e 548c c93d b734 f43d
000003c0: 38ba 5b3e 6498 343e 8401 9ebd 9b09 4dbc
000003d0: e8f1 1d3e cd32 72be d117 59be c5ae 27be
000003e0: 5890 32bd b4ee debc b410 043e 3042 edbd
000003f0: 275f c3bb 1191 71be 6d79 e7be 383f 8f3d

actor_mean.2.bias f4 [64]
0.21740988 -0.021764603 0.0618796 0.12229476 -0.081373364 0.06841045 0.164519 -0.04241924
-0.22591159 -0.10716136 0.14199305 0.09037988 0.044904575 0.07750613 0.021404149 -0.09813972
0.1333529 -0.13213359 -0.08114063 -0.08186837 -0.009631478 0.16881226 -0.10056744 0.015956176
0.09680559 -0.09140059 -0.06691606 0.07431124 -0.11271493 0.04252249 -0.009526901 0.053446077
0.051634863 0.008836785 0.14105582 -0.07765466 -0.038373232 -0.21665783 -0.09106315 0.06636627
-0.1308891 -0.2331332 0.037023056 -0.05186277 0.07328636 -0.068910584 -0.12668818 0.05719792
-0.024267009 0.110736445 0.013763354 -0.10081015 -0.030591687 0.21398625 -0.033364575 -0.051480856
-0.26358584 -0.094270565 -0.011442728 0.16294768 -0.13228604 -0.18431123 0.020605601 -0.045492414
00000000: b2a0 5e3e ae4b b2bc 7775 7d3d ad75 fa3d
00000010: 14a7 a6bd c71a 8c3d ab77 283e ccbf 2dbd
00000020: 5e55 67be 6a77 dbbd a066 113e 1619 b93d
00000030: dced 373d 89bb 9e3d c157 af3c 7afd c8bd
00000040: aa8d 083e 074e 07be 0f2d a6bd 9baa a7bd
00000050: 59cd 1dbc 1fdd 2c3e 4df6 cdbd 87b6 823c
00000060: 0242 c63d 3c30 bbbd 4a0b 89bd 7e30 983d
00000070: 16d7 e6bd 102c 2e3d b816 1cbc 46ea 5a3d
00000080: 147f 533d 2ac8 103c f070 103e 6809 9fbd
00000090: 402d 1dbd 8ddb 5dbe 517f babd 0aeb 873d
000000a0: cb07 06be 78ba 6ebe 7da5 173d 0e6e 54bd
000000b0: 2917 963d fe20 8dbd 8cba 01be 5e48 6a3d
000000c0: 9bcb c6bc cac9 e23d b17f 613c 8d75 cebd
000000d0: 6b9b fabc 361f 5b3e 4ba9 08bd 97dd 52bd
000000e0: b9f4 86be ed10 c1bd 487a 3bbc c2db 263e
000000f0: fe75 07be 15bc 3cbe 14cd a83c 4156 3abd

actor_mean.4.weight f4 [6, 64]
0.03342862 0.055630583 0.03737444 -0.018386034 -0.017162403 0.13089475 -0.015620028 0.052398864
-0.02612866 -0.0075855963 0.011865824 0.03622131 -0.12964517 -0.025635462 0.028959487 0.06946062
-0.035243325 -0.10423676 -0.027691364 -0.15862228 -0.00468543 0.044816248 -0.04246858 -0.06426276
-0.036391754 -0.123791195 -0.06906826 0.19423777 -0.039523665 0.12775137 0.036647778 0.07349994
0.07123086 0.015326741 0.092930086 -0.066136874 -0.071503416 -0.032813482 -0.065029204 -0.011253753
0.028467325 0.035072904 -0.007589097 -0.0025344202 -0.07896334 -0.04618647 -0.06270213 0.0290758
-0.069866836 0.104438834 0.145556 -0.03761066 -0.021153972 0.16711713 0.09143741 -0.05453512
-0.07568283 -0.04890766 0.09057599 0.0065114656 -0.07933935 -0.009012347 0.020536039 0.1088083
0.18109484 -0.033354018 0.006256242 0.05662255 -0.047971424 -0.010740324 0.022176865 -0.028433597
-0.103701815 -0.102282874 0.005407344 0.120162144 0.005322859 0.0231609 0.06772587 0.0186908
0.06782755 0.09684901 -0.0035104074 0.04761667 0.09668722 0.10377227 -0.14835022 0.061629932
-0.059194144 -0.11412758 0.038756274 0.0045766006 -0.11036916 -0.09998435 -0.0073201777 0.071434766
0.031243403 0.120853536 0.052842405 -0.10923846 -0.09736685 -0.0736173 0.00047252938 0.07273658
-0.08824022 -0.05855138 -0.10751346 -0.08974347 0.023608495 -0.020209357 0.03769913 0.07994903
0.0045716604 0.11945148 0.026903657 -0.046513163 0.07717199 0.06301161 0.06604379 0.03237002
-0.08019435 -0.15917857 0.0051620337 0.05777791 -0.086385876 -0.10029723 0.013853526 0.018266415
-0.042051286 0.008363687 -0.053302236 -0.0069815572 -0.021622697 0.05440756 0.06353802 -0.012999584
-0.048402414 -0.03378786 -0.031850446 0.08703438 -0.08400786 -0.015026047 0.0035031072 0.02273257
0.0747971 -0.17556597 -0.042544957 -0.090326965 0.020850832 0.002336219 0.0006135204 -0.070987344
0.07373226 -0.027844489 -0.022962665 0.07750506 -0.082857616 0.080815196 -0.01774815 0.10384397
-0.089084044 -0.14063817 0.07002411 0.08951751 -0.035258736 -0.056135602 -0.12037947 0.06419409
0.1399205 -0.023255734 -0.034100898 -0.10629609 0.0051566423 -0.13004106 -0.03446773 0.048379857
-0.16424318 -0.020515993 0.03872204 -0.042957053 -0.06849674 -0.020221401 0.045427363 -0.14123088
-0.047200765 -0.08367302 0.12699729 0.07887034 -0.07013092 -0.013850447 -0.121214285 0.10715352
0.15606403 -0.028315537 -0.023075743 0.06248349 -0.047479365 0.022434132 0.13904086 -0.12627508
-0.22221325 -0.11702474 0.15684627 0.022077708 0.036864202 0.09214187 0.14369582 -0.079359084
-0.0023129184 0.0033301013 -0.018377677 -0.09868249 -0.005933356 0.10743005 -0.07700671 -0.054369647
0.12976195 -0.05141718 -0.02171468 0.036898356 -0.013101584 0.03990981 0.039397866 0.04592714
0.05395273 -0.05843909 0.20629704 -0.039860312 -0.06110648 -0.24001189 -0.027496109 -0.012059337
-0.04427371 -0.17365395 -0.026779648 -0.08121947 0.03951797 -0.048269305 -0.069956295 0.024055557
-0.045443468 0.08356735 0.011753442 -0.034433942 -0.11573406 0.1940215 -0.0946292 -0.0900404
-0.12965703 -0.08092465 -0.031200105 0.1407333 -0.05225678 -0.06477896 0.038011868 0.017575715
00000000: 73ec 083d e5dc 633d f115 193d 4f9e 96bc
00000010: 2b98 8cbc 4609 063e 25eb 7fbc 31a0 563d
00000020: c60b d6bc 9890 f8bb e068 423c cc5c 143d
00000030: b4c1 04be 7601 d2bc 723c ed3c 5f41 8e3d
00000040: 4e5b 10bd 157a d5bd 00d9 e2bc e16d 22be
00000050: 3c88 99bb 3e91 373d 89f3 2dbd 329c 83bd
00000060: 850f 15bd 3d86 fdbd a973 8dbd 44e6 463e
00000070: 91e3 21bd 41d1 023e fb1b 163d 2387 963d
00000080: 7ce1 913d 031d 7b3c 2152 be3d c572 87bd
00000090: 6270 92bd 6e67 06bd 082e 85bd a961 38bc
000000a0: 4f34 e93c 9ba8 0f3d f6ad f8bb 8418 26bb
000000b0: 88b7 a1bd 062e 3dbd f969 80bd 5f30 ee3c
000000c0: 5816 8fbd 07e4 d53d a20c 153e a30d 1abd
000000d0: 184b adbc c120 2b3e 8943 bb3d 3860 5fbd
000000e0: 99ff 9abd 6653 48bd e87f b93d 225e d53b
000000f0: ab7c a2bd 86a8 13bc 323b a83c e3d6 de3d
00000100: ed70 393e 399e 08bd 2901 cd3b 0ced 673d
00000110: af7d 44bd 2ff8 2fbc 42ac b53c 93ed e8bc
00000120: 9e61 d4bd af79 d1bd 1730 b13b 9217 f63d
00000130: 616b ae3b eebb bd3c dcb3 8a3d 731d 993c
00000140: 2ce9 8a3d c658 c63d dd0e 66bb b309 433d
00000150: f303 c63d 8e86 d43d 1fe9 17be ab6f 7c3d
00000160: 8f75 72bd b8bb e9bd e6be 1e3d 4ff7 953b
00000170: 3a09 e2bd 98c4 ccbd 1ade efbb 644c 923d
00000180: 2af2 ff3c 0f82 f73d 4771 583d 6ab8 dfbd
00000190: 4568 c7bd abc4 96bd d2bd f739 ebf6 943d
000001a0: 4ab7 b4bd 92d3 6fbd 0430 dcbd 6dcb b7bd
000001b0: 9a66 c13c 188e a5bc 676a 1a3d 51bc a33d
000001c0: decd 953b faa2 f43d 0f65 dc3c 9684 3ebd
000001d0: 590c 9e3d 3b0c 813d f741 873d 6d96 043d
000001e0: ef3c a4bd b5ff 22be 4726 a93b 88a8 6c3d
000001f0: 14eb b0bd a268 cdbd e6f9 623c 73a3 953c
00000200: f83d 2cbd d907 093c 7253 5abd 8cc5 e4bb
00000210: 1522 b1bc 76da 5e3d 3920 823d 35fc 54bc
00000220: 9c41 46bd 2465 0abd 9d75 02bd 153f b23d
00000230: 500c acbd cf2f 76bc 6394 653b a839 ba3c
00000240: 392f 993d 91c7 33be 9f43 2ebd 58fd b8bd
00000250: 5dcf aa3c 401b 193b a8d4 203a d061 91bd
00000260: f000 973d 201a e4bc 331c bcbc f9ba 9e3d
00000270: 41b1 a9bd 7082 a53d 9164 91bc 26ac d43d
00000280: b271 b6bd 7403 10be cd68 8f3d f554 b73d
00000290: 776b 10bd 72ee 65bd 8389 f6bd 3178 833d
000002a0: 5247 0f3e cf82 bebc 62ad 0bbd c4b1 d9bd
000002b0: 0df9 a83b 7c29 05be 092e 0dbd f529 463d
000002c0: 5d2f 28be 2811 a8bc 009b 1e3d bcf3 2fbd
000002d0: 0548 8cbd 5aa7 a5bc 0b12 3a3d d49e 10be
000002e0: 9755 41bd c35c abbd 940b 023e c686 a13d
000002f0: cda0 8fbd fcec 62bc 323f f8bd 4e73 db3d
00000300: 40cf 1f3e fcf5 e7bc 5709 bdbc b0ee 7f3d
00000310: b979 42bd c9c7 b73c ba60 0e3e 414e 01be
00000320: df8b 63be abaa efbd 4f9c 203e 4fdc b43c
00000330: ebfe 163d e0b4 bc3d ff24 133e 0487 a2bd
00000340: 5594 17bb d43d 5a3b c88c 96bc 0c1a cabd
00000350: 996c c2bb 4904 dc3d b2b5 9dbd b5b2 5ebd
00000360: 51e0 043e d29a 52bd fce2 b1bc bb22 173d
00000370: 07a8 56bc 7878 233d a85f 213d 191e 3c3d
00000380: 8afd 5c3d d45d 6fbd 883f 533e 9144 23bd
00000390: ca4a 7abd adc5 75be 853f e1bc 8794 45bc
000003a0: 5a58 35bd 57d2 31be fe60 dbbc 6556 a6bd
000003b0: 98dd 213d 09b6 45bd 3f45 8fbd 2910 c53c
000003c0: ee22 3abd 5c25 ab3d 8291 403c 9b0a 0dbd
000003d0: fb05 edbd 92ad 463e f4cc c1bd 1a67 b8bd
000003e0: d0c4 04be d3bb a5bd 5d97 ffbc 641c 103e
000003f0: 350b 56bd d5aa 84bd 55b2 1b3d f2fa 8f3c

actor_mean.4.bias f4 [6]
0.029546378 0.13963373 0.056804415 0.25481993 0.13795553 0.096547656
00000000: 3f0b f23c 25fc 0e3e bfab 683d c277 823e
00000010: 3744 0d3e c7ba c53d

codebook f4 [100, 3]
0.061165914 0.7709184 0.17817457 0.169424 0.32971665 0.5158417 0.5601741 0.4112423
0.016721541 0.48726383 0.28312722 0.21904841 0.58816266 0.08225515 0.3288163 0.50175214
0.21979466 0.27631158 0.096083306 0.5355258 0.3622036 0.19860792 0.26454803 0.5493974
0.112103425 0.5622671 0.3312307 0.14155261 0.34907997 0.5242688 0.21538256 0.15844512
0.63853073 0.36191753 0.40687865 0.2392565 -0.007064677 0.6280162 0.38276237 0.09830676
0.4326926 0.4698184 0.031921677 0.3740023 0.60357 0.06584843 0.37517464 0.56180847
0.23961012 0.70148295 0.065677166 0.4145672 0.37664443 0.20138824 0.39972606 0.4507744
0.15318786 0.52841616 0.12355355 0.34759754 0.7405865 0.12653454 0.13009922 0.39696348
0.39767975 0.19924544 0.33444655 0.22538903 0.45180735 0.9088247 0.06791451 0.014407298
0.28405875 0.17187034 0.5560672 0.42878345 0.50491387 0.06361269 0.064678766 0.053550847
0.8915186 0.5555116 0.12158729 0.3197522 0.34244612 0.43643948 0.2277161 0.24597001
0.3234762 0.44249943 0.48969156 0.35753414 0.14609696 0.052119434 0.57549113 0.36622918
0.17003804 0.3381788 0.4992084 0.35401046 0.5467708 0.10722756 0.42215493 0.51202893
0.05733805 0.40931505 0.282162 0.30544332 0.22801095 0.57954216 0.19263612 0.5008761
0.11667616 0.38321376 -0.018108916 0.48154223 0.5360461 0.34478277 0.2661378 0.39698082
0.13565458 0.54098797 0.33456367 0.8594376 0.029511463 0.10879911 0.18417536 0.06176588
0.76488227 0.45943776 0.49505103 0.024183335 0.31138137 0.5071355 0.19036967 0.47449425
0.27365065 0.24408565 0.5449268 0.20764849 0.2478423 -0.043251384 0.36266467 0.6842725
0.124780186 0.6336973 0.25206766 0.22271527 0.3554009 0.4292086 0.09015627 0.40747964
0.5074828 0.05298297 0.3216856 0.63343173 0.064669356 0.3717676 0.57408404 0.28388596
0.50003934 0.22253866 0.7575294 0.021338603 0.21643917 0.11772751 0.032516547 0.8550961
0.4261516 0.14520825 0.43356967 -0.011279748 0.4935676 0.5225239 0.30068222 0.53763175
0.16015726 0.15421967 0.17492339 0.6834432 0.2019848 0.4161348 0.38874802 0.21056485
0.7809438 0.01096359 0.37562838 0.36308122 0.25848866 0.16856033 0.23920421 0.60204256
0.13678226 0.102482274 0.77410746 0.6213622 -0.0057770954 0.38180935 0.48398283 0.15188451
0.3633156 0.50250375 0.036322344 0.46786782 0.4240206 0.006281789 0.5739011 0.16069353
0.5290573 0.32218778 0.38408303 0.31297377 0.30715021 -0.013610539 0.7044545 0.3097737
-0.018307758 0.34497935 0.67409277 0.21168438 0.6645339 0.13438931 0.4491384 0.1059649
0.44531915 0.3583099 0.11770602 0.53704154 0.43028075 0.46796006 0.09102931 0.2575229
0.29713508 0.45807916 0.5014136 0.1241731 0.37683237 0.35590526 0.390055 0.25652277
0.347933 0.25151843 0.4049892 0.32619628 0.56270367 0.101600304 -0.038194347 0.27603668
0.77257955 0.37102297 0.5561825 0.06332414 0.56305003 0.08400195 0.3531101 0.7803007
00000000: 1c89 7a3d e95a 453f 6573 363e 7c7d 2d3e
00000010: 9fd0 a83e 340e 043f 9267 0f3f 5a8e d23e
00000020: 9dfb 883c a57a f93e 0df6 903e 3a4e 603e
00000030: d491 163f 6375 a83d 9c5a a83e d472 003f
00000040: da11 613e b678 8d3e 53c7 c43d 3818 093f
00000050: c072 b93e e05f 4b3e d772 873e 4fa5 0c3f
00000060: 7b96 e53d bdf0 0f3f 1297 a93e 2bf3 103e
00000070: 9cba b23e 7b36 063f 3f8d 5c3e 703f 223e
00000080: c076 233f 414d b93e 6652 d03e a8ff 743e
00000090: ce7e e7bb abc5 203f 6ef9 c33e 0e55 c93d
000000a0: e289 dd3e 0a8c f03e 4ec0 023d 3b7d bf3e
000000b0: 9083 1a3f 8bdb 863d e416 c03e aed2 0f3f
000000c0: 5b5c 753e 6394 333f c081 863d 2742 d43e
000000d0: 8ad7 c03e b838 4e3e e5a8 cc3e e7cb e63e
000000e0: 47dd 1c3e 4846 073f a509 fd3d 4ef8 b13e
000000f0: 1497 3d3f 4592 013e bb38 053e cc3e cb3e
00000100: ae9c cb3e ff06 4c3e 943c ab3e 62cc 663e
00000110: 4b53 e73e bca8 683f c316 8b3d 960c 6c3c
00000120: 2670 913e c7fe 2f3e 6c5a 0e3f 8189 db3e
00000130: 0942 013f 5f47 823d 4d76 843d 2258 5b3d
00000140: 903a 643f 0236 0e3f c202 f93d 8fb6 a33e
00000150: 1955 af3e ff74 df3e 692e 693e 90df 7b3e
00000160: ac9e a53e 498f e23e dab8 fa3e b70e b73e
00000170: 719a 153e 307b 553d 6353 133f 6482 bb3e
00000180: 741e 2e3e c625 ad3e 3e98 ff3e dc40 b53e
00000190: 2cf9 0b3f 1f9a db3d b124 d83e 5414 033f
000001a0: 4edb 6a3d be91 d13e 8a77 903e 1163 9c3e
000001b0: b47b 693e e05c 143f 6742 453e 6b39 003f
000001c0: e9f3 ee3d 9834 c43e 2659 94bc b48c f63e
000001d0: 513a 093f 5e87 b03e 3743 883e 1241 cb3e
000001e0: 09e9 0a3e 307e 0a3f ee4b ab3e 1a04 5c3f
000001f0: 06c2 f13c 11d2 de3d 7798 3c3e 38fe 7c3d
00000200: 53cf 433f 6d3b eb3e 5477 fd3e 211c c63c
00000210: 616d 9f3e a2d3 013f 44f0 423e e9f0 f23e
00000220: f01b 8c3e 97f1 793e 5380 0b3f cea1 543e
00000230: 5fca 7d3e 5d28 31bd 2faf b93e 7c2c 2f3f
00000240: c18c ff3d fc39 223f 030f 813e 790f 643e
00000250: 1bf7 b53e 3bc1 db3e daa3 b83d 2ca1 d03e
00000260: 65ea 013f ac04 593d fab3 a43e 9528 223f
00000270: 5e71 843d 5358 be3e 2cf7 123f 8059 913e
00000280: 9402 003f 2de1 633e 72ed 413f 4bce ae3c
00000290: 3ba2 5d3e 1f1b f13d 1230 053d 94e7 5a3f
000002a0: 8b30 da3e 79b1 143e d8fc dd3e b1ce 38bc
000002b0: e4b4 fc3e 20c4 053f 05f3 993e 3ca2 093f
000002c0: 4400 243e c3eb 1d3e 1e1f 333e 22f6 2e3f
000002d0: 1ad5 4e3e 9f0f d53e fb09 c73e 509e 573e
000002e0: efeb 473f a1a0 333c 5d52 c03e c8e5 b93e
000002f0: a058 843e 149b 2c3e f3f1 743e 761f 1a3f
00000300: a610 0c3e 3ae2 d13d e82b 463f 9811 1f3f
00000310: ca4d bdbb 847c c33e 99cc f73e 9d87 1b3e
00000320: 8104 ba3e 16a4 003f bdc6 143d 5f8c ef3e
00000330: 3a19 d93e 77d7 cd3b 2feb 123f d88c 243e
00000340: 4d70 073f ccf5 a43e 88a6 c43e 193e a03e
00000350: cb42 9d3e bdfe 5ebc 2157 343f a99a 9e3e
00000360: 27fa 95bc 22a1 b03e 5891 2c3f cac3 583e
00000370: e51e 2a3f 5a9d 093e 78f5 e53e 2004 d93d
00000380: df00 e43e 6574 b73e db0f f13d 8e7b 093f
00000390: c24d dc3e 7698 ef3e 936d ba3d 0bda 833e
000003a0: 1722 983e 5a89 ea3e a45c 003f 774e fe3d
000003b0: 2cf0 c03e 3739 b63e 4ab5 c73e f456 833e
000003c0: 4624 b23e 06c7 803e bf5a cf3e 3303 a73e
000003d0: 590d 103f d213 d03d ad71 1cbd ae54 8d3e
000003e0: c6c7 453f b9f6 bd3e fa61 0e3f 16b0 813d
000003f0: 0c24 103f 3709 ac3d d9ca b43e c9c1 473f
