saved_agents/walker2d_a.pth (torch, 51189 bytes, 12 tensors)

actor_logstd f4 [1, 6]
00000000: 9ced 11be 461d 43be 14c7 0abe 82c6 08be
00000010: 35cf 6ebe 25c1 9cbd
-0.14250797 -0.19054136 -0.13552505 -0.13356975 -0.2332123 -0.07654027

critic.0.weight f4 [64, 20]
00000000: 77e8 1c3e 052b 283e fb7a 55be 4d41 1f3d
00000010: 4db7 ab3e b11b 1cbf 4c41 a7be f4e8 09be
00000020: a560 833e 2ed9 83be 4b92 d23d 23c7 adbe
00000030: e163 dfbd 8cae b5bd ee63 ab3d d98a c5bd
00000040: d16d 5abc 684b d6be 2ed5 1d3f c923 ac3e
00000050: 4879 a4be 8cd8 c3be 5618 6f3e 9538 253e
00000060: d344 ebbd 9d8f 0bbd 2ae3 233e 1d59 4abe
00000070: fe29 13be f9f9 bb3d dd49 ea3d 2de2 4abe
00000080: 552b 6a3e 02f5 433e 0e4a 2b3d 6a5a ee3d
00000090: a8b9 18be 2085 b43e c233 86bd e722 09bf
000000a0: dc0e 55be 6281 073f 1005 92be 885c 62bd
000000b0: 798d 003e e44f e6bd 4ec1 3bbe 55f5 b0be
000000c0: 61a9 783e 10d8 02be 26ba 6fbe 8316 b93d
000000d0: 7fdc ef3c 616d 51bd 93cf f33d bb9a 7c3d
000000e0: 2f73 9b39 b065 ff3e 6893 67be 8a64 28bf
000000f0: 8227 153f 1087 35bf e221 123f 03da 6d3e
00000100: b0e3 aa3d dd8e 0b3f 960f 153e 5b29 393b
00000110: 7591 74be 0592 6e3e d83a 7a3e 5b2f 9c3d
00000120: fac2 623d a624 a93a e13c 98be 1844 10be
00000130: 306e 553c 9b73 493f ded5 cfbe b2fa 90be
00000140: 65b8 b6be d62a 1e3e a32a 82bd aa1d ca3d
00000150: a4f9 4ebe c7c6 e13c dd63 3cbe d69a b33c
00000160: b9dd febd 1b09 d4bd 39db 2fbc bd2d 57bd
00000170: 08df 873d fed5 843d fd93 503d fdbd fbbd
00000180: 08d5 abbd c630 bb3e fb6d aabe 4187 c9bd
00000190: 0338 bb3e 8aad 0c3f 1236 cbbd 37b2 c9be
000001a0: e02f 113d 0452 843d db34 a2bd 5cb9 ba3d
000001b0: 5cb7 6b3e 7b50 23be fff7 9dbd de83 70bd
000001c0: c00a 4f3d b2e0 193d 559e 4e3e 6b99 b33b
000001d0: 096b 173d 27bb 3abe e4f7 963e 6134 1f3f
000001e0: ceec 113d 8763 4a3f cf04 15be 27c6 07be
000001f0: 27a9 c6bd 5df1 83be b50e 98be d528 6bbd
00000200: dbcc 523f 47da bf3d 6ace f63c e15d 6cbd
00000210: 424a 9fbd a32b bc3b 7550 7bbd 9bad a1bd
00000220: 69b4 b7bb a354 87bd a9f4 573f 3ec8 06bf
00000230: 0e48 303e 06c2 6c3e 1a27 b33e 130d 903e
00000240: 3735 2bbe bd41 e9bd 63f6 3a3e e19d 83bd
00000250: 0689 0ebf 1048 633e ed71 73be 6e2d 553c
00000260: ab92 1e3e 663f fbbc b1ce 7e3e e025 bd3c
00000270: c8db 0ebd 86d0 a63d a383 e4be 0dee c23d
00000280: 1ea7 1a3f 0c2d b53d ebb5 0cbe c0ee 76bc
00000290: 6bf4 30be e1f8 88bd 37c1 75be 29b0 bebe
000002a0: f448 9d3e 8298 023e a6d6 b2bc f5fa 003c
000002b0: 7a55 c2bd ecc4 9a3c e2eb 353c 8a6b 383e
000002c0: 5643 bdbd 1bd3 063f be11 823d 2049 d13d
000002d0: 031a 46be 879f 49bf 59e7 823e d979 0a3f
000002e0: be1a 0c3e 61f3 4e3f 0940 7cbc 695a 963e
000002f0: 0259 d2be 188c f3bd 522a 8dbd bc85 9cbc
00000300: d3a3 37bc 6bf7 26bb a05f 213e 18e6 dc3d
00000310: 17c8 6c3c 7920 a63e fb67 3bbe f3fc cebe
00000320: 3aea 04bc 5ad4 e1bd bcd9 353d f4e2 2dbe
00000330: 1447 04bf 0d29 7d3e 2f49 e4be 54f2 9abd
00000340: 10e1 963d 6e35 5ebe 823e 4fbe a4cd 353e
00000350: c252 543d 9346 ae3b 96d1 253e c566 b6bd
00000360: 2825 423e 9d79 1c3e 8566 123e a50b 463d
00000370: 8170 55bd 8534 bfbd 1d43 adbd f56c ae3d
00000380: 2191 b63d e3f2 543e 7a57 0e3e 8723 01be
00000390: bbea 633e 5a3b a3bd 4195 04bf 91ca b93d
000003a0: eb90 a23d 3d96 b33c 6326 8d3e ce0c 183e
000003b0: 932c f13c afd0 2a3f fae0 8abe 4514 dbbe
000003c0: cb2b 2bbf 8d22 953f 1254 bdbe 4721 103c
000003d0: efc4 db3c 6b6f 97be 0207 eebe 64b2 11be
000003e0: f378 9e3e 1f82 6e3d 42ad b03d 9824 f6bd
000003f0: 5f08 0dbd 1353 ec3b 9495 e53c a3f4 a13b
0.15323053 0.1642266 -0.20847695 0.038880635 0.33538285 -0.60979754 -0.32667005 -0.13467771
0.2565967 -0.25751632 0.102818094 -0.33940992 -0.10907722 -0.08871183 0.083686695 -0.09645624
-0.013331846 -0.41854405 0.6165341 0.33621052 -0.3212378 -0.3825115 0.23349127 0.16134866
-0.114877366 -0.034072507 0.16004625 -0.19760557 -0.14371487 0.09178538 0.114398696 -0.19812842
0.22868092 0.19136432 0.04181867 0.11638339 -0.14914572 0.35257816 -0.06552841 -0.5356888
-0.2080645 0.529318 -0.28519487 -0.055264026 0.12553968 -0.11245707 -0.18335459 -0.34562173
0.24283363 -0.12777734 -0.23410854 0.09037497 0.029279945 -0.051129702 0.11904826 0.061671
0.00029649722 0.4988227 -0.22614825 -0.6577841 0.5826341 -0.70909214 0.5708295 0.23227696
0.08344209 0.5451487 0.14556727 0.002825341 -0.23883612 0.2329789 0.2443651 0.0762622
0.055361725 0.0012904599 -0.29733947 -0.14088476 0.013026759 0.78692025 -0.40592855 -0.28316265
-0.35687557 0.15446028 -0.063557886 0.09868939 -0.20212418 0.027560605 -0.1839747 0.021924417
-0.12444634 -0.10353299 -0.010733419 -0.052533854 0.06634337 0.06486128 0.050922383 -0.12292097
-0.08390242 0.3656065 -0.33287033 -0.09840251 0.3656617 0.549523 -0.099224225 -0.3939378
0.035446048 0.06460956 -0.07920238 0.09117386 0.23019165 -0.1594867 -0.07713317 -0.05871951
0.05054736 0.0375678 0.20177586 0.0054809353 0.03696731 -0.18235455 0.29486 0.621893
0.035626225 0.79058117 -0.14552616 -0.13259183 -0.09700232 -0.25770083 -0.2969872 -0.057411987
0.82343835 0.09367805 0.030127723 -0.057706717 -0.077778354 0.0057425066 -0.061356027 -0.07894441
-0.0056062234 -0.0660794 0.84357697 -0.52649295 0.17214987 0.23120889 0.3499077 0.28134975
-0.16719519 -0.11389492 0.18258052 -0.064265974 -0.5567783 0.22195458 -0.23773928 0.01301132
0.15485637 -0.03066988 0.24883534 0.02308935 -0.03487757 0.081452414 -0.4463168 0.09518061
0.6041125 0.08846483 -0.13741271 -0.015071571 -0.17280738 -0.06688095 -0.23999487 -0.37243775
0.3071972 0.1275349 -0.021830868 0.007872333 -0.094889596 0.018892728 0.011103602 0.18009773
-0.09241359 0.5266587 0.0635104 0.102190256 -0.1934586 -0.78759044 0.2556713 0.54092175
0.13682076 0.80840117 -0.015396127 0.29365852 -0.41083533 -0.11891955 -0.068928376 -0.019106738
-0.011208492 -0.0025477062 0.15759134 0.107860744 0.014452002 0.3244665 -0.18301384 -0.4042736
-0.008112485 -0.11026831 0.0443971 -0.16981107 -0.51670957 0.24722691 -0.44587085 -0.07565752
0.07367146 -0.2170007 -0.20238689 0.17754227 0.051836737 0.0053184717 0.16193232 -0.089063205
0.18959486 0.15280767 0.1429692 0.04835095 -0.052109245 -0.09336189 -0.084600665 0.08516876
0.089144 0.20795779 0.13900557 -0.12611209 0.22257511 -0.07970305 -0.51790243 0.090718396
0.07937797 0.021922225 0.2756835 0.14848635 0.0294402 0.66724676 -0.27124768 -0.42788902
-0.668637 1.1651169 -0.36978203 0.008796996 0.026827304 -0.29577193 -0.46489722 -0.14228207
0.30951652 0.058229562 0.08626796 -0.120186985 -0.03443181 0.0072120517 0.028025426 0.004942493

critic.0.bias f4 [64]
00000000: cf91 1c3e 6d30 c8bd a697 f7bd b1cf 203d
00000010: 1c99 3abe ef5e e53d 7437 07bd 399f 003e
00000020: ef49 d93d 270b d1bd 0a6e 3b3d e789 b1bd
00000030: 6b9f 65be b93d c33d 4ae5 443d b7bf db3d
00000040: d7b0 dd3c bd44 523e 4626 1bbe 9fce 75be
00000050: beff 32be 95e5 28bd 94b8 5c3e a516 783e
00000060: effb ae3d 81f0 98bd f393 663d ca72 823e
00000070: 5a53 253e d4d9 c9bc 86b4 8c3d 6701 013d
00000080: f72d 353e 3587 5e3b 9d3f 7d3e 466b bcbd
00000090: 5adc f13d 9f34 993c cfaa 32be cbf6 303d
000000a0: 0627 9d3d 9480 01be 653f 03be c3c5 563d
000000b0: 102e ba3d a501 2c3d f480 a43d c047 de3d
000000c0: 7af0 3abd 4ce3 363c 0ac1 32be 2cfe b2bd
000000d0: f1d6 a9bd 6bb2 5b3d ce19 cdbd 7a55 ff3c
000000e0: 8dd5 233e d1eb 25bd 78b1 df3d 7a02 8a3e
000000f0: 3d03 cf3d 9437 113e 2ea8 d53c 67c1 ab3e
0.15289997 -0.097748615 -0.120894715 0.03926057 -0.18222469 0.11199748 -0.03301187 0.12560739
0.10609805 -0.10207205 0.04575924 -0.08668881 -0.22424094 0.09533257 0.04807023 0.10729926
0.027061863 0.20534034 -0.15151319 -0.24004601 -0.1748037 -0.04123457 0.21554786 0.24227388
0.08544146 -0.074677475 0.05629344 0.25478202 0.16145077 -0.024640001 0.068703696 0.031495478
0.17693315 0.0033955101 0.24731298 -0.09200148 0.11809607 0.01870185 -0.17447971 0.04320411
0.07673459 -0.12646705 -0.12817152 0.052434694 0.09090817 0.041993756 0.08032408 0.10853529
-0.045639493 0.01116259 -0.17456451 -0.08739886 -0.0829295 0.05363695 -0.100146875 0.031168688
0.15999432 -0.040508095 0.10922521 0.26955014 0.101080395 0.14181358 0.02608117 0.33545992

critic.2.weight f4 [64, 64]
00000000: a469 c5be f6e5 c63d cac6 643e 7d42 40be
00000010: 6d90 5fbe 127c d7bd 9299 133f 4a59 b9bd
00000020: a743 d7bd f141 d0be d8e6 5fbe 7dbb 40be
00000030: 2fd2 96be ea1b 003e 4fba c13e 8aa7 e93e
00000040: 978c 153e b796 91bd e52c 303c 2617 8e3d
00000050: 68b6 0ebb dddd 43bd d742 92bb 84e5 86bd
00000060: 45e8 bebd b33e 8e3c 6c39 5dbe bedf 2bbe
00000070: 46ae 30be 743b b13d ab34 0d3e f549 983e
00000080: b628 0fbe 8cab 7a3e 1318 d53d e973 803c
00000090: 2bf5 8d3d b632 95be f0b2 063e 5ee6 c83a
000000a0: 125c 9f3e 2060 6ebe b6f5 78be 0976 233e
000000b0: 12cc 3b3d 6c40 dcbd 076a 28be faff 063e
000000c0: 1508 98bc daaa 333d d230 febb fb2f 2e3f
000000d0: 838d a3bd f781 593e 8dfa 2dbe 2f1f 503e
000000e0: 9229 9dbd 8cf6 94be e1be b43e 1fe9 733e
000000f0: 7afb d53d 2d19 bc3e 2745 33bf 71d1 113f
00000100: a588 763d c98f 36bd 850b 85ba 58bc 93be
00000110: d40b 323d 41bd 18bd 4bd0 0e3f 0268 b83b
00000120: 91eb 54be 4fe9 0d3c 2caa 4b3e fdd0 a03e
00000130: 91c2 03be a020 1cbe a186 3d3f 0396 e53e
00000140: 2c89 0abd d7bb 09bd ac0c dc3e 1e32 9fbd
00000150: fc72 36be 6295 8a3d 998d 93bb 8389 df3d
00000160: 8cad 623d 2e72 89bc e9a0 8bbe d4a2 c8bd
00000170: bc5d 9dbe 5be9 fdbe 30e3 87bd e85d 10bc
00000180: 8d6e 96ba 99b4 b0bd 36c9 453e 7ab7 6bbe
00000190: d6f4 28bc 6862 6b3d 7209 9bbe dad8 9abe
000001a0: 72a9 9d3e 7804 0b3b bea3 e1be a078 233e
000001b0: efba 53be 2f80 093e 1cc1 87bd 0448 7cbe
000001c0: d419 03bd f8ea 263e 2484 1ebc 8860 be3d
000001d0: bb8c e1bc 9ed9 903d 5a64 9fbd b545 443f
000001e0: b85f 113d f3f6 7cbe 692d 5d3e 05f8 dbbd
000001f0: 1c53 043e 9a10 e43e f014 12bf 9fa2 1a3e
00000200: e0ec 20be 7b35 d43d 51a9 573e 6a22 0dba
00000210: 59be bb3d 3469 90bd 4b5b 01bf 838a e13d
00000220: 7446 96bd 4169 723b fb89 41be a8d5 84bd
00000230: 197c 8fbd e0ca 08be d935 0dbf a168 2ebf
00000240: 31a2 0ebd 413e 38be 55a2 48bd 0d5c 273e
00000250: 11cc bf3c c331 7cbd 8dbc 82be 37c4 e93d
00000260: df79 ccbd f5c3 cc3e ef1e 0f3e 27c2 81be
00000270: 7712 ea3e 88f0 93bc 3f6f 053e 2357 28bd
00000280: aa4d 1d3e 5cfc a1bd e2ae a23e 1846 c23e
00000290: ceae 313d 4ed6 05be 99f7 2f3d 5686 25be
000002a0: 3907 103d 8233 833e 3540 0c3f 0fcb 89be
000002b0: bb71 6abd 094b cd3d 4d39 e0bd d59f 5bbe
000002c0: caa5 e83c 049f afbe 2553 f9bd 8ba6 abbe
000002d0: f478 5a3e 5247 0b3e 92d5 bd3c bce5 a2be
000002e0: 0615 01bd 7315 c03e dbfc 73be b2e6 e33d
000002f0: 0eda 4dbe 24ab eabe 3e05 453f dc2f 03bf
00000300: a385 b13e 6cfa 993d a44a ee3d 2b70 093f
00000310: 7423 893d 9bcf 3bbe 0c99 00be 2f6f 41bd
00000320: 7e8b f63d c234 a6bd 5a5d 973e 6c71 d73d
00000330: ef34 d7bc d59a 1b3f 9662 ccbd edae f7bd
00000340: ae67 b83d e442 99be 0071 a1bd 1971 09bc
00000350: 3f10 fcbd b871 75bc 140b 203e 6b3b 80be
00000360: 3f7d 8cbd 6d2c 5e3e e0f0 13bd 2ce1 49be
00000370: 25f2 ec3e 3e50 79be a553 843e dffb 7bbe
00000380: 956b a0bc 3952 80be 560a 0bb9 69a9 5bbc
00000390: 2bb8 af3d 19c7 30bc b9eb 553e 65b6 0abf
000003a0: ca7f 2c3e e1b9 d23e 1437 a23d 7e1d b1bb
000003b0: 5527 c5bc efa6 62bc 3225 01bf 0af9 56bd
000003c0: ffc9 88be f937 603d 87eb b8bb 8e84 5cbe
000003d0: b7b1 41be 5138 6fbd 159f 0bbe 4ec4 5cbe
000003e0: 0680 a6be fa53 243e 8813 a03e d0f6 d23e
000003f0: 530d 923d d6dc 95bd 6d09 46be 0289 00be
-0.3855716 0.0971183 0.22341457 -0.18775363 -0.21832438 -0.105217114 0.57656205 -0.09050234
-0.105109505 -0.4067531 -0.21865404 -0.18821521 -0.29457232 0.12510648 0.37837455 0.45635635
0.14604412 -0.07108825 0.010752891 0.06938009 -0.0021776203 -0.047819007 -0.0044635343 -0.065867454
-0.09321646 0.017363882 -0.21603936 -0.1678457 -0.1725398 0.08653918 0.13789622 0.29743925
-0.13980374 0.24479502 0.104049824 0.01568027 0.06931528 -0.29140252 0.13154197 0.0015327444
0.31124932 -0.23278856 -0.24312481 0.15962996 0.045848913 -0.10754475 -0.16446696 0.13183585
-0.018558541 0.04386411 -0.0077572847 0.6804196 -0.079859756 0.21240984 -0.16990109 0.20324396
-0.076739445 -0.2909435 0.3530188 0.23819397 0.10448356 0.36737958 -0.70027393 0.5696021
0.060188908 -0.044570718 -0.0010150528 -0.28854632 0.04346831 -0.03728986 0.5578658 0.005627633
-0.20792986 0.008661582 0.19889134 0.31409445 -0.1286719 -0.1524682 0.7403355 0.44841012
-0.033822224 -0.033626404 0.42978418 -0.07773231 -0.178173 0.06766774 -0.0045029637 0.109149
0.05534129 -0.016778078 -0.27271202 -0.09796682 -0.30735576 -0.495921 -0.066351295 -0.0088114515
-0.0011477038 -0.08628196 0.19315037 -0.2301921 -0.01031228 0.057466894 -0.30280644 -0.3024357
0.3079334 0.002121238 -0.44070238 0.15963984 -0.20676778 0.13427804 -0.066286296 -0.24636847
-0.032007053 0.16300571 -0.0096750595 0.092957556 -0.027532926 0.07072757 -0.077828124 0.76668864
0.035491675 -0.24703579 0.21599354 -0.10740665 0.12922329 0.44543916 -0.570632 0.15101098
-0.1571536 0.10361763 0.21060683 -0.0005383851 0.09167165 -0.07051316 -0.50529927 0.11012747
-0.073376566 0.0036989006 -0.18900292 -0.06486064 -0.070060916 -0.1335864 -0.5516029 -0.681284
-0.034822647 -0.17992498 -0.048982937 0.16343708 0.023412736 -0.061570894 -0.25534478 0.11414378
-0.099841826 0.39993253 0.13976644 -0.2534344 0.45717213 -0.01805903 0.13030718 -0.041098725
0.15361658 -0.07909462 0.3177405 0.37944102 0.043379597 -0.13070032 0.042960737 -0.16164526
0.035163138 0.25625235 0.5478547 -0.26912734 -0.057237368 0.100240774 -0.10948429 -0.2144769
0.028399367 -0.34301007 -0.12174062 -0.335255 0.21335202 0.13601425 0.023173127 -0.31815898
-0.03151419 0.37516364 -0.23826925 0.11127986 -0.20102713 -0.45833695 0.76961124 -0.512449
0.3467227 0.07518467 0.1163533 0.5368678 0.06696215 -0.18340914 -0.12558383 -0.047225174
0.12038325 -0.081155315 0.2956341 0.105196804 -0.026270358 0.6078313 -0.09979741 -0.12093911
0.0900415 -0.29933846 -0.07882881 -0.008388781 -0.12307786 -0.014980726 0.15629226 -0.25045332
-0.06859826 0.21696635 -0.03611839 -0.19714803 0.46278492 -0.24347016 0.25845066 -0.246078
-0.01958255 -0.2506273 -0.00013259923 -0.01340709 0.08580049 -0.010789656 0.20890702 -0.5418456
0.16845623 0.4115744 0.079206616 -0.005405127 -0.024066607 -0.013833745 -0.5044738 -0.052483596
-0.2671661 0.05474088 -0.0056433114 -0.2153494 -0.18915449 -0.058403317 -0.13634904 -0.2155926
-0.3251955 0.1604766 0.312649 0.41203928 0.07131448 -0.07317512 -0.19339533 -0.12552264

critic.2.bias f4 [64]
00000000: 6048 5a3e 8b36 e83d a1e7 72be b569 ce3d
00000010: de67 40be 2f64 43be e15a e93c b265 9d3e
00000020: df8b f33d 67b9 07be eb2a aa3d 504a 03be
00000030: 80aa 203e 74f1 9cbd 78df de3d a804 843e
00000040: e047 34bd 849c f9bd b3a7 763e cabd 23be
00000050: c5a4 23be 37a3 043e 5d3e 6ebe 0cf6 acbd
00000060: bbe7 413e dce4 9cbd 455e 4cbe 36a3 a83d
00000070: bd49 ff3d 1684 913e 037a 8d3e 69a4 4dbe
00000080: ba89 2c3e cba6 243e 0d06 943e ccab 89bd
00000090: 48a8 0b3e f4ce ecbd 4cc7 413d a4f6 353e
000000a0: 9860 e8bc c481 3bbe c531 13be 6b01 7e3d
000000b0: 7416 36be 8b54 1bbc fa02 f6bd 246f fa3d
000000c0: dd75 5e3e d7ec 4b3e 1208 243e 6c2e 4c3e
000000d0: 5e8a 7abd 0269 0c3e 3e95 46bc c8b7 9fbe
000000e0: ada6 ac3e efb5 ca3d 6ca0 323e 9e81 1e3d
000000f0: 0443 95be b421 103e 1410 c63b 48f6 a6bd
0.21316671 0.11338528 -0.23721172 0.10078756 -0.18789622 -0.19081186 0.028485717 0.3074165
0.11891913 -0.13254319 0.08308967 -0.12821317 0.1569004 -0.07663241 0.10882467 0.25784802
-0.044013858 -0.12188056 0.2408741 -0.15990368 -0.15980823 0.12952887 -0.23265977 -0.08445367
0.18936054 -0.07660839 -0.19957836 0.08234255 0.12465236 0.28421086 0.2763215 -0.20082249
0.16849414 0.16079251 0.28910866 -0.06722221 0.13638413 -0.11562911 0.047309205 0.17769867
-0.028366372 -0.1831122 -0.14374454 0.06201307 -0.17782003 -0.009480606 -0.120122865 0.1222823
0.21724649 0.19914566 0.16018704 0.19939584 -0.061167113 0.13711932 -0.012120543 -0.311949
0.33720914 0.09897982 0.17444009 0.03869783 -0.2915269 0.14075357 0.006044397 -0.08152443

critic.4.weight f4 [1, 64]
00000000: 032a 5f3f eaba 893f 5d7c 56bf fc5d 853f
00000010: ee8c 9bbf b843 8abf c9ca a33f 41d2 723f
00000020: 16d3 913f 6410 9ebf 07e2 813f 2a53 98bf
00000030: ffd9 823f 6c19 9e3f f813 833f a6fe 563f
00000040: 5bb4 833f ecac 82bf bebb 733f e8aa 58bf
00000050: b175 7dbf 0d25 723f 0a8c 8fbf 6e5d 9fbf
00000060: 6384 863f 9ddb b3bf b36a 67bf a280 a23f
00000070: d5ea 6d3f 992f 693f 5c99 8f3f 8529 98bf
00000080: 934f 883f a043 98bf 5dd7 893f e13a 8b3f
00000090: 5dad b6bf 9c95 b23f d19f 713f e4ab 883f
000000a0: b4d1 993f f7e5 77bf ea8d 94bf cd79 a7bf
000000b0: 6ccf 5bbf befd 99bf 592d bdbf b2a5 833f
000000c0: 22ae 823f 7bca 973f f95c 5c3f 735b 943f
000000d0: 23c5 a5bf 185d 933f 48f4 a1bf 1745 81bf
000000e0: 4eec 713f da04 963f cfcc 8c3f 3c21 9a3f
000000f0: 9baa 8dbf ff2b 7f3f 540d 963f 8d3a 9fbf
0.8717348 1.0760167 -0.83783513 1.0419307 -1.2152383 -1.0801916 1.279626 0.9485207
1.1392543 -1.2348752 1.0147103 -1.190038 1.0222777 1.2351508 1.0240469 0.8398231
1.0289415 -1.0209022 0.95208347 -0.8463578 -0.9900771 0.94587785 -1.1214612 -1.2450387
1.0509151 -1.4051396 -0.90397185 1.2695506 0.9293645 0.91088253 1.1218677 -1.1887671
1.0649284 -1.1895638 1.0768849 1.0877343 -1.4271656 1.3951907 0.94384485 1.0677457
1.2017121 -0.96835274 -1.1605809 -1.3084046 -0.85863376 -1.2030561 -1.4779464 1.0284941
1.0209391 1.1858667 0.86079365 1.1590408 -1.2950786 1.1512785 -1.2652674 -1.009921
0.945012 1.172023 1.1000003 1.2041392 -1.106769 0.9967651 1.1722817 -1.2439743

actor_mean.0.weight f4 [64, 20]
00000000: 086f 8e3e fe1b 41be 0b59 2b3d 29f5 ce3d
00000010: 19eb d83d 911f 04be e27f fcbd ef4e d83e
00000020: 9bda 813d f774 a93e 29c8 7d3c 0061 96be
00000030: f0cb a53d eda2 3f3d 50dc ab3e 231c b13e
00000040: cb2a 003e c17a 053f d2ec b2bd d72b b6bc
00000050: d95a 4c3e 30c0 bf3e 055a 603e f6dd 8b3d
00000060: 4376 123f 9edc 173e ed46 9ebc 0ecd acbc
00000070: 0062 163e a98f 723e 6f90 7d3d 0447 863e
00000080: 5bba 99be 0954 923e ab52 5dbe 1218 bd3d
00000090: ee60 7f3e 2671 ce3d 5d07 bc3e d84c f13d
000000a0: a795 0abe 664b f5bd 7c2a 713e 47ca 8abe
000000b0: cc46 28be 1bfe 3c3e c6f0 38bc 4112 4b3d
000000c0: 5c80 52be f4e7 d33e 28db 09be 2335 c43d
000000d0: 399e 433d 2f60 a0bc b999 3f3e bda7 9dbd
000000e0: ba21 63bc 01e2 173e 60c3 acbb 01fd ba3e
000000f0: dffc 13be fd19 f2be dda5 d4bd 646d 953d
00000100: 92f9 c73d cccb 03be 7c5d a2bd 7d04 dabd
00000110: 89fb 153e 0650 85bd aa65 2fbe 10b7 913c
00000120: 945c a6be b9cb 27be 5b5e 82be 3711 eb3d
00000130: 0547 ac3d 5808 21be 6612 f63d 119e 20be
00000140: df53 613d bc0b 03be 87f0 5bbe 12da 1e3e
00000150: a445 833d ad6b e1be 8268 dc3d 1854 373e
00000160: 0a06 b6be 567e 70bc 93c5 7c3e 14ab 38be
00000170: 93e2 b33e 1471 a13e 29cc c7be 766f efbd
00000180: b43b 943e 9a3a fd3b 4f03 843e f82e 04bd
00000190: a893 afbd 182b 093e 785d f7bd 0838 3abe
000001a0: 441a b33d 22b2 973c 0332 c9be e4bf e6bd
000001b0: f011 04be cd97 9cbd 9bc5 ffbe 4e16 43bc
000001c0: 0e39 c9bc ede6 edbd b377 a63d d6a6 16be
000001d0: e873 873e 9605 413e de51 a3bd 33dd 58be
000001e0: bc27 bb3e fce4 143e 98c3 db3d 6622 c8bd
000001f0: 63fd 9c3d 20c0 d1be 8a87 1c3e 5583 a13c
00000200: 1ae2 00bf b8fc 0bbe 022c b53c 374b 163d
00000210: ee85 93be ec1b b73d 8b7d 21bd ec7e 78be
00000220: bf10 a4be 733f 0bbe 9a3e 0dbd edbb ab3e
00000230: 445e 11bb 5a15 0fbe 43cd 483e ba7f aa3e
00000240: 7c93 213d d236 1f3e 7020 9b3d 2313 5dbd
00000250: bd34 76be bb2d bbbe aaf8 e33c 63da 883d
00000260: 719b 9eb9 edcb 613d 3346 c4bc a8bf a8bd
00000270: 06ae 11be 6750 833e c77e d7be 452a e9bd
00000280: e4c3 b33e db34 6cbe 2543 9d3e 59fe 5fbd
00000290: 1055 873d 281b 973c 3fa4 ea3d 6e7f 51be
000002a0: f4ff 603e 7c90 45be a3bb 2a3d 2c22 acbe
000002b0: 0411 a93e b2d5 e33d 0860 a6bd 3bef c33d
000002c0: 278d 1b3e 059b eabe 77aa fe3d 7c0e 043e
000002d0: 514f 223e 4fed 25be 84a7 e4bd c951 01be
000002e0: 1e46 ac3e 6bb5 dd3c 2206 983d 38b4 cc3c
000002f0: 5c0f a4ba 6994 7f3e a4d5 283e 5de9 c83d
00000300: 5ad7 c9be 75dc 8cbd dc00 153e c36f f03e
00000310: 244e 89be 7b3f 363d 6279 7cbe 3492 833e
00000320: f0f6 b03e a7ae d9be c5d2 dc3a 1493 f8bb
00000330: 6eee e33d 906c b5be 056e a33d 1044 923e
00000340: e1e3 423e 601a b1be e666 ae3e 2e50 623d
00000350: 40d0 66bd 5c64 e9be a07c 51be f34e 17bc
00000360: 93bb 363e 6c22 dc3e 2f6b c83e 04a6 503e
00000370: 3ac8 d53e 4fe2 55bd ec4a 593d 224f 20be
00000380: 398a 873e 3cf4 b23d 83df b8bc 8753 aa3d
00000390: 52c9 4dbe 8020 6bbd 7ce6 a9bc f9a2 75be
000003a0: 9e31 87bd 117e a5bd b8a9 9fbd c33d 8d3e
000003b0: 8184 ab3e acc0 5d3d 3703 f9bd 1df6 40be
000003c0: 4655 853e fe8f c3bd 52fe 1abe 69a2 68bd
000003d0: 78db 1b3c 84fb 5dbe ab0d 8abe 49fd af3e
000003e0: d49a 9b3e 7509 c3bd 821e 10be d748 acbd
000003f0: 1485 763e 4578 e93d dee8 01bf 5a26 ac3d
0.27819085 -0.18858334 0.041832965 0.10105354 0.10591716 -0.12902667 -0.12329079 0.42247722
0.06340524 0.3309705 0.015489616 -0.2937088 0.080955386 0.046786238 0.33566523 0.3459178
0.12516324 0.5214043 -0.08736576 -0.022237701 0.1995653 0.37451315 0.2190934 0.06829445
0.57211703 0.14830253 -0.01932093 -0.021093871 0.14685822 0.23687615 0.06190532 0.26226056
-0.3002499 0.2857974 -0.21613567 0.09233107 0.2493932 0.10080175 0.36724368 0.11782235
-0.1353365 -0.11977272 0.23551363 -0.2710745 -0.16433257 0.18456309 -0.011287874 0.049577955
-0.20556778 0.41387904 -0.13462508 0.095804475 0.047758315 -0.019577114 0.18710984 -0.07698009
-0.0138630215 0.14832307 -0.005272314 0.36521152 -0.14451931 -0.47285452 -0.103831984 0.07296255
0.09764399 -0.12870711 -0.07927987 -0.10645387 0.14646734 -0.06509404 -0.17128626 0.017787486
-0.32492507 -0.16386308 -0.25462613 0.11477893 0.084119834 -0.15725839 0.12015228 -0.15685298
0.055011626 -0.12797445 -0.21478473 0.15512875 0.06409767 -0.44027463 0.10762121 0.17903173
-0.35551482 -0.014678558 0.24684744 -0.18034011 0.351338 0.31531584 -0.3902295 -0.11691181
0.289518 0.007727933 0.25783774 -0.032271355 -0.08573085 0.13395345 -0.120783746 -0.18185437
0.08745244 0.018517558 -0.39295968 -0.11267069 -0.12897468 -0.07646141 -0.49955449 -0.011907173
-0.024563339 -0.11616311 0.081282996 -0.1471208 0.26455617 0.18849787 -0.07974599 -0.21178131
0.36553752 0.14540476 0.10730666 -0.09772186 0.07665517 -0.40966892 0.15286079 0.019715944
-0.50345004 -0.13670623 0.022115711 0.036692824 -0.28813118 0.089408726 -0.039426368 -0.24267167
-0.32044026 -0.13598423 -0.03448353 0.33541813 -0.002218143 -0.13972989 0.19609551 0.33300573
0.039447293 0.15548256 0.07574546 -0.05397333 -0.24043556 -0.36558327 0.027828533 0.06682279
-0.0003025192 0.05512612 -0.023959255 -0.082396805 -0.14226541 0.2564728 -0.4208891 -0.113850154
0.3511039 -0.23067038 0.3071529 -0.054685924 0.06608021 0.018445566 0.11457109 -0.20458767
0.21972638 -0.19293398 0.04168285 -0.3361982 0.33020794 0.111247435 -0.08123785 0.09567114
0.15190564 -0.45821396 0.12434857 0.1289615 0.1585057 -0.16203807 -0.111647636 -0.12628855
0.33647245 0.027064046 0.07423045 0.024988279 -0.0012516784 0.24958958 0.16487747 0.098101355
-0.39422113 -0.06877986 0.14551109 0.46960267 -0.2681743 0.044494133 -0.24655679 0.25697482
0.34563398 -0.42516062 0.0016847482 -0.0075858925 0.11129461 -0.3543439 0.07979969 0.28567553
0.19032241 -0.34590435 0.3406288 0.055252247 -0.056350946 -0.4558438 -0.20457697 -0.009235132
0.17844991 0.42995012 0.39144275 0.2037583 0.41754323 -0.052217778 0.053049967 -0.15655187
0.26472643 0.0873799 -0.022567516 0.08316713 -0.20096329 -0.05740404 -0.020739786 -0.2398795
-0.066012606 -0.08080686 -0.07796043 0.27586183 0.3349953 0.054138824 -0.12158816 -0.18843885
0.2604162 -0.09548949 -0.15136078 -0.05679551 0.009512775 -0.21677977 -0.26963553 0.3437293
0.30391562 -0.09523288 -0.14074138 -0.084123306 0.24074203 0.11399893 -0.5074595 0.084057525

actor_mean.0.bias f4 [64]
00000000: 6a49 bc3d 3204 e03c 30bf 56bb 6132 6fbd
00000010: e0b0 bf3d a945 0d3d fb75 ae3d 8245 423c
00000020: c44d 483d d2f7 823b 0edd 1e3e 34db e03c
00000030: 42a7 b03b f152 ab3d e63a 42bc 1efa 313d
00000040: 4b02 43bc 9070 adbb 1fe1 843d e444 9e3d
00000050: 8b06 323a 17cb e63c baf8 163e 4cce dbbb
00000060: 5e97 45bd 4f67 cebc c4f1 d5bc e34e f5bc
00000070: 06c3 c43d 6763 253d 2eff f83d f9cd bcbd
00000080: 52b9 123e 7555 bc3d 1ec4 18bd 39dc 31bd
00000090: 6f7f e23d de0b 9bbd ac5b 853d bb05 463d
000000a0: 9bd5 ecbb 6561 cabd a683 d0bc b911 353d
000000b0: 8ab0 7d3d fc8b 0e3d 21f8 1dbd ce3a f1bd
000000c0: 3e6d c6bd 0012 97bd e3cf 973d bfc1 4c3d
000000d0: 3b19 09be d29d 063d 4704 79bd e685 a33d
000000e0: 9d70 ed3d a374 933d 831a d8bd 686a 7dbd
000000f0: 77b5 31bb f3dc 473d aca0 023b 2aa8 c9bc
0.0919369 0.02734575 -0.0032767765 -0.058397654 0.09359908 0.03449026 0.08518597 0.011857392
0.048902288 0.0039968276 0.15514013 0.027448274 0.0053910324 0.08365429 -0.011854863 0.04345142
-0.011902402 -0.0052929595 0.06488251 0.077279836 0.0006791136 0.028173013 0.14743319 -0.006707942
-0.048240058 -0.025195746 -0.02611626 -0.029944843 0.0960751 0.040378 0.12158047 -0.09218974
0.14328507 0.09195987 -0.037296407 -0.04342291 0.11059462 -0.07570623 0.06511626 0.04834531
-0.007227612 -0.09881858 -0.0254534 0.044206355 0.06193594 0.03480147 -0.038566712 -0.11778794
-0.09688805 -0.0737648 0.07412698 0.04998946 -0.13388531 0.032865353 -0.060795095 0.079845235
0.11593745 0.07199981 -0.10551932 -0.061869055 -0.0027116218 0.048794698 0.0019932194 -0.02461632

actor_mean.2.weight f4 [64, 64]
00000000: c219 1a3e 8b27 45be 2d0f 66be 92c8 a73e
00000010: c7b0 1cbd f903 86be 43d4 8dbd b513 da3e
00000020: 7da7 073d 4a54 d0be 29f4 abbc 8ab3 8cbe
00000030: 23f6 b4bc 566f 81bd 6948 af3e 5f8b 3b3e
00000040: c08b 8ebe 7b63 4bbd bc37 d5bc 0de9 4f3e
00000050: 4022 863d 6e1b 8e3e e579 b83d 9675 8cbd
00000060: 6dbe 833d 2644 353d b851 c23e f54e 353d
00000070: 7fb9 5f3e aa53 853e 8aab c8be e4b8 893b
00000080: 6507 c33d 7e50 3c3e e88e 35be 20fa 473e
00000090: 9869 d33d 8212 ee3d c139 c1bd 4df9 d0bd
000000a0: 70ee 82bc 47b2 25be 547b 45bd d16e b23d
000000b0: 66cc 343b 4736 603d c53c c53c 15fb 4fbc
000000c0: 77eb 633c 818c 1d3e fe9f ffbd f65f 0e3e
000000d0: 6d56 1d3e c619 1e3e 3d9a cbbd 2c35 113c
000000e0: a179 c63e 78b8 d33e f761 bebd d442 c93c
000000f0: 0221 083d bb32 683d bff0 75be e276 31be
00000100: 4118 3b3e 10e9 83be 21c6 2e3e 3527 eebe
00000110: 2b73 2bbe 9a76 e4bd c1ba 1cbc 0eb6 f5bd
00000120: 42e2 8ebd 09b5 583d e9ff 993c 4c90 48bb
00000130: 99df aabe 8568 13be 0f82 c4be 4132 3a3e
00000140: 11ca 40be d7d4 0d3d 8616 5c3e 385c 9a3d
00000150: 0fcb fa3d 5b45 fd3d 7d0f 7a3d 8302 7bbd
00000160: 17c5 29bd 7dad fd3c c47f c03e f8d9 823e
00000170: a005 b23d 86b6 aa3d b771 1d3e ccec cc3e
00000180: d642 bebd b7df b03d 658f 903d 8c82 9a3e
00000190: bb45 5a3d 9d53 17be 4017 07bd 54e8 76be
000001a0: efa4 083c aba9 473e 9b6b 773e 7030 a3bb
000001b0: e2d4 643d 2c1d a1be 44fa 02be 92a0 43be
000001c0: 5462 c53e e04e 4d3e d96b 393e b3db 2fbd
000001d0: 2e83 20be e517 29be 3efb e93d 6609 dc3d
000001e0: 99b8 aabd 4934 ccbd 5df1 b03a 8814 69be
000001f0: 4543 503e 7e41 c63e 759c eabd 815a 323e
00000200: 36f9 d2bd 1635 a83e ff12 06be 1a1e 9b3d
00000210: 1da1 4abd 4a79 1d3e 6147 34be f464 9bbe
00000220: 77ac da3d 70a1 a73e a41d 98bd 2918 b0bd
00000230: 4fab 77be d860 1b3e a095 58be cd7f f1bd
00000240: 1b0f b03d 6b13 94be 817a 8dbc e9d2 0c3e
00000250: f86a 5c3d 4d49 1e3e f4ed a0be 52fb 383e
00000260: 0b23 81bd d8e9 a0bd 2430 0f3f 8797 7fbd
00000270: f981 2bbe 1190 dabe 56f2 033e 95f1 d43d
00000280: 8219 163e d9cd c13d 69ba a6bd b59b d33d
00000290: b9d1 683e b0c3 a8bd a2b6 7ebe b5ca a23e
000002a0: f97a bdbd 95de 08be 8750 ab3d 4b0b 19be
000002b0: c83b 30bd 3ad5 08bd b820 2dbd 2ab4 713e
000002c0: a936 5f3e bd1b 8cbd 4f46 1fbd 53f4 033e
000002d0: 68c8 f33d 998d 5e3e 8745 34be 826e 0c3e
000002e0: 15b3 0c3e 2410 3bbe c4cc 9e3d 38a0 87bd
000002f0: 62a5 463d ec64 713e 435d 15be 2600 63be
00000300: 17c4 ea3d 9dcf 973d 96ff 84be c160 8f3d
00000310: 406f ccbd 2d41 a63e 6d09 d9bc 5393 85bd
00000320: 36ab f3bd 56f2 b7be 333b d43d 8b4d 8fbd
00000330: f54c 793d 9c03 cbbc ebf6 38be 3c37 873d
00000340: a595 86bd 1864 24be ddaa 32be 25ec 0d3e
00000350: 3860 943e b034 e2bd 54f4 d03d 4382 46be
00000360: 65d7 0bbe 5b13 a03e ae26 a0bd b886 98bd
00000370: e4d7 08be 9f77 0f3d 4e9c 1a3e 4861 24bd
00000380: 6e2e 88be 5273 b03c 699d b63e b48b 06bf
00000390: b75d 363e a0bf b53b f9d4 76bd a89a 443e
000003a0: 24e0 223e 324d dd3d 0377 643e 9e05 7a3e
000003b0: 9c21 f43e f12e 63bd ec60 823d 0405 093d
000003c0: f9b4 8cbc 59db 223e 0e48 9d3e 5a97 bb3d
000003d0: db77 7ebe e9e6 873e f7e6 56bd dd40 1fbe
000003e0: eff3 89bd 00d8 6d3e b843 5dbd aa10 b5be
000003f0: a5cd b23d ad6e 89be 5366 56be e060 3bbe
0.15048888 -0.19253366 -0.22466727 0.3277021 -0.038254526 -0.26174906 -0.06925251 0.4259316
0.033118714 -0.40689307 -0.020990448 -0.27480727 -0.022090023 -0.06320064 0.34234932 0.18314885
-0.27840996 -0.04965542 -0.026027553 0.20303746 0.065495014 0.27755302 0.090076245 -0.06858365
0.06432805 0.044254445 0.3795297 0.044264752 0.21848105 0.26040393 -0.39193374 0.004202949
0.09522895 0.1839008 -0.17730296 0.19529009 0.10322875 0.11624624 -0.09434844 -0.102038
-0.015982836 -0.16181289 -0.048213318 0.08712543 0.0027587651 0.054739263 0.024076829 -0.01269414
0.01391112 0.15385629 -0.12481688 0.13903794 0.15365 0.1543952 -0.09941528 0.008862775
0.3876467 0.41351676 -0.09296029 0.024567999 0.033234604 0.056689005 -0.24017619 -0.17330506
0.18270971 -0.2576375 0.17067768 -0.46514288 -0.16743152 -0.11155434 -0.00956601 -0.11997615
-0.06976749 0.052907024 0.018798785 -0.0030603586 -0.33373716 -0.1439534 -0.38380477 0.18183233
-0.18827082 0.034626808 0.21492967 0.075371206 0.122457616 0.12366744 0.061049927 -0.061281692
-0.041447725 0.030966515 0.37597477 0.25556922 0.08692479 0.08335595 0.1537541 0.40024412
-0.09290092 0.0863642 0.070586 0.30177724 0.053289156 -0.1477799 -0.032981157 -0.24112064
0.0083401045 0.19498317 0.24162142 -0.0049801394 0.055867083 -0.3146757 -0.12790781 -0.19104221
0.3855158 0.2004962 0.18107547 -0.04293413 -0.15675041 -0.16513021 0.11424874 0.1074398
-0.083359905 -0.0997091 0.0013499666 -0.22761738 0.20338161 0.38721842 -0.11455623 0.17417337
-0.103014395 0.32853 -0.13093184 0.07574101 -0.049470056 0.153783 -0.17605354 -0.3035046
0.10677426 0.32740355 -0.074275285 -0.08598358 -0.24186443 0.15173662 -0.21150827 -0.11791954
0.08596631 -0.28921065 -0.017270328 0.13752331 0.05381295 0.1545765 -0.31431544 0.18064621
-0.06305512 -0.07857102 0.5593283 -0.062400367 -0.167488 -0.4268804 0.12885413 0.103976406
0.14658168 0.094630904 -0.08141024 0.10332433 0.22736253 -0.082404494 -0.24874356 0.31795278
-0.09251971 -0.13366158 0.08364969 -0.14945714 -0.04302576 -0.033406474 -0.04226753 0.23603883
0.21798195 -0.06841228 -0.03888541 0.12886171 0.11903459 0.21733703 -0.17604648 0.1371403
0.1374019 -0.18267876 0.077539 -0.06622356 0.048497565 0.23573655 -0.14586358 -0.22168025
0.114631824 0.07412646 -0.25976247 0.07000876 -0.09982157 0.324716 -0.026493752 -0.065222405
-0.1189789 -0.35927075 0.10362854 -0.06997212 0.060864408 -0.024781995 -0.18062942 0.06602332
-0.06571511 -0.16053808 -0.17447992 0.13859613 0.2897966 -0.110452056 0.10202852 -0.19385628
-0.13656385 0.31264767 -0.078198776 -0.074475706 -0.13363606 0.03502619 0.15098688 -0.040131837
-0.26597923 0.021539364 0.3566697 -0.5255692 0.17809187 0.005546525 -0.0602617 0.19199622
0.15905815 0.108057395 0.22311024 0.24416205 0.47681892 -0.05546469 0.06366143 0.03345205
-0.017176138 0.15903987 0.30719036 0.091597274 -0.24850409 0.26543358 -0.05246636 -0.15552087
-0.0673598 0.23226929 -0.05401966 -0.35364276 0.0873063 -0.2684225 -0.20937471 -0.18298674

actor_mean.2.bias f4 [64]
00000000: 5c34 cc3c b0e8 2a3c 406d 65bd 760d d63d
00000010: a08a bdbd 8145 043c 25a5 073e 971c 7dbc
00000020: ba55 2e3d 167c 173e 8d72 7f3c d151 98bd
00000030: d253 54be 076e 37bd 2300 fd3d bd99 b93d
00000040: cc51 c8bd 4495 b9bb c53e aebb ecf2 2d3c
00000050: 8456 1bbe e5c1 5a3d 1a30 51bd 938d 473c
00000060: eda2 0abe 6abd 283e d5d9 eb3b d0b4 b4b7
00000070: 5d5a d3bd cc72 013e c128 063c 6673 ddbd
00000080: 9e89 a83c d2e0 9f3d 209e 12be 91fc e03c
00000090: 5b62 38bd 7d63 f63d ec72 763d 889f 98bc
000000a0: af64 42bd e600 bc3c a47d e9b9 18fa 083b
000000b0: 7112 f23d 8038 383d 08bb c33d bef8 0eb9
000000c0: 55c5 0ebe 4499 d43d 6dd1 93bd a154 a0bd
000000d0: 2c23 86bd 4f28 fbbc 8ac8 3d3c fe23 e6bd
000000e0: 4399 99bc 5f30 b93d 150f 9bbd 1ae6 9ebd
000000f0: 180b 4b3c df9c a8bd 0623 b93d 8a48 ed3c
0.02492731 0.010431454 -0.056012392 0.10451786 -0.09254956 0.008073212 0.13246591 -0.015448711
0.042562224 0.14793429 0.015591276 -0.0743748 -0.207351 -0.044782665 0.12353542 0.090625264
-0.097812265 -0.005663546 -0.0053175413 0.010616999 -0.15169722 0.05340757 -0.051071264 0.01217975
-0.13538714 0.16478506 0.0071975985 -2.154187e-05 -0.1031997 0.12641448 0.008188427 -0.10813026
0.020573433 0.07806553 -0.14318132 0.027464183 -0.045015674 0.12030695 0.06016819 -0.018630758
-0.0474593 0.022949647 -0.00044534833 0.002090102 0.11819924 0.044975758 0.09557158 -0.00013634839
-0.13942464 0.103807956 -0.07217679 -0.07828642 -0.06549677 -0.03065887 0.011583457 -0.11237334
-0.018749839 0.09042429 -0.07571236 -0.07758732 0.012392782 -0.08233046 0.09039883 0.028965253

actor_mean.4.weight f4 [6, 64]
00000000: 7c4f 00bd 5a24 0c3c ef2b cb3c 0969 db3d
00000010: 2fe6 1d3d a6b4 883d d8af 3a3d 17dd 32bd
00000020: f1a5 863b 7743 f43d 6cca 34bc eeec a7bc
00000030: 3d8e a6bd 201f fabd 7572 a03d 9e5c c53c
00000040: 5fd0 85bc 35cb 91bb 9733 22bb 2d4d 15bd
00000050: 9e33 ab3d 9995 77bc ac7f 58bd 6427 c23d
00000060: 0abf 89bd 5ba0 fb3d 3c47 b23d 79c7 8a3d
00000070: 3a22 8ebd 2a05 383d f19d 2a3d eee0 a1bd
00000080: 34ed fbbc a9ff 683d eee4 ccbd 0ba2 97bc
00000090: 37d6 9bbd 19f6 b83c 7805 96bd e0b9 23bd
000000a0: f949 ffbc f4bb 323e bba1 1abd 0184 d83c
000000b0: 5daa b63d 8ce1 a93d 1ece ba3d 1b52 30bd
000000c0: 76e6 0cbd 433a 8ebd d836 7bbd 17e4 303d
000000d0: 2d8b 2b3d da82 1cbd e267 8c3d 6811 0dbd
000000e0: 2621 e53d c13b fd3c 182a 28be f91b 0cbd
000000f0: 4f44 cebd cf7a 2f3c bfc9 9ebd 5945 b0bb
00000100: f113 353c 6ee6 88bd 1d02 74bd f956 203d
00000110: 7eec bbbd e3bc f3bd 17f9 ce3a ed3c 20bd
00000120: d2b6 cbbd 5a0f 273d f3e7 67bd 0d9b 183d
00000130: fd1a 51be 3672 d33d d14a 303d 1355 a53d
00000140: 0d60 283e cafe 2fbd 8aec 16bc 5930 babc
00000150: 9b7b 3abc 0ed8 823d 0a5e 803b 824c bebd
00000160: 98ed c83c 6d26 2e3b 95dc bc3d 88a0 7dbd
00000170: 1e9f 44bd 04b0 9f3c 1f46 e7bc 412c fbbc
00000180: cfb0 353d 0cef 433d a82d acbb 4101 b0bc
00000190: b1ef 77bd 958b 2cbd 180c 683b 33ef 8a3d
000001a0: 216e 17be 2065 45bd 77d3 353d b1ef 0fbe
000001b0: 6ea9 d93d 18ec a43d 077c a93d 17ce 57bd
000001c0: 7273 0bbe 4790 873d d5c0 e6bc 9405 813c
000001d0: 2790 46bc 5896 3dbd 68af 6a3d 7804 72bd
000001e0: 55c0 d2bd 0912 86bd 64aa 9cbd 5687 943d
000001f0: 27fd dc3d a428 433d 07bd 4fbd 4d55 a0bd
00000200: 48fe acbd c4ef 9d3d fc50 553d ea69 063d
00000210: b088 f9bc 475a 503c 6d87 133e 8043 f53d
00000220: dfa7 1e3b 416e 163c 0fa1 03bc 04a7 87bd
00000230: 8a31 06bd 99e8 823d 8661 70bc 6c3a a63d
00000240: d2cd e5bd 736f 7cbd 58fc 623c ee82 f53c
00000250: d46a 54bc b3f1 cabb fe42 493c ffe3 923d
00000260: 9457 02be af49 97bd 6cbe 0fbd 0be8 113d
00000270: 9671 dbbd 943b 343b 0e75 80bd e2ab 1cbe
00000280: 3246 123e 44c3 823d 6232 c1bd be39 80bd
00000290: 3dbb 763c f278 bf3c 74d2 833d bfdd 52bd
000002a0: d29a afbd 0edd 1abd 718d acbd 1a7c 86bd
000002b0: f7af ab3d 9c39 8d3c ed6a c8bc 25e0 d83d
000002c0: 2397 3abd 5252 ed3d 9e43 703d df71 603d
000002d0: c57f 943a 4272 eebc c47d 783d 9104 dbbd
000002e0: 5387 3fbe eaca a1bc 7d1a 58be 515a 7339
000002f0: 30eb 70bd f998 463d 7734 033e de2d 803d
00000300: ebf4 0e3d f80b 03bd f2cd f63c 4693 0f3d
00000310: c067 a1bd 35fc 193d 3dc0 5abd f014 06bd
00000320: 9257 95bc 6d21 563d a253 9dbc ab6f 14bd
00000330: a7af c53c 2c42 18bd 108a 943d ee0d 5e3c
00000340: c050 a2bc ce6a 2cbd ea63 ba3b 7e9f 643d
00000350: d21d 353d 38fa 4f3d 5c9e 58bc f346 de3c
00000360: a72c 7cbd 65a8 023d 0f20 7f3d bd8b 6a3d
00000370: de08 2cbd 1bfd 423d 2721 6bba 1c99 303d
00000380: da8d 8d3c 6a7b 83bd 5444 693d 173d 813d
00000390: ed8f 3f3b 0d12 533c afb5 b6bd bc29 0d3d
000003a0: 7164 913c 27ba b73d 3d0f ce3d 6524 59bd
000003b0: a950 863d 6902 1e3e 3d9d 5d3d 8ea7 1abd
000003c0: 0525 8ebd 9781 433d 98c7 2c3d bc8c 8f3d
000003d0: b68f 413d 6cbc f93b 7317 c6bc cb4f 43bd
000003e0: cffb 1a3d 4bcb d83d 2211 4bbd 4cb9 0e3c
000003f0: 9a06 aabc 2c77 05bd c805 90bd 42d9 13bd
-0.031325802 0.008553589 0.024801223 0.10713393 0.0385496 0.06675081 0.045577854 -0.04366788
0.004109137 0.119269304 -0.011034589 -0.020498719 -0.081325985 -0.12212968 0.07834331 0.024092015
-0.01633471 -0.004449273 -0.0024749988 -0.036450554 0.083594546 -0.01511135 -0.052856132 0.094801694
-0.06725891 0.12286445 0.08704993 0.06776328 -0.06940122 0.0449268 0.04165453 -0.0790423
-0.030752756 0.05688444 -0.100046024 -0.018509885 -0.076092176 0.022578286 -0.07325262 -0.039972186
-0.031163203 0.17454511 -0.037751894 0.026430132 0.08919213 0.08294973 0.09121345 -0.043047052
-0.034399472 -0.06944706 -0.0613316 0.043186273 0.041880775 -0.038210727 0.068557516 -0.034440428
0.11187963 0.030912282 -0.16422307 -0.034206364 -0.100716226 0.010710432 -0.07753324 -0.0053793606
0.011052118 -0.06684576 -0.059572328 0.039145444 -0.09175967 -0.11901262 0.0015790787 -0.039120603
-0.099469796 0.040786125 -0.05661769 0.037257243 -0.20420451 0.103245184 0.0430401 0.08072867
0.1644289 -0.042967595 -0.009211669 -0.022728132 -0.011382009 0.063888654 0.0039174603 -0.092919365
0.024527356 0.0026573197 0.0922176 -0.061920673 -0.04800331 0.01949311 -0.028231679 -0.03066075
0.04435807 0.047835395 -0.005254466 -0.021484973 -0.060531322 -0.042125303 0.00354076 0.06783905
-0.14788105 -0.048192143 0.04439112 -0.14056279 0.10628019 0.08052844 0.082756095 -0.052686777
-0.13618258 0.066193156 -0.028168121 0.01574973 -0.01211933 -0.046285957 0.057296187 -0.059086293
-0.10290591 -0.06546409 -0.07649687 0.07252376 0.107904725 0.04764618 -0.05071738 -0.0782877
-0.08446938 0.07711747 0.052079186 0.03281585 -0.030460685 0.012716836 0.1440713 0.11975765
0.0024208946 0.00918156 -0.008034005 -0.066236526 -0.032762088 0.06392021 -0.014671689 0.08116612
-0.11220898 -0.061629724 0.013854109 0.029969659 -0.012964923 -0.0061933636 0.012284039 0.07172393
-0.12728721 -0.07387101 -0.03509371 0.035621684 -0.10715024 0.0027501332 -0.062723264 -0.15299943
0.1428459 0.063849 -0.09433438 -0.062610134 0.0150592895 0.0233731 0.06436625 -0.051481005
-0.085744515 -0.03780847 -0.08425415 -0.06566639 0.08383172 0.017239384 -0.024465049 0.10589627
-0.04555429 0.11587967 0.058658235 0.054796096 0.0011329582 -0.029107217 0.060666814 -0.1069423
-0.18703966 -0.019750077 -0.21103854 0.00023207931 -0.058818042 0.04848573 0.12812982 0.062587485
0.03490154 -0.031993836 0.0301275 0.03505256 -0.07881117 0.03759404 -0.05340599 -0.03273481
-0.018230233 0.05227797 -0.019204918 -0.036239307 0.02413161 -0.03717248 0.07252896 0.013553126
-0.019813895 -0.042094044 0.00568818 0.055816166 0.044217892 0.050775737 -0.01322135 0.02713344
-0.06156602 0.031898875 0.062286433 0.05726217 -0.042000644 0.04760466 -0.00089694787 0.043114766
0.017279554 -0.06420024 0.05694993 0.0631048 0.0029230074 0.012882722 -0.08921372 0.03446363
0.01774809 0.089710526 0.100615 -0.053013224 0.065583535 0.15430607 0.054105032 -0.03775745
-0.06940655 0.04773101 0.042182535 0.07009265 0.047256194 0.0076213386 -0.024181103 -0.04768352
0.0378378 0.1058565 -0.049576886 0.00871117 -0.020755101 -0.032584354 -0.07032353 -0.036095865

actor_mean.4.bias f4 [6]
00000000: 1ef7 c33d 84d1 7f3d 19b2 143d a3bf d63c
00000010: 289d c83d 2e2a 213d
0.09568618 0.06245567 0.03630266 0.026214426 0.097956 0.039346866
