saved_agents/walker2d_c.pth (torch, 117557 bytes, 26 tensors)

actor_logstd f4 [1, 6]
0	0xbe8293f4	-0.25503504
1	0xbe8140e5	-0.25244823
2	0xbee71615	-0.45134035
3	0xbe816916	-0.25275487
4	0xbe94b9d2	-0.2904802
5	0xbe5b96c2	-0.21444228

critic.0.weight f4 [64, 20]
0	0x3e6e89a5	0.23294695
1	0xbf917359	-1.1363326
2	0x3f10010f	0.56251615
3	0x3cd5b578	0.026087508
4	0xbf13588e	-0.57557
5	0xbe35b9a2	-0.17746595
6	0xbeece90c	-0.4627155
7	0xbe19dd5b	-0.15025847
8	0xbed79b43	-0.42110643
9	0x3d00c7f5	0.031440694
10	0x3e83825a	0.25685388
11	0x3d48ffc2	0.049072035
12	0xbc888722	-0.016665999
13	0xbd043c65	-0.03228416
14	0xbe5fe1af	-0.21863435
15	0xbe08894a	-0.13333622
16	0x3b9639e9	0.00458454
17	0x3e821554	0.25406897
18	0x3d75d9b3	0.060022067
19	0x3e861c29	0.2619336
20	0x3e901fcd	0.28149262
21	0xbf164b70	-0.5870886
22	0xbdb0fd32	-0.08642043
23	0x3edb3f18	0.42821574
24	0xbe4d4549	-0.20045961
25	0xbf295545	-0.66145736
26	0xbe83df44	-0.25756276
27	0x3d1c8a50	0.038217843
28	0x3d4826b9	0.048865054
29	0x3dde9f59	0.10870237
30	0x3d0350c3	0.032059442
31	0xbe869a27	-0.26289484
32	0xbdf8a180	-0.12140179
33	0xbc2e5c39	-0.010642105
34	0x3ea88d83	0.32920465
35	0x3de79119	0.11306972
36	0x3d0b633e	0.03403019
37	0x3e8f615a	0.2800396
38	0x3d860f54	0.06545892
39	0x3e8990dd	0.26868334
40	0xbe73386c	-0.23751992
41	0xbe320d51	-0.17387892
42	0x3eaf7922	0.34272105
43	0xbe99121b	-0.29896626
44	0x3e2505f6	0.16115555
45	0x3eb10cd2	0.34580094
46	0xbe56249d	-0.20912404
47	0x3e695403	0.22785954
48	0xbe86fc99	-0.26364592
49	0x3e0782bb	0.13233463
50	0xbe60e20e	-0.21961233
51	0xbda73891	-0.08165086
52	0xbde2ee86	-0.11080651
53	0xbe6f49a9	-0.23367943
54	0x3ead21d4	0.3381487
55	0xbd44f945	-0.048089284
56	0xbe4ef0b8	-0.20209014
57	0x3ea68d68	0.3252976
58	0xbd650d07	-0.055920627
59	0xbe64afc3	-0.22332673
60	0xbe844fda	-0.25842172
61	0x3ea3eff8	0.3201902
62	0xbf4ab1b6	-0.79177415
63	0xbe9b454d	-0.3032631
64	0x3ea076c9	0.31340626
65	0x3deafc8c	0.11473951
66	0xbe09d211	-0.1345904
67	0xbce2410a	-0.027618904
68	0x3c07c1f2	0.008285986
69	0xbebb3d81	-0.3657036
70	0xbe87e607	-0.26542684
71	0x3e1d62f0	0.15369773
72	0x3d36fe3b	0.044676047
73	0xbc28b8fc	-0.01029801
74	0x3e67c18a	0.22632423
75	0x3dc88f04	0.09792903
76	0xbc90ae48	-0.017661229
77	0x3b6467b9	0.0034851863
78	0x3e127add	0.14304681
79	0xbefae5ac	-0.4900335
80	0xbd99df71	-0.07513321
81	0x3e7d1f69	0.24719013
82	0xbb0ff4e5	-0.0021966037
83	0xbd55e58b	-0.052220862
84	0xbf67d395	-0.90557224
85	0xbe694741	-0.22781087
86	0x3e288c0f	0.16459678
87	0xbed4c099	-0.4155319
88	0x3d262c7f	0.04056978
89	0x3c9f6f6a	0.019462306
90	0xbcc9af1a	-0.024619628
91	0x3dca8d45	0.09890226
92	0x3d8ec015	0.069702305
93	0xbda30169	-0.07959253
94	0xbbc404db	-0.005982024
95	0x3d0b8710	0.034064353
96	0xbd940046	-0.07226615
97	0xbec25583	-0.37955865
98	0x3c94a193	0.01814345
99	0xbe0d837c	-0.13819689
100	0x3e7d6ceb	0.2474858
101	0x3defd300	0.11710167
102	0xbe2a1d8a	-0.16612831
103	0xbf2f6137	-0.68507713
104	0xbf17fb79	-0.5936809
105	0xbf17610c	-0.59132457
106	0xbf37d34f	-0.71806806
107	0xbe0b9de0	-0.13634443
108	0x3f72c1f8	0.9482722
109	0xbe8417cc	-0.25799406
110	0xbe4bb452	-0.19893005
111	0x3daca1fb	0.08429333
112	0xbd184950	-0.03717929
113	0xbd00824e	-0.03137427
114	0x3baf8a08	0.005357031
115	0xbd9c49df	-0.07631277
116	0xbc73e9f9	-0.014887326
117	0x3da37152	0.079805985
118	0x3ec7a7f0	0.38995314
119	0x3e9f68ed	0.3113474
120	0xbe8f85f5	-0.2803189
121	0xbe721a1b	-0.23642771
122	0xbea5d88f	-0.32391784
123	0x3cfd09eb	0.030888518
124	0x3f1e097d	0.6173323
125	0x3ea4c307	0.32180044
126	0x3ebbcdb3	0.36680374
127	0xbde09504	-0.109659225
128	0xbf36db9e	-0.7142886
129	0xbec111a5	-0.37708774
130	0xbe63ab19	-0.22233237
131	0x3e4a68ff	0.19766615
132	0x3e52e939	0.2059678
133	0x3b2f6ef9	0.0026769026
134	0xbe1da104	-0.15393454
135	0xbdb74c31	-0.08950079
136	0xbd32377b	-0.04350994
137	0x3d40d996	0.047082506
138	0xbe312f67	-0.17303239
139	0x3e82dac6	0.25557536
140	0x3ed31bc7	0.4123213
141	0xbf13ecfa	-0.5778347
142	0x3f308acb	0.6896178
143	0x3f2eb9e9	0.68252426
144	0xbda697b9	-0.081344076
145	0x3f3984d9	0.72468334
146	0x3edefa56	0.43550366
147	0xbda81224	-0.08206585
148	0xbf33dfc6	-0.70263326
149	0x3e8f3f04	0.27977765
150	0x3e504048	0.20337021
151	0xbde3080f	-0.110855214
152	0xbd44f791	-0.04808766
153	0x3cf7753e	0.030207273
154	0x3c68b745	0.014203851
155	0x3d4d2e23	0.050092828
156	0x3a094d08	0.0005237614
157	0x3e20d334	0.15705568
158	0xbe567c15	-0.20945771
159	0x3d19213a	0.037385203
160	0xbd6fb4c6	-0.05852201
161	0xbea55e18	-0.3229835
162	0x3e71021f	0.23535965
163	0x3ed7402a	0.4204114
164	0x3ee70116	0.45118016
165	0x3ea6f689	0.32609966
166	0x3f0cc809	0.5499273
167	0xbdc0ff21	-0.09423662
168	0xbed603da	-0.41799814
169	0xbdcac2ba	-0.099004224
170	0xbd58e728	-0.052954823
171	0x3e268783	0.16262631
172	0x3ddd90a2	0.10818602
173	0x3d3543a3	0.044253957
174	0x3e52d9e0	0.20590925
175	0xbe9cc099	-0.3061569
176	0x3d5a7758	0.05333647
177	0x3ea51faf	0.32250735
178	0xbd6907a1	-0.05689204
179	0x3e38c2ee	0.1804311
180	0xbf1d1f35	-0.61375743
181	0xbee2a48e	-0.4426617
182	0xbebb1187	-0.3653681
183	0xbd9fd0ab	-0.07803472
184	0x3da5b546	0.08091216
185	0xbe9e1c49	-0.30880955
186	0xbeb7dd1f	-0.3591089
187	0xbf049e0f	-0.5180368
188	0x3d93d097	0.0721752
189	0xbeee07df	-0.4649038
190	0xbd7d1afc	-0.061793312
191	0x3d7a2d83	0.06107856
192	0xbc280d01	-0.010257007
193	0xbd2d7949	-0.042351995
194	0x3b08597f	0.0020805297
195	0xbd9e07a2	-0.077162996
196	0xbc942370	-0.018083304
197	0xbf2d7df7	-0.6777033
198	0xbe8deaa1	-0.2771807
199	0xbe7c35bc	-0.24629873
200	0xbe7d194e	-0.24716684
201	0xbde7d5d5	-0.11320082
202	0xbd887c73	-0.06664362
203	0xbe11567c	-0.14193147
204	0x3e7cc01f	0.24682663
205	0x3db7ed6f	0.08980834
206	0xbe894698	-0.2681167
207	0xbe0eb75b	-0.13937132
208	0x3d8befe5	0.068328656
209	0xbf242ee1	-0.6413403
210	0xbce404ba	-0.027834285
211	0x3d76968d	0.06020217
212	0xbd3a5d07	-0.045498874
213	0xbe873b53	-0.26412448
214	0xbe060b9b	-0.13090365
215	0xbd1b27b6	-0.03787967
216	0xbc558b8a	-0.013033757
217	0xbdeaa23a	-0.114567235
218	0xbf3332d6	-0.69999444
219	0xbed79cb9	-0.42111757
220	0x3ee1c465	0.4409515
221	0xbf1fdd7c	-0.62447333
222	0x3ed8efd8	0.42370486
223	0x3ec4d043	0.3844014
224	0x3e458881	0.19290353
225	0xbc5ddf5b	-0.013542022
226	0x3ef8f69d	0.4862565
227	0x3da58525	0.08082036
228	0xbee70de9	-0.451278
229	0x3ec5e435	0.3865067
230	0x3d8b3d45	0.067987956
231	0x3e59c48d	0.21266384
232	0x3e3fd1e9	0.18732418
233	0x3d2f4828	0.042793423
234	0xbe72c6cd	-0.23708649
235	0x3d130d13	0.03590114
236	0x3b42c7ee	0.0029721218
237	0xbd9792f0	-0.07401073
238	0x3e1ddf51	0.1541722
239	0x3dddb33b	0.10825201
240	0xbe51368d	-0.20430966
241	0xbef66087	-0.4812052
242	0xbe03aff1	-0.12860085
243	0x3f009e98	0.50241995
244	0xbf302802	-0.6881105
245	0x3f50b598	0.8152709
246	0x3ef7e582	0.48417288
247	0xbd3ad464	-0.045612708
248	0xbece423e	-0.40284914
249	0x3ea8735a	0.32900506
250	0x3e6b0546	0.2295123
251	0xbd1f3bd2	-0.03887541
252	0xbd0d9af5	-0.034571607
253	0xbcd95202	-0.026528362
254	0xbdcf37b0	-0.101180434
255	0x3a813713	0.0009858332

critic.0.bias f4 [64]
0	0x3e079f45	0.1324435
1	0x3e23aa01	0.1598282
2	0xbdbb42c3	-0.09143593
3	0xbd843a78	-0.064564645
4	0xbe721a2a	-0.23642793
5	0x3e1c2ff5	0.15252669
6	0xbe44091a	-0.19144097
7	0xbd3cc000	-0.046081543
8	0xbd57325f	-0.052538272
9	0xbea794e6	-0.32730788
10	0xbe8ea65d	-0.278613
11	0x3dd22706	0.102613494
12	0xbe5a4ec3	-0.21319108
13	0x3cafac66	0.02144451
14	0x3e96edeb	0.29478392
15	0xbe27e986	-0.16397676
16	0xbe9d4f05	-0.3072435
17	0x3e16a151	0.14709975
18	0x3e4b4d0c	0.1985361
19	0xbe31adcd	-0.17351456
20	0x3dc97594	0.098368794
21	0x3e0227e6	0.12710533
22	0xbd116a55	-0.035501797
23	0x3ea1cf8c	0.31603658
24	0x3d7dc4d5	0.06195529
25	0x3e4fb021	0.20282032
26	0x3dc9dde2	0.09856774
27	0xbd252e66	-0.040327452
28	0xbcb7dbe0	-0.022443712
29	0xbd991a53	-0.07475724
30	0xbdb7104b	-0.089386545
31	0xbc7ed483	-0.015553596
32	0xbecf7c1d	-0.40524378
33	0xbd5a7e5d	-0.053343166
34	0xbea504de	-0.32230276
35	0xbea0240d	-0.31277505
36	0x3ea1e4ed	0.3161997
37	0x3d1bcf5f	0.03803956
38	0x3e1399cf	0.14414142
39	0x3ebb2f60	0.36559582
40	0xbe8a5f22	-0.27025706
41	0xbeac24cd	-0.33621827
42	0xbe88acd2	-0.2669435
43	0x3d8bdb34	0.06828919
44	0xbe64183d	-0.22274871
45	0x3d4a5b9f	0.049403783
46	0x3c223276	0.009899726
47	0xbd540aa7	-0.05176797
48	0x3e157479	0.14595212
49	0xbdcf45a1	-0.101207025
50	0xbe87c545	-0.26517692
51	0x3ba71e1a	0.005100024
52	0x3c8a808d	0.016907
53	0xbe9cdbed	-0.3063654
54	0x3e65de65	0.22448118
55	0xbb875146	-0.0041295616
56	0x3e638bbe	0.22221276
57	0x3e5a5fe3	0.2132564
58	0xbe24a941	-0.1608019
59	0x3e548cde	0.20756862
60	0x3e1ee4b6	0.15516934
61	0xbe166cf9	-0.14690007
62	0xbe2bdd87	-0.16783725
63	0x3e873c98	0.26413417

critic.2.weight f4 [64, 64]
0	0xbf2eb380	-0.68242645
1	0x3d87acae	0.06624733
2	0xbe7975b9	-0.24361314
3	0x3e2d88a9	0.16946663
4	0x3e0db3de	0.13838145
5	0x3edcfc6d	0.43161336
6	0x3da43732	0.0801834
7	0xbf278713	-0.6544048
8	0xbe4bdc00	-0.19908142
9	0x3e46a1b4	0.19397622
10	0xbd94f6c1	-0.07273627
11	0xbe39009c	-0.18066639
12	0xbf1e7d51	-0.6190997
13	0x3edbbc41	0.42917064
14	0xbead0cff	-0.33798978
15	0xbe890840	-0.26764107
16	0x3d9644ae	0.07337318
17	0xbe133166	-0.14374313
18	0xbd30fb64	-0.043208495
19	0x3e566aa2	0.20939115
20	0x3d2e4ff9	0.042556737
21	0xbe8a4600	-0.2700653
22	0x3da85ba7	0.08220606
23	0xbe31b731	-0.17355038
24	0xbe43a8b7	-0.19107328
25	0xbe9c8035	-0.30566564
26	0xbf1cb98e	-0.61220634
27	0xbee6bdb7	-0.45066616
28	0x3ea7e457	0.32791397
29	0xbf46fafc	-0.7772672
30	0xbe3ff3e9	-0.18745388
31	0xbe2b9f9a	-0.16760102
32	0x3da76f4a	0.081755236
33	0x3e0f682b	0.1400458
34	0xbe6f615c	-0.23376983
35	0xbda242f1	-0.07922924
36	0xbee9ed63	-0.45688924
37	0x3ed98d4d	0.42490616
38	0xbccd7a87	-0.02508284
39	0x3e5d5977	0.2161616
40	0xbc56756a	-0.013089517
41	0xbe31a93c	-0.17349714
42	0xbe34e357	-0.17664848
43	0xbf3ba39a	-0.7329651
44	0x3e40a5d2	0.18813255
45	0xbe51bf39	-0.20483102
46	0xbcdc219d	-0.026871497
47	0x3e542b89	0.20719732
48	0xbd7d0028	-0.061767727
49	0xbe0e445a	-0.13893262
50	0x3e526ee7	0.20550118
51	0x3e8811be	0.26576036
52	0x3da50720	0.080579996
53	0xbe1f9ddd	-0.15587564
54	0x3e612350	0.21986127
55	0xbf172b29	-0.5905023
56	0x3dd34b27	0.103170685
57	0x3e5de125	0.21667917
58	0xbeca9658	-0.39567828
59	0x3e4caceb	0.19987838
60	0x3d4078ff	0.04699039
61	0xbea0e3cf	-0.31423804
62	0xbde41608	-0.111370146
63	0x3eb5d5fb	0.35514817
64	0x3dfe1644	0.124065906
65	0x3e88a89c	0.2669114
66	0x3d566296	0.052340113
67	0xbed9282e	-0.42413467
68	0x3d87f952	0.06639351
69	0xbf2591c5	-0.6467555
70	0xbdce4b81	-0.10072995
71	0x3f0cbc29	0.5497461
72	0x3c4aa12c	0.012367528
73	0xbe328833	-0.17434768
74	0x3ab27f17	0.0013618198
75	0xbd656fb7	-0.056014743
76	0x3dd727c6	0.10505633
77	0xbed3b842	-0.41351515
78	0x3e3325bd	0.17494865
79	0x3ed833c2	0.42226988
80	0xbecf58c4	-0.4049741
81	0xbe302e75	-0.17205222
82	0x3e1755ea	0.14778867
83	0xbc8b342b	-0.016992649
84	0x3eada7c8	0.3391707
85	0x3eb763d6	0.35818356
86	0xbda96cbe	-0.08272694
87	0x3e08fb9a	0.13377228
88	0x3d6beebf	0.057600733
89	0xbe9359c5	-0.28779426
90	0x3eec6666	0.46171874
91	0x3e8bc5f4	0.27299464
92	0xbeb7ca00	-0.358963
93	0x3f0c7ed0	0.54881
94	0x3ec7850e	0.389687
95	0xbe91638f	-0.2839627
96	0xbe4d795e	-0.20065829
97	0xbe2e3e6e	-0.17016003
98	0x3eb8343c	0.35977352
99	0xbdf567a5	-0.11982659
100	0x3e090703	0.13381581
101	0xbe94c0b5	-0.29053274
102	0x3e3deae3	0.18546633
103	0xbe922bdb	-0.28549084
104	0x3ea102ce	0.31447452
105	0x3e628bf1	0.22123696
106	0xbcfb3bec	-0.030668221
107	0x3f57fbf1	0.8436881
108	0x3d431a6b	0.047632616
109	0x3e3b2691	0.1827643
110	0x3c0239b7	0.007948331
111	0x3e6a25b2	0.22865942
112	0xbe6e2f38	-0.232602
113	0x3ecdb3c7	0.40176222
114	0x3e5bc926	0.21463451
115	0xbecbeaea	-0.39827663
116	0x3e680453	0.226579
117	0x3e4eb335	0.2018555
118	0xbe5ae86e	-0.21377727
119	0x3e9f3e40	0.3110218
120	0x3ccb95dd	0.024851734
121	0xbe07bb6a	-0.13255087
122	0x3e904810	0.2817998
123	0xbe663824	-0.22482353
124	0xbe1d8542	-0.15382865
125	0x3f358447	0.70904964
126	0xbdff66fc	-0.124708146
127	0xbef3f7a7	-0.4764988
128	0x3e955743	0.29168138
129	0x3e7de034	0.24792558
130	0x3e0e671a	0.13906518
131	0xbeb93a3e	-0.36177248
132	0xbbc0b455	-0.0058808723
133	0xbce7ee2a	-0.028311808
134	0x3d1f8bc8	0.038951665
135	0x3ef80aec	0.48445833
136	0xbd8f286b	-0.06990131
137	0xbf05762a	-0.5213343
138	0xbe9cfab5	-0.30660024
139	0x3ea2b939	0.3178194
140	0x3d7463ce	0.059665494
141	0x3d972139	0.073793836
142	0x3ea1fc94	0.31638014
143	0xbe856859	-0.26056173
144	0x3e5c5063	0.2151504
145	0xbde4b448	-0.111671984
146	0x3eff1656	0.49821728
147	0xbe623dc0	-0.22093868
148	0xbdfe6a54	-0.12422624
149	0x3e9564a4	0.29178345
150	0x3e94da79	0.2907293
151	0x3f809b79	1.0047446
152	0x3e9c1e2b	0.30491766
153	0x3ea4a349	0.32155827
154	0x3d09bbb0	0.03362626
155	0xbe1a75aa	-0.15083948
156	0x3de7996b	0.11308559
157	0x3e12d7f5	0.14340194
158	0x3dd491fd	0.103794076
159	0xbe31274c	-0.17300147
160	0xbe4fd83a	-0.20297328
161	0xbc241407	-0.0100145405
162	0xbf149f0a	-0.58055174
163	0x3d7f1f1f	0.06228554
164	0x3ed806b2	0.42192608
165	0xbe2ed748	-0.17074311
166	0x3dcdbf67	0.10046273
167	0x3e62422c	0.22095555
168	0x3d147eda	0.036253788
169	0x3e1b6f4f	0.1517918
170	0xbdd427f1	-0.10359181
171	0x3e698993	0.22806387
172	0xbdcc241e	-0.09967826
173	0x3d756037	0.05990621
174	0xba2d4ad8	-0.0006610579
175	0x3ca934d2	0.02065507
176	0x3ebe645a	0.37185937
177	0xbdf7ebc5	-0.12105516
178	0xbe784b7b	-0.24247544
179	0xbe206142	-0.15662101
180	0x3d901a4d	0.070362665
181	0xbe273f53	-0.1633275
182	0x3d0c5937	0.03426477
183	0x3e7e1b3c	0.24815077
184	0x3e3f7f57	0.1870092
185	0x3d82eee5	0.06393222
186	0x3b413541	0.0029481205
187	0xbe4c4c60	-0.1995101
188	0xbc108ed6	-0.008823117
189	0x3e778d5d	0.2417502
190	0xbd18026f	-0.037111696
191	0x3cff134a	0.031137127
192	0xbef5d03a	-0.48010427
193	0x3de72b3a	0.11287542
194	0xbd4b8971	-0.04969162
195	0x3edf02d1	0.43556836
196	0x3e6c133e	0.23054215
197	0x3ea33fc6	0.31884593
198	0xbd852912	-0.06501974
199	0xbf19e0f8	-0.601089
200	0xbe517012	-0.20452908
201	0x3eb4dde5	0.35325542
202	0xbea9de5a	-0.33177453
203	0xbe71ec46	-0.23625287
204	0x3db7c8e8	0.08973867
205	0x3eaa52d1	0.3326631
206	0x3b39d33b	0.0028354663
207	0xbebcc93d	-0.36872283
208	0xbc2f72f5	-0.01070856
209	0x3ea0d4c2	0.3141232
210	0x3e2b4ceb	0.1672856
211	0x3d407390	0.04698521
212	0x3d6dd912	0.058068343
213	0xbed4f7c1	-0.4159527
214	0x3e638d45	0.22221859
215	0xbe6fa818	-0.23403966
216	0xbed1e7cd	-0.40997162
217	0x3c06dc78	0.008231275
218	0xbf43a0fb	-0.7641751
219	0xbed3e589	-0.4138606
220	0xbdf3e775	-0.11909381
221	0xbf6a5842	-0.9154092
222	0xbe5febec	-0.21867341
223	0xbe74d25a	-0.23908368
224	0x3db694a3	0.08915069
225	0xbc9c1b47	-0.019055976
226	0x3d8ef918	0.069811046
227	0x3e3250bc	0.1741361
228	0xbce50603	-0.027956968
229	0x3e6edfa1	0.23327495
230	0xbe716d79	-0.23576917
231	0x3ddaf35f	0.106909506
232	0xbd04f124	-0.032456532
233	0x3df5ec82	0.12008001
234	0xbdca4bab	-0.09877714
235	0xbf82e38e	-1.0225694
236	0xbd43c3d7	-0.04779419
237	0xbe83d1b8	-0.2574594
238	0x3c4e5478	0.012593381
239	0xbe68b3e0	-0.22724867
240	0xbeeb1f74	-0.45922434
241	0xbdcbad6b	-0.09945186
242	0x3dd5b56d	0.10434995
243	0x3eab398b	0.3344234
244	0xbe1b16df	-0.15145443
245	0xbe4308e7	-0.19046365
246	0x3e75deac	0.24010724
247	0xbf05ee40	-0.52316666
248	0x3e548330	0.20753169
249	0x3e3916b1	0.18075062
250	0x3e61ea50	0.2206204
251	0x3d723be7	0.05913916
252	0x3db05c2b	0.0861133
253	0xbedf3daa	-0.43601733
254	0xbd9ec584	-0.07752517
255	0x3e8d42dc	0.27590072

critic.2.bias f4 [64]
0	0xbdff1eaa	-0.124570206
1	0x3da6b075	0.08139125
2	0x3e818a83	0.2530099
3	0xbd9d288b	-0.076737486
4	0x3e41f048	0.18939316
5	0xbda33506	-0.07969098
6	0x3e84f853	0.25970706
7	0xbed0a0b4	-0.40747607
8	0x3e9294b1	0.28629068
9	0xbea59b47	-0.3234503
10	0xbeba22f1	-0.36354783
11	0xbe099948	-0.13437378
12	0xbd8681ba	-0.06567712
13	0x3e474acc	0.19462126
14	0x3e4a5ffc	0.19763178
15	0xbdff6e12	-0.12472166
16	0xbea81dfb	-0.32835373
17	0xbe05ee34	-0.13079149
18	0x3e45e300	0.19324875
19	0xbe43bd8b	-0.19115274
20	0x3e8f843f	0.28030583
21	0x3dd303f7	0.103034906
22	0xbe2a1f31	-0.16613461
23	0x3c8ee9c0	0.017445445
24	0xbc7c0641	-0.01538235
25	0x3dccab12	0.099935666
26	0x3d99f51a	0.075174525
27	0xbe483a41	-0.19553472
28	0x3e974fa7	0.29552957
29	0xba84459b	-0.0010091545
30	0x3e2c179b	0.1680588
31	0xbcb2ae26	-0.021811556
32	0xbd87250d	-0.06598864
33	0xbe93f23d	-0.2889575
34	0xbe92f00d	-0.2869877
35	0x3a9613cd	0.0011449993
36	0xbe09ef92	-0.13470295
37	0xbe9cbde9	-0.3061364
38	0xbe8515e8	-0.25993276
39	0x3d68b4b0	0.056812942
40	0xbea14b9b	-0.31502995
41	0xbe84b598	-0.25919795
42	0xbc62f02e	-0.013851209
43	0x3e69f09b	0.2284569
44	0x3d9d741a	0.0768816
45	0xbdda33e2	-0.10654427
46	0x3e2383d1	0.15968253
47	0xbe1e844e	-0.15480158
48	0xbea0bf53	-0.3139597
49	0xbcd59f61	-0.026076974
50	0x3d1cdcb0	0.0382964
51	0xbe995dea	-0.29954463
52	0xbe042844	-0.12905985
53	0x3c126231	0.0089345435
54	0xbe92a069	-0.28638008
55	0x3de6642b	0.11249574
56	0x3e9f25a7	0.31083414
57	0xbd57f134	-0.052720264
58	0xbec9d994	-0.3942381
59	0xbd5f8df0	-0.05457872
60	0x3cd59d1d	0.026075894
61	0x3e58f795	0.21188195
62	0xbe1b0f27	-0.15142499
63	0xbe3e512e	-0.18585655

critic.4.weight f4 [3, 64]
0	0x3fc50741	1.5392839
1	0xbfdf7798	-1.7458372
2	0x3f305362	0.6887723
3	0x3fb294a8	1.3951616
4	0x3c3f611e	0.011680869
5	0x3f380ddb	0.7189614
6	0xbde68018	-0.11254901
7	0xbf514658	-0.8174796
8	0x3f0f372c	0.5594356
9	0xbf3c6e79	-0.7360607
10	0xbf206d41	-0.6266671
11	0xbea65b49	-0.3249152
12	0x3fb21473	1.3912491
13	0xbe5dfc09	-0.21678175
14	0x3c84ef04	0.016227253
15	0x3faf77e1	1.3708459
16	0xbbdde03f	-0.006771117
17	0xbf2b0603	-0.6680605
18	0x3f242fd1	0.6413546
19	0x3f68fb74	0.91008687
20	0x3f3b4d1f	0.7316455
21	0xbfa51400	-1.2896729
22	0xbf85b6c0	-1.0446396
23	0x3fe5ac5c	1.7943225
24	0xc00131e7	-2.0186708
25	0xbfb6e4b4	-1.4288545
26	0xbfcfce26	-1.6234787
27	0x3da6ef7e	0.08151148
28	0x3f490a7d	0.7853163
29	0xbfcafd86	-1.5858619
30	0x3f932d2e	1.1498163
31	0xbfdc49ae	-1.7209985
32	0x3fc97aef	1.5740641
33	0x3d041a6d	0.032251764
34	0xbf41a4d6	-0.75642145
35	0xbfaa72ee	-1.3316324
36	0x3f9870a7	1.1909379
37	0xbf2e7691	-0.6814967
38	0x3e62153a	0.2207841
39	0xbfb08205	-1.3789679
40	0xbf42dc49	-0.7611738
41	0xbee21a0c	-0.44160497
42	0x3fdfc50a	1.7482007
43	0xbd02cbed	-0.03193276
44	0xbfdbc36f	-1.7169017
45	0xc009f857	-2.1557825
46	0x3f3b6115	0.7319501
47	0xbfd3d6c7	-1.654992
48	0xbf4ef736	-0.80845964
49	0x3fd7f117	1.687045
50	0x3fd1f196	1.6401851
51	0xbf4da0a3	-0.8032324
52	0xbf9a8264	-1.2071042
53	0xbfea3b51	-1.8299352
54	0xbe8e15b6	-0.2775094
55	0xbf7bf8ad	-0.98426324
56	0x3f0e3eaf	0.555644
57	0x400a5b67	2.1618288
58	0xbf46f235	-0.7771333
59	0xbff21f09	-1.8915721
60	0xbf76d6e1	-0.9642163
61	0x3ef00830	0.46881247
62	0x3e1e593d	0.15463729
63	0x3f433a5d	0.7626093
64	0xbf4dddce	-0.8041657
65	0xbec1a093	-0.3781782
66	0x3fc254bf	1.5182112
67	0xbf940d7f	-1.1566619
68	0x3fd7c688	1.6857462
69	0xbfd5cf70	-1.670393
70	0x3fe21f24	1.7665753
71	0xbfad9f33	-1.3564209
72	0x3fab99d1	1.3406316
73	0xbfbe195f	-1.4851493
74	0xbfb9d77d	-1.4518887
75	0xbfe4060d	-1.7814347
76	0xbf6784cd	-0.9043701
77	0x3fb335b3	1.4000763
78	0x3fcc2eec	1.595182
79	0xbf6baa4e	-0.9205674
80	0xbfc06fab	-1.5034078
81	0xc0024440	-2.0354156
82	0x3fbcf808	1.4763193
83	0xbfaf9ddf	-1.3720053
84	0x3fc8458a	1.5646222
85	0x3f9306a8	1.1486406
86	0xc012ff87	-2.2968462
87	0x3eeb2295	0.45924821
88	0xbfbb12cc	-1.4615111
89	0x3eb81083	0.35950097
90	0x3ebfbad0	0.37447214
91	0xbfd84017	-1.6894559
92	0x3fb6b1be	1.4272993
93	0x3e2cd2ab	0.16877238
94	0x401e9d18	2.4783382
95	0x3ea407ce	0.32037205
96	0xbe5156df	-0.20443295
97	0xbfb6d180	-1.4282684
98	0xbfc00d99	-1.500415
99	0x3f4292b2	0.7600509
100	0xbfaf14f8	-1.3678274
101	0xbfb82ab9	-1.4388038
102	0xbfb701be	-1.4297407
103	0x3ea9a6e6	0.33135146
104	0xbf9d7cb7	-1.2303685
105	0xbfc77ade	-1.5584371
106	0x3f1ba81b	0.60803384
107	0x3fd05091	1.6274587
108	0x3e15e6d8	0.14638841
109	0xc016f6b7	-2.3588083
110	0x400c6bd5	2.1940815
111	0xc02e9edf	-2.7284467
112	0xbfb6217c	-1.4228969
113	0x3ea89d62	0.32932574
114	0xbedb8bd3	-0.42880115
115	0xbfb1b0db	-1.3882097
116	0xc0092291	-2.1427348
117	0xbf163dda	-0.5868813
118	0xbfb00313	-1.3750938
119	0x3f963f66	1.1738098
120	0x3fcd0b0f	1.6019
121	0x3ff7a66b	1.9347662
122	0xbfa96eeb	-1.3236974
123	0xbfbf2bbf	-1.4935225
124	0x3f9e7a81	1.2381135
125	0x3fca2d55	1.5795084
126	0xbfca81bd	-1.5820843
127	0xbfa5e34e	-1.2959993
128	0xbc600e42	-0.013675274
129	0xbcee1d81	-0.029066803
130	0x3d86c5f6	0.06580727
131	0xbdca0753	-0.09864678
132	0x3e09398f	0.13400863
133	0xbe4e4393	-0.20142965
134	0x3e4d3164	0.20038372
135	0x3cf48e1d	0.029852921
136	0x3e06cf9c	0.13165134
137	0xbde984f1	-0.1140231
138	0xbd0eec47	-0.0348933
139	0xbe38c454	-0.18043643
140	0x3d690dd3	0.05689795
141	0x3e02ff86	0.12792787
142	0x3dbea198	0.09308165
143	0xbda52c38	-0.08065075
144	0xbe6912a2	-0.22761014
145	0xbe724324	-0.23658425
146	0x3dec2c37	0.11531871
147	0xbe2cc1d6	-0.16870818
148	0xbd053370	-0.032519758
149	0x3db64d47	0.08901458
150	0xbe2dae9e	-0.16961142
151	0xbb48e24b	-0.003065246
152	0xbe4b7d27	-0.1987196
153	0x3db0cda7	0.08632975
154	0x3c527ba9	0.012846866
155	0xbe1ff792	-0.15621784
156	0x3e5ea7d3	0.21743707
157	0x3d6e186d	0.058128763
158	0x3e5d28fa	0.21597663
159	0x3d55472a	0.05206982
160	0x3c09301e	0.008373288
161	0xbd7efac3	-0.062250864
162	0xbd9c7c78	-0.07640928
163	0x3d7de818	0.06198892
164	0xbd92a6a6	-0.07160692
165	0xbea192ed	-0.31557408
166	0xbe172b84	-0.14762694
167	0x3c8f6a66	0.01750679
168	0xbe79ff3a	-0.24413767
169	0xbe4556f9	-0.19271459
170	0x3d9b85c8	0.07593876
171	0x3dfcb403	0.12339022
172	0x3cb1bce7	0.021696521
173	0xbe31c834	-0.17361528
174	0x3e352995	0.17691644
175	0xbe6b3a11	-0.2297137
176	0xbca4203f	-0.020034907
177	0x3d79ccbe	0.060986273
178	0xbdcedf7c	-0.1010122
179	0x3ccf1c5c	0.025282077
180	0xbe5cbba3	-0.21555953
181	0xbc059a20	-0.008154422
182	0xbe46e9be	-0.19425103
183	0x3e940b7e	0.28915018
184	0x3d9e4b13	0.07729163
185	0x3e23e889	0.16006674
186	0xbc097ef2	-0.0083920825
187	0xbdaa6967	-0.08320885
188	0x3de68910	0.11256611
189	0x3c97a4f3	0.018511271
190	0xbe72ce5c	-0.23711532
191	0xbe058a21	-0.13040973

critic.4.bias f4 [3]
0	0x3e32a312	0.17445019
1	0x3fb55b4f	1.416849
2	0x3e85d04f	0.2613549

actor_mean.0.weight f4 [64, 20]
0	0x3e0e7554	0.13911945
1	0xbd8a03ff	-0.067390434
2	0xbd65bcca	-0.056088246
3	0x3cb56836	0.022144418
4	0xbd927af4	-0.07152358
5	0x3eb70aea	0.35750514
6	0xbe4ccf19	-0.20000876
7	0x3e48a8f3	0.19595699
8	0xbeceae90	-0.40367556
9	0xbdc605df	-0.096690886
10	0x3e348b5a	0.17631283
11	0x3df67b37	0.1203522
12	0x3d04aa25	0.032388825
13	0x3dc0e88e	0.09419356
14	0xbd4b75cb	-0.049672883
15	0x3e23472b	0.15945117
16	0x3ce6f903	0.02819491
17	0x3d982553	0.07428994
18	0xbdf64909	-0.12025649
19	0xbed2a6b7	-0.41142818
20	0xbde204b6	-0.11036055
21	0x3e183fff	0.14868163
22	0x3d842e39	0.06454129
23	0x3ef05326	0.46938437
24	0xbd76cd6f	-0.06025451
25	0x3dc905b7	0.09815543
26	0xbdc1b47a	-0.09458251
27	0x3def3549	0.11680085
28	0x3e01dfc1	0.12683012
29	0xbc32b947	-0.010908431
30	0xbd9ba44d	-0.07599697
31	0xbc403abf	-0.011732756
32	0x3e2cdf8d	0.16882153
33	0x3de5311c	0.111910075
34	0xbcf60efa	-0.030036438
35	0xbe123bf9	-0.1428069
36	0x3e1e40e4	0.15454441
37	0xbd18eeca	-0.037337102
38	0xbdb711cf	-0.089389436
39	0xbeebea3f	-0.46077153
40	0x3e1ed409	0.15510572
41	0xbf0f8a34	-0.56070256
42	0xbe1978c6	-0.14987478
43	0xbd9d1f69	-0.07672007
44	0xbe443a55	-0.19162877
45	0x3b8a49d8	0.0042202286
46	0x3ba5406c	0.00504308
47	0xbd4b4d4a	-0.049634255
48	0xbe968634	-0.29399264
49	0x3e983887	0.29730627
50	0xbdd96d23	-0.10616519
51	0x3d2d5b50	0.04232341
52	0xbe9496d4	-0.29021323
53	0xbdcec12c	-0.10095438
54	0xbc15c891	-0.009142057
55	0x3c342acd	0.010996533
56	0xbe268579	-0.16261853
57	0xbe3d3833	-0.1847847
58	0xbd94c4a8	-0.07264072
59	0x3e878f21	0.26476386
60	0xbdd0fac9	-0.102040835
61	0xbe48628b	-0.19568841
62	0xbecce682	-0.40019614
63	0xbdea366c	-0.114361614
64	0xbe45acf9	-0.19304265
65	0xbb94feee	-0.0045469915
66	0xbe93406a	-0.28760082
67	0xbe7dca3e	-0.2478418
68	0x3debb699	0.11509437
69	0xbe76284e	-0.24038813
70	0x3e4fde09	0.20299543
71	0x3db304df	0.087411635
72	0xbdd5c10c	-0.104372114
73	0xbd563338	-0.05229494
74	0xbd77d12a	-0.06050221
75	0xbd934ad4	-0.07192007
76	0xbe71744b	-0.23579518
77	0x3d0c6c9d	0.03428327
78	0x3e92e88c	0.28693044
79	0x3ddb5089	0.1070872
80	0x3daac868	0.08339006
81	0x3ed48334	0.4150635
82	0x3e7d86b3	0.24758415
83	0x3e0b47a6	0.1360155
84	0x3e45eb22	0.19327977
85	0x3ec5ecbf	0.38657185
86	0xbdaee552	-0.08539833
87	0xbe589c24	-0.21153313
88	0x3ea0d252	0.31410462
89	0x3d0c94b2	0.034321494
90	0x3e2c61cd	0.16834183
91	0xbe7573c0	-0.23969936
92	0xbe2d8448	-0.16944993
93	0x3e862d01	0.2620621
94	0x3edd6a90	0.43245363
95	0xbe54cac8	-0.2078048
96	0xbd30170b	-0.042990725
97	0xbc8870bb	-0.016655317
98	0x3d2406fd	0.040045727
99	0x3e97e885	0.29669586
100	0x3dafa94a	0.08577211
101	0xbe5dff03	-0.2167931
102	0xbd574262	-0.052553542
103	0xbcdb903b	-0.026802173
104	0x3e8306e7	0.25591204
105	0x3dcd3d24	0.10021427
106	0xbd719c14	-0.05898674
107	0x3d88df95	0.0668327
108	0xbdc16cb4	-0.094445616
109	0xbc3356cf	-0.01094599
110	0x3e0e49ab	0.1389529
111	0x3e440536	0.19142613
112	0x3e601e67	0.21886598
113	0x3e14bddc	0.1452555
114	0xbe1cb338	-0.15302742
115	0x3dde4843	0.108536266
116	0xbd617a3b	-0.05504821
117	0xbc8635bd	-0.016383046
118	0x3e0bf10f	0.13666175
119	0xbe867b5b	-0.26265988
120	0x3e082352	0.13294724
121	0x3ce35231	0.027749153
122	0xbd7abbf8	-0.061214417
123	0xbc9080e0	-0.017639577
124	0x3aab9354	0.0013090172
125	0x3c8c3293	0.01711396
126	0xbec60655	-0.38676706
127	0xbe558bc6	-0.208541
128	0x3e492b5c	0.19645447
129	0xbe1d1a96	-0.15342173
130	0x3e8e7f84	0.27831662
131	0x3e34a870	0.17642379
132	0xbd969179	-0.073519655
133	0xbd7b3730	-0.061331928
134	0x3e466227	0.1937338
135	0xbd1aae21	-0.03776372
136	0xbe251ce2	-0.16124299
137	0x3dda2215	0.10651032
138	0x3ec227b7	0.37920925
139	0x3c1a15e0	0.0094046295
140	0x3c4f6d10	0.01266028
141	0xbd9324af	-0.07184731
142	0x3e6adb6f	0.2293527
143	0xbdf376ec	-0.11887917
144	0xbeb145a4	-0.34623444
145	0xbe2eb4b1	-0.17061116
146	0x3e33eea0	0.17571497
147	0xbe22116e	-0.15826961
148	0x3e303c0a	0.17210403
149	0x3d87d83b	0.066330396
150	0x3e904dcb	0.2818435
151	0x3e2edf53	0.17077379
152	0xbcd96290	-0.026536256
153	0x3e168c70	0.1470201
154	0x3e32d9e7	0.17465936
155	0x3e89bff0	0.2690425
156	0x3db0b13c	0.08627555
157	0xbd1c2642	-0.038122423
158	0xbea01f75	-0.31274
159	0xbddf089e	-0.108903155
160	0xbe9b3de8	-0.30320668
161	0x3c47ae2b	0.012187521
162	0x3d993eb9	0.074826665
163	0xbe7ccb50	-0.24686933
164	0xbdaecd51	-0.08535255
165	0x3e0d418b	0.13794534
166	0xbdae7f34	-0.08520356
167	0x3bc91299	0.00613625
168	0x3e3b1f0d	0.18273564
169	0xbd0c86c6	-0.034308217
170	0x3f1b3e47	0.606419
171	0xbca61ef9	-0.02027844
172	0xbe81c82f	-0.2534804
173	0xbcc99b13	-0.024610078
174	0x3c032e43	0.008006635
175	0xbe4e637a	-0.20155135
176	0x3e457e59	0.19286479
177	0xbcecbc91	-0.02889851
178	0xbde34de5	-0.110988416
179	0xbefdb241	-0.4955006
180	0xbdbf30be	-0.09335469
181	0xbb9e36b3	-0.004828298
182	0xbe845ffb	-0.25854477
183	0x3d28025b	0.04101787
184	0x3e853a1c	0.26020896
185	0xbd4ec830	-0.050483882
186	0x3e5d514a	0.2161304
187	0xbcd6da34	-0.026227094
188	0xbe86c102	-0.26319128
189	0x3e1de4fb	0.1541938
190	0xbe9ed29d	-0.3102006
191	0x3e800ec0	0.25011253
192	0xbd006fef	-0.03135675
193	0x3dba0491	0.09082902
194	0xbd4a241f	-0.049350854
195	0x3ee6c91f	0.45075318
196	0xbc034719	-0.0080125565
197	0xbdb4c9a2	-0.08827521
198	0x3e612952	0.21988419
199	0xbe65a829	-0.2242743
200	0x3eb0aacb	0.34505305
201	0xbeaf444a	-0.34231788
202	0x3dde257d	0.10846994
203	0x3ea79dca	0.3273757
204	0x3da40f64	0.08010748
205	0xbe34a838	-0.17642295
206	0xbe0a6802	-0.13516238
207	0x3e144fb6	0.14483532
208	0x3db50cfe	0.08840369
209	0x3e06045c	0.130876
210	0x3db70183	0.08935835
211	0x3da991be	0.08279751
212	0x3d8dc420	0.069221735
213	0x3e6366a3	0.22207122
214	0xbe89c875	-0.2691075
215	0xbe751201	-0.23932649
216	0x3d66d622	0.056356557
217	0xbe557e8c	-0.20849055
218	0x3cf5c60c	0.030001663
219	0x3ef3d62b	0.47624335
220	0xbebf315b	-0.37342343
221	0xbe1c2d48	-0.15251648
222	0xbccf8830	-0.025333494
223	0x3d4e9d2a	0.050442852
224	0xbcfb8ca8	-0.030706719
225	0x3e854071	0.26025727
226	0xbe3478c5	-0.17624195
227	0xbd85af26	-0.065275475
228	0x3c1cc55a	0.009568537
229	0x3e0094ca	0.12556759
230	0x3dca6997	0.09883421
231	0x3bc12898	0.0058947317
232	0xbdb06e9c	-0.08614847
233	0xbcf6f34d	-0.030145312
234	0x3e910713	0.2832571
235	0x3e490006	0.19628915
236	0x3e22733c	0.15864271
237	0xbee73d2b	-0.45163855
238	0x3d10bc52	0.035335846
239	0xbd9d975e	-0.076948866
240	0xbcca0a0c	-0.024662994
241	0xbeaea72c	-0.34111917
242	0xbe351c77	-0.1768664
243	0xbd41ac6f	-0.047283586
244	0x3eb6ee8e	0.35728878
245	0xbe38cbc8	-0.18046486
246	0xbe431e8a	-0.19054618
247	0xbc20cd11	-0.009814517
248	0x3ea33c1e	0.31881803
249	0x3e3788e6	0.17923316
250	0xbd043b5a	-0.032283165
251	0xbec47a0e	-0.3837437
252	0x3d85e871	0.06538475
253	0xbe0b98ba	-0.1363248
254	0xbe7715fc	-0.2412948
255	0xbba6f989	-0.005095665

actor_mean.0.bias f4 [64]
0	0xbd2c58e9	-0.04207698
1	0xbdd28c7c	-0.102807015
2	0x3cf09f16	0.029372733
3	0x3d36971e	0.04457771
4	0x3c46c675	0.012132277
5	0x3cd3adfa	0.025839794
6	0x3d63cb86	0.055614017
7	0xbdfacfbd	-0.12246654
8	0xbde6ad70	-0.11263549
9	0xbcdb09a5	-0.026737997
10	0x3dd78eb8	0.10525268
11	0xbd93682d	-0.07197604
12	0xbd2c3e0a	-0.042051353
13	0x3c544081	0.012954832
14	0x3c1282bd	0.008942303
15	0x3cbeefe5	0.02330775
16	0x3b93a3cc	0.00450561
17	0xbc8faad0	-0.017537504
18	0x3cddbffd	0.027069086
19	0x3994e013	0.00028395708
20	0x3e1fff99	0.15624847
21	0x3c4f65f0	0.012658581
22	0xbd1cd5f7	-0.03828999
23	0x3d5ebd5b	0.054379802
24	0xbd973a8c	-0.07384214
25	0xbbf54c03	-0.007485868
26	0xbcdbc1a9	-0.026825743
27	0xbe0d0502	-0.13771442
28	0xbde53a15	-0.11192719
29	0x3c1c448a	0.009537825
30	0xbdbaedec	-0.09127411
31	0xbd880302	-0.06641199
32	0xbda2324e	-0.07919751
33	0x3d8f53da	0.06998415
34	0x3d8ae055	0.06781069
35	0xbdb918c7	-0.09037929
36	0xbd254ace	-0.040354542
37	0x3e56946e	0.20955059
38	0x3dacd798	0.08439559
39	0xbdcae87b	-0.099076234
40	0xbdcf7db5	-0.101313986
41	0x3c085a86	0.008322364
42	0xbd511e65	-0.051054377
43	0xbc863882	-0.016384367
44	0x3c9a210f	0.018814592
45	0x3deeb3ed	0.11655412
46	0xbcad74d2	-0.021173868
47	0x3ca21852	0.019786987
48	0xb9eaf22a	-0.00044812384
49	0x3cfcdff4	0.030868508
50	0xbe0fc47b	-0.14039795
51	0x3d59a516	0.053135954
52	0xbcb92e42	-0.022605065
53	0xbe046a21	-0.1293111
54	0x3db18b85	0.08669189
55	0xbcf042f6	-0.029328804
56	0xbdaa0694	-0.08302036
57	0xbd984f42	-0.07436992
58	0x3ddba1e2	0.10724236
59	0xbcb2c0ec	-0.021820508
60	0x3e058b92	0.13041523
61	0x3d12fcfa	0.03588579
62	0xbd9dc7dd	-0.077041365
63	0xbb2f8642	-0.0026782905

actor_mean.2.weight f4 [64, 64]
0	0x3e75fddd	0.24022622
1	0x3e6a7581	0.22896387
2	0xbdfd58cc	-0.12370452
3	0x3d4965a3	0.049169194
4	0x3e2b02a5	0.16700228
5	0x3e88385f	0.26605508
6	0x3e4bcd48	0.19902527
7	0xbe08028e	-0.13282225
8	0x3cb3bec7	0.021941556
9	0xbe3bcfba	-0.1834096
10	0x3dd62ee3	0.10458162
11	0xbd61ab7e	-0.05509519
12	0x3d9e2d62	0.077235
13	0xbe9bae96	-0.30406636
14	0xbe85bf17	-0.26122352
15	0xbe80c981	-0.25153735
16	0xbbe28a4f	-0.0069134603
17	0x3d239c04	0.03994371
18	0xbe810eac	-0.25206506
19	0xbd392550	-0.0452016
20	0xbe376082	-0.17907909
21	0x3d6ac4ef	0.057316717
22	0x3e6e8471	0.2329271
23	0xbc8a5160	-0.016884506
24	0x3da056f8	0.07829088
25	0x3ea2abae	0.31771606
26	0x3ead8407	0.3388979
27	0xbd3548ee	-0.044259004
28	0xba49f2cd	-0.00077037216
29	0x3e87ab48	0.26497865
30	0x3e81f7d7	0.253844
31	0x3dcf0f61	0.10110355
32	0xbde150fc	-0.11001775
33	0xbe164682	-0.14675334
34	0xbd6135ce	-0.054982953
35	0x3e317273	0.17328815
36	0xbe9b030e	-0.30275768
37	0x3e54d8f5	0.20785888
38	0x3e1af9eb	0.15134399
39	0xbcfbb8d5	-0.030727783
40	0x3e823bc1	0.25436214
41	0x3d974a32	0.073871985
42	0x3df78d3c	0.12087485
43	0x3d9075b7	0.07053702
44	0x3dfc42f3	0.12317457
45	0xbe85dbb7	-0.26144192
46	0x3e101ef1	0.14074303
47	0xbe27bc7c	-0.16380495
48	0xbc0a6a75	-0.008448233
49	0x3e40b2c8	0.188182
50	0xbe5d3052	-0.21600464
51	0xbe5d5a0f	-0.21616386
52	0x3e0f8299	0.14014663
53	0x3e193bdc	0.14964241
54	0x3ed9bb95	0.42525926
55	0xbbffef6a	-0.007810523
56	0x3d036ca6	0.032086037
57	0x3df69543	0.12040188
58	0x3e26b2dd	0.16279168
59	0x3e46e24d	0.19422264
60	0xbeb3eb65	-0.3514053
61	0x3e24f5f9	0.16109456
62	0x3e8ea282	0.2785836
63	0xbd38aa80	-0.045084476
64	0xbe228f58	-0.15874994
65	0x3de5eca6	0.11226778
66	0xbe2f755d	-0.17134614
67	0x3eaf81a8	0.34278607
68	0x3de88357	0.11353176
69	0x3e42bfe9	0.1901852
70	0xbd827d88	-0.063715994
71	0x3e053492	0.13008335
72	0x3e2ab315	0.16669877
73	0x3ec4cd28	0.38437772
74	0xbdbff818	-0.09373492
75	0x3e8b5a96	0.2721755
76	0xbe209fa4	-0.15685898
77	0x3e4e7bd3	0.20164423
78	0xbe864e21	-0.26231483
79	0x3e8d25be	0.27567858
80	0x3ddbf75f	0.10740542
81	0x3d561674	0.052267507
82	0x3d8f2e35	0.06991235
83	0xbda1504d	-0.07876644
84	0xbe88f290	-0.2674756
85	0xbe5463fa	-0.20741263
86	0xbdbadf13	-0.09124579
87	0xbdead494	-0.11466327
88	0x3dcaeb44	0.099081546
89	0x3db0daaa	0.08635457
90	0x3e2f994d	0.17148323
91	0x3e8dbc2c	0.27682626
92	0xbdef3f46	-0.1168199
93	0xbdc38b35	-0.09548036
94	0xbe374e91	-0.17901064
95	0xbd017c52	-0.0316127
96	0xbe64f13b	-0.22357647
97	0x3d4ae75c	0.049537048
98	0xbe2e0e38	-0.16997612
99	0x3e042fe8	0.129089
100	0xbda1c91c	-0.07899687
101	0xbd0cf0bc	-0.03440927
102	0xbe7d34cc	-0.24727172
103	0x3ee97c41	0.4560261
104	0x3dc9ffc2	0.09863235
105	0x3e335266	0.17511901
106	0xbe215d06	-0.15758142
107	0xbe128232	-0.14307478
108	0x3da7dee9	0.081968136
109	0xbea76f5d	-0.3270215
110	0x3e4e90a8	0.2017237
111	0x3e1a3454	0.15059024
112	0x3de1281c	0.109939784
113	0xbe9be30d	-0.30446663
114	0xbdaf7be5	-0.08568553
115	0x3c9c3742	0.019069318
116	0x3e86df75	0.2634236
117	0x3e83649a	0.2566269
118	0x3d8ced66	0.06881218
119	0xbe633425	-0.2218786
120	0x3e901d10	0.28147173
121	0xbdc00d9b	-0.09377595
122	0xbce49ac7	-0.027905835
123	0x3e0dc417	0.13844334
124	0xbe268d82	-0.16264918
125	0x3bbdbcf1	0.005790346
126	0x3e5b6684	0.21425825
127	0x3db2c2d8	0.0872857
128	0xbe05c040	-0.13061619
129	0x3e1b1880	0.15146065
130	0x3e32f9f6	0.17478165
131	0xbe57b08e	-0.21063444
132	0x3da42f02	0.080167785
133	0x3e5aeb0f	0.2137873
134	0x3da9368d	0.08262358
135	0xbe4eda09	-0.20200361
136	0x3d0e8646	0.034796022
137	0xbe90c001	-0.28271487
138	0xbdd3751d	-0.10325072
139	0xbe1c9e87	-0.15294848
140	0xbc44abdf	-0.012003868
141	0x3a931652	0.0011221862
142	0xbe9ae6b9	-0.30254152
143	0x3d7f0bfd	0.062267292
144	0xbbf478b7	-0.0074606794
145	0xbf0c94f8	-0.5491481
146	0xbd90a4d5	-0.07062689
147	0xbe7ec24f	-0.2487881
148	0x3e135d29	0.14391007
149	0x3eae46e4	0.3403846
150	0x3e74b3e5	0.2389675
151	0x3e8b8fd2	0.27258164
152	0xbe08999d	-0.13339849
153	0xbe6dc795	-0.23220666
154	0x3e0d8767	0.13821183
155	0xbd41146d	-0.04713862
156	0xbd954ea7	-0.07290392
157	0x3e192bc7	0.14958106
158	0xbe21250b	-0.15736787
159	0xbea6db72	-0.32589298
160	0x3e5ebab6	0.21750912
161	0x3d65ba09	0.05608562
162	0x3c8d26b7	0.017230375
163	0xbe889514	-0.26676238
164	0x3e246169	0.16052784
165	0xbdf50ed5	-0.119657196
166	0x3e037e86	0.12841234
167	0x3dcea009	0.10089118
168	0xbe8253d0	-0.2545457
169	0x3e587164	0.21137005
170	0x3e20b093	0.15692358
171	0xbec6623f	-0.3874683
172	0x3e0f7b5c	0.14011902
173	0xbe1bf4ba	-0.15230075
174	0x3e36d0f1	0.17853142
175	0x3e18ec9c	0.1493401
176	0x3e838a93	0.2569166
177	0xbedcefce	-0.43151706
178	0x3d78d328	0.06074825
179	0x3ca1c366	0.019746494
180	0x3e6f040c	0.23341388
181	0x3d9eaf6a	0.07748301
182	0xbdc1ad4f	-0.09456884
183	0x3e41228a	0.18860832
184	0x3dde4f34	0.108549505
185	0xbce1c4d2	-0.027559672
186	0xbe041956	-0.1290029
187	0x3d3494de	0.044087283
188	0xbd73d631	-0.05953044
189	0x3c8f32a2	0.017480198
190	0x3bc28631	0.005936407
191	0x3b49739d	0.0030739077
192	0xbe5ea40a	-0.21742263
193	0xbd1e1af1	-0.038599912
194	0x3d56c99f	0.052438375
195	0x3e9befc7	0.30456373
196	0x3df3a19b	0.11896058
197	0xbccf0274	-0.025269724
198	0xbea1cbe4	-0.3160087
199	0xbe511026	-0.20416316
200	0xbd5556e1	-0.052084807
201	0xbe857095	-0.26062456
202	0xbd944be1	-0.07241035
203	0x3e5e448e	0.21705839
204	0x3ed15e9d	0.40892497
205	0x3ea80f6f	0.32824275
206	0xbcceb132	-0.025230978
207	0xbe86bf34	-0.2631775
208	0xbe34a497	-0.17640911
209	0xbdc49a3d	-0.09599731
210	0x3e7b18f3	0.24521236
211	0xbe8291e2	-0.25501925
212	0xbd8408bd	-0.06446979
213	0xbe1ca54c	-0.15297431
214	0x3d94cfb7	0.07266181
215	0xbe477c74	-0.19481069
216	0xbd88bbaf	-0.06676423
217	0x3dc412b7	0.09573882
218	0x3dca92ba	0.09891267
219	0x3d2fe057	0.042938557
220	0x3d87740c	0.06613931
221	0xbe2b006a	-0.16699377
222	0x3dc1f7d7	0.094711
223	0x3db00324	0.08594349
224	0x3c9a8ae1	0.01886505
225	0xbe23861f	-0.15969132
226	0xbde22437	-0.11042064
227	0x3e3f99e3	0.18711047
228	0x3d22630f	0.03964525
229	0xbecc5d1d	-0.3991479
230	0x3c7d95fb	0.015477653
231	0xbe3a1a20	-0.18174028
232	0xbda645ad	-0.08118758
233	0x3e479574	0.19490606
234	0x3c8b65c3	0.017016297
235	0x3e43cc49	0.19120897
236	0xbe92cce1	-0.28671935
237	0xbe18b6df	-0.1491351
238	0x3dfe5e12	0.12420286
239	0xbe357f93	-0.17724447
240	0x3cda13e6	0.026620816
241	0xbdd775d0	-0.10520518
242	0xbe495393	-0.19660787
243	0xbec7607e	-0.38940805
244	0x3e0ac156	0.13550314
245	0xbdaff96d	-0.08592496
246	0xbe1471ea	-0.1449658
247	0x3b69eb20	0.0035693124
248	0xbe931477	-0.2872655
249	0x3d1f9d92	0.03896863
250	0xbd80a0f8	-0.06280702
251	0xbdc9db7f	-0.09856319
252	0xbd3c64ba	-0.045994498
253	0xbf08403d	-0.5322302
254	0xbdbeec4f	-0.09322416
255	0x3dea19e4	0.114307195

actor_mean.2.bias f4 [64]
0	0x3ba96982	0.005170048
1	0xbdda9b20	-0.10674119
2	0xbe03dbbc	-0.12876791
3	0xbde63a64	-0.11241606
4	0xbdd51de7	-0.10406094
5	0xbd2b3f11	-0.04180819
6	0xbd4c31c5	-0.04985215
7	0x3db07e1e	0.08617805
8	0x3e0fd34a	0.14045444
9	0x3d87ba1a	0.06627293
10	0xbd7ade3d	-0.0612471
11	0x3d91cd4d	0.07119236
12	0x3d7f621f	0.062349435
13	0xbab510e5	-0.0013814239
14	0xbd322386	-0.04349091
15	0x3db126df	0.08649992
16	0xbc367c9a	-0.011138106
17	0xbde6e5a9	-0.11274273
18	0xbdcc56b0	-0.09977472
19	0xbe26741b	-0.16255228
20	0x3d097f23	0.033568513
21	0x3c8f7256	0.017510574
22	0xbc5c5460	-0.013447851
23	0x3a6628d3	0.0008779887
24	0xbd4a986f	-0.04946178
25	0xbcf659da	-0.030072141
26	0x3ddeb127	0.10873633
27	0x3d9e8705	0.07740597
28	0xbdc5eade	-0.09663938
29	0x3ce3e11c	0.027817301
30	0x3d15ea1f	0.03660023
31	0xbac4f6b6	-0.0015027139
32	0xbb9746ef	-0.0046166102
33	0x3c9fe0f8	0.019516453
34	0x3c92eb14	0.01793436
35	0x3d0f4410	0.03497702
36	0xbac657cf	-0.001513237
37	0x3d053703	0.032523166
38	0x3dcc1f0b	0.099668585
39	0xbdb8b265	-0.09018401
40	0x3d1a84ff	0.03772449
41	0xbd591881	-0.053001884
42	0xbc174359	-0.0092323655
43	0x3cc6ec85	0.024282703
44	0x3bb3cca7	0.005487043
45	0x3e259eaa	0.16173807
46	0x3c85e4cb	0.016344449
47	0x3db344f1	0.08753384
48	0x3e409d2d	0.18809958
49	0xbc1d47be	-0.009599624
50	0x3af2ed7d	0.0018533912
51	0x3d8afd41	0.067865856
52	0x3d49675c	0.049170837
53	0x3d8d3230	0.06894338
54	0x3d5e20e9	0.054230604
55	0x3d30dfed	0.043182302
56	0x3dab6ef1	0.0837077
57	0x3bad5c13	0.005290517
58	0x3df14559	0.11780805
59	0xbd5e476e	-0.05426734
60	0xbd01f58e	-0.03172832
61	0xbd29b03b	-0.041427832
62	0x3c7f317c	0.015575763
63	0xbd258867	-0.040413287

actor_mean.4.weight f4 [6, 64]
0	0x3c0fea92	0.008783953
1	0xbd482f1d	-0.048873056
2	0xbc832e35	-0.016013244
3	0xbc2f0e1f	-0.010684519
4	0xbbaa38a9	-0.0051947427
5	0x3c7e970a	0.01553894
6	0xbc8ca858	-0.017170116
7	0x3d621819	0.055198763
8	0x3d7f7445	0.062366743
9	0xbcb1fae1	-0.021726074
10	0xbca22725	-0.019794056
11	0x3d1f9d2a	0.038968243
12	0xbbc6d15b	-0.0060674376
13	0x3d4dd488	0.050251514
14	0x3d4f8407	0.05066302
15	0x3d094966	0.033517264
16	0x3beda429	0.0072522354
17	0xbcf78b2b	-0.030217728
18	0xbd6bf3b7	-0.05760547
19	0xbc221b12	-0.009894149
20	0x3d4986c5	0.049200792
21	0x3d25c959	0.040475223
22	0x3d03fcbc	0.03222345
23	0x3cc05b77	0.023481114
24	0xbb7c43ea	-0.0038492628
25	0xbdb3251a	-0.08747311
26	0x3d31ccd6	0.043408237
27	0x3cb338d0	0.021877676
28	0xbd4ba868	-0.04972115
29	0xbc2e537a	-0.01064002
30	0xbda8f687	-0.08250146
31	0xbce06b65	-0.02739496
32	0x3c180d43	0.009280506
33	0x3c8e22d8	0.0173506
34	0x3c944f05	0.018104086
35	0xbbddcd8c	-0.006768888
36	0x3c9aa897	0.018879218
37	0x3d85d67e	0.06535052
38	0x3d9fc341	0.078009136
39	0xbd44d6ea	-0.04805652
40	0x3d2c50af	0.042069133
41	0x3a9db7eb	0.0012032961
42	0xbc8c9106	-0.017158996
43	0x3d3aec5d	0.04563557
44	0x3bbd4693	0.0057762354
45	0x3cb87337	0.022515876
46	0x3d0893be	0.033344023
47	0x3ce4cdb4	0.027930118
48	0x3d854fe6	0.0650938
49	0xbe0020df	-0.1251254
50	0x3cf35b7a	0.029706705
51	0xbb1e1ddf	-0.0024126691
52	0x3d8278c6	0.06370692
53	0x3cbbd25d	0.022927457
54	0x3be5be0b	0.0070111803
55	0xbd5b7d11	-0.05358607
56	0xbd052e7c	-0.032515034
57	0xbc1b94c5	-0.009495919
58	0xbc785c02	-0.015158655
59	0x3c439ca1	0.011939199
60	0xba5f02b2	-0.00085071765
61	0xbc2fd07c	-0.010730859
62	0xbdc6eb07	-0.09712797
63	0xbb5c9b08	-0.0033661742
64	0x3d36fa2b	0.044672173
65	0x3d2343f8	0.039859742
66	0xbc52dd4a	-0.012870142
67	0xbd6b5d26	-0.05746188
68	0xbdafb4d8	-0.08579415
69	0xbdf3ab50	-0.1189791
70	0xbd5e68e4	-0.05429925
71	0x3d954089	0.072877
72	0x3db886a1	0.090100534
73	0x3dbf7d49	0.09350068
74	0xbd0c6bea	-0.034282602
75	0x3d192e0e	0.037397437
76	0xbaf302ef	-0.0018540303
77	0xbd8d4071	-0.06897057
78	0xbdafe547	-0.08588653
79	0x3cd50fbb	0.026008477
80	0xbce8fd8b	-0.028441211
81	0xbb344313	-0.00275058
82	0xbd29d931	-0.041466895
83	0xbca05489	-0.01957156
84	0xbc210d74	-0.009829868
85	0xbdfdf97d	-0.12401102
86	0x3d56cf6d	0.05244391
87	0x3d00bcbf	0.031430002
88	0x3d0e1c8b	0.03469519
89	0xbd8cf740	-0.06883097
90	0x3dca1421	0.098671205
91	0x3d632b82	0.055461414
92	0xbcde1aab	-0.027112326
93	0xbd0d26d9	-0.034460876
94	0xbd19f52a	-0.037587322
95	0x3d71148a	0.05885748
96	0x3dd24054	0.10266176
97	0x3c2ae360	0.010430187
98	0x3c0e4020	0.008682281
99	0x3d1ca0e7	0.038239386
100	0x3d9f1c03	0.07769015
101	0x3d1d695c	0.038430557
102	0x3bf75ad8	0.007548671
103	0x3c508faa	0.012729565
104	0xbdc31512	-0.09525503
105	0xbce8c6e4	-0.028415151
106	0xbdc421ec	-0.095767826
107	0x3bf21ba8	0.007388551
108	0xbc82f1a8	-0.015984371
109	0x3e0acc78	0.13554561
110	0xbdb6899c	-0.08912966
111	0x3ceb9cef	0.028761355
112	0x3de8fa65	0.11375884
113	0xbdbcdc1e	-0.092216715
114	0xbd8b2ca8	-0.06795627
115	0xbd254cd8	-0.040356487
116	0x3d5faf73	0.05461068
117	0x3cae9833	0.021312809
118	0xbd8b62bd	-0.06805942
119	0x3d945e8d	0.07244597
120	0x3db45559	0.08805341
121	0x3d0d5b36	0.034510814
122	0x3b95834b	0.0045627705
123	0x3c208cf8	0.009799235
124	0xbd232266	-0.039827727
125	0xbd244383	-0.040103447
126	0xbd86f0a9	-0.06588871
127	0xbdcd7e35	-0.10033838
128	0xbd75972a	-0.059958614
129	0xbd8e6a04	-0.069538146
130	0x3dc2d1fd	0.09512708
131	0x3d1311a3	0.03590549
132	0xbdb4ef40	-0.08834696
133	0x3cdd5358	0.02701728
134	0x3c264c28	0.010149993
135	0x3dec6611	0.11542905
136	0xbd30517b	-0.043046456
137	0x3cce56f6	0.02518795
138	0xbd4d768d	-0.050161887
139	0x3d41267e	0.04715585
140	0xbd95a993	-0.07307734
141	0x3db8b6df	0.09019255
142	0x3b2a337e	0.0025970633
143	0xbd8ea697	-0.06965368
144	0xbd26001f	-0.04052746
145	0xbc280ec3	-0.010257426
146	0xbd39e967	-0.045388605
147	0x3cd70385	0.026246795
148	0xbccb9ca0	-0.024854958
149	0xbcc1d26c	-0.023659907
150	0xbc9ee7d4	-0.019397654
151	0xbe39317c	-0.18085283
152	0x3d666d26	0.056256436
153	0xbc91a5f3	-0.017779326
154	0xbcef6a39	-0.029225456
155	0xbb1719d9	-0.0023056178
156	0x3b8f51fe	0.004373788
157	0x3dccaec0	0.099942684
158	0xbd74a0a2	-0.059723504
159	0x3d4e87ea	0.050422587
160	0xbcbb2277	-0.022843583
161	0x3dd2036b	0.10254558
162	0x3b29fb80	0.002593726
163	0xbd823b0b	-0.06358918
164	0x3dc49711	0.09599126
165	0x3d97fa56	0.07420795
166	0xbd3ffdec	-0.04687302
167	0x3cc83fbc	0.024444453
168	0x3cc00385	0.023439178
169	0xbe023c63	-0.12718348
170	0x3c481273	0.01221143
171	0xbe1d3082	-0.15350536
172	0xbd1456ff	-0.03621578
173	0xbd0b5d6a	-0.034024633
174	0xbd1d466e	-0.038397245
175	0x3dd76a9e	0.105183825
176	0x3d16a405	0.036777515
177	0xbdd4855b	-0.10376998
178	0x3d8855bc	0.066569775
179	0x3c8ab86e	0.016933646
180	0xbd5d9042	-0.054092653
181	0xbd9db5e3	-0.07700708
182	0x3dc4daf1	0.09612072
183	0x3d3a1649	0.04543141
184	0xbcd7fe94	-0.02636651
185	0xbd5c4e2a	-0.05378548
186	0xbd090727	-0.033454087
187	0xbda41831	-0.08012427
188	0x3d06d696	0.03291949
189	0xbc1136a8	-0.008863129
190	0x3c9d0fc0	0.01917255
191	0xbd002609	-0.031286273
192	0x3d3a2e5e	0.045454375
193	0xbc7509d5	-0.014955957
194	0x3cd1d512	0.025614295
195	0xbd074e76	-0.03303381
196	0xbd86ce61	-0.065823324
197	0xbcdd4be2	-0.027013723
198	0x3b79c8be	0.0038114036
199	0x3db79525	0.08963994
200	0xbad234c3	-0.0016037453
201	0xbd7dbaa8	-0.061945587
202	0x3d5fcb36	0.054637156
203	0x3db3623e	0.087589726
204	0xbc9076a2	-0.017634694
205	0xbc87115a	-0.016487766
206	0x3d0331b8	0.032029837
207	0x3d95a9aa	0.073077515
208	0xbd464731	-0.048407737
209	0xbdc4633e	-0.095892414
210	0xbd678946	-0.0565274
211	0xbd7d9c8a	-0.061916865
212	0x3d823d94	0.06359401
213	0xbafbba65	-0.001920533
214	0xbd0dedb7	-0.03465053
215	0x3d203102	0.039109237
216	0xbcdbb628	-0.026820257
217	0xbd498e15	-0.049207766
218	0xbcbfe3d2	-0.023424063
219	0x3d739c35	0.059475143
220	0xbdc4adcd	-0.09603462
221	0x3ca5a43c	0.020219915
222	0xbd535578	-0.05159518
223	0xbdabff51	-0.08398307
224	0xbd576ab2	-0.052591987
225	0xbc9c5fed	-0.01908871
226	0x3ce8186a	0.028331954
227	0x3d9ff17b	0.078097306
228	0x3d8dc123	0.069216035
229	0x3dcdf934	0.10057297
230	0x3c017827	0.007902182
231	0x3d4ce3ed	0.050022054
232	0xbc57d1b8	-0.013172559
233	0xbb9c2572	-0.004765206
234	0xbd4797df	-0.04872882
235	0x3d03e5a4	0.032201424
236	0xbd82b5b7	-0.063823156
237	0x3ba2606c	0.004955342
238	0xbd5f4363	-0.054507624
239	0x3d062c59	0.032757137
240	0x3d15234d	0.03641062
241	0xbdac5d42	-0.08416225
242	0x3bb80808	0.005616192
243	0xbd5ed2d5	-0.054400284
244	0x3d52d436	0.05147191
245	0x3c28df34	0.010307122
246	0xbd48107e	-0.048843853
247	0x3ccc8ea9	0.02497037
248	0x3d4c4f68	0.049880415
249	0xbd255493	-0.04036386
250	0xbba6a5f0	-0.0050856993
251	0x3cb1058c	0.02160909
252	0xbd4257f3	-0.047447156
253	0xbd86a970	-0.065752864
254	0xbd9bdc73	-0.07610407
255	0xbc75f7e8	-0.015012719

actor_mean.4.bias f4 [6]
0	0x3d2e6e46	0.042585634
1	0x3ced496a	0.02896567
2	0xbc2384f7	-0.009980432
3	0xbc0ce3db	-0.008599247
4	0x3b7a49ba	0.0038190917
5	0xbd94efab	-0.072722755
